Pytorch face detection - Test/MTCNN_train_process/1/best_model_7491.pth (torch, 31537 bytes, 12 tensors)

conv1.weight f4 [10, 3, 3, 3]
0.22505341 0.05839615 -0.33343574 0.3233311 -0.03099273 -0.123122685 0.24138165 -0.05389541
-0.11549666 0.13003047 -0.17839755 0.010008889 0.036455315 0.033690114 -0.22778116 0.15766467
0.016915368 -0.23119518 0.08564363 -0.04275348 -0.2514174 0.29679593 -0.13145958 -0.065250464
0.18267162 0.08243258 -0.23783989 -0.018716054 -0.22921404 0.18898977 0.19557695 0.1201387
-0.22253142 0.07076673 -0.011726499 -0.19789977 -0.13480756 0.0014269362 0.3049886 0.0922004
-0.10169232 0.31544837 -0.094513655 0.0773535 0.2499529 0.0035997608 0.055243324 0.11799744
0.13120618 -0.260556 -0.083818085 -0.1958966 -0.21863754 0.039471544 0.31699967 0.3348594
0.34749153 0.27807465 -0.11424399 0.23028252 -0.11741414 -0.14177464 0.13380603 0.13679373
-0.12960039 0.053556796 -0.018891651 0.061799325 -0.09491951 0.032866474 0.019609686 -0.04537933
0.10488593 0.15365037 0.08127886 -0.079232484 -0.033622 -0.07389973 0.05268239 0.069199346
0.00073498377 0.22313863 0.35771388 0.13162671 -0.019459553 0.26255593 0.065230414 0.1701682
0.15041369 0.06338066 -0.23928984 -0.082402855 -0.23456025 -0.11089959 -0.21970303 0.060592268
-0.032394696 -0.14695996 -0.1462966 -0.106501974 -0.18274339 0.12985128 0.061095603 -0.19208509
0.013248406 0.09084718 -0.027996099 -0.025125017 -0.22473177 -0.24286917 -0.37883452 0.24030796
0.18795358 -0.057887137 0.023475543 0.21261106 0.2246013 -0.05106079 -0.1961623 -0.10263447
0.14273131 0.09782509 0.06795162 0.06692213 -0.064897515 -0.025681157 -0.053571954 -0.21426485
-0.09425939 0.21849217 0.12852784 -0.02165207 -0.0017504786 0.095398106 -0.06539855 -0.32124418
-0.11406943 0.15549363 -0.017591184 0.16783272 0.08165417 0.17353731 0.1729752 0.22196113
-0.19342867 -0.18643728 -0.069191195 -0.08005363 -0.05366292 0.19148712 -0.09816974 -0.0034794642
-0.11363329 -0.048307754 -0.13898581 -0.0465902 -0.13060813 0.12007363 0.2350928 0.032989938
0.19642885 -0.017413234 -0.2751629 0.07049327 0.07882971 -0.41891515 0.24729533 0.060464647
-0.2664935 -0.09166478 0.09906346 -0.033559747 -0.011106888 0.15609808 0.14796206 0.073718406
0.023613056 0.09200876 0.058028255 0.0025812443 0.02914604 -0.08724627 -0.04001006 -0.170627
-0.02670276 0.075013205 0.065586604 -0.04753159 -0.08605662 0.15559559 -0.17737707 0.24284242
0.14688633 -0.16219634 0.047492214 0.06499081 -0.11715687 0.1468739 0.039993607 -0.36565137
0.07793707 0.10133685 -0.12234121 0.01833763 -0.01178296 -0.059725415 0.13473555 0.07745424
-0.3573258 0.07764019 0.07556344 0.026652124 0.1918387 0.16011916 -0.06041952 -0.063861996
0.04418941 0.14089067 0.1453883 0.057527713 -0.06667151 0.05308121 0.11298164 -0.15179777
0.0295505 -0.123987235 -0.40735692 -0.26240003 -0.21790119 -0.122028396 -0.24823493 0.03148266
0.08645696 -0.14714997 0.13937287 -0.055878717 0.1328946 -0.015135708 0.346808 0.15107231
-0.06812179 0.096992515 0.14972308 -0.31915018 -0.096440464 -0.22882193 0.030627564 -0.06795374
0.038552605 -0.09022486 -0.1463854 -0.16730179 0.087199666 0.1871393 0.29005435 0.22046739
00000000: 6774 663e cd30 6f3d 17b8 aabe a78b a53e
00000010: 77e4 fdbc bf27 fcbd c02c 773e 6fc1 5cbd
00000020: 8389 ecbd b526 053e d9ad 36be 53fc 233c
00000030: 2b52 153d a5fe 093d 773f 69be d972 213e
00000040: 1992 8a3c 6ebe 6cbe ed65 af3d 461e 2fbd
00000050: c8b9 80be a3f5 973e 579d 06be 09a2 85bd
00000060: 450e 3b3e 6ad2 a83d 4d8c 73be 6952 99bc
00000070: 16b7 6abe 8986 413e 5345 483e 470b f63d
00000080: 47df 63be 26ee 903d 8020 40bc 3da6 4abe
00000090: fe0a 0abe 0908 bb3a 7727 9c3e 90d3 bc3d
000000a0: 1044 d0bd 7382 a13e 6090 c1bd 836b 9e3d
000000b0: a7f3 7f3e f7e9 6b3b d346 623d a4a8 f13d
000000c0: ea5a 063e 9967 85be d1a8 abbd 1e99 48be
000000d0: 85e2 5fbe eaac 213d c84d a23e b172 ab3e
000000e0: 69ea b13e cd5f 8e3e c1f8 e9bd 2ecf 6b3e
000000f0: d376 f0bd 5f2d 11be 7304 093e a813 0c3e
00000100: f7b5 04be 5f5e 5b3d aac2 9abc 4a21 7d3d
00000110: 2965 c2bd ff9e 063d 7ea4 a03c addf 39bd
00000120: 6fce d63d 8656 1d3e 8875 a63d a444 a2bd
00000130: 39b7 09bd be58 97bd 7dc9 573d 63b8 8d3d
00000140: edab 403a 747e 643e 4626 b73e 27c9 063e
00000150: a469 9fbc bb6d 863e 8697 853d 9340 2e3e
00000160: 0c06 1a3e b8cd 813d 6508 75be d4c2 a8bd
00000170: 9030 70be 531f e3bd d5f9 60be 992f 783d
00000180: 4db0 04bd ac7c 16be c7ce 15be b51d dabd
00000190: 1521 3bbe bcf7 043e 623f 7a3d f4b1 44be
000001a0: d80f 593c 160e ba3d 1358 e5bc fbd2 cdbc
000001b0: 1620 66be b2b2 78be 99f6 c1be 4a13 763e
000001c0: e776 403e 101b 6dbd c84f c03c b7b6 593e
000001d0: e2fd 653e 1e25 51bd c5de 48be 0532 d2bd
000001e0: 2828 123e 8558 c83d 382a 8b3d 780e 893d
000001f0: fde8 84bd 4a61 d2bc 446e 5bbd 3f68 5bbe
00000200: 110b c1bd 69bc 5f3e cd9c 033e af5f b1bc
00000210: 5170 e5ba 1560 c33d adef 85bd 1e7a a4be
00000220: 3c9d e9bd b939 1f3e 631b 90bc 57dc 2b3e
00000230: 4d3a a73d c4b3 313e 6920 313e c749 633e
00000240: 2a12 46be 6ae9 3ebe 1db4 8dbd 28f3 a3bd
00000250: a6cd 5bbd 3315 443e 370d c9bd b907 64bb
00000260: 92b8 e8bd 5ade 45bd 4c52 0ebe 5ed5 3ebd
00000270: 23be 05be 2ae9 f53d 2bbc 703e 7520 073d
00000280: a524 493e 33a6 8ebc 27e2 8cbe c75e 903d
00000290: 7971 a13d 0c7c d6be fd3a 7d3e c7a9 773d
000002a0: d671 88be bfba bbbd c9e1 ca3d f275 09bd
000002b0: aaf9 35bc 2dd8 1f3e 5e83 173e adf9 963d
000002c0: 2b70 c13c 176f bc3d 09af 6d3d 182a 293b
000002d0: adc3 ee3c 2cae b2bd 97e1 23bd d8b8 2ebe
000002e0: bfbf dabc 86a0 993d 4552 863d 7cb0 42bd
000002f0: 743e b0bd 7354 1f3e 56a2 35be afab 783e
00000300: 5f69 163e cc16 26be 3287 423d e719 853d
00000310: f1ef efbd 1d66 163e 56d0 233d a836 bbbe
00000320: 789d 9f3d b289 cf3d 078e fabd cc38 963c
00000330: 510d 41bc a3a2 74bd 1ef8 093e 54a0 9e3d
00000340: 68f3 b6be d201 9f3d 01c1 9a3d 8e55 da3c
00000350: 5d71 443e 47f6 233e 757a 77bd 14ca 82bd
00000360: f4ff 343d a545 103e ace0 143e 2ea2 6b3d
00000370: 138b 88bd af6b 593d eb62 e73d e070 1bbe
00000380: e413 f23c 05ed fdbd 1691 d0be 4c59 86be
00000390: 7d21 5fbe 06ea f9bd 4c31 7ebe f6f3 003d
000003a0: 5910 b13d 7bae 16be c3b7 0e3e 15e1 64bd
000003b0: 8615 083e c3fb 77bc d190 b13e b3b2 1a3e
000003c0: 7083 8bbd 03a4 c63d 0251 193e a767 a3be
000003d0: 9482 c5bd 4c50 6abe a8e6 fa3c 552b 8bbd
000003e0: 56e9 1d3d d0c7 b8bd 0ee6 15be 2951 2bbe
000003f0: bd95 b23d 72a1 3f3e 0182 943e 34c2 613e

conv1.bias f4 [10]
0.11322821 0.089846954 0.23190625 0.055194736 0.05637045 -0.012348214 0.23946756 0.12751107
-0.0031436828 0.061273374
00000000: 31e4 e73d ae01 b83d d578 6d3e e013 623d
00000010: b3e4 663d 2a50 4abc fc36 753e 4392 023e
00000020: 3f06 4ebb caf9 7a3d

conv2.weight f4 [16, 10, 3, 3]
0.006147654 0.15287527 0.036902696 -0.015354733 0.04174809 -0.08522844 0.007155616 0.05624714
0.008276803 0.089506425 0.09025918 -0.11886399 0.14387 0.055849977 0.0013590842 0.06680488
-0.041325472 -0.14738318 -0.030626373 -0.04685079 0.0282727 -0.07259658 0.08321182 0.008709563
-0.023075392 0.12018838 -0.066118374 0.15348732 0.19086537 0.24116777 -0.046848163 0.024867482
-0.028156284 -0.1849463 -0.12771662 -0.06862664 0.19779153 0.10427495 0.11676777 0.04249262
0.08829606 -0.021860601 -0.062250964 0.073402956 0.0056997687 -0.2086709 -0.10384289 -0.05064062
-0.033334885 0.046697617 -0.093038425 -0.16815862 -0.037829585 -0.058484398 0.0021944516 0.1807351
-0.053625133 0.18472423 0.1785413 0.111207016 -0.004229545 0.23249951 0.1499343 0.027834984
-0.03072109 -0.010692443 -0.20767888 -0.15981606 -0.12976182 -0.098642394 -0.091239356 0.06252407
0.10633639 -0.12955818 -0.033981018 0.27522162 0.06322418 0.1220088 -0.0609547 -0.13036194
-0.06454194 -0.0065510287 0.04842067 -0.020415103 0.06067108 0.10842439 -0.01259625 0.060080998
0.158595 -0.08245158 -0.1492064 -0.20007649 -0.10808038 0.06414229 -0.012406089 -0.07909659
-0.13596536 -0.022770684 -0.09160914 0.1040536 0.16229336 0.16640487 -0.005376538 0.076092474
0.054956783 0.20163816 -0.0696774 0.013149015 0.20732449 0.13999078 0.12054169 -0.03994731
0.062909916 -0.052964546 0.019770987 0.013740622 -0.08864431 0.24456954 0.14407426 0.15488882
0.083824314 0.1461471 0.0760972 -0.38578552 -0.0063161575 0.024336603 -0.112132825 0.15142162
0.07322588 0.09710078 -0.084647365 -0.021901889 -0.11920618 0.13428131 -0.012685071 0.17087537
-0.16393615 -0.13220353 0.18220726 -0.0778401 -0.014616254 0.047764596 0.11862709 0.040190037
0.08592518 -0.14801173 -0.16852367 -0.02059868 0.24823374 0.018307714 -0.32659167 -0.12022424
-0.07625779 -0.2152095 -0.18633822 -0.08492739 -0.03185808 0.10793434 -0.0362929 0.053695425
0.21128996 0.081032164 0.27591097 0.16626465 0.13864787 -0.073321335 -0.083553396 -0.13388999
-0.50581074 0.12423331 0.14265084 0.021640351 -0.008054811 0.004593784 -0.0068012285 0.018647073
-0.053600542 -0.13096122 -0.008265968 -0.13997242 0.08840289 0.013196878 -0.0026981314 0.08353477
-0.047715303 0.048844542 -0.031018008 -0.05014644 0.13307536 -0.03461801 -0.08601659 -0.0023305633
-0.0022985768 -0.081710756 -0.0014786668 -0.14106771 -0.000110699046 0.002115177 0.08431363 0.14067744
0.042989854 -0.0064164116 0.06334116 0.10537749 0.07892462 -0.05179563 -0.052763935 -0.023840016
-0.02368478 -0.1101468 -0.101136096 -0.1184543 0.05687003 0.090597585 -0.09754158 -0.10150767
-0.048889495 -0.010126585 0.10116909 0.12529053 0.21526563 -0.07135779 0.09733724 -0.20794511
-0.3833422 0.066545114 -0.13727854 -0.24933474 0.16349107 0.15181348 0.17368066 -0.3745554
-0.035179343 0.15575658 0.02964423 -0.055437677 0.04283878 0.061211627 -0.05715693 -0.19437999
0.1940965 -0.07909543 -0.047744583 0.06238809 0.04183766 -0.033720154 0.06704707 0.1869564
-0.0052687083 -0.058739603 -0.050893042 0.025391473 0.09004893 0.056182582 0.27990994 -0.23050722
00000000: 4272 c93b 568b 1c3e 4827 173d 6b92 7bbc
00000010: 0c00 2b3d 408c aebd a879 ea3b 6763 663d
00000020: 6e9b 073c 254f b73d ced9 b83d f76e f3bd
00000030: a852 133e f2c2 643d 4c23 b23a ffd0 883d
00000040: e644 29bd 9eeb 16be 29e4 fabc 9de6 3fbd
00000050: 269c e73c 84ad 94bd f56a aa3d 8eb2 0e3c
00000060: 9b08 bdbc 5325 f63d 1269 87bd c82b 1d3e
00000070: 3672 433e aff4 763e dce3 3fbd e4b6 cb3c
00000080: 02a8 e6bc 9062 3dbe 25c8 02be 208c 8cbd
00000090: dd89 4a3e 1b8e d53d f123 ef3d be0c 2e3d
000000a0: 91d4 b43d 0115 b3bc defa 7ebd 4a54 963d
000000b0: 20c5 ba3b d3ad 55be 95ab d4bd 8a6c 4fbd
000000c0: 298a 08bd 0046 3f3d ee8a bebd c631 2cbe
000000d0: 32f3 1abd 568d 6fbd cad0 0f3b 9f12 393e
000000e0: 07a6 5bbd 5928 3d3e 88d3 363e 81c0 e33d
000000f0: ff97 8abb 5a14 6e3e 6188 193e 3106 e43c
00000100: ccaa fbbc 5b2f 2fbc c6a9 54be d2a6 23be
00000110: 48e0 04be 0605 cabd b3db babd 9f0c 803d
00000120: e5c6 d93d e6aa 04be ae2f 0bbd d9e9 8c3e
00000130: ae7b 813d c0df f93d a3ab 79bd 9a7d 05be
00000140: 912e 84bd 03aa d6bb c154 463d 933d a7bc
00000150: 3d82 783d 9b0d de3d 8060 4ebc 7e17 763d
00000160: ba66 223e 60dc a8bd 90c9 18be dae0 4cbe
00000170: 3f59 ddbd 085d 833d e942 4bbc 65fd a1bd
00000180: 813a 0bbe 9689 babc 939d bbbd 0e1a d53d
00000190: 3b30 263e 0a66 2a3e ab2d b0bb 5fd6 9b3d
000001a0: 5d1a 613d 3c7a 4e3e 06b3 8ebd f76e 573c
000001b0: df4c 543e be59 0f3e 90de f63d ca9f 23bd
000001c0: ead6 803d 5af1 58bd c4f6 a13c 5920 613c
000001d0: 268b b5bd 7070 7a3e 3488 133e 2d9b 1e3e
000001e0: 15ac ab3d 96a7 153e d9d8 9b3d ae85 c5be
000001f0: c5f7 cebb 8e5d c73c e5a5 e5bd 450e 1b3e
00000200: 73f7 953d c6dc c63d 995b adbd 976b b3bc
00000210: 5f22 f4bd 0a81 093e 0bd5 4fbc f4f9 2e3e
00000220: e1de 27be 5d60 07be 8a94 3a3e a16a 9fbd
00000230: 0379 6fbc cfa4 433d c2f2 f23d 4f9e 243d
00000240: 8af9 af3d 6390 17be 7891 2cbe 90be a8bc
00000250: fc30 7e3e 0ffa 953c 0637 a7be 2038 f6bd
00000260: 0b2d 9cbd e15f 5cbe 72cf 3ebe 69ee adbd
00000270: 9e7d 02bd ae0c dd3d dda7 14bd bcef 5b3d
00000280: 655c 583e 31f4 a53d 3444 8d3e 4841 2a3e
00000290: b5f9 0d3e 7f29 96bd 0b1e abbd 751a 09be
000002a0: d07c 01bf 096e fe3d 1013 123e 1b47 b13c
000002b0: 53f8 03bc 7487 963b d7dc debb bfc1 983c
000002c0: 3e8c 5bbd b31a 06be fc6d 07bc ee54 0fbe
000002d0: 930c b53d b837 583c 22d3 30bb 4714 ab3d
000002e0: 1f71 43bd 3711 483d 7a19 febc 5a66 4dbd
000002f0: e844 083e 9dcb 0dbd 7729 b0bd 5dbc 18bb
00000300: b8a3 16bb f857 a7bd d3cf c1ba 0e74 10be
00000310: 1927 e8b8 c89e 0a3b a0ac ac3d bf0d 103e
00000320: 2116 303d c340 d2bb 03b9 813d 27d0 d73d
00000330: 3ba3 a13d a827 54bd ff1e 58bd 234c c3bc
00000340: 9506 c2bc a594 e1bd 7120 cfbd 2b98 f2bd
00000350: 8cf0 683d 3a8b b93d e1c3 c7bd 41e3 cfbd
00000360: 5a40 48bd fae9 25bc bd31 cf3d 294c 003e
00000370: 986e 5c3e 0824 92bd bf58 c73d 90ef 54be
00000380: 6e45 c4be ce48 883d bf92 0cbe 9b51 7fbe
00000390: 346a 273e fe74 1b3e 58d9 313e bac5 bfbe
000003a0: 3718 10bd a77e 1f3e 75d8 f23c 9e12 63bd
000003b0: b777 2f3d 0bb9 7a3d 631d 6abd 8c0b 47be
000003c0: 3cc1 463e c9fc a1bd d38f 43bd a78a 7f3d
000003d0: f75d 2b3d 251e 0abd f94f 893d 8071 3f3e
000003e0: 21a5 acbb f098 70bd 3975 50bd c701 d03c
000003f0: 936b b83d b51f 663d 5b50 8f3e 160a 6cbe

conv2.bias f4 [16]
-0.002111864 -0.008157937 -0.0070856796 0.3615713 -0.033259485 0.17490277 -0.17649083 0.023871928
0.20545517 -0.18974152 0.19718029 0.17833422 0.071578674 -0.0850501 -0.04917095 0.25482786
00000000: 3367 0abb dea8 05bc fd2e e8bb e01f b93e
00000010: 193b 08bd b619 333e 03ba 34be 108f c33c
00000020: d762 523e 9a4b 42be a1e9 493e 3f9d 363e
00000030: d797 923d bf2e aebd 7a67 49bd cc78 823e

conv3.weight f4 [32, 16, 3, 3]
-0.044496655 0.016756287 -0.044769555 -0.019141506 -0.06492737 -0.023643484 0.06629708 0.0040384037
-0.033682764 -0.085430264 0.038791057 0.06674555 0.038887307 0.00525546 -0.077948034 -0.06918021
0.057559133 0.06964013 0.04517909 -0.025234073 0.044808503 -0.066986784 -0.07488885 -0.083418794
-0.010228277 0.065487735 0.057801854 0.008109195 -0.052106168 0.06191445 -0.0798266 -0.03759399
-0.02451745 -0.07899603 0.07421387 0.05838009 0.07387689 -0.060912393 -0.022992503 -0.021124285
-0.047409963 0.066414535 0.028429955 0.016003063 -0.061760366 -0.044540238 0.076618485 0.0507164
-0.00482894 0.0037225187 0.026436746 -0.044858944 0.029653847 -0.058440626 -0.06352312 -0.014258209
0.026207773 0.061548036 -0.056814153 -0.08153018 0.012552874 -0.07298509 0.007843214 -0.06223424
-0.011520296 0.03492015 0.055446994 -0.011873342 -0.01740928 0.070289165 -0.0036955501 -0.052531403
-0.08509232 -0.07226635 0.07359805 -0.015598275 -0.079128124 0.06788498 0.06562609 -0.04787415
-0.075142264 0.01182682 0.0068327445 -0.012855643 -0.061994758 0.021208301 -0.008498397 -0.0058768056
-0.08773387 -0.075476356 0.018507522 0.029126754 -0.08281622 -0.021945233 0.07602189 -0.04691254
-0.06933916 0.0026454327 -0.023995582 0.038166516 0.021268759 0.010867477 -0.07752047 0.05674506
0.024451401 0.03798234 -0.032675177 -0.04218014 -0.0069842357 -0.08408305 -0.07864318 0.06551042
0.054560453 0.066021815 -0.0013702204 0.06710411 0.036211256 0.058957167 -0.04171272 0.07243346
0.06749469 0.06713193 0.0496544 -0.0042376798 -0.0007401063 -0.0074988464 -0.048135445 -0.0036749896
0.058081124 -0.055803865 -0.041049622 0.011564384 -0.08577082 -0.077148855 -0.036605496 0.03192122
-0.08604245 0.04899286 -0.053301666 -0.02777337 -0.067306876 0.04463397 -0.0056934496 -0.08167002
0.1502761 -0.1657359 0.0749737 -0.07873034 -0.16041997 0.020845886 -0.041733645 -0.22254002
-0.12220714 -0.20020527 0.046468128 0.071362264 0.0871393 0.12231196 -0.0036459593 0.33078712
0.081527054 -0.16589439 0.0070490562 -0.15181066 -0.43371695 0.051939473 0.11450478 -0.2764162
-0.21913642 0.07848978 -0.38921866 0.25385976 0.06230663 0.021757793 0.015619791 0.017456334
-0.00041046707 0.022717696 0.06391992 0.15316227 0.083604515 -0.11963415 -0.19088836 -0.023574613
-0.05482477 0.26721123 -0.2291835 -0.10411469 0.15654267 0.78515786 0.4712219 0.2693911
0.2702056 0.06819922 -0.47132716 0.06358393 -0.33620968 -0.51418406 -0.09563511 0.046469074
-0.086916156 0.09073703 0.064028785 0.052108604 -0.11023274 0.10795853 0.11224025 -0.05520888
0.10347339 0.11310923 -0.32153526 -0.3358647 0.1446996 -0.22690384 -0.16441648 -0.13281108
0.032145724 -0.008161068 0.041343246 -0.028762154 0.0763604 -0.0067804717 -0.15188244 -0.062056754
-0.045019455 -0.08032213 -0.15335387 -0.18287279 -0.12879068 -0.06652582 -0.07487726 0.011090626
0.071282156 -0.14244576 -0.026102612 -0.044218358 -0.037446942 0.045904875 0.018510096 -0.045271125
0.07854717 0.13106364 -0.00567906 -0.30411944 -0.11732544 -0.19686893 -0.40128058 0.23239958
-0.17578891 -0.12454316 0.16687135 -0.5038623 0.2737941 0.062606566 0.10776184 0.18282497
00000000: 2042 36bd 7b44 893c 4860 37bd a6ce 9cbc
00000010: a4f8 84bd fbaf c1bc c3c6 873d 9654 843b
00000020: f0f6 09bd 10f6 aebd 5fe3 1e3d e4b1 883d
00000030: 4c48 1f3d fe35 ac3b 38a3 9fbd 5bae 8dbd
00000040: 20c3 6b3d 7c9f 8e3d b60d 393d b0b7 cebc
00000050: 1f89 373d 5e30 89bd 535f 99bd 79d7 aabd
00000060: 8194 27bc 6f1e 863d a3c1 6c3d 6edc 043c
00000070: 476d 55bd 029a 7d3d 217c a3bd 28fc 19bd
00000080: d2d8 c8bc acc8 a1bd 71fd 973d f61f 6f3d
00000090: c44c 973d 467f 79bd c65a bcbc d60c adbc
000000a0: f330 42bd 5804 883d f0e5 e83c db18 833c
000000b0: 70f8 7cbd d36f 36bd 27ea 9c3d 00bc 4f3d
000000c0: 163c 9ebb 80f5 733b e091 d83c 03be 37bd
000000d0: a0ec f23c 705f 6fbd 6918 82bd 439b 69bc
000000e0: afb1 d63c cb19 7c3d f5b5 68bd 4cf9 a6bd
000000f0: 92aa 4d3c 3579 95bd d380 003c 55e9 7ebd
00000100: a0bf 3cbc 6e08 0f3d 631c 633d 6888 42bc
00000110: e89d 8ebc c4f3 8f3d 0b31 72bb 2b2b 57bd
00000120: e244 aebd 6100 94bd 93ba 963d e88f 7fbc
00000130: ed0d a2bd 4807 8b3d f966 863d af17 44bd
00000140: 30e4 99bd 47c5 413c 37e5 df3b 7aa0 52bc
00000150: 37ee 7dbd 08bd ad3c dc3c 0bbc 3892 c0bb
00000160: d1ad b3bd 5993 9abd 169d 973c 3b9b ee3c
00000170: 8d9b a9bd 7dc6 b3bc 5db1 9b3d 5d27 40bd
00000180: b101 8ebd ff5e 2d3b 6292 c4bc 7e54 1c3d
00000190: d23b ae3c 810d 323c 0dc3 9ebd 826d 683d
000001a0: 4e4e c83c 5f93 1b3d 68d6 05bd 15c5 2cbd
000001b0: 04dc e4bb bc33 acbd ad0f a1bd 542a 863d
000001c0: c87a 5f3d 7236 873d f898 b3ba e16d 893d
000001d0: 4152 143d 127d 713d f5da 2abd fe57 943d
000001e0: a83a 8a3d 777c 893d 6a62 4b3d 3cdc 8abb
000001f0: b103 42ba e2b8 f5bb ac29 45bd 18d8 70bb
00000200: 79e6 6d3d 9892 64bd a623 28bd 8b78 3d3c
00000210: 9da8 afbd 3800 9ebd a5ef 15bd d3bf 023d
00000220: 0637 b0bd bdac 483d d952 5abd fa84 e3bc
00000230: 30d8 89bd 1cd2 363d 1e90 babb 9d42 a7bd
00000240: fae1 193e acb6 29be d08b 993d 5f3d a1bd
00000250: 2245 24be fec4 aa3c e6f0 2abd 88e1 63be
00000260: bd47 fabd 9c02 4dbe 5d55 3e3d 6126 923d
00000270: 1776 b23d b17e fa3d 0cf1 6ebb ee5c a93e
00000280: a8f7 a63d 38e0 29be c5fb e63b 4174 1bbe
00000290: 2610 debe 7cbe 543d 7b81 ea3d 6d86 8dbe
000002a0: 4c65 60be 40bf a03d ab47 c7be e8f9 813e
000002b0: 3d35 7f3d 663d b23c 27ea 7f3c 9600 8f3c
000002c0: f533 d7b9 761a ba3c 72e8 823d 92d6 1c3e
000002d0: d838 ab3d c002 f5bd 3d78 43be 8c1f c1bc
000002e0: f08f 60bd e9cf 883e 14af 6abe 153a d5bd
000002f0: b94c 203e 1b00 493f ff43 f13e a1ed 893e
00000300: 6358 8a3e 08ac 8b3d cb51 f1be 4b38 823d
00000310: ad23 acbe 91a1 03bf 57dc c3bd 5b56 3e3d
00000320: 1901 b2bd 56d4 b93d 8621 833d d56f 553d
00000330: b4c1 e1bd 5d19 dd3d 37de e53d b522 62bd
00000340: dbe9 d33d d0a5 e73d 45a0 a4be 75f6 abbe
00000350: 222c 143e 7b59 68be cb5c 28be a1ff 07be
00000360: 3cab 033d 00b6 05bc 8957 293d 9c9e ebbc
00000370: d762 9c3d b82e debb 1287 1bbe 392f 7ebd
00000380: 5266 38bd ee7f a4bd cc08 1dbe 0143 3bbe
00000390: b4e1 03be b03e 88bd 4059 99bd 75b5 353c
000003a0: 61fc 913d 4ddd 11be 25d5 d5bc 4f1e 35bd
000003b0: f761 19bd c006 3c3d 7ca2 973c 376e 39bd
000003c0: 57dd a03d 8c35 063e 6817 babb 8bb5 9bbe
000003d0: 5248 f0bd 0298 49be a674 cdbe 28fa 6d3e
000003e0: 0202 34be 7c10 ffbd 53e0 2a3e 1ffd 00bf
000003f0: be2e 8c3e df37 803d 3db2 dc3d 7836 3b3e

conv3.bias f4 [32]
-0.08277765 0.17893855 0.15222609 0.079197876 0.05850483 0.03963631 0.044102643 -0.047360826
0.031717736 -0.03355202 0.35444218 -0.18448646 0.18960008 -0.08009059 -0.023904378 -0.010858419
0.069475375 0.049799893 0.084677055 0.09140587 -0.11809483 -0.06273631 0.14409907 0.1724315
-0.10900148 -0.07752359 -0.014343823 -0.0288725 0.08300197 0.044935804 -0.036285307 -0.031246778
00000000: 5487 a9bd ab3b 373e 28e1 1b3e 7f32 a23d
00000010: c3a2 6f3d af59 223d f9a4 343d 6dfd 41bd
00000020: 75ea 013d d86d 09bd 7279 b53e 05ea 3cbe
00000030: 8626 423e 8906 a4bd 1dd3 c3bc 83e7 31bc
00000040: 1b49 8e3d f9fa 4b3d 2a6b ad3d 0033 bb3d
00000050: b4db f1bd e57b 80bd b58e 133e e291 303e
00000060: 2b3c dfbd b0c4 9ebd 5b02 6bbc 0586 ecbc
00000070: f0fc a93d 9b0e 383d e79f 14bd 3ef9 ffbc

conv4_1.weight f4 [2, 32, 1, 1]
0.097518675 1.1633492 0.36360273 1.9004179 0.4468099 0.91135114 -1.0322894 -0.74512887
1.7459589 2.1961896 0.976208 -1.1138849 0.23667084 0.021652821 -0.11255064 -0.18592319
-3.1232061 0.62391007 -0.21510114 -2.0199225 2.181778 0.007022843 -0.21461722 -1.5149858
-0.03866337 0.097041525 0.4185442 0.8260042 0.8792074 1.7967769 2.4584417 -1.8316641
0.16569042 -1.0875633 -0.40050384 -2.0614803 -0.2894617 -0.6993092 0.9598279 0.7481817
-1.8550932 -2.1833346 -0.8770482 0.8473055 -0.18429701 0.10502994 -0.011061497 0.15421863
2.8322537 -0.6435645 0.21522416 2.334661 -2.2313151 0.08164161 0.104617774 1.5854583
0.19666563 0.13198379 -0.42459598 -0.78302145 -0.87652665 -1.7751409 -2.5673542 1.9725722
00000000: dfb7 c73d a0e8 943f 232a ba3e e540 f33f
00000010: 44c4 e43e 4f4e 693f 0f22 84bf c4c0 3ebf
00000020: 957b df3f 5f8e 0c40 c4e8 793f c893 8ebf
00000030: d759 723e 4261 b13c f380 e6bd a662 3ebe
00000040: 9ce2 47c0 92b8 1f3f 7943 5cbe 6946 01c0
00000050: 40a2 0b40 e11f e63b 9ec4 5bbe 0eeb c1bf
00000060: 7b5d 1ebd b5bd c63d 6d4b d63e 0375 533f
00000070: bc13 613f c9fc e53f 1c57 1d40 f873 eabf
00000080: c0aa 293e 4635 8bbf d70e cdbe 4bef 03c0
00000090: 5334 94be ed05 33bf 48b7 753f d688 3f3f
000000a0: b273 edbf c1bb 0bc0 3b86 60bf 03e9 583f
000000b0: 5bb8 3cbe f019 d73d 483b 35bc 7deb 1d3e
000000c0: a543 3540 a5c0 24bf b963 5c3e 166b 1540
000000d0: decd 0ec0 b733 a73d d841 d63d 4cf0 ca3f
000000e0: b762 493e c226 073e a564 d9be 1874 48bf
000000f0: 0d64 60bf d137 e3bf 884f 24c0 3f7d fc3f

conv4_1.bias f4 [2]
0.06027608 -0.09871014
00000000: 0de4 763d 8b28 cabd

conv4_2.weight f4 [4, 32, 1, 1]
0.10248925 -0.25705275 0.31181774 0.26250783 -0.068751074 0.0039184405 -0.01413414 0.01034858
-0.013698566 -0.06000026 -0.02592281 0.023270447 -0.5368595 0.05576257 -0.10940948 -0.07841701
0.0049557537 0.22092223 -0.13081996 -0.040587105 0.10650311 0.045278233 0.15915917 0.020219982
0.23027454 -0.119731985 0.049256604 0.0004660713 0.030455677 -0.0201731 -0.0703527 0.01629845
0.13441063 0.106272824 0.25316897 0.2031508 -0.0043879477 0.054096002 0.077520214 -0.10082252
0.01821864 0.090354264 -0.015496112 -0.0072967545 -0.0067786896 0.04979072 -0.15582505 0.11847742
-0.011710801 0.017824993 0.18222415 0.034694508 0.081540294 -0.16347706 -0.93678695 0.023938943
-0.28818592 -0.023287166 -0.12650782 -0.021942902 0.051255383 -0.00971617 0.0022470574 -0.015256509
0.14087896 -0.0106161535 0.04096348 0.026239242 0.014708863 0.0026073786 0.011368226 0.009890227
0.0022333614 -0.009185853 0.0052335905 -0.0041381745 0.009185185 -0.0730126 0.10990548 -0.036036737
0.019153828 -0.017616555 -0.03225955 -0.042982627 -0.01474964 0.1371666 0.18105695 -0.0006044503
0.08828003 -0.12634227 -0.040439595 -0.006832106 -0.014317342 -0.00898764 0.011821351 0.01951748
0.025067618 0.07988362 -0.23696685 -0.17853715 0.013109707 0.016203774 0.0016279136 0.008819016
0.005738493 0.029105105 0.024775714 -0.020110836 0.09611343 0.036023114 0.050566267 0.11102239
-0.046591207 -0.014126955 0.113582574 0.055263136 -9.229298e-05 -0.014422778 -0.073124126 -0.010759811
-0.29840136 -0.0029937509 0.10685993 0.0152508365 -0.01578893 0.0396467 0.09116281 -0.08104493
00000000: e2e5 d13d 6b9c 83be 93a6 9f3e 6d67 863e
00000010: 5dcd 8cbd 4366 803b e192 67bc 178d 293c
00000020: f36f 60bc d5c2 75bd 135c d4bc aaa1 be3c
00000030: a06f 09bf 4b67 643d 1412 e0bd 1999 a0bd
00000040: e063 a23b 7039 623e abf5 05be aa3e 26bd
00000050: 4d1e da3d ab75 393d 9ffa 223e 60a4 a53c
00000060: 17cd 6b3e 0b36 f5bd 4bc1 493d 085b f439
00000070: 2f7e f93c 0f42 a5bc 1415 90bd 5484 853c
00000080: f1a2 093e 91a5 d93d 5d9f 813e c306 503e
00000090: c6c8 8fbb c593 5d3d ebc2 9e3d 0a7c cebd
000000a0: 423f 953c a80b b93d 68e3 7dbc 9d19 efbb
000000b0: c51f debb 5bf1 4b3d 9a90 1fbe 4aa4 f23d
000000c0: a9de 3fbc b805 923c f898 3a3e d41b 0e3d
000000d0: 99fe a63d 8866 27be 45d1 6fbf 9a1b c43c
000000e0: 1b8d 93be bac4 bebc 448b 01be 9ac1 b3bc
000000f0: 2af1 513d 9230 1fbc 5e43 133b 70f6 79bc
00000100: 9342 103e 60ef 2dbc 52c9 273d aef3 d63c
00000110: 71fd 703c 8ee0 2a3b cc41 3a3c 9e0a 223c
00000120: 965d 123b 4380 16bc 8a7e ab3b 8699 87bb
00000130: 757d 163c a187 95bd 2016 e13d 429b 13bd
00000140: 7de8 9c3c 9850 90bc 9722 04bd 8d0e 30bd
00000150: 79a8 71bc 6775 0c3e fe66 393e f973 1eba
00000160: 29cc b43d de5f 01be fda3 25bd dcdf dfbb
00000170: 4993 6abc e540 13bc 57ae 413c 1fe3 9f3c
00000180: 9b5a cd3c 069a a33d 70a7 72be 71d2 36be
00000190: 19ca 563c c7bd 843c b75f d53a a27d 103c
000001a0: f809 bc3b d46d ee3c 70f6 ca3c 7bbf a4bc
000001b0: 1ed7 c43d f98c 133d 931e 4f3d b55f e33d
000001c0: 6cd6 3ebd be74 67bc fb9d e83d 995b 623d
000001d0: 6b8d c1b8 844d 6cbc 1ac2 95bd eb49 30bc
000001e0: 10c8 98be ce32 44bb 61d9 da3d a5de 793c
000001f0: c957 81bc 9464 223d 91b3 ba3d e2fa a5bd

conv4_2.bias f4 [4]
0.05440306 -0.03608202 0.8644774 0.98254853
00000000: bed5 5e3d bdca 13bd 644e 5d3f 4d88 7b3f

conv4_3.weight f4 [10, 32, 1, 1]
0.05068447 -0.00078293495 -0.0005653404 0.00024869945 -0.00055076886 0.00047651137 -0.00017781 0.00030569948
-0.00023413051 0.00017919221 0.00029623733 -2.6219815e-05 -0.0013931474 -0.13420129 -0.09631594 0.00016651813
0.0004549046 0.0011452812 0.00033878774 -0.0005176137 -0.0014178992 -0.16595909 0.0014710105 0.0007696465
-0.0005112716 -0.04463451 0.0009843266 -0.000103503204 -6.9847505e-05 -7.950642e-05 -0.0004091206 7.8780846e-05
0.029134704 -0.0005903422 0.0009950828 0.0018716436 -0.000547477 0.00012396026 -0.0006471904 0.0007086418
-0.0014932908 0.0003066264 -0.00034416578 0.00047146872 -0.0019937602 -0.16509774 -0.13232543 0.00031197682
0.00056205457 -0.00040398433 -0.0008322749 -0.00019274384 0.00042683957 0.05414178 -0.0012569668 0.0008120139
0.0008949622 -0.067194246 0.0008460139 -0.0005412061 -0.00051893626 -0.00036959603 0.0001329628 0.0007355641
0.014084697 -0.004141604 -0.038576715 -0.03829151 0.013209828 -0.019001024 -0.011485281 0.030311322
-0.0037383635 -0.022036953 0.017935699 0.0033475873 0.02473726 0.14092259 -0.10620143 -0.00073952094
0.014195543 -0.041958418 -0.0071586324 -0.0021746273 -0.012953268 -0.05672657 -0.031007314 0.021544307
0.0101556275 0.137132 0.029603794 0.019404605 -0.0051441356 -0.060225524 -0.022417018 0.0019949717
0.14598593 0.010004373 0.07671092 0.14227326 -0.045242656 -0.013861739 0.015693326 -0.03930214
0.024497028 0.049314275 -0.006532905 0.0024124577 0.0715001 -0.0598882 -0.037037678 -0.17601626
0.022658447 -0.0069090114 0.19704084 -0.01777558 0.063421376 -0.004077244 0.021811139 0.012732187
-0.00515322 0.10069694 -0.13960655 0.021303415 -0.008317279 0.012724076 0.017227583 0.0013659382
0.17266017 -0.0043155164 -0.10581402 -0.10933961 0.0601147 0.012954316 -0.007513695 0.03267027
-0.0203594 0.03913585 0.02857717 0.004002499 0.054435935 -0.1453522 0.044879932 0.10031176
-0.002964268 -0.07258693 -0.0890148 -0.0074065407 -0.006639242 -0.010506232 -0.0028713949 -0.01596424
-0.021837177 0.1147434 0.06575614 0.0002812579 0.007361143 0.03631846 0.008451611 0.009970297
0.12968682 -0.0028610716 0.020070259 0.067200765 -0.02025524 -0.0023666273 0.00012128538 -0.0003840992
0.011497309 0.036146864 0.0045918655 -0.0062018875 0.046823394 -0.08373484 0.16395812 -0.08276094
0.01715544 -0.01898763 0.08516346 0.00093568646 0.03661717 0.07948584 0.023422135 0.005218772
0.010744079 -0.13672785 -0.04858962 0.0131455725 -0.0045633246 -0.010496838 -0.0071441177 0.001894218
-0.098287396 -0.0076693404 -0.053950228 -0.18487236 0.041250754 0.011787049 -0.0124018835 0.030233145
-0.022182439 -0.075587496 -0.0029448404 -0.003018449 -0.08984643 0.15469529 -0.0052757403 0.18310641
-0.020030085 0.021225877 -0.20027837 0.018285235 -0.069468655 0.12919381 -0.017162805 -0.01890276
0.0061470526 0.06607774 0.13343804 -0.030748095 0.012489895 -0.019031947 -0.009224488 -0.0035268713
-0.14087743 0.0013243019 0.0051336405 -0.03580407 0.0009595332 -0.0043390403 -5.9070085e-06 -0.00058758375
-0.00050918927 0.005460877 -0.0020990595 -0.00072677725 0.0065190797 -0.17231405 -0.15401943 -0.0116444575
0.0025933587 -0.011563772 0.012183371 -2.622813e-05 0.0072504506 -0.063534334 -0.005632825 0.0013766681
0.00050214585 0.004490631 -0.0072939824 0.0034282366 -0.0024862874 0.0036507337 0.0010271717 0.0010792564
00000000: 859a 4f3d e03d 4dba 5a33 14ba e063 8239
00000010: 7961 10ba 46d4 f939 8272 3ab9 4a46 a039
00000020: ee80 75b9 8be5 3b39 4d50 9b39 a0f2 dbb7
00000030: 459a b6ba 106c 09be 4b41 c5bd 5f9b 2e39
00000040: 4380 ee39 431d 963a 529f b139 78b0 07ba
00000050: cdd8 b9ba 2ef1 29be ecce c03a 1ac2 493a
00000060: db06 06ba add2 36bd 8504 813a dc0f d9b8
00000070: 187b 92b8 afbc a6b8 3d7f d6b9 2537 a538
00000080: e7ab ee3c 32c1 1aba 706d 823a f051 f53a
00000090: 8f84 0fba 54fb 0139 36a8 29ba 25c4 393a
000000a0: 86ba c3ba b3c2 a039 2671 b4b9 762f f739
000000b0: bfa9 02bb 620f 29be 5180 07be d290 a339
000000c0: d856 133a dccd d3b9 062d 5aba 481b 4ab9
000000d0: 70c9 df39 c5c3 5d3d cfc0 a4ba 55dd 543a
000000e0: e69b 6a3a 239d 89bd 08c7 5d3a badf 0dba
000000f0: 3909 08ba 57c6 c1b9 ee6b 0b39 dfd2 403a
00000100: 80c3 663c 4bb6 87bb 9e02 1ebd 8fd7 1cbd
00000110: 096e 583c 09a8 9bbc c32c 3cbc 734f f83c
00000120: 55ff 74bb d786 b4bc e3ed 923c 3263 5b3b
00000130: cba5 ca3c 034e 103e 2380 d9bd 69dc 41ba
00000140: 6c94 683c 97dc 2bbd f692 eabb 3184 0ebb
00000150: f239 54bc 1f5a 68bd 0d03 febc b07d b03c
00000160: ca63 263c 556c 0c3e a883 f23c 68f6 9e3c
00000170: 2390 a8bb 0aaf 76bd e5a3 b7bc 12be 023b
00000180: 567d 153e 62e9 233c 9d1a 9d3d 15b0 113e
00000190: 5d50 39bd 591c 63bc 4a8f 803c 48fb 20bd
000001a0: fead c83c c4fd 493d fb11 d6bb 531a 1e3b
000001b0: a56e 923d 544d 75bd d2b4 17bd 9b3d 34be
000001c0: 359e b93c fd64 e2bb 13c5 493e 189e 91bc
000001d0: 11e3 813d 679a 85bb 46ad b23c aa9a 503c
000001e0: 58dc a8bb 333a ce3d 05f5 0ebe 8084 ae3c
000001f0: 3245 08bc a578 503c dc20 8d3c 4809 b33a
00000200: d4cd 303e 2d69 8dbb 05b5 d8bd 72ed dfbd
00000210: d53a 763d 573e 543c 7135 f6bb 43d1 053d
00000220: c2c8 a6bc ea4c 203d ab1a ea3c 6527 833b
00000230: 37f8 5e3d 35d7 14be 05d4 373d 4170 cd3d
00000240: 2a44 42bb 75a8 94bd 644d b6bd 91b2 f2bb
00000250: 008e d9bb 5522 2cbc 032e 3cbb 70c7 82bc
00000260: e1e3 b2bc 96fe ea3d 28ab 863d cc75 9339
00000270: be35 f13b aac2 143d a078 0a3c 755a 233c
00000280: 9fcc 043e d180 3bbb 626a a43c 8ea0 893d
00000290: 51ee a5bc 6b19 1bbb 985a fe38 ec60 c9b9
000002a0: 365f 3c3c bc0e 143d 5c77 963b 3439 cbbb
000002b0: e3c9 3f3d 2c7d abbd a3e4 273e 917e a9bd
000002c0: 9189 8c3c f28b 9bbc 2e6a ae3d db48 753a
000002d0: e3fb 153d 79c9 a23d c7df bf3c 3c02 ab3b
000002e0: ef07 303c 6302 0cbe e905 47bd 8760 573c
000002f0: f187 95bb eefa 2bbc 3419 eabb 6947 f83a
00000300: e74a c9bd 174f fbbb eafa 5cbd 2e4f 3dbe
00000310: 8df6 283d 771e 413c 4531 4bbc 80ab f73c
00000320: f2b7 b5bc 9ecd 9abd 39fe 40bb 2cd1 45bb
00000330: 6801 b8bd 7168 1e3e 1ee0 acbb 3f80 3b3e
00000340: 2216 a4bc e4e1 ad3c c615 4dbe ebca 953c
00000350: 9545 8ebd 624b 043e 0399 8cbc f6d9 9abc
00000360: 376d c93b c453 873d fba3 083e 6ee3 fbbc
00000370: 6ba2 4c3c e3e8 9bbc 4f22 17bc 1523 67bb
00000380: 2c42 10be 3394 ad3a 1938 a83b 4aa7 12bd
00000390: 2f89 7b3a 822e 8ebb d134 c6b6 1408 1aba
000003a0: 1d7b 05ba 28f1 b23b 6090 09bb 3285 3eba
000003b0: 019e d53b 1873 30be 45b7 1dbe 65c8 3ebc
000003c0: 57f5 293b fa75 3dbc c39c 473c 7b04 dcb7
000003d0: 3095 ed3b 4a1e 82bd 9093 b8bb 5171 b43a
000003e0: 70a2 033a 2526 933b 5c02 efbb 44ac 603b
000003f0: fbf0 22bb 2641 6f3b 2aa2 863a d675 8d3a

conv4_3.bias f4 [10]
0.222403 0.36046255 0.43144 0.32608217 0.338635 0.46623796 0.2701965 0.6279778
0.44973153 0.598167
00000000: 9dbd 633e 8c8e b83e b4e5 dc3e 3ef4 a63e
00000010: 9161 ad3e beb6 ee3e 3257 8a3e 27c3 203f
00000020: 3643 e63e 7921 193f
