Pytorch face detection - Test/MTCNN_train_process/1/checkpoint_200.pth (torch, 111347 bytes, 36 tensors)

conv1.weight f4 [10, 3, 3, 3]
000000 bb ad 81 be 0c 40 40 be 94 52 a2 bd f9 84 2e 3d
       -0.25327858 -0.18774432 -0.07925907 0.04260728
000010 a4 4b 21 3d b9 2b 4d be d8 4b 03 3d e5 e1 64 3e
       0.039378777 -0.2003621 0.032054752 0.22351797
000020 3c aa 22 bd b2 50 90 3d d2 cc 80 bd e4 45 b8 bc
       -0.03971313 0.070466414 -0.062890664 -0.022494264
000030 09 31 7f 3e af fa ed bd 8d 81 9e 3d f9 d7 9d 3b
       0.24921049 -0.1162008 0.077395536 0.0048170057
000040 81 0f 4e 3d 1e 61 e8 bc 95 15 02 bd 8b 2d df bd
       0.050307754 -0.028366622 -0.031758863 -0.108973585
000050 41 7c 80 b9 0e f0 04 3e 98 7f 20 be 5f 1b 38 be
       -0.0002450664 0.12982199 -0.15673673 -0.17979191
000060 d6 e9 06 3e a3 c4 21 3e e3 bb 84 bd c0 5c 98 bd
       0.13175139 0.15797667 -0.06481149 -0.07439566
000070 5c 23 22 3e 5c c3 ba bd 3d 96 3b be 54 1e c9 3d
       0.15833801 -0.09119293 -0.1831903 0.09820238
000080 3b 6c 1b 3c e7 d0 56 bd cf 98 39 bd ce 89 20 bd
       0.009486253 -0.05244532 -0.045311745 -0.03919392
000090 af 35 b5 be cf e1 02 3e 6f 6b 4d 3e 42 5f 7d be
       -0.3539252 0.12781452 0.20060514 -0.24743369
0000a0 29 43 75 3e 63 02 37 3e f5 0e 47 3d 5f d6 3b 3d
       0.23951401 0.17872004 0.04859825 0.045858737
0000b0 c2 62 22 3e 76 f3 36 be 01 8d 99 3c 8e 7c 87 3e
       0.15857986 -0.1786631 0.018743994 0.26462215
0000c0 d7 e8 59 be 1d 39 8f bd 72 81 49 3e 04 df 99 bb
       -0.21280228 -0.06993315 0.19678286 -0.004695775
0000d0 dc 25 c9 bd fb e9 04 be de 44 14 3e 91 00 37 be
       -0.09821674 -0.12979881 0.14479396 -0.1787131
0000e0 ad b2 1d be ab 2c 0c be 48 e8 cb 3d b3 6b 92 3d
       -0.1540019 -0.13688914 0.099564135 0.07149448
0000f0 07 ea 0d 3d 58 c6 b7 bd 1e 79 06 bd c8 71 cc bd
       0.034647014 -0.08973378 -0.03283035 -0.099826396
000100 71 a7 47 3e fa 80 8d 3e 6b 86 33 3d f7 e9 4a 3d
       0.19497468 0.27637464 0.043829363 0.049539533
000110 35 bd bf bd 50 1d 02 bd 40 e8 36 3e 31 56 60 3e
       -0.0936226 -0.031766236 0.17862034 0.2190788
000120 18 f9 37 3e 20 25 30 be 4b 35 8b 3d 98 71 77 bd
       0.17966115 -0.17201662 0.06797274 -0.060411066
000130 24 d5 98 bd 08 b0 a9 3c 9c 0e 4a 3e bd 09 70 bc
       -0.07462528 0.020713821 0.19732136 -0.014650759
000140 49 80 c4 bd 35 e5 6a 3d 45 aa 3a 3e b5 f5 5a bd
       -0.09594781 0.057347495 0.18229015 -0.05345698
000150 9b 6e 0c 3e e6 0d 7f 3d 3b fd 39 3d 72 34 d1 be
       0.13714068 0.062269114 0.045407515 -0.40860325
000160 51 5a 96 be 20 a1 80 bc e1 79 0d 3e f6 e8 f3 3d
       -0.2936578 -0.01570183 0.13816024 0.11909668
000170 4b be 40 bd ca 26 36 3e a0 df 53 3d 0a d2 b6 3d
       -0.047056478 0.17788234 0.051726937 0.089267805
000180 7d 54 88 be 9e 71 e6 bd 61 b9 ae 3d 59 c9 03 3d
       -0.2662696 -0.112521395 0.08531452 0.032174442
000190 ca 59 18 bd dc 2c b6 3d 59 3b 95 bc 3d fc 04 3e
       -0.037195005 0.08895275 -0.018216776 0.12986846
0001a0 41 70 ef bc 2e c8 00 bd d6 6c 9a bd 0c 89 0d be
       -0.029228332 -0.031440906 -0.0754029 -0.1382181
0001b0 74 ad 53 be 14 d4 4c be 00 12 7a be b9 f6 cb bd
       -0.20671636 -0.20002776 -0.24420929 -0.09959168
0001c0 ab f2 23 3d f2 d8 77 bd 7f 46 7b be cc 46 cb 3d
       0.040026348 -0.06050963 -0.24538611 0.09925613
0001d0 6c 81 5c 3d 84 b6 6e 3c ca b5 92 3e ba 7d 32 3e
       0.053834364 0.014569882 0.2865432 0.17430773
0001e0 13 3e d1 3c 17 be 48 3d ec c3 b8 bd a2 e6 37 3e
       0.025542295 0.04900941 -0.09021744 0.17959073
0001f0 e6 d5 9a bc 92 76 42 3e 2f a3 32 3e 16 6a 9d bd
       -0.018900823 0.18990543 0.17445062 -0.0768625
000200 84 52 b1 bc 47 9e 97 3d f4 34 d1 bd 68 1f 0a 3e
       -0.021645792 0.07403236 -0.10215178 0.13488543
000210 ca b4 50 bb a5 b2 30 be ac c4 e8 bd 3e 11 17 be
       -0.003184604 -0.17255647 -0.11365637 -0.14752671
000220 94 11 0b be bd 42 6d 3e 37 ac 82 3d 22 ac 32 3e
       -0.13580924 0.2316999 0.063805036 0.17448476
000230 40 7c f5 3d e9 e7 5f be f7 78 84 bb f0 1b 5e 3e
       0.119865894 -0.2186581 -0.0040427404 0.21690345
000240 1e 29 43 3d 35 d6 8a 3e 90 1a 42 3e 3a b3 ac bc
       0.047646634 0.27116552 0.18955445 -0.021081556
000250 4b c4 67 3e 5d a6 3d be 92 16 31 bd 14 2c 93 bc
       0.22633474 -0.18520494 -0.043234415 -0.017965354
000260 36 86 bb bd 4e 14 02 bd ce f1 a6 3d 93 a7 ea bd
       -0.09156458 -0.031757645 0.08151589 -0.114577435
000270 87 15 96 bd ad 6d a8 bd 24 c2 40 bd a8 e2 18 be
       -0.07328325 -0.08224044 -0.047060147 -0.14930212
000280 92 4e ab 3d 2a e7 df bc 74 2b c7 bb 04 ba 29 3e
       0.083645955 -0.027331907 -0.006078178 0.16574866
000290 e6 c9 54 be 43 76 98 3d c7 ea 47 3e 77 23 88 be
       -0.20780143 0.07444432 0.19523154 -0.26589558
0002a0 8f 4c 1c bd 1f 44 32 be e6 4e 0c 3e f1 75 5c 3e
       -0.03815895 -0.17408799 0.13701972 0.21529366
0002b0 f4 63 7f 3e a4 0a 30 be 35 5c c6 bc 33 b0 20 bd
       0.24940473 -0.17191559 -0.02421389 -0.039230537
0002c0 08 d4 85 bd c0 36 61 3d 76 9a e0 bd 63 c7 2e be
       -0.065345824 0.054983854 -0.10966961 -0.17068247
0002d0 c9 25 62 3d c2 a6 97 3d c4 f2 c8 bd 0d 01 04 be
       0.055211816 0.074048534 -0.09811929 -0.12891026
0002e0 31 5c 08 3e 69 b8 06 3e c5 bf 14 bd 2b 49 72 3d
       0.13316418 0.13156284 -0.0363157 0.05915181
0002f0 bb 48 16 be cc d6 f1 bd b6 7c 24 be ce c0 3b bb
       -0.14676182 -0.118085474 -0.16063198 -0.0028648856
000300 5a 58 3d 3d f7 16 65 3e 99 37 29 3e 8f 7a 51 3e
       0.046226837 0.22372042 0.16525115 0.20456909
000310 e0 60 fe 3d 9d 0b ee bd 9c 99 56 be 65 9c 99 bd
       0.12420821 -0.11623309 -0.20957035 -0.07500533
000320 c1 f7 2e 3e 9c df a4 bd e6 68 a0 3e 80 46 9c 3e
       0.17086698 -0.080504626 0.3133003 0.30522537
000330 30 94 15 3e 80 92 5a 3e 8f 64 f5 3b d7 e8 4e be
       0.1460731 0.21344948 0.007488794 -0.20206009
000340 86 a1 11 be 2d cd 73 bd cb af ad bd f6 02 4e 3d
       -0.14221773 -0.059521843 -0.084807955 0.050295793
000350 07 76 58 bd 22 5a 6d be 8d ff 72 be f1 94 47 be
       -0.052846935 -0.23178914 -0.23730297 -0.1949041
000360 59 ba 56 3e cd 3f c5 3d 22 c0 01 3e 6b 7e cb bd
       0.20969523 0.0963131 0.12670949 -0.09936222
000370 b2 1a 4d 3c 37 f3 57 3e 9b 81 4e 3e e2 11 53 3e
       0.012518572 0.21088873 0.20166628 0.2061229
000380 5c f4 30 3e cb 52 3e be ca 4d 08 bd be 7a 91 be
       0.17280716 -0.1858627 -0.03327731 -0.28413957
000390 18 0c 83 be d0 c1 5a be 55 18 01 be 98 69 a4 bd
       -0.25595164 -0.21362996 -0.12606938 -0.08027953
0003a0 d4 8d 08 3e 24 b0 68 be 01 24 5e 3c 93 6a 36 be
       0.13335353 -0.22723442 0.013558389 -0.17814092
0003b0 db 2f f6 3d 8c d2 8c bd df 68 c9 bd 22 38 99 3c
       0.120208465 -0.06876096 -0.09834456 0.018703524
0003c0 8d 15 60 3d 10 fd 90 3d 78 ab 2f 3e 64 82 25 3e
       0.054708052 0.07079518 0.17155254 0.16163021
0003d0 89 4d 71 3e cc 46 4a 3e 05 14 5c bc 00 f7 12 3e
       0.23564734 0.1975357 -0.013432507 0.14352036
0003e0 b6 b6 03 bd 8f 9e 04 3e c6 dc 3c be ca a1 35 be
       -0.03215667 0.1295111 -0.18443593 -0.17737499
0003f0 57 57 13 3e 32 ba 11 bd c1 29 97 3d 80 06 e9 3d
       0.14388786 -0.03557796 0.07381011 0.11378193

conv1.bias f4 [10]
000000 62 63 86 3e 11 0c 5a 3c 7c d4 01 bd 6e 26 0e 3e
       0.26247698 0.013308541 -0.03169678 0.13881847
000010 40 43 76 3e b1 24 97 bd 4d fe 7d 3d 37 d2 cb 3d
       0.24049091 -0.07380045 0.0620101 0.09952205
000020 9f b5 27 3d 79 59 85 bd
       0.04094469 -0.06511206

conv2.weight f4 [16, 10, 3, 3]
000000 da 01 93 bd 78 b3 91 bc 58 7b 8a 3d 29 b9 ae 3d
       -0.071780875 -0.017785773 0.06761807 0.0853141
000010 b1 31 f7 bb a4 6e 58 3d 7d f7 5e 3d 04 2c 30 be
       -0.0075437655 0.05283989 0.054435242 -0.1720429
000020 33 80 9b 3d 4b 56 13 3d f8 8f 12 be ab d8 57 bd
       0.075928114 0.035970967 -0.14312732 -0.052696865
000030 7d 49 93 bd a7 ea 80 3d 5c b0 b5 3d d0 d7 5a 3d
       -0.07191751 0.062947564 0.088715285 0.05342847
000040 42 d6 ef bc d3 af 82 3d db e9 88 be 27 e1 43 be
       -0.02927697 0.06381192 -0.26740918 -0.19128858
000050 dc 0d 12 3d 09 d4 69 be 84 2a 3a be 45 80 04 bd
       0.03565775 -0.22834791 -0.18180281 -0.03234889
000060 94 7f 4f be 08 68 cc bd 7b 8d ff 3d 41 c9 d9 bd
       -0.20263511 -0.0998078 0.12478157 -0.10634089
000070 20 ee 2d 3e 15 21 a9 3c 6a 1f bf bd fd 0b d6 3d
       0.16985369 0.020645658 -0.09332164 0.10451505
000080 e1 bf fa bd 4b c9 1d bb b1 ec f3 3d 9c 31 66 3d
       -0.12243629 -0.0024076279 0.1191038 0.056199655
000090 7b ab a6 3e 41 93 bc bb f3 11 90 bd 08 b3 34 bd
       0.32552704 -0.0057548587 -0.070346735 -0.04411605
0000a0 b9 f7 74 be 61 72 79 bd 66 1b 7c bd 77 b7 35 be
       -0.23922624 -0.060900096 -0.061549567 -0.17745768
0000b0 a2 6e 7d 3d 56 39 a6 3d a3 a6 3b be e1 f1 8a 3d
       0.061873086 0.08116405 -0.18325286 0.06784416
0000c0 13 85 23 bd 63 a5 d4 bb 0f 49 87 3d 26 46 58 bd
       -0.03992183 -0.006489442 0.06605732 -0.052801274
0000d0 7d fd 14 bc 45 19 da 3b b6 65 6d bd 42 e6 88 be
       -0.009093639 0.0066558444 -0.057958327 -0.26738173
0000e0 6a ec 59 be 2b bb 02 be bf 7e 40 3d ff 57 0f bd
       -0.21281591 -0.12766711 0.046995874 -0.03499603
0000f0 05 25 1c be 9f f6 64 bd 11 19 2a be 07 d0 a0 3d
       -0.15248497 -0.05589926 -0.16611125 0.07852178
000100 33 ca ca 3c 43 f9 1e 3d 6d 44 80 bd 89 bc 88 bd
       0.02475462 0.038811933 -0.06263051 -0.06676585
000110 18 de 9f 3d 7e 4a 1c bd 1b d7 01 3c 82 82 79 3d
       0.07806033 -0.03815698 0.00792482 0.060915478
000120 58 6f d4 3d 31 65 c8 bd 10 e4 38 3d c3 30 ba bd
       0.103728 -0.09784926 0.045139372 -0.09091332
000130 09 ef 5c bd aa d0 04 3e 0b f8 c0 bd 50 b6 47 bc
       -0.0539389 0.12970224 -0.094223104 -0.012189463
000140 b3 7c 73 3c ca d8 8f bd ef 03 17 3c aa 53 67 3e
       0.014861274 -0.07023771 0.009217246 0.22590509
000150 b8 e9 9d bd f4 23 e2 3d 24 45 da 3d fa bd f6 3c
       -0.07710594 0.11042014 0.10657719 0.030119885
000160 d7 c2 8a 3a 1c 56 95 3d f0 04 62 3d 06 16 40 3e
       0.0010586631 0.07291815 0.05518049 0.18758401
000170 a0 a0 29 3e 19 11 2c be 39 6b 70 bd 72 12 fb bc
       0.1656518 -0.16803397 -0.058696005 -0.030648444
000180 fa 43 d3 3b 25 3b 26 3d 17 b7 a3 3c 74 21 bc be
       0.0064473124 0.04058375 0.019984765 -0.36744273
000190 b0 28 1c be be 2b 15 3d 1d 06 13 bf 0f 78 41 be
       -0.15249896 0.03641867 -0.57431203 -0.18893455
0001a0 ee 57 5e 3d b3 bb 14 be 7a a3 b2 3d 2a 4b 0d be
       0.054283075 -0.14524727 0.08722587 -0.13798204
0001b0 ac 19 a5 3d cb 83 2e bd 01 91 ee 3d 3c 66 7a bd
       0.08061537 -0.042606156 0.11648751 -0.061132655
0001c0 bc 89 99 3d b7 30 81 3d 59 b6 9c bd 47 64 b0 bc
       0.07496974 0.0630812 -0.076519676 -0.021532191
0001d0 ec 2b 1f 3d 35 9d a3 bd 01 dc 38 bd af 65 42 bd
       0.038860247 -0.07988969 -0.045131687 -0.047460254
0001e0 aa 4c 53 bd 93 5b 98 3b 7b 0b a8 bd 3d 2f 0a be
       -0.051586784 0.0046495884 -0.08205315 -0.13494582
0001f0 7a 2b 09 be a4 9b ae bd 82 1c 59 be a7 c5 ef 3d
       -0.13395491 -0.0852578 -0.21202281 0.11707621
000200 5f 04 41 bd 3c aa 81 bd 9b 5a 7f 3d 7b 57 57 3c
       -0.04712331 -0.06331298 0.062342267 0.013143416
000210 43 83 35 3d de 72 1c 3d c3 df 39 3d 0c eb d6 bd
       0.044314634 0.038195483 0.04537941 -0.104940504
000220 04 74 cb 3d 4c d4 1b 3d 15 39 00 be 0a 70 6f 3d
       0.099342376 0.03804426 -0.12521775 0.05845646
000230 4b 0d b3 3d 35 7d 1b bd 6b b7 8d bd 98 bb a1 3d
       0.0874277 -0.037961204 -0.0691975 0.07897109
000240 4e 4f 58 be f7 89 eb 3d 27 9f aa 3d db 01 98 bd
       -0.21124002 0.11500924 0.08331137 -0.07422229
000250 c2 6c 2f 3e 1a 00 ee 3c aa 14 83 3c aa 08 b5 3c
       0.17131332 0.029052783 0.016001064 0.022098858
000260 3a cb 10 bc a8 04 e4 3d 25 80 a8 3d 24 81 aa bb
       -0.0088375155 0.111337006 0.08227567 -0.005203383
000270 59 9b 1c 3d 87 cf ce bc d0 01 4c bc 97 77 56 3d
       0.03823409 -0.025245441 -0.012451604 0.052360144
000280 fc ab aa bd 76 8f 67 3c 25 15 ad bd 03 52 e6 bd
       -0.08333585 0.014133325 -0.084512986 -0.11246111
000290 6e f6 23 3e af fe 49 be ed 4a 27 be 2c fd b8 3d
       0.16011974 -0.1972606 -0.16337176 0.09032664
0002a0 f5 08 b7 3d 45 aa 12 bd 20 a2 a7 3d 11 e7 a3 3c
       0.08937255 -0.035806913 0.0818522 0.020007642
0002b0 2f 47 88 3c 18 b4 0b 3e 65 5e 18 bd 4c 01 3f 3d
       0.016635505 0.13642919 -0.037199397 0.046632096
0002c0 8c 13 0b 3d b5 21 50 be 94 0b e9 bd 41 63 2b 3c
       0.03395419 -0.20325358 -0.113791615 0.010460676
0002d0 49 c1 db bc a3 0e b9 bc 11 e3 32 3d d9 1f 5c 3e
       -0.026825564 -0.022589987 0.04367358 0.21496524
0002e0 cb 32 9a bd c7 6c 0d 3e a8 8b c8 3e 28 ab 45 3d
       -0.07529219 0.13811027 0.3916905 0.04825893
0002f0 0a fc 2e 3d 0f 8d 81 bc a9 0f c9 bd 95 7c e3 bd
       0.042720832 -0.015814332 -0.0981744 -0.111077465
000300 0f 2e c4 bc c6 9c 79 bd 16 4d 87 bd bb b9 e7 3d
       -0.023947744 -0.060940526 -0.066065 0.11314722
000310 f2 f1 ff 3c b4 dd d6 bd 4e c1 63 3d 29 a5 cd bd
       0.031243298 -0.10491505 0.05560427 -0.100412674
000320 ce 07 62 3d 95 df 03 3d 4f 53 1f be ef 11 e0 3c
       0.055183224 0.032195646 -0.15559123 0.027352301
000330 9e dd d7 3d 55 d3 9c bd c4 72 7c bb 0a dc f7 bd
       0.10540317 -0.07657496 -0.0038520554 -0.12102516
000340 09 0e cd 3c b5 ca e0 3d 54 6f 1f 3e 20 0f 0e 3e
       0.025031107 0.10976163 0.15569812 0.13872957
000350 d9 c9 78 ba e5 fd 5c 3e db 91 15 3e df a5 ff 3c
       -0.0009490527 0.21581228 0.1460642 0.031207023
000360 e9 be c0 3e 8c 96 aa 3c 5e a7 c7 bd 98 45 09 3e
       0.37645653 0.02082374 -0.0974872 0.13405454
000370 a9 b2 21 be 89 0c 09 be 53 1d 06 3e 05 99 96 bd
       -0.1579081 -0.13383688 0.13097124 -0.07353405
000380 71 39 f0 3c 99 cf 86 3d 9f de 9b 3d 66 1a 29 3e
       0.029324265 0.06582565 0.07610821 0.16513976
000390 93 d8 d1 3d 89 68 6c 3d 6f 01 6b 3d 82 7a bc 3d
       0.102463864 0.05771688 0.057374414 0.09203054
0003a0 c2 cf 82 bd b0 8c c3 bc ea 68 8c bc a8 a9 8c be
       -0.06387283 -0.023870796 -0.01713987 -0.27473187
0003b0 16 b3 dc ba e8 76 ad bd e3 61 46 be 27 51 1a bd
       -0.001683804 -0.08469945 -0.19373278 -0.03767505
0003c0 6e e9 97 bd f1 7a 8b be ec b9 a7 bc 59 4a dd 3d
       -0.0741757 -0.27242234 -0.020474397 0.10805196
0003d0 a6 97 4a 3d d1 db e5 3d 11 fc 20 bd b5 31 be 3c
       0.04946103 0.11223567 -0.03930289 0.023217062
0003e0 6a 1d 08 3e b1 44 86 bc 3a 6c 55 3d f8 9b a3 3d
       0.1329247 -0.016390176 0.052105166 0.07988733
0003f0 f3 bb 12 be d8 4d 58 be 6a 67 3a bd f3 7a fb bd
       -0.1432951 -0.21123445 -0.04550878 -0.1227931

conv2.bias f4 [16]
000000 c0 41 de 3d 27 38 98 3d 13 97 16 bd 76 51 1d 3e
       0.108523846 0.07432585 -0.03676517 0.15363106
000010 a4 bb 33 be b3 95 6b 3d 02 d4 a2 3c c9 91 43 be
       -0.17552048 0.05751581 0.019876484 -0.19098581
000020 d5 b0 ff 3d 77 45 94 3e 8d 4f a8 3d 55 41 92 3d
       0.124849 0.28959247 0.08218298 0.07141367
000030 d0 71 42 bd f9 2d 25 3e b5 bf ca bd d1 09 a2 bb
       -0.04747182 0.16130818 -0.098998465 -0.004945018

conv3.weight f4 [32, 16, 3, 3]
000000 f0 04 06 3e 1b 01 37 be ad 4f 66 be 44 d6 d1 bd
       0.13087821 -0.17871515 -0.22491331 -0.10245946
000010 7c 0c 6a be 5c 4b 92 be 15 cc 07 be 2c 6e 86 be
       -0.22856325 -0.2857312 -0.13261445 -0.2625593
000020 e1 1c 02 be 52 d1 83 be bf 85 c5 be 6f 88 f6 bd
       -0.12706329 -0.25745636 -0.38578603 -0.120377414
000030 c6 3e 68 be e0 3b ac 3d 18 3f 04 3e 58 9b c5 be
       -0.22680196 0.08409858 0.12914693 -0.3859508
000040 be 03 3c 3d c1 5d 08 3f ba 7e 3e bd 61 57 95 bd
       0.045902006 0.5326806 -0.046507575 -0.07292057
000050 ca 2e 70 bd fc 13 1c be 68 5d ce bd b2 39 b1 3c
       -0.05863837 -0.15241998 -0.100764096 0.021633957
000060 5f 70 d9 bd 60 37 11 bd cf 83 17 3d bb a3 95 3d
       -0.10617136 -0.0354532 0.036990937 0.0730662
000070 22 f6 8a bb 8a b1 28 3e f3 6e de 3d 3f fe 01 3e
       -0.004240767 0.16473976 0.10861006 0.12694643
000080 87 a5 fa 3d 0c 84 f5 3d 30 46 0d 3e 25 95 57 3e
       0.12238603 0.119880766 0.13796306 0.21052988
000090 42 01 51 be ac fc df bd a2 e1 65 bd cc 72 26 be
       -0.20410636 -0.10936865 -0.056123383 -0.16254729
0000a0 a7 3a a2 3d 6f e5 30 bd 83 e3 83 be ec 07 8a bd
       0.07921343 -0.043187555 -0.25759515 -0.06739792
0000b0 e2 95 6b be 95 63 1d 3d 6a e7 44 3e 16 e5 c2 3c
       -0.23006395 0.038425047 0.19228902 0.023790877
0000c0 f5 68 4c 3e 91 6d c0 3e c4 a3 37 3e 5d 3d b1 be
       0.19961913 0.37583593 0.17933565 -0.3461713
0000d0 95 87 e7 bd 6f df 97 be 6d ed 81 be 53 08 64 bd
       -0.11305157 -0.29662654 -0.25376454 -0.055672
0000e0 68 ca 4a be 31 99 f2 3d df a8 1a be e2 fb 5b be
       -0.19803774 0.11845625 -0.15103482 -0.21482804
0000f0 36 62 a1 3d 61 14 76 be b7 4f 29 be b5 ba 11 be
       0.078800604 -0.24031211 -0.16534315 -0.1423138
000100 58 40 6c be 66 a1 b3 be 15 b7 3c bc d0 09 5d bd
       -0.2307142 -0.35084075 -0.0115182595 -0.053964436
000110 08 9b ed bd c8 64 85 3d a0 ac c8 3d 29 94 1e 3e
       -0.116018355 0.06513363 0.097985506 0.15486206
000120 4a f7 f6 3d 6e c1 50 be 22 5c b2 be e3 71 5c 3d
       0.120588854 -0.20386288 -0.34835917 0.05381955
000130 9b 67 fb bd b8 28 6e be 5f 3a 57 3d df 50 b2 bd
       -0.122756205 -0.2325772 0.0525459 -0.08706831
000140 d9 ea b4 be c0 1d 6b 3d e3 c3 3f bd bc ce 3a be
       -0.35335425 0.05740142 -0.04681767 -0.18242925
000150 8c 4f 0b bd d1 d2 83 bc da 3b d5 3c 4e 4a 94 3d
       -0.03401141 -0.016091736 0.026029516 0.07240735
000160 98 7a 0d 3d 00 de 57 bd 68 6e e6 bd 5e 86 98 3d
       0.034540743 -0.05270195 -0.11251527 0.074475035
000170 12 89 68 3e 24 b8 6c bd a4 9f 0d 3e fb de 92 3e
       0.22708538 -0.057792798 0.1383043 0.28685746
000180 4e 3c 37 be bd f2 4a 3b 1a ff bf 3d 87 f0 e7 bd
       -0.17894098 0.0030967437 0.09374829 -0.11325174
000190 14 e5 92 3d 07 8a 40 3d 7c 4b 2a be 26 e3 27 be
       0.071725994 0.047006633 -0.16630358 -0.16395244
0001a0 42 fd 29 be 1f ab ff 3d 30 0c 6b bc bb a6 81 3d
       -0.16600516 0.12483811 -0.014346167 0.063306294
0001b0 55 fe 28 be 26 f8 2f be 99 80 6c be 31 e2 90 be
       -0.1650327 -0.17184505 -0.23095931 -0.2829757
0001c0 d1 29 94 3c 2d 14 81 bd ad 15 e4 be f0 e7 47 be
       0.018086346 -0.06302676 -0.44547787 -0.19522071
0001d0 89 ee 2f be 04 8c 89 3d 74 b7 96 3e ff 8a 26 3e
       -0.17180838 0.06716159 0.2943684 0.1626396
0001e0 7b 3e 69 be 3c 47 17 be 34 d8 91 be 97 0b 83 be
       -0.2277774 -0.14773268 -0.28485262 -0.2559478
0001f0 5d 5a 03 be b7 ad 63 be 84 f7 b9 be f3 65 80 be
       -0.1282744 -0.22234236 -0.36321652 -0.2507778
000200 b6 e6 74 be 6d 61 86 be 36 16 0d be a9 0a 48 3c
       -0.23916134 -0.26246205 -0.13778004 0.012209573
000210 ad 77 39 bf b9 b8 1a bf 8e 94 85 be 4f ed 51 3e
       -0.72448236 -0.60438114 -0.260899 0.20500682
000220 59 39 c8 3e 0c c9 de 3e 82 fa 8f 3d 04 bd 8a 3e
       0.39106253 0.43512762 0.070302024 0.27097332
000230 95 9e 07 3f e6 d9 87 3e 41 03 99 3e 29 00 c0 3e
       0.5297635 0.2653343 0.29885295 0.37500122
000240 f5 d3 cc 3e 62 04 7a 3e 7f f4 19 3e bd 9c c1 3d
       0.4000546 0.24415734 0.15034674 0.094537236
000250 75 56 82 3d bf 05 b5 3c 1d 5d 6f 3c 51 d1 0c 3e
       0.063641466 0.022097467 0.014609602 0.13751723
000260 48 6d cb 3d c7 f0 a8 be b2 b6 02 be 1b 2e 77 be
       0.09932953 -0.329962 -0.12765005 -0.24138682
000270 69 8d 89 be 78 bb c4 bd 90 ca 8a be 41 3c 1c be
       -0.268657 -0.09606069 -0.27107668 -0.1525736
000280 e4 9b 0b be a4 0d 97 be a5 38 99 3d a8 4f d8 3d
       -0.13633686 -0.29502594 0.07481507 0.10562068
000290 a4 f0 69 3d a7 04 8d 3d 7c 1f 8b 3d b6 f3 49 3d
       0.05711426 0.06885653 0.067931145 0.049304686
0002a0 cc cf 31 3e 00 9f bf 3c af d5 d3 3d c4 de b9 bc
       0.17364424 0.023391247 0.10343491 -0.02268923
0002b0 71 90 34 3e 2c 9a 24 3d 1a d3 db 3d 40 dc 28 3c
       0.17633225 0.040186092 0.10733624 0.010306418
0002c0 ea 00 12 3d 53 45 1f 3d f0 84 e2 3d b2 31 6a bd
       0.035645403 0.038884472 0.11060512 -0.0571763
0002d0 0b b3 dd 39 f2 90 e5 3c e4 3d 57 3d c2 9a 52 3d
       0.00042285802 0.028023217 0.052549258 0.05141712
0002e0 1e 25 52 3d ac 19 aa 3d 52 f3 1f 3c c8 72 f9 3d
       0.05130493 0.08305678 0.009762602 0.12180096
0002f0 71 6b e2 3c 51 68 93 3c c9 3e 82 bd ba 95 f6 bd
       0.027639123 0.017994078 -0.063596316 -0.12040277
000300 91 9e 24 bd 51 8a 07 be a4 a0 6a be b7 5e 66 bc
       -0.040190283 -0.13236357 -0.22912842 -0.014060668
000310 88 45 8f bd 83 dd 06 bd 5a 33 92 bd 87 eb 1a bd
       -0.06995684 -0.032926094 -0.07138701 -0.037822273
000320 5f 4f 47 be e1 61 a3 bd 4a c7 08 be 9f b3 c3 3b
       -0.19463871 -0.07977653 -0.13357273 0.0059723402
000330 4c a2 87 3c fd b4 98 bd b4 ab 25 bd 74 57 8f be
       0.016556881 -0.07456396 -0.040446952 -0.2799641
000340 04 a5 bb 3c 5c c3 ff 3c 24 06 b2 bd 24 6f 4a bd
       0.022905834 0.031221084 -0.086925775 -0.0494224
000350 cd 3a 00 be 7c da f7 bd 88 53 86 bd 07 79 d7 bd
       -0.1252243 -0.121022195 -0.06558901 -0.10521131
000360 e9 d8 50 3e e5 27 18 3e d2 3c 9d bd ba f2 3a 3c
       0.20395245 0.14858969 -0.07677616 0.01141041
000370 61 ba 12 3c 75 2c 35 bd 07 a7 e0 3d 7f 16 46 bc
       0.008955569 -0.04423185 0.10969358 -0.012090324
000380 23 3e 89 be c1 44 15 3e 58 b4 18 3d 84 6c b5 bd
       -0.2680522 0.14577009 0.037281364 -0.08858588
000390 c1 c3 0c 3e 4e ab bb 3d 91 13 0a 3d ea 46 55 3e
       0.13746549 0.09163533 0.033710066 0.20827833
0003a0 9f 2a dd 3d 90 43 7a 3d b2 ef 81 3e d7 61 12 3e
       0.10799145 0.06109959 0.25378186 0.14295135
0003b0 2e 3a 42 3d 0a 2d 14 3d e8 68 8e bd 03 18 83 bd
       0.047418766 0.036175765 -0.06953603 -0.06401064
0003c0 4a 67 cf 3d 2b 5f 22 3c c4 ed b2 bd a6 7d dd 3d
       0.10127123 0.009910385 -0.087367564 0.10814981
0003d0 f5 3b 4c 3d 22 cc 78 bc 90 a2 a7 3c dc c3 ae bc
       0.049861867 -0.015185388 0.020463258 -0.021333627
0003e0 1b e5 e2 bd 8b bc 10 be fc a2 03 3d 45 66 c1 bd
       -0.11078855 -0.14134423 0.032137856 -0.094433345
0003f0 44 b6 51 3d 99 01 ef bc 57 12 c6 3d 1d b0 d0 3d
       0.051199213 -0.029175567 0.09671467 0.10189841

conv3.bias f4 [32]
000000 0a 5c d7 3d f0 e1 13 ba eb 56 91 3d 16 1a 23 3e
       0.10515602 -0.00056412723 0.070966564 0.1592792
000010 05 dc 08 3e 0e 98 6b bd 5a c2 df 3d 90 6f a6 3e
       0.13365181 -0.057518058 0.109257415 0.3250699
000020 d5 fc ae bd 4e 98 3c 3d 28 1a e9 3d f3 ac 84 bd
       -0.08544318 0.046043687 0.11381942 -0.064783
000030 3d e3 4e 3d f7 59 91 3e ab 2b a8 3a da 8d ca bd
       0.05050968 0.2838895 0.0012830397 -0.09890337
000040 ab d2 16 3e 7d 18 1b bc 03 df a3 3d 9d df 4f 3d
       0.14728801 -0.009466288 0.080015205 0.050750364
000050 ae 37 84 3e 05 91 c7 bd 5d 77 c2 bd 51 74 a5 3d
       0.2582373 -0.09744457 -0.09495423 0.08078826
000060 3b 98 a9 3e f0 39 1c 3d 42 46 76 bd 9f 60 1e 3e
       0.33123955 0.03814119 -0.060125597 0.15466546
000070 31 bd 25 3d f7 2b 42 3e bf c9 a3 3e 25 38 80 3d
       0.04046363 0.18962084 0.31989858 0.06260709

conv4_1.weight f4 [2, 32, 1, 1]
000000 ce f3 26 bf 30 28 61 be 0e 9e ce 3f 18 85 a6 3e
       -0.65215766 -0.21987987 1.6141984 0.32523417
000010 77 dd c5 3e cd fc 77 bf 62 55 cf 3e 20 f7 d6 be
       0.38645527 -0.9687012 0.4049483 -0.41985416
000020 61 c3 2c be 09 fe b7 3e 5b 13 90 3e e7 12 b4 be
       -0.16871406 0.35936 0.28139767 -0.3517067
000030 29 56 97 be 0b 92 4f 3e e6 19 ce bd 1d 54 ae be
       -0.29557922 0.20270555 -0.100635335 -0.34048548
000040 ad 2a 9b 3e 52 0d c3 bc b3 0b 9e 3e 02 b1 e0 bf
       0.30305997 -0.023810063 0.308683 -1.7554018
000050 21 56 03 3f 81 b3 b1 be f1 ff 87 bf 48 5f cd 3d
       0.513033 -0.34707263 -1.0624982 0.10027939
000060 36 f8 72 3f 9a 1b 85 3e e1 de 3a be 64 af d9 3e
       0.9490999 0.2599762 -0.18249084 0.42516625
000070 51 3d 92 3e 2f 85 82 3f c1 bb 65 3f 15 55 8d 3e
       0.28562406 1.0196894 0.89739615 0.27603975
000080 5a 26 4b 3f af 23 65 3d 55 97 bd bf 03 a0 a1 be
       0.79355395 0.055942234 -1.4811808 -0.31567392
000090 a7 70 82 be 2d 18 5f 3f d0 2f b5 be 36 d1 d4 3e
       -0.25476572 0.87146264 -0.3538804 0.41565865
0000a0 37 f9 a0 bc 0f fa 7a be 25 eb 80 be ae d2 94 3e
       -0.019650085 -0.24509452 -0.251794 0.29066986
0000b0 7d 86 44 3e e8 5e 2d be c0 97 35 3e de b0 d2 3e
       0.19191928 -0.16930735 0.1773367 0.41150564
0000c0 1f 84 d5 bd c6 ef 86 3d cd d7 8e be 2b ad f3 3f
       -0.10425591 0.06588702 -0.27899018 1.9037222
0000d0 ce 16 f4 be cd 5b 88 3e b1 e2 89 3f bb 00 b8 be
       -0.4767365 0.26632538 1.0772306 -0.35938057
0000e0 ba 3e 86 bf 4e c3 8d be 49 a5 02 3f 89 d9 77 be
       -1.0487893 -0.27688068 0.51033455 -0.24204077
0000f0 a1 54 97 be b5 ca 59 bf a2 87 8a bf 71 94 b5 be
       -0.29556754 -0.8507493 -1.0822642 -0.35464814

conv4_1.bias f4 [2]
000000 9f 61 b5 bd 29 05 59 bd
       -0.0885651 -0.052983437

conv4_2.weight f4 [4, 32, 1, 1]
000000 9c e6 f6 3c e8 c9 3d 3e 5b 1b 13 b9 cf 80 bb be
       0.03013926 0.18534052 -0.00014029203 -0.3662171
000010 79 75 7a 3d fa e8 d1 bd 49 c7 d9 bd b9 35 ae bd
       0.061147187 -0.10249515 -0.10633714 -0.085063405
000020 89 d5 b1 bd d8 d2 4b bd 63 23 96 3e 37 3f 85 bd
       -0.08683307 -0.049761623 0.29323873 -0.06506198
000030 15 2a 82 bd ca 9d 8a 3d e2 a1 a6 bd ee 8f 2b 3e
       -0.06355683 0.06768377 -0.081363454 0.16754124
000040 3e 77 d6 be a6 d1 a6 bd 2d bd 96 be 58 b0 0f 3d
       -0.4188785 -0.08145456 -0.29441205 0.035080284
000050 51 91 db 3d b2 22 b3 3d d2 fe 6a 3d 59 d9 bf bb
       0.10721076 0.08746852 0.05737192 -0.0058547673
000060 20 34 30 3d 7f a5 3d 3d 72 b3 48 be 66 e2 b5 3c
       0.04301846 0.046300407 -0.19599703 0.022202682
000070 e6 00 9d 3e e2 fc e2 bc 03 7c 4b bd a7 3c 75 3e
       0.30664748 -0.027708475 -0.049678814 0.23948918
000080 10 f1 39 3d 84 5c 5f 3d c8 cd 42 3d 62 7a 94 3e
       0.04539591 0.05453159 0.04755953 0.2899962
000090 99 02 ac 3e 94 92 03 be df 45 7c be 32 de 84 bb
       0.33595732 -0.12848884 -0.24636029 -0.004054808
0000a0 ad 75 40 bd 0a 5f be bd c0 9f d6 bd d7 3d 65 3d
       -0.046987224 -0.09295471 -0.10479689 0.05596718
0000b0 88 4d e0 bd 3b 06 b7 bd 29 34 0b 3e 04 0d 9a 3b
       -0.10952288 -0.08936735 0.13594116 0.0047012586
0000c0 d2 87 4c be df 05 06 3e 75 c7 ae 3e 74 9f f8 bc
       -0.19973686 0.13088177 0.3413655 -0.03034947
0000d0 5a f5 ba 3d 9c 79 b7 bc aa c0 5f bc 6b 6a e2 bd
       0.09128828 -0.022396855 -0.013656775 -0.11055454
0000e0 66 60 09 bd 18 90 b2 3d 25 1d 02 be 50 c3 ee bd
       -0.0335392 0.0871889 -0.1270643 -0.11658347
0000f0 8b 85 0b bd db 36 62 be 36 c2 59 bc 4f ee 0e 3e
       -0.034062903 -0.22091238 -0.013290932 0.13958095
000100 6f 51 21 bd 38 51 4d bd 69 87 6b ba d2 b7 4b 3c
       -0.0393843 -0.050126284 -0.0008984716 0.012433963
000110 16 54 b9 3c 9f f0 1d 3d c7 cb 0e be 5b 33 81 3d
       0.022623103 0.038559552 -0.13944922 0.063086234
000120 ad 35 f4 bd 28 b5 d8 bd db 8a 0b 3e 99 62 1f 3d
       -0.119243 -0.10581428 0.13627188 0.03891239
000130 c8 d4 61 3d 90 1f ec 3d b7 2d 1b bc 1b c5 12 bb
       0.055134565 0.115294576 -0.0094713485 -0.0022395316
000140 29 80 de 3a a2 00 27 be 01 dc 51 bd 1f 8d 32 bc
       0.001697545 -0.16308835 -0.051235203 -0.010897904
000150 06 07 af bc 37 e6 94 bd 83 f1 8f bc 8b e1 79 3d
       -0.021365654 -0.072704725 -0.017571216 0.06100611
000160 75 a4 a5 3c 7b 8b 82 bd ab 2a 87 3d 6e e5 3c 3d
       0.02022002 -0.0637426 0.06599935 0.04611724
000170 76 52 f9 3c 7c 5e cc 3c f2 01 8b 3c 6a b2 84 3c
       0.030434828 0.024947397 0.016968701 0.016198356
000180 e5 68 b9 bc 6a db 3c 3e cd aa 1f bd 37 d7 e3 3d
       -0.022633025 0.18443075 -0.038981248 0.11125033
000190 11 1d 4c bc 68 8f cc bc 58 43 5d 3e 0f 73 9c 3c
       -0.012458102 -0.024970725 0.21607721 0.019097833
0001a0 e9 db b3 bd c0 38 85 bd e6 4b 11 be 39 ff 05 39
       -0.08782179 -0.06504965 -0.14189109 0.00012778946
0001b0 2c 78 06 3c 34 d8 b8 3e fd c6 8f 3d 68 ae 63 be
       0.008207362 0.3610245 0.07020376 -0.222345
0001c0 cc 9d 43 3e 12 67 a6 bd aa 02 de 3d 7e 67 7b bd
       0.19103163 -0.08125128 0.10840352 -0.061377995
0001d0 9b 03 d6 bc 45 1b 7c 3d fc ca c6 b9 8f 5c 93 bd
       -0.026124766 0.061549444 -0.00037916738 -0.071953885
0001e0 d5 ed ff bc b3 67 0f be 1a 1d 47 bd b8 33 9f bd
       -0.031241337 -0.14004402 -0.048611738 -0.077735364
0001f0 6d fd a3 be dc 7d 60 3d 67 22 47 3c df ea e6 bd
       -0.32029286 0.05480753 0.012154198 -0.11275267

conv4_2.bias f4 [4]
000000 f6 85 ca bc ad 2e 85 3c ac 58 59 3f c1 ed 35 3f
       -0.02472208 0.016257608 0.8490093 0.7106591

conv4_3.weight f4 [10, 32, 1, 1]
000000 52 6f 94 b9 3e f0 f6 3b 0c e3 55 ba ac 20 14 3b
       -0.000283117 0.0075359633 -0.0008159138 0.0022602482
000010 a0 cd cf 3a 4a 0f 31 3a fc 73 85 ba 16 2d 85 3a
       0.0015854128 0.00067542924 -0.0010181661 0.0010160531
000020 05 19 c9 bd 1b cb b5 3b 43 3d 3b bb 38 99 c1 3a
       -0.09819225 0.0055478937 -0.002857045 0.0014770394
000030 56 4d 35 bb 2c 30 19 bb e7 46 be bb 2d da 0c 3b
       -0.0027664504 -0.002337466 -0.005806792 0.0021492348
000040 91 d9 49 3b 40 a4 d2 3c 24 29 4e ba 28 7e aa 39
       0.0030799846 0.025713086 -0.0007864407 0.0003251892
000050 b9 bf 24 39 db 19 e9 b8 72 d5 74 3a 81 7c 27 bb
       0.00015711681 -0.00011115122 0.0009339667 -0.0025556388
000060 3b 4d c9 38 c9 b5 9b 3a 7f 6e 80 b9 8c 4d 0a bb
       9.598812e-05 0.0011879738 -0.00024496389 -0.002110335
000070 f0 65 ce ba 04 ff 13 3a 45 c8 b1 b9 3b fd 57 3a
       -0.0015746932 0.0005645605 -0.00033909283 0.00082393334
000080 65 5f b7 b9 84 8a 9e bb 80 fa 71 ba 91 67 70 bb
       -0.00034975554 -0.0048382897 -0.0009230748 -0.0036682824
000090 2f c2 99 3a f8 fb b8 3a 64 3f f3 3a 74 4a c2 3a
       0.0011730845 0.0014113178 0.0018558321 0.0014823214
0000a0 61 97 00 3e 8c e2 86 b9 79 5f 05 bb b7 69 93 ba
       0.12557746 -0.00025727262 -0.0020351096 -0.0011246715
0000b0 32 47 25 3b 42 7e a1 ba ce 2d c3 3a 2d 6d 99 ba
       0.0025219438 -0.0012320953 0.001489097 -0.001170551
0000c0 71 69 8e ba 3b 92 9d 3d 4a 6b 7d bb 84 3e 0d 3a
       -0.0010865164 0.07693907 -0.0038668686 0.00053880387
0000d0 ea b9 3f ba 28 ac 1d 3b 7c 7c 05 3a f7 e0 aa bb
       -0.0007313775 0.0024058912 0.0005092097 -0.005214806
0000e0 ac 76 9f 3a 49 f3 f0 3a 0c 79 32 3a 74 94 04 3c
       0.0012166104 0.0018383052 0.00068081985 0.008092035
0000f0 dd 48 a7 3a ff 7e a3 ba 15 31 09 ba e2 17 67 3b
       0.0012762804 -0.0012473761 -0.0005233449 0.0035262038
000100 ee 06 67 ba 15 d3 08 bd a2 94 dc 3b aa 92 d8 3c
       -0.0008812983 -0.03340443 0.0067315856 0.026437122
000110 74 65 84 3d f5 51 8c ba 42 0d 8f bd 79 76 07 3d
       0.06464663 -0.0010705577 -0.069849506 0.03307197
000120 d2 5f 9c 3d de 94 a6 3c 64 7c 73 3c a6 00 33 bc
       0.07635464 0.020334657 0.0148612 -0.010925448
000130 5a 44 92 3c 5e 5d f0 ba 87 d2 a8 bc d5 ae 25 3d
       0.017854858 -0.0018338372 -0.0206082 0.040449936
000140 d7 48 c9 3d e7 db 0e bd ec 35 4d bd ef 9b 0f 3c
       0.09828346 -0.034877684 -0.050100252 0.008765205
000150 3b 67 31 bc 30 26 92 bb ee 58 c3 bb 28 d8 0a be
       -0.010827835 -0.0044601187 -0.005961529 -0.1355902
000160 f6 46 7c bc 15 27 1f 3c 38 ca fa 3c dc c9 1c 3d
       -0.015397778 0.009713908 0.030614004 0.038278446
000170 dd 59 2d bd fe 62 02 3c 9c 7d 8d 3b fe 6b 7f 3d
       -0.04232203 0.007958172 0.0043179523 0.06235885
000180 ac 2c 26 3c e3 c9 79 bd 70 85 62 bc 68 a3 42 3d
       0.010142487 -0.06098355 -0.013825759 0.047519118
000190 6b 04 a1 3d 8a 8a 33 bd 73 af ed bd 37 60 fd 3c
       0.07862171 -0.043833293 -0.1160573 0.030929668
0001a0 7c 8c ac 3d 86 ad 46 bd 5d a5 c7 3d 24 ac f4 3b
       0.08425233 -0.04850533 0.097483374 0.00746681
0001b0 8b 30 f0 3d 02 b5 b6 ba c9 9b 15 bd ff 4d 82 bd
       0.11728009 -0.0013939443 -0.03652552 -0.06362533
0001c0 07 26 8c 3c 0c 05 27 be d3 f0 47 bd 6e 09 e4 3a
       0.017107977 -0.16310519 -0.048813652 0.001739783
0001d0 a6 b5 64 3d de 1a 83 bb ac 88 a4 3c 4e b0 ca bc
       0.055837296 -0.0040010056 0.020084701 -0.024742272
0001e0 a4 0c 2d bc ca 43 1d 3e 64 41 86 3d f9 d6 f8 bc
       -0.010562096 0.1535789 0.06555441 -0.030375944
0001f0 d0 3c 3f bd ee c3 cf bc 2b 06 90 3c 01 65 41 bd
       -0.046688855 -0.025361981 0.017581066 -0.047215465
000200 c9 c7 8f bc e8 7d 53 3d 4d c0 11 3d e6 40 3b 3d
       -0.01755132 0.051633745 0.035583783 0.04571619
000210 21 a1 19 3e 26 ef ff 3b b9 6c ca 3d d0 68 44 3d
       0.15002872 0.007810491 0.098840185 0.04795152
000220 b6 26 9c 3d 26 c8 b3 bd da 4a 92 bd 72 8e 15 bd
       0.07624571 -0.0877841 -0.07143183 -0.0365128
000230 c4 96 ba bc a5 e3 3a 3c 1a 40 08 3d a9 0b 43 bd
       -0.022776969 0.011406814 0.033264257 -0.047618542
000240 26 c4 27 3e 0e 4b 0b be 70 13 6d bd a5 de 02 ba
       0.16383418 -0.1360285 -0.057879865 -0.0004992283
000250 ef e6 bc 3c 11 01 d9 3c 18 5c aa bc 82 39 e8 bd
       0.023059336 0.026489766 -0.020795867 -0.11339094
000260 4c 4a 59 bc f6 63 e0 bd 0b 41 01 bb 29 df 29 3b
       -0.013262343 -0.10956566 -0.0019722607 0.0025920367
000270 06 26 0f bc 55 0f 7d 3b 10 c8 66 bc 34 99 b4 3d
       -0.008737093 0.0038613875 -0.014085785 0.08818284
000280 1d 60 75 bc 65 46 b4 bd 78 1e 54 3c aa 35 1a 3c
       -0.0149765285 -0.08802489 0.012946717 0.009412209
000290 6d 91 19 ba 26 35 9f bb ff fa cf bd f8 3c 46 3d
       -0.0005858157 -0.0048586307 -0.101552956 0.048397988
0002a0 55 c8 0b bd 60 c6 b2 bd 15 84 30 3d c5 29 cb bd
       -0.0341266 -0.08729243 0.043094713 -0.09920076
0002b0 90 89 f4 3d ea 99 a2 b9 33 75 41 bb c3 8e 8c bd
       0.119403005 -0.00031013723 -0.002951932 -0.06863167
0002c0 09 39 df 3c 30 f6 1b be 53 35 07 bd f9 45 48 3b
       0.027248876 -0.15230632 -0.03300984 0.0030559285
0002d0 ec 21 82 3c 00 18 b1 3d f0 4e 0c bb ab ac b5 3c
       0.015885316 0.08647156 -0.0021409355 0.022177061
0002e0 77 72 67 bc 85 2e a2 3d 1c 42 fa 3c fc e4 bd 3d
       -0.014126412 0.07919029 0.030549102 0.09272191
0002f0 cf 51 1f bc fd af 89 bc fe c9 af 3b 26 2b 21 bc
       -0.0097240945 -0.01680755 0.0053646555 -0.009836948
000300 80 8b a6 bb 60 00 b6 3c 8f 5e 9a 3b 49 ea ad bd
       -0.0050825477 0.022216976 0.0047109793 -0.08491952
000310 53 5c 51 bd 38 0b 5c 3d f9 32 aa 3d 0f c2 17 bd
       -0.051113438 0.053721637 0.083105035 -0.037050303
000320 19 a9 a6 3c 69 f8 62 3c 38 8d 39 bd a2 0f bf bc
       0.020344304 0.013853171 -0.045300692 -0.023322884
000330 39 93 1d bd 69 6f 1b 3e 38 6a 5e 3d d5 db fe 3c
       -0.03847048 0.15179218 0.054300517 0.031110683
000340 74 3b 5f bd 6c b0 94 bc a1 d8 8b 3d c4 f2 82 bc
       -0.05450006 -0.01815053 0.06828428 -0.0159849
000350 ba e5 73 bd fb cc 5c bc af a9 be bc 3f d8 52 3d
       -0.059545256 -0.0134766055 -0.02327427 0.05147576
000360 e4 24 7e 3c 35 75 45 be dd f0 45 bc a3 ed bd ba
       0.015511725 -0.19282992 -0.012081352 -0.0014490377
000370 2a b6 fd 3c 7a dd 47 3d c1 29 17 bd 86 a1 10 3d
       0.030970652 0.0487952 -0.036905054 0.03531029
000380 84 84 93 3b 26 4e fc bc ec b9 40 3b 0f 8a 17 bc
       0.004501881 -0.030798983 0.0029407693 -0.009249224
000390 d3 3d a9 3c eb 62 1c ba 06 90 18 3c 8c 64 a0 3b
       0.020659363 -0.00059656677 0.009311682 0.0048947986
0003a0 69 6e e9 3d de 8f 8b bc dc f0 07 3c cd 38 10 bc
       0.11398012 -0.017036375 0.008297171 -0.008802605
0003b0 2c 7d ae 3c 27 bc d5 3b c9 e7 2d 3c 8a 7a 16 bc
       0.021299921 0.0065226736 0.010614344 -0.009184489
0003c0 8f 27 4c bb 69 31 c8 bc 6d 8e 36 bc ba 6a 55 3a
       -0.0031151508 -0.024437623 -0.011142355 0.00081412087
0003d0 86 a8 57 3b 62 fb 1c 3c 34 20 25 3b 65 2e 8f bc
       0.0032906844 0.009581419 0.0025196197 -0.017478177
0003e0 a6 46 76 bb 3b 57 cc 3b 2d 89 dc 3b a0 a0 82 3c
       -0.003757873 0.0062359846 0.00673022 0.015945733
0003f0 f1 2b 1f bc a4 c3 c3 bb 63 a8 cc 3b 5c 88 96 bb
       -0.009715066 -0.00597425 0.006245659 -0.004593892

conv4_3.bias f4 [10]
000000 18 f4 62 3e c2 54 b8 3e 98 0f e8 3e 90 5f a5 3e
       0.22163427 0.36002165 0.45324397 0.3229947
000010 c3 ac 99 3e 82 04 fc 3e fb 4d 49 3e 07 db 1f 3f
       0.3001462 0.4922219 0.19658653 0.62443584
000020 d7 3e c9 3e 07 57 19 3f
       0.39305755 0.5989842

exp_avg f4 [10, 3, 3, 3]
000000 db f8 5a bd ab fa 41 bd 49 bb 3f bd 72 ff 65 bd
       -0.053459983 -0.047358196 -0.04680947 -0.056151815
000010 5e 83 3d bd 8a 6e 1f bd 73 61 74 bd f6 b9 7e bd
       -0.04626786 -0.038923778 -0.059663247 -0.062189065
000020 14 e9 3f bd 96 e5 6b bd d1 c4 5f bd 23 d0 64 bd
       -0.04685314 -0.057591997 -0.054631058 -0.055862557
000030 49 55 5c bd ad ac 45 bd b6 1e 3c bd 23 05 71 bd
       -0.05379227 -0.04826038 -0.045927726 -0.05884279
000040 cc 9c 81 bd 63 04 5a bd 12 59 4c bd 70 ae 54 bd
       -0.06328735 -0.05322684 -0.04988963 -0.05192417
000050 8a d3 70 bd c4 bf 4a bd bf c5 45 bd 1f 0e 4d bd
       -0.05879549 -0.04949929 -0.04828429 -0.050062295
000060 56 d1 66 bd 49 4c 83 bd 07 9d 6b bd c5 0e 3c bd
       -0.056351982 -0.064110346 -0.0575228 -0.045912523
000070 a6 3c 7d bd b5 ef 8d bd de 8f 37 bd 99 e8 78 bd
       -0.061825417 -0.06930486 -0.044814937 -0.060768697
000080 bc e8 83 bd 62 54 43 bd f1 6d 44 bd b9 74 4e bd
       -0.06440875 -0.047687896 -0.04795641 -0.050404284
000090 f4 af 0b bd 01 63 49 bd 50 1e 5e bd 69 ee 04 bd
       -0.03410335 -0.049166683 -0.054228127 -0.03245393
0000a0 35 eb 3b bd 03 ff 43 bd 79 a2 16 bd c4 89 12 bd
       -0.045878608 -0.04785062 -0.03677604 -0.035775915
0000b0 1e 79 18 bd 7b 32 c2 bc ec 86 0b bd 10 8b 1c bd
       -0.03722488 -0.023705712 -0.03406422 -0.038218558
0000c0 68 65 c5 bc a9 12 09 bd ac ff 0f bd 1b e6 ec bc
       -0.024096206 -0.03346506 -0.035155937 -0.028918317
0000d0 6f 60 d5 bc 04 cb e6 bc 7f 40 2c 3e 6c 1b 27 3e
       -0.02604696 -0.028172977 0.16821478 0.16319054
0000e0 b5 12 2b 3e 7a 5a 25 3e 9c 73 27 3e 70 e1 36 3e
       0.16706355 0.16147795 0.16352695 0.17859435
0000f0 8a c0 3a 3e 58 22 3a 3e b8 af 35 3e d5 19 1b 3e
       0.1823751 0.18177164 0.17742813 0.15146573
000100 a0 17 16 3e f2 cf 1a 3e 21 37 16 3e 16 5a 17 3e
       0.1465745 0.15118387 0.14669468 0.14780459
000110 da 98 26 3e 67 d8 27 3e 7d 07 25 3e 88 b1 21 3e
       0.16269246 0.16391145 0.16116138 0.15790379
000120 ac cc 09 3e bd a8 08 3e a3 79 11 3e 34 35 0d 3e
       0.13456982 0.13345619 0.14206557 0.13789827
000130 b5 5e 12 3e 2c 32 24 3e 84 02 24 3e b7 fe 25 3e
       0.1429394 0.16034764 0.16016585 0.16210447
000140 a7 b5 25 3e ae d6 85 bc 94 45 09 bd be 40 18 bd
       0.16182576 -0.016337719 -0.03351362 -0.037171118
000150 aa 21 9f bc d6 5c 18 bd 88 cd 21 bd de cd 89 bc
       -0.019425232 -0.03719791 -0.03950265 -0.016821798
000160 86 34 c5 bc 5f d0 f7 bc 44 a5 bd bb 77 25 ab bc
       -0.024072897 -0.030250726 -0.0057875235 -0.020891888
000170 94 85 d9 bc 14 86 35 bb a8 79 aa bc 9d 87 cc bc
       -0.026552953 -0.0027698325 -0.020809963 -0.02496701
000180 81 68 76 bb ac 68 3b bc 78 b9 96 bc 18 c9 d2 3a
       -0.003759891 -0.01143853 -0.018398985 0.0016081659
000190 fc da 6b bc 0a 35 9f bc b7 82 12 3b ca 26 81 bc
       -0.014395472 -0.01943447 0.0022355744 -0.015765566
0001a0 99 b7 a2 bc 25 6c 23 ba 32 ff 0d bc 33 5d 87 bc
       -0.019862937 -0.00062340713 -0.0086668 -0.016523933
0001b0 fe 7a 6c 3d 66 08 49 3d 9d af 2b 3d e4 0f 45 3d
       0.057734482 0.049080275 0.041915525 0.048110858
0001c0 22 14 31 3d c1 62 38 3d 6a 68 2b 3d fb e0 45 3d
       0.04323209 0.045016054 0.041847624 0.04831026
0001d0 7e d0 80 3d 8e dd 3f 3d 36 b1 1f 3d de 43 e0 3c
       0.06289767 0.04684215 0.03898736 0.027376112
0001e0 07 b7 2b 3d dd 6c 0f 3d bc d1 f7 3c 65 7d ff 3c
       0.041922595 0.03501593 0.030251376 0.031187722
0001f0 a1 e7 0b 3d ca 07 33 3d 41 13 61 3d 71 16 3a 3d
       0.034156445 0.0437086 0.054950003 0.045431558
000200 53 65 04 3d 6f 7f 4a 3d 28 76 23 3d 5f 80 00 3d
       0.032323193 0.049437936 0.039907604 0.031372424
000210 fa 46 18 3d f7 65 19 3d fc 06 34 3d a1 f3 58 3d
       0.037177064 0.037450757 0.043951973 0.052966718
000220 4d 3d 71 3d 50 bc 83 3d 48 ad 4f 3d 98 b9 60 3d
       0.05889635 0.06432402 0.050702363 0.054864496
000230 94 45 7f 3d 5f ca 2d 3d 1b c1 3b 3d 31 9b 49 3d
       0.062322214 0.042429324 0.045838457 0.049220268
000240 98 45 40 3d bf 5a 4c 3d 6d db 67 3d 63 d1 37 3d
       0.04694137 0.04989123 0.056605745 0.04487742
000250 3e fb 45 3d 74 3b 67 3d a6 2c 1d 3d 7f ca 26 3d
       0.048335306 0.056453183 0.03837266 0.04072046
000260 0d ad 3a 3d f9 98 1a 3d 19 8b 26 3d 50 f2 45 3d
       0.04557519 0.037743542 0.040659998 0.04832679
000270 43 0d 14 3d 37 a1 25 3d 7c 8d 4b 3d 53 d3 f6 3c
       0.03614546 0.04043695 0.049695477 0.030130064
000280 65 1b 10 3d 6c 1d 29 3d 8e 68 02 3e dc ab 08 3e
       0.035182375 0.041287825 0.12735197 0.13346809
000290 22 04 f8 3d 10 a4 e8 3d 53 3a e7 3d ec 64 d1 3d
       0.12110163 0.113594174 0.11290421 0.102243274
0002a0 b1 b7 c1 3d 73 fd be 3d ca 8f c2 3d 7d 89 ee 3d
       0.094588645 0.09325685 0.09500082 0.116473176
0002b0 b5 da f2 3d d4 5b dd 3d 82 be c7 3d 8b 68 c1 3d
       0.11858121 0.108085304 0.09753133 0.09443768
0002c0 e2 14 ae 3d 76 67 a1 3d 47 37 98 3d eb f2 94 3d
       0.08500077 0.07881062 0.07432418 0.072728954
0002d0 ed b7 c0 3d 5a 22 d2 3d 05 86 bf 3d 74 15 a6 3d
       0.09410081 0.10260458 0.09351734 0.081095606
0002e0 83 ae a7 3d be 3e 91 3d 53 da 87 3d ac f9 85 3d
       0.08187582 0.07092045 0.06633439 0.06541762
0002f0 04 03 82 3d fe 1d d4 bc 7a 03 c8 bc cb 54 c1 bc
       0.063482314 -0.025893208 -0.02441572 -0.023600003
000300 0f 93 e6 bc 8c 6e d9 bc df 6c e6 bc e5 64 11 bd
       -0.028146295 -0.02654197 -0.028128086 -0.03549661
000310 ac 0b f3 bc b1 6d f3 bc 4d 1f b8 bc 09 1f a8 bc
       -0.029668652 -0.02971539 -0.022475863 -0.020522611
000320 30 e5 a4 bc 87 9c d8 bc 06 0d c9 bc 34 ae cc bc
       -0.020128816 -0.026441826 -0.024542343 -0.02498541
000330 da c7 05 bd 32 cc e9 bc ce 43 e7 bc df 90 e2 bc
       -0.032661296 -0.02853975 -0.028230574 -0.02765697
000340 b9 00 d9 bc 0d 79 d1 bc 02 b9 f5 bc f1 0b f5 bc
       -0.026489602 -0.025570417 -0.029995445 -0.02991292
000350 91 94 ff bc 8d 98 09 bd 91 67 03 bd 47 82 04 bd
       -0.031198772 -0.03359275 -0.03208119 -0.032350805
000360 7f 21 ab bc 88 b3 cb bc 8b 59 dd bc 69 29 db bc
       -0.020889996 -0.02486588 -0.027020236 -0.026753144
000370 72 bc e2 bc 06 2d d2 bc 7c 07 04 bd e2 b2 01 bd
       -0.027677748 -0.025656234 -0.0322337 -0.031664737
000380 52 11 e1 bc 2e 2e ad bc 51 84 ca bc 26 0a d5 bc
       -0.02747408 -0.021140184 -0.024721297 -0.026005816
000390 7a 0a f0 bc 5b 48 ea bc 11 e2 cf bc 8f 19 fc bc
       -0.02930187 -0.028598955 -0.025376352 -0.030773906
0003a0 bd ff f7 bc 48 37 e9 bc 2a eb a9 bc 68 a2 c2 bc
       -0.030273313 -0.028468743 -0.020742018 -0.023759082
0003b0 30 ce c8 bc 41 ba e7 bc 4a 47 e8 bc 5d 6b c9 bc
       -0.02451238 -0.028287055 -0.028354306 -0.024587328
0003c0 b1 4f f8 bc 47 60 f5 bc 64 6f eb bc 3e fe d1 bd
       -0.030311437 -0.029953135 -0.028739639 -0.10253571
0003d0 a2 9f d2 bd b2 58 b9 bd 93 b4 ba bd c6 43 b6 bd
       -0.10284354 -0.090501204 -0.09116473 -0.088996455
0003e0 11 93 a8 bd eb 68 af bd 31 74 a8 bd 1d 8b a0 bd
       -0.08231176 -0.085649334 -0.08225287 -0.07839034
0003f0 34 9b bf bd 5c 26 bb bd a8 ac a5 bd d7 64 ae bd
       -0.093557745 -0.09138176 -0.08089572 -0.085153274

exp_avg_sq f4 [10, 3, 3, 3]
000000 fd f8 6f 3d 0e b2 49 3d 74 05 48 3d f7 b9 90 3d
       0.058587063 0.04924207 0.048833326 0.0706672
000010 1e 01 6a 3d c0 e2 4c 3d 24 e6 9d 3d 23 af 8e 3d
       0.05712997 0.050020933 0.077099115 0.069669984
000020 d7 24 6a 3d 0f b0 1e 3d 13 4f fb 3c e1 75 f7 3c
       0.05716404 0.03874212 0.030677354 0.030207576
000030 6d 05 43 3d 31 38 13 3d c9 27 fa 3c 55 9e 54 3d
       0.047612596 0.03594226 0.03053655 0.05190881
000040 31 16 39 3d 86 8f 11 3d 2b d8 04 3d e3 fe cd 3c
       0.04518718 0.035537265 0.032432716 0.025145954
000050 c1 6f c9 3c 6a 5e 24 3d 8e 78 f1 3c 76 a5 c9 3c
       0.024589421 0.040129103 0.02947643 0.02461503
000060 14 48 34 3d b8 87 1a 3d 2b fa ed 3c ed f9 ca 3c
       0.04401405 0.037727088 0.029049953 0.024777377
000070 f8 04 fa 3c fe 1a 0d 3d 9b 5b c3 3c b1 33 ef 3c
       0.030519947 0.03444957 0.023847392 0.029199453
000080 0d 16 08 3d 99 eb ca 3c c4 41 da 3c 2f 96 e9 3c
       0.033224154 0.024770545 0.026642688 0.028513996
000090 56 e2 8f 3c 61 8a b7 3c 86 13 d5 3c ad 64 8a 3c
       0.01756398 0.022404851 0.026010286 0.01689371
0000a0 62 ea ae 3c bb db cb 3c e6 44 92 3c 5c b3 9e 3c
       0.021351997 0.02488505 0.017855119 0.019372635
0000b0 23 85 ab 3c 06 4c 65 3c bb fa 95 3c e9 fc b1 3c
       0.020937508 0.013995176 0.018308034 0.021727042
0000c0 87 72 5b 3c 04 14 8e 3c 10 fd a8 3c c5 9a 6b 3c
       0.013394005 0.017343529 0.020628482 0.014380162
0000d0 a9 16 81 3c af d1 8c 3c 1d 85 43 3e 33 e6 3b 3e
       0.015757876 0.017189829 0.19093747 0.18349533
0000e0 0d fc 48 3e 77 20 3d 3e f8 c9 49 3e 4f 9c 4d 3e
       0.196274 0.18469416 0.19705951 0.20079158
0000f0 ae 05 4e 3e 38 1c 55 3e de 1a 4d 3e ab 48 13 3e
       0.20119354 0.20811546 0.2002978 0.1438319
000100 39 b2 0c 3e ad 1d 18 3e a4 85 0c 3e c5 04 15 3e
       0.13739862 0.1485507 0.13722855 0.145526
000110 9c 36 17 3e ca 25 1a 3e be c6 1d 3e c0 34 15 3e
       0.14766926 0.15053478 0.15407845 0.14570904
000120 83 b8 fe 3d 13 0b ee 3d 83 21 01 3e 81 e5 f1 3d
       0.124375366 0.11623206 0.1261044 0.118113525
000130 45 dc fa 3d 0c 0c fe 3d de 43 06 3e 1c 36 06 3e
       0.12249044 0.124046415 0.13111827 0.13106579
000140 a8 29 fa 3d 7a 23 b1 3d 01 ca b0 3d e9 56 a2 3d
       0.122149765 0.08649345 0.08632279 0.07926733
000150 2f f4 9f 3d 02 0a a1 3d 77 c6 9d 3d 31 55 86 3d
       0.07810246 0.07863237 0.0770387 0.06559218
000160 e9 3a 88 3d 2b 20 94 3d 04 b8 6a 3d 3f 22 6a 3d
       0.06651861 0.07232698 0.057304397 0.057161566
000170 83 55 55 3d b2 d2 50 3d 3f de 52 3d dd 2b 4f 3d
       0.052083503 0.050982185 0.05148148 0.05057894
000180 91 59 2a 3d ba 11 2e 3d 43 ad 41 3d 9d f7 4c 3d
       0.041589323 0.042497374 0.047284376 0.05004083
000190 2c a1 4c 3d a8 f1 3a 3d 09 5e 36 3d 59 a5 38 3d
       0.049958393 0.045640618 0.044523273 0.045079563
0001a0 ef a6 35 3d d8 ba 14 3d 59 01 18 3d ff 97 29 3d
       0.044348653 0.036311 0.03711066 0.04140472
0001b0 92 86 85 3c 7e 03 7e 3c 0e 94 65 3c e3 14 7d 3c
       0.01629952 0.015503762 0.01401235 0.015446874
0001c0 56 85 82 3c 03 d3 7f 3c 8b 70 77 3c dc 29 83 3c
       0.01593272 0.015614274 0.015102516 0.016011171
0001d0 0d 7d 90 3c 27 0c 46 3c 5e 77 3c 3c 28 bc 24 3c
       0.017637754 0.012087858 0.011503069 0.010054626
0001e0 fa a0 3b 3c a6 e8 3f 3c 49 d0 37 3c 08 f3 33 3c
       0.011451954 0.011713183 0.011219093 0.010983236
0001f0 8f 4a 39 3c 6e b9 4e 3c 34 f5 30 3c 35 99 25 3c
       0.01130928 0.012617452 0.0108006485 0.010107328
000200 f4 d2 0f 3c be 61 25 3c fe b4 25 3c 8f 77 20 3c
       0.0087783225 0.010094104 0.010113953 0.00979413
000210 e1 14 1b 3c 80 15 1c 3c 03 82 32 3c 38 47 2a 3d
       0.009465427 0.00952661 0.010895255 0.041571826
000220 5c 7e 52 3d 34 6c 5e 3d 2a b2 1f 3d 21 2a 48 3d
       0.051390037 0.05430241 0.03898827 0.048868302
000230 c7 83 4c 3d 67 0b 07 3d 8d 6e 27 3d f5 76 37 3d
       0.04993036 0.03296986 0.040876914 0.04479118
000240 9d 96 fc 3c d4 08 1e 3d aa 4e 25 3d a7 89 e9 3c
       0.030833537 0.038582638 0.040358223 0.02850802
000250 2e e0 13 3d 8a fd 14 3d a0 fe c1 3c d0 2c f2 3c
       0.036102466 0.036374606 0.023680985 0.029562384
000260 60 87 04 3d 49 ac cc 3c 4f 71 00 3d 1e e0 05 3d
       0.032355666 0.024984496 0.03135806 0.032684438
000270 a3 c8 bc 3c 6b b1 ef 3c dc a1 f0 3c d2 89 9d 3c
       0.02304489 0.029259404 0.029374056 0.019230757
000280 ea 2c c5 3c 8b a9 d7 3c eb 49 47 3e 87 d2 33 3e
       0.024069268 0.026325962 0.19461791 0.17560779
000290 92 4f ed 3d 08 84 2b 3e b8 fb 1b 3e 30 1a de 3d
       0.115874425 0.16749585 0.15232742 0.108448386
0002a0 27 42 0e 3e 7e ee f6 3d d5 ae d3 3d c5 4e 18 3e
       0.13892423 0.120572075 0.10336081 0.14873798
0002b0 41 e9 06 3e a4 80 a7 3d 97 c7 fb 3d 89 0b e1 3d
       0.13174917 0.08178833 0.12293928 0.10988528
0002c0 ef 11 98 3d 76 fc c8 3d 5b dd a8 3d 8b a1 8b 3d
       0.074252956 0.09813778 0.08245345 0.06817921
0002d0 98 3e 09 3e 16 3c f4 3d f9 38 97 3d dc 97 e1 3d
       0.13402784 0.11925523 0.073839135 0.11015293
0002e0 49 6d cb 3d 87 97 89 3d 3e 9c b3 3d ea 8b 97 3d
       0.09932954 0.06718355 0.08770035 0.07399733
0002f0 e0 56 7a 3d 22 d3 cd 3b 99 10 00 3c b7 67 1d 3c
       0.061118007 0.0062812725 0.007816457 0.009607247
000300 e8 a7 00 3c 9b b4 25 3c 5b 70 30 3c 89 d9 12 3c
       0.007852532 0.0101138605 0.010768975 0.008962997
000310 f4 f0 23 3c 72 7c 19 3c b3 a9 5d 3b d4 03 98 3b
       0.010006178 0.009368049 0.0033823072 0.004639128
000320 e3 f1 cf 3b 32 23 94 3b 27 d8 d1 3b 0c 7b ec 3b
       0.006345974 0.004520797 0.006403941 0.007216817
000330 76 a2 b3 3b 94 eb cf 3b 93 1b c6 3b 16 ca 51 3b
       0.0054820133 0.006345222 0.0060457676 0.0032011322
000340 22 3b 90 3b c5 17 c9 3b 36 35 8c 3b e6 26 c8 3b
       0.0044015804 0.0061368668 0.004278804 0.0061081527
000350 80 7b e4 3b 95 9e aa 3b a7 d6 c6 3b 4d b4 bf 3b
       0.00697273 0.0052068927 0.006068069 0.005850351
000360 e6 d9 b1 3c a8 92 b2 3c 72 83 c2 3c c3 78 ad 3c
       0.021710347 0.021798447 0.023744319 0.021175748
000370 b1 07 bd 3c 64 ae d5 3c f4 ab d7 3c 9e a7 ef 3c
       0.023074957 0.026084132 0.02632711 0.02925473
000380 78 2c ec 3c fd 04 73 3c c1 5b 72 3c df 48 87 3c
       0.028829798 0.014832732 0.014792384 0.01651424
000390 91 0d 6a 3c 45 ff 7f 3c cc ca 94 3c 7c 68 98 3c
       0.014285461 0.015624826 0.018163107 0.01860451
0003a0 b1 f6 aa 3c ec f8 a8 3c 27 69 51 3c ab e4 50 3c
       0.020869585 0.020626508 0.012781418 0.012749831
0003b0 14 f7 6d 3c f7 6b 4a 3c 54 c4 5d 3c f2 82 83 3c
       0.01452424 0.012354842 0.013535578 0.01605365
0003c0 dd e2 85 3c d5 21 97 3c 73 e6 96 3c 4b 7a de 3d
       0.016343528 0.01844875 0.018420434 0.10863169
0003d0 04 17 dd 3d f2 e5 c4 3d f7 84 ce 3d 22 14 c1 3d
       0.107954055 0.09614171 0.10083955 0.09427668
0003e0 98 cb a4 3d f5 24 bd 3d 0d 27 a7 3d 67 66 8f 3d
       0.08046645 0.092355646 0.08161745 0.070019536
0003f0 dd 88 a2 3d 50 08 a0 3d 1e 49 8c 3d 1d 7b 94 3d
       0.07936261 0.078140855 0.068498835 0.072500445

exp_avg f4 [10]
000000 29 21 89 be f7 8c 63 be ad 01 0d 3f b0 67 18 be
       -0.26783112 -0.22221743 0.5508068 -0.14883304
000010 2e 7a c9 3d 15 35 02 3e 9a c0 03 3f 6d d8 24 bd
       0.09837757 0.12715562 0.5146576 -0.040245462
000020 db e0 16 be 94 04 ab be
       -0.14734213 -0.3340193

exp_avg_sq f4 [10]
000000 f3 81 a7 3e 2e 53 16 3e d6 09 4f 3f ad be e1 3e
       0.3271633 0.14680168 0.80874383 0.44090787
000010 95 83 5f 3d b1 ed 35 3e df 0c 6c 3f 19 38 1b 3d
       0.054568846 0.17766453 0.9220714 0.037895296
000020 47 22 14 3e c3 01 d2 3e
       0.14466201 0.4101697
