Pytorch face detection - Test/MTCNN_train_process/1/checkpoint_600.pth (torch, 140275 bytes, 36 tensors)

conv1.weight f4 [10, 3, 3, 3]
0	0xbd430ddc	-0.04762064
1	0xbdd7294a	-0.10505922
2	0x3d1fe813	0.039039683
3	0x3e046d4a	0.12932315
4	0x3e6ef046	0.23333845
5	0x3e1d704f	0.15374874
6	0xbd887536	-0.06662981
7	0xbe6a2d1c	-0.2286877
8	0xbdee155b	-0.11625167
9	0xbe3a0adb	-0.18168204
10	0xbd8aa97c	-0.06770608
11	0xbcf1c441	-0.029512526
12	0x3ddb834e	0.10718404
13	0x3e7a9963	0.24472575
14	0x3cf4d818	0.029888198
15	0x3d703404	0.058643356
16	0xbcb4cc10	-0.02206996
17	0xbe8d476c	-0.27593553
18	0xbdce1bea	-0.10063918
19	0x3dc798f5	0.09745971
20	0xbe18a9fd	-0.14908595
21	0x3e22ebb1	0.15910222
22	0x3e02432c	0.12720937
23	0x3e6cb111	0.2311442
24	0xbd2012dc	-0.039080486
25	0xbd88f2f8	-0.066869676
26	0xbe1a0d74	-0.15044194
27	0xbe9f70de	-0.31140798
28	0xbe61c3bf	-0.22047327
29	0xbe930089	-0.28711346
30	0xbe86f718	-0.26360393
31	0xbd801f1b	-0.06255933
32	0xbbdf522b	-0.006815215
33	0xbe2ac2e8	-0.16675913
34	0xbe0e8cdc	-0.13920921
35	0xbe653df7	-0.22386919
36	0x3eb55192	0.35413796
37	0x3e20f79e	0.15719458
38	0x3e7d8360	0.24757147
39	0x3e28511f	0.16437195
40	0x3e5d8b0d	0.21635075
41	0x3e014f86	0.12627992
42	0x3e4e1a50	0.20127225
43	0x3e477939	0.19479837
44	0x3e852f49	0.26012638
45	0x3e03285e	0.12808368
46	0x3d531480	0.051533222
47	0xbc6abbdb	-0.014327015
48	0x3d20c70a	0.03925232
49	0xbcad2f65	-0.021140764
50	0x3ccecc75	0.025243977
51	0x3d59c55a	0.053166725
52	0xbce75831	-0.028240295
53	0xbd26a3e0	-0.040683627
54	0x3e9450ca	0.28967887
55	0x3e8c25d1	0.27372602
56	0x3e5c9272	0.2154024
57	0x3eb9bb8b	0.36275896
58	0x3e09fd1f	0.13475464
59	0x3e612437	0.21986471
60	0x3e98b56c	0.29825914
61	0xbe4b1e59	-0.19835795
62	0x3cc33650	0.02382961
63	0x3e45fdc5	0.19335087
64	0x3dd12d1e	0.102136835
65	0xbd789154	-0.06068547
66	0xbd2ade2c	-0.041715786
67	0xbebbc747	-0.36675474
68	0xbe96140a	-0.29312164
69	0x3d3e39b3	0.046441745
70	0xbea96d78	-0.3309133
71	0x3baec93d	0.005334048
72	0xbdeabaf8	-0.11461443
73	0x3dc17ce9	0.09447653
74	0x3e254f91	0.16143633
75	0xbd4c4299	-0.0498682
76	0xbcdd8e17	-0.027045293
77	0xbe487ade	-0.1957812
78	0xbcf82604	-0.030291565
79	0xbe15b909	-0.14621367
80	0x3e260bd3	0.16215448
81	0x3e047e29	0.12938751
82	0xbe5912c8	-0.2119857
83	0x3df6ac93	0.12044635
84	0x3e1f3a90	0.15549684
85	0xbe1ff2dd	-0.15619989
86	0xbbc24899	-0.0059290645
87	0x3d94dbaa	0.0726846
88	0xbe224d98	-0.15849912
89	0xbe0f3041	-0.13983251
90	0x3e15e35f	0.14637516
91	0xbda040d2	-0.078248635
92	0x3e91f1a4	0.2850467
93	0x3da6b40f	0.08139812
94	0x3d6cbf0c	0.057799384
95	0x3e42a56b	0.19008414
96	0xbe2a57ec	-0.16635102
97	0xbe387a68	-0.18015444
98	0xbe141372	-0.14460543
99	0x3d6dd0b2	0.058060355
100	0xbd5216d4	-0.0512913
101	0x3bc08bda	0.0058760466
102	0xbe4d7b98	-0.20066679
103	0xbd1ae789	-0.037818465
104	0x3daeac9a	0.08529015
105	0xbcb4e5f1	-0.0220823
106	0x3d08c741	0.03339315
107	0x3d90c84e	0.07069455
108	0xbe2925b8	-0.16518295
109	0xbd46f9a4	-0.04857792
110	0x3df127e0	0.11775184
111	0xbe157b1e	-0.14597747
112	0xbde15698	-0.110028446
113	0xbcb5cc3c	-0.022192113
114	0xbe4c8300	-0.19971848
115	0xbdc56830	-0.09639013
116	0xbd2f97a9	-0.042869244
117	0x3e81fe69	0.25389412
118	0xbbe29d8d	-0.006915754
119	0x3dc2781a	0.09495564
120	0x3e87cd7a	0.26523954
121	0x3e54c52c	0.2077834
122	0xbd8f67dc	-0.070022315
123	0x3e274b40	0.163373
124	0x3e4a2abe	0.19742867
125	0xbd585738	-0.052817553
126	0xbd3a3bd6	-0.04546722
127	0x3db131b9	0.08652062
128	0xbe59b3c2	-0.21259978
129	0xbd02e6a0	-0.031958222
130	0x3c191269	0.009342768
131	0x3df9d9b6	0.12199728
132	0xbd162bfd	-0.036663044
133	0xbd759471	-0.059956018
134	0x3e014d6b	0.12627189
135	0x3e045f72	0.12927034
136	0x3bebc917	0.0071956026
137	0xbec56da4	-0.38560212
138	0x3e7b266a	0.24526373
139	0x3e38542b	0.18000858
140	0xbe715134	-0.23566133
141	0xbd9ee35f	-0.07758211
142	0x3ea00e36	0.31260842
143	0x3e399286	0.181223
144	0xbd382727	-0.044959214
145	0xbd0d22ad	-0.034456898
146	0xbea4586a	-0.32098705
147	0x3c87f1c6	0.016594779
148	0x3e3e0563	0.18556742
149	0xbe79e201	-0.2440262
150	0xbdccaea8	-0.099942505
151	0x3d52fc17	0.051509943
152	0xbe0e2d93	-0.13884573
153	0x3dc4c9ba	0.09608789
154	0xbdac3ee8	-0.08410436
155	0xbe14d10e	-0.14532873
156	0xbd0b6133	-0.034028243
157	0x3dfff13f	0.12497186
158	0x3d6ea454	0.058262184
159	0x3da12090	0.07867539
160	0x3c7fc32e	0.015610499
161	0x3dc197d0	0.09452784
162	0x3ddd5111	0.10806478
163	0xbe45d885	-0.19320877
164	0x398c9a3f	0.00026817803
165	0x3e25ab14	0.16178542
166	0xbd06b70d	-0.032889415
167	0x3cfd01aa	0.030884583
168	0xbdc2e2db	-0.095159255
169	0xbd5ee405	-0.054416675
170	0xbe299ae5	-0.16562994
171	0x3db973a7	0.09055262
172	0x3e14d5d5	0.14534695
173	0x3d8372af	0.064183585
174	0xbdddde72	-0.10833444
175	0x3e1af89b	0.15133898
176	0xbbb3640a	-0.005474572
177	0x3bd0f15b	0.006376428
178	0x3e87762a	0.2645734
179	0x3df7e7bd	0.121047474
180	0xbddcafd8	-0.10775727
181	0xbdb78df7	-0.089626245
182	0x3dc9545b	0.09830543
183	0x3d139cb0	0.0360381
184	0xbe23568c	-0.15950984
185	0xbd6fce1b	-0.058546167
186	0xbe016ffa	-0.12640372
187	0x3da439fd	0.08018873
188	0x3e104a29	0.1409079
189	0x3e2ab97c	0.16672319
190	0x3e1521ab	0.14563625
191	0xbe0b937a	-0.13630477
192	0x3e9625bc	0.29325664
193	0x3e28c517	0.16481434
194	0x3c903c94	0.01760701
195	0x3d0ea604	0.034826294
196	0x3dd23b42	0.10265209
197	0xbd7354f7	-0.0594072
198	0x3cf5d290	0.03000763
199	0x3e04c9af	0.12967561
200	0xbe7fa19c	-0.24963993
201	0xbe530b7a	-0.20609847
202	0xbe4f4769	-0.20242085
203	0xbe7c5e5c	-0.2464537
204	0xbe256752	-0.16152695
205	0xbe1285bb	-0.14308827
206	0xbd9ad083	-0.07559302
207	0x3d9e1f63	0.0772083
208	0x3dbb85f2	0.091564074
209	0xbe18eaf0	-0.14933372
210	0xbd49ed38	-0.049298495
211	0x3911dc06	0.00013910243
212	0x3d963f4c	0.07336292
213	0x3d0e52f9	0.034747098
214	0xbdc9881c	-0.09840414
215	0x3e575173	0.21027164
216	0xbe93bdf2	-0.28855854
217	0xbea2031d	-0.31643
218	0xbe5530f9	-0.20819463
219	0x3e103ac0	0.14084911
220	0x3d80fb4d	0.06297932
221	0xbd1697b1	-0.036765758
222	0x3e795771	0.24349762
223	0x3e640c5e	0.22270343
224	0x3e2d7af9	0.16941442
225	0xbe14b718	-0.1452297
226	0xbde68214	-0.11255279
227	0x3cd603ef	0.026124923
228	0x3dca6e5f	0.09884333
229	0xbcb4bb4b	-0.022061964
230	0x3d905915	0.07048241
231	0x3d087abb	0.03332017
232	0x3bef3536	0.0073000444
233	0x3d18a913	0.037270617
234	0xbdba6d5f	-0.09102892
235	0xbc0398a8	-0.008032002
236	0xbde21b86	-0.11040406
237	0x3c925078	0.017860636
238	0x3cf332d5	0.029687325
239	0x3d3f0769	0.046637926
240	0x3c9b40b2	0.018951748
241	0x3df01698	0.117230594
242	0xbc8d08e7	-0.017216159
243	0xbe9ba388	-0.30398202
244	0x3e44fae3	0.1923633
245	0x3d92f9b0	0.0717653
246	0xbded33df	-0.11582159
247	0x3e4f2814	0.20230132
248	0x3c2a4fa6	0.010394966
249	0xbe46be46	-0.19408521
250	0xbe25889a	-0.1616539
251	0xbd83191c	-0.064012736
252	0x3e2209e5	0.15824087
253	0xbdd7a56d	-0.10529599
254	0xbd58fcb2	-0.052975364
255	0xbc8576c2	-0.01629198

conv1.bias f4 [10]
0	0x3dde3287	0.10849481
1	0x3e3df57e	0.18550679
2	0x3b20a260	0.0024510846
3	0xbb07a2bd	-0.0020696365
4	0xbe2d873c	-0.16946119
5	0x3da6bdc5	0.081416644
6	0xba2542fa	-0.0006304231
7	0x3de7258f	0.112864606
8	0x3a9a1019	0.0011754065
9	0x3ee2105b	0.44153103

conv2.weight f4 [16, 10, 3, 3]
0	0x3e146e9b	0.14495318
1	0xbb917d8e	-0.004440016
2	0x3aaaa67c	0.0013019587
3	0x3db8351c	0.08994505
4	0x3d42624e	0.047457032
5	0xbcf6e112	-0.030136619
6	0x3ddf13ae	0.108924255
7	0xbcfd920e	-0.030953433
8	0x3e03950f	0.1284983
9	0xbdb2ed5b	-0.08736678
10	0x3d9c1913	0.0762197
11	0x3e939235	0.28822485
12	0xbca7aae2	-0.020467225
13	0x3dc1c7b3	0.09461918
14	0x3e0ec9b3	0.1394413
15	0xbe91f732	-0.28508908
16	0x3e6ed121	0.23321964
17	0xbb39b303	-0.002833546
18	0xbc655e39	-0.013999515
19	0x3d940b2d	0.07228694
20	0x3d4e04ff	0.050297733
21	0xbe0551b5	-0.1301945
22	0x3d0ad303	0.033892643
23	0xbd5ab615	-0.053396303
24	0xbdab36a9	-0.08360035
25	0x3df10a0e	0.11769496
26	0x3e002fd3	0.12518243
27	0x3d755009	0.05989078
28	0x3e102b57	0.14079033
29	0x3f0382dc	0.5137155
30	0x3ea6dbe3	0.32589635
31	0x3e9fc8a4	0.31207764
32	0x3d8d74dd	0.069070555
33	0x3e0b5586	0.13606843
34	0x3e9ee174	0.31031382
35	0x3eb6fd5d	0.35740176
36	0xbdedd4e9	-0.11612875
37	0x3cf2869c	0.029605202
38	0x3dfcdac9	0.123464175
39	0x3d5feb6e	0.054667883
40	0x3d032f2c	0.03202741
41	0x3d84a6a7	0.06477099
42	0xbe4de1c7	-0.20105658
43	0x3d9f410c	0.077760786
44	0x3eb5db11	0.35518697
45	0xbe92a39f	-0.28640458
46	0x3dd12ef2	0.10214032
47	0x3dc8fa3d	0.09813354
48	0xbda35ed6	-0.07977073
49	0x3dc4a78f	0.09602272
50	0x3b815f0f	0.0039480994
51	0xbe043722	-0.12911656
52	0x3e1737aa	0.14767328
53	0x3de5cdea	0.112209156
54	0xbe7415d0	-0.23836446
55	0xbcff21dc	-0.031144075
56	0x3e01cf29	0.12676682
57	0xbe834c4f	-0.25644156
58	0xbd15abc1	-0.03654075
59	0xbdb95f15	-0.090513386
60	0xbddaf807	-0.10691839
61	0xbe2b23ec	-0.16712922
62	0xbddcd9f2	-0.10783757
63	0xbce6a871	-0.028156491
64	0x3e5e2f3b	0.21697704
65	0x3d768097	0.060181227
66	0xbe0d5dfc	-0.13805383
67	0x3e0bb0f5	0.13641723
68	0xbce0fd0f	-0.027464418
69	0xbd919049	-0.07107598
70	0xbe477c66	-0.19481048
71	0xbe4a11bb	-0.19733326
72	0x3d9d6839	0.076858945
73	0x3d3ac3fb	0.045597058
74	0x3e78394b	0.24240606
75	0x3e762ef2	0.24041346
76	0x3de05b11	0.109548695
77	0x3e60460f	0.21901725
78	0xbc8e6d9e	-0.017386254
79	0x3d9dcf46	0.0770555
80	0xbc449b52	-0.011999922
81	0xbe52fc6f	-0.20604108
82	0x3dd782de	0.10523008
83	0x3dfcefea	0.123504475
84	0xbe046b60	-0.12931585
85	0x3e6a63ab	0.22889583
86	0x3e204a5a	0.15653363
87	0xbed61386	-0.4181177
88	0xbe59e877	-0.21280085
89	0xbcff9214	-0.031197585
90	0x3d588f76	0.05287119
91	0xbd1e117e	-0.0385909
92	0x3d2c5d32	0.042081065
93	0x3dd8c083	0.10583594
94	0xbd1e97a8	-0.03871885
95	0xbbfcbb04	-0.0077127237
96	0x3d6dbdb1	0.058042232
97	0x39ff2243	0.00048662917
98	0xbc11928c	-0.008885037
99	0xbc12deef	-0.008964284
100	0x3d5ce81a	0.053932287
101	0xbe080b19	-0.13285483
102	0xbde35376	-0.11099903
103	0x3d3c8d94	0.046033457
104	0xbcfbe7ab	-0.030750116
105	0xbdb61036	-0.08889811
106	0xbc6679e2	-0.014067145
107	0xbe276ce6	-0.16350135
108	0x3d763dcd	0.06011753
109	0xbd190048	-0.037353784
110	0xbd341e4f	-0.043974217
111	0x3e14e1f5	0.14539321
112	0xbd98b057	-0.07455509
113	0x3bbc0033	0.0057373284
114	0x3e5c373e	0.21505448
115	0xbc829c51	-0.015943678
116	0x3d31335d	0.043261874
117	0xbd24847b	-0.040165406
118	0xbd8043ea	-0.062629536
119	0x3bca90ed	0.0061818273
120	0xbbf8f062	-0.0075970152
121	0x3d6d78f5	0.05797668
122	0xbd03f255	-0.032213528
123	0x3e60a234	0.21936876
124	0x3dd14b3f	0.1021943
125	0x3d10b5bb	0.03532956
126	0xbd1187fc	-0.035530075
127	0xbd062dd9	-0.032758567
128	0x3e4e2131	0.20129849
129	0xbd1db7dd	-0.038505424
130	0xbdc941cf	-0.09827005
131	0xbc8e3018	-0.017356917
132	0xbd412dd1	-0.047162835
133	0x3d30fc9e	0.043209665
134	0x3e56140d	0.20906086
135	0xbda0076f	-0.07813918
136	0x3973f084	0.00023263885
137	0x3c62ed4d	0.013850522
138	0xbe543b81	-0.20725824
139	0xbdc2e131	-0.09515608
140	0x3e058aea	0.13041273
141	0xbdbcad9f	-0.09212803
142	0x3d99f862	0.075180784
143	0x3d08efda	0.033431865
144	0x3dd5f106	0.10446362
145	0xbd074051	-0.03302032
146	0xbd8ceffe	-0.068817124
147	0x3dd2d34d	0.10294209
148	0x3cba207b	0.022720566
149	0x3c938a51	0.01801029
150	0xbd0e4036	-0.034729205
151	0x3dc3494c	0.09535465
152	0xbdc8d804	-0.09806827
153	0x3b5555fb	0.003255247
154	0xbd71f8c3	-0.05907513
155	0x3d6ad56b	0.057332437
156	0xbe0df236	-0.13861927
157	0xbeb112b4	-0.34584582
158	0xbe587c5a	-0.21141186
159	0xbe640d83	-0.2227078
160	0xbe895773	-0.2682453
161	0xbe24d541	-0.16096975
162	0xbd28bb9a	-0.041194536
163	0x3e0dff3d	0.13866897
164	0x3ce6baf6	0.028165322
165	0x3d98887c	0.07447907
166	0x3d8a80f0	0.06762874
167	0x3d813a9b	0.06310006
168	0x3d108ee8	0.035292536
169	0xbd4f0ac4	-0.050547376
170	0xbc5e8cdd	-0.013583389
171	0xbcf7ed62	-0.03026456
172	0x3d9be271	0.0761155
173	0x3e0db590	0.13838792
174	0xbcbbf211	-0.022942575
175	0x3dbb0ccd	0.09133301
176	0x3dfc46f4	0.12318221
177	0xbdac4959	-0.084124275
178	0xbd3bee82	-0.045881756
179	0x3e302e01	0.17205049
180	0x3daf0a90	0.085469365
181	0x3e2ba685	0.16762741
182	0xbcf6e4d1	-0.030138405
183	0xbd0ce031	-0.034393493
184	0x3e0227be	0.12710473
185	0x3b896b82	0.004193724
186	0x3b721903	0.0036941178
187	0xbc80bf6f	-0.015716283
188	0x3c50e01f	0.012748747
189	0x3e270e62	0.1631408
190	0xbd46206a	-0.048370756
191	0x3da99880	0.0828104
192	0x3c9acfce	0.018897917
193	0xbe3de6a1	-0.18545009
194	0xbdc60040	-0.096680164
195	0xbc86456b	-0.016390523
196	0xbe31afcc	-0.17352217
197	0xbdaf186a	-0.085495785
198	0x3e442da5	0.19158037
199	0x3df4c3bf	0.11951398
200	0x3d1b29f9	0.037881825
201	0x3e251d9f	0.16124581
202	0x3dc95ab9	0.09831757
203	0x3dddc5bc	0.108287305
204	0x3c27e79f	0.010248094
205	0x3dd11c40	0.102104664
206	0x3de4e1ec	0.11175904
207	0xbdaa6f35	-0.08321992
208	0xbd87ea1c	-0.0663645
209	0x3d832d5c	0.06405136
210	0xbdcff8db	-0.10154887
211	0xbce528a6	-0.027973484
212	0xbe20db52	-0.15708664
213	0xbe27b412	-0.16377285
214	0xbe15955c	-0.14607757
215	0xbe041b73	-0.12901096
216	0x3deedc04	0.116630584
217	0x3dc7676f	0.09736525
218	0x3dd5c570	0.10438049
219	0x3d380e8f	0.04493576
220	0x3e66651b	0.22499506
221	0x3e49b949	0.19699587
222	0x3e7b90fc	0.24567026
223	0x3da380c1	0.07983542
224	0x3c9db21d	0.01924997
225	0xbd4381de	-0.047731273
226	0x3dc0e091	0.09417833
227	0x3e4504fc	0.19240183
228	0x3e130072	0.14355639
229	0x3e8af109	0.2713702
230	0x3e41c84c	0.18924063
231	0x3c3dd0cb	0.011585425
232	0x3e21a4a2	0.15785459
233	0xbdae6d2a	-0.08516915
234	0xbdfa8b7e	-0.12233637
235	0xbe356720	-0.1771512
236	0x3d81c1b7	0.06335776
237	0x3d352008	0.04422
238	0x3ca2c84b	0.019870898
239	0xbd3ad103	-0.045609485
240	0xbdda2bd7	-0.10652893
241	0xbcff60d7	-0.031174107
242	0xbdbd9c6c	-0.09258351
243	0xbe941352	-0.2892099
244	0xbe88968b	-0.26677355
245	0xbda90808	-0.08253485
246	0xbe6ebca2	-0.23314145
247	0xbe89128a	-0.26771957
248	0xbdbf6761	-0.0934589
249	0xbdd12baa	-0.102134064
250	0xbd810822	-0.06300379
251	0xbbc67c68	-0.006057311
252	0x3da1f385	0.07907776
253	0x3e6906a4	0.2275644
254	0x3e528cb9	0.20561494
255	0x3e06d9d4	0.13169032

conv2.bias f4 [16]
0	0x3dd607b8	0.10450691
1	0x3d11cffa	0.035598733
2	0x3d8ddd53	0.0692698
3	0x3df58fda	0.11990328
4	0xbdf20283	-0.11816885
5	0xbc1b029b	-0.00946107
6	0x3e04d912	0.12973431
7	0xbde7b322	-0.11313464
8	0x3d0c12ae	0.0341975
9	0xbd3128ac	-0.04325168
10	0xbe293732	-0.16524962
11	0xbd81f8f0	-0.06346309
12	0x3d3d0980	0.046151638
13	0x3e74b974	0.2389887
14	0x3e426baf	0.1898639
15	0x3de2fc18	0.11083239

conv3.weight f4 [32, 16, 3, 3]
0	0x3d298228	0.041383892
1	0x3e4bab54	0.19889575
2	0x3d2da1cd	0.042390633
3	0xbd8ea280	-0.06964588
4	0x3d3207ac	0.043464348
5	0x3dad04e9	0.08448202
6	0xbec8482e	-0.3911757
7	0xbe119e6d	-0.14220591
8	0xbad51104	-0.0016255681
9	0xbeb77b0d	-0.35836068
10	0xbe80d374	-0.25161326
11	0xbecc1728	-0.39861417
12	0xbed381a2	-0.4130984
13	0xbec9fdf4	-0.39451563
14	0xbea63c00	-0.3246765
15	0xbf3417b8	-0.7034869
16	0xbf4ea7a7	-0.8072457
17	0xbebb9b64	-0.3664199
18	0x3e2187ec	0.15774506
19	0x3ddb8f74	0.10720721
20	0xbc55f6dd	-0.013059345
21	0x3e1ba1db	0.15198462
22	0xbcc7a18c	-0.024369024
23	0x3cea40dc	0.02859538
24	0x3def16a1	0.11674238
25	0xbd8dcf9d	-0.06924365
26	0xbe148176	-0.1450251
27	0x3e53afbd	0.20672508
28	0xbd29643f	-0.041355368
29	0xbdcccb51	-0.09999717
30	0xbdcd1d97	-0.100154094
31	0xbda504a2	-0.08057524
32	0xbe171120	-0.14752626
33	0xbd697b26	-0.05700221
34	0xbecced02	-0.40024573
35	0xbe9531de	-0.29139608
36	0x3d57c80d	0.052681018
37	0xbd9b7a8c	-0.07591733
38	0x3d1fa060	0.038971305
39	0x3cb53639	0.022120582
40	0xbe2289c1	-0.15872861
41	0xbcea3a25	-0.028592179
42	0x3d4f03b7	0.050540652
43	0xbdabe4a7	-0.08393221
44	0x3e129a7c	0.14316744
45	0x3db7bce5	0.08971576
46	0xbe999e0a	-0.30003387
47	0xbc6c265e	-0.014413444
48	0x3e875a6f	0.26436183
49	0x3dd045b1	0.101695426
50	0xbe0019bc	-0.12509817
51	0xbbb93360	-0.0056518763
52	0x3dbaa6ff	0.09113883
53	0x3d2e6a94	0.04258211
54	0xbb047c5b	-0.0020215723
55	0x3dc0aa8f	0.094075315
56	0x3de7b622	0.11314036
57	0xbd9ed5bc	-0.0775561
58	0x3db6b718	0.08921641
59	0x3d971b6b	0.073782764
60	0xbdf93530	-0.12168348
61	0x3c32eaa4	0.0109202005
62	0x3d6f0c0c	0.0583611
63	0xbce479ed	-0.02789017
64	0x3dad16ad	0.08451591
65	0x3c947e9a	0.018126775
66	0x3e31d0c1	0.1736479
67	0x3df4c9b8	0.11952537
68	0x3d8e9828	0.06962615
69	0x3b32e983	0.0027299828
70	0xbdbc3bb6	-0.091910765
71	0xbd924f1c	-0.07143995
72	0xbefaae69	-0.4896119
73	0xbf3df9e3	-0.7420942
74	0xbf315f69	-0.6928621
75	0xbf4261b4	-0.75930333
76	0xbf3849ac	-0.71987414
77	0xbf8018f4	-1.0007615
78	0xbe1b9abf	-0.1519575
79	0xbe8d74b1	-0.2762809
80	0xbe41cacc	-0.18925017
81	0x3e19bbc5	0.15013035
82	0x3e086917	0.13321339
83	0x3dffd3b1	0.12491549
84	0xbd0e0554	-0.03467305
85	0xbde0fc19	-0.10985584
86	0x3e039b44	0.12852198
87	0x3db5d4e2	0.08878495
88	0xbd571c17	-0.052517023
89	0x3e255844	0.16146952
90	0xbe9c6e8b	-0.30553088
91	0xbdf35530	-0.118814826
92	0xbe501181	-0.20319177
93	0xbe2f337b	-0.17109482
94	0xbd308ee7	-0.043105032
95	0xbe519ed2	-0.20470741
96	0xbe90d41d	-0.2828683
97	0xbdf1fda9	-0.1181596
98	0xbde0a5c2	-0.10969116
99	0x3e35b75c	0.17745727
100	0x3e6e60a5	0.23279054
101	0x3e3dc72e	0.18533012
102	0xbda2abaf	-0.07942902
103	0xbd9b8646	-0.0759397
104	0xbdfa528c	-0.12222776
105	0xbe47a567	-0.1949669
106	0xbde296c6	-0.11063914
107	0xbbde1559	-0.006777447
108	0x3e16b36f	0.14716886
109	0xbd8d5a46	-0.06901984
110	0xbdea6fb0	-0.11447084
111	0x3d209edb	0.039213996
112	0x3bba2077	0.0056801396
113	0xbd6e9398	-0.058246225
114	0x3e0c109f	0.13678215
115	0xbd529331	-0.051409904
116	0xbd79cbb1	-0.06098527
117	0xbcbcd9ad	-0.023053015
118	0x3d5ced8b	0.053937476
119	0x3d794058	0.06085238
120	0xbcf50c24	-0.029913016
121	0x3d9e5eb5	0.07732908
122	0x3ddb46e9	0.107068844
123	0x3e581f9e	0.21105811
124	0x3dc7d188	0.09756762
125	0x3e2971e2	0.16547349
126	0x3e33d42d	0.17561407
127	0x3d0b0f58	0.03395018
128	0x3b858682	0.0040748725
129	0x3e109c15	0.1412204
130	0x3de54fbe	0.1119685
131	0x3d3578a8	0.04430452
132	0x3cb4968b	0.02204444
133	0x3d67ee9d	0.056624044
134	0xbdae936a	-0.08524211
135	0xbc7d90e2	-0.015476437
136	0xbb4347fb	-0.0029797542
137	0xbe390486	-0.18068132
138	0xbdfcda9d	-0.12346385
139	0xbe81e68d	-0.2537121
140	0xbdb78289	-0.089604445
141	0xbe063e84	-0.13109785
142	0xbf1948fa	-0.5987698
143	0xbec0cc67	-0.37655947
144	0x3db38af7	0.0876674
145	0xbd543018	-0.05180368
146	0x3cc465ff	0.023974417
147	0x3cd4a85f	0.025959192
148	0xbc635748	-0.01387579
149	0x3d7bd80c	0.061485335
150	0x3e415870	0.18881392
151	0x3d367293	0.04454286
152	0x3c2e410d	0.0106356265
153	0x3eaa8cb6	0.3331048
154	0x3e4a7eff	0.19775008
155	0x3ec130e9	0.37732628
156	0x3e55c3de	0.20875499
157	0x3d216944	0.03940703
158	0xba90e3b4	-0.0011054189
159	0x3e8e299c	0.2776612
160	0xbce2b61f	-0.027674733
161	0x3d89077c	0.06690881
162	0x3d16cf31	0.036818687
163	0x3e09955a	0.1343588
164	0x3c2faa44	0.010721747
165	0x3d586d9b	0.052838903
166	0x3d09630d	0.033541728
167	0x3d62f756	0.05541166
168	0x3ca4982e	0.020092096
169	0x3ddf0f56	0.10891597
170	0xbb8bba8f	-0.004264183
171	0x3dcc0e3c	0.099636525
172	0x3db4e85d	0.08833382
173	0x3e2d1d92	0.16905811
174	0x3dfb4f27	0.122709565
175	0x3dda0e83	0.10647299
176	0xbd080bb3	-0.033214282
177	0xbd62d6be	-0.055380575
178	0x3c206dc2	0.009791793
179	0x3d2585d0	0.040410817
180	0x3d98159e	0.07425998
181	0xbd24fc88	-0.040279895
182	0xbdb9c791	-0.090712674
183	0xbae0edf6	-0.0017160762
184	0x3d728862	0.059212096
185	0x3c2693f3	0.01016711
186	0xbe02411c	-0.1272015
187	0xbdc9c36a	-0.098517254
188	0xbe5d9480	-0.2163868
189	0x3e7ad2c7	0.24494468
190	0x3ecfd9f3	0.4059597
191	0x3e8d962b	0.27653632
192	0x3e356614	0.17714721
193	0x3df8b455	0.121437706
194	0x3e6195c9	0.22029795
195	0x3e6d34da	0.23164693
196	0x3dab4213	0.08362212
197	0x3deff675	0.1171693
198	0xbdb074f5	-0.08616058
199	0x3e439308	0.19099057
200	0x3d5245a7	0.051335957
201	0xbd31ab02	-0.043375976
202	0x3e100435	0.14064105
203	0x3d2aab10	0.041667044
204	0x3d888521	0.06666017
205	0x3daeb773	0.08531084
206	0x3d59ecb2	0.053204246
207	0xbc4d3948	-0.012525864
208	0xbdd62b29	-0.10457451
209	0xbe4ef773	-0.20211582
210	0xbea46ab1	-0.3211265
211	0xbd66a4a1	-0.056309346
212	0xbd22bdd6	-0.039731823
213	0xbe6c2b5b	-0.23063414
214	0x3e0fa4b2	0.1402767
215	0x3e2200d2	0.15820625
216	0x3e01d682	0.12679484
217	0xbb87210e	-0.0041238135
218	0x3dc2e523	0.095163606
219	0x3eb467af	0.35235354
220	0x3e2fb956	0.17160544
221	0x3ea8e1ef	0.32984874
222	0x3eae3da2	0.34031397
223	0xbd4e6422	-0.050388463
224	0x3e675c30	0.2259376
225	0xbd948ef2	-0.07253827
226	0xbdc854d6	-0.09781806
227	0xbe0947c1	-0.13406278
228	0xbddf20cd	-0.10894928
229	0xbdebc5d9	-0.11512346
230	0xbd25a317	-0.040438738
231	0xbdcdcba0	-0.10048604
232	0xbdc51e62	-0.09624936
233	0xbdf483f0	-0.119392276
234	0x3e93c7dd	0.2886342
235	0x3e30dbe0	0.17271376
236	0x3e709699	0.23494948
237	0x3dfc0217	0.12305086
238	0x3db51208	0.0884133
239	0x3e3e589f	0.18588494
240	0x3e29fe59	0.16600932
241	0x3e0a1b5b	0.13486998
242	0x3d3570bc	0.044296965
243	0x3b6e72d0	0.0036384352
244	0x3de2dcc8	0.11077267
245	0xbcd5fd4e	-0.026121762
246	0x3cf13b43	0.029447204
247	0x3e206042	0.1566172
248	0x3e25c405	0.16188057
249	0x3d8e35cf	0.06943857
250	0x3dadf527	0.08494025
251	0x3dc75e6c	0.097348064
252	0xbd6dd8a8	-0.058067948
253	0x3d80a813	0.062820576
254	0x3c025ef1	0.007957206
255	0x3d8e46b4	0.06947079

conv3.bias f4 [32]
0	0x3d7ca17b	0.061677437
1	0xbdc07f38	-0.09399265
2	0x3e262567	0.16225205
3	0xbd758e20	-0.059949994
4	0xbc835846	-0.016033303
5	0x3a93ad47	0.0011266851
6	0x3e2d5e25	0.16930445
7	0x3da7954f	0.08182775
8	0x3d0d05b3	0.034429263
9	0x3d3e0ef7	0.04640099
10	0xbc937b19	-0.018003033
11	0x3d9f96da	0.077924445
12	0x3c0d1ea6	0.008613264
13	0xbcdc0257	-0.026856584
14	0x3cdf729b	0.027276328
15	0x3e4c2cba	0.19938937
16	0x3c782f11	0.01514794
17	0x3d7d5a55	0.061853725
18	0x3c5f52f5	0.013630618
19	0x3c84084c	0.016117238
20	0x3dadab75	0.084799685
21	0xbd02f061	-0.031967524
22	0x3e823de9	0.2543786
23	0x3e76417d	0.2404842
24	0xbcb80fe9	-0.022468524
25	0x39b7f639	0.0003508793
26	0x3d286a2c	0.04111688
27	0xbe4b888c	-0.19876307
28	0x3d9bf438	0.076149404
29	0x3e0fd6c1	0.14046766
30	0xbda15faf	-0.07879578
31	0x3d4219d2	0.047387905

conv4_1.weight f4 [2, 32, 1, 1]
0	0xbfa32445	-1.2745444
1	0x3ef75b97	0.48312065
2	0x3e422403	0.1895905
3	0xbce724ff	-0.028215883
4	0xbe65832a	-0.22413316
5	0xbe2a1755	-0.16610463
6	0xbe0a4a4a	-0.13504902
7	0x3f4f0317	0.8086409
8	0x3d1b41fd	0.03790473
9	0x3f30bfc3	0.69042605
10	0xbe8d4b09	-0.2759631
11	0xbf29ba95	-0.66300327
12	0xbd99509a	-0.07486077
13	0x3f9f1613	1.2428612
14	0x3ed30b1e	0.4121942
15	0x3f80f70c	1.0075393
16	0x3e8f5716	0.2799613
17	0x3ebd69c3	0.36994752
18	0x3e29500d	0.16534443
19	0xbc88fc4b	-0.016721865
20	0x3f119841	0.56872946
21	0xbc47df01	-0.012199164
22	0x3fa33f9e	1.275379
23	0x3f3dddee	0.7416676
24	0x3f82308a	1.0171063
25	0xc00bbcaa	-2.1833901
26	0x3ec5fe82	0.38670737
27	0x3e27e3c5	0.16395481
28	0x3f56c4b0	0.8389387
29	0x3ea5f75d	0.32415286
30	0x3f6304a0	0.8867893
31	0x3de73e36	0.11291163
32	0x3fb03938	1.3767462
33	0xbee7d9c8	-0.4528334
34	0xbead3e4e	-0.33836597
35	0x3e0f8183	0.14014249
36	0x3e71a3ad	0.23597594
37	0x3d4c2d84	0.049848095
38	0x3e1dcab7	0.15409361
39	0xbf387aea	-0.7206255
40	0x3d6d9bad	0.058009792
41	0xbf57e424	-0.8433249
42	0x3e213ebc	0.15746588
43	0x3f26692d	0.65004236
44	0x3c61dcad	0.013785523
45	0xbf83ae4a	-1.0287564
46	0xbeef6f89	-0.46764782
47	0xbf8f3956	-1.1189373
48	0xbec61bb6	-0.38693017
49	0xbf056c57	-0.5211844
50	0xbedba12a	-0.42896396
51	0xbd8dd4c0	-0.069253445
52	0xbf042b07	-0.51628155
53	0x3dc55f27	0.096372895
54	0xbfa4f3f6	-1.2886951
55	0xbf592227	-0.8481774
56	0xbf80b098	-1.0053892
57	0x400a6b57	2.1628015
58	0xbed9ad34	-0.42514956
59	0xbdaaf141	-0.08346797
60	0xbf54428d	-0.8291405
61	0xbe971709	-0.29509762
62	0xbf784435	-0.96979076
63	0x3e1c94a4	0.15291077

conv4_1.bias f4 [2]
0	0xbd1c05c1	-0.038091425
1	0x3dd22213	0.102604054

conv4_2.weight f4 [4, 32, 1, 1]
0	0x3d31f28f	0.043444213
1	0x3d4289e6	0.04749479
2	0xbf039ccb	-0.5141112
3	0x3dca929d	0.098912455
4	0x3d97601a	0.07391377
5	0xbd8bd230	-0.068271995
6	0xbd867f9e	-0.0656731
7	0xbd37117b	-0.044694405
8	0x3e03487a	0.12820616
9	0x3e37bca8	0.1794306
10	0xbcc50233	-0.0240489
11	0xbd298a24	-0.041391507
12	0xbba8a4b9	-0.0051465896
13	0xbd73abf2	-0.05949015
14	0x3d62f217	0.055406656
15	0xbd047764	-0.032340422
16	0xbcbb7afa	-0.022885788
17	0x3eb3f555	0.3514811
18	0xbec5f38e	-0.3866238
19	0xbe1a4ade	-0.15067622
20	0xbc8f4188	-0.017487302
21	0xbe2c11c0	-0.16803646
22	0xbe8ee01e	-0.27905363
23	0xbcbcf433	-0.023065662
24	0x3d0c1544	0.034199968
25	0xbc9c6386	-0.019090425
26	0xbdacbfb3	-0.08435001
27	0x3e96af41	0.29430583
28	0x3d2c8b55	0.042125065
29	0x3ea4f45f	0.3221769
30	0xbe892fdd	-0.2679433
31	0xbdd9c3a9	-0.10633022
32	0xbd980b99	-0.07424087
33	0x3cccf328	0.02501829
34	0xbdb99201	-0.09061051
35	0xbcfc02bd	-0.030763024
36	0x3dc205d3	0.09473767
37	0xbe16a0af	-0.14709733
38	0xbe789391	-0.24275042
39	0x3bccadf4	0.0062463228
40	0xbd240653	-0.040045094
41	0x39a6bb8c	0.0003180172
42	0x3e47e471	0.19520737
43	0xbcea10b6	-0.028572422
44	0xbdf92803	-0.12165835
45	0x3d2f4dc5	0.042798776
46	0x3dbcad1d	0.09212706
47	0x3d898162	0.06714131
48	0xbe144245	-0.14478405
49	0x3eb63f58	0.35595202
50	0x3ea42c73	0.32065162
51	0x3d5cc3d2	0.053897686
52	0xbc87491d	-0.016514355
53	0xbd945ea8	-0.07244617
54	0x3e10101e	0.14068648
55	0xbd8570aa	-0.065156296
56	0xbd8abf6d	-0.06774793
57	0x3c181ba4	0.009283934
58	0xbe03848e	-0.12843534
59	0xbf23f35a	-0.640432
60	0x3b19ce05	0.0023468744
61	0x3c478c3a	0.012179429
62	0x3e344199	0.17603149
63	0xbe1c16c6	-0.15243062
64	0x3c3ce2db	0.011528696
65	0xbca0d909	-0.01963474
66	0xbdbb5751	-0.09147514
67	0xbe30f589	-0.17281164
68	0xbd1c9559	-0.038228367
69	0x3d7b7c30	0.06139773
70	0xbc0fda4d	-0.008780074
71	0x3c5103bd	0.012757239
72	0xbe0a514d	-0.13507576
73	0x3d32eff0	0.043685853
74	0x3d132856	0.03592714
75	0x3c9d20d4	0.019180693
76	0xbb645acb	-0.0034844156
77	0xbd0a37ab	-0.033744495
78	0x3d82be31	0.063839324
79	0xbc47854c	-0.012177777
80	0x3d21cb83	0.039500725
81	0x3ab85688	0.0014063874
82	0xbc5f17ca	-0.013616512
83	0xbe2397c7	-0.15975867
84	0xbd698110	-0.05700785
85	0xbd951150	-0.07278693
86	0x3caac56c	0.020846091
87	0x3c8bff52	0.01708952
88	0xbc491e29	-0.012275257
89	0x3bbe5910	0.005808957
90	0xbc0833aa	-0.008313099
91	0x3e205458	0.15657175
92	0x3c275c8e	0.010214938
93	0xbdadfd8c	-0.08495626
94	0xbdd5fbe1	-0.10448433
95	0x3d289858	0.04116091
96	0xbd78ae1b	-0.060712915
97	0x3c5d422c	0.013504546
98	0x3eb259eb	0.34834227
99	0x3c693a62	0.014235111
100	0x3cb69710	0.02228883
101	0xbc06d1e3	-0.008228752
102	0x3e2064c8	0.15663445
103	0x3be87cbe	0.0070949486
104	0x3d79e170	0.06100601
105	0xbe1a577c	-0.15072435
106	0xbe21f288	-0.15815175
107	0x3c9575e1	0.018244686
108	0xbe277fa9	-0.16357292
109	0x3d6e6b50	0.05820781
110	0xbe13ae4a	-0.14421955
111	0xbcb94a3c	-0.022618406
112	0xbcf0af7f	-0.029380558
113	0xbe218dbb	-0.15776722
114	0x3d2467ba	0.040137984
115	0x3bf88b8e	0.0075849956
116	0x3d9c7278	0.07639021
117	0x3e05a24c	0.13050193
118	0x3de92b81	0.11385251
119	0x3ce51df2	0.02796838
120	0x3d1f2401	0.038852695
121	0xbc8dab28	-0.017293528
122	0x3d21ecbc	0.039532408
123	0xbeb0dba0	-0.3454256
124	0xbc4b3ffc	-0.012405392
125	0x3e35842d	0.17726202
126	0x3e299d94	0.16564018
127	0xbdc2bcbd	-0.09508655

conv4_2.bias f4 [4]
0	0x3db868ba	0.0900435
1	0x3d6635bb	0.056203585
2	0x3f740961	0.9532681
3	0x3f307ea0	0.68943214

conv4_3.weight f4 [10, 32, 1, 1]
0	0x378633ec	1.5998223e-05
1	0x3a758de8	0.0009367154
2	0xba54ddd2	-0.0008120212
3	0x3dfcf29c	0.123509616
4	0xba9b21f0	-0.0011835676
5	0x3e35ee89	0.17766775
6	0x3ac6fa4a	0.0015180793
7	0xb9b83739	-0.0003513636
8	0xbdd1f6fa	-0.10252185
9	0x3b2dd546	0.0026524826
10	0xba1daee1	-0.00060151337
11	0x39818ef8	0.00024711317
12	0x3d48094c	0.04883699
13	0x3944d91d	0.00018772898
14	0xba8291c6	-0.0009961657
15	0xba5c2d9c	-0.00083991303
16	0xba904168	-0.0011005821
17	0xb9ce791a	-0.0003938161
18	0xba233fe8	-0.00062274793
19	0xbdc5ef61	-0.096647985
20	0xba47d0c4	-0.0007622356
21	0x3d9da754	0.07697931
22	0x3b280dc1	0.0025642964
23	0xba6f510c	-0.00091292034
24	0x37a30386	1.9432755e-05
25	0x398a09e6	0.00026328786
26	0xba029db6	-0.0004982607
27	0x38b78661	8.75115e-05
28	0xb86b61f9	-5.611961e-05
29	0x3b41ba3a	0.0029560463
30	0x3a9d38cd	0.0011995077
31	0xbb433724	-0.0029787505
32	0x3a7915e9	0.0009501861
33	0xb9591491	-0.00020702394
34	0xba79dca6	-0.00095314754
35	0xbdc47438	-0.095924795
36	0xba465b80	-0.0007566735
37	0xbe288910	-0.16458535
38	0x3958fb71	0.00020693034
39	0x39d09b36	0.00039788493
40	0xbdcd45f8	-0.10023111
41	0x3b28b2d1	0.0025741349
42	0x3a78a5fa	0.00094851817
43	0x38405cb2	4.5862696e-05
44	0x3d91d365	0.071203984
45	0x38567d29	5.113814e-05
46	0x3a3ce3b6	0.00072055624
47	0x3a8fc5e2	0.0010969008
48	0xb93f9d16	-0.00018273699
49	0xbad278dd	-0.0016057749
50	0xbabdad42	-0.001447119
51	0xbcf3702a	-0.02971657
52	0xba23f341	-0.0006254204
53	0x3d31aec0	0.043379545
54	0xbb63d2ec	-0.003476317
55	0xb93a9d67	-0.00017796979
56	0xb8ddad76	-0.00010570411
57	0xb88d3a7c	-6.7342975e-05
58	0xbaae3c6b	-0.0013293152
59	0xb8c99bb3	-9.613428e-05
60	0x3a2f50a1	0.0006687735
61	0x3ac9bda7	0.0015391604
62	0xb9e95444	-0.00044504006
63	0x3d4de7ea	0.05027
64	0x3cc9cf2e	0.024634924
65	0xbbc48df6	-0.0059983684
66	0xbd2f9b34	-0.042872623
67	0xbdfc4f29	-0.12319786
68	0x3ae83859	0.0017716988
69	0x3e316b33	0.1732605
70	0x3d26a6c9	0.040686402
71	0xbc507214	-0.012722511
72	0xbcc2d92a	-0.023785193
73	0xbd55f2a4	-0.052233353
74	0xbd41d5ec	-0.047323152
75	0x3c8f528f	0.017495422
76	0xbe1d25f9	-0.15346517
77	0x3c79291e	0.015207557
78	0x3d6b0140	0.05737424
79	0xbcfd718e	-0.030937936
80	0xbd0e9d77	-0.03481814
81	0xbcfc80a1	-0.030823054
82	0x3d370469	0.04468194
83	0xbce77042	-0.02825177
84	0xbbdb65a2	-0.006695465
85	0xbe199c83	-0.1500111
86	0xbc9d8843	-0.019230014
87	0x3b0c654b	0.002142268
88	0xbd2c4ddc	-0.04206644
89	0x3c377025	0.011196171
90	0x3afed410	0.0019441862
91	0x3be59291	0.0070059975
92	0x3ca5374c	0.02016797
93	0xbd27f7de	-0.04100787
94	0xbba50ef7	-0.0050371843
95	0xbdfe1d1b	-0.12407895
96	0x3cba67b3	0.022754526
97	0x3ce9bf46	0.02853359
98	0x3d207eef	0.039183553
99	0xbe1d1b7d	-0.15342517
100	0xbe2624e2	-0.16225007
101	0x3d3d8b9e	0.046275727
102	0x3d9c7c19	0.07640857
103	0xbad41c05	-0.0016182667
104	0x3dbb86ee	0.09156595
105	0xbd778a1e	-0.060434453
106	0x3db86094	0.09002796
107	0xbc7516c4	-0.014959041
108	0x3e22169a	0.15828934
109	0x3cbd9815	0.023143807
110	0xbd027047	-0.031845357
111	0xbc4ab555	-0.0123723345
112	0xbd0f17ce	-0.03493481
113	0x3d04e921	0.03244889
114	0xbd174158	-0.03692755
115	0xbd3ac3cb	-0.04559688
116	0xbc101daf	-0.00879614
117	0xbd2545ef	-0.040349897
118	0x3bcf1ad0	0.006320335
119	0xbc162fc8	-0.009166665
120	0xbcc64977	-0.024204953
121	0x3cd33c71	0.025785657
122	0x3c7546d1	0.014970497
123	0x3d41e662	0.04733885
124	0xbbec995c	-0.0072204303
125	0x3c83e017	0.016098065
126	0xbe04596e	-0.1292474
127	0x3e08b4f9	0.13350286
128	0x395da41f	0.00021137342
129	0xbcbd5aed	-0.023114646
130	0xbd2e628e	-0.042574458
131	0xbd3dbc4f	-0.046322163
132	0x3b2682f7	0.002540765
133	0xbe2c395e	-0.16818759
134	0x3db33065	0.08749465
135	0x3b4eb372	0.0031540063
136	0x3cbda8cf	0.023151783
137	0x3c8a60f7	0.01689194
138	0xbdc71e66	-0.09722595
139	0x3ce55bca	0.02799787
140	0x3d8be1fe	0.06830214
141	0xbcbc2e84	-0.0229714
142	0x3dc5789b	0.09642144
143	0x3d0db9bd	0.034600962
144	0xbc74cc3f	-0.014941274
145	0xbd25fef1	-0.040526334
146	0x3dd67e2e	0.104732856
147	0x3da0931e	0.078405604
148	0xb9de0935	-0.0004235
149	0xbe1d0522	-0.1533399
150	0xbc12f34d	-0.00896914
151	0x3c58e01f	0.013237028
152	0xbc27162f	-0.01019816
153	0xbd0a0016	-0.03369149
154	0x3cbc9213	0.023018872
155	0xbdb28eec	-0.087186664
156	0x3babe938	0.0052463077
157	0xbdb525b5	-0.08845083
158	0x3d93d998	0.07219237
159	0x3dc3b2ec	0.09555611
160	0x3cc5721f	0.024102269
161	0x3c8cff69	0.017211633
162	0xbc55d9bf	-0.013052403
163	0x3e317634	0.17330247
164	0xbda57c9e	-0.080804095
165	0x3c792601	0.015206815
166	0x3d81d6b0	0.063397765
167	0xbc0942bd	-0.008377728
168	0xbdde0f34	-0.108427435
169	0xbd0a8327	-0.033816483
170	0x3ca4f5d0	0.020136744
171	0xbbbaeab1	-0.005704247
172	0x3d598082	0.05310107
173	0x3c9af71e	0.018916663
174	0x3cd8d93b	0.026470771
175	0xbc8441b9	-0.01614462
176	0xbd03e0dc	-0.032196864
177	0x3bf1f870	0.0073843524
178	0xbcd6512a	-0.026161749
179	0x3bac115e	0.005251094
180	0xbbc7207a	-0.0060768696
181	0xbdaee3b2	-0.08539523
182	0x39d22d00	0.0004008785
183	0xbb9a3f98	-0.004707288
184	0xbd12b396	-0.035815798
185	0x3c86bfe7	0.016448928
186	0x3bcf90c9	0.0063343984
187	0x3d79c4a4	0.060978547
188	0x3b02a521	0.001993485
189	0xbc567dcd	-0.013091517
190	0xbd66d4e7	-0.056355383
191	0x3e197186	0.14984712
192	0xbd042daa	-0.03227011
193	0xbca086ac	-0.019595467
194	0xbcc4719d	-0.023979956
195	0xbdfd4b51	-0.12367881
196	0x3e44e01a	0.19226113
197	0x3c20bfb2	0.009811329
198	0xbddbbc79	-0.10729308
199	0x3bddf235	0.006773258
200	0xbe1c19c5	-0.15244205
201	0x3d7a9b76	0.061183415
202	0xbdb4daef	-0.08830821
203	0x3bf0710f	0.0073376964
204	0x3e1f724b	0.15570943
205	0xbcb95a8b	-0.022626182
206	0x3b8fa837	0.0043840664
207	0x3c559de3	0.013038131
208	0x3d1c509e	0.03816282
209	0xbd1d2386	-0.038363956
210	0x3cbd31a8	0.023094967
211	0x3e2f4eaf	0.17119859
212	0x3cb07853	0.02154175
213	0xbe20c356	-0.15699515
214	0xbc43ca07	-0.011950023
215	0xb9402140	-0.00018322933
216	0x3d06649b	0.03281079
217	0xbccee256	-0.02525441
218	0xbc72ffc5	-0.014831488
219	0xbd39b30f	-0.04533678
220	0xbc0befd7	-0.008541069
221	0xba418c88	-0.00073833065
222	0x3dda9bb2	0.10674228
223	0x3d446064	0.047943488
224	0x3b91b771	0.0044469167
225	0x3aae87b2	0.0013315587
226	0xbb8bab0d	-0.004262334
227	0x3d45fc75	0.048336465
228	0xbc426586	-0.011865025
229	0xbd6e53bf	-0.058185335
230	0x3c358435	0.011078884
231	0x3ac27281	0.001483515
232	0xbdff1294	-0.12454715
233	0xbd088b31	-0.03333587
234	0x3ab4b461	0.0013786667
235	0xb9a169c5	-0.00030787117
236	0xbdc5da3c	-0.096607655
237	0xba9322e6	-0.001122561
238	0x3b6af0d8	0.003584912
239	0x3b7a9784	0.0038237283
240	0xbb86ae62	-0.0041101435
241	0xbb9d2815	-0.004796038
242	0x3b353275	0.0027648483
243	0xbd867833	-0.06565895
244	0xba1d7441	-0.0006006398
245	0x3d29d422	0.04146207
246	0xbbc76f82	-0.006086291
247	0xbad3bee5	-0.0016154913
248	0xbb80179b	-0.003909064
249	0x3b863809	0.0040960354
250	0x37b79d3e	2.1888522e-05
251	0xbb30d9ec	-0.002698536
252	0x3b46ecdf	0.0030353589
253	0xba227476	-0.00061971636
254	0xbc8e4aa5	-0.017369578
255	0xbd1417e5	-0.0361556

conv4_3.bias f4 [10]
0	0x3e62b5cb	0.22139661
1	0x3eb7df21	0.3591242
2	0x3eec05cb	0.4609817
3	0x3eaee31c	0.34157646
4	0x3eb27e38	0.34861922
5	0x3efe5201	0.4967194
6	0x3e860801	0.26177981
7	0x3f211cc5	0.62934524
8	0x3eee518d	0.46546593
9	0x3f1e4586	0.61824834

exp_avg f4 [10, 3, 3, 3]
0	0xbcd54ea0	-0.026038468
1	0xbc9a591a	-0.018841315
2	0xbc66200f	-0.014045729
3	0xbd13fc64	-0.03612937
4	0xbce97c0c	-0.028501533
5	0xbc8180cf	-0.015808491
6	0xbd076313	-0.03305347
7	0xbcd5c934	-0.026096918
8	0xbc7db8ed	-0.015485984
9	0xbca63eb3	-0.02029357
10	0xbc641f2b	-0.013923447
11	0xbc44f9b2	-0.012022423
12	0xbce6c2d4	-0.028169073
13	0xbcbd1cc7	-0.023085011
14	0xbc6d3c77	-0.014479748
15	0xbcaf1593	-0.021372592
16	0xbc954b06	-0.01822425
17	0xbc4ddc28	-0.012564696
18	0xbc656c78	-0.014002912
19	0xbc2d0a9d	-0.010561612
20	0xbc54e942	-0.012995066
21	0xbcbf71fb	-0.02336978
22	0xbc9b6597	-0.01896934
23	0xbc6565e7	-0.014001346
24	0xbc9098c1	-0.017650964
25	0xbc7e190c	-0.015508901
26	0xbc5d9b41	-0.013525785
27	0x3b410c5b	0.0029456827
28	0xb938a60b	-0.00017609463
29	0xbb1a5ecd	-0.002355504
30	0xba34c895	-0.0006896344
31	0xbb85c4fe	-0.004082321
32	0xbac130dc	-0.0014739293
33	0xbba41b1f	-0.005008116
34	0xbc5401a1	-0.0129398415
35	0xbc35c85f	-0.0110951355
36	0x3aa27bc5	0.0012396505
37	0x3a5d2dac	0.00084372866
38	0xbaccc1da	-0.0015621737
39	0xba0916d8	-0.0005229539
40	0xbb03ea11	-0.0020128528
41	0xb99d5628	-0.00030009565
42	0xbb68d2b7	-0.0035525986
43	0xbc1f2502	-0.009713413
44	0xbbfc0439	-0.007690933
45	0x3b385079	0.0028124137
46	0x3b873192	0.0041257823
47	0x3ab8aa02	0.0014088752
48	0x3a80a735	0.0009815457
49	0xb9b922bf	-0.00035311838
50	0x3a861b84	0.0010231589
51	0xbada9499	-0.0016676366
52	0xbbe092ee	-0.006853453
53	0xbbb30768	-0.0054635294
54	0xbc21c97f	-0.009874701
55	0xbc1075df	-0.008817165
56	0xbc12f913	-0.008970517
57	0xbb7737ee	-0.0037722546
58	0xbb31eb23	-0.002714821
59	0xbb0ed262	-0.0021792878
60	0x3acfad12	0.0015844426
61	0x3a8fea0c	0.0010979786
62	0xba80bd4b	-0.0009822039
63	0xbbb3c24c	-0.0054858085
64	0xbb6449cc	-0.0034834025
65	0xbb18d85e	-0.0023322324
66	0xb9ecfb6d	-0.00045200755
67	0x3ab25e97	0.0013608512
68	0x3b75d645	0.0037511748
69	0x3ba11ba2	0.004916624
70	0x3b981366	0.0046409843
71	0x3b7c7d75	0.0038526927
72	0x3aaaa520	0.0013019182
73	0x3b09d24a	0.0021029883
74	0x3a2f0261	0.00066760747
75	0x3b59e1a5	0.0033246067
76	0x3b9456f7	0.0045269686
77	0x3b9e32a4	0.004827814
78	0x3bcca20e	0.0062449044
79	0x3bd418ec	0.0064726975
80	0x3bb2feb3	0.0054624914
81	0x3d724289	0.059145484
82	0x3d1f3575	0.03886934
83	0x3d542d3b	0.051800948
84	0x3d69caaa	0.05707804
85	0x3d3acf68	0.045607954
86	0x3d6d62d9	0.057955597
87	0x3d6b6c3e	0.057476275
88	0x3d354110	0.0442515
89	0x3d4dd70c	0.050253913
90	0x3d45b89b	0.048271757
91	0x3d05b2dc	0.032641277
92	0x3d3b98dc	0.045800075
93	0x3d3dd54b	0.04634599
94	0x3d2ca8ec	0.042153284
95	0x3d587dfc	0.052854523
96	0x3d41320a	0.04716686
97	0x3d333b3e	0.04375767
98	0x3d41f786	0.047355197
99	0x3cb71eed	0.022353614
100	0x3c3c2f2c	0.011485856
101	0x3cfb2eb2	0.030661914
102	0x3cbc3e33	0.022978878
103	0x3cbced19	0.023062276
104	0x3d1cbfd9	0.038268898
105	0x3ce5c580	0.028048277
106	0x3ce85a57	0.02836339
107	0x3d04252e	0.03226202
108	0xbcd275ea	-0.025690991
109	0xbccc0038	-0.024902448
110	0xbcdb4099	-0.026764201
111	0xbc6302b8	-0.013855629
112	0xbc91f05e	-0.017814811
113	0xbcbcb8dc	-0.023037367
114	0xbc1b28ab	-0.009470145
115	0xbc7f83ea	-0.015595416
116	0xbcb3b22e	-0.021935549
117	0xbd02731d	-0.03184806
118	0xbce18c3e	-0.027532693
119	0xbcdbc1fe	-0.026825901
120	0xbcb45e59	-0.022017645
121	0xbcbffc2a	-0.02343567
122	0xbccdf413	-0.025140798
123	0xbc95bd67	-0.01827879
124	0xbcb87936	-0.022518735
125	0xbcd3af44	-0.02584041
126	0xbca0ad23	-0.019613808
127	0xbc8512ff	-0.01624441
128	0xbc86d91a	-0.016460944
129	0xbbae81d5	-0.005325536
130	0xbc02f741	-0.00799352
131	0xbc48485c	-0.012224283
132	0x3a5f06ba	0.0008507777
133	0xbbaaaee0	-0.005208835
134	0xbc372ef5	-0.011180629
135	0xbc16b110	-0.009197488
136	0xbbab74ec	-0.005232444
137	0xbbfa5dd7	-0.007640581
138	0xbc63e68b	-0.013909946
139	0xbc021440	-0.007939398
140	0xbb8d5c7b	-0.004314003
141	0xbc6f4a8a	-0.014605174
142	0xbc38b287	-0.011273033
143	0xbc2a1c3d	-0.010382709
144	0xbc18b376	-0.009320131
145	0xbbeff7dd	-0.007323249
146	0xbc3eb75b	-0.011640395
147	0xbc52b394	-0.012860198
148	0xbc2d0544	-0.010560337
149	0xbc14907b	-0.00906765
150	0xbc6ad98f	-0.014334097
151	0xbc7dc66f	-0.015489205
152	0xbc85f683	-0.016352898
153	0xbc4df7f6	-0.0125713255
154	0xbc329e2a	-0.010901967
155	0xbc6e43aa	-0.0145425
156	0xbc64d6ff	-0.013967275
157	0xbc354f60	-0.011066288
158	0xbc097d98	-0.00839176
159	0xbc6255ef	-0.0138144335
160	0xbc5f9186	-0.013645535
161	0xbc4f8006	-0.0126648005
162	0x3be6f2b2	0.0070479745
163	0x3b8e6b17	0.004346262
164	0x3b766ac7	0.0037600265
165	0x3c236e68	0.009975053
166	0x3c0089f6	0.007845392
167	0x39800dd4	0.00024424365
168	0x3bb77ff7	0.0055999714
169	0x3bfe8816	0.0077676876
170	0x3b988dee	0.004655591
171	0x3b117dd0	0.0022200234
172	0x3a0ca934	0.00053657894
173	0x3b36693d	0.0027833723
174	0x3b97fd0b	0.0046383194
175	0x3bc12332	0.005894088
176	0x3b1a1566	0.002351129
177	0x3badbcc0	0.005302042
178	0x3c2bd324	0.010487352
179	0x3c146b05	0.009058719
180	0xbc815e8a	-0.01579215
181	0xbc583df6	-0.013198366
182	0xbba62fd8	-0.0050716214
183	0xbc1f8b54	-0.009737808
184	0xbbaf72b1	-0.0053542485
185	0xbbd05b7f	-0.0063585634
186	0xbc009a99	-0.007849359
187	0xba0c4419	-0.00053507235
188	0xba536a46	-0.0008064847
189	0x3d513426	0.051075123
190	0x3d24c742	0.04022909
191	0xbacd3be6	-0.001565811
192	0x3d2449bf	0.040109392
193	0x3cd00229	0.025391655
194	0xbbbc3b84	-0.0057443995
195	0x3d1639c3	0.03667618
196	0x3c878874	0.016544558
197	0xbb9a8a07	-0.004716161
198	0x3d3386ba	0.043829657
199	0x3d188237	0.037233558
200	0x3bede987	0.0072605046
201	0x3cef3271	0.029198857
202	0x3cb61824	0.022228308
203	0x3b487a03	0.0030590303
204	0x3cd186eb	0.02557703
205	0x3ca06740	0.019580483
206	0x3bcefdfe	0.0063168993
207	0x3d192276	0.03738638
208	0x3d13d93b	0.03609584
209	0x3ca014a1	0.019541087
210	0x3cd63601	0.026148798
211	0x3cb64215	0.022248307
212	0x3c4e6415	0.012597104
213	0x3cc81d32	0.024427984
214	0x3ca4718a	0.02007367
215	0x3c4dbc69	0.0125571275
216	0xbd5de9a5	-0.0541779
217	0xbd32fe17	-0.04369935
218	0xbd149a01	-0.036279682
219	0xbd941fab	-0.07232603
220	0xbd5f1698	-0.054464906
221	0xbd4b6d3d	-0.049664725
222	0xbd946db4	-0.07247487
223	0xbd677b5d	-0.056514133
224	0xbd534a3c	-0.051584467
225	0xbd1ef658	-0.03880915
226	0xbd14fceb	-0.036374014
227	0xbd028d54	-0.031873062
228	0xbd55758a	-0.052114047
229	0xbd307f36	-0.043090068
230	0xbd216039	-0.039398406
231	0xbd45af0f	-0.048262652
232	0xbd1f28ff	-0.038857456
233	0xbd1ae97c	-0.037820324
234	0xbc9568b9	-0.018238412
235	0xbca428b9	-0.02003895
236	0xbca24e75	-0.019812802
237	0xbccf60a3	-0.025314635
238	0xbcae046e	-0.021242347
239	0xbcc01955	-0.02344958
240	0xbca316c6	-0.01990832
241	0xbc6cd440	-0.014454901
242	0xbca12313	-0.019670045
243	0x3cafedb7	0.021475656
244	0x3cf729f6	0.030171376
245	0x3cd208fe	0.025639053
246	0x3cb5a87b	0.022175064
247	0x3cfa5a00	0.030560493
248	0x3cde1947	0.027111663
249	0x3ca96c96	0.02068166
250	0x3cab888b	0.020939132
251	0x3c86bfe8	0.01644893
252	0x3c913a28	0.017727926
253	0x3cf036c8	0.029322997
254	0x3cc691ca	0.02423944
255	0x3c89f0bb	0.016838422

exp_avg_sq f4 [10, 3, 3, 3]
0	0x3c765619	0.015035176
1	0x3c82d228	0.015969351
2	0x3c6f2d47	0.014598197
3	0x3c87e501	0.01658869
4	0x3c8c052a	0.017092306
5	0x3c71fea9	0.014770188
6	0x3c74ff43	0.014953437
7	0x3c5e71e6	0.01357696
8	0x3c3c7c95	0.011504312
9	0x3c1ccf60	0.009570926
10	0x3c28f879	0.010313147
11	0x3c18a357	0.009316287
12	0x3c33c3e3	0.010971996
13	0x3c39d275	0.011341681
14	0x3c1b28c1	0.009470166
15	0x3c1ee0b8	0.009697132
16	0x3c0baa7e	0.008524535
17	0x3be139e5	0.0068733566
18	0x3c054e8c	0.008136403
19	0x3c10c928	0.008837022
20	0x3c0231f0	0.007946476
21	0x3c19ca9c	0.009386685
22	0x3c1fbb66	0.009749269
23	0x3c059b56	0.008154711
24	0x3c06fba2	0.008238705
25	0x3bed6fa2	0.0072459737
26	0x3bbfcdd5	0.0058533945
27	0x3c55d2b6	0.013050726
28	0x3c4f0e0b	0.012637625
29	0x3c449233	0.011997747
30	0x3c56ad2a	0.013102809
31	0x3c628939	0.013826662
32	0x3c5a0312	0.013306396
33	0x3c54dfae	0.0129927825
34	0x3c5c7ddc	0.013457742
35	0x3c51d8dc	0.012808051
36	0x3c338331	0.010956571
37	0x3c2c55e3	0.010518524
38	0x3c20d8d1	0.009817318
39	0x3c35b97a	0.011091584
40	0x3c3f371d	0.011670855
41	0x3c34e60b	0.011041175
42	0x3c30bc40	0.01078707
43	0x3c368cf3	0.011142003
44	0x3c2b2873	0.010446656
45	0x3c278115	0.010223647
46	0x3c1f5a31	0.009726093
47	0x3c12bce8	0.008956172
48	0x3c2a356c	0.010388713
49	0x3c31583c	0.010824259
50	0x3c25dbfb	0.010123248
51	0x3c249b79	0.010046833
52	0x3c28780d	0.010282529
53	0x3c1c01b5	0.009521891
54	0x3c47752b	0.012173931
55	0x3c46d874	0.012136567
56	0x3c39e826	0.011346852
57	0x3c319827	0.010839499
58	0x3c19b1f9	0.009380811
59	0x3c15102c	0.009098094
60	0x3c1e5cbb	0.009665663
61	0x3c006534	0.007836629
62	0x3c03bc8d	0.0080405595
63	0x3c1e4953	0.009661037
64	0x3c19db22	0.009390624
65	0x3c0c52f5	0.0085647
66	0x3c09c224	0.008408103
67	0x3be0f2f2	0.006864899
68	0x3bd67c43	0.006545575
69	0x3bf479d4	0.007460812
70	0x3bb95d0a	0.005656843
71	0x3bbf835e	0.0058445176
72	0x3c14e21f	0.009087115
73	0x3c106bdb	0.008814777
74	0x3c042411	0.0080652395
75	0x3c011381	0.007878185
76	0x3bd228c0	0.006413549
77	0x3bc9d760	0.006159708
78	0x3be499b1	0.0069763293
79	0x3bac9304	0.005266549
80	0x3bb40ea0	0.0054949075
81	0x3e02a040	0.12756443
82	0x3de37206	0.111057326
83	0x3e0d0c48	0.13774216
84	0x3dc9ae72	0.09847726
85	0x3daee418	0.08539599
86	0x3ddeee78	0.10885328
87	0x3d98b75d	0.07456849
88	0x3d7a1e54	0.06106408
89	0x3d94f687	0.07273584
90	0x3dc05ccf	0.09392702
91	0x3da7fd8f	0.08202659
92	0x3dd7db84	0.10539916
93	0x3d8fac09	0.07015235
94	0x3d7e2698	0.062048525
95	0x3da9b72b	0.0828689
96	0x3d531c29	0.051540527
97	0x3d2eccbb	0.042675715
98	0x3d598a52	0.05311043
99	0x3da1948e	0.07889663
100	0x3d8deeba	0.06930299
101	0x3db94550	0.090464234
102	0x3d6f6c8f	0.05845314
103	0x3d5764a8	0.052586228
104	0x3d9306d6	0.07179038
105	0x3d3202fa	0.04345987
106	0x3d169625	0.036764283
107	0x3d3ed9bc	0.046594366
108	0x3cefea76	0.029286604
109	0x3cf84f74	0.030311324
110	0x3ce628cf	0.02809563
111	0x3cf78f7a	0.030219782
112	0x3d046f8f	0.032332953
113	0x3cf6c889	0.03012492
114	0x3ccf2d1e	0.025290068
115	0x3ce3af15	0.027793447
116	0x3ce16c96	0.027517598
117	0x3cff3ae1	0.031156005
118	0x3d0316eb	0.03200428
119	0x3cebe56a	0.028795917
120	0x3d064347	0.032779004
121	0x3d0f3adf	0.034968253
122	0x3d019559	0.03163657
123	0x3cde90da	0.02716868
124	0x3cf458c8	0.02982749
125	0x3cec9a64	0.028882213
126	0x3cfa1146	0.030525815
127	0x3d0084f8	0.03137681
128	0x3ce55b7b	0.027997723
129	0x3d03eabc	0.032206282
130	0x3d0da8e0	0.03458488
131	0x3d0095db	0.031392913
132	0x3cdc8c2c	0.026922308
133	0x3cf3cb4a	0.029760022
134	0x3cedb724	0.029017992
135	0x3cea5390	0.028604299
136	0x3ccfe509	0.025377767
137	0x3cb4470e	0.022006538
138	0x3d0d3633	0.034475517
139	0x3d092ada	0.033488132
140	0x3cf1496e	0.02945396
141	0x3d1359c5	0.035974283
142	0x3d1b2dc2	0.037885435
143	0x3d1412a0	0.036150575
144	0x3c9e5c32	0.019331072
145	0x3c87d431	0.016580673
146	0x3c626071	0.013816939
147	0x3cbd1299	0.023080157
148	0x3cb52aff	0.022115229
149	0x3c9a4b0e	0.018834617
150	0x3cc1c872	0.02365515
151	0x3ccc7b31	0.024961086
152	0x3cc03e83	0.023467308
153	0x3c841760	0.016124427
154	0x3c5fb470	0.0136538595
155	0x3c37d293	0.011219638
156	0x3c9c5984	0.019085653
157	0x3c94f13d	0.018181438
158	0x3c7a7e02	0.015288832
159	0x3c9f24fd	0.019426817
160	0x3ca75578	0.020426497
161	0x3c9c319d	0.019066626
162	0x3d994f2f	0.07485806
163	0x3d9090bf	0.07058858
164	0x3d997754	0.07493463
165	0x3d94a849	0.0725866
166	0x3d99a962	0.0750301
167	0x3d9abd8d	0.07555685
168	0x3d840c55	0.06447665
169	0x3da41441	0.080116756
170	0x3da1b323	0.07895496
171	0x3d757e89	0.059935126
172	0x3d6a68f5	0.057229
173	0x3d7ac513	0.0612231
174	0x3d6f5eab	0.05843989
175	0x3d7d871e	0.061896436
176	0x3d80283f	0.06257676
177	0x3d5713a7	0.052508976
178	0x3d8b70ba	0.0680861
179	0x3d897621	0.067119844
180	0x3d4e9a89	0.050440345
181	0x3d450fbc	0.04811071
182	0x3d571b78	0.05251643
183	0x3d4a7872	0.04943127
184	0x3d56fc88	0.052486926
185	0x3d5ca3e9	0.053867254
186	0x3d36eb90	0.044658244
187	0x3d7139bf	0.05889296
188	0x3d70bf7d	0.058776367
189	0x3dc71729	0.09721214
190	0x3db19a70	0.08672035
191	0x3d8618a1	0.06547666
192	0x3db17b4c	0.08666095
193	0x3da1471a	0.0787489
194	0x3d8744a4	0.06604889
195	0x3d9c464c	0.076305956
196	0x3d959bcf	0.07305109
197	0x3d903c2c	0.07042727
198	0x3d87a0d1	0.0662247
199	0x3d69a905	0.057045955
200	0x3d277865	0.0408863
201	0x3d61756a	0.055043615
202	0x3d460ed4	0.048353985
203	0x3d24b075	0.040207345
204	0x3d427f02	0.047484405
205	0x3d35dd29	0.044400368
206	0x3d348393	0.04407079
207	0x3d6afec2	0.057371862
208	0x3d49003c	0.04907249
209	0x3d0f02e3	0.034914862
210	0x3d40fd93	0.047116827
211	0x3d29b7a0	0.041434884
212	0x3d0de2af	0.03464001
213	0x3d25af8b	0.040450614
214	0x3d1b815d	0.037965167
215	0x3d1cd472	0.03828854
216	0x3e018dbf	0.12651728
217	0x3df57351	0.119848855
218	0x3dfdf6ea	0.12400611
219	0x3e1adb32	0.15122679
220	0x3e13840f	0.14405845
221	0x3e0f728f	0.14008544
222	0x3e2cc6e2	0.16872743
223	0x3e2a3e7f	0.16625403
224	0x3e1e2e80	0.15447426
225	0x3da0dc6a	0.07854541
226	0x3d9728e3	0.073808454
227	0x3d9f5b17	0.07781046
228	0x3dc65eb4	0.09686032
229	0x3dbba47a	0.09162231
230	0x3db7e741	0.08979655
231	0x3de13328	0.109960854
232	0x3dddda30	0.108326316
233	0x3dcd7073	0.100312136
234	0x3d882aae	0.066487655
235	0x3d80b200	0.06283951
236	0x3d8885e6	0.06666164
237	0x3da8e9ce	0.0824772
238	0x3da0809d	0.07837031
239	0x3d9e0bae	0.077170715
240	0x3dc107ec	0.09425339
241	0x3dbed96c	0.09318814
242	0x3db13791	0.086531766
243	0x3c39c81b	0.011339213
244	0x3c55377f	0.01301372
245	0x3c742e23	0.014903578
246	0x3c372710	0.011178747
247	0x3c53538b	0.012898336
248	0x3c6641ea	0.014053801
249	0x3c47a43c	0.012185153
250	0x3c393167	0.011303282
251	0x3c3fd3a2	0.011708172
252	0x3c122165	0.008919095
253	0x3c28f49c	0.010312226
254	0x3c415a8f	0.011801376
255	0x3c124648	0.008927889

exp_avg f4 [10]
0	0xbc53791b	-0.012907292
1	0xbd3cf4ea	-0.046132006
2	0xbd68ed41	-0.056866888
3	0x3e322b83	0.17399411
4	0xbd0468f8	-0.03232667
5	0xbcf393b4	-0.029733516
6	0x3e01de87	0.12682544
7	0xbd2d36c0	-0.04228854
8	0xbe78cd91	-0.24297167
9	0x3bdf114f	0.0068074833

exp_avg_sq f4 [10]
0	0x3d541bfc	0.0517845
1	0x3d3b34d5	0.04570468
2	0x3d6d5b6c	0.057948515
3	0x3f31a672	0.693946
4	0x3d8a1e6d	0.067440845
5	0x3de883b0	0.113532424
6	0x3ea7109f	0.32629868
7	0x3e9e6216	0.3093421
8	0x3f779ea2	0.9672643
9	0x3d5408ef	0.051766332
