Pytorch face detection - Test/MTCNN_train_process/1/checkpoint_5900.pth (torch, 524517 bytes, 36 tensors)

conv1.weight f4 [10, 3, 3, 3]
0	0x3e5f9f80	0.21838188
1	0x3d6c67b1	0.057716075
2	0xbea45f16	-0.32103795
3	0x3ea02ace	0.31282657
4	0xbcfec28b	-0.031098625
5	0xbdd8d4dc	-0.10587475
6	0x3e726596	0.23671564
7	0xbd8b012d	-0.06787334
8	0xbde2d177	-0.110751085
9	0x3dfea70b	0.12434205
10	0xbe369e38	-0.17833793
11	0x3bc9a979	0.006154236
12	0x3cb90f97	0.022590442
13	0x3d286df6	0.041120492
14	0xbe609c7e	-0.21934697
15	0x3e187b88	0.14890873
16	0x3c515549	0.012776681
17	0xbe67045c	-0.22560257
18	0x3dbc6238	0.09198421
19	0xbd1e4dda	-0.038648464
20	0xbe87c7f1	-0.2651973
21	0x3e93dd9d	0.28880015
22	0xbdf64ac8	-0.12025982
23	0xbd7ebf38	-0.06219408
24	0x3e3a5295	0.18195565
25	0x3db7ea85	0.08980278
26	0xbe6f676d	-0.23379298
27	0xbc87aca0	-0.016561806
28	0xbe68fe6d	-0.22753306
29	0x3e3a4355	0.18189748
30	0x3e46001f	0.19335984
31	0x3df6ece0	0.12056899
32	0xbe6206c8	-0.220729
33	0x3da2407a	0.07922454
34	0xbc673e54	-0.014113981
35	0xbe4e2910	-0.20132852
36	0xbde8efc8	-0.1137386
37	0x3be62b3e	0.007024198
38	0x3e972531	0.29520562
39	0x3db86473	0.09003534
40	0xbdd365fa	-0.10322185
41	0x3e9c2f4e	0.3050484
42	0xbdbbdeff	-0.091733925
43	0x3d968111	0.07348836
44	0x3e79a079	0.24377622
45	0xba9461de	-0.0011320671
46	0x3d3ef63c	0.046621546
47	0x3dfde451	0.123970635
48	0x3e03da1b	0.1287617
49	0xbe83b6b6	-0.25725335
50	0xbd9ed479	-0.0775537
51	0xbe4479de	-0.19187114
52	0xbe574826	-0.21023616
53	0x3d5b17a2	0.053489335
54	0x3ea24608	0.31694055
55	0x3eab0b48	0.33407044
56	0x3eabc53a	0.3354891
57	0x3e8b70b9	0.27234438
58	0xbdeee4c2	-0.11664726
59	0x3e5e6b75	0.21720679
60	0xbe00f52c	-0.12593526
61	0xbe1c7f98	-0.15283048
62	0x3e078b05	0.13236625
63	0x3e0e89a5	0.13919695
64	0xbe002d89	-0.1251737
65	0x3d688c96	0.0567747
66	0xbcc18bac	-0.023626171
67	0x3d60903c	0.054825053
68	0xbdde6951	-0.10859931
69	0x3c566706	0.013086086
70	0x3bd81c93	0.006595203
71	0xbd20db65	-0.03927173
72	0x3de00456	0.10938327
73	0x3e1a1060	0.15045309
74	0x3daf6904	0.08564952
75	0xbd7bd9d9	-0.061487053
76	0xbd1633f7	-0.03667065
77	0xbda16227	-0.07880049
78	0x3d84d7b4	0.064864546
79	0x3da514ae	0.08060585
80	0x3caee9a5	0.021351645
81	0x3e59af95	0.21258385
82	0x3eb1f38e	0.3475613
83	0x3e0b882f	0.13626169
84	0xbc992610	-0.018694907
85	0x3e81b59a	0.25333863
86	0x3d867d87	0.06566911
87	0x3e297722	0.16549352
88	0x3e123e60	0.14281607
89	0x3d3a5263	0.045488726
90	0xbe67cc97	-0.22636639
91	0xbdad2b52	-0.08455528
92	0xbe6af40f	-0.22944663
93	0xbde5203d	-0.111877896
94	0xbe68490a	-0.22684112
95	0x3d80a52e	0.062815055
96	0xbcbbacf2	-0.022909615
97	0xbe0ca2b0	-0.13733935
98	0xbe0fabe1	-0.1403041
99	0xbdcd202f	-0.10015904
100	0xbe33d781	-0.17562677
101	0x3df62120	0.12018037
102	0x3d47e866	0.048805617
103	0xbe3c2cee	-0.18376514
104	0x3cb8dff2	0.022567723
105	0x3dbce794	0.092238575
106	0xbbe39ab7	-0.0069459337
107	0xbc8833f4	-0.016626336
108	0xbe623f0d	-0.22094364
109	0xbe65eb35	-0.22453006
110	0xbeb6b5be	-0.35685533
111	0x3e672a3a	0.22574702
112	0x3e350e46	0.17681226
113	0xbd60a2fb	-0.05484293
114	0x3c7039c1	0.014662207
115	0x3e4ed0ac	0.2019679
116	0x3e594106	0.2121621
117	0xbd3bd098	-0.045853227
118	0xbe4d6258	-0.20057046
119	0xbdf27370	-0.11838424
120	0x3e135fbc	0.14391989
121	0x3dbc1698	0.09183997
122	0x3d8eaf31	0.06967009
123	0x3da06fbc	0.07833812
124	0xbd542aaf	-0.05179852
125	0xbc860723	-0.016360825
126	0xbd65085e	-0.055916183
127	0xbe5873eb	-0.21137969
128	0xbdcc61b5	-0.09979574
129	0x3e5fb216	0.21845278
130	0x3e02c631	0.12770917
131	0xbcad20c1	-0.021133782
132	0xbabec1f1	-0.0014553649
133	0x3db8c9e1	0.0902288
134	0xbd88ef0d	-0.0668622
135	0xbe9858ad	-0.29755154
136	0xbdb466d5	-0.08808676
137	0x3e291029	0.16510071
138	0xbc527302	-0.012844803
139	0x3e1d4166	0.15356979
140	0x3d8b3d04	0.06798747
141	0x3e29f3fe	0.16596982
142	0x3e2740ee	0.16333362
143	0x3e5d940a	0.21638504
144	0xbe4d1cda	-0.20030537
145	0xbe401ece	-0.18761751
146	0xbda765a1	-0.08173681
147	0xbd97e2c5	-0.074163
148	0xbd83c249	-0.06433541
149	0x3e3d9b41	0.18516256
150	0xbdd1d9f9	-0.10246653
151	0xb9ab6bb9	-0.0003269592
152	0xbddcda07	-0.10783773
153	0xbd59609b	-0.053070646
154	0xbe03b2bd	-0.12861152
155	0xbd650411	-0.05591208
156	0xbdf16365	-0.11786536
157	0x3e00588a	0.12533775
158	0x3e6f7525	0.23384531
159	0x3d037617	0.03209504
160	0x3e4fc3d8	0.20289552
161	0xbcbb2866	-0.022846412
162	0xbe8605bb	-0.26176247
163	0x3d8b23e8	0.06793958
164	0x3d974690	0.073865056
165	0xbed02890	-0.40655947
166	0x3e8123a2	0.25222498
167	0x3d63c6e5	0.055609602
168	0xbe869140	-0.26282692
169	0xbdb49408	-0.08817297
170	0x3dcf75f1	0.101299174
171	0xbcea198f	-0.02857664
172	0xbc884feb	-0.01663967
173	0x3e1ee144	0.1551562
174	0x3e172166	0.14758834
175	0x3d95c452	0.07312836
176	0x3cbcc6fa	0.023044098
177	0x3dab441e	0.08362602
178	0x3d7f20a5	0.06228699
179	0x3acae8b1	0.0015480724
180	0x3cc139d0	0.023587137
181	0xbdaea167	-0.08526879
182	0xbd09b899	-0.03362331
183	0xbe35795b	-0.17722075
184	0xbcdc1d78	-0.02686952
185	0x3d8baaf8	0.06819719
186	0x3d693dee	0.056943826
187	0xbd08159c	-0.033223733
188	0xbdaba21e	-0.08380531
189	0x3e0d3713	0.1379054
190	0xbe2b7473	-0.1674364
191	0x3e73348b	0.23750512
192	0x3e1c5feb	0.15270965
193	0xbe1cf808	-0.15328991
194	0x3d71bcb2	0.059017844
195	0x3d8bc0e2	0.06823899
196	0xbdf8256e	-0.12116514
197	0x3e1802a4	0.14844757
198	0x3cf93ad1	0.030423554
199	0xbeb33b39	-0.3500612
200	0x3d8fe0bc	0.070252866
201	0x3dc705ab	0.09717878
202	0xbe007e95	-0.12548287
203	0x3c7d17af	0.015447541
204	0xbc0d1bbb	-0.0086125685
205	0xbd8a120b	-0.06741723
206	0x3e02fe76	0.12792382
207	0x3da5c861	0.0809486
208	0xbeb1435e	-0.3462171
209	0x3d92fa6f	0.07176673
210	0x3d961297	0.073277645
211	0x3c8fe907	0.01756717
212	0x3e40af01	0.18816759
213	0x3e32fc02	0.17478946
214	0xbd621333	-0.05519409
215	0xbd75a08f	-0.059967574
216	0x3cf18713	0.029483354
217	0x3e009fae	0.12560913
218	0x3e1e3e84	0.15453535
219	0x3d749b2e	0.059718303
220	0xbd7b1df0	-0.061307847
221	0x3d3b987d	0.04579972
222	0x3dd93f09	0.10607726
223	0xbe12ddf4	-0.14342481
224	0x3c32a24e	0.010902954
225	0xbdf3e701	-0.11909295
226	0xbec4bbf8	-0.3842466
227	0xbe7b6e26	-0.24553737
228	0xbe51cd22	-0.20488408
229	0xbdec18ff	-0.11528205
230	0xbe6cfc71	-0.23143174
231	0x3d15cd56	0.036572777
232	0x3ddce94f	0.107866876
233	0xbe1047e3	-0.14089923
234	0x3e06f519	0.13179435
235	0xbd676e39	-0.0565016
236	0x3e0091ef	0.12555669
237	0xbc57411c	-0.013138082
238	0x3ea815a2	0.32829005
239	0x3e11507e	0.14190862
240	0xbd99079b	-0.07472154
241	0x3daad9d3	0.08342328
242	0x3e152783	0.14565854
243	0xbe992785	-0.29912964
244	0xbda61b97	-0.08110731
245	0xbe52a076	-0.20569023
246	0x3ceae5a7	0.02867396
247	0xbd9735d9	-0.073833175
248	0x3d270cc2	0.04078365
249	0xbdb78fce	-0.089629754
250	0xbe15dc11	-0.1463473
251	0xbe257013	-0.16156034
252	0x3d8dacbd	0.06917713
253	0x3e37e74a	0.17959324
254	0x3e918d31	0.28428033
255	0x3e54a6f7	0.20766817

conv1.bias f4 [10]
0	0x3e03d0cb	0.12872617
1	0x3db7f375	0.089819826
2	0x3e67041e	0.22560164
3	0x3d2e8a77	0.04261252
4	0x3d6fdc33	0.058559608
5	0xbc47729e	-0.012173323
6	0x3e65f096	0.22455058
7	0x3df584bb	0.11988207
8	0xbb4afe9a	-0.0030974508
9	0x3d383f87	0.04498246

conv2.weight f4 [16, 10, 3, 3]
0	0xbc4e77e7	-0.012601829
1	0x3e16aba0	0.14713907
2	0x3d5ba315	0.053622324
3	0xbc77783c	-0.01510435
4	0x3cee5640	0.029093862
5	0xbdad1db1	-0.08452929
6	0x3cc8f0c3	0.024528867
7	0x3d3ca509	0.046055827
8	0x3c3b8d7d	0.011447308
9	0x3dca4efc	0.09878346
10	0x3d99b8d6	0.07505958
11	0xbdfd9798	-0.1238243
12	0x3e0d40d6	0.13794264
13	0x3d4ed99f	0.05050051
14	0x3b9c53ab	0.004770716
15	0x3d94b556	0.072611496
16	0xbd0fb8f0	-0.03508848
17	0xbe007c1b	-0.12547342
18	0xbccdbcc1	-0.025114419
19	0xbd5ebc51	-0.05437881
20	0x3cd2f703	0.02575255
21	0xbda37b39	-0.07982487
22	0x3da52962	0.08064534
23	0x3c041770	0.008062229
24	0xbcf61a5b	-0.030041864
25	0x3de13fd4	0.109985024
26	0xbd8ce666	-0.068798825
27	0x3e2ac9de	0.16678569
28	0x3e31dc8a	0.17369285
29	0x3e82841a	0.2549141
30	0xbd29b097	-0.041428175
31	0x3bdc0b50	0.0067152157
32	0xbcdbf91c	-0.026852183
33	0xbe2a6aaf	-0.16642259
34	0xbdf42d58	-0.11922711
35	0xbd4264d8	-0.047459453
36	0x3e4d772d	0.20064993
37	0x3dad2dad	0.084559776
38	0x3dd9cd8b	0.10634907
39	0x3d73fc7d	0.059566963
40	0x3dc6ea49	0.09712655
41	0xbbcc9af5	-0.0062440583
42	0xbd61ec55	-0.055157024
43	0x3d524665	0.051336665
44	0x3ccd2e15	0.025046388
45	0xbe465f5e	-0.19372317
46	0xbddf69fe	-0.10908888
47	0xbd3f850b	-0.04675774
48	0xbcd4c30e	-0.025971916
49	0x3cad5680	0.02115941
50	0xbdc92118	-0.09820765
51	0xbe1fd53e	-0.15608689
52	0xbccbfd4b	-0.024901053
53	0xbd460bc9	-0.048351083
54	0xbb8dee06	-0.004331353
55	0x3e22a535	0.15883334
56	0xbd57d05d	-0.052688945
57	0x3e2e1e43	0.17003731
58	0x3e248b87	0.1606885
59	0x3dee9c3a	0.116508916
60	0xbc3eb9a5	-0.011640941
61	0x3e5a5af3	0.21323757
62	0x3e074684	0.13210493
63	0x3d157ad2	0.036494084
64	0xbd252b30	-0.04032439
65	0xbb656586	-0.003500314
66	0xbe535ecb	-0.2064163
67	0xbe285fb9	-0.16442765
68	0xbe065e0c	-0.13121814
69	0xbdd42fdf	-0.10360693
70	0xbdc97830	-0.09837377
71	0x3d985f4e	0.07440053
72	0x3e2a3cfc	0.16624826
73	0xbdc7bf05	-0.09753231
74	0xbc5708fe	-0.0131247025
75	0x3e6f4c41	0.23368932
76	0x3d7aa9c6	0.061197065
77	0x3e007987	0.12546359
78	0xbdaf1be0	-0.085502386
79	0xbe1bee45	-0.15227611
80	0xbd784f07	-0.06062224
81	0x3af96021	0.0019025841
82	0x3d454d5f	0.04816949
83	0xbc3af78e	-0.011411561
84	0x3d76c9d4	0.060251072
85	0x3dd8fce2	0.105951086
86	0xbc374f7b	-0.011188383
87	0x3d88d778	0.066817224
88	0x3e161c7f	0.14659308
89	0xbdaeef75	-0.085417666
90	0xbe1705ed	-0.14748354
91	0xbe3773c7	-0.1791526
92	0xbdb1a332	-0.08673705
93	0x3d6d65d5	0.057958443
94	0xbcc9cf66	-0.024635028
95	0xbd8e6210	-0.06952298
96	0xbdfd48a8	-0.12367374
97	0xbc28f058	-0.010311209
98	0xbda9de8a	-0.08294399
99	0x3dc77916	0.09739892
100	0x3e042c9b	0.1290764
101	0x3e18b171	0.14911439
102	0xbc45b14d	-0.012066198
103	0x3d00bcae	0.03142994
104	0x3d158551	0.036504094
105	0x3e56c939	0.20975198
106	0xbd70e9fd	-0.0588169
107	0x3cff35f3	0.031153655
108	0x3e4d34f9	0.20039739
109	0x3e10aefb	0.1412925
110	0x3df8df97	0.121520214
111	0xbd1ce268	-0.038301855
112	0x3d82ec68	0.06392747
113	0xbd4a097e	-0.04932546
114	0x3c9fd8cd	0.019512558
115	0x3cb0153e	0.021494504
116	0xbda1fd7d	-0.07909677
117	0x3e698fa1	0.22808696
118	0x3e01ddd8	0.12682283
119	0x3e172ee4	0.14763981
120	0x3da965a6	0.08271341
121	0x3e19d755	0.15023549
122	0x3dadafdc	0.08480808
123	0xbec9115b	-0.39271054
124	0xbcf14d93	-0.029455936
125	0x3cea3b9f	0.028592883
126	0xbda52a4c	-0.08064708
127	0x3e0946fa	0.13405982
128	0x3d49e13f	0.049287077
129	0x3db0a042	0.08624317
130	0xbd93aae9	-0.07210333
131	0xbd363da9	-0.044492397
132	0xbe08bb28	-0.13352644
133	0x3dcf2172	0.10113801
134	0xbcf884f9	-0.030336844
135	0x3e25937d	0.16169544
136	0xbe21d38f	-0.1580336
137	0xbdf963c0	-0.12177229
138	0x3e34c9e9	0.17655148
139	0xbd79150b	-0.060811084
140	0xbd1e7ff1	-0.038696233
141	0x3ddefcda	0.10888071
142	0x3df5e114	0.12005821
143	0x3d02af14	0.03190525
144	0x3d9b13ac	0.075721115
145	0xbe0e7f6e	-0.13915798
146	0xbe08b671	-0.13350846
147	0xbc3786c8	-0.011201568
148	0x3e6f84fb	0.23390572
149	0x3d0493e3	0.0323676
150	0xbea71305	-0.32631698
151	0xbdfc09c9	-0.12306554
152	0xbd8c49f7	-0.06850045
153	0xbe5edf25	-0.2176481
154	0xbe47e6a5	-0.19521578
155	0xbdb5247d	-0.0884485
156	0xbca9ede5	-0.02074332
157	0x3db88c46	0.0901113
158	0xbd093791	-0.033500258
159	0x3d99c5c8	0.07508427
160	0x3e4c4125	0.19946726
161	0x3db2a44a	0.08722742
162	0x3e945335	0.28969732
163	0x3e25d9d0	0.1619637
164	0x3e1e050e	0.15431616
165	0xbda58c66	-0.080834195
166	0xbd69dba1	-0.05709422
167	0xbd9b0dd2	-0.075709954
168	0xbf058b99	-0.52166134
169	0x3db94ebd	0.09048221
170	0x3ddb86a4	0.1071904
171	0x3cce57fd	0.02518844
172	0xbcacee09	-0.021109598
173	0x3c44869a	0.011994982
174	0xbc6e2440	-0.01453501
175	0x3c5ead8f	0.013591184
176	0xbd489255	-0.048967678
177	0xbe0c2630	-0.13686442
178	0xbbd5cbbc	-0.006524531
179	0xbe0e9a78	-0.13926113
180	0x3daf93f5	0.085731424
181	0x3c2effa8	0.01068107
182	0x3c1ca96d	0.009561879
183	0x3dcb2e58	0.09920949
184	0xbd85dbbd	-0.065360524
185	0x3d2fba91	0.042902533
186	0xbd04a41e	-0.032383077
187	0xbd2e64fd	-0.04257678
188	0x3e09efc4	0.1347037
189	0xbd31d49d	-0.043415654
190	0xbdb74af5	-0.08949844
191	0x3c4d8911	0.012544886
192	0xba7ed19c	-0.0009720565
193	0xbd8ae681	-0.067822464
194	0x3c275d82	0.010215165
195	0xbe0d7514	-0.13814193
196	0x3acc599a	0.0015590668
197	0x3c84903c	0.016182058
198	0x3daf3457	0.08554905
199	0x3e121292	0.14264897
200	0x3d3fa575	0.04678865
201	0xbb96f736	-0.0046071066
202	0x3d820379	0.063483186
203	0x3dd9eddf	0.106410734
204	0x3da6a0f3	0.081361674
205	0xbd555c36	-0.052089892
206	0xbd2c3425	-0.042041916
207	0xbcdadf11	-0.026717694
208	0xbcc1976b	-0.023631772
209	0xbdf18121	-0.117922075
210	0xbdda1fc8	-0.10650593
211	0xbdf79c8e	-0.12090407
212	0x3d40f265	0.047106165
213	0x3d988dae	0.07448898
214	0xbdcaff27	-0.09911948
215	0xbddb306e	-0.107025966
216	0xbd1f2391	-0.03885228
217	0xbbc1d994	-0.00591583
218	0x3dc2bee4	0.09509066
219	0x3e15ec09	0.14640822
220	0x3e534de7	0.20635186
221	0xbd76e477	-0.060276475
222	0x3dbb5717	0.091474704
223	0xbe5696e5	-0.20955999
224	0xbec5d69e	-0.38640302
225	0x3d687f95	0.056762297
226	0xbdfda0b6	-0.12384169
227	0xbe77d785	-0.24203308
228	0x3e1afb74	0.15134984
229	0x3e07ff7c	0.13281053
230	0x3e38eccd	0.18059082
231	0xbeb4e5cc	-0.3533157
232	0xbc8ea0f8	-0.01741074
233	0x3e0e700a	0.13909927
234	0x3d29cbf2	0.041454263
235	0xbda8a8b3	-0.08235302
236	0x3b2c27bb	0.0026268798
237	0x3d47406a	0.048645414
238	0xbd88cba3	-0.066794656
239	0xbe4a0b14	-0.19730788
240	0x3e32c49d	0.17457815
241	0xbd9cef17	-0.0766279
242	0xbccfee7a	-0.02538227
243	0x3d861d3a	0.06548543
244	0x3d3e5714	0.046469763
245	0xbd165293	-0.036699843
246	0x3d828027	0.06372099
247	0x3e3a9737	0.18221746
248	0x38a78c20	7.989281e-05
249	0xbd52af7e	-0.051436894
250	0xbd36c5b4	-0.04462214
251	0x3cbd85fc	0.023135178
252	0x3d173461	0.036915187
253	0x3d593061	0.053024653
254	0x3e825660	0.25456524
255	0xbe808be4	-0.25106728

conv2.bias f4 [16]
0	0x3bcb942b	0.0062127314
1	0xbc25ee59	-0.010127627
2	0xbc39d6e6	-0.01134274
3	0x3ea542aa	0.32277423
4	0xbd348cd4	-0.044079617
5	0x3e30433b	0.17213146
6	0xbe267eff	-0.16259383
7	0x3d00d042	0.03144861
8	0x3e42f02a	0.19036928
9	0xbe2eb1c2	-0.17059997
10	0x3e43dbfb	0.19126885
11	0x3e2946c1	0.16530897
12	0x3da31d08	0.07964522
13	0xbdafb3d4	-0.08579221
14	0xbd34e56d	-0.04416411
15	0x3e799952	0.24374893

conv3.weight f4 [32, 16, 3, 3]
0	0xbd364220	-0.044496655
1	0x3c89447b	0.016756287
2	0xbd376048	-0.044769555
3	0xbc9ccea6	-0.019141506
4	0xbd84f8a4	-0.06492737
5	0xbcc1affb	-0.023643484
6	0x3d87c6c3	0.06629708
7	0x3b845496	0.0040384037
8	0xbd09f6f0	-0.033682764
9	0xbdaef610	-0.085430264
10	0x3d1ee35f	0.038791057
11	0x3d88b1e4	0.06674555
12	0x3d1f484c	0.038887307
13	0x3bac35fe	0.00525546
14	0xbd9fa338	-0.077948034
15	0xbd8dae5b	-0.06918021
16	0x3d6bc320	0.057559133
17	0x3d8e9f7c	0.06964013
18	0x3d390db6	0.04517909
19	0xbcceb7b0	-0.025234073
20	0x3d37891f	0.044808503
21	0xbd89305e	-0.066986784
22	0xbd995f53	-0.07488885
23	0xbdaad779	-0.083418794
24	0xbc279481	-0.010228277
25	0x3d861e6f	0.065487735
26	0x3d6cc1a3	0.057801854
27	0x3c04dc6e	0.008109195
28	0xbd556d47	-0.052106168
29	0x3d7d9a02	0.06191445
30	0xbda37c21	-0.0798266
31	0xbd19fc28	-0.03759399
32	0xbcc8d8d2	-0.02451745
33	0xbda1c8ac	-0.07899603
34	0x3d97fd71	0.07421387
35	0x3d6f1ff6	0.05838009
36	0x3d974cc4	0.07387689
37	0xbd797f46	-0.060912393
38	0xbcbc5ac6	-0.022992503
39	0xbcad0cd6	-0.021124285
40	0xbd4230f3	-0.047409963
41	0x3d880458	0.066414535
42	0x3ce8e5f0	0.028429955
43	0x3c8318db	0.016003063
44	0xbd7cf870	-0.061760366
45	0xbd366fd3	-0.044540238
46	0x3d9cea27	0.076618485
47	0x3d4fbc00	0.0507164
48	0xbb9e3c16	-0.00482894
49	0x3b73f580	0.0037225187
50	0x3cd891e0	0.026436746
51	0xbd37be03	-0.044858944
52	0x3cf2eca0	0.029653847
53	0xbd6f5f70	-0.058440626
54	0xbd821869	-0.06352312
55	0xbc699b43	-0.014258209
56	0x3cd6b1af	0.026207773
57	0x3d7c19cb	0.061548036
58	0xbd68b5f5	-0.056814153
59	0xbda6f94c	-0.08153018
60	0x3c4daa92	0.012552874
61	0xbd957935	-0.07298509
62	0x3c0080d3	0.007843214
63	0xbd7ee955	-0.06223424
64	0xbc3cbfa0	-0.011520296
65	0x3d0f086e	0.03492015
66	0x3d631c63	0.055446994
67	0xbc428868	-0.011873342
68	0xbc8e9de8	-0.01740928
69	0x3d8ff3c4	0.070289165
70	0xbb72310b	-0.0036955501
71	0xbd572b2b	-0.052531403
72	0xbdae44e2	-0.08509232
73	0xbd940061	-0.07226635
74	0x3d96ba93	0.07359805
75	0xbc7f8fe8	-0.015598275
76	0xbda20ded	-0.079128124
77	0x3d8b0748	0.06788498
78	0x3d8666f9	0.06562609
79	0xbd4417af	-0.04787415
80	0xbd99e430	-0.075142264
81	0x3c41c547	0.01182682
82	0x3bdfe537	0.0068327445
83	0xbc52a07a	-0.012855643
84	0xbd7dee37	-0.061994758
85	0x3cadbd08	0.021208301
86	0xbc0b3cdc	-0.008498397
87	0xbbc09238	-0.0058768056
88	0xbdb3add1	-0.08773387
89	0xbd9a9359	-0.075476356
90	0x3c979d16	0.018507522
91	0x3cee9b3b	0.029126754
92	0xbda99b8d	-0.08281622
93	0xbcb3c67d	-0.021945233
94	0x3d9bb15d	0.07602189
95	0xbd40275d	-0.04691254
96	0xbd8e01b1	-0.06933916
97	0x3b2d5eff	0.0026454327
98	0xbcc49262	-0.023995582
99	0x3d1c547e	0.038166516
100	0x3cae3bd2	0.021268759
101	0x3c320d81	0.010867477
102	0xbd9ec30d	-0.07752047
103	0x3d686d82	0.05674506
104	0x3cc84e4e	0.024451401
105	0x3d1b935f	0.03798234
106	0xbd05d668	-0.032675177
107	0xbd2cc515	-0.04218014
108	0xbbe4dc04	-0.0069842357
109	0xbdac33bc	-0.08408305
110	0xbda10fad	-0.07864318
111	0x3d862a54	0.06551042
112	0x3d5f7ac8	0.054560453
113	0x3d873672	0.066021815
114	0xbab398f8	-0.0013702204
115	0x3d896de1	0.06710411
116	0x3d145241	0.036211256
117	0x3d717d12	0.058957167
118	0xbd2adaf5	-0.04171272
119	0x3d9457fe	0.07243346
120	0x3d8a3aa8	0.06749469
121	0x3d897c77	0.06713193
122	0x3d4b626a	0.0496544
123	0xbb8adc3c	-0.0042376798
124	0xba4203b1	-0.0007401063
125	0xbbf5b8e2	-0.0074988464
126	0xbd4529ac	-0.048135445
127	0xbb70d818	-0.0036749896
128	0x3d6de679	0.058081124
129	0xbd649298	-0.055803865
130	0xbd2823a6	-0.041049622
131	0x3c3d788b	0.011564384
132	0xbdafa89d	-0.08577082
133	0xbd9e0038	-0.077148855
134	0xbd15efa5	-0.036605496
135	0x3d02bfd3	0.03192122
136	0xbdb03706	-0.08604245
137	0x3d48acbd	0.04899286
138	0xbd5a52d9	-0.053301666
139	0xbce384fa	-0.02777337
140	0xbd89d830	-0.067306876
141	0x3d36d21c	0.04463397
142	0xbbba901e	-0.0056934496
143	0xbda7429d	-0.08167002
144	0x3de707ff	0.11280822
145	0xbe37eb20	-0.17960787
146	0x3d8b7a20	0.06810403
147	0xbde19731	-0.110151656
148	0xbe0819cc	-0.1329109
149	0x3d097ebb	0.033568125
150	0xbd4a6357	-0.049411144
151	0xbe29a876	-0.16568169
152	0xbdad72d3	-0.084691666
153	0xbe3c49f8	-0.18387592
154	0x3d2da231	0.042391006
155	0x3d581605	0.052755374
156	0x3dab8e8f	0.083768
157	0x3df81e28	0.12115127
158	0xbca2db30	-0.019879907
159	0x3e9c33c8	0.30508256
160	0x3dac0408	0.083992064
161	0xbde88e15	-0.11355225
162	0x3c4b0833	0.012392092
163	0xbdd353cd	-0.10318718
164	0xbed1e299	-0.40993193
165	0xbd14f80e	-0.036369376
166	0x3e0d3eff	0.13793562
167	0xbe85b543	-0.26114854
168	0xbe59fe57	-0.21288429
169	0x3d1c7b4e	0.03820353
170	0xbebd37f9	-0.36956766
171	0x3e387bc2	0.1801596
172	0x3d8fe1e9	0.07025511
173	0x3d59788f	0.05309349
174	0x39abd4ff	0.00032774356
175	0x3c9cb7d2	0.019130621
176	0x3a57352d	0.0008209523
177	0x3c69fa77	0.014280907
178	0x3d2af0f8	0.041733712
179	0x3e04af37	0.12957464
180	0x3d294522	0.041325696
181	0xbdf5f18b	-0.12008961
182	0xbe2a8749	-0.1665317
183	0xbd962e17	-0.0733301
184	0xbd11c422	-0.035587437
185	0x3e5988b1	0.2124355
186	0xbe817a34	-0.25288546
187	0xbdf3dc79	-0.11907286
188	0x3e119c9a	0.14219895
189	0x3f4b9381	0.7952195
190	0x3eabd733	0.3356262
191	0x3d904c52	0.07045807
192	0x3ea1407e	0.31494516
193	0x3d88c0a6	0.0667737
194	0xbee2e1ee	-0.44312996
195	0x3e3bc36a	0.18336263
196	0xbeb11e4b	-0.34593424
197	0xbe9fc00e	-0.31201214
198	0xbdb3a852	-0.08772339
199	0x3d3e9832	0.046531864
200	0xbdb0bb3c	-0.08629462
201	0x3dcdf914	0.100572735
202	0x3d996d39	0.07491536
203	0x3d6cf1cd	0.057847787
204	0xbdc7f706	-0.09763913
205	0x3dde0664	0.10841063
206	0x3de8eecc	0.11373672
207	0xbcbddd12	-0.023176704
208	0x3e5d3613	0.21602659
209	0x3e460bc0	0.1934042
210	0xbe74e370	-0.23914886
211	0xbea4ab57	-0.32161972
212	0x3e536e9e	0.20647666
213	0xbe170035	-0.14746173
214	0xbe4cafb0	-0.19988894
215	0xbd0d3965	-0.034478564
216	0x3c6f42a1	0.014603288
217	0xbcc1c1a3	-0.023651903
218	0x3d2abf7a	0.041686513
219	0xbd0eb92c	-0.034844562
220	0x3d9e4795	0.07728497
221	0xba9333c1	-0.0011230634
222	0xbe03fef6	-0.12890229
223	0xbd72a1a9	-0.059236202
224	0xbd241e73	-0.0400681
225	0xbdaa38a2	-0.08311583
226	0xbe0dd4d4	-0.13850719
227	0xbe3d3ed5	-0.18481
228	0xbde29b25	-0.11064748
229	0xbd9dc7de	-0.07704137
230	0xbd8198c2	-0.06327964
231	0xbbdd26a5	-0.0067489916
232	0x3d855784	0.06510833
233	0xbdf6563c	-0.12028167
234	0xbcdb4152	-0.026764546
235	0xbd11dadf	-0.035609122
236	0xbcf1bb36	-0.029508214
237	0x3d288da4	0.041150704
238	0x3c7df8fe	0.015501259
239	0xbd3003b6	-0.04297229
240	0x3dad113f	0.08450555
241	0x3e04c6d8	0.12966478
242	0xbba14270	-0.00492125
243	0xbe8bfa3b	-0.27339348
244	0xbdb68480	-0.08911991
245	0xbe6b84c8	-0.22999871
246	0xbea4655d	-0.32108584
247	0x3e594bf3	0.21220379
248	0xbe4861f9	-0.19568624
249	0xbe356ab2	-0.17716482
250	0x3e34c846	0.17654523
251	0xbee72880	-0.45148087
252	0x3e829374	0.25503123
253	0x3d35e5d7	0.044408645
254	0x3dba28e8	0.090898335
255	0x3e278997	0.1636108

conv3.bias f4 [32]
0	0xbda98754	-0.08277765
1	0x3e3495d1	0.17635275
2	0x3e10f785	0.14156921
3	0x3d992f0a	0.07479675
4	0x3d8e7eb3	0.0695776
5	0x3d494bd1	0.04914457
6	0x3d006098	0.03134212
7	0xbd822578	-0.06354803
8	0xbbe602e8	-0.0070193894
9	0xbd09624e	-0.033541016
10	0x3ea5d21c	0.32386863
11	0xbd1d1d7e	-0.038358204
12	0x3e3898db	0.1802706
13	0xbda40689	-0.08009059
14	0xbcbf27ad	-0.023334349
15	0xbc1db359	-0.009625279
16	0x3d78da3c	0.060755
17	0x3d702bb4	0.05863543
18	0x3daa4de6	0.08315639
19	0x3d9eff6e	0.07763563
20	0xbde9752d	-0.11399303
21	0xbd7fe3af	-0.062472995
22	0x3e29cf46	0.16582975
23	0x3e1d8542	0.15382865
24	0xbde36ba6	-0.11104517
25	0xbd9ec4b0	-0.07752359
26	0xbc92ad61	-0.01790494
27	0xbcde013a	-0.027100194
28	0x3d9d93cc	0.07694206
29	0x3cff2059	0.031143354
30	0xbc5b34d3	-0.0133792935
31	0xbcd59af9	-0.026074873

conv4_1.weight f4 [2, 32, 1, 1]
0	0x3dc7b7df	0.097518675
1	0x3f73198b	0.9496085
2	0x3eb222bd	0.34792128
3	0x3fd3149a	1.6490662
4	0x3ed840ae	0.42236847
5	0x3f4e86ac	0.8067424
6	0xbf66aac2	-0.90104306
7	0xbf36d24d	-0.71414644
8	0x3fbc0bb9	1.4691077
9	0x3ffdedfe	1.9838254
10	0x3f5838fe	0.84461963
11	0xbf34fcb2	-0.7069808
12	0x3e6144cd	0.21998902
13	0x3cb16142	0.021652821
14	0xbde6a9cd	-0.11262856
15	0xbe327064	-0.17425686
16	0xc03b5c3f	-2.9275053
17	0x3f17e535	0.5933412
18	0xbe57d900	-0.21078873
19	0xbff83a46	-1.9392784
20	0x40003003	2.0029304
21	0x3be61fe1	0.007022843
22	0xbbf5d6fd	-0.0075024352
23	0xbfb35c24	-1.4012494
24	0xbcf8bcae	-0.030363407
25	0x3dc6bdb5	0.097041525
26	0x3ece97e6	0.40350264
27	0x3f4934a6	0.7859596
28	0x3f2bad18	0.67060995
29	0x3fcb2adc	1.5872455
30	0x400864d6	2.1311545
31	0xbfd6c658	-1.677928
32	0x3e29aac0	0.16569042
33	0xbf5fb2e2	-0.8738233
34	0xbec5073c	-0.38482082
35	0xbfe7b295	-1.8101374
36	0xbe87b078	-0.26501822
37	0xbf183e36	-0.59469926
38	0x3f541c4b	0.8285567
39	0x3f379a90	0.7172022
40	0xbfca03d4	-1.5782418
41	0xbffc487d	-1.9709622
42	0xbf3ed663	-0.7454588
43	0x3ee17d59	0.44040945
44	0xbe2ba2c2	-0.16761306
45	0x3dd719f0	0.10502994
46	0xbc33f437	-0.010983518
47	0x3e11f9c5	0.14255436
48	0x4028bd52	2.6365552
49	0xbf1ced20	-0.61299324
50	0x3e57f9d6	0.21091399
51	0x401041fe	2.2540278
52	0xc0035b9f	-2.052467
53	0x3da733b7	0.08164161
54	0xbdd1ea68	-0.102497876
55	0x3fbc6180	1.4717255
56	0x3e40e401	0.18836977
57	0x3e0726c2	0.13198379
58	0xbed1b0dd	-0.40955248
59	0xbf3e339d	-0.74297506
60	0xbf2afd55	-0.66792804
61	0xbfc865d7	-1.5656079
62	0xc00f5d3f	-2.2400663
63	0x3fe8cfac	1.8188376

conv4_1.bias f4 [2]
0	0x3d7b8012	0.061401434
1	0xbdcc7542	-0.09983303

conv4_2.weight f4 [4, 32, 1, 1]
0	0x3dd1e5e2	0.10248925
1	0xbe89d121	-0.26917365
2	0x3e9829d1	0.29719403
3	0x3e9b35d6	0.3031451
4	0xbd8e1076	-0.069367334
5	0x3c0b18c0	0.008489788
6	0xbc0be7a5	-0.008539115
7	0x3c26f5fa	0.010190481
8	0xbc990944	-0.018681176
9	0xbd3e71bd	-0.046495188
10	0xbd16fc0c	-0.036861464
11	0x3bbcbf03	0.005760075
12	0xbf089196	-0.53347147
13	0x3d64674b	0.05576257
14	0xbde01214	-0.10940948
15	0xbdac7d7a	-0.0842237
16	0x3c0433d8	0.008069001
17	0x3e75a0fb	0.2398719
18	0xbe09e681	-0.13466837
19	0xbd5394fd	-0.05165576
20	0x3dce3810	0.10069287
21	0x3d3975ab	0.045278233
22	0x3d7aa4b3	0.061192226
23	0x3c6d30a5	0.01447693
24	0x3e806d1b	0.2508324
25	0xbdf5360b	-0.119731985
26	0x3d36b183	0.044602882
27	0x3cc8dc37	0.02451907
28	0x3d468dc1	0.04847503
29	0xbc95b687	-0.018275512
30	0xbda7d8cd	-0.08195648
31	0x3c6e46a5	0.01454321
32	0x3e09a2f1	0.13441063
33	0x3de0a674	0.109692484
34	0x3e1f1a46	0.15537366
35	0x3e738125	0.23779733
36	0xbcd34d04	-0.02579356
37	0x3d7473c8	0.05968073
38	0x3d93f9e0	0.07225394
39	0xbdb63e4c	-0.08898601
40	0x3d232786	0.039832614
41	0x3da9850e	0.08277331
42	0xbd0bcf97	-0.03413352
43	0xbcdd55a3	-0.027018374
44	0x3d265679	0.04060981
45	0x3d4bf15b	0.04979072
46	0xbe1f909a	-0.15582505
47	0x3dc0e895	0.094193615
48	0xbcc4e7a0	-0.024036229
49	0x3d171e31	0.036894027
50	0x3e39210f	0.18079017
51	0x3d3144f1	0.04327864
52	0x3d98156e	0.074259624
53	0xbe276688	-0.16347706
54	0xbf673341	-0.9031258
55	0x3c1cc9ba	0.00956958
56	0xbe93c23c	-0.28859127
57	0xbcbec4ba	-0.023287166
58	0xbd2bdcff	-0.041958805
59	0x3cc916c7	0.024546994
60	0x3c355edd	0.01106998
61	0xbc75f2a6	-0.015011465
62	0x3bd83a57	0.0065987515
63	0xbcaf1889	-0.021374004
64	0x3e104293	0.14087896
65	0xbc857aff	-0.016294
66	0x3cbb4f66	0.022865009
67	0x3d1d42ba	0.038393714
68	0x3b933636	0.0044925464
69	0xbaa8c941	-0.0012877361
70	0x3c171add	0.009222713
71	0x3c5a8515	0.013337393
72	0x3a80b48d	0.0009819433
73	0xbbdef057	-0.006803553
74	0x3c3508d5	0.011049469
75	0xbc169dd8	-0.009192906
76	0x3c952c31	0.018209549
77	0xbd9587a1	-0.0730126
78	0x3de11620	0.10990548
79	0xbd7aded4	-0.06124766
80	0x3c88cf36	0.016700368
81	0x3b359c06	0.0027711405
82	0xbcd4d2b5	-0.02597938
83	0xbd54f050	-0.051986992
84	0xbcabd936	-0.020977598
85	0x3e0c7567	0.1371666
86	0x3e0be6b8	0.13662231
87	0x3b001e9a	0.001954949
88	0x3de5ca6d	0.1122025
89	0xbe015fde	-0.12634227
90	0xbd3390e9	-0.04383937
91	0x3b473ea3	0.0030402325
92	0xbc1e93f9	-0.009678834
93	0xbc0e5ec3	-0.008689585
94	0x3c9805fe	0.018557545
95	0x3c969dd6	0.018385809
96	0x3ccd5a9b	0.025067618
97	0x3db14bba	0.08657022
98	0xbe37d8f1	-0.1795385
99	0xbe5111a3	-0.20416884
100	0x3c990d18	0.018683001
101	0x3cdd5fec	0.027023278
102	0x3c5a06e5	0.013307308
103	0xbc18086f	-0.0092793545
104	0x3bb053ba	0.0053810747
105	0x3ce98cf5	0.028509596
106	0x3ce38925	0.027775357
107	0xbc0b22e8	-0.008492209
108	0x3db33457	0.087502174
109	0x3d138cf9	0.036023114
110	0x3d4f1e93	0.050566267
111	0x3e058e54	0.13042575
112	0xbd200e79	-0.039076302
113	0xbcd9bc12	-0.026578937
114	0x3dee04e5	0.11622027
115	0x3d72ec99	0.05930767
116	0x3be3945a	0.006945175
117	0xbc6c4d84	-0.014422778
118	0x3bb45b8d	0.0055040778
119	0xbc58148b	-0.013188492
120	0xbea40a50	-0.32039118
121	0xbb4432ce	-0.0029937509
122	0x3d81ff9a	0.0634758
123	0xbcc28bc6	-0.02374829
124	0xbd0715ec	-0.03297989
125	0x3d144a6e	0.036203794
126	0x3db4de2e	0.0883144
127	0xbda6f22f	-0.081516616

conv4_2.bias f4 [4]
0	0x3d75b0dc	0.05998312
1	0xb9ef3264	-0.00045623176
2	0x3f5def09	0.86692864
3	0x3f760c8b	0.9611289

conv4_3.weight f4 [10, 32, 1, 1]
0	0x3d4f9a85	0.05068447
1	0xba44fbf2	-0.00075143494
2	0x39d3c443	0.00040391283
3	0x3892f98a	7.008303e-05
4	0xb9896228	-0.00026203808
5	0xb82a5bb0	-4.061655e-05
6	0xb941dbb2	-0.00018487757
7	0x3985241c	0.0002539464
8	0x3885b1a3	6.3750216e-05
9	0x39a6b62d	0.0003179772
10	0x39df92bb	0.00042643197
11	0xb9b10b8a	-0.00033768668
12	0xbb2d5d18	-0.0026453193
13	0xbe096c10	-0.13420129
14	0xbdc5414b	-0.09631594
15	0x3a3e2449	0.0007253332
16	0x39dc1f70	0.00041985093
17	0x3a85b39a	0.001020062
18	0x3a2be395	0.00065570447
19	0xb9ec4998	-0.0004506826
20	0xbaca75f2	-0.0015446527
21	0xbe29f15f	-0.16595982
22	0x3af62823	0.0018780272
23	0x3a36e603	0.00069770234
24	0xbaaca176	-0.0013170678
25	0xbd36d2ad	-0.04463451
26	0x3a86a941	0.001027383
27	0xba118d22	-0.00055523415
28	0x38b5f300	8.676015e-05
29	0xb5ba08f6	-1.3860688e-06
30	0xba1f7b09	-0.00060837023
31	0x395c4b91	0.00021008986
32	0x3ceeabe7	0.029134704
33	0xb9eabecb	-0.0004477411
34	0x3a9ccd92	0.001196312
35	0x3ac1dcae	0.0014790499
36	0xb9968082	-0.00028705975
37	0x3976ffdb	0.00023555702
38	0xba5891b3	-0.0008261457
39	0x3a4da6d0	0.00078449864
40	0xbad73aab	-0.0016420683
41	0x3a13cb5e	0.0005637909
42	0xba0a4377	-0.0005274335
43	0x3a202505	0.0006109032
44	0xbb3ee5fe	-0.0029128785
45	0xbe290f62	-0.16509774
46	0xbe078051	-0.13232543
47	0x3a4e191d	0.00078620185
48	0x397b8d36	0.0002398983
49	0xba047624	-0.0005053005
50	0xba55bcc4	-0.00081534334
51	0xb83f595b	-4.5621167e-05
52	0x3a56c217	0.0008192374
53	0x3d5dc472	0.054142423
54	0xb9f30dfa	-0.00046358985
55	0x3a4943b8	0.00076776324
56	0x3988f30f	0.00026121034
57	0xbd899d23	-0.067194246
58	0x3aab7709	0.001308174
59	0xba26062c	-0.0006333317
60	0xba2cf1f3	-0.00065973325
61	0xba34962f	-0.0006888834
62	0x36148741	2.2132447e-06
63	0x3a608850	0.0008565234
64	0x3c66c380	0.014084697
65	0xbb0ccfc5	-0.0021486145
66	0xbcff0c1e	-0.031133708
67	0xbd5601fc	-0.052247986
68	0x3cc878fd	0.024471754
69	0xbca6a58b	-0.020342609
70	0xbc6e2a0a	-0.01453639
71	0x3cfccf12	0.030860458
72	0xbc1f1d3e	-0.009711562
73	0xbcc1be99	-0.023650454
74	0x3c944c4d	0.01810279
75	0x3bd03822	0.006354348
76	0x3c3f2254	0.011665899
77	0x3e104e03	0.14092259
78	0xbdd98023	-0.10620143
79	0x3b4b14b9	0.0030987693
80	0x3c88f1d0	0.016716868
81	0xbd4b65fc	-0.049657807
82	0x3a247f07	0.0006275032
83	0x3b082e71	0.0020779634
84	0xbc332eff	-0.010936498
85	0xbd6844e1	-0.056706313
86	0xbca8294d	-0.020527506
87	0x3c8e66e3	0.017383045
88	0xbba88cf8	-0.005143758
89	0x3e0c6c55	0.137132
90	0x3d0d6cb5	0.0345275
91	0x3ca0f006	0.019645702
92	0xbbb985c9	-0.0056617004
93	0xbd8d9829	-0.06913788
94	0xbca6782a	-0.02032097
95	0x3bae2df7	0.005315538
96	0x3e157d56	0.14598593
97	0x3cac23e5	0.02101321
98	0x3e09a360	0.13441229
99	0x3e24cce3	0.16093783
100	0xbd650959	-0.055917118
101	0xbcb5037e	-0.022096392
102	0x3cd47a9f	0.025937377
103	0xbd5a72e5	-0.05333223
104	0x3c982e1b	0.018576672
105	0x3d5f828c	0.05456786
106	0xbc0464ca	-0.008080671
107	0xbb5c1a2d	-0.0033584938
108	0x3d3d55ac	0.04622428
109	0xbd754d54	-0.0598882
110	0xbd17b4d2	-0.037037678
111	0xbe0c838b	-0.13722055
112	0x3cb40255	0.021973768
113	0xbcd6d6af	-0.026225416
114	0x3e4afb0c	0.1982233
115	0xbc410e32	-0.01178317
116	0x3dcf5152	0.101229325
117	0xbb84b920	-0.004050389
118	0x3d94777b	0.072493516
119	0x3be6a2b7	0.00703844
120	0xbcdf8f94	-0.027290143
121	0x3dce3a33	0.10069694
122	0xbe14edf0	-0.14543891
123	0x3b07f356	0.0020744405
124	0xbbe38975	-0.0069438764
125	0xbba05e76	-0.004894073
126	0x3caf5223	0.02140147
127	0x3bf73894	0.0075445864
128	0x3e30cdd4	0.17266017
129	0xbbfabc5d	-0.007651849
130	0xbdbbf6c9	-0.0917793
131	0xbe0582d1	-0.13038184
132	0x3db9e756	0.09077327
133	0x3c994ca7	0.018713308
134	0xbc1d2423	-0.009591135
135	0x3d078832	0.03308887
136	0xbcc49d72	-0.024000857
137	0x3d0df3ce	0.03465634
138	0x3cad346c	0.02114316
139	0x3c95262b	0.018206676
140	0x3ce027b5	0.027362684
141	0xbe14d735	-0.1453522
142	0x3d37d405	0.044879932
143	0x3df17dec	0.11791596
144	0x3b1c99f8	0.0023895483
145	0xbdae8b80	-0.08522701
146	0xbdc1172b	-0.09428247
147	0xbbbe0f16	-0.005800138
148	0xbc7dff53	-0.015502769
149	0xbc2bf0d1	-0.010494427
150	0x3c1bc3b9	0.009507113
151	0xbc7d2d5f	-0.015452712
152	0xbd2c1061	-0.042007808
153	0x3deafe96	0.1147434
154	0x3d85141e	0.06497978
155	0xbbcbebde	-0.006223186
156	0x3a8f08b8	0.0010912633
157	0x3d159078	0.03651473
158	0x3b9a86c6	0.0047157733
159	0x3c40fde1	0.011779279
160	0x3e04cc9f	0.12968682
161	0x3b235443	0.002492205
162	0x3d70cd1e	0.058789365
163	0x3d8c9028	0.06863433
164	0xbca1df38	-0.01975976
165	0xbbc932cd	-0.006140089
166	0x3b9f0064	0.0048523415
167	0xbc09bee4	-0.008407328
168	0x3bb80ee8	0.0056170113
169	0x3d18dd3d	0.037320364
170	0x3b4e2587	0.0031455474
171	0xbc2fbfda	-0.010726893
172	0x3cd00db5	0.025397161
173	0xbdab7d2c	-0.08373484
174	0x3e27e4a3	0.16395812
175	0xbd659d77	-0.056058373
176	0x3c9cbc61	0.019132795
177	0xbd032406	-0.032016777
178	0x3db69217	0.08914583
179	0x3be0292d	0.006840846
180	0x3d5b08c8	0.05347517
181	0x3da2d92f	0.07951581
182	0x3d31c38e	0.043399386
183	0x3a965b74	0.0011471347
184	0xbc3d1906	-0.011541611
185	0xbe0c0263	-0.13672785
186	0xbd562140	-0.052277803
187	0x3aee8fc9	0.001820081
188	0xbb9be237	-0.0047571915
189	0xbcb512d0	-0.022103697
190	0xbb963fa8	-0.004585225
191	0x3bd2c2d4	0.0064319167
192	0xbdc94ae7	-0.098287396
193	0xbc93ec7a	-0.018057097
194	0xbde23b04	-0.110464126
195	0xbe4a439d	-0.19752355
196	0x3d4c08c7	0.04981306
197	0x3caeb76e	0.0213277
198	0xbca5f56b	-0.020258626
199	0x3d339f12	0.043852873
200	0xbc6d0e62	-0.014468761
201	0xbda1b533	-0.07895889
202	0x3a594c47	0.0008289259
203	0xba90aa18	-0.001103702
204	0xbd961bea	-0.07329543
205	0x3e1e6871	0.15469529
206	0xbbace01e	-0.0052757403
207	0x3e1422f3	0.14466457
208	0xbcc191e7	-0.023629142
209	0x3d34d95f	0.044152614
210	0xbe503f52	-0.20336655
211	0x3c26798c	0.010160815
212	0xbdeb224a	-0.114811495
213	0x3e0441d5	0.12915738
214	0xbd8af391	-0.06784738
215	0xbc440186	-0.011963254
216	0x3d03c442	0.032169588
217	0x3d8753c4	0.06607774
218	0x3e0faebe	0.14031503
219	0xbc540f55	-0.012943109
220	0x3c563308	0.01307369
221	0xbb057ab9	-0.0020367338
222	0xbc51f3d0	-0.012814477
223	0xbc1fa379	-0.009743565
224	0xbe10422c	-0.14087743
225	0x3b3fb1f9	0.0029250367
226	0x3c3a2344	0.011360947
227	0xbd1604d8	-0.036625713
228	0x3ae43bed	0.0017412879
229	0xbb6c9055	-0.003609677
230	0x39c1911e	0.0003691995
231	0xbac989a5	-0.0015376104
232	0xbafda2d9	-0.00193509
233	0x3bc0fa08	0.005889181
234	0xbb47354f	-0.0030396765
235	0x373dbcd3	1.1309242e-05
236	0x3b2378d9	0.0024943857
237	0xbe307318	-0.17231405
238	0xbe1db745	-0.15401943
239	0xbbc40b4c	-0.005982792
240	0x3b094ec7	0.0020951496
241	0xbc6b4130	-0.014358804
242	0x3c404871	0.011736021
243	0x3a92cb9a	0.0011199594
244	0x3c26bf6c	0.0101774745
245	0xbd821eb3	-0.06353512
246	0x3b104d16	0.0022018603
247	0x39e28886	0.00043207797
248	0xbb7516ea	-0.003739769
249	0x3b932625	0.004490631
250	0xbbf77621	-0.007551924
251	0x3ab0cedb	0.0013489382
252	0xbb2b806f	-0.0026169082
253	0x3a290ccb	0.00064487447
254	0x3aa48401	0.0012551547
255	0x3b032683	0.0020011968

conv4_3.bias f4 [10]
0	0x3e639c44	0.2222758
1	0x3eb8986d	0.36053792
2	0x3edf22ea	0.43581325
3	0x3e9c0b74	0.30477488
4	0x3eae4654	0.3403803
5	0x3ee932e9	0.45546654
6	0x3e942581	0.28934863
7	0x3f205f4d	0.6264542
8	0x3ef50e4d	0.47862473
9	0x3f14276f	0.5787267

exp_avg f4 [10, 3, 3, 3]
0	0x3c5c0b2e	0.0134304
1	0x3c32844c	0.0108958
2	0x3a8c6ca5	0.0010713531
3	0x3cc4a1f5	0.024003008
4	0x3c7205a9	0.014771857
5	0x3b77e290	0.003782425
6	0x3d020f7b	0.031753045
7	0x3c879ab0	0.016553253
8	0x3c07a6c5	0.008279507
9	0x3d0ed68a	0.03487257
10	0x3d03b02d	0.032150436
11	0x3caec829	0.021335678
12	0x3d35fb78	0.044429272
13	0x3d0b9ff5	0.034088094
14	0x3cb2ee36	0.021842103
15	0x3d510b7a	0.051036336
16	0x3d12b605	0.03581812
17	0x3cdb5f5d	0.026778871
18	0x3d2be7d3	0.04196913
19	0x3d1288d3	0.035775017
20	0x3cbea990	0.023274213
21	0x3d564810	0.052314818
22	0x3d1fe88e	0.03904014
23	0x3cce2c12	0.025167499
24	0x3d6df013	0.05809028
25	0x3d2b6538	0.041844577
26	0x3d014f73	0.03156991
27	0x3ca01642	0.019541863
28	0x3c8a0e3d	0.016852492
29	0x3c938f01	0.018012526
30	0x3c9fe16e	0.019516673
31	0x3cb1bf0b	0.021697542
32	0x3ca35c56	0.01994149
33	0x3ca98c05	0.02069665
34	0x3cc4934c	0.023996018
35	0x3cc6aea2	0.024253193
36	0x3c5b6f70	0.013393268
37	0x3c6ca38f	0.014443292
38	0x3c919f8f	0.017776279
39	0x3c6f98d1	0.014623837
40	0x3ca56eb7	0.020194395
41	0x3ca040f2	0.019562218
42	0x3c82360a	0.015894908
43	0x3cb18a7f	0.021672485
44	0x3cbae282	0.022813085
45	0x3c637638	0.013883166
46	0x3c8a11ab	0.016854128
47	0x3cbf858f	0.023379115
48	0x3c682adc	0.014170375
49	0x3caf021d	0.021363312
50	0x3cbf7749	0.02337231
51	0x3c5b989a	0.013403082
52	0x3ca93b6e	0.020658221
53	0x3cc74d37	0.024328811
54	0xbcc889d1	-0.024479778
55	0xbcb9a8a9	-0.022663431
56	0xbca639bf	-0.020291207
57	0xbcd07abb	-0.025449147
58	0xbcb10d4e	-0.02161279
59	0xbc967130	-0.018364519
60	0xbcb68d05	-0.02228404
61	0xbc8c1aef	-0.017102687
62	0xbc5b0b8d	-0.013369453
63	0xbc633259	-0.013866984
64	0xbc7b9e62	-0.015357586
65	0xbc7786f7	-0.015107862
66	0xbc695da3	-0.014243516
67	0xbc56acc6	-0.013102716
68	0xbc4feac2	-0.012690248
69	0xbc255341	-0.01009065
70	0xbbdd892a	-0.006760736
71	0xbbd76239	-0.0065729883
72	0xbc81094f	-0.015751509
73	0xbc83661b	-0.016039899
74	0xbc5eeef4	-0.013606776
75	0xbc7abc1e	-0.01530364
76	0xbc70e76e	-0.014703615
77	0xbc4b11c6	-0.012394374
78	0xbc1f05a8	-0.009705938
79	0xbbfcd58d	-0.007715887
80	0xbbd678b0	-0.006545149
81	0x3c9e70a0	0.019340813
82	0x3c32281e	0.0108738225
83	0x3c6f7ca8	0.014617123
84	0x3cd7cf59	0.026343988
85	0x3cabac5a	0.020956207
86	0x3ce43a10	0.027859718
87	0x3cd7a36c	0.026323043
88	0x3cada4ae	0.02119669
89	0x3ccd0189	0.025025146
90	0x3b1310d0	0.002244044
91	0xbbb0a063	-0.0053902133
92	0x3acf835f	0.0015831998
93	0x3c139d9d	0.009009746
94	0x3bca3011	0.0061702807
95	0x3c5d4cf9	0.013507121
96	0x3c21e54d	0.00988133
97	0x3bae9725	0.0053280764
98	0x3c53c037	0.012924246
99	0x37b51246	2.158539e-05
100	0xbb6005b7	-0.0034183094
101	0x3a739cd4	0.00092930836
102	0x3b62a3ae	0.0034582424
103	0x3b8d2a99	0.0043080566
104	0x3c3098a0	0.010778576
105	0x3bbe2d06	0.005803707
106	0x3ba366ff	0.0049866433
107	0x3c2d84a5	0.010590707
108	0xbddc7a35	-0.10765497
109	0xbdbfc88c	-0.09364423
110	0xbdb6be53	-0.0892302
111	0xbe0622c0	-0.13099194
112	0xbdfddbf7	-0.123954706
113	0xbde50853	-0.11183228
114	0xbe0defdd	-0.13861032
115	0xbe0becad	-0.13664503
116	0xbdf5e468	-0.12006456
117	0xbde8a56a	-0.11359675
118	0xbdc2ec6b	-0.095177494
119	0xbdbb824f	-0.09155714
120	0xbe05a761	-0.13052131
121	0xbdfd7c5f	-0.123772375
122	0xbdecd170	-0.115633845
123	0xbe0ad61d	-0.1355824
124	0xbe0a8b0a	-0.13529602
125	0xbdfccb8c	-0.12343511
126	0xbde16f82	-0.110075966
127	0xbdb727f5	-0.08943168
128	0xbda99d2b	-0.082819305
129	0xbe04de99	-0.1297554
130	0xbdf3c516	-0.119028255
131	0xbdddd575	-0.10831729
132	0xbe070b87	-0.13187991
133	0xbe069167	-0.13141404
134	0xbdf0bcc5	-0.11754755
135	0xbdc889eb	-0.09791931
136	0xbdc17349	-0.09445817
137	0xbdba6248	-0.09100777
138	0xbdbcc9d7	-0.092181854
139	0xbdca32a6	-0.09872942
140	0xbdc8d351	-0.098059304
141	0xbdacc619	-0.08436222
142	0xbdbeb2a1	-0.093114145
143	0xbdc71296	-0.09720342
144	0xbd682f4a	-0.056685723
145	0xbd6b8f7e	-0.05750989
146	0xbd710b7b	-0.05884884
147	0xbd4872f4	-0.048937753
148	0xbd6c4bdf	-0.057689544
149	0xbd7aac22	-0.061199315
150	0xbd394c85	-0.04523899
151	0xbd5b912b	-0.05360524
152	0xbd65b807	-0.056083705
153	0xbd43eb7c	-0.047831997
154	0xbd42d124	-0.047562733
155	0xbd464913	-0.048409533
156	0xbd23363b	-0.03984664
157	0xbd48751f	-0.04893982
158	0xbd532e5d	-0.051557887
159	0xbd1209ac	-0.035653755
160	0xbd36e080	-0.044647694
161	0xbd4211bf	-0.047380205
162	0xb63ac364	-2.7829892e-06
163	0xbb90b773	-0.0044164
164	0xbbfcba0f	-0.0077126096
165	0x3b500cd9	0.003174594
166	0x3ba9c0dc	0.0051804613
167	0x3a085457	0.0005200556
168	0x3c4adb9c	0.0123814605
169	0x3bfa37fa	0.0076360675
170	0xbb5c97bc	-0.0033659777
171	0x3c9000e6	0.017578553
172	0x3c926588	0.01787068
173	0x3c8f7540	0.017511964
174	0x3c90665c	0.017626934
175	0x3cbb440e	0.0228596
176	0x3cb1fb3e	0.021726247
177	0x3ccb9e89	0.024855869
178	0x3cbe8422	0.023256365
179	0x3c703d4c	0.014663052
180	0x3caf3459	0.021387266
181	0x3cb99dbf	0.022658227
182	0x3cb561a5	0.022141287
183	0x3cca54e9	0.024698691
184	0x3cf5856d	0.029970849
185	0x3cdc9e73	0.026931023
186	0x3d08b51a	0.033375837
187	0x3d0206de	0.03174483
188	0x3cb307d5	0.02185432
189	0x3dddaca9	0.10823948
190	0x3dd398c1	0.1033187
191	0x3dd75913	0.105150364
192	0x3dd2d79b	0.1029503
193	0x3dda4cf0	0.10659206
194	0x3dd66497	0.10468405
195	0x3dd4fcc0	0.10399771
196	0x3de23ffa	0.11047359
197	0x3ddd3101	0.108003624
198	0x3da56125	0.080751695
199	0x3d9ba339	0.075994916
200	0x3da04f3e	0.07827614
201	0x3d9740e2	0.07385422
202	0x3d9f9732	0.0779251
203	0x3d9cb983	0.07652571
204	0x3d934f92	0.07192911
205	0x3da2f25b	0.07956382
206	0x3da2ee7c	0.079556435
207	0x3d89b034	0.06723061
208	0x3d6c4929	0.05768696
209	0x3d72aeb3	0.059248637
210	0x3d800919	0.06251735
211	0x3d7b0b66	0.061290167
212	0x3d744b22	0.059641965
213	0x3d69fe84	0.05712749
214	0x3d7b1181	0.06129599
215	0x3d7e4f6c	0.06208746
216	0x39f862c5	0.00047375835
217	0x3c068cf5	0.008212318
218	0x3b3b0273	0.0028535395
219	0xbc4939f4	-0.0122818835
220	0xbbb13fff	-0.0054092403
221	0xbbcb6ee1	-0.006208286
222	0xbcf7ff02	-0.030272964
223	0xbcbfde73	-0.023421502
224	0xbc956eee	-0.018241372
225	0xbbb620a3	-0.00555809
226	0xb9c75814	-0.0003802186
227	0xb9e48c67	-0.00043592157
228	0xbc0a2439	-0.008431488
229	0xbba02b47	-0.0048879716
230	0xbb932688	-0.0044906773
231	0xbcbe523e	-0.023232576
232	0xbc94a998	-0.018147275
233	0xbc7ece7f	-0.015552162
234	0x3a6d0cae	0.0009042722
235	0x3c01b9e7	0.007917858
236	0x3bc2068f	0.005921192
237	0xbbc6cb0b	-0.006066685
238	0xba63b16e	-0.0008685802
239	0xbb0e1f46	-0.002168612
240	0xbc93338c	-0.017968915
241	0xbc77477c	-0.015092727
242	0xbc7985aa	-0.015229622
243	0xbaa418dd	-0.0012519617
244	0xbc4e1207	-0.01257754
245	0xbc4847e9	-0.012224176
246	0x3ad51976	0.0016258198
247	0xbc062f1a	-0.008189941
248	0xbc565a5f	-0.01308307
249	0x3b325718	0.0027212556
250	0xbc080b02	-0.008303406
251	0xbc57324d	-0.013134551
252	0xbb12d8d7	-0.0022407079
253	0xbc64be17	-0.013961337
254	0xbc69f742	-0.014280142
255	0x3b931816	0.0044889553

exp_avg_sq f4 [10, 3, 3, 3]
0	0x3dd0f0fe	0.102022156
1	0x3dbf093d	0.09327934
2	0x3db17c2a	0.086662605
3	0x3de6b955	0.11265818
4	0x3dd1cbc6	0.10243945
5	0x3dbe063b	0.09278532
6	0x3de95fef	0.11395251
7	0x3dda4390	0.10657418
8	0x3dc79168	0.09744531
9	0x3d8f1839	0.06987042
10	0x3d815de5	0.06316737
11	0x3d6f5c29	0.0584375
12	0x3d9f94be	0.07792042
13	0x3d8efb51	0.069815286
14	0x3d804671	0.06263436
15	0x3da1c5cf	0.07899057
16	0x3d95d68d	0.07316313
17	0x3d87973c	0.066206425
18	0x3d75b4d6	0.05998691
19	0x3d5ca828	0.053871304
20	0x3d4b2377	0.04959437
21	0x3d890df2	0.06692113
22	0x3d73df73	0.05953927
23	0x3d59f34b	0.053210538
24	0x3d8aeabe	0.06783055
25	0x3d800f99	0.06252975
26	0x3d6705e7	0.056402113
27	0x3d55f6f0	0.05223745
28	0x3d6bda62	0.057581313
29	0x3d92358b	0.07139119
30	0x3d624d65	0.05524959
31	0x3d528f71	0.051406328
32	0x3d6d698f	0.057961997
33	0x3d3d5811	0.046226565
34	0x3d351025	0.04420485
35	0x3d49103b	0.049087744
36	0x3d21911e	0.039445035
37	0x3d346a1a	0.0440465
38	0x3d651204	0.055925384
39	0x3d263234	0.04057522
40	0x3d19a854	0.037514046
41	0x3d326785	0.043555755
42	0x3d04946c	0.03236811
43	0x3cfd00c5	0.030884156
44	0x3d1143b6	0.035464965
45	0x3d0a9f78	0.033843488
46	0x3d1ac346	0.037783884
47	0x3d452c8e	0.048138194
48	0x3d0baf08	0.03410247
49	0x3cff4d43	0.031164771
50	0x3d14fe95	0.0363756
51	0x3cda2ea8	0.026633576
52	0x3cce1da4	0.025160618
53	0x3cef68a0	0.029224694
54	0x3caae444	0.020860799
55	0x3caa7154	0.020805992
56	0x3ca15663	0.019694513
57	0x3c9d6c81	0.019216778
58	0x3c991208	0.018685356
59	0x3c958f79	0.01825689
60	0x3c8afe53	0.016966974
61	0x3c88bb2a	0.01669081
62	0x3c8b2401	0.016984941
63	0x3c72a964	0.014810894
64	0x3c6f0c05	0.014590268
65	0x3c614997	0.013750455
66	0x3c597ab4	0.013273884
67	0x3c4faaca	0.012674997
68	0x3c4a9973	0.012365687
69	0x3c3b6d8f	0.011439695
70	0x3c35d715	0.011098643
71	0x3c39d111	0.011341349
72	0x3c53760b	0.012906562
73	0x3c4f7e1b	0.012664343
74	0x3c42c28e	0.011887206
75	0x3c3beea1	0.011470468
76	0x3c324c99	0.01088252
77	0x3c2d9de0	0.010596722
78	0x3c20a9e8	0.009806134
79	0x3c1b99e5	0.0094971405
80	0x3c1ee337	0.009697727
81	0x3d1a5127	0.03767505
82	0x3d2c77ae	0.042106323
83	0x3d340991	0.043954436
84	0x3d273fa1	0.040832166
85	0x3d2dd032	0.04243488
86	0x3d35fa01	0.044427875
87	0x3d458747	0.048224714
88	0x3d3608f1	0.04444212
89	0x3d285516	0.04109677
90	0x3cb29bb7	0.021802766
91	0x3cc9fb2f	0.024655906
92	0x3ce1412a	0.027496893
93	0x3cc2f89b	0.023800185
94	0x3cc8501b	0.02445226
95	0x3ce07469	0.027399259
96	0x3cf8568a	0.030314703
97	0x3cdcb36a	0.02694102
98	0x3cd056a1	0.025431933
99	0x3c91a5cb	0.017779252
100	0x3ca42607	0.020037664
101	0x3cbc4c91	0.022985728
102	0x3c9f72b9	0.019463884
103	0x3ca23cbe	0.019804355
104	0x3cb9de61	0.022689046
105	0x3ccfe60c	0.02537825
106	0x3cb67b01	0.02227545
107	0x3cad9c38	0.021192655
108	0x3e163ea3	0.14672332
109	0x3e0479ae	0.12937042
110	0x3df6976d	0.12040601
111	0x3e325c9c	0.1741814
112	0x3e237a1a	0.15964547
113	0x3e113dd5	0.14183743
114	0x3e381d19	0.1797985
115	0x3e325741	0.17416097
116	0x3e220d65	0.15825422
117	0x3dc93806	0.09825139
118	0x3dab9ddd	0.083797194
119	0x3d9eb43b	0.0774922
120	0x3df44468	0.1192711
121	0x3dda64cb	0.10663756
122	0x3dbedfb4	0.09320012
123	0x3dfc406d	0.12316976
124	0x3df03eed	0.11730752
125	0x3dd7343c	0.1050801
126	0x3db2d28e	0.08731566
127	0x3d97deff	0.0741558
128	0x3d8ca5d5	0.068675674
129	0x3dda0c31	0.106468566
130	0x3dc2190d	0.09477434
131	0x3da93f2c	0.08264002
132	0x3de12ccc	0.109948725
133	0x3dd62666	0.10456543
134	0x3dbefd12	0.09325613
135	0x3e02581d	0.12728925
136	0x3e066420	0.13124132
137	0x3e10ba68	0.14133608
138	0x3e129410	0.14314294
139	0x3e1be198	0.15222776
140	0x3e238fff	0.15972899
141	0x3e1f5c61	0.15562584
142	0x3e2753b6	0.16340527
143	0x3e27323a	0.16327754
144	0x3da9fb54	0.0829989
145	0x3db11e9b	0.08648416
146	0x3dc4ef33	0.09615936
147	0x3dc12bf8	0.094322145
148	0x3dd148c7	0.10218959
149	0x3de1c28b	0.11023434
150	0x3dd46e9c	0.103726596
151	0x3de25c96	0.110528156
152	0x3de582f3	0.11206617
153	0x3d91e029	0.07122833
154	0x3d98a5f8	0.07453531
155	0x3daaa948	0.08333069
156	0x3da5e491	0.08100236
157	0x3db557dc	0.088546485
158	0x3dc4a7a3	0.09602287
159	0x3db6e4ed	0.08930383
160	0x3dc4a63a	0.09602018
161	0x3dc81011	0.097686894
162	0x3d44ec28	0.04807678
163	0x3d632550	0.055455506
164	0x3d80fcdf	0.06298231
165	0x3d40b5de	0.047048442
166	0x3d6a8a75	0.05726095
167	0x3d84514a	0.06460817
168	0x3d4d03e8	0.050052553
169	0x3d60a326	0.05484309
170	0x3d736851	0.059425656
171	0x3d066e0f	0.032819804
172	0x3d1ba579	0.037999604
173	0x3d34ea8d	0.044168998
174	0x3d0431aa	0.032273926
175	0x3d22676e	0.03964942
176	0x3d3a086d	0.04541819
177	0x3d0eb810	0.034843504
178	0x3d1b91b1	0.03798074
179	0x3d291ae5	0.041285414
180	0x3ce6f638	0.028193578
181	0x3d06e4de	0.03293311
182	0x3d1deb8e	0.03855472
183	0x3ce370b7	0.027763708
184	0x3d0cfd79	0.034421418
185	0x3d22a2ce	0.039706044
186	0x3cf80178	0.030274138
187	0x3d078367	0.0330843
188	0x3d13a6c0	0.036047697
189	0x3ddede23	0.10882213
190	0x3dcbb96b	0.09947475
191	0x3de06b96	0.109580204
192	0x3dec352e	0.11533581
193	0x3ddb1902	0.10698129
194	0x3de9d8b9	0.1141829
195	0x3dee1082	0.11624242
196	0x3de3318e	0.11093436
197	0x3deb4e79	0.11489577
198	0x3da123fd	0.07868192
199	0x3d91141c	0.07083914
200	0x3da3b24e	0.07992993
201	0x3dacfe11	0.08446897
202	0x3d9f1627	0.07767897
203	0x3dad2778	0.08454794
204	0x3dafdce5	0.08587054
205	0x3da72673	0.081616305
206	0x3daf1e92	0.08550753
207	0x3d945dfd	0.07244489
208	0x3d8533a8	0.06503993
209	0x3d974db0	0.073878646
210	0x3da027e5	0.07820109
211	0x3d9322a5	0.07184342
212	0x3da0e0df	0.07855391
213	0x3da35246	0.07974677
214	0x3d9abeb3	0.07555904
215	0x3da23898	0.07920951
216	0x3c869fc7	0.01643361
217	0x3c709959	0.014684998
218	0x3c9d6b2c	0.019216143
219	0x3c953404	0.01821328
220	0x3ca90355	0.020631472
221	0x3cb90085	0.022583256
222	0x3ccd7d2a	0.025084097
223	0x3cda1b12	0.026624236
224	0x3ccd1515	0.025034467
225	0x3be4b786	0.0069798855
226	0x3bb0b626	0.0053928075
227	0x3c0b0064	0.00848398
228	0x3c0bb927	0.0085280305
229	0x3c2bba84	0.0104814805
230	0x3c42a9a6	0.011881268
231	0x3c6b0703	0.014344933
232	0x3c84faa9	0.016232805
233	0x3c71834b	0.014740775
234	0x3c041ec5	0.008063977
235	0x3bdc9b9d	0.0067324177
236	0x3c208d9a	0.009799385
237	0x3c1ee681	0.009698511
238	0x3c4747b6	0.012163093
239	0x3c5dc420	0.013535529
240	0x3c7563df	0.014977424
241	0x3c8f06ac	0.017459236
242	0x3c8459b9	0.016156064
243	0x3ccaa44a	0.024736542
244	0x3cddf325	0.02709348
245	0x3cdce173	0.026962971
246	0x3cedd0d6	0.029030245
247	0x3cefe999	0.029286193
248	0x3ce95289	0.028481739
249	0x3cef68e4	0.02922482
250	0x3cee2ce5	0.029074142
251	0x3ce7d1b3	0.028298235
252	0x3c934b37	0.017980201
253	0x3ca2923c	0.01984512
254	0x3ca1eb9e	0.019765671
255	0x3cad5255	0.021157423

exp_avg f4 [10]
0	0x3b2159a8	0.002462009
1	0x3d77b4f1	0.060475294
2	0xbd9d9cb6	-0.07695906
3	0x3c3dd11a	0.011585498
4	0xbe99754d	-0.29972306
5	0xbe990e26	-0.29893607
6	0xbd12703b	-0.035751563
7	0x3eb2fa6e	0.34956688
8	0x3ba3bfed	0.0049972446
9	0xbbf1ec42	-0.0073829005

exp_avg_sq f4 [10]
0	0x3ef60f7b	0.48058686
1	0x3e8bd87a	0.27313596
2	0x3da7e9b9	0.08198876
3	0x3e39b0b3	0.18133812
4	0x3f54e5ab	0.83162946
5	0x3f424042	0.758793
6	0x3e995ae0	0.29952145
7	0x3f2dac56	0.6784109
8	0x3e16c01d	0.14721723
9	0x3dc7a9fc	0.09749219
