Pytorch face detection - Test/MTCNN_train_process/1/checkpoint_1700.pth (torch, 185645 bytes, 24 tensors)

conv1.weight f4 [10, 3, 3, 3]
00000000: 19c0 94be 3f6e 68be 2590 17be eaa2 a4bd
00000010: d96e b13d 5b04 29be a47e f73c 7b5b 65be
00000020: 7ea7 a7bd 104e 4f3e 2cee 563e 0fef 0f3f
00000030: 1bd0 993e 3670 043f e005 ad3e 11e3 bd3e
00000040: 65b4 cf3e cbe7 6d3e d953 663e d746 313e
00000050: 2cd7 f1bd eb05 0bbe ebdf d9be 2ffc 0dbe
00000060: 3e04 6bbe 83e0 debd 25be 653e 540e d4bd
00000070: 7835 b2be c341 e33e 1712 1ebf abed b2be
00000080: 0974 383e c266 08bf 8b22 2ebd ae69 20be
00000090: b9a2 c63e d84c 2bbe 5063 fa3d b5ee 7b3d
000000a0: f585 8dbd 9f6e 40be c42a 6f3e 095b cc3e
000000b0: 13f4 a93d 8541 633e c693 00be fac9 febe
000000c0: 1ca9 0e3f 356f 433e c032 31bd 683f ca3e
000000d0: b2ea 953e 6c01 59be c2fa 9c3e ef13 be3e
000000e0: 376a 9e3e 0519 ea3e eb6f 533e 79be a33c
000000f0: e349 eebe 57fc 15bf 11a4 b1be c5e0 3b3e
00000100: 39d1 833e 5ee8 5a3d 46af 1c3e b32b a5bd
00000110: b793 afbe 7bc8 d9be eccd ccbe 1199 013e
00000120: 47b2 713e 484c a53e d1ee 923e 1eda 5a3e
00000130: 9a71 423d e55f b9be c397 c0be 8276 bcbe
00000140: 01af a63e 3261 a43e b747 43bf 628e 2e3f
00000150: 2487 693e ea66 11bf c63b 84bc 846d 5e3d
00000160: b2b6 d739 3ce9 fcbd 1ec4 f83d a063 22bf
00000170: ce24 5f3f 64f4 c23e e204 35be 4c6e 503e
00000180: e83d 0abe df95 9abd 08ef 97bd aeba b0bd
00000190: 12ea c3be f6e4 923e 1b3b ed3d fcb6 aa3b
000001a0: fb71 9cbd 631d 043c d028 d73d ad13 96be
000001b0: e9d3 c4be 3ddb 80be cf72 60bd 739c 80be
000001c0: 931b 5abe bab6 dfbd ab2d c4bd fb1e b0bd
000001d0: 4a35 56bd a161 053f d306 633e 15ed 993e
000001e0: 82ef b03e 4c72 8c3e 61d7 563d c0a1 4f3e
000001f0: 65b6 3d3e 1ab8 773c a1bf cabb badb 983d
00000200: 0359 88be 1c7e 89bd 61c5 1f3d 1c90 423d
00000210: 9702 f4bd 03f2 b9bd d51a 343d 6b51 c43e
00000220: 969c 893e 18e0 37bf 4d29 0c3f 7969 243e
00000230: 5e0d f9be 01f8 6f3e 87a4 073e 7cdf 51be
00000240: b627 da3d e11e d03d 4627 93be ba17 943e
00000250: 211d cd3c 6217 ddbe 3ae8 533e 175d 11be
00000260: 0ce0 bebe 5158 403e a0c2 6e3d b134 02be
00000270: f0f5 5e3e 10cb a2bd 0310 81be 26d1 9c3e
00000280: 19f2 d5bd 4eb8 6b3d 8f98 a83e a941 bfbd
00000290: 0f3d d33d 5be3 0d3e 7f69 5ebe c90e 33bd
000002a0: ccac acbe 40f6 0bbe 48a6 50be 3059 933d
000002b0: 8170 1cbe 5aaa 88be dee7 0bbe a4f5 80be
000002c0: 6bec cebe b51d e33d c7b1 373e f0a1 f13c
000002d0: 05e0 68be 3578 18be 2e96 1cbd 6d2c c63d
000002e0: 0249 14be 1091 9ebd 59bc 5dbc 8bb2 063e
000002f0: fc62 0f3e 3480 d13c 1a99 313d c34b 653d
00000300: 8d79 b23e 1b79 d03e 5eb0 183d ff3a 793e
00000310: bc6c f13e 96a9 0dbe 1e60 89bc 26f3 9bbb
00000320: c3a9 8cbe dfaf d5be a3ee ccbe 299b aebe
00000330: 5399 e0be d130 eebe b438 a3be 41ac 493d
00000340: 358a 17bd cb12 1b3e a24e edbd e5a5 c7bc
00000350: a077 b73e dfb1 f73d ea23 a8bd 0a02 b73e
00000360: 91f9 2ebf 0b4c 6cbf e396 42bf 9945 ee3e
00000370: a38f 9d3e 7752 5dbe 3d58 053f 4b2f 0f3f
00000380: 900b 083f 66d4 dc3d d4fe 6cbe 63a1 853d
00000390: 1e5d a63e 8187 8a3e 3524 6a3c cb49 9bbd
000003a0: 705d e4bd 951a 57bd 5f8e 313e ff52 e3bd
000003b0: b552 27bc 53c7 94bc 7cfe f23b d98c b4bd
000003c0: 1af7 47bd cf0c ca3c 87a1 27be 1324 68bf
000003d0: b028 f5bc 863a 083f 6272 07bf 3bbf cd3e
000003e0: c26c 9e3e c2c7 01bf d38a 0b3e 2b57 b23e
000003f0: dfa8 7d3e 021b 68be 73dd 0abd 5b86 a5bd
-0.2905281 -0.22698306 -0.1480108 -0.08038886 0.08663721 -0.16505568 0.030211754 -0.22398178
-0.081862435 0.20244622 0.20989293 0.5622415 0.30041584 0.5173372 0.33793545 0.370873
0.40567318 0.23232953 0.22492923 0.1731218 -0.11808619 -0.13576476 -0.42553648 -0.13865732
-0.22950837 -0.10882666 0.22435816 -0.103542954 -0.34806418 0.4438611 -0.6174635 -0.3494695
0.18013014 -0.53281796 -0.04251341 -0.15665314 0.38796023 -0.16728532 0.122259736 0.061506946
-0.06910316 -0.18792199 0.23356158 0.39913204 0.082985066 0.22192962 -0.12556371 -0.4976347
0.5572679 0.19085391 -0.04326129 0.395015 0.2928062 -0.21191949 0.30660063 0.37124583
0.3094041 0.45722213 0.20648162 0.019988285 -0.46540746 -0.58588165 -0.34695485 0.18347462
0.25745562 0.05344426 0.15301237 -0.080649756 -0.34292385 -0.42535767 -0.40000856 0.12656046
0.23603164 0.3228476 0.28697827 0.21372268 0.04747162 -0.36205974 -0.37615785 -0.36809164
0.32555392 0.32105404 -0.76281303 0.6818601 0.22805458 -0.5679766 -0.016141783 0.05430366
0.00041144114 -0.123491734 0.121467814 -0.63433266 0.87165534 0.3807708 -0.17677644 0.20354575
-0.13500178 -0.07548117 -0.074186385 -0.08629356 -0.3826452 0.28690308 0.11583539 0.0052098017
-0.076389275 0.008063647 0.10505831 -0.29311886 -0.38442925 -0.25167266 -0.05479699 -0.2511936
-0.21299581 -0.10923524 -0.09579023 -0.08599659 -0.052296914 0.52102095 0.22170572 0.30063692
0.3455773 0.27430952 0.052451495 0.20276546 0.18526609 0.015119577 -0.0061873947 0.074637845
-0.2663041 -0.067135066 0.039006595 0.047500715 -0.119145565 -0.09079363 0.0439709 0.38343367
0.26877278 -0.71826315 0.5475052 0.1605586 -0.4864301 0.2343445 0.13246356 -0.20495409
0.106521055 0.1016214 -0.287409 0.28924352 0.025038304 -0.43181902 0.20694056 -0.14195667
-0.3728031 0.1878369 0.058291078 -0.12715413 0.21773505 -0.07948887 -0.25207528 0.30628318
-0.10446567 0.057548814 0.32928893 -0.093386956 0.103143804 0.1385626 -0.21719931 -0.043715272
-0.33725584 -0.13668156 -0.20375931 0.071947455 -0.15277292 -0.26692468 -0.13662669 -0.2518741
-0.40414748 0.110896505 0.1793891 0.029496163 -0.22741707 -0.14889605 -0.03822916 0.09676442
-0.14480975 -0.07742512 -0.013533675 0.13154046 0.14002603 0.025573827 0.0433589 0.055980455
0.3485836 0.40717396 0.03727757 0.24338911 0.4715327 -0.13834223 -0.016769465 -0.00475921
-0.27473268 -0.41735741 -0.40025815 -0.34102753 -0.43866977 -0.4652162 -0.318792 0.04923654
-0.03699704 0.15143888 -0.11587264 -0.024371097 0.35833454 0.12094473 -0.08209975 0.35743743
-0.6834956 -0.9230353 -0.76011485 0.46537474 0.3077365 -0.21613489 0.52087766 0.5593154
0.5314264 0.10782699 -0.23144084 0.06524923 0.32492918 0.27056506 0.014290859 -0.07582434
-0.11150634 -0.052515585 0.17339467 -0.110998146 -0.01021259 -0.018161451 0.007415591 -0.08815927
-0.04881964 0.02466431 -0.16370212 -0.90680045 -0.029926628 0.532143 -0.5290891 0.4018496
0.3094235 -0.5069543 0.13627176 0.3483213 0.2477145 -0.22666553 -0.033902597 -0.08082267

conv1.bias f4 [10]
00000000: 2175 0fbd c9d5 443d 7d18 fcbb fd59 0fbc
00000010: 697c 62be da46 85bc 0646 963e 88c9 bcbd
00000020: 0c0d bd3d dd68 f63e
-0.035023812 0.048055444 -0.007693349 -0.008749482 -0.22117771 -0.016269136 0.293503 -0.092181265
0.09231004 0.4812688

conv2.weight f4 [16, 10, 3, 3]
00000000: 5068 493e 5e21 34be 7c15 e2bc 4cbb e1bd
00000010: b5dc c7b9 f777 8ebd 0e20 cdbd e0be e53d
00000020: e6c3 9c3d 8a9b 993b 0f10 02be 184a f43b
00000030: 3126 f93d a8b8 63be e6c9 85bd 2da7 9bbd
00000040: af27 583e 64cb 473d 500a 8b3e 718e 82be
00000050: 8025 52bc a9cb 3dbe 3bfc 6f3d 9104 023e
00000060: 5918 19be 1308 5e3e 718c 2b3e b92e 8cbc
00000070: 3736 18bc 4518 073e 5731 3d3e 97bf 8abe
00000080: d588 40be fc28 ff3d 3c7a 37bd c4c9 9dbd
00000090: 07f3 febb d99f 19bd 1451 183e 5ca6 e33d
000000a0: 18b0 27bd 2ebd 51bb 7269 b53d bad8 bf3c
000000b0: 6a28 d93d 92f9 013e 7036 12be de84 4bbe
000000c0: d60f 57be bbd6 7cbe e970 503e f87d b7bd
000000d0: b78f 8d3d f685 97bd adb5 18be 732b 163d
000000e0: d0a7 c23d 8b21 14bd b5ec a93d bc03 a53a
000000f0: fc25 42bc 2190 5ebd 0ea2 133d d629 a4bd
00000100: e4b0 063e bffe 873d a331 08be 42f9 923d
00000110: b3b4 02bc e798 073d 4783 50bd 1de1 a6bd
00000120: 579f c7be 15cd 063e a5a4 f13e 549a 023e
00000130: 9eba d4bd 224d 923c d1a9 0dbc b925 69bd
00000140: 887e 8a3d 2d24 dcbe 0c12 47be 8aa5 06be
00000150: ae16 973e 7ab2 5e3e 8c21 d1bd ea86 39be
00000160: b65e 073c 4167 ad3d df39 46bd 0536 7dbd
00000170: 5bd3 983d e8f2 5a3c bba3 74bd aebe 523d
00000180: f014 9dbd 834b 94bd 0aaf 69bc 3a51 973d
00000190: 63d5 6c3d 7219 8dbd 8cf6 89bd 3b14 253d
000001a0: 0a4f c1bb 8592 9a3c f1a7 263c 1a9b 96bd
000001b0: 8f59 5cbc 64e0 c5bc 55f5 86bc b58e 7e3d
000001c0: f69e cbbd f88f f93b 29e6 c33d d866 d5bd
000001d0: ca00 053d 09a1 dc3d 8cff 623d 773a 533d
000001e0: 4f8d 21bd 6ce4 053d 393f 273c c2d3 d13d
000001f0: 1b53 d8bd 0d3e 643d 7645 84bd affc c1bd
00000200: b1f9 ca3d ebaf ac3c 0592 6dbd f9ac cabd
00000210: 2af2 adbc 62cc bbbc 93bd 07bc 80fe 0ebd
00000220: 654c d93c 4185 873d 39de bbbd 1d29 68bd
00000230: 5b5f 8e3d c07e d4bd 5e9c 823d de99 3cbd
00000240: 165e f23c 59de 60bd 9b38 4d3d 46c3 813c
00000250: 0e67 c3bc f872 cd3d 4b1e bcbd a152 c33d
00000260: c76a 933d 6190 8dbc eeda 05bd 5725 ab3d
00000270: 2dc6 223d 711e c4bd e7b6 abbd 3a9b d5bd
00000280: f923 3abd 447a 9fbc 1753 863c 5a11 2a3d
00000290: b3ac e6bd 9300 1f3d cff1 803c 45c4 983c
000002a0: ec32 c5bd 099d 9cbd 3bbb b4bc bfd5 513d
000002b0: 97a0 0cbd 2425 14bd 3181 923b 76ef 31ba
000002c0: 6949 4abc 1142 bc3a 0f19 76bd b598 b73d
000002d0: f9f0 eb3e d82c d83c 963b a13e 0459 c3be
000002e0: a91b 31bf e00e 30be 39b6 193e 95f3 46be
000002f0: 5b73 ba3e 6b4c eb3d 18f1 c9bd 78c7 a0bc
00000300: 7592 55bd 17ad 53be fe05 9abe e84a b93e
00000310: 1d1e 5dbe e488 bebd 9c02 11be fd27 8a3e
00000320: a93e 93bd a870 9c3c 1f3d 46bd 6ab3 bbbd
00000330: 55a8 cabd d639 be3d c326 ad3d ab07 acbe
00000340: c6f1 41be 7b90 083e df35 a43e b51e 2f3e
00000350: 2ce1 bc3c 0c15 a23d 18cd 91bc 980e 96be
00000360: 2ea7 55bd a8e0 003d e199 00be e5f2 a3bd
00000370: ba75 723e 36fd 1d3e f270 44bc 33c7 ae3d
00000380: 115a bbbc c9bc 903c 6991 36be 19ee 1d3d
00000390: b13d a83d 6471 7c3e 0259 9bbc 9611 debd
000003a0: ceb7 36be 6c7d 533e 9a82 9cbd d088 42bd
000003b0: 1dc9 fd3d b9e7 a2bd d999 9d3c fc74 a63d
000003c0: e3f8 23bd 1525 07be a9ce 3fbd eb6d 3fbd
000003d0: 0b97 36be ed57 b5bd dea3 b4bd 31b3 74be
000003e0: 9ab5 b2bd e461 763b d831 2dbe 1328 bc3d
000003f0: a4bf c9bd 2a5b e6bd 93f8 563e e60d 593e
0.19668698 -0.17590854 -0.027598135 -0.11022052 -0.00038120677 -0.06956475 -0.100158796 0.11218047
0.07654552 0.004687731 -0.12701438 0.0074551217 0.121654876 -0.2223841 -0.0653265 -0.076002456
0.21108888 0.048777953 0.27156305 -0.254993 -0.0128263235 -0.18534721 0.058590155 0.12697054
-0.14950694 0.21682768 0.16752793 -0.017112123 -0.00929027 0.13192852 0.18475853 -0.27099296
-0.18802197 0.12458989 -0.044794306 -0.07704499 -0.007780436 -0.03750596 0.14874679 0.11115715
-0.04093942 -0.003200363 0.08858003 0.023418773 0.106034115 0.1269286 -0.14278579 -0.19874904
-0.21002135 -0.24691288 0.20355572 -0.089595735 0.06912177 -0.07398598 -0.14913054 0.03666253
0.09504664 -0.0361648 0.082971014 0.0012589614 -0.0118498765 -0.05433667 0.03604322 -0.08015792
0.13153416 0.06640386 -0.13300185 0.071764484 -0.007977652 0.033104803 -0.050906446 -0.08148406
-0.38988754 0.1316417 0.47195926 0.12754184 -0.10387157 0.017859045 -0.008646444 -0.05692074
0.06762415 -0.4299635 -0.19440478 -0.13149086 0.2950949 0.21747771 -0.10211477 -0.18117872
0.008262327 0.0846696 -0.048395034 -0.061819095 0.07462188 0.013363577 -0.059726458 0.051451378
-0.07670009 -0.07240965 -0.014262924 0.073885396 0.05782069 -0.06889619 -0.06736478 0.040302496
-0.005899315 0.018868694 0.010171876 -0.07353802 -0.013449087 -0.02415485 -0.016474405 0.062147815
-0.09942429 0.0076160394 0.09565384 -0.104200065 0.032471456 0.107729025 0.05541949 0.05156943
-0.039441403 0.032688543 0.010207945 0.10245468 -0.10562726 0.05572324 -0.06458561 -0.09472024
0.09910906 0.021079978 -0.058000583 -0.09896273 -0.021233637 -0.022924606 -0.008284944 -0.03491068
0.026525686 0.06617213 -0.09173245 -0.056679834 0.06951781 -0.10375738 0.06377481 -0.046045177
0.02958588 -0.054899547 0.05010281 0.015840184 -0.023852851 0.10031694 -0.091854654 0.095372446
0.071981005 -0.01728076 -0.03267949 0.083567314 0.039739776 -0.09576119 -0.08384495 -0.10429998
-0.045444462 -0.01946748 0.016397042 0.041520454 -0.112634085 0.038818907 0.015740303 0.018648276
-0.09628853 -0.076471396 -0.022061935 0.051229235 -0.034332838 -0.036168233 0.004470967 -0.00067876966
-0.012346604 0.0014362951 -0.06008249 0.089646734 0.46082285 0.02638857 0.31490773 -0.3815385
-0.6918283 -0.17193174 0.15010919 -0.19428857 0.36416134 0.11489185 -0.09860438 -0.019626364
-0.052141625 -0.20671497 -0.30082697 0.3618996 -0.21593519 -0.093034536 -0.14161152 0.26983634
-0.07189686 0.019096687 -0.048398133 -0.0916508 -0.09895388 0.09288375 0.08454659 -0.335996
-0.18939885 0.13336365 0.3207235 0.17101558 0.023056589 0.079141706 -0.017797992 -0.2930801
-0.052161388 0.03146425 -0.125587 -0.08005313 0.23677722 0.15428624 -0.011989819 0.08534088
-0.022870095 0.017668145 -0.17828907 0.038557146 0.08214892 0.2465263 -0.01896334 -0.10843198
-0.17843553 0.20653313 -0.07642098 -0.047493756 0.12391875 -0.07954354 0.0192384 0.08127782
-0.04003228 -0.1319774 -0.046827946 -0.046735685 -0.17831056 -0.08854661 -0.08820318 -0.23896481
-0.08726044 0.0037594968 -0.16913545 0.09187331 -0.09851006 -0.11247857 0.20993261 0.21196708

conv2.bias f4 [16]
00000000: 79dd 343e 1d16 29bd 034e 953e fe2f 4c3e
00000010: cb8a cbbd ed04 b63d 968f 5c3f 10d3 f8bd
00000020: 18da 903d b366 453d 24f5 613d d3d3 3cbe
00000030: 170b bc3e bd24 b93e e368 f33b 30bb be3c
0.1766261 -0.041280854 0.2916108 0.19940183 -0.09938582 0.08887658 0.86156595 -0.12149632
0.07072848 0.048193645 0.055165425 -0.1844018 0.3672721 0.36160842 0.007428275 0.023282617

conv3.weight f4 [32, 16, 3, 3]
00000000: 8510 98bc ca00 323d 9cc9 1fbd c12d 73bd
00000010: bd80 aabd 4a7e 51bc 8aa9 663c d7d4 3fbb
00000020: 583b e73c 0e97 92bd 7a95 9f3d 1d4b 88bb
00000030: 649d 453b 9b08 843b e519 59bd 9264 8dbd
00000040: 7a2c 94bd 37eb 7f3d a325 22bc b881 4e3d
00000050: 135b 493d c2bf 283d 33be f7bc cd2b 9d3d
00000060: b781 483d 8188 453b 046c 633d fee1 583d
00000070: 9b97 8bbd 41e9 abbc 4d98 25bd 81e0 923d
00000080: b756 50bd 2d09 293d fd2d 2dbd d8d8 cebc
00000090: 27ff a93c 869c 64bd 46e8 b1bc 92fa 893d
000000a0: 25b1 d3bc 5ebd f7bc 4efc ebbc fd33 48bd
000000b0: abc6 fd3c 0423 22bd 00be babd 94e1 09bd
000000c0: 8cd1 1bbd b355 71bd d8e9 c2bd 4bae 85bd
000000d0: 1cac 89bd f17d 10bd 0355 dfbd b72f e13c
000000e0: cb19 193d 3c47 81bd 7123 a03d ee28 13bb
000000f0: 6bf7 59bd d227 34bd a25b 00bd 0fe3 82bd
00000100: 43f8 7d3d dac0 56bd ab85 423d 2cda ab3c
00000110: 4c03 583d a9a8 18bd 5a29 813d 1c5b 1f3c
00000120: 2492 073e 69b3 59bd 8c0a dd3b e3d7 9338
00000130: 501a fcbc 1f76 613c b51e d2bc e372 88bc
00000140: cf3b 063d 6671 5cbd 2106 f53c 30b4 d0bd
00000150: b273 2ebd 5e3c a2bd 9bf8 f7bc 6869 963d
00000160: e554 13bd 379c bc3b 61e1 b03b 1a02 7d3c
00000170: 2510 853b 11f2 803d 2e61 263d 18e4 71bd
00000180: 8957 bfbc 63c3 4b3d 89ee c8bc ea64 db3d
00000190: 2aaf b73d f8f3 6fbd 0fcb ff3c 0a19 cfbc
000001a0: ca14 1dbd d6fc 2ebd 02a1 983b 82e3 793d
000001b0: a84c 0e3d 9968 0a3c d028 d5bc aab5 1f3c
000001c0: e5ac 913d 3244 12bd 7c7f 603d 2b90 8abd
000001d0: 53ed 8ebd 4082 ae3d 37fb 3d3d 59c8 57bd
000001e0: 5ea1 8a3b dda1 453d 9fb0 4a3d 5faf e23d
000001f0: b3a3 e2bc e759 d23d cbf2 343d dbab 193b
00000200: eb82 0b3e 0e16 bf3d c67d 733d 2c19 af3d
00000210: b53d 5a3c 80ac 983d c795 973d 0fda b5bc
00000220: 803e 7dbd d598 06be 06c3 3ebd ee95 5fbd
00000230: 7e9d 373c da92 fcbc 300d 013d 20d6 0cbd
00000240: 235b 7d3d 6769 82bd 04a7 553d 881e e83c
00000250: 19d6 dfbb 8328 873c fc89 9e3d 8195 853d
00000260: 383a 27ba 6fd9 cd3c ab58 9abd 9a8c 803d
00000270: d6d4 863c 443b 25bd 7faa 92bd daf8 4c3d
00000280: e4a8 9dbd fc3c a3bc 7d83 ae3b b7e0 623d
00000290: e2b7 3fbd 8722 20bd bcf1 a7bd cbdf bb3c
000002a0: fa7a 853c 6240 403d dbec 72bd 8de4 823d
000002b0: d89f 33ba 3072 983d 9f0e d53c 0819 643d
000002c0: f826 d8bc c338 f23c 522d 49bd ffce a3bb
000002d0: 9ea5 ca3a 3e23 40bd 9e75 57bd 575b 8fbd
000002e0: f05e 613c f312 553d 2d6a 97bd 028a 8abd
000002f0: f167 a3bd 87e9 7ebb dd7a 713d 04a4 863d
00000300: 1a59 153d f261 8cbd 46ce 743d d6f2 823d
00000310: f1dc ff3b bf1c 75bd 7981 94bd adee 933d
00000320: 0c0e c33a 1516 8bbd 1024 0b3d 8848 1fba
00000330: 74fb a8bc 5a63 d93c cc02 7c3b 8ee4 793d
00000340: 0859 b3bb f963 96bd 5f2a 61bd c463 babb
00000350: 028b 6dbd d5c9 143c 8fca 6d3d 790d 8fbc
00000360: 1cb6 83bd 0549 a03d 982f ad3c 4b15 ac3c
00000370: cd52 9fbc 815a aabd 13cf 353d e4db 62bc
00000380: 6a66 61bc 5eea 19bc cdcf 8bbd 8bd9 9ebd
00000390: 5728 89bd 75ad 73bd 38a4 803d 7fe0 75bd
000003a0: 43ec f9bc ce38 4dbc 88c1 8c3b 0eb9 76bb
000003b0: 5ce5 d53c f192 44bd 895f 5a3d 4e71 903d
000003c0: d90f 26bd 1a79 83bc 18f4 93bd be38 65bd
000003d0: 5c4e 40bd a67b 20bd efb1 893c 225e 113d
000003e0: b524 a63c 6663 e93c f11d 17bc cc11 0c3d
000003f0: 6404 6cbc 125c 533d c48f 47bd a3ff b7bb
-0.018562565 0.043457784 -0.03901063 -0.059369806 -0.08325336 -0.012786457 0.014078507 -0.002927115
0.02822654 -0.07157718 0.07792182 -0.004159345 0.0030153627 0.004029346 -0.05300321 -0.06903948
-0.07235046 0.062480178 -0.009896669 0.05041668 0.04915912 0.0411985 -0.030242061 0.0767437
0.04895183 0.0030141177 0.055522934 0.052949898 -0.06816026 -0.020985248 -0.04042845 0.07171727
-0.050863948 0.041268516 -0.042280186 -0.025249884 0.020751549 -0.055813335 -0.021717202 0.067372456
-0.025841305 -0.030241664 -0.028806832 -0.048877705 0.030978521 -0.039584175 -0.09118271 -0.033662394
-0.038041636 -0.05891962 -0.095172584 -0.06527384 -0.067222804 -0.035276357 -0.109048866 0.027488573
0.037378114 -0.06312415 0.0781926 -0.0022454816 -0.05321447 -0.043983288 -0.031337388 -0.06390964
0.06200434 -0.05243001 0.047490757 0.020978056 0.05273752 -0.03727022 0.06306715 0.009726312
0.13239342 -0.053149614 0.006745642 7.049718e-05 -0.030774266 0.013761072 -0.025649408 -0.016656345
0.03277188 -0.053819083 0.029910149 -0.10190618 -0.042590804 -0.079216704 -0.030269912 0.073443234
-0.035969634 0.005755927 0.005397961 0.015442396 0.0040607625 0.062961705 0.04062002 -0.059055418
-0.02335717 0.049746882 -0.024527805 0.10712607 0.08968957 -0.058582276 0.031224756 -0.025280494
-0.038349904 -0.042721592 0.0046578655 0.061007984 0.034741074 0.00844779 -0.026020437 0.009747902
0.07113055 -0.035709567 0.05480908 -0.06765779 -0.0697886 0.08520937 0.046382155 -0.0526813
0.0042306622 0.048250068 0.049484845 0.11068606 -0.027665948 0.10271054 0.044176858 0.002344838
0.1362416 0.093303785 0.05944612 0.08549723 0.013320376 0.07454777 0.07401615 -0.022198705
-0.061827183 -0.13144238 -0.046572708 -0.054586343 0.011206983 -0.030831743 0.031506717 -0.034383893
0.061854493 -0.0636776 0.05216123 0.028334871 -0.0068309424 0.01649881 0.07741162 0.06522656
-0.00063792197 0.025128094 -0.07536443 0.062768176 0.01645891 -0.040339723 -0.07161426 0.05004201
-0.07698229 -0.01992654 0.005325733 0.055390086 -0.046806224 -0.039095428 -0.08200404 0.022933861
0.016293991 0.0469364 -0.059307914 0.06391249 -0.00068521267 0.074436545 0.026007948 0.055687934
-0.02638577 0.029568082 -0.049115486 -0.004999041 0.0015460735 -0.04690861 -0.052602403 -0.069998436
0.013755545 0.052020025 -0.07393298 -0.06764604 -0.079788096 -0.0038896517 0.058955062 0.06574252
0.036461927 -0.06854619 0.05976703 0.063939735 0.0078083207 -0.059841868 -0.072512574 0.07223258
0.0014881506 -0.06791321 0.03396994 -0.00060761767 -0.020627715 0.026536632 0.0038453816 0.061008982
-0.00547326 -0.07343287 -0.05497205 -0.0056881625 -0.057993896 0.009081324 0.058054503 -0.017462479
-0.06431219 0.07826427 0.021140859 0.021006247 -0.019448662 -0.083180435 0.044386934 -0.013846371
-0.013757328 -0.009394256 -0.06826744 -0.07756337 -0.06697147 -0.059491593 0.06281322 -0.06002855
-0.030508166 -0.01252575 0.0042955317 -0.0037646922 0.026110344 -0.047991697 0.053313766 0.07052861
-0.040542457 -0.016048957 -0.072242916 -0.055962317 -0.04694973 -0.03918042 0.016808478 0.035490163
0.020281175 0.02848978 -0.009223447 0.03419666 -0.014405344 0.051601477 -0.04872109 -0.005615191

conv3.bias f4 [32]
00000000: 1ef0 5e3e 7d51 80bd 7cfb 8f3e 6243 b6bd
00000010: 42d1 9dbd 8eb7 083b 625b c83d 5aa0 543b
00000020: ad86 8bbc 25ce 203d c61b e7bc cba6 033f
00000030: b9ae 3d3e a8f0 9dbd 5e55 8e3d e4e9 653e
00000040: 3cdd 8c3c 490a b83d a046 a73d b8b8 433e
00000050: 9029 f03b 7c70 d4bc 10f9 c13e fa5c ab3e
00000060: 5a96 e33c c6a3 113e 9904 3a3d 4556 08be
00000070: f1e8 a1bd de65 e43e 910c 06bd 42a5 373d
0.21771285 -0.06265543 0.28121555 -0.08899571 -0.077059284 0.002086136 0.09783055 0.003244421
-0.017031992 0.039259095 -0.028211486 0.5142638 0.18523683 -0.07711917 0.06949876 0.22452503
0.017195337 0.08986337 0.081677675 0.19113433 0.0073291734 -0.025932543 0.37885332 0.33469373
0.027781654 0.14222631 0.04541454 -0.13314159 -0.07905758 0.44608968 -0.032726828 0.044835337

conv4_1.weight f4 [2, 32, 1, 1]
00000000: b084 5cbe d6f2 c73d fbf2 f6bd 6044 26bf
00000010: 020f 8cbe e3fd 2bbe 4b35 24be f896 183e
00000020: 8c2b e8bd 710c 52be 8582 8bbe 73b8 8bbf
00000030: 6f65 e7be d66b 973e c983 443f c685 a13e
00000040: 6163 d33e e7cb c03e e89b af3e 2630 ae3e
00000050: d3a3 1a3e 4329 0abd 673d 7fbe 5eed 3a3e
00000060: f13f 193e 98f7 cfbf 0065 4c3f a197 84bd
00000070: 9419 1a3e f0e2 6f3f 9318 313c e0b8 bcbe
00000080: 5c97 a23e 88ea 89bd 8a0e e7bc f0ea 423f
00000090: 6920 923e 1bbf 533d 28b6 373e 6ed0 79bd
000000a0: 9a4b 563e b5f2 553d 0bae 1d3e a80f 8a3f
000000b0: 1b20 c83e d940 a7bd 35b6 52bf d38e dabe
000000c0: 5414 05bf f71e 07bf fd4a 1bbf 6634 dabe
000000d0: 981f cabd dc79 f13d c798 713e 0dff 93be
000000e0: 323e 0dbe 1955 cd3f 583c 56bf 58b5 143e
000000f0: 3810 10be 9a72 68bf 71dd bfbd 2467 223f
-0.21534991 0.09763114 -0.120580636 -0.6494808 -0.273552 -0.16796069 -0.16035955 0.1490134
-0.11336431 -0.20512559 -0.27248016 -1.0915664 -0.45194575 0.2957446 0.7676359 0.31547374
0.41286758 0.37655565 0.34298635 0.3402111 0.15101556 -0.033730756 -0.24925767 0.18254611
0.14965798 -1.6247435 0.79841614 -0.064742334 0.1504882 0.93705654 0.010809082 -0.36859798
0.31756103 -0.067341864 -0.028205175 0.76139736 0.28540352 0.051695924 0.17940581 -0.06098979
0.20927277 0.052233417 0.15398423 1.0786028 0.39086995 -0.081666656 -0.82309276 -0.4268709
-0.51984143 -0.52781624 -0.606613 -0.42618102 -0.09869307 0.11790821 0.23593436 -0.28905526
-0.13793257 1.6041595 -0.8368583 0.14522302 -0.14068687 -0.9079987 -0.093684085 0.6343863

conv4_1.bias f4 [2]
00000000: 013a 03be 7f49 453e
-0.12815095 0.19266318

conv4_2.weight f4 [4, 32, 1, 1]
00000000: 140a f03d 720d 80bc ead5 15be 723f d83d
00000010: cba7 e63d 3b16 8cbd e251 ad3d 1b71 043d
00000020: d7c8 233e 1f5d 723e 4599 5c3c 3b93 fdbc
00000030: 8442 a63d 6c37 943c 1685 943c 742e cb3c
00000040: da55 723e bfb1 b23e ea8d 24bd c2ff e1be
00000050: e291 3f3d 2620 26be 4c54 4fbe a082 61be
00000060: 13ee abbd 1ddd 96bb 60c4 7e3d d7c0 d23d
00000070: 9d76 1f3d 56d6 4abb 8412 d6bd f689 e9bd
00000080: 2f00 abbc 7313 eebd 06da 45bd 6a56 f0bc
00000090: 45d4 1fbc 6a7e 17be 06e8 47be 7d30 e0bc
000000a0: 3c9a c2bd 958d 85bd cbde 133d 7ba4 8fbb
000000b0: 5b15 c3bd 8a98 3abe 2e6b 103e 30a1 ee3d
000000c0: 6f32 b1bd 5777 843e 7942 2a3e 3359 813d
000000d0: 76b9 03bc 1983 9ebd 89f6 e13d b0ce 9cbe
000000e0: 8bc6 913d df6c 9d3d 6ebb 20be b88e 56be
000000f0: 3fe5 473e 28e1 2cbd efae 263e 38a7 6bbe
00000100: 542a cbbc 3eff 01be 2208 663e 2168 c3bd
00000110: ed2f 603d 3c57 733d 1718 1dbd aa61 bc3d
00000120: 1df3 aebd 57e4 c33d bb14 39bc 31b3 253d
00000130: a50f 193d 4676 8a3b 167c f63b 0d31 303e
00000140: a55b 12bd c7ee b33d fedb fbbd 4ed5 a7bd
00000150: bb81 1cbe e5af 9ebd a535 403e 9397 ba3d
00000160: 39d1 c33c 34cb 153c 49fa 63bd b10c 393d
00000170: 8a76 84bd 0d24 6b3c 82c9 aabd e1be 1a3d
00000180: a090 de3d 907e 99bd df24 023d 8631 98bc
00000190: 4867 b4bc 2ac9 27bc 6d73 5c3e 2bb2 543c
000001a0: a0d5 623d 58ce 97bc ef74 06bd bc9c 76bc
000001b0: f71e e1bd 8965 0cbe f46f 16bc 20e7 1d3b
000001c0: 6881 18be 5274 51be e8b6 f7bd 2390 ab3d
000001d0: b13c dd3c afdf f93d 3bc5 bc3d ec18 333e
000001e0: 31e3 6f3d 6d81 5ebc a015 a7bd 6845 46be
000001f0: da86 00bc 09a2 473e 64c2 fdbd c34a 9abd
0.11720672 -0.015631411 -0.14632383 0.10558976 0.11262473 -0.068401776 0.084628835 0.03233443
0.15994583 0.23668335 0.013464277 -0.030953994 0.081181556 0.018092833 0.018129867 0.024802424
0.23665562 0.34901235 -0.040174402 -0.4414044 0.046769984 -0.16223201 -0.20247 -0.22022486
-0.083950184 -0.0046039955 0.062198997 0.102906875 0.038931478 -0.0030950508 -0.1045275 -0.11403267
-0.020874111 -0.116248034 -0.048303626 -0.02933808 -0.009755199 -0.14794317 -0.19522104 -0.027366871
-0.09502074 -0.06521145 0.036101144 -0.0043836213 -0.095255576 -0.18222252 0.14103386 0.11651838
-0.086521976 0.258723 0.1662692 0.063158415 -0.008039823 -0.07739849 0.11033351 -0.3062644
0.07117947 0.07686781 -0.15696499 -0.2095288 0.19521044 -0.042206913 0.1627767 -0.23013008
-0.024800457 -0.12695023 0.2246404 -0.095413454 0.054733206 0.059409365 -0.038353052 0.091983154
-0.08542464 0.09565037 -0.011296446 0.040454093 0.037368435 0.004225525 0.0075221164 0.17206211
-0.03573193 0.087857775 -0.122978196 -0.081949815 -0.15283863 -0.07748393 0.18770464 0.09110942
0.023903476 0.009142686 -0.055658612 0.04517812 -0.06467922 0.014351857 -0.08339216 0.037779693
0.10867429 -0.07494843 0.031773444 -0.018578302 -0.022021905 -0.010240832 0.21528406 0.012981932
0.05537951 -0.01853101 -0.03282636 -0.015052017 -0.10992234 -0.13710608 -0.009181965 0.002409406
-0.14893115 -0.20454529 -0.120954335 0.08377101 0.027006479 0.122008674 0.09217306 0.17489976
0.058566276 -0.013580662 -0.081584215 -0.19362414 -0.007844651 0.19495405 -0.12390593 -0.07533791

conv4_2.bias f4 [4]
00000000: 1bce de3c d3c8 7b3d 4d35 363f 4e4a 3a3f
0.027197888 0.061470818 0.7117508 0.7276963

conv4_3.weight f4 [10, 32, 1, 1]
00000000: c301 1a3c 838a a63d a6df 1d3e 2ec3 a73d
00000010: 14d6 513c ce84 333e 8371 fdbd f93c 143e
00000020: 844f b7bd 8b4f fb3d f0dc ec3d 1ad8 e13c
00000030: 30b0 313d 1a1b 70bd e456 3cbc ecdb adbd
00000040: a243 383c 9df7 393d b519 313b de69 a2bd
00000050: 9145 f7bd 9a75 963d 140c c5bc 0cf8 433d
00000060: 0031 ad3d 77f1 97bc 4b9b 933c 6398 03be
00000070: be62 123c 9557 b63d 74ff 95bd 875d 6f3c
00000080: 5cc8 db3d efdd b4bd f174 e0bd fb01 d4bd
00000090: 1072 c6bd 58f4 2abe 3cb5 b63c 8cd5 8d3d
000000a0: eef8 bdbd 8d6b e9bd feb2 a1bd 60de 3b3d
000000b0: 701f 793d fcdb 813c adb9 e5bd b23d 203e
000000c0: 1c86 c1bd dc92 5a3b b3fb a8bd a983 4cbd
000000d0: 7c72 67bc 60b0 293d 16e2 0d3e b5bf 973d
000000e0: 7e03 a93d acc2 423c 9f41 2a3c ded9 043e
000000f0: 1b4e c8bd 511c 923d 9420 263e 2b7c 8c3c
00000100: 7fdf 90bd 88d2 273e 0e2b 5a3d 1488 a2bd
00000110: dcc5 09be 99fc 2e3e 7f88 293e fdc9 0ebe
00000120: 6113 b73b 0fc8 063c aaab 08be bbaf 0c3c
00000130: 86b5 9dbd 0845 0f3d 71da 38bd ca2a 013d
00000140: 252f abbd be92 733c a32c 653d 19ea 91bd
00000150: 4cc3 37bd f6bb 1dbe e935 203e 5330 eebc
00000160: 3bfc cbbd 44a6 b93c 6f73 4e3d 4c7b 01bd
00000170: 29ea 033e 68b9 44bd e4bb f23d 0896 6dbd
00000180: d209 e73d 2bcf 07bc 6317 9d3d 976d f6bd
00000190: 0d43 c13c 53d1 333d bc38 073d 9f2b dfbc
000001a0: 5952 d83d 1c90 02bd d81e 4a3c 5852 233c
000001b0: cf66 063e d56f 54bd 5fc1 8d3d f835 053e
000001c0: 4bfe 5d3d 70ae 08be b0ed dc3d 0449 94bc
000001d0: 8fae bb3d 9edb 30bd b0a4 1f3e 1b82 67bd
000001e0: 91df 173e 4e51 8d3c fa38 0bbe 3a2b 5dbd
000001f0: 984d 1bbe ab47 9c3b 4f88 efbd 20e9 ed3d
00000200: 27e7 053d 26ab 0bbd 414e df3d 7b74 79bd
00000210: fb5b 01bd 3c9a 2ebe 6452 df3d 2e7b 1d3e
00000220: a1c7 37bc f015 c23d efe9 483d e6e8 4e3d
00000230: 5d88 d23c 4e8e 0abe e4f0 c43d e2a2 cebd
00000240: ca5e 60bd 0ab1 10be dac7 c4bc 1461 863d
00000250: f694 943d a6f1 19be 0ee5 033e e9b7 e0bb
00000260: c0aa 183e 97d4 acbc 0618 e13b 68c2 21be
00000270: 8f96 aebc 9cd1 da3c a26f 373d 794f 793d
00000280: 6c1c c33c c3fc f4bd 744f 5b3d 8839 653d
00000290: 412e 333d f242 523c a953 eebd 2883 1dbe
000002a0: cd43 e7bd 98f6 9e3b bfb7 c2bc 9348 4cbd
000002b0: 1e6f 513d 8b25 1bbd c5a5 7ebd 6aa3 57bd
000002c0: 44b5 f93c 7374 633d 04b4 f93c 4a2f 57bc
000002d0: 531b 22be c2cc b6bd fd10 473c f2a5 b43d
000002e0: 6e2c e43d 874f 3b3c 0e5f 253c c4c9 24be
000002f0: 4658 9cbd 14a7 a33d e00b 233e 8f83 a73d
00000300: 59b6 c5bc 692b db3d 3cd2 3dbd 646c 9dbc
00000310: 8ef1 333d e260 f53b 743c f0bd 036e 7ebd
00000320: 44bc 02be c05b c63d 6f97 06be 20f8 133b
00000330: f59f 013e af88 f0bd 9535 aa3d 389d bf3d
00000340: 1ac2 163e 8e4b 9ebc 77b4 33be 3b24 a63d
00000350: 7f23 35bc a838 23be 3d54 a33d a407 48bc
00000360: d3c7 ccbc a51f 08bd f066 a33d 86a5 63bd
00000370: 63f6 c33d b76a ccbd 4201 e4bd 8a1f 8d3d
00000380: 9fd7 c03b 1df9 14be bd67 0a3e a107 4bbc
00000390: d75c df3d d7f8 77bd f858 073e 6cb5 cdbd
000003a0: 6591 f5bd 7b2c 0f3e 0327 ee3c 5a7d a23d
000003b0: 55a6 9cbd b88c 09be 50a7 1fbe d36f 263e
000003c0: e504 153d 787a 873d 5a5e b83d 3325 b1bd
000003d0: 95eb dbbc 5801 2c3d e8d3 bc3d 3d58 f83d
000003e0: dd19 623d 4810 03bc 146d d7bd 867f bd3c
000003f0: 4153 7abd 9359 113e c5b1 173e 13bb aa3a
0.009399834 0.08131888 0.15417346 0.081915244 0.012807388 0.1753113 -0.12375166 0.14476384
-0.08950713 0.12271031 0.11565578 0.027568866 0.043380916 -0.058619596 -0.011495326 -0.084892124
0.011246594 0.045402158 0.002702338 -0.07930349 -0.120738156 0.073466495 -0.02405361 0.047843978
0.08456612 -0.018547757 0.018018385 -0.128511 0.008934675 0.08903424 -0.073241144 0.014609701
0.10731575 -0.08831393 -0.10959805 -0.1035194 -0.096897244 -0.16694772 0.022303216 0.069254965
-0.09275995 -0.11397467 -0.07895468 0.04586637 0.060820997 0.015851967 -0.112170555 0.15648535
-0.094494075 0.0033351695 -0.08251133 -0.04993025 -0.014126416 0.04142797 0.13855776 0.07409612
0.08252619 0.011887234 0.010391622 0.12973735 -0.097805224 0.07134307 0.16223365 0.017149052
-0.070738785 0.16388905 0.053263716 -0.07936111 -0.13454384 0.17088546 0.16555975 -0.1394424
0.005587027 0.008226409 -0.13346735 0.008586819 -0.077006385 0.034977943 -0.045130197 0.031534947
-0.083586015 0.014866529 0.055950772 -0.07124729 -0.044863984 -0.15403733 0.15645565 -0.029075777
-0.099602185 0.02266229 0.050403055 -0.031611726 0.12882294 -0.04802838 0.118522435 -0.05800441
0.1128117 -0.008289139 0.07670476 -0.12032621 0.023591543 0.0439008 0.03301309 -0.02724248
0.105625816 -0.031875715 0.012336455 0.009968363 0.13125156 -0.051864464 0.06921648 0.13008869
0.05419759 -0.13347793 0.10787523 -0.018101223 0.09164154 -0.043178193 0.15590167 -0.056520563
0.14831378 0.017250683 -0.13595954 -0.053996302 -0.15166318 0.0047692857 -0.11695921 0.11616731
0.032691147 -0.034098767 0.109035976 -0.0609021 -0.03158186 -0.17051023 0.10904387 0.1537902
-0.011217029 0.094768405 0.04905122 0.050515078 0.025699789 -0.13530847 0.09616259 -0.10089661
-0.054777898 -0.14130035 -0.024021078 0.06561485 0.072549745 -0.15033588 0.12880346 -0.0068578613
0.14908886 -0.021097464 0.006869319 -0.15796816 -0.021312026 0.026711278 0.044784196 0.060866807
0.023817264 -0.11962273 0.05354257 0.05596307 0.043745283 0.012833344 -0.11637051 -0.15382063
-0.11292229 0.0048511736 -0.023769258 -0.0498739 0.05113136 -0.0378776 -0.06216981 -0.05264608
0.030481942 0.055530977 0.030481346 -0.013133833 -0.15830736 -0.08925773 0.012150046 0.08820714
0.11141287 0.011432535 0.010093464 -0.16092592 -0.07634024 0.07990852 0.15922499 0.0817939
-0.024134802 0.10701639 -0.046343073 -0.019216724 0.043931536 0.007488356 -0.117302805 -0.062116634
-0.1276713 0.09685469 -0.13143705 0.0022578314 0.12658675 -0.1174482 0.08311001 0.09356159
0.14722481 -0.019323137 -0.1754931 0.08112379 -0.011055826 -0.15939581 0.079750516 -0.012208853
-0.024997627 -0.033233304 0.07978618 -0.055577777 0.09568479 -0.09981292 -0.111330524 0.06890781
0.005885079 -0.14548154 0.13516136 -0.012391956 0.1090638 -0.060540047 0.13217533 -0.10044369
-0.119906224 0.13981812 0.029071337 0.07934065 -0.07648913 -0.13432586 -0.15591168 0.16253595
0.03638162 0.06615156 0.09002371 -0.08649673 -0.026845733 0.04199347 0.092201054 0.12126205
0.055200446 -0.007999487 -0.10518852 0.023132097 -0.061114553 0.14194326 0.14813907 0.0013025723

conv4_3.bias f4 [10]
00000000: 8772 f23d 8c36 6c3e 9d3b ea3e fbf4 533e
00000010: 17c0 803e f1c9 e73e dd86 363e a916 d63e
00000020: ce3e d13e 248b aa3e
0.118382506 0.23067683 0.45748606 0.20698921 0.25146553 0.45271257 0.17824884 0.41814163
0.4086823 0.3330928

momentum_buffer f4 [10, 3, 3, 3]
00000000: f11b 6e3d eadf 28bc 68a4 813d a3c0 b53d
00000010: 536e 613d d032 823d eab9 6a3d 3ce1 2b3d
00000020: 44c0 253d 1e54 a93c 2493 11bd f9f0 383d
00000030: 0e32 543d c835 913c 3328 f83c 546a 6a3c
00000040: d4ef 153b d26e 2c3b 9ba1 eabc a04e 55bd
00000050: d2d0 163d faa5 f43c f761 783c 6a12 ce3c
00000060: 00b3 ab3b d017 113b 8826 ccbb 734a 9c3e
00000070: 4858 713e 9bac 803e 9cb3 8a3e a837 7a3e
00000080: aa19 7b3e 242c 913e c291 913e c264 733e
00000090: 0df0 913e 7583 463e 194e 4b3e 03ec 893e
000000a0: d4be 653e 8cca 4d3e bb67 943e 37fc 8b3e
000000b0: 46bd 5b3e 03f1 6d3e bbb7 133e cb35 0e3e
000000c0: 4098 5d3e 8329 323e a64c 1f3e 1838 723e
000000d0: 3c4a 6c3e 0450 393e 858c 423e 2096 603e
000000e0: 420f 5f3e 102c 4d3e b5ea 823e 3173 813e
000000f0: 32d7 743e f2ce 883e b648 703e 38c1 a83d
00000100: 5662 bd3d fea1 d73d 3255 ab3d 1b47 003e
00000110: 1d6a 0a3e 58b9 ea3d 26cb 013e 7ea0 d23d
00000120: 585b df3c 2cbb 403d b431 943d e0a9 d23c
00000130: 28d9 9c3d 3452 cb3d b8c1 863d 3ca8 9c3d
00000140: 48b4 5d3d 7e29 7ebe 12cb 7abe d424 52be
00000150: fd94 70be 5854 6ebe 4291 62be da48 81be
00000160: b778 8abe 682d 7fbe bc4a 04bd 58d6 b6bc
00000170: c8c9 b43c 381e cabc 10f7 1fbc 5051 35bc
00000180: 888b 58bd e056 66bd 8484 63bd 60fa 14bc
00000190: 109a 2d3c 4854 523d 40f2 c2bb 40c9 6b3c
000001a0: 90c8 423c 5096 33bd 28ac 29bd 70eb f7bc
000001b0: ac4b 17bd 685f f6bc 8ce0 2ebd bab5 d7bc
000001c0: f80a bfbc 81a8 06bd 554e d9bc fab5 aabc
000001d0: fbd2 f0bc ac4f a5bd 2218 8abd fbfc 8dbd
000001e0: d31b 7cbd c038 5cbd f306 3abd 68e7 5cbd
000001f0: f7d7 57bd b0a1 46bd e02e 43bd 8abf bdbc
00000200: 3041 0bbd 346e e3bc 7add 40bc 603b b9bb
00000210: 5dc5 1bbd 70b8 84bc 80df 92ba 8cb3 b3bc
00000220: cc62 58bd 287c b1bc 1b01 a8bd d8a1 9cbd
00000230: fda5 3fbd 96f7 7cbd 2213 61bd e6c6 87bd
00000240: 8222 18be 7381 22be bee7 eebd 78e2 53be
00000250: 4459 39be f7de 0bbe f14b 46be 5df4 31be
00000260: 340d 32be 2e81 09be 3b01 27be 9e6d 07be
00000270: cf6b 49be 574a 49be 4c89 24be a0c1 37be
00000280: b42a 3abe a27a 48be 74df f53d dd54 5b3d
00000290: 8262 7d3d 88ec c33d 346c 383d 00ba 5f3d
000002a0: 4ff5 893d 04aa 953d 4c19 a93d ebb9 db3d
000002b0: 4d3d 4e3d 9b27 773d b651 c13d b691 4d3d
000002c0: 9dc0 7b3d 945e 923d 0895 9e3d c872 b63d
000002d0: 6089 eb3d 1bbc 823d b30e 983d dc74 c03d
000002e0: 4e4b 793d fc15 a03d 82c2 913d 1cd6 b43d
000002f0: 165f e33d 8784 4abe da7d 46be dc7a 4dbe
00000300: 59c5 34be 840d 38be 5bd2 44be de8f 3abe
00000310: 704b 30be f311 2dbe b2bd debd 1716 c1bd
00000320: 5363 c9bd 04d5 adbd e118 a5bd 750b c3bd
00000330: 13ca abbd bcbb 8bbd d667 80bd 4a61 abbd
00000340: 43bd 9fbd fc02 b1bd 4786 4cbd e250 5bbd
00000350: 94b8 94bd aab4 fbbc 5a96 c2bc dc51 cfbc
00000360: d825 a03e 0129 c63e 87f1 cc3e 20df a13e
00000370: 2408 c33e 628a c63e 4886 a93e 2db9 ca3e
00000380: 2876 cf3e 6951 8d3e 28d0 b33e e7fb c13e
00000390: 3fee a43e 3fee c03e eca6 c13e 1568 aa3e
000003a0: 8bf2 c53e c080 c73e 1b11 743e 6190 ad3e
000003b0: d911 be3e 9787 933e 5f07 b93e f8b5 b93e
000003c0: 9320 993e fc81 b63e d8c1 b73e 0fad 063e
000003d0: 6128 e83d 4860 933d d010 023e 64a2 eb3d
000003e0: a4e1 cf3d 577c 083e d8af 123e b228 c83d
000003f0: 20aa 6bbd c69d b0bd dd15 06be b8ec 73bd
0.058132116 -0.0103072915 0.06330186 0.08874633 0.055036854 0.06357348 0.057306208 0.041962847
0.040466562 0.020669993 -0.035540715 0.045151684 0.05180555 0.01772584 0.030292606 0.014307577
0.0022878544 0.0026311171 -0.028641513 -0.052076936 0.03682024 0.0298643 0.015160075 0.025155265
0.0052398443 0.0022139437 -0.006230179 0.3052555 0.23568833 0.25131688 0.27090156 0.24435294
0.24521509 0.2835399 0.28431517 0.23768905 0.28503457 0.19386084 0.1985401 0.26937875
0.22436076 0.20096797 0.2898539 0.27340862 0.21458921 0.2323647 0.14425556 0.13887708
0.2164011 0.17398648 0.15556583 0.2365421 0.23075193 0.1809693 0.18998916 0.21932268
0.21783164 0.2003634 0.25569692 0.25283197 0.23910215 0.26720387 0.23465237 0.082399786
0.09247272 0.105289444 0.08365859 0.12527125 0.13517042 0.11461133 0.12675151 0.10284518
0.027265236 0.0470535 0.072360426 0.025715768 0.07658607 0.099277884 0.06579918 0.07649276
0.054127008 -0.24820516 -0.24491528 -0.20521861 -0.23494335 -0.23274362 -0.22125724 -0.25250894
-0.27045223 -0.24919665 -0.032297835 -0.022319004 0.022068873 -0.024672613 -0.009763494 -0.01106675
-0.052867442 -0.056235194 -0.0555463 -0.009092897 0.010595813 0.051349908 -0.0059492886 0.014391243
0.011888638 -0.04384452 -0.041423947 -0.030263633 -0.0369374 -0.03007479 -0.042694613 -0.026331771
-0.02332066 -0.03287554 -0.02652661 -0.020838726 -0.029397478 -0.08071837 -0.06742884 -0.06933018
-0.061549973 -0.05376506 -0.045416784 -0.053931624 -0.052696194 -0.04849404 -0.047652125 -0.023162622
-0.033997715 -0.02776251 -0.011771554 -0.00565283 -0.038030017 -0.016201228 -0.0011205524 -0.0219362
-0.052828595 -0.021665648 -0.08203336 -0.07648057 -0.046789158 -0.061759554 -0.054949887 -0.06629734
-0.14856914 -0.15869693 -0.11665295 -0.2069186 -0.18100458 -0.13659273 -0.19364907 -0.17378373
-0.17387849 -0.13428184 -0.16309063 -0.1322541 -0.19670032 -0.19657265 -0.16068 -0.17944956
-0.18180352 -0.1957803 0.12005511 0.05354773 0.061861522 0.09566599 0.045025066 0.054620743
0.06736242 0.073078185 0.08256778 0.107288204 0.05035143 0.060340505 0.09439413 0.05018779
0.061462987 0.071469456 0.07743269 0.089086115 0.115008116 0.063835345 0.07424679 0.09397289
0.06086283 0.07816693 0.071171775 0.088299006 0.111021206 -0.19777118 -0.19383946 -0.20066398
-0.17653407 -0.17973906 -0.19220869 -0.18218943 -0.17216277 -0.16901378 -0.10876025 -0.094280414
-0.09833398 -0.08487895 -0.08061386 -0.0952367 -0.08388152 -0.06822917 -0.06269805 -0.08368166
-0.07799771 -0.08643147 -0.049932744 -0.053543933 -0.07261768 -0.030725796 -0.023753334 -0.025307588
0.31278872 0.38703158 0.4002802 0.31615543 0.38092148 0.38777453 0.3311026 0.39594403
0.40519834 0.27601174 0.35119748 0.378875 0.32213017 0.37681767 0.37822664 0.33282533
0.38661608 0.38965416 0.2383465 0.33899215 0.37122992 0.28814384 0.36138436 0.36271644
0.29907665 0.35646045 0.3589008 0.13151954 0.11335827 0.071960986 0.12701726 0.11505583
0.101504594 0.13328682 0.14324892 0.09773387 -0.05753529 -0.08623843 -0.13094278 -0.059551924

momentum_buffer f4 [10]
00000000: 4e26 56bd 8ee5 6c3f d8fd 8e3d 20bf e4bd
00000010: 04a7 74bd b033 0bbf de7a f43e 125c a6be
00000020: 2aa2 fb3e d254 21bf
-0.052282624 0.9253777 0.069820106 -0.11169267 -0.05972959 -0.54375744 0.4774999 -0.3249212
0.4914716 -0.6302005

momentum_buffer f4 [16, 10, 3, 3]
00000000: 80ff 343e 4c65 493e 2a87 3e3e d8f5 2b3e
00000010: 7f18 513e ebe3 523e 50f5 fe3d 9466 343e
00000020: 1223 573e 7935 0a3e ec22 1c3e 1ca9 123e
00000030: 1f8e f73d 2914 093e 4fe4 093e b888 cf3d
00000040: f80f eb3d 8180 e13d c39a b93d 35a6 6f3d
00000050: f631 d83c 009f c43d 2484 c03d 9292 333d
00000060: b0ce 453d 0b06 d23d ad83 063e 3c1f 753d
00000070: 4927 983d 64bb b23d 42de ca3d d082 ab3d
00000080: 99b7 713d f6b1 f73d f1c3 f83d 1892 ac3d
00000090: cf14 fc3d dde9 f03d a6f4 d33d 9e25 e23d
000000a0: 2041 de3d b4bb c13d 8f76 c63d 9b5c c83d
000000b0: 0ca9 af3d 5c14 7c3c 7225 9b3d b41d 173e
000000c0: 6ab8 f83c 9701 1a3d e28c c53d e0a6 24bb
000000d0: c8cb 1b3c acd7 073c d0fe d53c f352 523c
000000e0: 2630 683c aa77 de3c a505 273c c4f1 303c
000000f0: 5f0e 0f3d b68d a03c 206f 933c ba03 40bd
00000100: 12a3 5bbd 7c28 4dbd 7834 11bd 83d5 3dbd
00000110: 6bcc 44bd ef02 e3bc 1ab2 05bd 8879 f7bc
00000120: 8a6e 093e a164 313e dc23 463e d40b d03d
00000130: 2008 2d3e 25a7 703e 45ca 233d 737c a73d
00000140: bed2 eb3d 8051 f13d 86b1 133e 66d2 0b3e
00000150: 2e16 eb3d 72c3 3b3e 5134 2a3e fc70 bd3d
00000160: af30 373e 8abc 2a3e f9e0 0a3a be69 ef3a
00000170: e959 373b 084e ea38 5d75 9a3a 1819 dc3a
00000180: 7e20 c138 6f83 8f3a 0300 8d3a a228 b938
00000190: ec13 bd39 ec04 213a 3e6f e539 8ca1 e039
000001a0: 7e7b 8039 5e11 dd39 102a e339 909e d936
000001b0: e7d5 563b 3cf8 ab3b 7058 9f3b 68ba e83a
000001c0: 006a 453b 6c64 2c3b 7061 ce39 3ae0 7b3a
000001d0: 024c 923a bad3 663b 0db4 a23b 2350 ab3b
000001e0: 4f71 523b 1908 563b 45d9 3a3b ca8b f43a
000001f0: 712c 1b3b 4df9 063b 9862 0ab8 6b9e 97b8
00000200: 5a43 beb8 127c 0ab8 e908 dcb7 8459 2fb8
00000210: c8e4 08b8 e091 0eb8 2fbb 24b8 e3b4 aa3a
00000220: ca9a a73b eedc b53b 26f1 db3a 8e8d 803b
00000230: 42a6 a53b 445d a13a 0aab a23b b06a b03b
00000240: 43d2 f23a df36 9d3a eadd b93a 8d36 063b
00000250: 679d d83a 44a5 cb3a fdb4 123b 1885 f63a
00000260: 8e83 ec3a b350 143a 91be c339 f8a9 82b8
00000270: 0640 e939 f325 b939 c859 6838 c266 1539
00000280: 381f b938 4090 12b9 70ca 2e3a 926a c73a
00000290: 57b1 2b3b 9ada 013b b13d ba3a 2e3e 9a3a
000002a0: 8685 073b 196d b63a a8aa c93a f2fb c83b
000002b0: 08db e73b 4329 8a3b b74b 993b 3061 f93b
000002c0: 6e6c a03b c163 c23b a6e4 e83b 40cb 733b
000002d0: 23ab 9dbe 1abb 8cbe 1c33 65be b5b2 88be
000002e0: c464 6fbe fa9f 78be d2eb 5ebe 8815 68be
000002f0: 7831 81be bacc 04be ce0d aebd a74f 87bd
00000300: 0293 02be 5b6b b0bd 0c91 76bd 0613 dfbd
00000310: e6bd c4bd 3d37 87bd 22c7 5abe 1c86 7abe
00000320: 796b 49be dbf9 8abe b7a5 44be cf4e dbbd
00000330: 7efe 40be 19ca 47be 9dc6 1abe 7e6a 33be
00000340: d0a4 46be c037 0dbe 9d82 4fbe 67dc 4abe
00000350: 6a8e febd a0cb 3abe 729c 3fbe b60a 0bbe
00000360: 5644 98bd 4638 8cbd 368d 8bbd c2f5 5cbd
00000370: 6a36 54bd f9f2 60bd 8028 61bd d0bb 58bd
00000380: 4532 5dbd 08c2 92be 9f91 91be 28b0 46be
00000390: 723d b2be 9eb7 99be 860a 1abe 5094 5fbe
000003a0: 70b4 4bbe 06d8 b2bd 4604 88bd 2b58 57bd
000003b0: 1553 3bbd 1e12 a6bd fe15 8dbd cef9 8abd
000003c0: 3a5a c1bd cfec a3bd 7283 9fbd 7cc4 023d
000003d0: ca37 233d 96c8 cc3c 7507 a73c c952 193d
000003e0: fb60 f13c 0083 02b9 fc95 ed3c 3e11 f63c
000003f0: 4224 a5be 4434 99be 3071 85be 184c a7be
0.1767559 0.19667548 0.18606248 0.16793 0.20419501 0.20594756 0.124491334 0.17617255
0.21009472 0.1349696 0.15247697 0.14322323 0.12087654 0.13386597 0.13465999 0.10133499
0.11477655 0.11010838 0.090627216 0.058508117 0.02639101 0.09600639 0.09400204 0.043840952
0.048292816 0.10255059 0.13136168 0.05984424 0.07429368 0.08727148 0.099056736 0.0837456
0.059012983 0.1209449 0.12146748 0.08426303 0.123086564 0.11763356 0.10349397 0.11042331
0.10852265 0.0945963 0.09690582 0.09783288 0.08577165 0.015385713 0.075755015 0.14757425
0.030361373 0.037599172 0.09646012 -0.002512388 0.009509034 0.008291166 0.02612248 0.012837159
0.014171636 0.02715667 0.010194217 0.010799829 0.034925815 0.019598823 0.017997324 -0.046878554
-0.053622313 -0.050087437 -0.03545043 -0.0463462 -0.04804651 -0.02771136 -0.032640554 -0.030209318
0.13421074 0.17323543 0.19349617 0.10158506 0.1689763 0.2350126 0.03998782 0.08178034
0.11514805 0.11783123 0.14423189 0.1365448 0.1147884 0.18336275 0.1662152 0.09250066
0.17889665 0.16673484 0.0005297806 0.0018265767 0.0027977175 0.00011172524 0.0011784245 0.0016792146
9.209009e-05 0.0010949204 0.001075745 8.829056e-05 0.00036063732 0.0006142396 0.00043761166 0.0004284497
0.0002450607 0.00042165344 0.00043328153 6.485563e-06 0.0032781304 0.0052480977 0.0048628375 0.0017755749
0.0030122995 0.0026304973 0.00039363978 0.00096083025 0.0011161568 0.0035221414 0.0049653114 0.005228059
0.0032110994 0.0032658635 0.002851085 0.0018657383 0.0023677612 0.0020595372 -3.2993587e-05 -7.229749e-05
-9.072451e-05 -3.3017313e-05 -2.6230193e-05 -4.180662e-05 -3.2637996e-05 -3.3991295e-05 -3.9274975e-05 0.0013023879
0.005114888 0.0055500185 0.0016780242 0.0039231246 0.00505522 0.001231112 0.004964237 0.005383812
0.0018525798 0.0011994502 0.0014180515 0.0020479292 0.0016526402 0.0015536924 0.002238571 0.0018807976
0.0018044577 0.0005657777 0.0003733528 -6.230542e-05 0.00044488924 0.00035314224 5.5396726e-05 0.00014248028
8.8273024e-05 -0.00013977382 0.0006667739 0.0015214256 0.0026198232 0.0019814135 0.0014209059 0.0011767799
0.0020678951 0.0013918012 0.0015385943 0.00613355 0.007075671 0.0042163446 0.0046782154 0.0076104626
0.0048957383 0.0059323017 0.007107335 0.0037200004 -0.3079463 -0.27486497 -0.22382778 -0.26698843
-0.23378283 -0.24279776 -0.21769646 -0.22664464 -0.25233054 -0.12968722 -0.08498727 -0.06606989
-0.12751392 -0.086142264 -0.06019692 -0.108923 -0.09606533 -0.06602333 -0.21365026 -0.24465221
-0.19669904 -0.2714375 -0.1920384 -0.10708391 -0.18847081 -0.19510688 -0.15114827 -0.17521092
-0.19398808 -0.13790798 -0.20264669 -0.1981064 -0.12429507 -0.1824174 -0.18712023 -0.13578305
-0.07434909 -0.06846671 -0.06814043 -0.05394531 -0.051809706 -0.054919217 -0.054970264 -0.052913487
-0.05400302 -0.2866366 -0.28431413 -0.19403136 -0.34812504 -0.300229 -0.15043077 -0.2183392
-0.1989305 -0.087326095 -0.0664144 -0.052574318 -0.04573353 -0.08108924 -0.0688896 -0.06785928
-0.094410375 -0.08004152 -0.07788743 0.031925663 0.039848126 0.02499799 0.020389298 0.037432466
0.02946519 -0.00012446567 0.029002182 0.030037519 -0.32254225 -0.29922688 -0.26062918 -0.32675242

momentum_buffer f4 [16]
00000000: f91e e53d 4cd8 093c 3743 5bbe d753 963d
00000010: 57ab 383c d8b9 593b 4d42 ae3e 3288 00b6
00000020: b297 fbbd 72f7 05be 3da3 ad3e f5b7 1cbd
00000030: 78a1 5cbe b153 5cbe 9493 e6bd f4a1 8a3e
0.11187548 0.008413386 -0.21412359 0.0734021 0.011271319 0.0033222344 0.34034958 -1.9152762e-06
-0.12284793 -0.13082674 0.33913603 -0.038261373 -0.2154597 -0.215163 -0.11258617 0.27076685
