Pytorch face detection - Test/MTCNN_train_process/1/checkpoint_2400.pth (torch, 205297 bytes, 12 tensors)

conv1.weight f4 [10, 3, 3, 3]
-0.3997516 -0.17569944 -0.1780361 -0.06833031 0.06592841 -0.09830664 -0.0046541225 -0.24065825
-0.15338095 0.2201671 0.154633 0.597919 0.3615624 0.4328789 0.3456155 0.42822683
0.46426803 0.25263146 0.29016253 0.23144506 -0.20079726 -0.08888804 -0.4719442 -0.17662376
-0.3216788 -0.0804675 0.23441978 -0.108274795 -0.35318998 0.55975544 -0.6809634 -0.40232766
0.21128929 -0.6376737 -0.047310263 -0.19181588 0.3857134 -0.13592955 0.16344327 0.03387777
-0.1232065 -0.17775762 0.2824118 0.47600815 0.11325529 0.21424907 -0.10961349 -0.62531865
0.64448804 0.17982651 -0.07572373 0.49307704 0.3142438 -0.28572622 0.30532613 0.37894413
0.3861325 0.5005499 0.24994683 0.0426851 -0.5588143 -0.649829 -0.4294066 0.21651793
0.28610173 0.044451687 0.20059118 -0.045760285 -0.3890299 -0.44991118 -0.40597737 0.10989759
0.33349416 0.30685738 0.2787172 0.18394475 0.024607044 -0.39067855 -0.43873626 -0.36639494
0.3585595 0.3309895 -0.8827691 0.80054516 0.24712957 -0.6580922 0.031674158 0.08481534
0.0075575854 -0.1519449 0.19720344 -0.7800479 0.9020806 0.50226295 -0.21171911 0.18857254
-0.15352607 -0.09092192 -0.027055712 -0.08834062 -0.43724218 0.35168463 0.13057135 0.029065337
-0.068930686 -0.029810533 0.09265649 -0.33648404 -0.4100134 -0.28977603 -0.085590996 -0.2825894
-0.23255238 -0.12382751 -0.0944293 -0.06544152 -0.06875953 0.5634041 0.31711122 0.39018947
0.3438582 0.2423565 0.019434398 0.21397215 0.20278841 -0.003249696 -0.052866653 0.0685977
-0.2839359 -0.0405433 0.062947825 0.02068046 -0.103409305 -0.058814727 0.045236252 0.40235537
0.32906896 -0.8362485 0.6150046 0.14684922 -0.52666193 0.319697 0.0699304 -0.2642253
0.12625419 0.11488437 -0.3681765 0.342513 0.0010511939 -0.41591766 0.30994537 -0.18190803
-0.35892582 0.16488512 0.11151769 -0.14699781 0.23010637 -0.09972443 -0.2865916 0.30575705
-0.15802924 0.08314658 0.39478537 -0.114840366 0.060766816 0.10521 -0.27799758 -0.07779179
-0.4100162 -0.15009741 -0.23117499 0.14005832 -0.19228236 -0.33162987 -0.15349948 -0.3401988
-0.4508726 0.12401932 0.19425996 0.06695154 -0.23356119 -0.14522171 -0.085857935 0.08765038
-0.14759189 -0.053176407 0.007963798 0.13578077 0.14850761 0.052814253 0.111056335 0.0923201
0.3331526 0.47087994 0.040778216 0.24950227 0.5533743 -0.18524098 -0.055373013 -0.024334455
-0.32903492 -0.4765534 -0.4493606 -0.33490846 -0.52172333 -0.57975733 -0.3245813 0.0939279
-0.06355608 0.11662844 -0.08096992 -0.06908811 0.3657119 0.19800605 -0.10274143 0.40348396
-0.77864003 -0.95856 -0.751037 0.54211 0.29961288 -0.28818476 0.5928643 0.62017936
0.5906902 0.11715429 -0.23928773 0.057923455 0.38488427 0.31929338 -0.0040030004 -0.147939
-0.14869605 -0.082711466 0.19265246 -0.15889923 -0.012925828 0.014235939 -0.021935163 -0.05549113
-0.026339032 -0.0062011117 -0.15878035 -1.0600176 -0.010670475 0.5632024 -0.56147003 0.47344524
0.3511658 -0.55311066 0.259881 0.4726685 0.20492232 -0.21909207 -0.024685971 -0.07219982
00000000: 3eac ccbe 8eea 33be 184f 36be c3f0 8bbd
00000010: 7905 873d fe54 c9bd 9c81 98bb 1e6f 76be
00000020: e50f 1dbe 7c73 613e 1d58 1e3e 3811 193f
00000030: b51e b93e 4ea2 dd3e 84f4 b03e 8c40 db3e
00000040: 8ab4 ed3e e958 813e 2f90 943e efff 6c3e
00000050: cc9d 4dbe ef0a b6bd aca2 f1be dcdc 34be
00000060: 15b3 a4be 25cc a4bd bd0b 703e 2dbf ddbd
00000070: 51d5 b4be 224c 0f3f 9e53 2ebf e4fd cdbe
00000080: 385c 583e 953e 23bf 68c8 41bd 626b 44be
00000090: 3a7c c53e 1e31 0bbe ac5d 273e 6bc3 0a3d
000000a0: b153 fcbd 1806 36be 4898 903e 57b7 f33e
000000b0: 64f2 e73d 1c64 5b3e 0a7d e0bd e214 20bf
000000c0: 2bfd 243f 7124 383e 0b15 9bbd 9874 fc3e
000000d0: 90e4 a03e b54a 92be b553 9c3e f704 c23e
000000e0: 29b3 c53e 0a24 003f 10f2 7f3e 92d6 2e3d
000000f0: 740e 0fbf 315b 26bf 2fdb dbbe e0b6 5d3e
00000100: ed7b 923e f912 363d c667 4d3e 236f 3bbd
00000110: ed2e c7be c25a e6be 44dc cfbe fd11 e13d
00000120: bfbf aa3e 691c 9d3e 05b4 8e3e 035c 3c3e
00000130: b694 c93c 0507 c8be 0aa2 e0be 1e98 bbbe
00000140: 1c95 b73e 7577 a93e 28fd 61bf 87f0 4c3f
00000150: 890f 7d3e bb78 28bf c3bc 013d aab3 ad3d
00000160: 9fa5 f73b 7297 1bbe b3ef 493e 38b1 47bf
00000170: c1ee 663f 4e94 003f e5cc 58be 2919 413e
00000180: f035 1dbe 4635 babd f1a3 ddbc edeb b4bd
00000190: 35de dfbe 0210 b43e 7fb4 053e 6e1a ee3c
000001a0: 882b 8dbd 3835 f4bc b0c2 bd3d a347 acbe
000001b0: 47ed d1be 865d 94be 554a afbd 8faf 90be
000001c0: 3622 6ebe 4799 fdbd 2664 c1bd 3406 86bd
000001d0: ccd1 8cbd 403b 103f 675c a23e eac6 c73e
000001e0: 2f0e b03e 4d2c 783e e334 9f3c 841b 5b3e
000001f0: c4a7 4f3e daf8 54bb b48a 58bd f37c 8c3d
00000200: 0c60 91be bb10 26bd caea 803d 116a a93c
00000210: 42c8 d3bd b6e7 70bd a649 393d 8601 ce3e
00000220: ba7b a83e 6214 56bf f170 1d3f a45f 163e
00000230: 51d3 06bf 53af a33e ab37 8f3d 8a48 87be
00000240: c748 013e 7f48 eb3d a181 bcbe dd5d af3e
00000250: 37c8 893a 29f3 d4be 29b1 9e3e 1946 3abe
00000260: 20c5 b7be a5d7 283e 6363 e43d 9886 16be
00000270: 01a1 6b3e 523c ccbd 22bc 92be 308c 9c3e
00000280: 6bd2 21be c148 aa3d 4f21 ca3e 6d31 ebbd
00000290: a0e6 783d 5778 d73d b355 8ebe 4d51 9fbd
000002a0: a5ed d1be 23b3 19be 23b9 6cbe 736b 0f3e
000002b0: abe5 44be 64cb a9be f82e 1dbe 8a2e aebe
000002c0: c6d8 e6be d7fd fd3d 15ec 463e e41d 893d
000002d0: aa2a 6fbe 00b5 14be 49d6 afbd 0b82 b33d
000002e0: 5422 17be 81cf 59bd 977a 023c 1d0a 0b3e
000002f0: 6112 183e c253 583d 8171 e33d 5212 bd3d
00000300: fa92 aa3e 2d17 f13e 0f07 273d 867d 7f3e
00000310: f0a9 0d3f d0af 3dbe d0ce 62bd 0d59 c7bc
00000320: 4477 a8be cffe f3be 9812 e6be 1f79 abbe
00000330: a98f 05bf fa6a 14bf 852f a6be 455d c03d
00000340: b129 82bd e4da ee3d 8fd3 a5bd 117e 8dbd
00000350: 973e bb3e 19c2 4a3e 196a d2bd 7395 ce3e
00000360: f454 47bf 3064 75bf f643 40bf b9c7 0a3f
00000370: dc66 993e f48c 93be f4c5 173f 13c4 1e3f
00000380: 7937 173f 97ee ef3d d807 75be 2541 6d3d
00000390: 8d0f c53e 6c7a a33e 9a2b 83bb 527d 17be
000003a0: c743 18be a164 a9bd b046 453e 7bb6 22be
000003b0: dac6 53bc db3d 693c 5fb1 b3bc ab4a 63bd
000003c0: f4c4 d7bc b232 cbbb 5197 22be a8ae 87bf
000003d0: 37d3 2ebc 082e 103f 80bc 0fbf 6a67 f23e
000003e0: 01cc b33e a998 0dbf 1f0f 853e 9b01 f23e
000003f0: 28d7 513e ac59 60be 3c3a cabc 80dd 93bd

conv1.bias f4 [10]
0.053125028 0.054689147 -0.002526486 -0.012232918 -0.23727405 -0.022608649 0.36422688 -0.09724381
0.08028591 0.3908406
00000000: a199 593d ba01 603d 6793 25bb 946c 48bc
00000010: f8f7 72be c635 b9bc f27b ba3e c327 c7bd
00000020: f06c a43d 421c c83e

conv2.weight f4 [16, 10, 3, 3]
0.23010519 -0.22846211 -0.0064950315 -0.15280567 0.0035709087 -0.024191491 -0.082411066 0.18804303
0.05393346 0.025149789 -0.12826493 0.03336189 0.12255179 -0.22192767 -0.05927818 -0.17046294
0.22986013 0.0997481 0.30459702 -0.3074782 0.020062143 -0.18089566 0.115123674 0.14287747
-0.20699792 0.18589592 0.17910987 -0.051737975 -0.02599212 0.07529828 0.2517744 -0.31243208
-0.19060974 0.048647765 0.00026497743 -0.09162833 -0.019277465 -0.05981621 0.1511221 0.1271597
-0.0634037 -0.016345525 0.11938454 0.0023619616 0.1088706 0.14247072 -0.039719462 -0.347224
-0.18155205 -0.28425452 0.31915516 -0.048259474 0.109772995 -0.11822108 -0.16681923 0.094194666
0.057642672 -0.0096227825 0.11760305 -0.019717555 -0.04673785 -0.024073705 0.026459847 -0.13698006
0.09746574 0.079487115 -0.10442405 0.07728991 -0.0262275 0.06298537 0.017463893 -0.045620333
-0.4403379 0.14240077 0.48770618 0.15399659 -0.11240674 0.01756011 -0.057486705 -0.020989325
0.026452001 -0.34919325 -0.13534293 -0.16970663 0.3591424 0.19544998 -0.07376571 -0.23582962
0.0068416684 0.09478749 -0.046723824 -0.06059936 0.07747681 0.013671436 -0.06046715 0.061428554
-0.078575306 -0.07651993 -0.0029133318 0.07861911 0.05847952 -0.06921194 -0.056263767 0.044163022
-0.0050920146 0.030454356 0.016098045 -0.06886765 -0.00561468 -0.01627585 -0.021760207 0.059775747
-0.09858829 0.0014708457 0.08932295 -0.10699099 0.021299532 0.10105845 0.036998674 0.053500317
-0.034808345 0.018768653 0.015683867 0.11010154 -0.113188155 0.0662119 -0.065456964 -0.09466253
0.10058079 0.020208279 -0.058404703 -0.09877814 -0.02136993 -0.02307941 -0.0087700235 -0.037703793
0.048109777 0.085746706 -0.0967563 -0.05383171 0.07946907 -0.107835144 0.05271342 -0.05093515
0.025690926 -0.054873735 0.05322904 0.015083426 -0.02595325 0.10097529 -0.09269623 0.09484226
0.07195486 -0.01473109 -0.028458236 0.0868689 0.040222056 -0.09508304 -0.08351305 -0.10304962
-0.04475699 -0.019048 -0.012783689 0.024211327 -0.115965866 0.019345226 -0.0015516309 0.015409342
-0.096186265 -0.08556617 -0.026055923 0.05593348 -0.0453508 -0.033341855 0.003072516 -0.0099126
0.004878904 -0.00090858975 -0.06460053 0.10735017 0.53382784 -0.022933304 0.4161063 -0.4790061
-0.7766059 -0.10436161 0.16090018 -0.1876818 0.37283516 0.11931069 -0.08137644 -0.020297699
-0.053364895 -0.20838311 -0.3439441 0.37335426 -0.27076355 -0.11792522 -0.15345712 0.2857602
-0.08141053 0.06140048 -0.0860565 -0.07925941 -0.06946176 0.08435451 0.036786463 -0.33810118
-0.14004901 0.122170575 0.3039718 0.13504614 0.00797213 0.055825815 -0.014177274 -0.30847505
-0.017649977 0.020371862 -0.24205679 -0.06071755 0.25766584 0.10254859 -0.003438438 0.13084091
-0.03859275 0.027925925 -0.11747911 0.08955331 0.07913898 0.19693546 -0.030603198 -0.06280864
-0.15416385 0.23648569 -0.06601972 0.015656564 0.12345516 -0.10654923 0.031784084 0.14739372
-0.047742132 -0.1874738 -0.029664407 -0.020489624 -0.15216757 -0.0875534 -0.12021074 -0.22064716
-0.08108969 -0.0366558 -0.16247196 0.1697618 -0.10100017 -0.16797607 0.2084258 0.203331
00000000: b2a0 6b3e f9f1 69be 46d4 d4bb 1779 1cbe
00000010: e805 6a3b 3c2d c6bc 22c7 a8bd 5a8e 403e
00000020: 55e9 5c3d ee06 ce3c e257 03be 7aa6 083d
00000030: 6ffc fa3d 0241 63be adcd 72bd d68d 2ebe
00000040: 7460 6b3e bb48 cc3d 24f4 9b3e c86d 9dbe
00000050: 5d59 a43c b63c 39be f6c5 eb3d 794e 123e
00000060: 43f7 53be 805b 3e3e 9468 373e 33eb 53bd
00000070: 6ded d4bc fc35 9a3d 93e8 803e 19f7 9fbe
00000080: 332f 43be e142 473d abec 8a39 a2a7 bbbd
00000090: c6eb 9dbc d801 75bd c0bf 1a3e 2736 023e
000000a0: cdd9 81bd 0de7 85bc e27f f43d 24cb 1a3b
000000b0: 8df7 de3d d8e3 113e e0b0 22bd 58c7 b1be
000000c0: c8e8 39be cf89 91be 4e68 a33e baab 45bd
000000d0: aad0 e03d e51d f2bd a9d2 2abe 22e9 c03d
000000e0: b91a 6c3d e0a8 1dbc ded9 f03d b686 a1bc
000000f0: 3070 3fbd 3836 c5bc 52c2 d83c 8044 0cbe
00000100: 1e9c c73d 24ca a23d 47dc d5bd 2c4a 9e3d
00000110: 0edb d6bc 79fe 803d 7010 8f3c 63dc 3abd
00000120: f873 e1be 82d1 113e a0b4 f93e 48b1 1d3e
00000130: 8135 e6bd 38da 8f3c 2e77 6bbd cef1 abbc
00000140: deb1 d83c 75c9 b2be 5697 0abe 93c7 2dbe
00000150: 83e1 b73e 0a24 483e 7a12 97bd 527d 71be
00000160: 1330 e03b f21f c23d 7b61 3fbd 0937 78bd
00000170: 29ac 9e3d 29fe 5f3c 67ac 77bd 829c 7b3d
00000180: 17ec a0bd 7bb6 9cbd 99ed 3ebb 0e03 a13d
00000190: 3988 6f3d fdbe 8dbd d674 66bd 49e4 343d
000001a0: eada a6bb 6a7b f93c 0ce0 833c 7c0a 8dbd
000001b0: 59fb b7bb ee54 85bc 7642 b2bc 6ad7 743d
000001c0: a8e8 c9bd 64c9 c03a f3ee b63d 181e dbbd
000001d0: 5b7c ae3c bcf7 ce3d ec8b 173d 2623 5b3d
000001e0: 3293 0ebd b8c0 993c 747b 803c eb7c e13d
000001f0: 31cf e7bd 1b9a 873d 4d0e 86bd 6ede c1bd
00000200: 4dfd cd3d d58b a53c c539 6fbd 324c cabd
00000210: fe0f afbc 0811 bdbc 25b0 0fbc 4b6f 1abd
00000220: c20e 453d f89b af3d 2b28 c6bd a47e 5cbd
00000230: aec0 a23d acd8 dcbd 07ea 573d 60a1 50bd
00000240: c775 d23c 48c3 60bd b206 5a3d 7920 773c
00000250: e99b d4bc 22cc ce3d 85d7 bdbd a93c c23d
00000260: 125d 933d ab5a 71bc 3f21 e9bc 52e8 b13d
00000270: e2bf 243d e6ba c2bd e408 abbd ae0b d3bd
00000280: 1b53 37bd 8d0a 9cbc ae72 51bc d556 c63c
00000290: 837f edbd e179 9e3c 1860 cbba 7777 7c3c
000002a0: 4efd c4bd 513d afbd 3b73 d5bc 811a 653d
000002b0: c3c1 39bd 7891 08bd 445c 493b 7568 22bc
000002c0: 37df 9f3b 6d2e 6eba 484d 84bd 68da db3d
000002d0: f1a8 083f a0de bbbc e30b d53e 4a40 f5be
000002e0: a5cf 46bf 8abb d5bd 04c3 243e a82f 40be
000002f0: 40e4 be3e 2a59 f43d b1a8 a6bd 5c47 a6bc
00000300: 2695 5abd 6262 55be 7119 b0be 4a28 bf3e
00000310: 85a1 8abe c782 f1bd dd23 1dbe 294f 923e
00000320: 90ba a6bd 127f 7b3d 643e b0bd c252 a2bd
00000330: f841 8ebd 0fc2 ac3d 67ad 163d 991b adbe
00000340: 0269 0fbe 9134 fa3d 31a2 9b3e 8949 0a3e
00000350: 899d 023c 9ca9 643d cc47 68bc 71f0 9dbe
00000360: af96 90bc e4e2 a63c bcdd 77be f7b2 78bd
00000370: c7ec 833e ff04 d23d 6b57 61bb 29fb 053e
00000380: 6e13 1ebd e9c4 e43c e398 f0bd ba67 b73d
00000390: 9e13 a23d 73a9 493e 8fb3 fabc d1a1 80bd
000003a0: 21dd 1dbe 4e29 723e 5935 87bd 3242 803c
000003b0: 0fd6 fc3d 7c36 dabd 0730 023d 61ee 163e
000003c0: 418d 43bd 22f9 3fbe c502 f3bc dbd9 a7bc
000003d0: d1d1 1bbe 324f b3bd 0c31 f6bd 54f1 61be
000003e0: 5a12 a6bd 6424 16bd 0d5f 26be 0ad6 2d3e
000003f0: 2dd9 cebd eb01 2cbe 936d 553e 0036 503e

conv2.bias f4 [16]
0.07457687 -0.04789951 0.21995035 0.00796514 -0.102511406 -0.03175307 0.78615505 -0.12388495
0.17889349 0.2226321 0.14813395 -0.106603555 0.24016127 0.29893583 0.018629953 0.05286118
00000000: c2bb 983d 4732 44bd aa3a 613e 3880 023c
00000010: 80f1 d1bd 820f 02bd 7541 493f 65b7 fdbd
00000020: db2f 373e abf9 633e 6db0 173e f752 dabd
00000030: d6ec 753e 1e0e 993e d89d 983c f784 583d

conv3.weight f4 [32, 16, 3, 3]
-0.0060515096 0.05255116 -0.026006855 -0.037896506 -0.08754995 -0.008547834 0.0203919 -0.0036764056
0.008915141 -0.07192963 0.07698142 -0.0039773514 0.0014923887 0.0003320061 -0.0538187 -0.070710965
-0.07682817 0.059277955 -0.016325232 0.014741375 0.034963187 0.034858633 -0.03551707 0.06880466
0.023881607 0.0033288568 0.06133662 0.042696625 -0.07128395 -0.00030762167 -0.060194 0.04026494
-0.04747589 0.01884159 -0.047186352 -0.029840903 0.020156555 -0.052805852 -0.019935604 0.07015608
-0.028852131 -0.030390104 -0.025802592 -0.05051129 0.03500737 -0.031663343 -0.09974863 -0.06038079
-0.015364481 -0.022090213 -0.08348663 -0.042000353 -0.035901338 -0.015612048 -0.10891362 0.035781253
0.033283893 -0.055317037 0.0770793 0.000727179 -0.047207948 -0.036085885 -0.034341305 -0.06419242
0.06169586 -0.05258498 0.04780698 0.020901391 0.052586734 -0.03759175 0.06297588 0.009684204
0.1440456 -0.04732967 0.0295843 0.006535678 -0.019885743 0.022283401 -0.019067263 0.00022676708
0.0476419 -0.052074306 0.03161723 -0.11112122 -0.045083776 -0.08316439 -0.024091396 0.07994608
-0.037324283 0.0013302296 0.032501042 0.01656393 -0.010655746 0.07156909 0.032220002 -0.074762486
-0.023168389 0.043696966 -0.0041200556 0.09453712 0.0803274 -0.054014605 -0.010901131 -0.05987579
-0.031957112 -0.050861903 -0.016057068 0.043291587 0.041796774 0.008763771 -0.0041079307 0.013177963
0.06269533 -0.034707747 0.060794346 -0.074865855 -0.07298232 0.071894124 0.023687016 -0.06092526
-0.0001739386 0.029623384 0.038808484 0.11337634 -0.041078083 0.0866935 0.037824113 0.0011411529
0.15013672 0.10336204 0.032331795 0.08854136 0.03485304 0.06799139 0.076187335 -0.032305334
-0.057751406 -0.13100372 -0.05403206 -0.06133549 0.00844199 -0.038761277 0.023888277 -0.04649144
0.062211037 -0.06281411 0.053825207 0.029332433 -0.0061310125 0.014552927 0.07685926 0.06646146
0.00042145522 0.025134621 -0.07531975 0.0627677 0.016464194 -0.04028749 -0.07159434 0.050029762
-0.07699027 -0.019925894 0.0073345406 0.056505118 -0.044658374 -0.03922142 -0.082323544 0.025268164
0.016326092 0.049877394 -0.05632322 0.06356442 -0.0036158285 0.07098689 0.025886105 0.056500576
-0.02668078 0.033563413 -0.04366604 -0.0033961416 0.0015464497 -0.046864066 -0.05261682 -0.06999622
0.013751326 0.052040096 -0.07391552 -0.06762022 -0.07984662 -0.0044343737 0.059920333 0.06843451
0.036602847 -0.068782836 0.061557613 0.063477755 0.0072640222 -0.059552815 -0.07266823 0.07171278
0.0026607013 -0.06746303 0.033941943 -0.00024241963 -0.020394217 0.026631037 0.0041471194 0.06100961
-0.0054731015 -0.073434986 -0.054970983 -0.0056874794 -0.057993334 0.009083708 0.058059964 -0.017462183
-0.06541468 0.07773757 0.020734478 0.018639738 -0.021224363 -0.08373211 0.042971957 -0.01539424
-0.014335952 -0.007188689 -0.06602006 -0.07755355 -0.06435968 -0.056749023 0.063530214 -0.06013109
-0.030977137 -0.012496281 0.005740413 -0.0024323156 0.023550354 -0.04741327 0.051399883 0.06709585
-0.0414558 -0.019323312 -0.072957024 -0.0557166 -0.047278196 -0.04186389 0.020035226 0.039754976
0.022694824 0.03285901 -0.0045597283 0.03626832 -0.01384131 0.052131157 -0.048490338 -0.005582501
00000000: be4b c6bb e33f 573d 540c d5bc 5e39 1bbd
00000010: 634d b3bd 370c 0cbc ea0c a73c daef 70bb
00000020: d010 123c d84f 93bd 6fa8 9d3d 7154 82bb
00000030: 419c c33a 1b11 ae39 ff70 5cbd e9d0 90bd
00000040: 1658 9dbd 71cd 723d 7ebc 85bc cf85 713c
00000050: 8f35 0f3d edc7 0e3d 597a 11bd 75e9 8c3d
00000060: 5ca3 c33c f328 5a3b 1c3c 7b3d a8e2 2e3d
00000070: 52fd 91bd 4848 a1b9 fc8d 76bd daec 243d
00000080: 1476 42bd ae59 9a3c 7a46 41bd e974 f4bc
00000090: 5c1f a53c f34a 58bd fe4f a3bc fead 8f3d
000000a0: 4e5b ecbc abf4 f8bc f55f d3bc ede4 4ebd
000000b0: e363 0f3d 6cb1 01bd 0249 ccbd d951 77bd
000000c0: 4ebb 7bbc 89f6 b4bc 0afb aabd 9008 2cbd
000000d0: 480d 13bd adc9 7fbc 1b0e dfbd 5d8f 123d
000000e0: b154 083d 1e94 62bd c1db 9d3d 28a0 3e3a
000000f0: 1f5d 41bd cbce 13bd 78a9 0cbd 5177 83bd
00000100: ccb4 7c3d 5963 57bd 40d1 433d 6539 ab3c
00000110: 3065 573d cff9 19bd 80f9 803d 7faa 1e3c
00000120: b180 133e c2dc 41bd c65a f23c 3e29 d63b
00000130: 6de7 a2bc ae8b b63c f332 9cbc 53c8 6d39
00000140: 2724 433d de4b 55bd 1281 013d 8693 e3bd
00000150: c4a9 38bd 1752 aabd 525b c5bc c5ba a33d
00000160: 59e1 18bd 195b ae3a d01f 053d 14b1 873c
00000170: 7095 2ebc d192 923d 1ff9 033d 131d 99bd
00000180: a2cb bdbc 97fb 323d 8801 87bb ad9c c13d
00000190: b182 a43d 6b3e 5dbd a89a 32bc 5140 75bd
000001a0: 76e5 02bd 9254 50bd 1d8a 83bc 8552 313d
000001b0: 1833 2b3d eb95 0f3c d29b 86bb 62e8 573c
000001c0: 6966 803d b629 0ebd 7e03 793d 4553 99bd
000001d0: c177 95bd 3a3d 933d 460b c23c c48c 79bd
000001e0: 4a63 36b9 bdac f23c a5f5 1e3d db31 e83d
000001f0: 7e41 28bd 5d8c b13d 75ed 1a3d bd92 953a
00000200: 71bd 193e 7aaf d33d 586e 043d 2c55 b53d
00000210: 10c2 0e3d 123f 8b3d 1b08 9c3d 9952 04bd
00000220: bd8c 6cbd d725 06be b950 5dbd ec3a 7bbd
00000230: 4650 0a3c 25c4 1ebd 59b1 c33c cf6d 3ebd
00000240: 00d1 7e3d afa4 80bd d277 5c3d 924a f03c
00000250: a9e6 c8bb 666f 6e3c 6368 9d3d f21c 883d
00000260: c3f6 dc39 1fe7 cd3c 3e41 9abd 5a8c 803d
00000270: ebdf 863c 7f04 25bd 0ea0 92bd 02ec 4c3d
00000280: 13ad 9dbd a13b a3bc 9656 f03b e971 673d
00000290: b3eb 36bd a4a6 20bd 3f99 a8bd 2eff ce3c
000002a0: 4cbe 853c 3d4c 4c3d 2db3 66bd 102e 823d
000002b0: 89f7 6cbb 9361 913d 190f d43c 266d 673d
000002c0: a791 dabc ca79 093d 29db 32bd cd91 5ebb
000002d0: 3eb2 ca3a 89f4 3fbd bc84 57bd 2e5a 8fbd
000002e0: 3e4d 613c ff27 553d 0561 97bd 787c 8abd
000002f0: a086 a3bd 394e 91bb 066f 753d 6427 8c3d
00000300: deec 153d 04de 8cbd d623 7c3d a000 823d
00000310: 0907 ee3b a7ed 73bd 15d3 94bd 26de 923d
00000320: 295f 2e3b 0f2a 8abd b506 0b3d 0632 7eb9
00000330: c611 a7bc 5529 da3c 8fe4 873b 36e5 793d
00000340: b457 b3bb 1565 96bd 4129 61bd 095e babb
00000350: 6b8a 6dbd d5d3 143c 49d0 6d3d da0c 8fbc
00000360: 22f8 85bd e034 9f3d 5adb a93c 5db2 983c
00000370: b7de adbc be7b abbd 5d03 303d 1f38 7cbc
00000380: 57e1 6abc 188f ebbb 8635 87bd 65d4 9ebd
00000390: 02cf 83bd aa71 68bd 211c 823d 054c 76bd
000003a0: c4c3 fdbc 34bd 4cbc 131a bc3b 7c67 1fbb
000003b0: acec c03c 6b34 42bd af88 523d 8d69 893d
000003c0: 8fcd 29bd ec4b 9ebc 7e6a 95bd 1737 64bd
000003d0: c8a6 41bd 7879 2bbd ea20 a43c 1dd6 223d
000003e0: 7fea b93c 2b97 063d c669 95bb 178e 143d
000003f0: a9c6 62bc 7b87 553d ce9d 46bd 6aed b6bb

conv3.bias f4 [32]
0.2300855 -0.06121092 0.28368512 -0.085875764 -0.109074876 0.001176038 0.107045054 0.0040793675
0.018600138 0.07309452 -0.052357957 0.7108735 0.30834708 -0.07508856 0.064589776 0.22969514
0.21953441 0.1145997 0.11878797 0.24696857 0.009208825 -0.022293571 0.37708053 0.37223724
0.01761718 0.25471053 0.032341465 -0.14872453 -0.06870256 0.44622773 -0.026664604 0.18321134
00000000: 899b 6b3e 4db8 7abd 2d3f 913e a2df afbd
00000010: a662 dfbd 4925 9a3a 703a db3d 37ac 853b
00000020: 515f 983c 94b2 953d 4c75 56bd cefb 353f
00000030: abdf 9d3e 08c8 99bd a547 843d 3435 6b3e
00000040: a1cd 603e 3fb3 ea3d 1b47 f33d 54e5 7c3e
00000050: 9de0 163c 02a1 b6bc b310 c13e e195 be3e
00000060: e751 903c 6b69 823e 7c78 043d 3e4b 18be
00000070: eeb3 8cbd f677 e43e ba6f dabc c19b 3b3e

conv4_1.weight f4 [2, 32, 1, 1]
-0.21300784 0.099993795 -0.11499221 -0.611024 -0.41391164 -0.16785248 -0.28581327 0.14932802
-0.15707672 -0.22094095 -0.37019154 -1.357174 -0.59568775 0.3273145 0.7340482 0.29577473
0.58914655 0.37500656 0.32917014 0.42406213 0.15321346 -0.04058599 -0.23862164 0.24729723
0.23070864 -1.7097566 0.76130545 -0.059786163 0.17782266 0.8938582 0.01680518 -0.601204
0.31520316 -0.06970452 -0.033789307 0.7229364 0.42575487 0.051585395 0.304862 -0.061337147
0.25299603 0.06804249 0.25170287 1.3442092 0.53459734 -0.11323184 -0.78950703 -0.4071711
-0.6961106 -0.5262174 -0.5927825 -0.5100452 -0.100753576 0.12481189 0.22529961 -0.35381013
-0.21895108 1.6891708 -0.79975015 0.14026186 -0.1680216 -0.864803 -0.09971424 0.8670234
00000000: ba1e 5abe 8cc9 cc3d 0981 ebbd 126c 1cbf
00000010: 3aec d3be 85e1 2bbe 1e56 92be 72e9 183e
00000020: b8d8 20be 583e 62be bf89 bdbe e1b7 adbf
00000030: fe7e 18bf c495 a73e 95ea 3b3f c96f 973e
00000040: 4fd2 163f dc00 c03e fd88 a83e ac1e d93e
00000050: fde3 1c3e 7f3d 26bd 3b59 74be 7c3b 7d3e
00000060: e33e 6c3e 4ed9 dabf eae4 423f 56e2 74bd
00000070: 2517 363e e4d3 643f 04ab 893c 81e8 19bf
00000080: 4f62 a13e 3ec1 8ebd a866 0abd 5c12 393f
00000090: 8bfc d93e 354b 533d df16 9c3e a93c 7bbd
000000a0: b288 813e dc59 8b3d 33df 803e 0c0f ac3f
000000b0: 5fdb 083f 18e6 e7bd 221d 4abf bb78 d0be
000000c0: 4e34 32bf 2fb6 06bf 98c0 17bf 5292 02bf
000000d0: e457 cebd 609d ff3d f1b4 663e 9a26 b5be
000000e0: b634 60be c036 d83f 6dbc 4cbf cea0 0f3e
000000f0: db0d 2cbe bb63 5dbf fb36 ccbd 3ff5 5d3f

conv4_1.bias f4 [2]
-0.13323337 0.19773412
00000000: 546e 08be d07a 4a3e

conv4_2.weight f4 [4, 32, 1, 1]
0.10572604 -0.016718877 -0.12749386 0.08625277 0.04804385 -0.06840987 0.04209125 0.032346975
0.14867449 0.26379287 0.0064136754 0.032035798 0.07684573 0.04744936 0.0066307266 0.029573822
0.20780429 0.37149182 -0.03690755 -0.41919422 0.046516534 -0.16326244 -0.21824126 -0.22242808
-0.08610238 0.015079938 0.040021706 0.084923945 0.020718407 0.0364642 -0.10367748 -0.057720073
-0.01719796 -0.115281366 -0.039597332 -0.0605748 -0.016709276 -0.14792027 -0.19120377 -0.027347734
-0.11638123 -0.056545854 0.058786906 -0.0058152503 -0.05124177 -0.22646211 0.13901903 0.098705456
-0.03406227 0.24936119 0.18329957 0.10503813 -0.0077143814 -0.08246251 0.10976308 -0.35146365
0.08616709 0.049333006 -0.16894627 -0.23639865 0.23079488 -0.03564791 0.16136359 -0.1109313
-0.018387351 -0.12672041 0.2135825 -0.08716065 0.02654322 0.059415992 -0.026054716 0.09198005
-0.06765603 0.108280934 -0.02577231 0.028726732 0.03447254 0.017064517 -0.012116977 0.15981153
-0.012008365 0.071273744 -0.101894915 -0.04710107 -0.15325812 -0.076374054 0.16289687 0.09409337
0.0028779702 0.01411236 -0.05341204 0.04610741 -0.0594585 0.008381995 -0.08335006 -0.004057804
0.119942285 -0.07394239 0.01257524 -0.04050499 -0.05024662 -0.010246282 0.2275921 0.012962369
0.056386665 -0.011671769 -0.014990435 -0.066786125 -0.078591794 -0.14945634 -0.0034428993 -0.018348442
-0.11494112 -0.20515728 -0.098634645 0.10845318 0.027404297 0.12314676 0.0897265 0.17281601
0.04995837 0.00493453 -0.065973446 -0.18769006 0.004141801 0.16282034 -0.1223557 -0.040023275
00000000: e586 d83d 07f6 88bc c08d 02be 4ba5 b03d
00000010: a1c9 443d 791a 8cbd e067 2c3d 437e 043d
00000020: 203e 183e dc0f 873e cf29 d23b f837 033d
00000030: 4b61 9d3d 435a 423d 9146 d93b cd44 f23c
00000040: a6ca 543e 2d34 be3e 5f2c 17bd a0a0 d6be
00000050: 1f88 3e3d 452e 27be a37a 5fbe 30c4 63be
00000060: 7256 b0bd d811 773c cded 233d 9bec ad3d
00000070: a6b9 a93c 7c5b 153d dc54 d4bd e26b 6cbd
00000080: bce2 8cbc a318 ecbd d030 22bd 481d 78bd
00000090: e4e1 88bc 6978 17be ecca 43be 5b08 e0bc
000000a0: 4859 eebd a09c 67bd 8aca 703d db8d bebb
000000b0: e4e2 51bd afe5 67be 015b 0e3e 1626 ca3d
000000c0: e184 0bbd 8a58 7f3e e2b2 3b3e 3b1e d73d
000000d0: ecc8 fcbb 1be2 a8bd 77cb e03d 0bf3 b3be
000000e0: 5f78 b03d 6811 4a3d 4000 2dbe 7d12 72be
000000f0: 7e55 6c3e 8b03 12bd 7f3c 253e f32f e3bd
00000100: 12a1 96bc ffc2 01be 5fb5 5a3e 4881 b2bd
00000110: 2b71 d93c 2f5e 733d b370 d5bc 0960 bc3d
00000120: 3f8f 8abd 65c2 dd3d 7420 d3bc 5354 eb3c
00000130: 1433 0d3d e3ca 8b3c 4986 46bc a2a5 233e
00000140: bcbe 44bc f8f7 913d 48ae d0bd 0ded 40bd
00000150: b2ef 1cbe 006a 9cbd 70ce 263e 06b4 c03d
00000160: 549c 3c3b 8737 673c 95c6 5abd 20db 3c3d
00000170: c28a 73bd a354 093c 70b3 aabd 54f7 84bb
00000180: 4da4 f53d 1c6f 97bd 6108 4e3c 8fe8 25bd
00000190: 66cf 4dbd 06e0 27bc e70d 693e 1e60 543c
000001a0: b4f5 663d f33a 3fbc 719a 75bc 2ac7 88bd
000001b0: bcf4 a0bd 150b 19be 44a2 61bb 794f 96bc
000001c0: 4066 ebbd c014 52be f600 cabd b31c de3d
000001d0: fa7e e03c 5e34 fc3d 87c2 b73d aef6 303e
000001e0: 26a1 4c3d d6b1 a13b 161d 87bd d331 40be
000001f0: f2b7 873b 60ba 263e a095 fabd 72ef 23bd

conv4_2.bias f4 [4]
0.08487909 0.06360943 0.7398498 0.71960515
00000000: 17d5 ad3d a945 823d cc66 3d3f 0b38 383f

conv4_3.weight f4 [10, 32, 1, 1]
0.016608804 0.081509076 0.1309344 0.061423957 0.013255271 0.17531157 -0.10806904 0.14476384
-0.0841133 0.12307993 0.11551466 0.014322621 0.040546637 -0.057505656 -0.004844362 -0.06951066
0.007635018 0.045637008 -0.0011355622 -0.06545315 -0.11983053 0.07356578 -0.038411923 0.051114306
0.08137627 -0.0007931526 0.0077226087 -0.12444474 0.011034451 0.07895507 -0.07346246 0.0031941296
0.09795668 -0.08830867 -0.09229332 -0.08318786 -0.08496061 -0.16694729 0.025218721 0.069254965
-0.08818186 -0.10554908 -0.077774644 0.028184634 0.05703837 0.008436624 -0.10231582 0.159885
-0.089443006 0.0017288511 -0.071961686 -0.038138617 -0.013400934 0.04143925 0.13315496 0.057950206
0.07901382 0.0016534147 -0.00973604 0.11728588 -0.092347115 0.064878054 0.16219498 0.01223157
-0.0637212 0.16343588 0.048562877 -0.07154714 -0.11332453 0.17088532 0.15972199 -0.1394424
-0.0007004174 0.010897341 -0.13138252 0.0053832275 -0.05491119 0.034240328 -0.038107723 0.02869257
-0.08720171 0.0008781183 0.05097176 -0.056211222 -0.04515921 -0.15397757 0.13866135 -0.027536241
-0.08288063 0.017378874 0.040011194 -0.023854796 0.11873923 -0.03558255 0.118544586 -0.03546937
0.11643771 -0.008641555 0.09924783 -0.09125864 0.0045889835 0.04390101 0.018194562 -0.027243499
0.11343688 -0.033065327 0.009925693 0.015573549 0.09664632 -0.034256104 0.050014652 0.13839017
0.061826088 -0.12405291 0.10673692 -0.025164867 0.090606876 -0.04449414 0.13789937 -0.05573554
0.12842295 0.010861383 -0.115555696 -0.038460907 -0.14695798 0.013950513 -0.117011294 0.083888404
0.033768006 -0.03378844 0.11030826 -0.061765578 -0.038028054 -0.17050993 0.08842468 0.1537902
-0.01511563 0.085346356 0.047008365 0.038846165 -0.0011582074 -0.11432399 0.09523586 -0.088199876
-0.05160326 -0.1297745 -0.011674058 0.06784209 0.0732992 -0.149452 0.120738834 -0.0010003445
0.13280216 -0.021709133 -0.009089561 -0.14961621 -0.030533005 0.02864013 0.04447705 0.041369304
0.020307446 -0.11966258 0.06904809 0.04441406 0.031481627 0.01283316 -0.11787861 -0.15382063
-0.10357733 0.007961425 -0.022104045 -0.021355703 0.037179094 -0.036056757 -0.050872706 -0.031098254
0.030543184 0.04502927 0.03331662 -0.013801828 -0.15615408 -0.08852258 -0.0077467198 0.069159746
0.099521846 0.018025368 0.0034617342 -0.14571296 -0.07720452 0.07110816 0.15829416 0.050109252
-0.01577527 0.10732399 -0.045376163 -0.026507236 0.03776845 0.00748831 -0.094509736 -0.062111452
-0.11617911 0.08390174 -0.1304031 0.0012419585 0.10627333 -0.10377361 0.086247675 0.08125276
0.14112934 -0.0034409107 -0.17988607 0.069702834 -0.010981242 -0.1584215 0.06602964 0.004671535
-0.030851249 -0.013228984 0.07279952 -0.052472316 0.09004128 -0.094105095 -0.11121158 0.051823854
0.014893479 -0.14562759 0.11678652 -0.0163032 0.08575426 -0.060540285 0.12003551 -0.10044369
-0.11432351 0.12806396 0.026792191 0.05724433 -0.06265528 -0.1301874 -0.12814827 0.15227343
0.03598732 0.063995466 0.07595995 -0.077679776 -0.026913667 0.040796135 0.0917084 0.11202194
0.051214352 0.0016617153 -0.09003683 0.012993922 -0.058850396 0.12456421 0.14719975 -0.0028255654
00000000: 300f 883c 3bee a63d ab13 063e b097 7b3d
00000010: a32c 593c e084 333e 4d53 ddbd f93c 143e
00000020: 9843 acbd 5511 fc3d f392 ec3d 6da9 6a3c
00000030: 3b14 263d 0d8b 6bbd 74bd 9ebb 9b5b 8ebd
00000040: 2c2f fa3b dfed 3a3d 25d7 94ba 4d0c 86bd
00000050: b569 f5bd a8a9 963d d255 1dbd 3c5d 513d
00000060: 9aa8 a63d 92eb 4fba f00d fd3b e2dc febd
00000070: d8c9 343c 32b3 a13d 7c73 96bd 9a54 513b
00000080: 839d c83d 2ddb b4bd 4804 bdbd 665e aabd
00000090: d4ff adbd 3bf4 2abe 7e97 ce3c 8cd5 8d3d
000000a0: b198 b4bd 1e2a d8bd 5048 9fbd 76e3 e63c
000000b0: 11a1 693d c439 0a3c f58a d1bd e5b8 233e
000000c0: e52d b7bd 9e9a e23a a660 93bd 3d37 1cbd
000000d0: 978f 5bbc 34bc 293d c659 083e 325d 6d3d
000000e0: ffd1 a13d 64b7 d83a e983 1fbc 9433 f03d
000000f0: 7c20 bdbd c9de 843d 7116 263e ec66 483c
00000100: 4380 82bd bc5b 273e dee9 463d 4f87 92bd
00000110: b116 e8bd 90fc 2e3e 298e 233e fdc9 0ebe
00000120: 379c 37ba c38a 323c 2489 06be c965 b03b
00000130: 8eea 60bd 963f 0c3d d816 1cbd ae0c eb3c
00000140: cf96 b2bd 8631 663a c4c7 503d bd3d 66bd
00000150: ddf8 38bd 4cac 1dbe 3efd 0d3e af93 e1bc
00000160: 52bd a9bd 245e 8e3c c7e2 233d 226b c3bc
00000170: 8e2d f33d 02bf 11bd 81c7 f23d 5548 11bd
00000180: e576 ee3d 4f95 0dbc 7242 cb3d cfe5 babd
00000190: 2f5f 963b 8cd1 333d c30c 953c c22d dfbc
000001a0: 9851 e83d 826f 07bd 609f 223c 3328 7f3c
000001b0: 81ee c53d 2150 0cbd 2adc 4c3d 27b6 0d3e
000001c0: 5a3d 7d3d 740f febd e398 da3d 8d26 cebc
000001d0: 1990 b93d 7d3f 36bd 7e35 0d3e f34a 64bd
000001e0: 4e81 033e f1f3 313c 77a8 ecbd 2f89 1dbd
000001f0: 277c 16be b190 643c 9ea3 efbd afcd ab3d
00000200: 5250 0a3d bf65 0abd 4ce9 e13d e7fd 7cbd
00000210: 4ec3 1bbd 289a 2ebe 0018 b53d 2e7b 1d3e
00000220: 8ca7 77bc 12ca ae3d d88b 403d 281d 1f3d
00000230: fece 97ba b222 eabd 050b c33d 23a2 b4bd
00000240: f15d 53bd 9be3 04be 8c44 3fbc cbf0 8a3d
00000250: e41d 963d f209 19be ec45 f73d fe1d 83ba
00000260: 4afd 073e 5ad7 b1bc 62ec 14bc fe34 19be
00000270: 5a20 fabc b59e ea3c 912d 363d dc72 293d
00000280: cd5b a63c a811 f5bd 1669 8d3d 84eb 353d
00000290: e1f2 003d 2d42 523c 576a f1bd 2883 1dbe
000002a0: 5a20 d4bd a370 023c 8b13 b5bc 28f2 aebc
000002b0: 1b49 183d 40b0 13bd e65f 50bd c4c1 febc
000002c0: b335 fa3c 9d70 383d 0277 083d 1021 62bc
000002d0: dbe6 1fbe 544b b5bd 32d8 fdbb a0a3 8d3d
000002e0: 1cd2 cb3d f0a9 933c 43de 623b c735 15be
000002f0: 671d 9ebd 28a1 913d dd17 223e 5c3f 4d3d
00000300: 243b 81bc aecc db3d 5bdc 39bd b425 d9bc
00000310: 17b3 1a3d 7f60 f53b 528e c1bd 9468 7ebd
00000320: 50ef edbd add4 ab3d 6488 05be 36c9 a23a
00000330: d5a5 d93d 4287 d4bd 9fa2 b03d d967 a63d
00000340: 3684 103e e780 61bb 0e34 38be 5cc0 8e3d
00000350: abea 33bc 3f39 22be 8c3a 873d ad13 993b
00000360: c2bb fcbc 61be 58bc ea17 953d 36ed 56bd
00000370: 9067 b83d 2cba c0bd e6c2 e3bd 4045 543d
00000380: c703 743c 661f 15be c52d ef3d 4a8e 85bc
00000390: ee9f af3d 17f9 77bd 2dd5 f53d 6cb5 cdbd
000003a0: 7222 eabd 3323 033e 4c7b db3c 0879 6a3d
000003b0: 6951 80bd d94f 05be 4d39 03be 91ed 1b3e
000003c0: 7167 133d 0e10 833d e490 9b3d 9316 9fbd
000003d0: 0d7a dcbc d919 273d 9dd1 bb3d c26b e53d
000003e0: 24c6 513d eacd d93a 3b65 b8bd 76e4 543c
000003f0: 1d0d 71bd 851b ff3d 88bb 163e 1f2d 39bb

conv4_3.bias f4 [10]
0.13062006 0.24593852 0.4561105 0.18648452 0.24806087 0.44717178 0.18542059 0.42433473
0.42446786 0.34230718
00000000: 44c1 053e 4fd7 7b3e 5187 e93e ccf5 3e3e
00000010: ab03 7e3e b3f3 e43e e5de 3d3e 6742 d93e
00000020: da53 d93e e342 af3e
