Pytorch face detection - Test/MTCNN_train_process/1/checkpoint_2800.pth (torch, 299045 bytes, 36 tensors)

conv1.weight f4 [10, 3, 3, 3]
00000000: 4ca4 5c3e 099a 5d3d 44aa 9abe 8b1c 973e
00000010: aac5 2ebd c822 86bd 179b 693e eed2 d1bd
00000020: fa8b bbbd f3eb fd3d b9a6 32be 1a18 89ba
00000030: 0112 fabb e1dc 183d aebf 4bbe 0ff5 063e
00000040: 829f 5bbb c182 54be f589 ee3d 72eb f5bc
00000050: eae1 96be a8f8 873e ab90 03be 46f3 79bd
00000060: 8209 353e 4434 b53d b3ac 5fbe e449 2cbc
00000070: 8bf1 65be 2eb7 253e 99e3 2a3e c495 c93d
00000080: 7022 4cbe 1399 d03d bbbd 0abd 4e6b 5dbe
00000090: 96e2 37bd fa52 f53c a086 843e bf58 be3d
000000a0: 8cd0 ecbd 6e2c 9b3e c6d8 92bd 0247 673d
000000b0: bc28 6e3e 506b 9d3c 4458 653d 86a9 103e
000000c0: 474c 043e c325 85be 6e0e 1cbd 575f 38be
000000d0: c4d8 51be ad52 b33d f935 953e f096 a73e
000000e0: 1818 a93e 3ba8 833e fb31 04be 2a6a 333e
000000f0: de7d 04be 6c56 3abe 3cc6 103e c03e 003e
00000100: 2b75 d5bd 6189 c43d ade5 9bbc 5598 783d
00000110: 16f8 0ebe 6cb4 a3bc 9d5e 18bd 8ae1 0dbd
00000120: 1795 ae3d 2a7a 163e a9db e43d b5c6 cdbc
00000130: 55f2 8cbc 71a7 dbbd 3f78 b63d ca46 b23d
00000140: 582f 2b3d dbe7 323e ccbe 943e 962a 073e
00000150: e4ec b8bc e442 733e 1acb 643d e650 2e3e
00000160: 4541 1a3e f470 d6bc b80a 25be d5e3 bfbd
00000170: 6746 60be 8d08 b9bd 6b39 5abe f070 9f3d
00000180: 0b60 563c 58df 94bd 7234 1abe 24f3 a2bd
00000190: 5865 51be bc51 9b3d 5d71 713c 8354 34be
000001a0: 2849 2f3d 48e6 bd3d dda8 783d 948f edbb
000001b0: 2d15 4dbe 05cd 2cbe a71a a2be decf 463e
000001c0: d9ab 133e bca6 6fbd 99e0 5b3c a3fb 3d3e
000001d0: 732f 363e 2dca 45bd 6a88 4ebe 8419 24be
000001e0: e677 053e 15f1 873d 5780 943d 8f87 f63d
000001f0: a610 42bc f75d 003b 7908 8dbd 9edc 4bbe
00000200: d12d 00be c837 513e 461a e53d 7cd2 b1bc
00000210: 9489 c93c a6aa cb3d d457 8dbd 7ea6 68be
00000220: 311a 5bbc 482d 3f3e fe0b 5cbc a9d7 d03d
00000230: a6b2 6f3c e568 223e 1c56 1a3e dcdf 563e
00000240: 1ef3 53be 3c02 30be 8096 d9bd 0e19 acbd
00000250: d379 e0bd 02f6 1c3e b181 ddbd 92df 183c
00000260: 5d5b cabd c10f 33bd 1505 9dbd 3302 8dbd
00000270: f069 d5bd 925a f43d a5c1 5e3e 7ddd 133d
00000280: 877b 603e 6983 19bd 5754 5dbe d870 533d
00000290: bc2e b73d a6d9 bdbe 5686 6d3e e0eb 373d
000002a0: c195 8abe 591f d6bd 89ff b43d e833 10bd
000002b0: 7dbe febc 8846 363e c443 223e e6b5 8d3d
000002c0: 8019 083d 0193 563d 18df 9c3d 620c 993a
000002d0: 2273 b9bc c16a c2bd 88c8 66bc bbbe 38be
000002e0: f40e b8bc d286 723d 26cd 0c3d d65d 1f3d
000002f0: 8939 7ebd ecb2 a23d dd1f f5bd ac71 693e
00000300: b3c8 2a3e bdc7 07be 3398 c43d c151 a43d
00000310: fd69 12be cc54 123e e425 553b 11b0 94be
00000320: 71e9 313d 6fa9 b23d 7b3a 0fbe c341 ec3b
00000330: 758b 36bb 9a10 ccbd c4c5 dd3d 7fc2 863d
00000340: b9f2 9dbe d564 2c3d c43e 8c3d cd6b 06bb
00000350: 1766 403e e0c6 5c3e 5074 3fbd 4fde 1ebd
00000360: c7bb 7dbc 70ff ee3d 9bb2 293e 88a3 843d
00000370: fbd9 34bd 591e c13c 96a0 c03d 0cc8 0abe
00000380: 91f6 dbbb e792 c6bd 641e a0be a7eb 45be
00000390: 59eb 3bbe 29f5 d0bd 4fd6 38be 5fe4 413d
000003a0: cfef 103e fa2a d1bd 3440 0c3e 5738 b7bd
000003b0: 74cd bc3d 2e36 12bc 064b 8a3e 090c ec3d
000003c0: 696e 9bbd 6c3c 353d 90fe e63d 7d8b 8dbe
000003d0: 8bbd 13bd b7c3 19be 324d c13c 4629 b7bd
000003e0: 163f 1d3d 7957 9fbd b491 15be 1894 03be
000003f0: c096 d43b 1fd6 2c3e 0b68 833e 0c2f 3e3e
0.2154705 0.054101977 -0.30208027 0.29513964 -0.042668976 -0.06549603 0.22813068 -0.1024531
-0.09157558 0.12398519 -0.17446412 -0.0010459453 -0.0076315408 0.03732002 -0.19897339 0.1317942
-0.0033511822 -0.20753004 0.11647407 -0.030019496 -0.29469234 0.26556897 -0.12848155 -0.06102302
0.17679408 0.088478595 -0.21843223 -0.010515664 -0.22455423 0.16183159 0.16688384 0.09843019
-0.19935012 0.101854466 -0.033872347 -0.21622965 -0.044893824 0.029946793 0.2588396 0.09294271
-0.11563215 0.30307335 -0.071702525 0.056464203 0.23257726 0.01921621 0.05599238 0.14127168
0.12919722 -0.26005372 -0.0380997 -0.1800512 -0.20492846 0.087560035 0.2914274 0.32732344
0.33026195 0.25714287 -0.12909691 0.17520967 -0.1293864 -0.1819703 0.1413812 0.12523937
-0.10422739 0.095965154 -0.019030416 0.06069215 -0.13961825 -0.019983493 -0.037199605 -0.03463892
0.085245304 0.1469504 0.11174709 -0.025119165 -0.017205397 -0.10725296 0.08909654 0.08704908
0.041793197 0.17471258 0.29051816 0.13199839 -0.022573896 0.23755985 0.055857755 0.17023048
0.15063961 -0.026176907 -0.1611737 -0.093696274 -0.21901856 -0.09034834 -0.21310966 0.07785213
0.013084422 -0.07269162 -0.15059069 -0.07956532 -0.20448816 0.07583949 0.014736501 -0.17610364
0.042794377 0.09272438 0.060707916 -0.007249782 -0.20027609 -0.16875084 -0.3166096 0.19415233
0.14421023 -0.05850862 0.0134202475 0.18553023 0.17791538 -0.048288513 -0.20169225 -0.16025358
0.13034019 0.066377796 0.072510414 0.120375745 -0.01184479 0.0019587257 -0.06886382 -0.19908378
-0.12517478 0.20431435 0.11186652 -0.021706812 0.024601735 0.09944658 -0.069015175 -0.22719762
-0.013372944 0.18669617 -0.013430594 0.10197384 0.014629995 0.15860327 0.1507191 0.20983833
-0.2069821 -0.17188352 -0.10624409 -0.08403216 -0.10960736 0.1532822 -0.10815752 0.009330647
-0.098807074 -0.043716196 -0.07666985 -0.06885185 -0.104205966 0.119313374 0.21753557 0.0360999
0.21922122 -0.037478838 -0.21614204 0.051621288 0.08944461 -0.37080115 0.23195776 0.044902682
-0.27067378 -0.10455198 0.08837802 -0.03520575 -0.031096691 0.17800343 0.15846163 0.0691946
0.033227444 0.052386288 0.07659739 0.0011676664 -0.022637907 -0.09493018 -0.014085896 -0.18041508
-0.022468068 0.059210606 0.034375332 0.03890785 -0.06206659 0.07944283 -0.11968968 0.22797269
0.16678123 -0.13259788 0.09599342 0.08023406 -0.14298244 0.1429016 0.0032523805 -0.29040578
0.043435518 0.08723723 -0.13987152 0.007209988 -0.002785412 -0.09964104 0.108287364 0.06580066
-0.30849245 0.04208835 0.06847909 -0.0020511032 0.18788944 0.2156024 -0.046741784 -0.03878623
-0.015486664 0.116698146 0.16572039 0.064765036 -0.044153195 0.023574041 0.09405629 -0.13552874
-0.0067127426 -0.09695988 -0.31273186 -0.19328175 -0.18351497 -0.102030106 -0.18050502 0.047336932
0.1415398 -0.10213275 0.13696367 -0.08946293 0.092188746 -0.00892405 0.27010363 0.11525733
-0.075894184 0.044247076 0.11279023 -0.27645484 -0.036069434 -0.15016066 0.02359638 -0.08943419
0.03839024 -0.07780356 -0.14606363 -0.12849462 0.0064876974 0.16878556 0.25665316 0.18572634

conv1.bias f4 [10]
00000000: bafe 1c3e 31e9 bb3d 57f2 533e 62c9 56bb
00000010: ae78 803d 56f9 32bc 4f7b 453e 1423 d73d
00000020: c74b 2dbb 2f6f 0f3c
0.15331545 0.09175337 0.20697914 -0.0032773842 0.06273018 -0.010923704 0.1928532 0.105047375
-0.0026442872 0.008754536

conv2.weight f4 [16, 10, 3, 3]
00000000: 429e b33b e3ca 0e3e d3d9 d93c bef1 9abb
00000010: 84ba d33b d256 bcbd 4885 803d 4503 123d
00000020: 6f24 d83c e4f2 cc3d 484f 813d 443e 0bbe
00000030: 6450 0a3e 8c83 1e3d 8e4e 04bc 337f df3d
00000040: 0b97 0abd eefc eebd 5880 e5bc e07e 6cbd
00000050: 8185 2b3d 9e37 d0bd a6c2 9e3d 851c 9d3c
00000060: d6e3 33bd 94a2 c43d afd5 88bd c7e3 3f3e
00000070: 0a0e 1b3e 02ae 7e3e e4d3 b6bc e113 96bc
00000080: dace 1cbb 0b19 16be 9db7 0fbe 8d83 11bc
00000090: de18 283e d845 c03c d0ce 873d 174a 5a3d
000000a0: 5266 d53d 820f 2e3d 5c2d c2bc f819 d23c
000000b0: 8326 ce3d 6415 47be b632 bebd a890 3bbd
000000c0: b5b6 0cbd ea8d b1bc 1a34 00be 16d3 0dbe
000000d0: 6694 47bd c8e0 0dbd 83de 0dbd 0abd 273e
000000e0: 6907 18bd 4a27 163e 1586 063e 7de2 013e
000000f0: 9a34 193c 0871 3f3e 91a8 973d 4452 493d
00000100: 3804 77bd aa59 203d b8a8 4cbe 050c 26be
00000110: 50a1 03be 82bc cabd 11bf f7bd cfda af3d
00000120: 9076 603e cf14 b5bc a07d c33d a8fb 433e
00000130: 8283 a83d bcea cf3d d829 89bd 739a 0dbe
00000140: dbc3 85bd 90da 953b 697a 273d 7471 aa3c
00000150: 84c7 363d d26c b13d 3221 63bc 3b12 bb3d
00000160: 32ff f93d 1c2a b6bd 0e5b 3ebe e12d e3bd
00000170: 68a0 bbbd c2ab 343d 9b30 cbbc c613 9bbd
00000180: aead cbbd 6a31 203c 26c3 86bd eb54 a93d
00000190: 52f4 7e3d 3620 d63d 06f3 81bc ebe2 01bd
000001a0: d41b dc3b e0f3 543e 1297 f3bb d876 a93d
000001b0: 8851 323e e8ae ff3d f66a dd3d 3220 b0bc
000001c0: 9d52 893d fa7a 16bd 0d1d 553c 108d 033d
000001d0: 6426 78bd adac 153e 99f1 7b3d d88b d63d
000001e0: 99ef 733d 420c 0f3e b39e cb3d b5a9 bfbe
000001f0: be16 44bd 8fdc fd3c 6bce 53bd 9d64 ab3d
00000200: df8e 23bc c66f 5a3d 8d0c aebd 72d8 81bd
00000210: 7851 09be dbdf a23d f454 90bc 1293 0d3e
00000220: 6e01 03be be39 cdbd bea9 623e cd52 af3a
00000230: 9622 97bd 9aca 563e 4e03 033e 39e3 7f3b
00000240: 2d0b 163d a9a8 09be f280 d3bd d55e cd3c
00000250: 0df9 2f3e 1322 af3c a15b 9dbe eecd fdbd
00000260: 9d86 8abd 3d23 57be 17a1 3cbe 3003 ccbd
00000270: dff4 c43b 3732 833d a159 48bc c328 093e
00000280: a36f 543e a945 dc3d 281d 8e3e 8758 713e
00000290: 98ca 623e 3441 1cbe b7f7 963c e1b8 4b3c
000002a0: d415 00bf b8c6 2f3d 53d0 7c3c 57ae 803d
000002b0: 06b4 ccbc 52a1 263d 2e3a f4bc 0176 eebb
000002c0: 7e02 30bd e0ed 1fbe 8a3a 91bc fab6 14be
000002d0: 3ad8 9b3d b82c e0bb 8143 383d 06d4 0b3e
000002e0: b513 b5bd 762e 3d3d b52a b6bc 5f1a 8abd
000002f0: 9336 153e 58ad 8dbd 0ba4 a3bd cdb8 a13d
00000300: 3866 a4bc 95b9 55bd c9f7 0c3d 47ed e8bd
00000310: d3c3 253d 0e2a 453d 1e20 b33d 0fd2 073e
00000320: a2e8 603d 544f f038 71a8 5c3d 7f55 d43d
00000330: da53 da3d 337f 37bd 11ff a4bc 0b71 84bd
00000340: 75a2 e9bc 3b8c 08be ea46 0fbe f5c4 0bbe
00000350: b222 293c 92a8 803c 4a90 f0bd ad3e 1ebe
00000360: eea2 3c3c 16c0 213d 8465 993d 120d 233e
00000370: a6ba 353e 313d 20bd a888 483d d832 75be
00000380: 9f7d d0be 946d 283d 0b29 44bd 563b 18be
00000390: 97bb dd3d 643d a93d fe6d 4d3e ad31 4fbe
000003a0: 5cd8 763d 0793 a53d 361c 723d 470d 0fbe
000003b0: de65 30bd 65fa c3bb ba59 e1bd f1a3 4bbe
000003c0: 80a5 fe3d 0cf0 7dbd e505 b0bb 488e f93c
000003d0: d7fb 203d 4429 1abd 5388 fe3c 6b24 2e3e
000003e0: a103 1c3c 31d3 6ebc 067f 213b 18ee 063d
000003f0: bcbb ecbd 849d 7abd b164 f03d a1c6 85be
0.0054815123 0.13944583 0.026593124 -0.004728525 0.0064614434 -0.09196247 0.062754214 0.03564765
0.02638456 0.10007265 0.0631395 -0.13597971 0.13507229 0.03869967 -0.0080753695 0.10912933
-0.033835452 -0.11669336 -0.0280153 -0.057738185 0.041875366 -0.10166858 0.0775197 0.019178638
-0.043918453 0.09601322 -0.06681382 0.18739234 0.15142074 0.24871066 -0.022317834 -0.018320026
-0.0023927004 -0.1465799 -0.14034887 -0.008881462 0.16415736 0.023470804 0.06631243 0.053293314
0.10419907 0.04249526 -0.02370327 0.025647148 0.10065939 -0.19441754 -0.09287016 -0.04579225
-0.03435393 -0.021674115 -0.12519875 -0.13850054 -0.04872551 -0.034638196 -0.03463603 0.16380706
-0.037116442 0.14663425 0.13137086 0.12684055 0.00935092 0.18695462 0.07405198 0.04915072
-0.060306758 0.03914801 -0.19986236 -0.16215523 -0.12854505 -0.09899236 -0.1209699 0.08586656
0.21920228 -0.022104649 0.095454454 0.19138968 0.08228208 0.10152194 -0.06697434 -0.13828449
-0.06531497 0.004573174 0.040888224 0.020806052 0.044623867 0.08663334 -0.013862895 0.091343366
0.12206878 -0.088947505 -0.18589422 -0.11092735 -0.091614544 0.044109114 -0.02480345 -0.07572131
-0.09945236 0.009777406 -0.0658019 0.0826815 0.06224472 0.104553625 -0.015862953 -0.031710546
0.0067171846 0.20796156 -0.0074337805 0.08274621 0.17413914 0.124845326 0.10811417 -0.021499727
0.0670521 -0.036738373 0.0130074145 0.03211695 -0.060583487 0.14616652 0.061509702 0.10475892
0.05955467 0.1396952 0.09942379 -0.37434164 -0.04787325 0.03098896 -0.051710527 0.083688
-0.009982794 0.05332925 -0.084984876 -0.06340112 -0.13409984 0.07952853 -0.017618634 0.13825634
-0.12793514 -0.10020779 0.22135064 0.0013376117 -0.073796436 0.20975724 0.1279423 0.0039045347
0.03663175 -0.13443245 -0.10327329 0.025069633 0.17184849 0.021378553 -0.3073397 -0.123927936
-0.06763957 -0.21009536 -0.18420826 -0.099615455 0.006010636 0.06406062 -0.0122284 0.13394456
0.20745711 0.10755474 0.2775662 0.23568927 0.22147596 -0.15259248 0.018428667 0.012434215
-0.5003331 0.042914122 0.015430528 0.06283253 -0.024988186 0.04068119 -0.029812898 -0.0072772508
-0.042971127 -0.15618086 -0.017728109 -0.14522925 0.07609601 -0.0068412684 0.04498625 0.136551
-0.088416494 0.046186887 -0.022237161 -0.06743311 0.145716 -0.06917828 -0.07990273 0.07896576
-0.020068273 -0.052178938 0.034415994 -0.11373382 0.040469956 0.04813581 0.0874636 0.13263725
0.054909356 0.00011458868 0.053871576 0.103678696 0.10660525 -0.04479904 -0.020141156 -0.06466874
-0.028519848 -0.13334744 -0.13991895 -0.13649352 0.010323213 0.01570538 -0.11746271 -0.15453596
0.011513455 0.039489828 0.07490066 0.15922955 0.17746982 -0.039120857 0.04895845 -0.23945177
-0.4072084 0.041120127 -0.047890704 -0.14866385 0.108267955 0.082636625 0.2006149 -0.20233794
0.06026493 0.08084684 0.059108935 -0.13969909 -0.043065898 -0.005980777 -0.11003442 -0.19886757
0.1243391 -0.061996505 -0.0053717964 0.030463353 0.039302673 -0.03763701 0.031070864 0.1700608
0.00952235 -0.014576719 0.0024642362 0.032941908 -0.11559245 -0.061185375 0.11737955 -0.26128104

conv2.bias f4 [16]
00000000: 2ce7 1b3d 6cc5 e53a 62ea eabc 02cf 843e
00000010: 3941 44bd c7fe 233e bfec b1bd 2c79 2f3d
00000020: c325 303e bfa7 04be 4058 3a3e 49ea 173e
00000030: a30f b23d ab95 a8bd ce5e 16bc 59f8 3d3e
0.03806226 0.001753015 -0.028676216 0.25939184 -0.047913764 0.16015159 -0.08687734 0.042840168
0.17201905 -0.12954615 0.18197727 0.14835466 0.08694389 -0.08231672 -0.009177877 0.18551768

conv3.weight f4 [32, 16, 3, 3]
00000000: 2042 36bd 7b44 893c 4860 37bd a6ce 9cbc
00000010: a4f8 84bd fbaf c1bc c3c6 873d 9654 843b
00000020: f0f6 09bd 10f6 aebd 5fe3 1e3d e4b1 883d
00000030: 4c48 1f3d fe35 ac3b 38a3 9fbd 5bae 8dbd
00000040: 20c3 6b3d 7c9f 8e3d b60d 393d b0b7 cebc
00000050: 1f89 373d 5e30 89bd 535f 99bd 79d7 aabd
00000060: 8194 27bc 6f1e 863d a3c1 6c3d 6edc 043c
00000070: 476d 55bd 029a 7d3d 217c a3bd 28fc 19bd
00000080: d2d8 c8bc acc8 a1bd 71fd 973d f61f 6f3d
00000090: c44c 973d 467f 79bd c65a bcbc d60c adbc
000000a0: f330 42bd 5804 883d f0e5 e83c db18 833c
000000b0: 70f8 7cbd d36f 36bd 27ea 9c3d 00bc 4f3d
000000c0: 163c 9ebb 80f5 733b e091 d83c 03be 37bd
000000d0: a0ec f23c 705f 6fbd 6918 82bd 439b 69bc
000000e0: afb1 d63c cb19 7c3d f5b5 68bd 4cf9 a6bd
000000f0: 92aa 4d3c 3579 95bd d380 003c 55e9 7ebd
00000100: a0bf 3cbc 6e08 0f3d 631c 633d 6888 42bc
00000110: e89d 8ebc c4f3 8f3d 0b31 72bb 2b2b 57bd
00000120: e244 aebd 6100 94bd 93ba 963d e88f 7fbc
00000130: ed0d a2bd 4807 8b3d f966 863d af17 44bd
00000140: 30e4 99bd 47c5 413c 37e5 df3b 7aa0 52bc
00000150: 37ee 7dbd 08bd ad3c dc3c 0bbc 3892 c0bb
00000160: d1ad b3bd 5993 9abd 169d 973c 3b9b ee3c
00000170: 8d9b a9bd 7dc6 b3bc 5db1 9b3d 5d27 40bd
00000180: b101 8ebd ff5e 2d3b 6292 c4bc 7e54 1c3d
00000190: d23b ae3c 810d 323c 0dc3 9ebd 826d 683d
000001a0: 4e4e c83c 5f93 1b3d 68d6 05bd 15c5 2cbd
000001b0: 04dc e4bb bc33 acbd ad0f a1bd 542a 863d
000001c0: c87a 5f3d 7236 873d f898 b3ba e16d 893d
000001d0: 4152 143d 127d 713d f5da 2abd fe57 943d
000001e0: a83a 8a3d 777c 893d 6a62 4b3d 3cdc 8abb
000001f0: b103 42ba e2b8 f5bb ac29 45bd 18d8 70bb
00000200: 79e6 6d3d 9892 64bd a623 28bd 8b78 3d3c
00000210: 9da8 afbd 3800 9ebd a5ef 15bd d3bf 023d
00000220: 0637 b0bd bdac 483d d952 5abd fa84 e3bc
00000230: 30d8 89bd 1cd2 363d 1e90 babb 9d42 a7bd
00000240: 0ed5 a63d 5e83 17be 9bdb 5ebc 3db8 25be
00000250: 21ac c4bd adde 043b 2429 82bd 6eb6 5bbd
00000260: 5463 86bc a3ae 1cbe 1bf6 993a dd7c b1bb
00000270: 030c a83d cf62 863d 0bf9 2dbd 4f87 7f3e
00000280: 1760 ba3d b9ee a53c bfdf ebbd 0fce 2cbe
00000290: 75b7 b0be dfbc 2fbd eb04 e03d bdfd b2be
000002a0: 1cc5 5bbb ce83 67bd 1ef1 5abe a2c0 453d
000002b0: c818 b93d 3924 ce3d 3eab 04bd d0bf 1f3d
000002c0: bf76 eabc 2ecb 7d3d 863a c23b 5dc7 843d
000002d0: 51d5 5e3d 0d70 80bd 13b8 bdbd 7191 afbd
000002e0: ce5d 053b 526f 373d ed88 37be f18b c8bd
000002f0: f3d5 0a3d 75c1 0f3f dfe7 843d cd19 ee38
00000300: 4179 983e 80f2 a63c 6a24 79be 54d0 953e
00000310: e585 20be 7651 3c3d 0c2e 73bd 3ba0 8f3d
00000320: 709d 89bd ec5f d03d a50d c13d 39b9 643d
00000330: ba44 53bd db51 f73d 7811 bd3d ec28 283e
00000340: 7b2a 0e3f cd2f 003f e5c3 c9bc 1bb8 4cbe
00000350: 05c3 a13e a56a 063e cfee aebd 3c8e 133e
00000360: 5f5a 4e3d 4b3d 19bd ac8e fd3c 7e84 243c
00000370: c909 a33d a021 9cbb aa72 33bc 33ee 1ebd
00000380: 6e30 7abc 1c21 6ebd 2ef5 cabd 3f2c 2bbe
00000390: 935d cbbd ab0a e0bd 7550 58bd d28a 34bd
000003a0: 55d8 223d 83d1 94bd a060 acbb ea52 8639
000003b0: 084e d7bc d341 253c b902 8fba c363 95bd
000003c0: cd83 ac3d 66e2 cc3d 61fd d9bc 584b 40be
000003d0: cfe5 22be b3e1 a0be 77c1 debd bb8b b03b
000003e0: 6914 17be c5c5 40be 23a8 603d 445a 4abe
000003f0: 8607 4e3e dc01 d33c 60e2 0e3d 2b67 dc3d
-0.044496655 0.016756287 -0.044769555 -0.019141506 -0.06492737 -0.023643484 0.06629708 0.0040384037
-0.033682764 -0.085430264 0.038791057 0.06674555 0.038887307 0.00525546 -0.077948034 -0.06918021
0.057559133 0.06964013 0.04517909 -0.025234073 0.044808503 -0.066986784 -0.07488885 -0.083418794
-0.010228277 0.065487735 0.057801854 0.008109195 -0.052106168 0.06191445 -0.0798266 -0.03759399
-0.02451745 -0.07899603 0.07421387 0.05838009 0.07387689 -0.060912393 -0.022992503 -0.021124285
-0.047409963 0.066414535 0.028429955 0.016003063 -0.061760366 -0.044540238 0.076618485 0.0507164
-0.00482894 0.0037225187 0.026436746 -0.044858944 0.029653847 -0.058440626 -0.06352312 -0.014258209
0.026207773 0.061548036 -0.056814153 -0.08153018 0.012552874 -0.07298509 0.007843214 -0.06223424
-0.011520296 0.03492015 0.055446994 -0.011873342 -0.01740928 0.070289165 -0.0036955501 -0.052531403
-0.08509232 -0.07226635 0.07359805 -0.015598275 -0.079128124 0.06788498 0.06562609 -0.04787415
-0.075142264 0.01182682 0.0068327445 -0.012855643 -0.061994758 0.021208301 -0.008498397 -0.0058768056
-0.08773387 -0.075476356 0.018507522 0.029126754 -0.08281622 -0.021945233 0.07602189 -0.04691254
-0.06933916 0.0026454327 -0.023995582 0.038166516 0.021268759 0.010867477 -0.07752047 0.05674506
0.024451401 0.03798234 -0.032675177 -0.04218014 -0.0069842357 -0.08408305 -0.07864318 0.06551042
0.054560453 0.066021815 -0.0013702204 0.06710411 0.036211256 0.058957167 -0.04171272 0.07243346
0.06749469 0.06713193 0.0496544 -0.0042376798 -0.0007401063 -0.0074988464 -0.048135445 -0.0036749896
0.058081124 -0.055803865 -0.041049622 0.011564384 -0.08577082 -0.077148855 -0.036605496 0.03192122
-0.08604245 0.04899286 -0.053301666 -0.02777337 -0.067306876 0.04463397 -0.0056934496 -0.08167002
0.08146106 -0.14796206 -0.013602163 -0.16183563 -0.096031435 0.0020274327 -0.06355503 -0.053640775
-0.016404785 -0.15300994 0.0011746319 -0.005416496 0.08205416 0.06561815 -0.042473834 0.2495396
0.09100359 0.020255433 -0.115172856 -0.1687548 -0.34514967 -0.04290473 0.10938438 -0.34959212
-0.0033534234 -0.056522183 -0.21381041 0.048279412 0.0903793 0.10065503 -0.03238987 0.039001286
-0.028621076 0.061961345 0.0059273867 0.06483338 0.054402653 -0.06271372 -0.09263625 -0.085726626
0.0020350101 0.044783898 -0.17923327 -0.09792317 0.033895444 0.56154567 0.064895384 0.0001135353
0.2978001 0.020379305 -0.24330297 0.29260504 -0.15676077 0.045976125 -0.059370086 0.070129834
-0.06719482 0.10174546 0.094264306 0.055840705 -0.051579215 0.120761596 0.092318475 0.1642186
0.5553357 0.5007294 -0.024629543 -0.19992106 0.315941 0.13126619 -0.08541643 0.14409727
0.050379153 -0.03741197 0.03095182 0.010041354 0.07960851 -0.0047647506 -0.010952631 -0.038801383
-0.015270336 -0.058137044 -0.099100456 -0.16716097 -0.09929957 -0.10939535 -0.052811105 -0.044077702
0.03975709 -0.07266524 -0.005260542 0.00025620247 -0.026282325 0.0100864945 -0.0010910846 -0.07294419
0.084235765 0.100041196 -0.026610078 -0.18778741 -0.15907978 -0.31422195 -0.10876744 0.005387751
-0.1475388 -0.18825443 0.054847848 -0.19760996 0.20120057 0.025757723 0.034883857 0.10761865

conv3.bias f4 [32]
00000000: 5487 a9bd b7bc f43d 1fda f43d d410 0e3d
00000010: f559 833d 2f68 943d 99b6 d2bb 0942 88bd
00000020: e790 5bbd dd49 46ba 7a98 603e 01d3 1a3d
00000030: 7e7c 1d3e 8906 a4bd 0f25 b1bc d126 57b9
00000040: 810e 6f3d cd55 903d 6d35 bf3d b2ba 2e3d
00000050: e931 dfbd 7aae 7bbd 7400 443e 5ebf 9f3d
00000060: fc1f b9bd b0c4 9ebd 4073 eebc 1f65 0dbd
00000070: f424 703d 57d4 69bb eaaa 933c 217a 543b
-0.08277765 0.11950057 0.11955666 0.034684017 0.06413642 0.07246434 -0.0064304587 -0.0665322
-0.053604987 -0.0007564107 0.21933165 0.037798885 0.15379521 -0.08009059 -0.021624116 -0.00020518458
0.05836344 0.07047615 0.09336362 0.042658515 -0.108981915 -0.06144569 0.19140798 0.07800172
-0.09039304 -0.07752359 -0.02910769 -0.034520265 0.05862899 -0.0035679543 0.018025834 0.0032421427

conv4_1.weight f4 [2, 32, 1, 1]
00000000: dfb7 c73d 5419 f83e b9c7 9d3e 8259 5c3f
00000010: cf41 cf3e 8b15 243f 570f 38bf 9e20 24bf
00000020: 4634 423f a16a 9c3f 06fd 183f 274b 23be
00000030: ea08 5e3e 4261 b13c 1e94 e8bd 48d7 26be
00000040: f72e 0bc0 3a90 063f 5cb7 58be 82e8 c9bf
00000050: c222 b13f e11f e63b bc58 1f3d e1d3 84bf
00000060: 6080 d6bc b5bd c63d db85 c33e 2a6d 363f
00000070: c822 ee3e 9f96 883f b8de 8f3f 2610 8cbf
00000080: c0aa 293e d94d d1be c6ab b0be d0c9 82bf
00000090: 9b60 7dbe 349c dbbe 4081 253f 3ce9 243f
000000a0: 2d25 5ebf 0fc5 9abf 7134 ffbe 8d5c dbbd
000000b0: d765 28be f019 d73d 0da1 24bc c261 063e
000000c0: d91f f13f e997 0bbf 4ed9 583e c534 f23f
000000d0: 4b79 b7bf b733 a73d ce78 18be 6dd9 8d3f
000000e0: 1b9f 3c3e c226 073e 619e c6be 016c 2bbf
000000f0: 6fc3 ecbe 87d1 85bf 97cf 9dbf 9719 9e3f
0.097518675 0.48456824 0.3081644 0.8607408 0.40479895 0.6409537 -0.71898407 -0.6411227
0.7586101 1.222004 0.59761083 -0.15946637 0.21683088 0.021652821 -0.11356376 -0.16293061
-2.1747415 0.5256382 -0.21163696 -1.5774081 1.3838732 0.007022843 0.038902983 -1.037716
-0.02618426 0.097041525 0.3818806 0.7126032 0.4651091 1.0670966 1.1239843 -1.0942428
0.16569042 -0.40879706 -0.34506053 -1.0217838 -0.24743883 -0.4289261 0.64650345 0.6441839
-0.86775476 -1.2091388 -0.49844697 -0.10711012 -0.16445099 0.10502994 -0.010048163 0.13123229
1.8837844 -0.5452867 0.21176645 1.8922354 -1.4333891 0.08164161 -0.14889833 1.1081978
0.18420069 0.13198379 -0.3879271 -0.66961676 -0.46242854 -1.0454568 -1.2328976 1.2351559

conv4_1.bias f4 [2]
00000000: ed5b 4d3d 595f b5bd
0.050136495 -0.08856077

conv4_2.weight f4 [4, 32, 1, 1]
00000000: e2e5 d13d 9394 93be dea3 9e3e c537 f93e
00000010: 376e 89bd 83af db3d aa68 7dbb f19e 1f3d
00000020: 6e52 c8bc a896 60bd 5e49 b5bd 2ab4 1c3e
00000030: a1d0 fabe 4b67 643d 1412 e0bd fda8 94bd
00000040: 809a dd3c 3258 7f3e 52a9 0cbe ab51 0cbd
00000050: 533d eb3b ab75 393d 3255 56bc eeb4 adbc
00000060: c16a 833e 0b36 f5bd 8de2 5cbb 11e1 cebb
00000070: bcae 7d3c 78f4 453d 8611 f2bd de9a 0b3c
00000080: f1a2 093e cbfa f63d 3456 8c3e 6d29 5f3e
00000090: 722a d1bc 332e 04bd 52a8 033e c58b c8bd
000000a0: 2a89 ba3b bd9d a33d a75d 8ebd eef6 59bd
000000b0: cdc2 0d3e 5bf1 4b3d 9a90 1fbe ade7 043e
000000c0: 8f8f 00bd e2be 473c 88d2 343e 1c4a ac3d
000000d0: ed07 f83d 8866 27be f449 18bf 5191 2f3d
000000e0: cbdf 94be bac4 bebc 6bfd ef3d 8ce4 c73d
000000f0: 7f07 9ebc 25f5 d5bc dadd 36bc 91ff 563b
00000100: 9342 103e eb22 18bc b978 a53b edea 323d
00000110: 6363 4ebc cd69 a63c d72f 53bc a42c d93c
00000120: 8d4b 9dbc f23c 75bc f2f6 073d f13b d3bd
00000130: 5720 5d3d a187 95bd 2016 e13d ec90 b2bd
00000140: dcec a83c e7be 003d 5318 bb3b f4c0 6bbd
00000150: f1e1 20bd 6775 0c3e 97a9 583d 4f36 a73a
00000160: 4c30 f53d de5f 01be f2fa a6bd 0ce1 91bc
00000170: 1723 be3b 2d6c 863b 7687 733c fb62 933c
00000180: 9b5a cd3c bd0d 033d 099d 35be 4327 89be
00000190: b800 bcbc cf8f 1dbd 1712 b93c f9b2 21bd
000001a0: 915c 243d 0d66 863c c9a5 653d 2c9f 0cbd
000001b0: 9e81 993d f98c 133d 931e 4f3d ca4f c83d
000001c0: 8f8b 6abd 2382 023d adb0 0a3e ca5b 523d
000001d0: 339d a93c 844d 6cbc 783f 043d a5d2 32bd
000001e0: 243d 9cbe ce32 44bb 7bd4 393c 5e39 2f3b
000001f0: dd15 013c 70b5 d2bc 3efa a03d ba16 91bd
0.10248925 -0.2882429 0.30984396 0.4867536 -0.06710475 0.107268356 -0.003866712 0.038969938
-0.024453368 -0.054831177 -0.08851884 0.15303102 -0.48987296 0.05576257 -0.10940948 -0.072587945
0.02705121 0.24935988 -0.13736466 -0.034257572 0.0071789413 0.045278233 -0.013081836 -0.021204438
0.25667384 -0.119731985 -0.003370437 -0.006313451 0.015483554 0.048328847 -0.118197486 0.00852081
0.13441063 0.12059554 0.27409518 0.21793146 -0.025532935 -0.03227062 0.12857178 -0.09792284
0.0056926208 0.079890706 -0.069514565 -0.053214006 0.13843842 0.04979072 -0.15582505 0.12979002
-0.03138691 0.012191506 0.17658436 0.08412573 0.12110887 -0.16347706 -0.59487844 0.042863194
-0.2907699 -0.023287166 0.117182575 0.09760389 -0.019290684 -0.02611787 -0.011161292 0.0032806138
0.14087896 -0.009285669 0.0050497917 0.043681074 -0.012596938 0.020314122 -0.012889824 0.026510544
-0.019201064 -0.014968144 0.03319449 -0.10314167 0.05398592 -0.0730126 0.10990548 -0.08719048
0.020620756 0.03143206 0.005709687 -0.05755706 -0.039277975 0.1371666 0.05289611 0.0012757274
0.119721025 -0.12634227 -0.08153333 -0.017807506 0.005802523 0.004102251 0.014863839 0.017991534
0.025067618 0.031995524 -0.17735685 -0.26787767 -0.022949561 -0.038467225 0.022591634 -0.039477322
0.04012734 0.016406083 0.05606631 -0.034331486 0.07495426 0.036023114 0.050566267 0.097808436
-0.057262 0.03186239 0.13543959 0.051357068 0.020704841 -0.014422778 0.03228709 -0.043657918
-0.30515397 -0.0029937509 0.011342163 0.0026737074 0.007878748 -0.025721282 0.0786023 -0.07084413

conv4_2.bias f4 [4]
00000000: e90b ed3d 7de3 ae3c f486 5c3f ac17 6b3f
0.11574537 0.02134871 0.8614342 0.91832995

conv4_3.weight f4 [10, 32, 1, 1]
00000000: 859a 4f3d 49db 00ba 93af 86b8 3d40 033b
00000010: ec37 ecb9 dca3 e738 f81b a5ba 0e9c 553a
00000020: 6b7b d73a 7d53 393a b4ab 5bb8 ccdb 31be
00000030: c793 27bb 106c 09be 4b41 c5bd 6231 923a
00000040: 73de e839 808d ad3a 639b 6cb9 ee01 23ba
00000050: 7c37 01bb 48f1 29be 2c1f 833a f0ff 5839
00000060: f1b8 89ba add2 36bd cb93 ff39 47a4 84ba
00000070: ce5c c0b8 3240 13ba 4805 d7ba f06d 8a38
00000080: e7ab ee3c 30f7 eab9 3dd9 d139 7c6e 2c3b
00000090: d115 2cba 9cf3 0339 c37a 7aba 583d ab3a
000000a0: be5e ceba 44e1 973a f12f 49ba d3c9 5fbc
000000b0: 4379 36bb 620f 29be 5180 07be e4a6 963a
000000c0: a4cb 4239 560a 0bba cc0b a6ba 2902 5db8
000000d0: d90d 813a d0c3 5d3d 088f 89b9 3881 073a
000000e0: e886 35b8 239d 89bd 56d3 113b b05c abba
000000f0: 315a 2b38 cf82 83b9 7508 16ba d98c 4c3a
00000100: 80c3 663c 8dc0 eb3b e2d7 ddba faa5 75bd
00000110: f51c 4a3d b682 33bd 5d18 c8bb c1ca 0e3d
00000120: 7166 2ebc e22f 2ebd fad0 da3b 0ffd 14be
00000130: 0308 9dbc 034e 103e 2380 d9bd 4e06 de3c
00000140: 1fd9 373c f285 a9bd bcdb 3cbc 4270 faba
00000150: d686 d0bc 5d5c 68bd 6a29 32bb 23a4 d53b
00000160: c8af f5bc 556c 0c3e 8962 523d b09f 0b3c
00000170: a5da a1bc 769e 47bd 47f7 2cbc 37f4 30bb
00000180: 567d 153e 7487 a23d 377f b83d 7156 523e
00000190: 6d86 abbd 15df 40bd 64c7 9c3b 9af7 72bd
000001a0: 4858 833c 0f0e 6a3d b3e1 aebc 16f6 1cbe
000001b0: 4f91 e7ba 544d 75bd d2b4 17bd 7e79 a4bd
000001c0: ff2a b03b b4b3 91bd 26ce 1a3e 51c7 cbbc
000001d0: 5113 813e 8e9f 84bb 7a76 e53d 54a0 d23c
000001e0: 571c 04bd 333a ce3d 4853 b9bd 9f8e b6bb
000001f0: cf76 0fbd 6eb3 05be 059d 493d c791 74bc
00000200: d4cd 303e 79ec f0bc 7657 94bd bc25 19be
00000210: 023c 0e3e 03da 82bb ef39 783c 1e94 df3c
00000220: 5ec7 c9bb fbe6 783d af27 9c3c 71a9 dd3c
00000230: 2335 febc 35d7 14be 05d4 373d a768 0a3e
00000240: 1db5 bd3a a7c1 03be ce7e e3bd 34d0 73bb
00000250: 5e9b 20bd a5e8 2bbc 8864 1e3c 05fb a3bc
00000260: 5398 9bbd 96fe ea3d 5299 ad3d 46b0 6e3c
00000270: 361e e4bb aa93 8d3d 22a3 953b ed4d c73b
00000280: 9fcc 043e eda5 3e3d 459e 473d c6d3 bf3d
00000290: b6c3 08bd 58b8 02bd cf83 a2bb 88fc 71bc
000002a0: 384e 443c 2a76 253d be2c 0bbb ca7d 263c
000002b0: 0afe ccbc 2c7d abbd a3e4 273e 4f96 bfbb
000002c0: 3af4 113c 8f82 56bd ac6d 703d 5841 67ba
000002d0: cdb0 db3d b1d3 a23d 8ed6 8b3d bc98 2b3c
000002e0: cb48 ecbc 6302 0cbe e042 95bc eb07 1dbc
000002f0: a45e 08bd 2fee a8bd a558 4a3c 776f 4bbc
00000300: e74a c9bd 94bb 9dbd 7f66 8ebd 0dc1 52be
00000310: 3ae1 7b3d 6c98 713d 08ef 63bb d031 423d
00000320: e8ee 1abc 5419 b9bd 8538 923c 8a28 0d3e
00000330: 8901 48bc 7168 1e3e 1ee0 acbb 5c4b b23d
00000340: 7f9a 21bc 8375 df3d cfbd 1abe 71b6 bd3c
00000350: 25b3 94be 3c42 043e 2553 e6bd 824a dbbc
00000360: 960d 2a3d c453 873d 5062 8c3d c3fd b4b9
00000370: dd6f 213d 4844 fb3d 14f8 1dbd ff11 353c
00000380: 2c42 10be 02ec fe3b c6b4 c03b 31d8 dfbc
00000390: b30a d0b9 c5e5 04bc aeb6 1aba 45b9 8439
000003a0: 8c0f 35bb 92a2 f93b c97a 2bbb d8f7 223d
000003b0: 7449 54bb 1873 30be 45b7 1dbe 951f e6b9
000003c0: 0a96 0cbb 6159 9fbc 1342 e23b 1d10 163a
000003d0: 647e b23c ab1d 82bd 9620 e03b cf1d 6b3b
000003e0: 9503 d2bb 2526 933b b3d5 e53a 4e1b 84ba
000003f0: fb9c 9fba 88cf 2fbc e0d5 8c3b 2892 33ba
0.05068447 -0.00049154885 -6.422321e-05 0.0020027303 -0.00045055093 0.000110454595 -0.0012596836 0.0008148559
0.001643998 0.00070696307 -5.237358e-05 -0.17369002 -0.002557026 -0.13420129 -0.09631594 0.0011153633
0.00044416226 0.0013241023 -0.000225646 -0.0006218244 -0.001971691 -0.16595948 0.0010003797 0.0002069471
-0.0010507387 -0.04463451 0.00048747504 -0.0010119759 -9.17256e-05 -0.0005617171 -0.0016404772 6.60083e-05
0.029134704 -0.00044816127 0.00040025442 0.002631097 -0.000656453 0.00012583885 -0.0009555036 0.0013064547
-0.0015744788 0.001158752 -0.00076746853 -0.0136589585 -0.0027843274 -0.16509774 -0.13232543 0.0011493829
0.00018577144 -0.00053039694 -0.0012668311 -5.2692518e-05 0.0009846046 0.05414182 -0.00026237243 0.00051690964
-4.3279404e-05 -0.067194246 0.002225121 -0.0013073888 4.0853574e-05 -0.00025083727 -0.0005723306 0.00078029704
0.014084697 0.0071945847 -0.00169253 -0.05997274 0.04934402 -0.043825828 -0.00610642 0.03486133
-0.010644541 -0.042526133 0.006677744 -0.14549659 -0.01916886 0.14092259 -0.10620143 0.027102616
0.011221199 -0.08277501 -0.011526998 -0.0019106942 -0.02545492 -0.05672871 -0.002718533 0.0065198108
-0.029991046 0.137132 0.0513635 0.008521959 -0.019757578 -0.048735105 -0.010557002 -0.0027001032
0.14598593 0.07935992 0.09008639 0.20540787 -0.08375249 -0.047087748 0.0047845114 -0.059318163
0.016033307 0.057142314 -0.021347856 -0.1532825 -0.0017667207 -0.0598882 -0.037037678 -0.08030985
0.0053762193 -0.07114354 0.15117702 -0.024875315 0.2521005 -0.0040473407 0.11204238 0.025711216
-0.03225359 0.10069694 -0.09049088 -0.005571201 -0.035025414 -0.13056728 0.04922201 -0.014927334
0.17266017 -0.029409634 -0.07243244 -0.14955801 0.13890079 -0.003993274 0.015150531 0.027292307
-0.0061577996 0.060767155 0.019061891 0.027058335 -0.031031197 -0.1453522 0.044879932 0.13516484
0.0014473532 -0.12866841 -0.111081704 -0.0037202956 -0.03921067 -0.0104924785 0.009667523 -0.020017156
-0.07597413 0.1147434 0.08476509 0.014568394 -0.0069616092 0.0691293 0.004566566 0.0060822875
0.12968682 0.046544958 0.048734922 0.093665645 -0.03338977 -0.031914085 -0.0049595605 -0.014769681
0.011981539 0.040395893 -0.0021236385 0.010161826 -0.025023479 -0.08373484 0.16395812 -0.0058467756
0.008908326 -0.052370604 0.05869834 -0.00088216877 0.107270814 0.07950533 0.068280324 0.010473426
-0.028843304 -0.13672785 -0.018220365 -0.009584407 -0.03329338 -0.08248555 0.012350236 -0.012416712
-0.098287396 -0.07701793 -0.06953143 -0.20581456 0.06149409 0.05898325 -0.0034779925 0.047410786
-0.009456374 -0.09038034 0.017849216 0.13784996 -0.012207397 0.15469529 -0.0052757403 0.0870578
-0.009863495 0.109110855 -0.15111469 0.023158284 -0.29042926 0.12915891 -0.11246327 -0.026768927
0.041516863 0.06607774 0.06854689 -0.00034521343 0.03941332 0.12268883 -0.038566664 0.011051654
-0.14087743 0.007779599 0.005880925 -0.027324768 -0.00039680823 -0.008111422 -0.0005901855 0.00025315039
-0.0027627675 0.007618257 -0.0026165715 0.039787143 -0.0032392414 -0.17231405 -0.15401943 -0.0004389255
-0.0021451735 -0.019451799 0.0069048493 0.0005724447 0.021788783 -0.06353315 0.006839822 0.0035875922
-0.0064091184 0.004490631 0.0017535001 -0.0010078938 -0.0012177521 -0.010730632 0.004297957 -0.0006850087

conv4_3.bias f4 [10]
00000000: 65dd 633e d8c9 b83e 40c4 e53e 93ed a93e
00000010: 4101 ae3e 03e6 ed3e afe4 813e bc0d 213f
00000020: 3c35 ea3e df47 1a3f
0.22252424 0.36091495 0.4487629 0.33189067 0.33985332 0.46464548 0.25369784 0.6291158
0.4574374 0.60265917

exp_avg f4 [10, 3, 3, 3]
00000000: 9c83 d2bc d185 cebc 89ec aabc 6720 f4bc
00000010: 2207 e0bc 9044 afbc 5eed f6bc 3717 fdbc
00000020: 489d d8bc e9ac 49bc 0ba8 49bc d320 38bc
00000030: 64b7 b2bc dac4 99bc 0f24 71bc 4895 b1bc
00000040: 6f05 b0bc ccd9 a3bc 5994 04bc 59d0 1fbc
00000050: 18b8 3dbc 3ab5 86bc 9e76 82bc e86d 64bc
00000060: e109 8ebc 8a39 a1bc 689e acbc 097d b93c
00000070: 7f9a ce3c aef0 163d 9193 9e3c 8311 b83c
00000080: d97f 013d 590b c13c 123f 033d d29b 0e3d
00000090: 6422 ca3c 3342 df3c 71aa 1c3d 35f9 ac3c
000000a0: 40bb c63c fc4a 083d 6581 c53c fcbd 053d
000000b0: c11a 123d 4971 803c adb5 963c fdcf ed3c
000000c0: 3384 493c 8443 8f3c a131 d73c 0852 803c
000000d0: 4ced cf3c 4bec f13c 9c3c a9bb 1d22 efbb
000000e0: d330 c1bb 4d6e d3bb 40e3 04bc 1f03 dbbb
000000f0: b238 8ebb 067a bbbb 800c c4bb dce8 99bb
00000100: ad95 cabb d7dc 89bb 4925 a0bb 50e3 debb
00000110: 26ae bbbb 9338 39bb 78d5 89bb 644b b8bb
00000120: 1c75 663b 6b45 e93a f4c8 763b 33f5 303b
00000130: bd7a 003a 0aa2 893a ccfe 903b d278 343b
00000140: 5e8d e53a 4aad ad3c d94a 913c 689b c83c
00000150: b193 cf3c 7c82 c43c a5d5 ab3c 33b3 d53c
00000160: a9c3 b23c a674 5c3c 9c67 713c 3519 2e3c
00000170: c987 953c 546b a83c e242 8c3c 436c 8b3c
00000180: 74ec b63c 0d05 883c b6b8 173c a535 ea3b
00000190: 78bd 153b 91fe 0d3c c709 2f3c 3efc e63b
000001a0: f1d4 e23b 6070 2d3c ee69 b33b 31e7 0dbb
000001b0: ef64 dabc 5b40 aebc 2889 d3bc 2c43 acbc
000001c0: e3fd ecbc 1688 0dbd 1046 99bc 3ed1 e3bc
000001d0: 7752 01bd af49 17bd a477 f7bc 8afc f4bc
000001e0: 7679 fcbc 5369 21bd 69fb 21bd ff67 ecbc
000001f0: 7bcf 23bd c431 25bd a8e2 05bd c4dd dfbc
00000200: 7da7 cdbc e292 e9bc aa4a 1bbd 7bc9 14bd
00000210: c4d3 ecbc 9c40 1ebd c541 11bd e310 9a3c
00000220: 67fe 553c aa81 4d3c 4aa1 263c 7982 34bb
00000230: 697f 39bb 51be 7c3b 7b87 deb9 494a 28bb
00000240: 8b62 b63b 00b1 ec3a cebe 463b df4e 83bb
00000250: 87bb 6cbc a8e9 52bc 3a48 3abc 0a3d 45bc
00000260: fd89 67bc 3ebc 4c3c d1f5 1f3c 0b8c 2e3c
00000270: 80ff 5b3b d1a4 05bc 8525 fcbb c180 8ebb
00000280: 9ce0 0dbc 45f8 59bc 1920 bc3c a657 043d
00000290: efb0 d73c 4377 933c 66c7 e23c 3e84 a13c
000002a0: db74 7e3c 1746 073d 97ac f33c d976 163c
000002b0: 9313 9a3c 7ddc 413c 44ff b53b e4b0 4e3c
000002c0: e83c 983b fed1 b73b 3c43 7d3c 8289 403c
000002d0: 6787 043c 6382 723c ef6f b63b 8ce7 cc3b
000002e0: 41cc 313c 120c 3fb9 6551 f13b 7deb 663c
000002f0: 0198 273c 1eac 473b fe58 1cbc 7e66 8abc
00000300: 7e23 ee39 9bb3 f8bb 7026 8cbb 05db 013c
00000310: b0b6 5a3b 46de 81bb a53f cd3c 745e 5a3c
00000320: 7c95 843b 8d84 a53c c3f7 3f3c 68d6 823c
00000330: 1d0f 0b3d bfcd d63c ce0b 983c ae4b e43c
00000340: 00f1 763c 05c1 d43b 0dcd df3c 5119 973c
00000350: 0bcb b93c ae08 283d c738 0a3d a4d9 e43c
00000360: 01d0 4cbc 77b7 bcbb f5f2 98bb ca74 68bc
00000370: 54a1 bebb c698 4ab9 a920 98bc ba96 85bc
00000380: 5b0d 28bc 3a4b 06bc f75c c9bb 8dab 8abb
00000390: b623 01bc 41d7 56bb e970 6d3b 5c93 36bc
000003a0: f563 20bc 6e0f d3ba 4b3a 22bc a4ff 1abc
000003b0: 1213 ddbb cb52 08bc 4c18 9fbb 73ac ec3a
000003c0: a5cf 34bc 50e3 1fbc 094d 25bb 9a08 2dbb
000003d0: c1a0 873b e4cb 183c a0ba c1bb ef52 41ba
000003e0: 1c37 523b 9bb2 09bc c9ff 69bb f466 46bb
000003f0: 0a58 9cbb 2de5 6aba fed5 163b 9ee3 0ebc
-0.025697522 -0.025210293 -0.020864742 -0.029800607 -0.027347151 -0.021394998 -0.030142482 -0.030894859
-0.026442185 -0.012309291 -0.012308131 -0.011238295 -0.021815963 -0.018770624 -0.01471807 -0.021677628
-0.021486966 -0.020001315 -0.008092009 -0.009754264 -0.011579536 -0.016443837 -0.015925702 -0.013942219
-0.017338695 -0.019680757 -0.021071628 0.02264263 0.025220154 0.036850624 0.019357475 0.022469288
0.031616066 0.023564981 0.03204257 0.03481657 0.024674602 0.027253246 0.038248483 0.021114925
0.02425921 0.033274636 0.024109552 0.032651886 0.035670046 0.015679019 0.018397177 0.02902984
0.012299585 0.017488249 0.026268782 0.015664116 0.025381707 0.029531619 -0.005164696 -0.007297768
-0.005895713 -0.006452358 -0.008110821 -0.0066837217 -0.0043402547 -0.0057213334 -0.0059829354 -0.0046969485
-0.0061823935 -0.0042072344 -0.0048872572 -0.006802 -0.005727547 -0.002826248 -0.0042063557 -0.0056242216
0.0035165017 0.0017797177 0.0037656398 0.002700162 0.0004901102 0.0010500562 0.0044249054 0.0027537835
0.0017513444 0.021200795 0.017735885 0.024488166 0.02533898 0.023988001 0.020975897 0.026086425
0.021821814 0.0134555455 0.014734175 0.010626127 0.018253224 0.02055899 0.017121736 0.017019397
0.022329547 0.01660397 0.009260347 0.007147508 0.0022848528 0.00866665 0.010683483 0.0070491126
0.0069223573 0.010585874 0.0054752743 -0.0021652693 -0.026659457 -0.021270921 -0.025822237 -0.021028124
-0.028929656 -0.03455361 -0.018710166 -0.027809735 -0.031572785 -0.036935505 -0.030208416 -0.029905576
-0.030819636 -0.039407086 -0.039546404 -0.028858183 -0.03999279 -0.040330663 -0.03268686 -0.027327426
-0.025104279 -0.028512422 -0.037913002 -0.03632496 -0.028909571 -0.038635835 -0.035463113 0.01880688
0.0130611425 0.012543121 0.01017029 -0.0027543588 -0.0028304702 0.0038565586 -0.0004244408 -0.0025679043
0.0055659465 0.0018058121 0.003032613 -0.004007205 -0.014449007 -0.012873091 -0.011369759 -0.012038479
-0.01413202 0.012496052 0.009763197 0.010653506 0.0033569038 -0.008156971 -0.0076949024 -0.0043488448
-0.008659508 -0.013303821 0.022964524 0.03231015 0.026329486 0.018001204 0.027682971 0.019716378
0.01553079 0.033025827 0.029745383 0.009183609 0.018808162 0.011832354 0.0055541117 0.012615416
0.0046459325 0.00560975 0.015457924 0.011751534 0.008088923 0.014801594 0.0055675427 0.0062531885
0.010851921 -0.00018219676 0.0073644393 0.014094231 0.010229112 0.003046758 -0.009542702 -0.016894575
0.0004542134 -0.00758977 -0.004277043 0.0079257535 0.003337305 -0.0039632646 0.025054762 0.013328183
0.0040461402 0.020204807 0.011716786 0.015971377 0.03394996 0.026221154 0.018560316 0.027868118
0.015072107 0.0064927363 0.027319456 0.018444689 0.022679826 0.041023903 0.033745553 0.02793581
-0.012500764 -0.0057591754 -0.0046676346 -0.014188001 -0.0058175717 -0.00019321134 -0.018570261 -0.016307224
-0.01025709 -0.008196646 -0.0061451155 -0.004231876 -0.007882049 -0.003278211 0.003623063 -0.011143532
-0.009789457 -0.0016102621 -0.009901593 -0.009460364 -0.006746658 -0.008320521 -0.0048551913 0.0018056765
-0.011035834 -0.009758785 -0.0025222918 -0.0026402832 0.0041390364 0.009325955 -0.00591214 -0.0007374724
0.0032076305 -0.008404399 -0.0035705438 -0.0030273767 -0.0047712373 -0.00089605415 0.0023015733 -0.00872126

exp_avg_sq f4 [10, 3, 3, 3]
00000000: 4d6a 9d3d 20aa 8d3d a806 813d 97da ad3d
00000010: cf7e 9b3d 1851 8b3d 174b b03d 84e0 a23d
00000020: c0df 933d 4ae1 4c3d d6d2 343d ca74 233d
00000030: 869c 643d b895 483d 02ff 303d 0fd5 683d
00000040: 0763 543d 7003 3e3d 4431 273d c234 123d
00000050: 0f84 033d 88b1 3b3d 7b1c 233d 40cf 0e3d
00000060: 580a 403d 0751 2e3d f7ab 1a3d 0b6e 103d
00000070: ef56 1b3d 6c31 3b3d 2781 163d fe06 0b3d
00000080: 358d 1c3d 3168 fa3c 9824 ef3c 23a0 043d
00000090: 2633 de3c 0de8 ee3c 4288 113d 73b1 e23c
000000a0: 857e ce3c bf1c ed3c 4e8a b53c 2a2f ac3c
000000b0: 6eb7 c33c b7f0 c33c 87cb d13c 0010 ff3c
000000c0: e4ca c43c d41d b13c a4dd cb3c 8803 9b3c
000000d0: 73d3 913c 8e51 a73c 9bb0 d73c 03e4 d73c
000000e0: 9223 ca3c 689a c53c 51be bc3c c510 b43c
000000f0: 1038 ab3c 090c a63c 4c56 a83c 3b1d 973c
00000100: ab7f 953c 37b1 8a3c 29be 863c 525c 7b3c
00000110: 6379 6d3c def5 623c 12e3 563c 79f8 593c
00000120: 5fb9 833c 47e5 813c c043 703c 0a81 693c
00000130: cb8f 583c 4623 4c3c d089 433c 875e 383c
00000140: 513c 3b3c 60c7 433d 6964 4c3d 95ab 4f3d
00000150: e9f5 563d 3646 5a3d 2b34 583d e41a 7b3d
00000160: fa4a 6b3d 399f 483d b096 d33c a502 db3c
00000170: 40d6 eb3c e885 ec3c 99c8 ea3c a489 f53c
00000180: 775e 153d 0b0b 073d a3c9 e43c 0ab9 a33c
00000190: 34a2 a93c d826 bd3c c9f5 b83c 61ee b63c
000001a0: 2297 c43c e17e f03c 1758 d83c cc21 b83c
000001b0: eb16 063e cad2 eb3d 2839 d73d d737 1e3e
000001c0: e75f 103e 8fcf fc3d 51a3 243e d191 1e3e
000001d0: 25cd 0c3e 45f1 aa3d 682b 903d 24bc 813d
000001e0: 64d9 ce3d 9e47 b73d 9fe6 9c3d 5d4a d83d
000001f0: 15af cc3d 5983 b23d 6b37 953d c3a0 7b3d
00000200: 7234 633d d53e b63d c521 a13d 6357 893d
00000210: 8ed3 be3d 8179 b43d 15b9 9c3d 5640 c83d
00000220: a4f7 d23d 3db5 e93d 46fd e83d bce1 fc3d
00000230: 64d1 073e 76a4 043e 928b 0c3e d9d7 0b3e
00000240: 8b3b 833d 005c 8c3d a5d8 a03d cdde 9a3d
00000250: 7cb2 ab3d e48e bd3d d3c5 b33d af2b c13d
00000260: c91e c23d 27bf 603d 6a07 723d a7b7 8b3d
00000270: fd5a 843d 5a22 943d cca0 a43d 4d10 9a3d
00000280: 38d9 a63d ed12 a83d 7134 173d fa59 343d
00000290: 24b3 533d bd67 123d 26d5 3a3d 32dd 573d
000002a0: 56bf 193d 336b 313d 49f5 423d b8b1 d03c
000002b0: 91a7 f93c 9857 163d a6e9 ca3c 907d 023d
000002c0: e1c9 183d ee65 d83c 4dd4 f73c 0832 083d
000002d0: e54f b03c f2c5 d23c 17ac 003d 765f aa3c
000002e0: 0024 dc3c b9e6 023d 8650 b83c 962e d23c
000002f0: 0568 e83c 0d79 9f3d be2b 913d 9152 a43d
00000300: c132 a93d 1c94 9a3d d56a a93d b1be a93d
00000310: a547 9e3d 51da a63d 97ef 623d f928 4b3d
00000320: 6edd 6d3d 7f66 743d 566b 5c3d 9dc0 783d
00000330: a751 793d 3cce 663d 5ab8 773d f017 503d
00000340: 6c20 3a3d 21d3 5a3d 983f 613d 1840 4b3d
00000350: fbff 653d 26fa 673d 7575 563d 451d 663d
00000360: 9e4b c33c 2026 af3c cbcc f13c 2adf ea3c
00000370: 46ac fc3c e538 063d 57e3 263d 77ea 273d
00000380: d968 143d 138a 2a3c a236 043c bb46 5d3c
00000390: 8686 663c b8e2 813c 4049 8c3c 0c3e c33c
000003a0: 0ef9 cd3c 0b74 ac3c 1630 463c 822a 223c
000003b0: 2de6 783c b67e 813c 7373 943c 1090 9d3c
000003c0: bf0a c93c 1853 da3c 258b b93c 6aec ba3c
000003d0: cb0f d13c 0490 cf3c 6514 da3c 9b7b db3c
000003e0: 1f36 d63c c9f9 d53c cdf2 d43c 35e9 d13c
000003f0: e145 8a3c f6ae 9a3c a0a1 983c a83f a13c
0.07686291 0.069172144 0.06300098 0.08488958 0.07592546 0.06802577 0.08608072 0.07952979
0.07220411 0.05001954 0.04414638 0.0399063 0.055813335 0.048970908 0.043211944 0.056843814
0.051852252 0.046389997 0.040818468 0.035694845 0.032108363 0.045823604 0.039822083 0.034865618
0.046884865 0.042557742 0.037761655 0.035261195 0.037924703 0.04570143 0.036744263 0.033942215
0.038220603 0.03056726 0.029192254 0.03237928 0.027123999 0.029163385 0.035530336 0.027672505
0.025206814 0.028944371 0.022160675 0.021018583 0.023891177 0.023918493 0.025609745 0.03113556
0.024022527 0.021620668 0.02488596 0.018922582 0.017801022 0.02042463 0.02632933 0.026353842
0.024675164 0.024121478 0.023039969 0.021980653 0.020900756 0.02026941 0.020548962 0.018446555
0.018249353 0.016930206 0.016448097 0.015341835 0.014494273 0.013852565 0.013115661 0.013303869
0.016079603 0.015856398 0.01466459 0.014251957 0.013217877 0.012459582 0.0119347125 0.011253006
0.011427955 0.04779756 0.049900446 0.050700743 0.052480612 0.053289615 0.052784126 0.06130494
0.05744455 0.04897997 0.02582869 0.02673466 0.028788686 0.028872445 0.028660106 0.029972859
0.03646704 0.032969516 0.02792818 0.019985694 0.020707227 0.023089811 0.022578137 0.022330465
0.023997847 0.029357376 0.026409192 0.022477053 0.1309468 0.11514814 0.105089486 0.15450989
0.14099084 0.12344276 0.16077925 0.15485312 0.13750131 0.083468 0.07039529 0.06334713
0.10100058 0.08949207 0.07661175 0.10561059 0.09994332 0.08716459 0.07285961 0.06143261
0.055469938 0.08898703 0.07867769 0.06706121 0.093176946 0.088122375 0.07652489 0.09777896
0.1030114 0.114115216 0.11376433 0.12347743 0.1326347 0.12953362 0.13725117 0.13656558
0.06407841 0.06853485 0.07853822 0.07562027 0.083836526 0.0925577 0.08777966 0.0943216
0.09478528 0.054869797 0.0590891 0.06822138 0.06462667 0.072331145 0.08038482 0.075226404
0.081469 0.08206735 0.036915246 0.04403112 0.051684514 0.035743464 0.04561343 0.052701183
0.037535988 0.043315124 0.047597203 0.025475368 0.03047541 0.03670463 0.024769615 0.031858027
0.0373019 0.026415791 0.0302526 0.03325084 0.021522472 0.025729153 0.031414118 0.020797472
0.026872635 0.031958316 0.022499334 0.02565698 0.028369913 0.077867605 0.07088421 0.08023561
0.08261634 0.07547781 0.0827233 0.082883246 0.07728509 0.08147109 0.055404272 0.04959962
0.0580725 0.05966806 0.0538133 0.060730565 0.060868885 0.056349024 0.060478546 0.05080408
0.045441076 0.053424004 0.05499229 0.04962167 0.056152325 0.056635045 0.05235811 0.056180257
0.023839768 0.021380484 0.029516598 0.028670866 0.030843865 0.032769103 0.040744152 0.040995087
0.036232803 0.010408896 0.008069666 0.013505633 0.014070159 0.015855178 0.017124772 0.023833297
0.025143173 0.021051427 0.0120964255 0.00989783 0.015191597 0.01580749 0.018121457 0.019233733
0.024541257 0.02665095 0.022649357 0.02281781 0.025520226 0.025337227 0.026621053 0.026792338
0.026148854 0.026120083 0.025994683 0.025623897 0.016879024 0.018882256 0.018631756 0.019683674

exp_avg f4 [10]
00000000: eb17 17bd bd33 223d 3702 8b3c b077 c83c
00000010: 52d0 053d 3de5 b33d 757e 813d db96 adbd
00000020: e9d9 afbd 054e 3ebb
-0.036888044 0.039600123 0.01696883 0.024471134 0.032669373 0.08783958 0.06322948 -0.08476039
-0.08586485 -0.0029038202

exp_avg_sq f4 [10]
00000000: 3120 c33e 0a68 213e 41a4 e23d 6a7d 453e
00000010: 1883 3a3f fc25 333f da2c 6b3e 5c0c f53e
00000020: 23da 733e 8429 bc3d
0.38110498 0.15762344 0.11066485 0.19286123 0.72856283 0.69979835 0.22966328 0.47860992
0.23813681 0.09187606
