Pytorch face detection - Test/MTCNN_train_process/1/checkpoint_1400.pth (torch, 133169 bytes, 12 tensors)

conv1.weight f4 [10, 3, 3, 3]
0	0xbf07ad46	-0.5299877
1	0xbee9f084	-0.4569131
2	0xbe44e890	-0.1922934
3	0x3d95b07f	0.073090546
4	0x3d29df3f	0.04147267
5	0x3e5356b6	0.20638546
6	0x3dc4621f	0.095890276
7	0x3e9b38db	0.30316815
8	0x3d0f4913	0.0349818
9	0xbd8ceb15	-0.06880776
10	0xbe01e7b0	-0.12686038
11	0x3ce5c371	0.028047295
12	0xbdf80b0e	-0.121114835
13	0x3da28d0b	0.07937058
14	0x3e2bcb2d	0.16776724
15	0x3d8ca2d1	0.06866992
16	0x3e2cb89a	0.16867295
17	0x3de8eefd	0.113737084
18	0xbe857fea	-0.26074153
19	0xbdc14a67	-0.09438019
20	0x3dae0782	0.08497526
21	0x3ca5d5c1	0.020243527
22	0xbe02533a	-0.12727061
23	0x3e06e0b7	0.1317166
24	0x3c477d5e	0.012175886
25	0xbd57cc9e	-0.052685373
26	0xbd60ddc6	-0.054899
27	0x3dc6996b	0.09697231
28	0x3d519412	0.0511666
29	0x3e5278c0	0.20553875
30	0x3e6b8d9c	0.23003238
31	0x3d90f098	0.070771396
32	0xbc62f4b9	-0.013852292
33	0x3e138a51	0.14408232
34	0x3d3aa8fd	0.045571316
35	0x3e83ebf9	0.2576597
36	0xbe33e0ea	-0.17566267
37	0x3b4cd322	0.0031253775
38	0xbd1fa90a	-0.038979568
39	0xbe47de1b	-0.1951832
40	0x3c7d3ee7	0.015456892
41	0x3d884057	0.06652897
42	0xbc4c3603	-0.012464049
43	0xbe735471	-0.2376268
44	0xbe034779	-0.12820233
45	0xbe27c2d1	-0.1638291
46	0x3d22e98d	0.039773513
47	0xbe0d19f0	-0.13779426
48	0xbdbd69b9	-0.092486806
49	0xbe0dac4f	-0.13835262
50	0xbe2f7aae	-0.17136642
51	0xbdfa7c11	-0.12230695
52	0x3e0f83a8	0.14015067
53	0xbd3638dd	-0.044487823
54	0xbdd09bd1	-0.101859696
55	0x3e0d524d	0.13800927
56	0xbe1a773b	-0.15084545
57	0x3c22e623	0.009942564
58	0xbb957b35	-0.0045618066
59	0xbe3a9f1f	-0.18224762
60	0xbe02e320	-0.12781954
61	0x3e392602	0.18080905
62	0xbdb1a499	-0.08673973
63	0xbdb8e589	-0.09028155
64	0xbe46dedd	-0.19420953
65	0x3e08a359	0.13343562
66	0xbdd434a1	-0.10361601
67	0x3d3b8167	0.045777705
68	0xbe40702d	-0.18792792
69	0xbe1e2032	-0.15441969
70	0xbd6efadb	-0.058344703
71	0x3e1e98fe	0.1548805
72	0x3daf5675	0.08561412
73	0x3c8e04b9	0.017336236
74	0x3dbfc85b	0.09364387
75	0x3c7ad6a5	0.015309964
76	0xbd8b0d87	-0.067896895
77	0x3e3792ea	0.17927137
78	0xbe3d266c	-0.18471688
79	0x3e275461	0.16340782
80	0x3d24247e	0.040073864
81	0xbdfbbaca	-0.122914866
82	0xbe5c7a01	-0.21530916
83	0xbe921839	-0.28534105
84	0xbe840b9d	-0.2579011
85	0xbe13fbd1	-0.14451529
86	0xbdfd273c	-0.12360999
87	0xbd960c2b	-0.073265396
88	0xbe765019	-0.24053992
89	0x3cee8c92	0.029119764
90	0x3eac98e5	0.337104
91	0x3ee42e67	0.44566652
92	0x3e53fdf6	0.20702347
93	0x3e8bd059	0.27307394
94	0x3ec3cf97	0.38244316
95	0x3d6ff179	0.058579896
96	0x3e9e11d9	0.30872992
97	0x3e210671	0.15725113
98	0x3e911570	0.28336668
99	0x3dff8614	0.12476745
100	0x3dd64a62	0.10463406
101	0x3d89d637	0.06730311
102	0xbcfa85fd	-0.030581469
103	0xbdd1d2a5	-0.102452554
104	0x3da4bc5a	0.08043738
105	0x3e77861e	0.24172255
106	0x3cab8d14	0.020941295
107	0xbd65af0b	-0.056075137
108	0x3c7538c1	0.0149671445
109	0xbe31995b	-0.17343657
110	0xbc8788fd	-0.016544813
111	0xbde90b59	-0.113791175
112	0xbdb8ca44	-0.09022954
113	0xbdc8cbb9	-0.09804482
114	0x3dfc061d	0.123058535
115	0xbcc63fce	-0.024200346
116	0x3e20f2ac	0.15717572
117	0xbda82cd5	-0.08211676
118	0x3e3587aa	0.17727533
119	0xbe079d82	-0.13243678
120	0xbe18f836	-0.14938435
121	0xbcaddccf	-0.021223454
122	0x3d41b29b	0.047289472
123	0xbdfe5ba8	-0.12419826
124	0x3e15291e	0.14566466
125	0xbe141a6a	-0.14463201
126	0x3e1b6f89	0.15179266
127	0xbd095fe6	-0.03353872
128	0xbe11607d	-0.14196964
129	0xbce0a34c	-0.027421616
130	0xbde4f483	-0.111794494
131	0xbd06558f	-0.03279644
132	0xbdd8a747	-0.105787806
133	0x3e10908f	0.14117645
134	0x3d9503b2	0.072760954
135	0x3d637df0	0.055540025
136	0xbb80f966	-0.0039359806
137	0x3dabef27	0.08395224
138	0x3da3eda6	0.08004312
139	0x3e118c63	0.1421371
140	0xbe27af27	-0.16375409
141	0xbda618cb	-0.08110198
142	0xbdfa55dc	-0.122234076
143	0xbdcfaf90	-0.10140908
144	0xbcb69a1c	-0.022290282
145	0xbde14ed5	-0.11001364
146	0x3d708fe8	0.05873099
147	0x3d539bd6	0.05166229
148	0x3e19681f	0.14981125
149	0xbe3f3756	-0.18673453
150	0xbca47ef4	-0.020080067
151	0x3e34a53c	0.17641157
152	0xbda60b82	-0.08107664
153	0xbcecc51f	-0.028902588
154	0xbdf790cb	-0.12088164
155	0x3e1e0d8b	0.15434854
156	0x3ddcb2c0	0.10776281
157	0xbe36e652	-0.17861298
158	0x3d80e69a	0.06293984
159	0xbd00c2f8	-0.031435937
160	0x3c8761a9	0.01652606
161	0x3d8ea12b	0.06964334
162	0x3e663257	0.2248014
163	0x3ebdce13	0.37071285
164	0x3ed678a5	0.4188892
165	0xbd947411	-0.072487004
166	0x3dfa1ab0	0.122121215
167	0x3e8082a9	0.25099686
168	0xbeaf237b	-0.34206757
169	0xbdd1aa46	-0.10237555
170	0x3c8598fe	0.016308304
171	0x3da57874	0.08079615
172	0xbc4637ec	-0.012098294
173	0xbdfe4571	-0.12415589
174	0xbd0a133e	-0.033709757
175	0xbcf13c5f	-0.029447732
176	0xbe1b457f	-0.1516323
177	0xbeadb5ad	-0.3392767
178	0xbe56399a	-0.20920411
179	0xbaacbec2	-0.0013179409
180	0x3eae1f07	0.34008047
181	0x3e416035	0.18884356
182	0x3e76fba0	0.24119425
183	0xbd280a8d	-0.041025687
184	0xbd3bfca6	-0.04589524
185	0x3e2d9b60	0.16953802
186	0xbe181648	-0.1485225
187	0x3aadacd7	0.0013250363
188	0x3e3e50d4	0.18585521
189	0xb802314e	-3.1040334e-05
190	0xbebbc1a6	-0.3667118
191	0xbd2b4e8d	-0.04182296
192	0x3d96d8b6	0.07365553
193	0xbe8797fe	-0.26483148
194	0xbe90f1a5	-0.2830936
195	0x3e01113e	0.12604234
196	0x3cfcd8dc	0.030865125
197	0x3d09a4df	0.0336045
198	0x3bb1ab10	0.0054220036
199	0xbe6db396	-0.23213038
200	0xbe2c3ff5	-0.16821273
201	0xbe289d74	-0.16466314
202	0x3ced6f75	0.02898381
203	0x3aacf6cc	0.001319611
204	0x3e7256a3	0.23665862
205	0x3d795cd8	0.06087956
206	0x3d8da0fe	0.069154724
207	0xbcf95243	-0.030434733
208	0xbe3ef26f	-0.18647169
209	0xbe011a8e	-0.12607786
210	0x3dbccca9	0.09218723
211	0xbdda0c8d	-0.10646925
212	0x3e2362f9	0.15955724
213	0x3e03cd54	0.12871295
214	0x3e49ddac	0.19713467
215	0xbb8531cc	-0.004064774
216	0xbd23e212	-0.04001052
217	0xbe0894fe	-0.13338086
218	0xbe309021	-0.17242481
219	0xbc91fbc9	-0.017820256
220	0xbe3237f5	-0.17404158
221	0xbccdba9d	-0.025113398
222	0xbdfa00f6	-0.122072145
223	0xbdba6b35	-0.09102479
224	0x3bd8d8ce	0.006617642
225	0xbd0e98a2	-0.03481353
226	0xbe2507f6	-0.16116318
227	0xbda1be65	-0.07897643
228	0xbc329267	-0.010899163
229	0xbe011c4c	-0.1260845
230	0x3da20970	0.07911956
231	0xbc59c2ad	-0.013291043
232	0xbdbd8797	-0.09254377
233	0xbdf20b47	-0.11818557
234	0xbe06175d	-0.1309485
235	0x3a947cf5	0.0011328744
236	0x3cf13418	0.029443786
237	0x3d98eb17	0.07466715
238	0xbd341f0b	-0.043974917
239	0x3cabb1de	0.020958837
240	0x3e28aff1	0.16473366
241	0x3da1a003	0.07891848
242	0xbe13778c	-0.14401072
243	0xbcb56e1c	-0.02214723
244	0xbe963553	-0.29337558
245	0x3e90c52f	0.2827544
246	0xbddda68e	-0.108227834
247	0xbeaef5e4	-0.34171975
248	0x3e8ee8fb	0.27912125
249	0xbe7d569e	-0.24740073
250	0xbe64bcb9	-0.22337617
251	0x3d73d0ba	0.05952523
252	0x3e2e20be	0.17004678
253	0xbe4c1115	-0.19928391
254	0x3cff22de	0.031144556
255	0xbc8bb981	-0.017056229

conv1.bias f4 [10]
0	0x3eb3f9f1	0.35151628
1	0xbd940fd1	-0.07229579
2	0xbd3a5282	-0.04548884
3	0x3dff2897	0.12458914
4	0xbded6470	-0.115914226
5	0xbde1fff4	-0.11035147
6	0xbc1cf694	-0.009580273
7	0x3e6c43fc	0.23072809
8	0xbe1d73ea	-0.15376249
9	0x3dc1e872	0.094681635

conv2.weight f4 [16, 10, 3, 3]
0	0x3e00563b	0.12532894
1	0x3daa1d78	0.08306402
2	0xbba786f5	-0.0051125237
3	0x3df34d70	0.118800044
4	0x3e30bd32	0.17259672
5	0x3e3071b2	0.17230871
6	0x3e0d4909	0.13797392
7	0x3d4e6cb8	0.05039665
8	0x3e2aa1ac	0.16663235
9	0xbde6f051	-0.112763055
10	0x3cad7730	0.021174997
11	0xbb8b4d67	-0.0042511704
12	0x3c916c23	0.017751759
13	0x3c8c51ec	0.017128907
14	0xbdf21bb4	-0.1182169
15	0xbdea752d	-0.11448131
16	0xbd13f9a0	-0.036126733
17	0xbd6d0c08	-0.057872802
18	0x3d7ee4d6	0.062229954
19	0x3d7532b7	0.05986282
20	0x3d9beb99	0.07613296
21	0x3c3fd0eb	0.011707525
22	0x3d5a249e	0.053257577
23	0x3cb745ac	0.02237209
24	0xbc9b94c5	-0.018991837
25	0xbdaa9e01	-0.08330918
26	0x3dc77f74	0.09741107
27	0x3d38ca09	0.04511455
28	0x3e1d4c1a	0.15361062
29	0x3d29c5ca	0.041448392
30	0xbd7ea736	-0.062171184
31	0xbddd91a9	-0.10818798
32	0x3bae5a02	0.0053207884
33	0x3d3c7248	0.046007425
34	0xbda2a34c	-0.07941303
35	0x3c1410b4	0.009037185
36	0x3d9a921a	0.07547398
37	0xbda4f6db	-0.080548964
38	0xbdb32492	-0.087472096
39	0x3cea945b	0.028635195
40	0x3db649f0	0.08900821
41	0x3c4b360b	0.012403022
42	0xbdd9f226	-0.10641889
43	0x3d1045d7	0.035222854
44	0xbdc92d34	-0.09823075
45	0xbdbcb591	-0.092143185
46	0xbd7cf294	-0.061754778
47	0xbdb94762	-0.09046818
48	0xbc68bb9c	-0.014204886
49	0x3da63ec7	0.081174426
50	0xbcc0b0fb	-0.02352189
51	0x3d90a15c	0.07062027
52	0x3d0c6fef	0.034286436
53	0xbd8d12c7	-0.06888347
54	0x3dd0e864	0.10200575
55	0x3e36a132	0.17834929
56	0xbd05623e	-0.032564394
57	0xbda651a8	-0.081210434
58	0x3dc1888d	0.09449873
59	0xbe088065	-0.13330229
60	0xbc2e9db5	-0.0106577175
61	0xbd6f157f	-0.05837011
62	0xbdd593fc	-0.104286164
63	0x3ccb952f	0.02485141
64	0x3a6aab38	0.0008951905
65	0x3dd88259	0.10571737
66	0xbda9513b	-0.082674466
67	0x3d10f8e8	0.035393625
68	0xbd9fb904	-0.07798961
69	0xbe1e5c75	-0.15464957
70	0xbdebfbc4	-0.1152263
71	0xbd412a9e	-0.047159784
72	0x3dc8e280	0.098088264
73	0xbca622a9	-0.0202802
74	0xbda67504	-0.08127788
75	0x3cb82dc6	0.022482764
76	0xbd2c05d7	-0.041997757
77	0xbda6de41	-0.0814786
78	0xbdb3b8cc	-0.087754816
79	0xbbc841b0	-0.006111346
80	0xbd6155d9	-0.05501351
81	0xbe1ce2df	-0.1532092
82	0xbe47016a	-0.19434133
83	0x3d81beb5	0.063352026
84	0xbe2f126c	-0.17096871
85	0xbe1e99a4	-0.15488297
86	0xbbcf5135	-0.0063268193
87	0x3d1eefa0	0.038802743
88	0xbdbcd53c	-0.09220359
89	0xbd3a7e08	-0.04553035
90	0xbe195a11	-0.14975764
91	0xbd1e537e	-0.038653843
92	0x3c8172c3	0.015801793
93	0xbc3f0cf9	-0.011660808
94	0x3dca6817	0.09883135
95	0x3cd255ff	0.025675772
96	0x3e2c71b8	0.16840255
97	0x3e42b27d	0.190134
98	0x3bdc3da3	0.006721215
99	0x3ddec0a0	0.10876584
100	0xbcb74b3d	-0.022374744
101	0x3df848ef	0.12123286
102	0x3d815038	0.06314129
103	0x3d8d5658	0.069012344
104	0x3d717ba5	0.058955807
105	0xbc91d05e	-0.017799553
106	0xbcbc92d7	-0.023019237
107	0x3cad3650	0.021144062
108	0xbcad78ac	-0.021175705
109	0x3da30159	0.079592414
110	0x3dd4e2bf	0.10394811
111	0x3d477e0a	0.048704185
112	0x3ce815bb	0.028330674
113	0xbcd40e96	-0.025885861
114	0xbd5acd74	-0.05341859
115	0x3d20d898	0.03926906
116	0xbdb17c6a	-0.08666308
117	0xbc531a95	-0.012884756
118	0x3e469adc	0.19395012
119	0x3ca06550	0.01957956
120	0x3d1299f8	0.035791367
121	0x3e8f617f	0.2800407
122	0x3ddff1f5	0.109348215
123	0xbddb11f3	-0.10696783
124	0x3dde8dff	0.10866927
125	0xbd29dc6c	-0.041469976
126	0x3aa36cb8	0.0012468314
127	0x3d45221d	0.048128236
128	0x3d73c6c7	0.05951574
129	0xbd9e5853	-0.0773169
130	0xbdaad0f3	-0.08340635
131	0x3d88013b	0.0664086
132	0x3c1b5d50	0.009482697
133	0x3d902347	0.070379786
134	0xbd0f2fa9	-0.03495756
135	0x3bdc0dc0	0.0067155063
136	0x3d83b089	0.06430156
137	0x3dcedb19	0.10100383
138	0xbcf7b9c0	-0.03023994
139	0x3c8ab138	0.016930208
140	0xbd9e10e6	-0.07718067
141	0x3cc67ef8	0.024230465
142	0xbb2e2e01	-0.0026577713
143	0xbc8d6d68	-0.017264083
144	0x3e273190	0.163275
145	0x3aa01e6d	0.0012216099
146	0xbe26b667	-0.16280518
147	0xbc1a0dfc	-0.009402748
148	0xbd1901d0	-0.037355244
149	0xbe555bcd	-0.208358
150	0xbd1a6b4d	-0.037699986
151	0xbaaa1a8f	-0.0012977886
152	0xbdb7a470	-0.08966911
153	0x3d88a267	0.06671601
154	0x3d78f192	0.060777254
155	0x3e158baf	0.14604066
156	0xbd4c6b2e	-0.049906902
157	0x3dfa50e4	0.1222246
158	0x3dad8c18	0.084739864
159	0xbda1747c	-0.07883546
160	0xbc221d7e	-0.009894727
161	0x3d97ee1d	0.074184634
162	0x3d1dced9	0.038527343
163	0x3d773529	0.06035343
164	0x3dd2a486	0.102852866
165	0xbd318c2b	-0.043346565
166	0x3c80fa80	0.015744448
167	0xbda4a69e	-0.08039592
168	0xbc93835e	-0.018006977
169	0x3d937c64	0.0720146
170	0x3ca0eae3	0.019643253
171	0xbdb04793	-0.08607402
172	0x3d6d7822	0.057975896
173	0x3d8075d1	0.06272472
174	0xbdc73517	-0.09726923
175	0x3dba8941	0.0910821
176	0x3dca91fb	0.09891125
177	0xbe1f7e0e	-0.1557543
178	0x3e48bd50	0.19603467
179	0xbc32fbe3	-0.010924312
180	0xbc1ac84c	-0.009447169
181	0xbd6960a6	-0.056976937
182	0x3d2ecbab	0.0426747
183	0xbd6718d2	-0.056420155
184	0xbcbbd63c	-0.022929303
185	0xbd981d27	-0.07427435
186	0xbccbd0dc	-0.024879865
187	0x3db776c6	0.08958201
188	0x3cd61311	0.026132138
189	0x3d79b7a9	0.060966168
190	0xbd925a8c	-0.07146177
191	0xbd638154	-0.05554326
192	0x3ddafce5	0.10692767
193	0x3d45990f	0.04824167
194	0x3d769688	0.06020215
195	0xbcfda539	-0.030962573
196	0xbd729e69	-0.059233103
197	0xbc4eb5d4	-0.012616593
198	0x3b8dba3a	0.0043251785
199	0xbc5a7f67	-0.013336039
200	0xbd3bc442	-0.045841463
201	0x3cee730d	0.029107595
202	0x3c51b787	0.012800104
203	0xbd2fdacf	-0.04293328
204	0x3db63d81	0.0889845
205	0xbbdd526c	-0.00675421
206	0x3d0887b2	0.033332534
207	0xbda207ed	-0.07911668
208	0xbd310000	-0.04321289
209	0xbd09e109	-0.033661876
210	0x3dc70c67	0.097191624
211	0x3db1323f	0.08652162
212	0x3e2868ba	0.164462
213	0x3db8510c	0.089998335
214	0x3e0e47ba	0.13894549
215	0x3d212865	0.039345164
216	0x3c2b0a78	0.010439508
217	0xbd0572c3	-0.03258015
218	0xbd8b2703	-0.0679455
219	0xbd037fac	-0.03210418
220	0xbd229b8e	-0.03969913
221	0xbd907042	-0.070526615
222	0xbdc04457	-0.09388035
223	0xbdbf94f5	-0.09354583
224	0x3d9b0dff	0.07571029
225	0xbd3d1f7c	-0.046172604
226	0x3d9ef241	0.0776105
227	0xbd851ce1	-0.06499649
228	0x3da3bdeb	0.07995208
229	0x3dc86781	0.09785367
230	0xbc0bf6e7	-0.008542753
231	0xbc8f32b6	-0.017480236
232	0xbd9c5cb9	-0.07634873
233	0xbd683053	-0.05668671
234	0xbdb22586	-0.08698563
235	0xbdd0488e	-0.10170089
236	0xbd8d3e84	-0.068966895
237	0x3e012e79	0.12615384
238	0xbdc3dee3	-0.09563997
239	0xbc9c774f	-0.01909986
240	0x3d8c91e3	0.06863763
241	0x3ce1f7f3	0.027584052
242	0x3df52213	0.1196939
243	0x3c434f23	0.011920723
244	0xbd6b7054	-0.05748017
245	0xbddb24ec	-0.10700402
246	0xbdb46652	-0.088085786
247	0x3df5cfa9	0.12002499
248	0x3c90cd6b	0.017676076
249	0xbd4bbd16	-0.049740873
250	0xbd41b0ef	-0.047287878
251	0x3d559aa5	0.052149434
252	0xbc29e6b5	-0.010369946
253	0x3c90b31b	0.01766353
254	0x3d49c1d0	0.0492571
255	0x3da8ef38	0.08248752

conv2.bias f4 [16]
0	0x3ece3f3e	0.40282625
1	0xbccd34f5	-0.025049666
2	0xbd786941	-0.060647253
3	0x3d03f92d	0.032220054
4	0x3e40666e	0.18789074
5	0xbdcaab49	-0.09895951
6	0x3e143537	0.14473425
7	0x3f1f7157	0.6228232
8	0x3cf36d20	0.02971512
9	0x3d7ef07f	0.062241074
10	0x3e8ac3d7	0.2710254
11	0x3deeb807	0.11656194
12	0x3e03d7e3	0.12875323
13	0x3d97a164	0.0740383
14	0xbd2cc33f	-0.04217839
15	0xbc3bf122	-0.011471065

conv3.weight f4 [32, 16, 3, 3]
0	0x3cf06bc7	0.029348267
1	0xbbe887e5	-0.007096278
2	0x3d9e5482	0.07730962
3	0xbd898613	-0.06715026
4	0x3d6757c7	0.056480195
5	0xbc6a964c	-0.01431806
6	0xbd73cc63	-0.05952109
7	0x3b2a23e9	0.0025961346
8	0xbd6f5233	-0.058428
9	0xbd25b743	-0.040457975
10	0xbd60b406	-0.054859184
11	0x3da5c58b	0.08094319
12	0x3d6a3303	0.057177555
13	0xbd8a5cb1	-0.06755961
14	0x3ccaf01f	0.024772702
15	0xbd0bae20	-0.034101605
16	0x3d991564	0.07474783
17	0xbce4d2f7	-0.027932627
18	0x3d85a566	0.06525688
19	0xbd8265a4	-0.06367043
20	0xbcd1865d	-0.025576765
21	0xbd91d45d	-0.07120583
22	0xbc75d8a9	-0.015005269
23	0xbb1378fa	-0.0022502528
24	0x3d4f9bbd	0.050685633
25	0x3d1f0486	0.038822673
26	0xbb4661b0	-0.0030270629
27	0x3d990092	0.07470812
28	0xbc59d28d	-0.013294828
29	0xbda12f6c	-0.07870373
30	0x3d947c01	0.07250214
31	0xbd89c165	-0.0672634
32	0xba8f182e	-0.001091724
33	0x3b6af5d1	0.0035852084
34	0x39c5dfb7	0.0003774145
35	0x3cde1daa	0.027113754
36	0x3cab6167	0.020920468
37	0xbd3c391c	-0.0459529
38	0xbd3f7af0	-0.0467481
39	0x3d943c70	0.0723809
40	0x3beae8f7	0.007168885
41	0x3da509af	0.080584876
42	0xbd605bb5	-0.05477496
43	0x3cc786c5	0.024356255
44	0x3d87299d	0.06599734
45	0x3c5c18eb	0.013433675
46	0xbcba7f10	-0.022765666
47	0x3d669c06	0.05630114
48	0x3c8518b6	0.016247135
49	0xbd9f63cb	-0.07782706
50	0x3d8d04eb	0.06885704
51	0xbd3310ce	-0.043717198
52	0xbd82531c	-0.06363508
53	0x3c38ab4b	0.011271308
54	0x3d3642dc	0.044497356
55	0x3d1f7649	0.038931165
56	0xbb074ba1	-0.0020644444
57	0xbd976a8a	-0.073933676
58	0x3d88b44a	0.066750124
59	0xbd63f297	-0.055651274
60	0xbd36c549	-0.04462174
61	0xbcdf7376	-0.027276736
62	0x3d1c46ec	0.038153574
63	0xbd984218	-0.074344814
64	0x3d322612	0.043493338
65	0xbd671c02	-0.056423195
66	0x3c4f59eb	0.012655715
67	0x3d40c654	0.04706414
68	0xbd3fdb9e	-0.046840303
69	0x3d1d1162	0.038346656
70	0x3b9ad9c9	0.004725669
71	0x3d5ac59b	0.053411108
72	0x3d57f8f8	0.05272767
73	0xbc44c454	-0.012009699
74	0xbd4ee4df	-0.050511237
75	0xbd859e1e	-0.06524299
76	0x3cc741b6	0.024323326
77	0xbcd466e3	-0.025927966
78	0x3d7a9f6d	0.061187197
79	0xbc9329b0	-0.017964214
80	0xbc73c2ef	-0.014878019
81	0x3d45a485	0.0482526
82	0xbda5e5d6	-0.08100478
83	0xbd5c53b6	-0.05379077
84	0x3d707197	0.058702078
85	0xba2b4209	-0.00065329723
86	0x3ccb91f0	0.024849862
87	0xbbac8683	-0.0052650585
88	0xbd08900a	-0.03334049
89	0xbda6790e	-0.08128558
90	0xbd649f01	-0.0558157
91	0x3b9a7fd6	0.0047149463
92	0x3d89da6c	0.06731114
93	0x3ce9c9c6	0.028538596
94	0x3d9d8701	0.076917656
95	0xbd30971a	-0.04311285
96	0xbda97395	-0.08273999
97	0xbca79837	-0.020458324
98	0xb90829e8	-0.00012985582
99	0xbc9d0743	-0.019168502
100	0xbd1d39b2	-0.0383851
101	0x3d69e8fd	0.05710696
102	0x3c33876e	0.010957582
103	0xbd749265	-0.059709925
104	0xbb848d3c	-0.0040451568
105	0x3cbe349a	0.023218442
106	0xbd108acd	-0.03528862
107	0xbb385791	-0.0028128366
108	0x3d8e3ae5	0.06944827
109	0xbd7da47a	-0.061924435
110	0x3c89f974	0.016842581
111	0x3d4c3ecb	0.04986457
112	0xbd4b433e	-0.049624674
113	0xbd83321e	-0.064060435
114	0xbcd9d25f	-0.02658957
115	0xbc92edcf	-0.017935662
116	0xbbec33b1	-0.0072083105
117	0xbd7326dc	-0.05936323
118	0x3d02e284	0.031954303
119	0xbd7d7970	-0.06188339
120	0xbd10d162	-0.035355933
121	0xbb8203fd	-0.0039677606
122	0xbc4adcc3	-0.012381735
123	0xbcb821f8	-0.022477135
124	0x3da7abac	0.08187041
125	0x3d13bfdd	0.036071647
126	0xbd901623	-0.07035472
127	0xbd56b92f	-0.0524227
128	0x3d18cdd8	0.037305683
129	0x3cac30f5	0.021019438
130	0x3d0ed5d2	0.034871884
131	0xbd9c7032	-0.07638587
132	0x3d87b002	0.06625368
133	0x3d13f0f4	0.036118463
134	0xbbcf7a92	-0.00633175
135	0xbda05e32	-0.07830466
136	0x3d4a323b	0.04936431
137	0x3d8fa66f	0.070141666
138	0xbcbe78a0	-0.023250878
139	0xbc8f6176	-0.017502528
140	0x3cd90850	0.026493222
141	0xbd77f903	-0.06054021
142	0x3d98fc4c	0.07469997
143	0xbd1872b0	-0.03721875
144	0x3d6ca0f7	0.057770696
145	0xbcf35ab9	-0.029706346
146	0x3da6740e	0.081276044
147	0xbc97420a	-0.018464107
148	0xbd3a846c	-0.045536444
149	0x3c91d8b8	0.017803535
150	0x3d2b72fb	0.0418577
151	0x3c02c131	0.007980631
152	0xbd2640bc	-0.04058908
153	0xbcd29b55	-0.025708834
154	0xbc33bd3a	-0.010970408
155	0xbd4c8618	-0.04993257
156	0xbb546b74	-0.003241268
157	0xbacea155	-0.0015764633
158	0x3d82e562	0.063914075
159	0xbc965bbf	-0.018354295
160	0x3cb84d0e	0.02249768
161	0x3d97bcd2	0.074090615
162	0x3b868728	0.0041054673
163	0xbd78ff9d	-0.060790647
164	0xbd10d69c	-0.035360917
165	0xbd4bdcbd	-0.04977106
166	0x3d541327	0.051776078
167	0x3d716936	0.058938228
168	0x3cd2c950	0.025730759
169	0x3d960c5f	0.07326578
170	0x3cf76f86	0.030204546
171	0xbd981371	-0.07425583
172	0x3d3c1ce8	0.045926005
173	0x3cfe9b59	0.031079935
174	0xbd45237b	-0.04812954
175	0xbd5baa29	-0.053629074
176	0x3d679c3a	0.056545474
177	0xbba68a28	-0.0050823875
178	0x3d6e8849	0.05823544
179	0x3c800af4	0.015630223
180	0xbd4856dd	-0.048910964
181	0x3db29501	0.087198265
182	0x3d5a2168	0.053254515
183	0xbd43ec8e	-0.047833018
184	0xbb1f211b	-0.0024281207
185	0x3cf6195c	0.03004139
186	0xbd29163a	-0.041280963
187	0x3d3bcfe8	0.04585257
188	0x3c844ba0	0.016149342
189	0xbcb7c47e	-0.022432562
190	0x3bcec026	0.006309527
191	0x3d3d1d2a	0.04617039
192	0x3b656d06	0.003500761
193	0xbd832fb5	-0.06405584
194	0x3da0c6f0	0.07850444
195	0x3c41b3b2	0.011822628
196	0xbbcfec71	-0.0063453247
197	0xbd45551b	-0.048176866
198	0xbd6dd552	-0.058064766
199	0xba8368cf	-0.0010025742
200	0x3cc1420f	0.02359107
201	0x3d022d3c	0.03178142
202	0x3d0e3459	0.03471789
203	0x3d489c8b	0.048977416
204	0xbce9d781	-0.028545143
205	0x3d5f56a3	0.054525983
206	0xbc87a107	-0.016556276
207	0x3daf4fdf	0.08560156
208	0x3d2f5ce7	0.042813208
209	0x3d9ae7d7	0.07563751
210	0xbd657ccb	-0.056027215
211	0x3dd2373c	0.10264441
212	0x3dd22539	0.10261006
213	0x3d020dde	0.031751506
214	0x3d14b0cb	0.036301415
215	0x3daececf	0.08535539
216	0xbc13fea1	-0.009032876
217	0xbb003d16	-0.001956766
218	0x3d383699	0.044973943
219	0xbd3f2921	-0.046670083
220	0x3cae4b77	0.021276219
221	0x3d21887e	0.03943681
222	0x3d5d2454	0.053989723
223	0x3d8654f8	0.06559175
224	0xbbef2633	-0.007298255
225	0x3d5352db	0.05159269
226	0x3d508c1b	0.050914865
227	0x3c4f79c5	0.012663309
228	0x3d9eda68	0.077565014
229	0xbd20f794	-0.03929861
230	0x3d236c0b	0.03989796
231	0x3d2a4bfb	0.041576367
232	0xbd004f83	-0.03132583
233	0x3cae747e	0.021295782
234	0x3c422367	0.011849261
235	0xbbec56bd	-0.0072124884
236	0x3dadb34b	0.08481463
237	0x3d9173fa	0.07102199
238	0x3ce4c4f9	0.027925955
239	0x3d7097bb	0.05873845
240	0xbc86ce3a	-0.016455758
241	0xbca31491	-0.019907268
242	0x3cd99a42	0.026562814
243	0x3d806253	0.06268754
244	0x3d89fac7	0.06737285
245	0x3b528bfc	0.0032126894
246	0x3b923cc0	0.0044628084
247	0xbd658ecd	-0.05604439
248	0xbd058a94	-0.03260286
249	0x3ce44166	0.027863216
250	0x3d23d085	0.03999378
251	0x3d870895	0.06593434
252	0xbc19333a	-0.009350592
253	0x3d15eab2	0.036600776
254	0x3da07258	0.07834309
255	0x3cb2b840	0.021816373

conv3.bias f4 [32]
0	0xbd1c34b3	-0.038136195
1	0x3e13f876	0.14450249
2	0x3dce7f70	0.100829005
3	0xbd706ca3	-0.058697354
4	0xbd40b55b	-0.047047954
5	0xbd398c49	-0.045299802
6	0x3d980642	0.074230686
7	0x3e5d856d	0.21632929
8	0x3d916685	0.07099632
9	0xbc5f897f	-0.0136436215
10	0xbd803d21	-0.062616594
11	0xbd797440	-0.06090188
12	0x3e2f1a99	0.1709999
13	0xbd9bead8	-0.07613152
14	0xbda11bbd	-0.07866619
15	0x3ab209c4	0.0013583233
16	0x3cb7f900	0.0224576
17	0xbc506dd6	-0.012721499
18	0x3dd5cb0f	0.10439121
19	0xbd4c8172	-0.049928136
20	0x3cc8c26f	0.024506776
21	0x3d7392ee	0.059466295
22	0x3eb49149	0.35267094
23	0xbd5f2a69	-0.054483805
24	0xbda9cbb5	-0.08290807
25	0x3d1bc95f	0.03803384
26	0x3de5451d	0.11194823
27	0xba2f8db9	-0.00066968385
28	0xbb811b75	-0.0039400407
29	0xbcd2be40	-0.025725484
30	0xbd3a2053	-0.045440983
31	0xbd7df18a	-0.061997928

conv4_1.weight f4 [2, 32, 1, 1]
0	0x3d2eefcc	0.042709157
1	0x3b4c3fa8	0.0031165872
2	0x3e3e920a	0.18610397
3	0xbeb3cf10	-0.35118914
4	0x3c92b066	0.017906379
5	0xbdf90fd3	-0.12161221
6	0x3db84b24	0.08998707
7	0x3e592abd	0.2120771
8	0xbf43b573	-0.76448745
9	0xbe87b8ff	-0.26508328
10	0xbdbd3df6	-0.09240334
11	0xbdf92fb6	-0.12167303
12	0xbdd99cef	-0.10625636
13	0xbdf2c870	-0.11854637
14	0xbd840064	-0.06445387
15	0xbf0d1019	-0.5510269
16	0x3d8571eb	0.06515869
17	0x3e0a8c55	0.13530095
18	0x3e43e523	0.19130377
19	0xbd2acbf6	-0.04169842
20	0x3e324cfe	0.17412183
21	0xbb56a485	-0.003275187
22	0x3f0e1d2d	0.5551327
23	0xbe0bfbe0	-0.13670301
24	0xbca14d8f	-0.019690303
25	0x3d112b34	0.035441592
26	0x3e5829fc	0.21109766
27	0x3eabc31c	0.33547294
28	0xbf167d8c	-0.5878532
29	0x3e5b334e	0.2140629
30	0xbd50302e	-0.050827198
31	0xbe7becae	-0.24602005
32	0x3ca6edb5	0.02037702
33	0xbd0da5f8	-0.03458211
34	0x3d54b60b	0.051931422
35	0x3eb37589	0.3505061
36	0x3ca963dd	0.020677501
37	0xbe2fc0ff	-0.17163466
38	0xbea3146e	-0.31851524
39	0xbda3f1ad	-0.0800508
40	0x3f407cda	0.7519051
41	0x3e299a0f	0.16562675
42	0xbb0b32ba	-0.0021239952
43	0x3ea0b021	0.31384376
44	0xbd045806	-0.03231051
45	0x3db6554b	0.08902987
46	0x3da920f9	0.08258242
47	0x3ef823ce	0.48464817
48	0x3dbd7f1e	0.09252761
49	0x3df4b57a	0.119486764
50	0xba2f2c12	-0.0006682287
51	0x3df04a25	0.11732892
52	0xbe29c134	-0.16577607
53	0xbce5b6b4	-0.028041221
54	0xbf187344	-0.5955088
55	0x3e0ce9e1	0.13761093
56	0x3d8213ab	0.063514076
57	0xbe87dbeb	-0.26534972
58	0x3a881149	0.0010381128
59	0xbee91897	-0.45526573
60	0x3f152143	0.5825388
61	0xbec0d44e	-0.37661976
62	0xbe07585a	-0.13217297
63	0x3eba6d79	0.36411646

conv4_1.bias f4 [2]
0	0x3cefb1f8	0.029259667
1	0x3dff4663	0.12464597

conv4_2.weight f4 [4, 32, 1, 1]
0	0xbdc078fe	-0.093980774
1	0xbd84ddb6	-0.064876005
2	0xbe21aeca	-0.15789333
3	0x3d14caca	0.036326207
4	0xbcdc0cca	-0.026861567
5	0xbe1b6496	-0.15175089
6	0xbe15e2d3	-0.14637308
7	0x3d0f220f	0.03494459
8	0xbce597f3	-0.028026557
9	0x3df74d4c	0.1207529
10	0xbe19068d	-0.14943905
11	0x3dff939b	0.124793254
12	0x3ddb4160	0.10705829
13	0x3dde27e8	0.10847455
14	0x3e34a2c4	0.17640215
15	0xbd848803	-0.06471255
16	0x3e2919f5	0.16513808
17	0x3e1cf4a6	0.15327701
18	0xbdde6f7a	-0.10861106
19	0xbd9b7bfc	-0.075920075
20	0x3df200b9	0.11816544
21	0x3e2f5ecb	0.17126004
22	0xbd646432	-0.055759616
23	0x3dc8b27c	0.09799668
24	0xbe1d490e	-0.153599
25	0xbe452640	-0.19252872
26	0x3dc199c6	0.09453158
27	0x3d7be5c5	0.061498422
28	0xbde559fc	-0.11198804
29	0x3dafaaa3	0.08577468
30	0xbdc19cd9	-0.094537444
31	0x3c6daf1c	0.014507081
32	0x3d2a7b34	0.041621402
33	0xbd62ad70	-0.055341184
34	0xbe2fdcca	-0.17174068
35	0x3d99a2b1	0.07501734
36	0xbdf93921	-0.121690996
37	0x3ce5444c	0.027986668
38	0xbd28739f	-0.04112589
39	0xbc8f984d	-0.017528677
40	0x3d876919	0.06611843
41	0x3d0d99ad	0.034570385
42	0x3d90e7a8	0.07075435
43	0xbe290333	-0.16505127
44	0x3ddd4cc7	0.1080566
45	0xbe0edb52	-0.13950852
46	0x3e097d43	0.1342669
47	0xbbe1c096	-0.006889413
48	0x3e1e382c	0.15451115
49	0xbc283e1b	-0.010268713
50	0x3c3b4ad4	0.011431415
51	0xbd5c95f1	-0.053853933
52	0x3d7c3666	0.061575316
53	0x3d97e206	0.074161574
54	0x3d92f9ed	0.07176576
55	0x3dcfb2cb	0.10141524
56	0x3d9e52cd	0.07730637
57	0x3e272992	0.16324452
58	0xbdae9eb4	-0.08526364
59	0x3e3c17ce	0.18368456
60	0xbb16f8e6	-0.0023036539
61	0xbe05d6c5	-0.1307021
62	0xbdbe6b28	-0.09297782
63	0x3c3112f1	0.010807739
64	0x3e32b2d5	0.17451032
65	0x3db5f5d7	0.08884781
66	0xbc93f33e	-0.018060323
67	0xbdb5c4e4	-0.088754445
68	0x3e19e87f	0.15030096
69	0xbe03744e	-0.12837335
70	0xbdf5ebd6	-0.12007873
71	0x3e052508	0.13002408
72	0x3df84a2d	0.12123523
73	0x3bdfb631	0.006827139
74	0xbdc51a75	-0.09624187
75	0xbdf8a18c	-0.121401876
76	0x3d9b9dc4	0.07598451
77	0x3e29ac45	0.16569622
78	0x3dd41b7f	0.10356807
79	0x3d983174	0.074313074
80	0xbcb009cd	-0.021489048
81	0xbe23e1af	-0.1600406
82	0x3e2e7a24	0.1703878
83	0x3e227235	0.15863879
84	0x3e088668	0.13332522
85	0x3de9d418	0.11417407
86	0x3e71f4a4	0.23628479
87	0xbdb04c98	-0.08608359
88	0xbda36d51	-0.07979835
89	0x3dae84f0	0.085214496
90	0x3d862fa0	0.065520525
91	0xbc800625	-0.01562793
92	0xbd5099b5	-0.050927836
93	0xbdf68920	-0.12037873
94	0x3e05af89	0.13055243
95	0x3db38c6f	0.0876702
96	0x3e054c2b	0.13017337
97	0xbd5f5d49	-0.054532323
98	0xbd3d0b62	-0.046153434
99	0xbd9fb7eb	-0.077987514
100	0x3e04318a	0.12909523
101	0xbda92a39	-0.082600065
102	0x3dc576fa	0.096418336
103	0x3e719d2a	0.2359511
104	0xbc6bc45e	-0.014390079
105	0xbdb9717f	-0.09054851
106	0xbc0777ff	-0.008268355
107	0x3d8a067d	0.06739519
108	0x3dbc0dc7	0.09182315
109	0xbdfc57a0	-0.12321401
110	0xbe353169	-0.1769463
111	0x3cc14528	0.023592547
112	0x3c8f3b15	0.017484227
113	0x3debc5c2	0.11512329
114	0x3c582462	0.013192268
115	0xbe17672f	-0.14785455
116	0x3db87494	0.090066105
117	0xbe24ce6b	-0.16094367
118	0x3e4648f8	0.19363773
119	0x3d8e09a8	0.069354355
120	0xbdf7cda4	-0.1209977
121	0xbd4be2a6	-0.049776696
122	0x3de4d10c	0.11172685
123	0xba02713f	-0.00049759814
124	0x3e11eda3	0.14250807
125	0xbe2f2ba4	-0.17106491
126	0x3d3e9367	0.046527293
127	0xbcf05e86	-0.029341947

conv4_2.bias f4 [4]
0	0x3dcd0027	0.10009795
1	0xbd34a3b5	-0.044101436
2	0x3efa7abd	0.48921767
3	0x3f0643fd	0.5244749

conv4_3.weight f4 [10, 32, 1, 1]
0	0x3e1e7739	0.15475167
1	0x3dc1928b	0.09451779
2	0xbdfdb14f	-0.123873346
3	0xbd51235e	-0.05105912
4	0xbe031a89	-0.12803091
5	0x3ccecb7d	0.025243515
6	0xbd48f100	-0.04905796
7	0xbdbdc98e	-0.09266959
8	0x3cee55d4	0.02909366
9	0x3e12565c	0.14290756
10	0x3d21bd7a	0.03948734
11	0xbd800bf8	-0.06252283
12	0x3e0da7b8	0.13833511
13	0x3e14ef30	0.14544368
14	0x3d8f0467	0.069832616
15	0x3dd5688f	0.104203336
16	0xbcbed3d3	-0.023294365
17	0xbe0d6a19	-0.13810004
18	0xbd438a15	-0.047739107
19	0x3cfdafde	0.03096765
20	0x3e147e68	0.14501345
21	0x3d594974	0.053048566
22	0x3d45dd92	0.04830701
23	0xbd4fd339	-0.050738547
24	0x3e0b4342	0.13599876
25	0x3d91da0e	0.07121669
26	0x3e25f169	0.16205372
27	0x3c523b8c	0.01283158
28	0xbdc88d1d	-0.0979254
29	0xbe0edafc	-0.13950723
30	0xbcf59342	-0.029977445
31	0xbe084bce	-0.13310167
32	0x3d88e828	0.06684905
33	0xbacd26d7	-0.0015651834
34	0x3d688142	0.056763895
35	0xbdcccbf0	-0.099998355
36	0xbdcd54a3	-0.10025909
37	0x3e28eafb	0.16495888
38	0x3d873ba2	0.06603171
39	0x3dd7e69f	0.10542034
40	0x3e2f6675	0.17128928
41	0x3df98e5e	0.121853575
42	0x3d9c442b	0.076301895
43	0x3d4fe193	0.050752234
44	0x3d8e718c	0.06955251
45	0xbe0c96bf	-0.1372938
46	0xbc11c7e4	-0.008897755
47	0xbde75297	-0.1129505
48	0x3bb4dd66	0.005519557
49	0x3ce5d925	0.028057644
50	0xbdfc9048	-0.12332207
51	0x3d5161ed	0.05111878
52	0xbdbb2e8c	-0.091397375
53	0x3d06f8e8	0.03295222
54	0x3db051ae	0.08609329
55	0x3d07687f	0.03305864
56	0x3b05dbac	0.0020425124
57	0x3d1f05f7	0.038824048
58	0xbd342bdc	-0.04398714
59	0xbe0b3ab2	-0.13596609
60	0xbdd83038	-0.10556072
61	0x3db6c1c1	0.089236744
62	0xbe20700c	-0.15667742
63	0xbd063da1	-0.032773618
64	0xbd45f7d3	-0.048332047
65	0x3c51906c	0.0127907805
66	0xbc21dddf	-0.009879558
67	0x3cc8afd8	0.024497911
68	0x3e20626b	0.15662543
69	0xbbd3a771	-0.0064591696
70	0x3d4b5292	0.049639292
71	0x3e097776	0.13424477
72	0x3ded16d1	0.115766175
73	0x3e359233	0.17731552
74	0x3dbbea47	0.09175544
75	0x3d952313	0.072820805
76	0x3c2c085c	0.01050004
77	0x3e331a58	0.17490518
78	0xbe1c06c3	-0.15236954
79	0xbddca899	-0.10774345
80	0xbe291874	-0.16513234
81	0x3e0fe7b7	0.14053236
82	0xbccf622c	-0.025315367
83	0xbdf4c263	-0.11951139
84	0xbd9d46eb	-0.07679542
85	0xbbee1b03	-0.0072664036
86	0x3e315982	0.17319301
87	0xbdcc57e4	-0.09977701
88	0xbd53643b	-0.05160926
89	0xbe1a659e	-0.15077826
90	0x3d8030cb	0.062593065
91	0xbd1ed192	-0.03877408
92	0xbd8b47a5	-0.068007745
93	0xbd52cf2c	-0.051467106
94	0xbe009c66	-0.12559661
95	0xbcc33805	-0.023830423
96	0x3e1f7486	0.15571794
97	0x3e08da5e	0.1336455
98	0x3c3ed5d8	0.011647664
99	0xbe211af1	-0.15732934
100	0x3dd39f40	0.10333109
101	0xbcf9f15c	-0.030510597
102	0xbe175613	-0.14778928
103	0x3dbab157	0.09115856
104	0xbdc78315	-0.09741799
105	0xbd3159f0	-0.04329866
106	0xbe1e16bd	-0.15438361
107	0x3d1055ba	0.035238005
108	0x3cc1681f	0.02360922
109	0xbe26f612	-0.16304806
110	0x3e186099	0.14880599
111	0xbc32b2a6	-0.010906851
112	0x3dfb625c	0.1227462
113	0x3e31f0ce	0.17377016
114	0xbe19ea21	-0.1503072
115	0x3d4e91e6	0.05043211
116	0xbd933f7c	-0.07189843
117	0xbceda53a	-0.02900945
118	0x3d1f6b28	0.03892055
119	0x3beb8753	0.0071877628
120	0x3d637bf1	0.05553812
121	0x3e31d96b	0.17368095
122	0x3e1c7c53	0.15281801
123	0xbe08294f	-0.13297008
124	0x3db0d2bf	0.086339466
125	0xbd9db6b9	-0.07700867
126	0x3d63e37f	0.05563688
127	0x3ddc9359	0.10770292
128	0xbe0bedf1	-0.13664986
129	0xbd5a5fb3	-0.053313922
130	0x3e03abfc	0.12858576
131	0x3cc505ea	0.024050672
132	0x3c777a97	0.015104911
133	0x3db093b7	0.08621924
134	0x3cbb566b	0.022868356
135	0x3e153464	0.14570767
136	0x3a50043d	0.0007935202
137	0x3d2c6083	0.04208423
138	0xbe043d8c	-0.12914103
139	0x3e04e7c9	0.12979044
140	0x3e03e6b9	0.12880982
141	0x3d98a5d7	0.074535064
142	0xbe0ffa7b	-0.14060394
143	0xbd9a00ad	-0.0751966
144	0xbdb22574	-0.0869855
145	0x3cc99e2b	0.024611553
146	0xbdf3dfb9	-0.11907906
147	0x3dfd1d11	0.123590596
148	0xbe066b53	-0.13126878
149	0xbe00dcc9	-0.12584223
150	0x3e2ed4d3	0.17073373
151	0xbe09b22f	-0.13446878
152	0xbcee9c80	-0.02912736
153	0xbe104936	-0.14090428
154	0xbe10a077	-0.14123712
155	0xbe3bf9a5	-0.1835695
156	0xbd653eb7	-0.055968013
157	0x3da766b8	0.08173889
158	0x3be5a9e0	0.007008776
159	0xbd833a87	-0.064076476
160	0xbdb1f374	-0.08689013
161	0x3e5212bf	0.20514964
162	0x3d9cdb95	0.076590694
163	0xbdb0c691	-0.086316235
164	0xbdafe1d0	-0.08587992
165	0xbde7cffa	-0.11318965
166	0xbda96f05	-0.082731284
167	0x3d930936	0.07179491
168	0x3db5f285	0.088841476
169	0xbd51575b	-0.0511087
170	0xbe1d4852	-0.1535962
171	0xbd51fc3c	-0.05126594
172	0x3e4d812d	0.20068808
173	0x3dc944d1	0.09827579
174	0xbd9068d1	-0.07051242
175	0x3ddee8ae	0.10884224
176	0x3de51d5c	0.111872405
177	0x3e057e08	0.13036358
178	0x3dcc84fd	0.09986303
179	0xbddc15d1	-0.10746349
180	0xbdb9fcc4	-0.09081414
181	0x3e108366	0.14112625
182	0x3e0f71e0	0.14008284
183	0x3cacdea8	0.021102265
184	0x3e01a99a	0.12662354
185	0xbdb4376d	-0.08799634
186	0xbcf7ff2b	-0.03027304
187	0xbda12b38	-0.078695714
188	0xbe0018c7	-0.12509452
189	0xbc0548c7	-0.008135027
190	0xbd999dd3	-0.07500806
191	0xbd50f48e	-0.051014476
192	0x3d1c7c24	0.038204327
193	0xbc46014f	-0.012085273
194	0x3da91d7e	0.08257578
195	0xbd70d4da	-0.05879674
196	0x3dd3c31c	0.103399485
197	0x3e2ddeb4	0.16979486
198	0xbdce604e	-0.100769624
199	0xbd2c3b77	-0.042048898
200	0x3e0696be	0.13143441
201	0xbe288c53	-0.1645978
202	0xbdd75568	-0.10514337
203	0xbd30db6f	-0.04317802
204	0xbcb15b1d	-0.021649892
205	0x3e12f2d6	0.14350447
206	0x3d86c0cd	0.065797426
207	0xbd8d286e	-0.06892477
208	0xbe11128f	-0.14167236
209	0x3e2b132c	0.16706532
210	0xbe26a3d3	-0.16273431
211	0x3e1a2435	0.15052874
212	0x3e0faace	0.1403
213	0x3e389619	0.18026008
214	0xbd983c05	-0.07433323
215	0x3e0cc559	0.13747157
216	0x3d05edaf	0.032697376
217	0x3e1f7e8e	0.1557562
218	0xbd3d6681	-0.046240333
219	0x3e0615d3	0.13094263
220	0x3d3d8f5b	0.046279293
221	0x3d74e461	0.05978811
222	0x3defca59	0.11708517
223	0x3d0f4768	0.034980208
224	0x3e0f8c5a	0.14018384
225	0x3e0dfc14	0.13865691
226	0x3d62fd90	0.055417597
227	0x3d0ff633	0.035146903
228	0x3e31387c	0.17306703
229	0x3ceaa76f	0.028644292
230	0x3e3e03b5	0.18556102
231	0xbd8592dd	-0.065221526
232	0x3df661ae	0.1203035
233	0xbd8fc4c7	-0.07019954
234	0x3e177ffe	0.14794919
235	0xbce49c68	-0.027906612
236	0x3e039065	0.12848051
237	0xbe0b72ed	-0.1361806
238	0x3de59a14	0.11211029
239	0xbe072c81	-0.1320057
240	0xbe32441f	-0.17408799
241	0xbdd5a977	-0.104327135
242	0xbd5afbcb	-0.053462785
243	0x3e1e7a95	0.15476449
244	0xbd8e0458	-0.06934422
245	0x3e074261	0.13208915
246	0xbc1148ca	-0.008867452
247	0x3d5bdaaf	0.05367535
248	0xbdba0e21	-0.09084726
249	0x3de503e1	0.111823805
250	0x3e51b817	0.20480381
251	0x3c83c048	0.016082898
252	0x3db82c77	0.08992856
253	0xbdc60667	-0.0966919
254	0xbe062790	-0.1310103
255	0x3df2d77d	0.118575074

conv4_3.bias f4 [10]
0	0x3dc72d43	0.0972543
1	0x3e44a080	0.19201851
2	0x3e7e321c	0.24823803
3	0x3e55d2cc	0.20881194
4	0x3e580921	0.21097232
5	0x3e414efe	0.1887779
6	0x3e64c174	0.22339422
7	0x3e6aeb5d	0.22941346
8	0x3e08d634	0.13362962
9	0x3ea2ad56	0.3177287
