Pytorch face detection - Test/MTCNN_train_process/1/checkpoint_100.pth (torch, 70099 bytes, 24 tensors)

conv1.weight f4 [10, 3, 3, 3]
-0.086857654 -0.12863949 -0.15696113 0.1905617 -0.04235595 0.12485299 0.13027072 0.06966583
0.0812584 -0.020460913 -0.109702185 0.025987532 -0.015035236 -0.046006523 -0.094896406 -0.037444986
-0.18078962 -0.044889614 -0.14650667 -0.058994424 -0.12463934 -0.0153612485 -0.16000706 0.09333148
0.030822076 -0.048131876 0.15600148 0.026623132 0.043471504 0.06469766 -0.09043494 -0.08048137
-0.0539314 -0.13893858 0.044826746 -0.17175701 -0.004646984 -0.1492129 -0.091635324 -0.19159909
-0.14885905 -0.10929345 -0.16479152 -0.14672787 0.049521472 -0.0057812515 0.16082332 -0.091795415
-0.1040032 0.15881361 0.122793965 -0.1302037 -0.07943811 -0.19202735 -0.119625166 -0.084166214
0.074958324 -0.06495754 0.12112794 -0.026330344 0.07141937 -0.004622137 -0.04093584 -0.025477113
-0.12792602 -0.055396285 0.08772021 -0.1743689 0.08933615 0.16766375 -0.038976777 0.14757821
0.00024307308 0.1208479 -0.16617182 -0.17364068 0.08120931 0.057491433 0.14297777 0.19009207
0.043414064 -0.116739124 0.17318167 0.11668362 -0.18926236 0.044149116 -0.01741691 0.056073856
0.14277254 -0.07634854 0.07801554 0.0002642831 0.017519139 -0.16447668 -0.10135881 -0.17415106
-0.019220006 -0.0545669 0.0498734 0.02713867 0.08574176 -0.15429527 -0.0500252 -0.17888227
-0.041755166 0.07292104 -0.18527603 0.10870076 -0.17675646 0.17236373 -0.16870101 -0.07148164
0.10427032 0.017092302 0.120528296 0.18557256 -0.018334003 0.1186314 -0.17010787 0.0533284
0.025891684 -0.067405514 0.19026463 -0.12605165 -0.07541041 -0.18521552 0.09968795 -0.058128152
-0.19178683 0.15813972 0.13909137 0.009862238 -0.01834099 -0.060118433 -0.023363855 0.04083237
0.04902008 0.15333676 0.031565778 -0.19098108 -0.18251817 -0.004210861 0.07497052 -0.061561145
-0.10338106 0.015440445 0.13957904 -0.14433704 -0.18059754 0.18963061 0.06608543 -0.1468465
-0.12022549 -0.1863035 -0.191416 0.13622195 0.067203805 -0.09673902 -0.094301425 -0.020538066
0.14501184 0.08137604 -0.17034541 -0.116470516 0.11738956 -0.12782505 -0.0541894 -0.06467082
-0.08527163 -0.18772082 0.150466 0.02385602 -0.014796271 0.03331375 -0.12413571 0.08193058
-0.038318567 -0.07693892 0.12651509 0.107290424 -0.02303253 -0.000796565 0.24666943 0.18513472
0.13208374 0.15546723 -0.07693285 -0.024282435 0.13511936 -0.08383762 0.13554294 -0.13129118
-0.17287774 -0.0631267 0.034737173 0.022659153 0.048297923 0.12028603 -0.074758716 -0.13637385
-0.14536385 0.1904958 0.11518933 0.1823271 -0.05472271 -0.040162712 -0.028247727 -0.19188948
-0.067848526 -0.17684363 0.013480746 -0.040929142 -0.15078573 -0.17615911 -0.06669645 0.01023909
-0.010796742 -0.06515483 0.061448444 -0.10724319 -0.15205626 0.08029067 -0.15959899 0.047276817
-0.112336904 -0.08744809 -0.15467669 -0.16081195 0.09925905 -0.17406513 -0.15905288 -0.18063426
0.0050221314 -0.16173874 0.085603416 0.15355898 -0.15398462 -0.07017048 0.1774454 0.055893376
-0.045168314 -0.13025646 0.09842389 -0.107557386 0.15483728 -0.14442782 -0.07956503 0.016265985
-0.17359948 -0.09498889 -0.008766145 0.17615327 -0.047864534 -0.17177047 -0.16471854 0.10040451
00000000: 6de2 b1bd 12ba 03be 6bba 20be 9b22 433e
00000010: 6f7d 2dbd edb2 ff3d b065 053e f5ac 8e3d
00000020: ce6a a63d a59d a7bc 8aab e0bd cee3 d43c
00000030: 5a56 76bc 5671 3cbd 0c59 c2bd ea5f 19bd
00000040: ea20 39be 2cde 37bd d805 16be 23a4 71bd
00000050: e942 ffbd bfad 7bbc e4d8 23be 9324 bf3d
00000060: 947e fc3c ee25 45bd dabe 1f3e c118 da3c
00000070: 2d0f 323d 3580 843d f435 b9bd 6bd3 a4bd
00000080: 2ce7 5cbd ea45 0ebe 409c 373d 12e1 2fbe
00000090: ba45 98bb 44cb 18be 4dab bbbd 8d32 44be
000000a0: 826e 18be 3fd5 dfbd 1cbf 28be d53f 16be
000000b0: 07d7 4a3d a770 bdbb deae 243e 3cff bbbd
000000c0: a1ff d4bd 09a0 223e 677b fb3d 1e54 05be
000000d0: 73b0 a2bd d1a2 44be 0afe f4bd 565f acbd
000000e0: c083 993d 7508 85bd ed11 f83d bcb2 d7bc
000000f0: 5244 923d 4c75 97bb 57ac 27bd 61b5 d0bc
00000100: 0aff 02be 37e7 62bd a7a6 b33d c38d 32be
00000110: dff5 b63d 0cb0 2b3e 1da6 1fbd be1e 173e
00000120: 6fe1 7e39 1b7f f73d f228 2abe ddce 31be
00000130: 1151 a63d 237c 6b3d c468 123e 7fa7 423e
00000140: f2d2 313d ec14 efbd 8956 313e d2f7 ee3d
00000150: fecd 41be b4d5 343d e8ad 8ebc b3ad 653d
00000160: f732 123e a05c 9cbd 9dc6 9f3d 7a8f 8a39
00000170: 4c84 8f3c 936c 28be 3595 cfbd a854 32be
00000180: 4673 9dbc 8b81 5fbd 0d48 4c3d eb51 de3c
00000190: 6099 af3d 94ff 1dbe 39e7 4cbd ea2c 37be
000001a0: 7707 2bbd a057 953d 00b9 3dbe 819e de3d
000001b0: a5ff 34be 1e80 303e f5bf 2cbe f764 92bd
000001c0: ad8b d53d 2805 8c3c 8ad7 f63d bc06 3e3e
000001d0: 3131 96bc 05f5 f23d c230 2ebe e16e 5a3d
000001e0: cc1a d43c e70b 8abd bbd4 423e af13 01be
000001f0: c670 9abd 23a9 3dbe 3229 cc3d c917 6ebd
00000200: c463 44be 61ef 213e f86d 0e3e 3995 213c
00000210: d83f 96bc bf3e 76bd 8e65 bfbc d83f 273d
00000220: 48c9 483d 5004 1d3e 1e4b 013d 8b90 43be
00000230: 0be6 3abe 43fb 89bb 258a 993d 8a27 7cbd
00000240: 73b9 d3bd ecf9 7c3c cfed 0e3e 17cd 13be
00000250: 90ee 38be 872e 423e cc57 873d ee5e 16be
00000260: c838 f6bd 58c6 3ebe 8e02 44be c47d 0b3e
00000270: 26a2 893d 1b1f c6bd 1b21 c1bd 723f a8bc
00000280: fc7d 143e 7ba8 a63d 076f 2ebe 1888 eebd
00000290: f069 f03d 92e4 02be b4f5 5dbd 2372 84bd
000002a0: e4a2 aebd e339 40be c213 1a3e b36d c33c
000002b0: 0f6c 72bc 0074 083d dd3a febd 38cb a73d
000002c0: eef3 1cbd 2792 9dbd 2c8d 013e 15bb db3d
000002d0: b7ae bcbc 92d0 50ba e996 7c3e f593 3d3e
000002e0: f640 073e cd32 1f3e f88e 9dbd f5eb c6bc
000002f0: bb5c 0a3e 0fb3 abbd c5cb 0a3e 3271 06be
00000300: dd06 31be 9248 81bd 9148 0e3d b09f b93c
00000310: 0bd4 453d 8658 f63d 191b 99bd 96a5 0bbe
00000320: 43da 14be 5511 433e 62e8 eb3d f5b3 3a3e
00000330: ec24 60bd a881 24bd c767 e7bc ad7e 44be
00000340: 2bf4 8abd 7f16 35be 59de 5c3c 51a5 27bd
00000350: 9367 1abe 0e63 34be 2698 88bd dbc1 273c
00000360: d1e4 30bc e56f 85bd 5db1 7b3d 51a2 dbbd
00000370: a3b4 1bbe 6f6f a43d eb6d 23be 56a5 413d
00000380: e410 e6bd fc17 b3bd 9163 1ebe e3ab 24be
00000390: 5448 cb3d 213e 32be c2de 22be 30f8 38be
000003a0: b190 a43b d79e 25be d850 af3d 913e 1d3e
000003b0: 25ae 1dbe 8ab5 8fbd 3fb4 353e 74f0 643d
000003c0: 6902 39bd f361 05be 7792 c93d 0c47 dcbd
000003d0: aa8d 1e3e e3e4 13be fef2 a2bd 3e40 853c
000003e0: 10c4 31be 8989 c2bd e19f 0fbc 8661 343e
000003f0: 9a0d 44bd 99e4 2fbe faab 28be e1a0 cd3d

conv1.bias f4 [10]
-0.13362925 -0.15166694 -0.18275121 -0.09359152 -0.19138315 -0.03837251 0.02179935 -0.046299826
0.32502815 -0.07172723
00000000: 1bd6 08be 944e 1bbe 2223 3bbe e9ac bfbd
00000010: f2f9 43be 7e2c 1dbd 8d94 b23c e3a4 3dbd
00000020: 176a a63e bae5 92bd

conv2.weight f4 [16, 10, 3, 3]
0.052051008 -0.04518851 -0.0048186197 -0.08206213 0.09070763 0.07409403 -0.04954193 -0.06191595
-0.06493992 -0.008726244 -0.036479276 -0.08420222 0.049239997 -0.10061515 -0.068959 -0.08195927
-0.011701653 0.03519581 0.07652552 0.067802496 0.053062227 -0.08086461 -0.009144891 0.083292186
0.0040278467 -0.022799898 0.085673794 -0.0874268 0.07680141 -0.08829332 -0.09595724 0.05203945
-0.064032674 -0.057730284 -0.08377855 0.018026404 0.014282952 0.036990922 -0.016404703 -0.019272966
-0.086898685 0.028363952 -0.08147096 0.097525306 -0.036629777 0.097770214 0.048598018 -0.059183154
0.038486615 0.028989667 -0.07130483 -0.09523506 0.012530963 -0.07085717 0.09626486 0.060072806
-0.028506342 -0.063222475 0.024508096 -0.013940218 -0.027635502 0.09692288 -0.08870047 0.014046831
0.002327714 0.0034392618 -0.102630235 -0.025348134 -0.019040486 0.050842445 0.011862943 -0.052718364
0.038260728 -0.05026077 -0.08022949 0.021984795 -0.010703307 -0.06382387 -0.10473729 0.021125125
-0.055243745 -0.08300417 0.0015441249 0.06623779 0.07313453 -0.0038613798 -0.07781042 -0.051753826
0.033528294 0.0069607054 0.03736818 -0.043651745 -0.07058201 -0.008318386 0.099841446 0.0055352394
0.02418513 -0.018167937 0.0010658505 0.07971897 0.06959736 0.00865115 -0.07888742 -0.0895531
0.07800242 0.058906585 -0.023308598 -0.08887645 0.09678915 0.010381606 0.030928934 -0.07291643
0.0952891 -0.08893515 0.013641338 -0.0873729 -0.027428905 -0.07980631 0.08608887 0.06926957
0.07358303 0.019163992 0.03683897 0.09632314 0.050861333 0.044386357 -0.0049603316 -0.053676892
0.022513473 0.018231204 0.09769051 0.06108401 0.061629567 -0.095083766 -0.06933937 0.10237283
-0.07659423 -0.09315487 0.015547772 0.03976758 0.08864193 0.041098226 -0.03133133 -0.045964863
-0.051702734 0.025269544 0.0009941544 -0.09592032 0.02327238 -0.016967038 -0.040585537 0.054749664
-0.059942745 0.03038077 -0.083822116 0.025589522 0.025122577 -0.07741505 -0.10178713 -0.060782813
-0.0053696553 -0.083299786 0.101139516 -0.054440543 -0.07032621 0.06769804 -0.0943385 -0.08130515
0.0999404 0.009906607 -0.03844665 0.05503215 0.10054922 0.011475134 -0.06078617 0.065810606
0.09384283 0.016220272 -0.01972945 -0.07924379 0.03143072 -0.09596493 0.083914384 0.058582794
-0.041655134 -0.04247537 0.06572081 -0.07239011 0.012162827 0.0464721 -0.09963419 -0.09221145
-0.05856367 -0.028600404 -0.045564763 -0.0076267393 -0.040171124 0.041049607 -0.07275903 0.0013155885
-0.050019696 -0.06388869 0.0024260886 0.08195485 -0.0129259005 0.010565855 -0.027045736 -0.07524922
-0.06418964 0.0059632077 0.031522438 -0.08700177 -0.0765571 0.0080597615 -0.06929832 0.033054657
0.027060302 -0.07286057 -0.056991972 -0.0010315009 0.009324644 -0.011648754 0.072675325 -0.04071139
-0.028515775 0.071608655 0.046332408 0.08054374 0.035601184 0.06534279 -0.071516596 0.04035636
0.0063869995 -0.059297785 0.005367882 0.11386093 0.0694253 0.11232004 0.114228286 -0.045013037
0.025426993 0.12799634 0.11853587 0.041772265 0.027968861 -0.05668344 -0.06188315 -0.06794107
-0.064405724 0.01361757 -0.019668063 -0.0054506487 0.06821623 -0.008177844 0.100596875 0.054686256
00000000: 7033 553d 9617 39bd 83e5 9dbb 3110 a8bd
00000010: ecc4 b93d 9cbe 973d 7bec 4abd 949b 7dbd
00000020: 39ff 84bd 85f8 0ebc 4b6b 15bd 3772 acbd
00000030: e1af 493d 510f cebd 603a 8dbd 43da a7bd
00000040: 4ab8 3fbc 7b29 103d 69b9 9c3d 09dc 8a3d
00000050: c757 593d 589c a5bd 74d4 15bc 1895 aa3d
00000060: 07fc 833b dac6 babc be75 af3d d20c b3bd
00000070: 0f4a 9d3d 21d3 b4bd 3b85 c4bd 5127 553d
00000080: 9023 83bd 9776 6cbd 1794 abbd 1cac 933c
00000090: 0b03 6a3c cb83 173d 2863 86bc 57e2 9dbc
000000a0: f0f7 b1bd 855b e83c 3fda a6bd 59bb c73d
000000b0: 1b09 16bd c03b c83d b70e 473d 096a 72bd
000000c0: 24a4 1d3d bd7b ed3c 4408 92bd 990a c3bd
000000d0: ab4e 4d3c 901d 91bd 8326 c53d e70e 763d
000000e0: 2286 e9bc c97a 81bd 34c5 c83c 8365 64bc
000000f0: d963 e2bc 817f c63d 98a8 b5bd ae24 663c
00000100: 908c 183b 3d65 613b cd2f d2bd e4a6 cfbc
00000110: cbfa 9bbc 2b40 503d ca5c 423c 36ef 57bd
00000120: 48b7 1c3d 3dde 4dbd 5c4f a4bd 7519 b43c
00000130: ec5c 2fbc 17b6 82bd 8180 d6bd 990e ad3c
00000140: 4447 62bd 17fe a9bd 3c64 ca3a aea7 873d
00000150: 8ec7 953d 340f 7dbb 125b 9fbd d2fb 53bd
00000160: f754 093d a116 e43b 600f 193d 2ccc 32bd
00000170: 4d8d 90bd d749 08bc ac79 cc3d f460 b53b
00000180: e51f c63c edd4 94bc 02b4 8b3a b343 a33d
00000190: 1089 8e3d 8ebd 0d3c ba8f a1bd 9e67 b7bd
000001a0: bcbf 9f3d 0848 713d acf1 bebc db04 b6bd
000001b0: 6439 c63d 9d17 2a3c ad5e fd3c 3655 95bd
000001c0: ef26 c33d a223 b6bd eb7f 5f3c 90f0 b2bd
000001d0: 95b2 e0bc 7e71 a3bd 5d4f b03d 34dd 8d3d
000001e0: b3b2 963d cefd 9c3c 76e4 163d 1145 c53d
000001f0: f953 503d 78ce 353d 478a a2bb 4ddc 5bbd
00000200: 2d6e b83c 9b59 953c f611 c83d 3a33 7a3d
00000210: 496f 7c3d 47bb c2bd cd01 8ebd d9a8 d13d
00000220: 70dd 9cbd fbc7 bebd 15bc 7e3c 54e3 223d
00000230: e689 b53d 9d56 283d 4855 00bd a745 3cbd
00000240: 3fc6 53bd 1302 cf3c 494e 823a df71 c4bd
00000250: b8a5 be3c 75fe 8abc 053d 26bd 2f41 603d
00000260: 8686 75bd 18e1 f83c eeaa abbd 1ea1 d13c
00000270: ddcd cd3c c88b 9ebd c575 d0bd 66f7 78bd
00000280: eff3 afbb 1499 aabd 3c22 cf3d 0cfd 5ebd
00000290: 3007 90bd 45a5 8a3d 8b34 c1bd 5183 a6bd
000002a0: 8dad cc3d 524f 223c 3c7a 1dbd 6469 613d
000002b0: c0ec cd3d 3302 3c3c ebfa 78bd b6c7 863d
000002c0: ab30 c03d 60e0 843c a89f a1bc 914a a2bd
000002d0: 80bd 003d 4389 c4bd 4edb ab3d 83f4 6f3d
000002e0: 939e 2abd a7fa 2dbd a298 863d 4441 94bd
000002f0: 9846 473c 8759 3e3d 030d ccbd 5bd9 bcbd
00000300: 75e0 6fbd 654b eabc 1ea2 3abd bae9 f9bb
00000310: 7a8a 24bd a223 283d b002 95bd d36f ac3a
00000320: 74e1 4cbd 13d8 82bd 03ff 1e3b f2d7 a73d
00000330: 28c7 53bc 681c 2d3c 058f ddbc 431c 9abd
00000340: dc75 83bd 0367 c33b ac1d 013d fc2d b2bd
00000350: f8c9 9cbd 170d 043c 47ec 8dbd 5264 073d
00000360: 91ad dd3c ec37 95bd 6a70 69bd 6d33 87ba
00000370: 64c6 183c 6ada 3ebc cdd6 943d fdc0 26bd
00000380: ea99 e9bc 8fa7 923d 0dc7 3d3d 1ef4 a43d
00000390: 8cd2 113d 71d2 853d 4b77 92bd b64c 253d
000003a0: 094a d13b 3ce2 72bd 0fe5 af3b eb2f e93d
000003b0: da2e 8e3d 0d08 e63d 85f0 e93d 975f 38bd
000003c0: 454c d03c 7911 033e efc2 f23d 6519 2b3d
000003d0: f41e e53c e52c 68bd 3079 7dbd b024 8bbd
000003e0: 26e7 83bd 3a1c 5f3c eb1e a1bc 5b9b b2bb
000003f0: f3b4 8b3d 5dfc 05bc bc05 ce3d b2fe 5f3d

conv2.bias f4 [16]
-0.0801155 -0.010673935 0.12737092 -0.068416946 0.24065968 -0.104184836 0.021470848 -0.024702996
-0.0980093 0.06016052 -0.08727152 0.1570198 0.039733727 0.15351026 0.102387816 0.0060615484
00000000: 9813 a4bd bae1 2ebc 866d 023e 2f1e 8cbd
00000010: 7e6f 763e dc5e d5bd a2e3 af3c f05d cabc
00000020: 1ab9 c8bd e16a 763d 69bb b2bd ccc9 203e
00000030: d5bf 223d cb31 1d3e b4b0 d13d f49f c63b

conv3.weight f4 [32, 16, 3, 3]
-0.06161841 -0.0701968 0.08087301 -0.0623499 0.05991045 0.044552896 -0.014900484 0.019273669
0.02545099 0.0029675516 0.0027534466 0.07930605 -0.02297099 0.07072669 -0.05790697 -0.005324316
-0.030477647 -0.038278013 -0.024585476 -0.06928058 -0.04667975 0.011410337 -0.041878223 0.027043277
-0.0065285238 -0.044008706 0.08053686 -0.037307188 -0.034430787 -0.021621918 -0.07360235 0.004082368
0.046073254 -0.06446086 0.07793266 -0.0020909063 -0.07495432 0.07403357 0.04594295 -0.0005931708
0.06786966 0.038973615 0.025427971 0.07813691 -0.08358098 -0.06440013 -0.0042248173 0.06900214
-0.026354333 -0.0667785 -0.04667663 -0.07893072 0.03759709 0.0053196154 -0.05979226 0.027181355
0.024788028 0.061923202 0.045681816 0.081962354 0.02003931 -0.081632145 -0.008486765 0.015138993
-0.034653172 -0.046371207 -0.048647553 0.049694747 -0.06260782 -0.049053732 -0.048174504 0.07736019
-0.0058576176 -0.009003923 0.009073963 0.077897266 0.056094065 -0.065186694 0.065637514 -0.07975948
0.03820622 -3.6492766e-05 -0.0073941685 0.0086992225 -0.013040149 0.04725265 0.07802976 -0.03600101
-0.040933587 -0.01792512 -0.06302543 -0.034650896 -0.071583174 0.06611934 0.06250577 -0.04448196
-0.068897024 -0.014861361 0.07091624 0.03880337 0.07607976 -0.013773924 0.07081501 0.077081
0.041084375 -0.060477052 0.078611724 -0.057661574 -0.05218157 0.0009897181 0.026876416 0.004650525
-0.03668607 -0.047055043 0.020186013 -0.05470324 0.034509465 0.0239381 0.021162005 -0.07942991
-0.0634506 -0.06280053 0.053318363 -0.019652948 0.0014069546 0.047598902 0.077847384 0.020916652
-0.028181687 -0.049274776 -0.013808753 -0.075799026 0.037411217 -0.027349481 -0.05380745 -0.002246693
-0.03827187 0.06718326 0.06533437 -0.013347456 0.04289665 -0.06369145 0.036883503 0.044965517
-0.0651405 -0.043626264 -0.010357882 -0.05693806 -0.04784324 -0.06469681 -0.08105177 -0.008904867
0.065005586 0.07161525 0.0031338376 0.0670598 -0.033315234 -0.030088061 -0.03180407 -0.032609906
-0.010880122 -0.059112944 -0.008471059 0.01306269 0.07841323 0.07685828 -0.065865114 0.06383218
-0.06815578 0.012838118 -0.025558947 0.012177308 -0.008962686 -0.022338519 -0.049755022 0.039083507
-0.038609948 0.07140524 -0.047119506 -0.023824735 0.0054575466 0.027178444 -0.084240206 0.05568483
0.05598957 0.024832865 0.019614328 0.0022884714 0.051030893 0.028961062 0.014134875 -0.079899535
-0.08314215 0.082160786 -0.023533028 0.072868966 0.04503448 0.060335875 -0.059541803 -0.0033226288
-0.07176445 0.007793672 0.06260075 -0.056829788 -0.08260206 0.056737386 0.066529445 0.01198199
0.074026704 0.049049523 0.056492176 -0.056020092 -0.06858017 -0.06935072 -0.004175357 -0.009993252
0.02756928 0.031949244 -0.0041938643 0.006859768 -0.04650274 0.022038713 0.0021327357 -0.079991095
-0.053289644 -0.05051167 0.07459384 -0.035085674 -0.07848723 -0.010616382 -0.035720196 -0.03494031
0.032054033 -0.021234842 -0.023146948 0.05348157 0.0223713 0.01568677 -0.056114834 -0.024495805
-0.05267061 0.0251124 -0.0498577 0.069059946 0.07518362 0.017855184 -0.059813358 0.0016860261
-0.027803361 0.036989905 0.032477763 0.020017784 0.024429575 -0.06883837 -0.02802965 -0.035589628
00000000: 9663 7cbd 57c3 8fbd c0a0 a53d 9c62 7fbd
00000010: a964 753d 197d 363d 2921 74bc d0e3 9d3c
00000020: 987e d03c 417b 423b 2b73 343b 366b a23d
00000030: a82d bcbc 28d9 903d dc2f 6dbd 9a77 aebb
00000040: 42ac f9bc 68c9 1cbd 7b67 c9bc fae2 8dbd
00000050: 4433 3fbd 6cf2 3a3c 8088 2bbd dd89 dd3c
00000060: 3aed d5bb 7942 34bd 82f0 a43d 6ccf 18bd
00000070: 4c07 0dbd 7320 b1bc d4bc 96bd 63c5 853b
00000080: 4fb7 3c3d 0e04 84bd 299b 9f3d 9607 09bb
00000090: a781 99bd ea9e 973d ad2e 3c3d 057f 1bba
000000a0: 40ff 8a3d cca2 1f3d 524e d03c 3f06 a03d
000000b0: 812c abbd 37e4 83bd 5670 8abb fe50 8d3d
000000c0: 0be5 d7bc 2bc3 88bd fe2f 3fbd 6ea6 a1bd
000000d0: 68ff 193d 2b50 ae3b bbe8 74bd 6fab de3c
000000e0: 4310 cb3c 2fa3 7d3d db1c 3b3d e1db a73d
000000f0: 7b29 a43c c12e a7bd 130c 0bbc 8a09 783c
00000100: 7cf0 0dbd bcef 3dbd a842 47bd b88c 4b3d
00000110: 8738 80bd 91ec 48bd a152 45bd 056f 9e3d
00000120: 42f1 bfbb 3185 13bc f6aa 143c 9a88 9f3d
00000130: e4c2 653d 9a80 85bd f66c 863d f058 a3bd
00000140: 207e 1c3d cf0f 19b8 c84a f2bb 2f87 0e3c
00000150: 59a6 55bc ff8b 413d 11ce 9f3d cc75 13bd
00000160: faa9 27bd b4d7 92bc 7a13 81bd 19ee 0dbd
00000170: 339a 92bd 9469 873d 0603 803d b732 36bd
00000180: e219 8dbd 117d 73bc 893c 913d 48f0 1e3d
00000190: b5cf 9b3d 06ac 61bc 7607 913d a5dc 9d3d
000001a0: 1748 283d c9b6 77bd 2fff a03d 8b2e 6cbd
000001b0: 58bc 55bd 6eb9 813a ee2b dc3c 6e63 983b
000001c0: 2244 16bd cabc 40bd 235d a53c 8110 60bd
000001d0: cc59 0d3d d619 c43c f15b ad3c 26ac a2bd
000001e0: 63f2 81bd 909d 80bd 5b64 5a3d 38ff a0bc
000001f0: 9069 b83a 11f7 423d 736e 9f3d 6659 ab3c
00000200: 48dd e6bc 59d4 49bd 1c3e 62bc 853c 9bbd
00000210: 813c 193d 050c e0bc 3365 5cbd 413d 13bb
00000220: f7c2 1cbd 6197 893d 07ce 853d 4aaf 5abc
00000230: 66b4 2f3d aa70 82bd 2813 173d c32d 383d
00000240: 6268 85bd 74b1 32bd 1bb4 29bc e237 69bd
00000250: 46f7 43bd c37f 84bd 78fe a5bd b8e5 11bc
00000260: a621 853d 04ab 923d 1261 4d3b a656 893d
00000270: 8e75 08bd 3d7b f6bc fc44 02bd f791 05bd
00000280: 8a42 32bc 6a20 72bd 32ca 0abc e504 563c
00000290: 1e97 a03d e067 9d3d 4ae4 86bd 72ba 823d
000002a0: 4295 8bbd f856 523c ff60 d1bc 5583 473c
000002b0: 3bd8 12bc 45ff b6bc eccb 4bbd 0716 203d
000002c0: 7725 1ebd e93c 923d 6200 41bd 172c c3bc
000002d0: 38d5 b23b 54a5 de3c 2186 acbd c715 643d
000002e0: 5255 653d 4b6e cb3c 3aae a03c 2efa 153b
000002f0: c505 513d c03f ed3c f695 673c 5ea2 a3bd
00000300: 6e46 aabd ea43 a83d 56c8 c0bc 533c 953d
00000310: 1376 383d c022 773d 1be2 73bd 76c0 59bb
00000320: 3df9 92bd 0f62 ff3b d234 803d 5ac6 68bd
00000330: 452b a9bd 7665 683d 9740 883d 1c50 443c
00000340: 509b 973d 27e8 483d 5764 673d 5375 65bd
00000350: c373 8cbd c007 8ebd 6fd1 88bb bdba 23bc
00000360: f8d8 e13c 36dd 023d af6c 89bb e8c7 e03b
00000370: a879 3ebd 888a b43c 5ec5 0b3b 5fd2 a3bd
00000380: 3e46 5abd 53e5 4ebd a8c4 983d ffb5 0fbd
00000390: eabd a0bd 55f0 2dbc 574f 12bd 921d 0fbd
000003a0: 174b 033d b1f4 adbc ab9e bdbc 7e0f 5b3d
000003b0: 0444 b73c 8b81 803c abd8 65bd 6dab c8bc
000003c0: 23bd 57bd 85b8 cd3c 9637 4cbd 4d6f 8d3d
000003d0: dff9 993d 0945 923c dafe 74bd a6fd dc3a
000003e0: e0c3 e3bc ba82 173d 6707 053d 56fc a33c
000003f0: 8820 c83c 22fb 8cbd 709e e5bc 6ec6 11bd

conv3.bias f4 [32]
-0.06333626 0.024243603 -0.078681916 -0.018475214 -0.049495224 0.1004453 -0.029925605 0.30874017
-0.014048962 -0.0036996228 -0.039972786 -0.064214446 -0.048671342 0.0050978195 0.033079047 0.11222661
-0.064785175 -0.016655099 0.21779497 0.05804999 -0.10103311 -0.07547012 0.16147129 -0.0042699706
-0.0818516 0.1335037 -0.032765683 -0.04049715 0.17142697 -0.036268096 -0.046833552 0.11004552
00000000: 71b6 81bd 859a c63c fc23 a1bd 5559 97bc
00000010: 81bb 4abd 44b6 cd3d 8b26 f5bc 3113 9e3e
00000020: 9e2d 66bc 5f75 72bb 81ba 23bd dd82 83bd
00000030: 9a5b 47bd 9c0b a73b e57d 073d 11d7 e53d
00000040: 17ae 84bd 4670 88bc a505 5f3e d4c5 6d3d
00000050: 72ea cebd 1490 9abd bb58 253e 1ceb 8bbb
00000060: d0a1 a7bd 32b5 083e 4f35 06bd 57e0 25bd
00000070: 8d8a 2f3e db8d 14bd 8ad4 3fbd 8c5f e13d

conv4_1.weight f4 [2, 32, 1, 1]
0.16203801 0.05125725 -0.15741025 -0.053576108 -0.07307741 0.019192604 0.11231408 0.0135551095
0.14692771 -0.051853746 -0.03856893 -0.17297548 0.065650776 0.0053242967 0.066750005 -0.060577486
-0.06258558 -0.11530756 -0.27053803 0.13607864 0.21026978 -0.0071202787 0.09612075 0.014731584
0.02132186 -0.004244225 -0.07906151 -0.044893097 0.17291015 -0.043019194 -0.16509496 0.061880533
-0.117511325 0.041567534 0.13134325 0.056670614 0.005675301 0.077086054 -0.12509038 0.08696827
0.16389619 -0.10449091 0.03889287 -0.077480815 -0.1269859 0.08147399 0.084491976 -0.051862143
0.17285025 -0.10929993 0.12558888 -0.15586063 -0.10456355 0.10703491 -0.14184475 -0.114184216
-0.043186884 -0.19817834 0.006668065 0.12363536 0.15695885 -0.043621577 -0.14813174 -0.08093077
00000000: 4bed 253e 1ff3 513d 2730 21be 9f72 5bbd
00000010: 9ca9 95bd cf39 9d3c ed04 e63d 4016 5e3c
00000020: 3874 163e 9864 54bd 74fa 1dbd 7c20 31be
00000030: ea73 863d 7077 ae3b 3ab4 883d 1920 78bd
00000040: de2c 80bd 5f26 ecbd f683 8abe 3358 0b3e
00000050: f650 573e 3a51 e9bb f5da c43d be5c 713c
00000060: 2eab ae3c 2413 8bbb 00eb a1bd d3e1 37bd
00000070: 5c0f 313e e534 30bd a70e 29be 7176 7d3d
00000080: c7a9 f0bd b842 2a3d d87e 063e 721f 683d
00000090: e0f7 b93b 4bdf 9d3d b117 00be 6c1c b23d
000000a0: 67d4 273e 55ff d5bd 214e 1f3d 43ae 9ebd
000000b0: 9708 02be d6db a63d 210a ad3d 666d 54bd
000000c0: a8ff 303e a4d8 dfbd 5f9a 003e ee99 1fbe
000000d0: 6a25 d6bd 1e35 db3d c03f 11be 6ad9 e9bd
000000e0: bbe4 30bd 43ef 4abe c97f da3b 8934 fd3d
000000f0: d2b9 203e 8aac 32bd d9af 17be 08bf a5bd

conv4_1.bias f4 [2]
-0.11656744 0.0781968
00000000: e9ba eebd a525 a03d

conv4_2.weight f4 [4, 32, 1, 1]
-0.010167122 0.10711808 -0.11893429 0.034140103 0.03274905 -0.05887879 0.011439919 0.12405564
-0.15366383 0.038654283 -0.05562459 0.17358667 -0.14928584 -0.14426053 -0.011736069 0.09951235
0.081479214 0.06196929 0.17549366 0.15072106 0.010120148 -0.068945244 0.027535448 -0.024974663
-0.05137469 0.011091452 0.13016756 -0.055742703 -0.009327719 0.06726783 0.075841576 0.06494771
0.044921704 0.1524004 0.017828958 -0.12213634 -0.06797048 -0.13733801 0.15253103 -0.055290643
0.0014080752 0.11088531 -0.1312552 -0.12594499 -0.16245417 0.15061104 -0.14519113 -0.1454447
0.15015328 -0.17557466 -0.021977399 -0.12952554 -0.028029418 0.035534993 0.02787845 -0.14485726
0.064640515 0.07869277 -0.14300083 0.107140005 0.19215888 0.13324551 0.1690581 -0.021484395
-0.11569095 0.043371018 0.17266893 0.04355431 0.010196355 0.1263178 -0.024842175 0.105983205
-0.15779407 -0.020998558 -0.06214483 0.014855443 -0.12728798 0.11825327 -0.04752403 0.069740154
0.07905123 -0.068937406 0.01808182 0.087019205 0.13016379 -0.1642609 0.247123 -0.07676471
0.007866899 0.08405026 -0.093316555 0.09905706 0.041488044 0.16507527 0.13356687 0.11151416
-0.039861992 0.10713821 -0.037144896 -0.042006362 0.03834042 -0.12299413 -0.016046401 0.19193618
-0.10325936 -0.17295508 -0.11324049 -0.081371784 0.03923886 -0.10580249 -0.079610236 0.008390054
0.01169413 -0.049260415 0.05378882 -0.04576329 -0.07175944 0.1409157 0.060342975 0.0008339325
0.08812682 0.018197255 0.03265811 -0.06518185 0.025044769 0.14157587 0.045971397 -0.026322506
00000000: 0094 26bc b960 db3d d293 f3bd 7ed6 0b3d
00000010: de23 063d e32a 71bd 7f6e 3b3c e210 fe3d
00000020: 0d5a 1dbe f453 1e3d 9cd6 63bd b4c0 313e
00000030: 63de 18be 08b9 13be a448 40bc 22cd cb3d
00000040: 93de a63d 83d3 7d3d 9cb4 333e 9f56 1a3e
00000050: face 253c 2a33 8dbd 0592 e13c aa97 ccbc
00000060: 446e 52bd ecb8 353c a54a 053e 7652 64bd
00000070: 4ad3 18bc b7c3 893d d452 9b3d 4e03 853d
00000080: d2ff 373d da0e 1c3e 090e 923c 9e22 fabd
00000090: 1b34 8bbd 56a2 0cbe 1831 1c3e 7178 62bd
000000a0: 2a8f b83a d617 e33d c367 06be b9f7 00be
000000b0: 635a 26be c839 1a3e fcac 14be 75ef 14be
000000c0: c8c1 193e d8c9 33be f209 b4bc 58a2 04be
000000d0: f39d e5bc 248d 113d 5961 e43c 7655 14be
000000e0: 3f62 843d ad29 a13d cf6e 12be 386c db3d
000000f0: 4cc5 443e 8371 083e 911d 2d3e 0b00 b0bc
00000100: 60ef ecbd cfa5 313d 20d0 303e 0166 323d
00000110: 9d0e 273c 7459 013e d181 cbbc b90d d93d
00000120: c594 21be 2b05 acbc 948b 7ebd 3e64 733c
00000130: c857 02be c52e f23d 8fa8 42bd edd3 8e3d
00000140: 9ce5 a13d 0e2f 8dbd 5320 943c 2037 b23d
00000150: a849 053e 0234 28be d00d 7d3e d136 9dbd
00000160: 2ae4 003c 8b22 ac3d c01c bfbd 6ede ca3d
00000170: 5eef 293d 7e09 293e c1c5 083e 8961 e43d
00000180: 5446 23bd 476b db3d 3f25 18bd dd0e 2cbd
00000190: d80a 1d3d 59e4 fbbd be73 83bc eb8a 443e
000001a0: a579 d3bd 231b 31be a1ea e7bd 40a6 a6bd
000001b0: edb8 203d faae d8bd b10a a3bd 7076 093c
000001c0: bc98 3f3c 4ac5 49bd aa51 5c3d 4a72 3bbd
000001d0: 9df6 92bd 354c 103e 322a 773d 439c 5a3a
000001e0: d67b b43d 6912 953c 83c4 053d 107e 85bd
000001f0: b02a cd3c 44f9 103e 814c 3c3d 4ca2 d7bc

conv4_2.bias f4 [4]
-0.055840857 0.072135665 0.60633224 0.7093914
00000000: 62b9 64bd ddbb 933d 9738 1b3f ad9a 353f

conv4_3.weight f4 [10, 32, 1, 1]
0.15776946 0.042996876 0.13642097 -0.04030875 0.108175404 -0.0028966526 -0.08772167 0.22993241
0.12992403 -0.010538815 0.06396532 0.0940262 0.16801153 0.04169039 0.109234266 -0.03208631
-0.1714307 -0.060530145 0.048232783 0.16877975 0.10442093 -0.14355981 -0.018553885 -0.15984246
0.057725206 0.010818816 0.024465807 -0.10451668 -0.13610347 -0.09924027 -0.08887263 0.057449933
0.019279465 -0.11984903 0.17085348 -0.065356456 0.007542368 0.023563152 -0.021638593 0.11786461
0.039327536 -0.12688406 0.16638924 0.022272564 -0.052550826 0.112374716 0.039680097 0.07945407
0.057533335 0.106521435 0.17048492 -0.15653938 -0.05459388 -0.17203832 0.10298334 -0.10878099
0.15310158 0.19495876 -0.039197348 -0.0021125267 0.1826388 -0.058106873 -0.023147058 -0.08168059
0.17628433 -0.13475837 0.12098649 0.16836753 -0.08697309 0.21603787 -0.1326199 0.115969114
-0.11552092 -0.13218513 0.1456534 -0.06508885 -0.13876058 -0.17239946 0.03863034 0.044217408
-0.11855603 -0.0643987 0.18593171 -0.03729495 -0.166 0.0711796 -0.061341632 0.08912603
-0.1566961 -0.056450687 0.023346595 0.14127168 0.0320876 -0.09565011 -0.12766314 0.11310911
-0.112729475 -0.028188683 0.0793795 -0.018148838 0.06147889 -0.04672538 -0.08840192 0.0038391429
0.1233028 0.11669946 -0.16853705 -0.040769026 0.129033 0.0043493086 -0.05677693 0.002582156
-0.053942837 -0.018327747 0.13926078 -0.14695293 0.105445184 0.030709963 0.12208162 -0.17426784
0.03750846 0.17069128 0.025327375 -0.012134267 0.09846177 -0.1476082 0.023170184 0.112830766
0.11520261 -0.105101876 0.013146484 0.076107115 0.13484831 -0.10021638 0.13947394 0.1723798
-0.11986277 0.13240768 -0.17445667 0.06125256 -0.084825866 -0.10762726 -0.16028954 0.03511583
-0.102593414 -0.17317659 0.014331096 0.079489194 -0.029870436 0.009453052 0.058542106 -0.10116777
0.12722036 0.0073291934 0.016480524 -0.14414676 0.17550974 -0.0069544534 -0.051209133 0.1277894
0.15785113 -0.05865906 0.118360676 0.12747374 0.1250468 0.17581248 -0.16937014 0.23315556
0.031343132 -0.09866498 -0.055991754 0.021359622 -0.07105616 -0.1604562 0.04237536 -0.11842663
-0.11969855 -0.033304375 0.027757755 -0.12021621 -0.06388834 -0.02213955 -0.01518772 0.037240446
0.066423535 -0.12025409 -0.07448889 -0.105398476 0.16342026 -0.122895025 -0.10481646 0.1316488
0.07683596 -0.113474734 0.13819665 -0.14030932 -0.039975885 -0.14815877 0.14924365 0.20344634
0.09068854 0.042350788 0.083446205 -0.03568504 -0.13667692 0.033130124 0.0915358 0.10408766
0.15676212 0.092516944 0.094513886 0.12067185 0.15052225 0.091776654 0.0021340281 0.11191571
-0.15270968 0.019788 -0.14714192 -0.081224665 0.1733205 -0.023723617 0.010667606 -0.14528567
0.0943374 0.05426637 0.08606346 0.10866575 0.032828264 0.09062685 -0.13374567 0.15431516
0.15984838 0.12509187 0.14528812 -0.0985015 -0.093110055 -0.073516935 -0.046047654 0.030930953
0.08809924 0.006278616 -0.12921476 0.108415425 0.13063046 -0.07949509 0.05084189 -0.03763322
-0.0962288 0.086064644 -0.09336122 -0.17061919 0.0825495 -0.118064515 -0.13437995 0.22669156
00000000: 518e 213e 7e1d 303d f0b1 0b3e ca1a 25bd
00000010: 118b dd3d c4d5 3dbb 6ba7 b3bd 6773 6b3e
00000020: ce0a 053e feaa 2cbc 4000 833d cf90 c03d
00000030: 370b 2c3e 8bc3 2a3d 37b6 df3d ef6c 03bd
00000040: 888b 2fbe 75ee 77bd bd8f 453d 99d4 2c3e
00000050: a4da d53d 5801 13be 51fe 97bc bead 23be
00000060: 4471 6c3d 6741 313c 846c c83c d70c d6bd
00000070: b55e 0bbe 7c3e cbbd da02 b6bd 9f50 6b3d
00000080: f8ef 9d3c 6973 f5bd 37f4 2e3e 9bd9 85bd
00000090: f825 f73b 8307 c13c 6b43 b1bc 0063 f13d
000000a0: e915 213d e5ed 01be f161 2a3e f474 b63c
000000b0: 893f 57bd b724 e63d 9987 223d d1b8 a23d
000000c0: 13a8 6b3d e927 da3d 9993 2e3e dc4b 20be
000000d0: d59d 5fbd d02a 30be eee8 d23d 91c8 debd
000000e0: a9c6 1c3e 45a3 473e 668d 20bd 5172 0abb
000000f0: aa05 3b3e 7901 6ebd e69e bdbc 2748 a7bd
00000100: e183 343e 19fe 09be c4c7 f73d 8a68 2c3e
00000110: f31e b2bd 0839 5d3e 83cd 07be 3781 ed3d
00000120: 3b96 ecbd 8a5b 07be 2a26 153e 4e4d 85bd
00000130: 4117 0ebe 7c89 30be d93a 1e3d 501d 353d
00000140: 81cd f2bd 77e3 83bd e264 3e3e 97c2 18bd
00000150: e7fb 29be 9cc6 913d 5d41 7bbd b587 b63d
00000160: f174 20be d638 67bd 5c41 bf3c 86a9 103e
00000170: 4a6e 033d 34e4 c3bd 20ba 02be c0a5 e73d
00000180: b6de e6bd f4eb e6bc b891 a23d dfac 94bc
00000190: 4ad1 7b3d 1d63 3fbd 110c b5bd 219a 7b3b
000001a0: 2e86 fc3d 2000 ef3d fa94 2cbe 6cfd 26bd
000001b0: 3a21 043e a584 8e3b ed8e 68bd 6439 293b
000001c0: 2af3 5cbd 1224 96bc 619a 0e3e d47a 16be
000001d0: a5f3 d73d 7693 fb3c ee05 fa3d 4573 32be
000001e0: 79a2 193d b2c9 2e3e 5b7b cf3c cece 46bc
000001f0: 53a6 c93d 9b26 17be 66cf bd3c d113 e73d
00000200: 59ef eb3d a73f d7bd 5a64 573c 0cde 9b3d
00000210: ad15 0a3e 3f3e cdbd 42d2 0e3e 5584 303e
00000220: 9d7a f5bd e195 073e c5a4 32be f7e3 7a3d
00000230: 2fb9 adbd ae6b dcbd f122 24be 9ed5 0f3d
00000240: 7f1c d2bd 3455 31be f9cc 6a3c 3bcb a23d
00000250: d8b2 f4bc f9e0 1a3c d9c9 6f3d 0c31 cfbd
00000260: 0e46 023e bb29 f03b 2a02 873c 359b 13be
00000270: d3b8 333e 2fe2 e3bb abc0 51bd 39db 023e
00000280: baa3 213e 7c44 70bd 1567 f23d 7a88 023e
00000290: 450c 003e 3008 343e 5e6f 2dbe 55c0 6e3e
000002a0: a861 003d dd10 cabd 9c57 65bd 60fa ae3c
000002b0: e485 91bd a14e 24be c991 2d3d a989 f2bd
000002c0: 8324 f5bd 2b6a 08bd 3b64 e33c eb33 f6bd
000002d0: e4d7 82bd 005e b5bc ead5 78bc 7089 183d
000002e0: 1009 883d c747 f6bd a28d 98bd 28db d7bd
000002f0: a457 273e 63b0 fbbd 03aa d6bd f1ce 063e
00000300: 2c5c 9d3d 7165 e8bd 6c83 0d3e 3fad 0fbe
00000310: c1bd 23bd efb6 17be 54d3 183e 3d54 503e
00000320: eaba b93d 0578 2d3d d8e5 aa3d 7a2a 12bd
00000330: 09f5 0bbe 74b3 073d 1f77 bb3d e92b d53d
00000340: 4086 203e 8679 bd3d 7f90 c13d ce22 f73d
00000350: 8122 1a3e 66f5 bb3d 0ddb 0b3b 1034 e53d
00000360: ed5f 1cbe 721a a23c 5fac 16be 1e59 a6bd
00000370: ee7a 313e 0858 c2bc 2fc7 2e3c c4c5 14be
00000380: f733 c13d 6a46 5e3d 0a42 b03d 268c de3d
00000390: ee76 063d 929a b93d a0f4 08be cb04 1e3e
000003a0: 4baf 233e 1518 003e 69c6 143e 28bb c9bd
000003b0: 7cb0 bebd 0c90 96bd 779c 3cbd e962 fd3c
000003c0: 606d b43d d9bc cd3b e050 04be e808 de3d
000003d0: fec3 053e 52ce a2bd 963f 503d 4b25 1abd
000003e0: 9b13 c5bd a942 b03d 2b34 bfbd ccb6 2ebe
000003f0: b60f a93d cfcb f1bd e69a 09be d521 683e

conv4_3.bias f4 [10]
0.0834984 0.13187565 0.34228057 0.15935104 0.1268927 0.3226689 0.10912873 0.32867354
0.28338134 0.36168543
00000000: 3601 ab3d 690a 073e 663f af3e eb2c 233e
00000010: 29f0 013e dc34 a53e e27e df3d e647 a83e
00000020: 5c17 913e d52e b93e

momentum_buffer f4 [10, 3, 3, 3]
-1.3699263e-05 2.637881e-05 7.295729e-05 2.9203366e-05 -6.642367e-07 0.00025457103 6.373177e-05 -0.000104386534
0.00013956838 4.1474987e-06 5.252513e-06 7.9106205e-05 0.00013579475 2.8646267e-05 0.00024975685 0.00022008088
1.9938554e-05 0.00017418673 5.0730247e-05 7.340547e-06 7.319258e-05 0.00016970024 1.4466317e-05 0.0002208578
0.00023211866 -2.7735703e-05 0.00013691222 0.0 0.0 0.0 0.0 0.0
0.0 0.0 0.0 0.0 0.0 0.0 0.0 0.0
0.0 0.0 0.0 0.0 0.0 0.0 0.0 0.0
0.0 0.0 0.0 0.0 0.0 0.0 -0.018316628 -0.018035715
-0.014744371 -0.014076938 -0.012750939 -0.00999181 -0.011102853 -0.009892385 -0.010344269 -0.02948937
-0.02825386 -0.023807405 -0.025163949 -0.022695633 -0.018752575 -0.02170595 -0.019410111 -0.018835006
-0.032877296 -0.031515963 -0.026800053 -0.028247062 -0.025676487 -0.021534251 -0.02446667 -0.021898223
-0.020866785 0.00012233201 7.5911776e-05 7.54013e-05 7.515273e-05 0.00012802503 8.820924e-05 2.1844015e-05
0.000118418655 3.0227096e-05 0.00013203624 2.7137474e-05 1.3293972e-05 1.1889941e-05 -1.231609e-05 3.6768466e-05
-3.818142e-05 -3.4905726e-05 3.624419e-06 0.00010933332 1.47366245e-05 5.0021918e-06 -8.814234e-06 -2.2744287e-05
9.603193e-06 -3.741394e-05 -4.3697688e-05 -7.2305643e-06 0.00013632164 0.000103838145 0.00017239345 0.00024229077
0.0003090757 0.00021247799 0.00013073321 0.00023130357 0.00014855342 4.5258726e-05 -4.297228e-05 6.278577e-05
0.0001173327 0.00012511814 3.7511323e-05 -9.887088e-06 7.982926e-05 -5.853294e-05 -4.0494873e-05 -8.445484e-05
7.299715e-05 -2.0190833e-05 -3.41345e-06 -6.0642997e-06 -5.0322036e-05 1.8723396e-05 -7.56817e-05 0.00025283164
-7.71277e-05 -0.00030279922 -3.6059108e-05 -0.00012862844 -0.0001517644 0.00050376344 0.00037831205 0.0001510538
0.00015724543 -0.00016801889 -0.0007036013 -6.322222e-05 -0.000155349 -0.00049847446 0.00034237435 0.00022022217
-0.00023058307 0.00020155084 -0.00010658816 -0.00068146316 -2.34521e-05 -0.00019822794 -0.0006254401 0.00033900634
0.000116077965 -0.0003970146 0.0072191595 0.02906881 0.053060092 0.017081829 0.039693274 0.060817987
0.012275435 0.030210191 0.052963667 -0.11716876 -0.096084155 -0.065682895 -0.10641958 -0.084332585
-0.05774078 -0.10854129 -0.089526005 -0.060631424 -0.14345577 -0.124714576 -0.09448438 -0.13253544
-0.11174231 -0.084867954 -0.13039 -0.1124485 -0.0833365 6.4756954e-05 8.924481e-05 8.504861e-05
0.0001645164 0.00030142386 0.000395306 0.00021246177 0.00042114654 0.0006539764 4.6819572e-05 5.7013483e-05
5.2605432e-05 0.000113289905 0.0002125113 0.00028151792 0.00014150246 0.00031093185 0.0005029227 1.8409437e-05
2.3200042e-05 1.7426444e-05 2.3601486e-05 6.199987e-05 8.691867e-05 2.441079e-05 8.659081e-05 0.00021252315
0.043184903 0.038198907 0.038231425 0.0353783 0.030978378 0.034887597 0.033834014 0.03157807
0.035983544 0.00802203 0.0049385596 0.006423561 0.0009964922 -0.00095096824 0.0043097064 -0.0011531411
-0.0013917002 0.0045450907 -0.008195028 -0.01207879 -0.010615667 -0.014348442 -0.017290812 -0.012552319
-0.015897835 -0.01658886 -0.011319321 0.0006630607 0.0008288488 0.0005663032 0.0017671097 0.0017391345
0.001352011 0.0017185366 0.0020931317 0.0022468707 0.00010731768 0.0002147947 2.6178423e-05 0.0009291648
00000000: e3d5 65b7 1048 dd37 a600 9938 c0f9 f437
00000010: 004e 32b5 f277 8539 bca7 8538 18ea dab8
00000020: 1a59 1239 be2a 8b36 be3e b036 d2e5 a538
00000030: 2064 0e39 644d f037 ccf1 8239 83c5 6639
00000040: b841 a737 e5a5 3639 30c7 5438 d24e f636
00000050: f87e 9938 90f1 3139 5cb4 7237 1096 6739
00000060: e164 7339 f8a9 e8b7 1890 0f39 0000 0000
00000070: 0000 0000 0000 0000 0000 0000 0000 0000
00000080: 0000 0000 0000 0000 0000 0000 0000 0000
00000090: 0000 0000 0000 0000 0000 0000 0000 0000
000000a0: 0000 0000 0000 0000 0000 0000 0000 0000
000000b0: 0000 0000 0000 0000 0000 0000 0000 0000
000000c0: 0000 0000 0000 0000 0000 0000 0000 0000
000000d0: 0000 0000 0000 0000 c10c 96bc a3bf 93bc
000000e0: 6092 71bc f5a2 66bc 50e9 50bc b0b4 23bc
000000f0: bee8 35bc ac13 22bc 027b 29bc b193 f1bc
00000100: a474 e7bc bf07 c3bc a024 cebc 31ec b9bc
00000110: 009f 99bc add0 b1bc f401 9fbc df4b 9abc
00000120: 58aa 06bd e216 01bd c98b dbbc 6266 e7bc
00000130: 7f57 d2bc 9968 b0bc 536e c8bc e763 b3bc
00000140: d2f0 aabc 4046 0039 d332 9f38 c420 9e38
00000150: 519b 9d38 753e 0639 fafc b838 aa3d b737
00000160: 8857 f838 3290 fd37 3573 0a39 48a5 e337
00000170: 2d09 5f37 e87a 4737 34a1 4eb7 d737 1a38
00000180: fd24 20b8 bd67 12b8 0b3b 7336 e149 e538
00000190: 523d 7737 80d8 a736 d9e0 13b7 fcca beb7
000001a0: 661d 2137 eaec 1cb8 0948 37b8 139e f2b6
000001b0: 90f1 0e39 aec3 d938 84c4 3439 6f0f 7e39
000001c0: 700b a239 a0cc 5e39 6e15 0939 148a 7239
000001d0: 01c5 1b39 30d4 3d38 223d 34b8 dbab 8338
000001e0: 8310 f638 2532 0339 7a55 1d38 b8e0 25b7
000001f0: 026a a738 4481 75b8 0ad9 29b8 591d b1b8
00000200: 0c16 9938 7c5f a9b7 a012 65b6 f07b cbb6
00000210: e010 53b8 3010 9d37 4eb7 9eb8 7d8e 8439
00000220: 9ebf a1b8 06c1 9eb9 2c3e 17b8 6fe0 06b9
00000230: f222 1fb9 fe0e 043a 2f58 c639 3264 1e39
00000240: 40e2 2439 3a2e 30b9 e271 38ba 2c96 84b8
00000250: 2ee5 22b9 0eac 02ba b580 b339 70eb 6639
00000260: acc8 71b9 6457 5339 1588 dfb8 38a4 32ba
00000270: 00bb c4b7 68db 4fb9 93f4 23ba a9bc b139
00000280: e26e f338 6626 d0b9 b38e ec3b b721 ee3c
00000290: 8a55 593d 31ef 8b3c 6a95 223d 481c 793d
000002a0: e81e 493c 5d7b f73c 6ef0 583d 2df6 efbd
000002b0: c5c7 c4bd c184 86bd 82f2 d9bd 90b6 acbd
000002c0: 9981 6cbd e54a debd 6959 b7bd a858 78bd
000002d0: 12e6 12be 5b6a ffbd 0781 c1bd 5fb7 07be
000002e0: 27d9 e4bd 40cf adbd f584 05be 664b e6bd
000002f0: 54ac aabd 20ce 8738 f128 bb38 205c b238
00000300: 0982 2c39 6d08 9e39 1341 cf39 46c8 5e39
00000310: 55cd dc39 9d6f 2b3a 2260 4438 c321 6f38
00000320: a7a4 5c38 0e96 ed38 91d5 5e39 b298 9339
00000330: 4760 1439 9104 a339 92d6 033a f76d 9a37
00000340: b69d c237 012f 9237 cefb c537 ed05 8238
00000350: 1b48 b638 c6c5 cc37 1698 b538 c0d8 5e39
00000360: a7e2 303d 7576 1c3d 8e98 1c3d d6e8 103d
00000370: 5ec6 fd3c 4ce6 0e3d 8995 0a3d 0258 013d
00000380: 7b63 133d d56e 033c a4d3 a13b bc7c d23b
00000390: bb9c 823a 664a 79ba 7038 8d3b ff24 97ba
000003a0: b669 b6ba fcee 943b 7044 06bc 1ee6 45bc
000003b0: 56ed 2dbc ba15 6bbc 76a5 8dbc 3ea8 4dbc
000003c0: 2d3c 82bc 5ce5 87bc ac74 39bc 40d1 2d3a
000003d0: 1a47 593a f773 143a 5d9e e73a acf3 e33a
000003e0: f635 b13a 8540 e13a ec2c 093b 3c40 133b
000003f0: be0f e138 833a 6139 bc99 db37 3293 733a

momentum_buffer f4 [10]
1.9583444e-05 0.0 -0.01628683 0.00019586041 0.00021684889 -0.0006975882 -0.12667727 0.00079561846
-0.1429909 0.0026879192
00000000: 2047 a437 0000 0000 f56b 85bc e15f 4d39
00000010: ee61 6339 5ade 36ba b0b7 01be 0d91 503a
00000020: 356c 12be cd27 303b

momentum_buffer f4 [16, 10, 3, 3]
-2.9325145e-06 -3.621031e-06 2.8819347e-06 -3.2367454e-06 -1.2500566e-07 -4.7650045e-07 -3.216699e-06 -1.8140807e-07
-5.0944577e-09 0.0 0.0 0.0 0.0 0.0 0.0 0.0
0.0 0.0 -0.00022119086 -0.00023502574 -0.00031807827 -0.00016295386 -0.000105081126 -8.2741586e-05
-4.8096277e-05 -4.7153488e-05 1.8078128e-05 -6.150345e-07 -3.270194e-07 -2.0460089e-08 -2.68996e-07 -3.2475748e-07
-1.2814529e-07 6.9467534e-09 4.4657e-08 2.7603115e-09 -3.684372e-06 -9.368024e-06 1.3333499e-06 -5.070091e-06
-6.4299447e-06 -5.4251846e-06 -5.0335243e-06 -4.721507e-06 -1.2598329e-06 3.455298e-05 -3.1853007e-05 1.7783192e-05
8.305108e-05 -5.2635674e-05 9.540638e-06 4.3196702e-05 3.592502e-05 -1.6905027e-05 0.000378152 0.0004468116
0.00030539057 0.00020977901 3.442829e-05 7.5635726e-05 6.233281e-05 2.9393224e-05 0.000118423704 5.7575967e-06
-1.0285933e-07 -1.3871518e-07 3.6066577e-08 1.6066373e-08 1.1660073e-08 4.0830912e-08 1.5600116e-09 -6.4144564e-15
4.306189e-05 -3.109414e-05 -3.9376726e-05 8.22236e-05 2.0409083e-05 8.683789e-06 0.00012451074 1.2625841e-05
-8.409456e-05 -3.804561e-05 -8.998874e-05 -3.8636987e-05 -6.597672e-06 -2.6521337e-05 -3.1257325e-05 1.7955123e-06
1.661243e-07 -1.014402e-06 2.4152692e-05 1.692201e-05 -1.5041778e-06 1.8710767e-05 1.5763264e-05 1.5821446e-07
-2.7122792e-06 -1.5657337e-06 -2.7230667e-06 0.0 0.0 0.0 0.0 0.0
0.0 0.0 0.0 0.0 0.00018663713 8.5646905e-05 -8.036834e-05 0.00012092816
0.00010428397 -4.3613873e-06 4.8660302e-05 3.235674e-05 1.6024307e-05 -2.3859086e-05 -1.7831733e-05 -3.353308e-06
-3.864381e-05 -1.2046104e-05 5.5275273e-06 -3.9612492e-05 -1.1255531e-05 1.0925083e-06 7.855858e-06 -1.3912642e-05
-4.030067e-06 1.4793969e-06 -2.3385824e-06 -3.0368412e-07 -1.1838313e-05 -6.779108e-07 3.3507056e-06 1.23907885e-05
-2.4754274e-05 9.295315e-07 2.6909678e-05 -7.124749e-05 -1.2820801e-05 4.746316e-05 -9.033103e-05 3.7357229e-06
0.0001228858 -0.00020299725 -5.2114567e-05 5.3735275e-05 -0.00024153347 -0.00020815333 0.00019160681 -0.00013880557
-0.00020579218 1.1917415e-06 5.521982e-07 -5.1383563e-07 -9.226953e-07 -1.8903368e-07 -4.3693202e-08 -3.9397204e-07
-3.8330757e-07 -1.2613542e-07 3.3175565e-05 -8.732912e-05 -7.902985e-06 0.00013550071 -0.00011769742 8.013377e-05
0.0003951745 0.00016568108 0.0001668541 -2.1770615e-05 -4.576159e-05 -5.290439e-05 2.552955e-05 2.0354879e-05
-5.8150513e-06 -7.0016927e-07 6.4044684e-07 3.357562e-07 0.00015440097 0.00020804699 0.00012848502 -7.961211e-06
6.932124e-05 2.3237219e-05 -0.00012354711 -1.6181608e-05 -6.1032966e-05 0.0 0.0 0.0
0.0 0.0 0.0 0.0 0.0 0.0 0.0004111617 -0.0005018633
-0.0030469932 -0.00696203 -0.00720311 -0.0060906387 -0.009714854 -0.0098021375 -0.0066278637 -0.00018199989
-0.00012798495 6.5937356e-06 -0.00017425368 -9.2488495e-05 9.234096e-06 -0.0001496035 -3.4474164e-05 3.5319623e-05
0.00015713216 9.223009e-05 3.3494507e-05 0.00011279931 0.00012393933 4.809328e-05 7.5987e-05 0.000119417375
8.946575e-05 5.453923e-06 -0.00019439333 0.0006856699 0.0007164996 -0.00053397287 -0.00014441958 0.0012899917
-5.3888187e-05 -0.000108260014 -0.048708003 -0.06835943 -0.06750246 -0.057036392 -0.07136889 -0.0664199
-0.059397686 -0.06723776 -0.056698695 1.4255905e-05 -1.31729375e-05 -2.1228532e-05 -7.8568e-05 -7.9741985e-05
-8.111226e-05 -0.00013766886 -0.00012912726 -0.00014117322 -0.04305016 -0.046241693 -0.037477843 -0.046963733
00000000: 37cc 44b6 d700 73b6 4367 4136 dd36 59b6
00000010: 4b39 06b4 b9d1 ffb4 78de 57b6 12c9 42b4
00000020: 530b afb1 0000 0000 0000 0000 0000 0000
00000030: 0000 0000 0000 0000 0000 0000 0000 0000
00000040: 0000 0000 0000 0000 78ef 67b9 3e71 76b9
00000050: bec3 a6b9 98de 2ab9 005f dcb8 8d85 adb8
00000060: fcba 49b8 acc6 45b8 7ca6 9737 d918 25b5
00000070: 3491 afb4 36c0 afb2 876a 90b4 545a aeb4
00000080: 4f98 09b4 4ab0 ee31 e4cc 3f33 eaaf 3d31
00000090: 0741 77b6 5b2b 1db7 8ef5 b235 c01f aab6
000000a0: cec0 d7b6 fb09 b6b6 a5e5 a8b6 706d 9eb6
000000b0: 8717 a9b5 fbec 1038 e899 05b8 1d2d 9537
000000c0: b62b ae38 20c5 5cb8 ba10 2037 1b2e 3538
000000d0: 32ae 1638 45cf 8db7 b442 c639 0a42 ea39
000000e0: d41c a039 20f8 5b39 1867 1038 9f9e 9e38
000000f0: acb8 8238 7891 f637 3e5a f838 6131 c136
00000100: 84e3 dcb3 bdf1 14b4 9fe7 1a33 5402 8a32
00000110: 8b51 4832 105e 2f33 0768 d630 eb1a e7a7
00000120: 5a9d 3438 146b 02b8 7028 25b8 766f ac38
00000130: 2c34 ab37 97b0 1137 198f 0239 93d3 5337
00000140: ec5b b0b8 2a93 1fb8 56b8 bcb8 260e 22b8
00000150: 9261 ddb6 237a deb7 4c1a 03b8 55fd f035
00000160: e65f 3234 9626 88b5 839b ca37 bdf3 8d37
00000170: 28e3 c9b5 11f5 9c37 5a3b 8437 a9e1 2934
00000180: 9a04 36b6 3326 d2b5 eebd 36b6 0000 0000
00000190: 0000 0000 0000 0000 0000 0000 0000 0000
000001a0: 0000 0000 0000 0000 0000 0000 0000 0000
000001b0: 06b4 4339 559d b338 6d8b a8b8 d09a fd38
000001c0: 08b3 da38 0858 92b6 9a18 4c38 c9b6 0738
000001d0: f06b 8637 ff24 c8b7 5b95 95b7 6509 61b6
000001e0: 7a15 22b8 9f19 4ab7 1979 b936 9725 26b8
000001f0: 23d6 3cb7 4da2 9235 a7cc 0337 586a 69b7
00000200: 033a 87b6 b18f c635 8af0 1cb6 070a a3b4
00000210: 2b9d 46b7 adf9 35b5 afdc 6036 08e2 4f37
00000220: 66a7 cfb7 eb84 7935 18bc e137 b46a 95b8
00000230: ec18 57b7 2e13 4738 1a70 bdb8 3bb3 7a36
00000240: e8da 0039 a9db 54b9 9795 5ab8 d061 6138
00000250: 2644 7db9 bc43 5ab9 10ea 4839 568c 11b9
00000260: ebc9 57b9 edf3 9f35 c53a 1435 84ee 09b5
00000270: 23af 77b5 2ff9 4ab4 2fa9 3bb3 1b83 d3b4
00000280: 64c9 cdb4 d76f 07b4 fe25 0b38 7724 b7b8
00000290: 1097 04b7 3215 0e39 52d4 f6b8 7d0d a838
000002a0: 6c2f cf39 adba 2d39 8ef5 2e39 0aa0 b6b7
000002b0: 22f0 3fb8 a8e5 5db8 4b28 d637 c5bf aa37
000002c0: e91e c3b6 44f3 3bb5 2ceb 2b35 fb41 b434
000002d0: b2e6 2139 3027 5a39 efb9 0639 2491 05b7
000002e0: 8f60 9138 8ced c237 6d8c 01b9 bdbd 87b7
000002f0: a6fd 7fb8 0000 0000 0000 0000 0000 0000
00000300: 0000 0000 0000 0000 0000 0000 0000 0000
00000310: 0000 0000 0000 0000 3091 d739 7a8f 03ba
00000320: 10b0 47bb be21 e4bb 1108 ecbb fb93 c7bb
00000330: 0d2b 1fbc 2599 20bc 8d2e d9bb 39d7 3eb9
00000340: b333 06b9 c23f dd36 deb7 36b9 62f6 c1b8
00000350: 24ec 1a37 e2de 1cb9 5a98 10b8 2824 1438
00000360: d8c3 2439 a76b c138 747c 0c38 ab8e ec38
00000370: b6f5 0139 c4b7 4938 365b 9f38 b76f fa38
00000380: 8f9f bb38 d800 b736 10d6 4bb9 87be 333a
00000390: 79d3 3b3a 50fa 0bba 566f 17b9 f014 a93a
000003a0: 0006 62b8 a709 e3b8 0b82 47bd 0700 8cbd
000003b0: bb3e 8abd fe9e 69bd da29 92bd 2807 88bd
000003c0: fd4a 73bd f3b3 89bd e43c 68bd a52c 6f37
000003d0: 5601 5db7 ed13 b2b7 e0c4 a4b8 273b a7b8
000003e0: d01a aab8 345b 10b9 5666 07b9 e607 14b9
000003f0: 5d55 30bd ee67 3dbd 5e82 19bd 0b5d 40bd

momentum_buffer f4 [16]
0.00011320779 0.0025636784 -0.030532572 -0.01298085 -0.003967244 4.493181e-06 -0.00939131 -0.02292297
-0.0007861222 -0.0074747396 -4.5393128e-05 -0.010684117 0.0027071056 -0.015196135 -0.020078287 -0.023320567
00000000: f869 ed38 6303 283b 721f fabc a2ad 54bc
00000010: a8ff 81bb 22c4 9636 02de 19bc f4c8 bbbc
00000020: c513 4eba a9ee f4bb 8064 3eb8 6f0c 2fbc
00000030: b269 313b 36f9 78bc 387b a4bc c60a bfbc
