Pytorch face detection - Test/MTCNN_train_process/1/checkpoint_2500.pth (torch, 243437 bytes, 24 tensors)

conv1.weight f4 [10, 3, 3, 3]
00000000: ceb1 bcbe 5bd5 36be b756 3cbe f008 f9bd
00000010: fd5b d63d a0aa 0bbe d9df 07bb 58a5 7abe
00000020: 0dc0 dcbd 8cbf 623e 306b 0a3e 84ad 1a3f
00000030: 1cb4 b33e 76f8 063f 1647 b53e 1a70 e33e
00000040: 5979 e63e 1859 7c3e fc5b 9f3e 05ee 5f3e
00000050: 1afa 24be bf68 d8bd 0150 f5be 1d25 43be
00000060: d4f4 95be 92d6 e5bd 1556 813e 772e e0bd
00000070: 14ce c2be 90b1 0e3f 727f 2ebf 295a b9be
00000080: 2a4d 473e a3c0 1fbf bdb0 2bbd 12ae 56be
00000090: e539 cf3e 0f55 0fbe 776c 283e e343 cf3c
000000a0: d75a f1bd 7fc9 43be 771b 933e bc2d f03e
000000b0: 486f f83d 54f3 493e 1e65 01be 3ccc 1cbf
000000c0: 766d 2a3f 73f3 363e a96d 98bd 511a f83e
000000d0: fb17 953e 6775 80be 6a46 993e 1be9 c03e
000000e0: f0b9 b03e da5c ff3e d209 5f3e 1005 7a3c
000000f0: eae2 10bf 1dc4 21bf 8cd9 b0be c1a6 473e
00000100: 0e31 953e c54d 0c3d 43a6 7d3e 27f2 45bd
00000110: 80d0 dbbe f414 e2be ff54 bfbe 1023 183e
00000120: b4a8 9d3e e472 b03e 0b35 833e 3339 6a3e
00000130: 25fe c43c a73b d6be 22f2 efbe e76b c0be
00000140: a8a8 cb3e 63eb ae3e ae52 6dbf 2278 4a3f
00000150: 197e 8f3e 8625 18bf 2c6a 7abd 2b1c c33d
00000160: 6a48 db3c 5cae f3bd 1779 4a3e 2b9f 50bf
00000170: 2b0f 6c3f d91d ef3e d308 31be a0ad fa3d
00000180: f407 43be a962 cdbd 8c14 1d3d ab79 cebd
00000190: 4922 f7be f5e9 c93e cefa 203e c7e8 ab3d
000001a0: d236 febd 54ec d3bc 17b2 b33d b44b 9dbe
000001b0: f37e ccbe e588 90be 9247 82bd 5528 8ebe
000001c0: ef8e 84be 9229 0bbe ed30 54bd dedc d7bd
000001d0: 7f03 a2bd 9e82 123f f048 8c3e ed53 a63e
000001e0: b3a5 b93e 041d 953e 8a19 973d 48c2 5b3e
000001f0: 766d 353e 9544 1c3d 7082 0dbd 404a 8b3d
00000200: 1485 9ebe 5d84 8bbd 46f9 af3d 7a46 393d
00000210: 1e31 13be 440d 8fbd 28ae 873d 3e53 da3e
00000220: 8dc5 a43e 7467 51bf 890a 1b3f 2aa6 193e
00000230: 443f 03bf 08a2 a23e f8d3 883d 7bbb 76be
00000240: 1ac6 0f3e bda3 b13d 1b50 b2be 1cab ad3e
00000250: 28dc 083a f6e8 dabe 78f7 933e 62bf 45be
00000260: 7db5 c6be 03d8 313e 09bf cf3d dc36 ffbd
00000270: 5891 683e a6d4 c3bd bb2c 96be e3bf a33e
00000280: dcdc 05be ac1b c23d 2683 c13e 8246 a6bd
00000290: b18e a93d b222 a23d e320 93be 4e6b 61bd
000002a0: db3b f4be 4e63 3bbe 6b2e 62be 0d2b 2c3e
000002b0: 3018 31be 8801 a5be 49a1 09be 9034 b7be
000002c0: 82af eebe 6dfa ea3d 9138 2f3e c40c 6e3d
000002d0: 518d 53be a4db 0cbe 8571 00be 5321 d73d
000002e0: c957 20be be7d 94bd 2724 1cbb e385 063e
000002f0: fd73 2e3e 7a85 623d 0098 d63d 6034 b63d
00000300: bdb0 b03e 1cf5 f23e ee6c a23c 38ee 863e
00000310: 5f59 143f 674e 36be 1c2d 6abd 84b8 e0bc
00000320: 18dc b9be 2ca4 f4be 2d1d e3be 91c6 b8be
00000330: c605 03bf 94e3 14bf 6bff b2be 4c41 9a3d
00000340: 048e 74bd 61a5 0f3e 485d b8bd 3732 5dbd
00000350: c05e c73e cbf1 423e 2fe7 d1bd 8d3f da3e
00000360: db1d 3bbf bde9 7fbf dd5e 4cbf 39be 0c3f
00000370: 4301 b13e 5a02 80be 8a5a 0a3f 0637 223f
00000380: e6c1 0e3f 1b8b b73d 9a77 9abe 340b 503d
00000390: d0ac ad3e f988 a53e 7450 1c3d 59a0 aebd
000003a0: 81ea 02be 7680 69bd cfaf 823e 3656 0cbe
000003b0: dab1 f1bb 9582 a3bc 32e8 e8bc e587 9dbd
000003c0: e7c0 0bbd 0769 fbb9 014e 35be 8ac8 83bf
000003d0: f04f 21bd 16a0 163f 7808 0fbf d92f ef3e
000003e0: a858 af3e 1b50 11bf aa2d 503e de12 de3e
000003f0: a4d1 783e c788 72be 5f3c 16bd 7beb b2bd
-0.36854404 -0.17854826 -0.18392454 -0.12159908 0.10466764 -0.13639307 -0.0020732789 -0.24477136
-0.10778818 0.22143382 0.13517451 0.60421014 0.3509835 0.5272287 0.35405797 0.44421464
0.45014456 0.24643362 0.31124866 0.21868141 -0.16111031 -0.10566854 -0.479126 -0.19057126
-0.29288352 -0.11222567 0.25260988 -0.109463625 -0.3804785 0.5573969 -0.68163216 -0.362016
0.1946303 -0.62403315 -0.041916598 -0.2096484 0.40473858 -0.13997291 0.16447626 0.025300926
-0.117849045 -0.19119833 0.28731892 0.46909893 0.121306 0.19721729 -0.1263623 -0.61249137
0.66573274 0.17866306 -0.07442791 0.48457578 0.29119858 -0.2508957 0.29936534 0.37677845
0.3451686 0.49875528 0.2178109 0.015259996 -0.56596243 -0.6318987 -0.34540975 0.19497205
0.29138988 0.034253854 0.24770455 -0.048326638 -0.4293251 -0.4415661 -0.37369534 0.14857125
0.30792773 0.34462655 0.25626406 0.22873382 0.024046967 -0.41842386 -0.4686442 -0.37582323
0.39777112 0.3416396 -0.92704284 0.7908956 0.28025892 -0.59432256 -0.06113641 0.09526857
0.026767928 -0.11898491 0.19772755 -0.8149287 0.92210644 0.4670246 -0.17288522 0.122401476
-0.19046003 -0.100285836 0.038349673 -0.100818 -0.48268345 0.39436308 0.15720674 0.08394008
-0.124128 -0.025869526 0.08774202 -0.3072182 -0.39940605 -0.28229442 -0.06361307 -0.27765146
-0.258903 -0.13590077 -0.05180447 -0.10540174 -0.07910823 0.57230556 0.27399397 0.32485905
0.3625923 0.291237 0.07377918 0.21460831 0.17717537 0.038151342 -0.034548223 0.068012714
-0.30960906 -0.06812356 0.08592467 0.045233227 -0.14374205 -0.06984952 0.066250145 0.42641634
0.3218197 -0.8179848 0.6056295 0.15004793 -0.5126841 0.31764245 0.06681055 -0.24094956
0.14040413 0.08673809 -0.3482674 0.3391961 0.0005220794 -0.4275586 0.2889974 -0.19311288
-0.3881034 0.17367558 0.10143859 -0.124616355 0.22711694 -0.09562044 -0.29331002 0.31982335
-0.13072532 0.09477934 0.3779537 -0.08118917 0.08279169 0.07916774 -0.28736028 -0.055033974
-0.47701916 -0.182996 -0.2208802 0.16813298 -0.17294383 -0.3222773 -0.13440432 -0.3578229
-0.46618277 0.11473546 0.17111422 0.058117643 -0.20659377 -0.13755661 -0.12543304 0.10504403
-0.15658487 -0.07250546 -0.002382526 0.13137011 0.17036434 0.055303074 0.104782104 0.088967085
0.3450984 0.4745263 0.019827332 0.2635362 0.5794887 -0.17803346 -0.057171926 -0.027431734
-0.3630073 -0.47781503 -0.44358197 -0.36088994 -0.51180685 -0.58159757 -0.34960493 0.07531986
-0.05970575 0.14027931 -0.09002167 -0.054002967 0.38939476 0.19037549 -0.10249173 0.4262661
-0.7309243 -0.9996603 -0.7983225 0.54977757 0.34571275 -0.25001794 0.540444 0.6336521
0.55764616 0.08962079 -0.30169374 0.050791934 0.33920908 0.32331064 0.038162664 -0.08526678
-0.12784769 -0.057007276 0.25524756 -0.13704762 -0.007375938 -0.019959727 -0.028431032 -0.076919354
-0.034119513 -0.00047952702 -0.17705537 -1.0295575 -0.039382875 0.5883802 -0.558723 0.46716192
0.34247327 -0.56762856 0.2032992 0.4337377 0.24298722 -0.23684989 -0.036678668 -0.087363206

conv1.bias f4 [10]
00000000: 3f25 273d d439 503d 4edd e0bb 68bc 17bc
00000010: 27a6 79be eac0 a7bc fefe c23e 4a96 c7bd
00000020: 9a47 a73d c016 e23e
0.040807005 0.0508364 -0.006862319 -0.009261228 -0.24379788 -0.02047773 0.3808517 -0.09745462
0.08167954 0.44157982

conv2.weight f4 [16, 10, 3, 3]
00000000: be67 423e f8a2 85be b3f0 0b3d b892 fcbd
00000010: b70a 51bc 489a 65b9 5c6d e0bd 7487 113e
00000020: ade7 a73d 85ff 023d e785 2dbe cac3 ca3c
00000030: 3508 2f3e 8288 98be cce2 a5bd 0a34 c0bd
00000040: cf6f 653e 7d38 bf3d a565 9e3e aa22 91be
00000050: fc1e c03b 6388 52be 6480 a13d edb6 0e3e
00000060: 7ea1 48be 98ce 4e3e 4cbe 1c3e 3a8e dfbd
00000070: 8534 453c 61d1 b63d 09f8 773e 2513 a7be
00000080: d244 30be 6300 8c3d 09d4 bebc 7ec8 cebd
00000090: 5904 2fbc d2f3 b9bc d536 553e 6d65 b63d
000000a0: 7ab7 7dbd fb88 093c caf0 633d 9f89 ccbc
000000b0: bced dc3d 9b3c f63d c09c 48bd 0b48 90be
000000c0: bf90 6fbe dfd9 80be 5a95 983e 1435 0fbd
000000d0: 1bf0 e43d 26e5 aabd d7cb 50be 72e0 c93d
000000e0: c789 d43d 9d77 06bd 0dd3 013e dcce 0b3c
000000f0: 810f c0bd 538a 28bd 08ea dc3a 7ac6 45be
00000100: 4f93 0f3e e457 dc3d f5be 03be a005 b13d
00000110: e15b 85bc b682 163d c379 81bc 0283 09bd
00000120: 9a86 e1be c69d 303e e14e f23e cce5 033e
00000130: 90db c6bd d4fc e73c f7e0 41bd 9d64 7dbd
00000140: 3ae8 5a3c 624b cfbe fc7d 53be 6429 17be
00000150: d8e7 d63e 8cbb 283e 2477 63bd ff67 52be
00000160: ba9d 983c d6f7 a83d 4cc0 83bd f952 93bd
00000170: 3c5a d73d c296 a73c 62d2 63bd 1d38 c13d
00000180: e6b6 aebd 9106 adbd 4424 6c3c eefd a23d
00000190: 5f2f 823d b794 84bd b9d0 83bd 0040 5e3d
000001a0: 67ba b13a 0eb9 d83c 01ac b83c 5e62 88bd
000001b0: b1b4 f4bc b44c be3a 6675 8abc f092 8c3d
000001c0: a194 a2bd 42f1 6e3c 89e6 1f3e 1c56 17bd
000001d0: 4b0b ab3d 5c45 fe3d 5cb8 433d 6782 6d3d
000001e0: 3a03 a6bc b587 1e3d 415a 803c 1b2d f93d
000001f0: d944 d1bd 56e2 813d 6e3b 8ebd d89b ccbd
00000200: 9b75 c53d 74d1 803c c081 7ebd 5cbe ccbd
00000210: 32a9 b7bc 07ef c1bc e889 c4bb 91f5 2bba
00000220: 976f 853d 411a 7a3d c8d7 3ebd 06e1 63bd
00000230: ff7b 1d3d 8cea acbd 3702 ad3c b336 dfbd
00000240: ed3b 1c3d 78e9 0bbd ef00 863d 1a67 893c
00000250: 0325 55bc 4fd1 cb3d 5fa0 babd 57ca c63d
00000260: b83d 8c3d 813f 593c 78f5 2ebc 5e6c c83d
00000270: 4f2d 8a3d 4cf5 a8bd fdea a7bd 21b4 a3bd
00000280: cbc3 04bd 1136 73bc b415 973d acb4 aa3d
00000290: 5141 c4bd b009 bb3d 3c80 423d d36e ef3c
000002a0: 9f9c bebd f461 cbbd fa50 a0bd 82e0 853d
000002b0: b2cc 1abd 3a91 ccbc dfb8 eabc 2a16 06bd
000002c0: 4319 50bc 1f23 45bd 73f1 dcbd e1a7 6c3d
000002d0: 5a34 013f c1e8 66bd 8b61 dc3e ec83 f1be
000002e0: f918 4bbf 727e e3bd 12eb 283e 71e9 1abe
000002f0: f4b1 c73e 9873 103e c56f 93bd 23c0 27bd
00000300: e5f7 2cbd 2e18 4abe 7575 afbe dfa7 c03e
00000310: ed15 77be 738a e2bd 3f80 19be 1201 753e
00000320: 62c4 7cbd 1fc4 673d 96a6 abbd 03df 4bbd
00000330: f749 b9bd ad83 013e 0af7 103d 981f 9ebe
00000340: cf97 46be aca6 b43d ecdc b93e 4f2a 3a3e
00000350: a485 b93c 7d80 073d 3b2c 533c 401e 99be
00000360: 964d 67bc bcfe 433d 0241 4bbe 6df6 66bd
00000370: b0f5 813e d639 ea3d 71d0 663b 80d7 ec3d
00000380: 499a 18bd 2346 293d 2309 fcbd 7b25 183d
00000390: 6acf 7e3d 0f1c 4d3e 477f 31bc 0eb1 9bbd
000003a0: 1f74 2cbe b95a 723e 236c 3dbd 4f23 bebb
000003b0: b4ab eb3d 0b8e e9bd 55aa 093d dae4 523e
000003c0: 1574 82bd e217 41be 4f1c 453b 9d97 68bc
000003d0: eeeb 29be 3598 bbbd 6914 1abe 9feb 52be
000003e0: eb63 3ebd 0886 5bbd f264 28be 2d45 3b3e
000003f0: 15b6 acbd 7323 1abe 0e9e 593e 7fd6 503e
0.18984887 -0.26100898 0.034165096 -0.12332672 -0.012758902 -0.00021896616 -0.10958359 0.14211828
0.081984855 0.031981964 -0.16945611 0.024751563 0.17092974 -0.29791647 -0.08099899 -0.09384926
0.22405933 0.09336946 0.30936924 -0.2834676 0.0058630686 -0.2055984 0.07885817 0.13936968
-0.19592854 0.20195997 0.15306967 -0.109157994 0.012036447 0.089266546 0.24215712 -0.32631794
-0.17213753 0.06836011 -0.023294466 -0.100968346 -0.010682189 -0.02269927 0.20821698 0.08906064
-0.061942555 0.008394475 0.055649556 -0.024967967 0.10787532 0.12023278 -0.048977613 -0.28179964
-0.2339506 -0.25166222 0.29801446 -0.03496273 0.11178609 -0.08344488 -0.20390259 0.09857263
0.103778414 -0.032828916 0.12678166 0.008533206 -0.09377957 -0.04114754 0.0016854415 -0.19313994
0.14021038 0.10758951 -0.12865813 0.08643651 -0.016279163 0.03674575 -0.01580513 -0.033572204
-0.44048005 0.17247686 0.47325805 0.1288063 -0.09709847 0.0283188 -0.047333684 -0.06186353
0.013361031 -0.404872 -0.20653528 -0.14761883 0.41973758 0.16477793 -0.055533543 -0.20547484
0.018629897 0.08250396 -0.06433162 -0.0719356 0.10515258 0.02045763 -0.05562056 0.09434531
-0.08530979 -0.08448518 0.014412943 0.079585895 0.063566916 -0.064736776 -0.06436295 0.054260254
0.001355958 0.026455428 0.022542955 -0.06659387 -0.029871317 0.0014518709 -0.016901683 0.068639636
-0.07938505 0.0145838875 0.15615286 -0.036947355 0.08351763 0.12415573 0.04778324 0.05798569
-0.02026521 0.03870364 0.015668036 0.12166806 -0.1021821 0.06341998 -0.06944929 -0.09990662
0.09641572 0.015724875 -0.062135458 -0.09997246 -0.022419546 -0.023673547 -0.005997885 -0.00065597246
0.06515425 0.061060194 -0.046592504 -0.05563452 0.03844833 -0.08443174 0.02111922 -0.10899105
0.038143087 -0.0341582 0.06543147 0.016772795 -0.013009313 0.09952032 -0.091126196 0.09706562
0.068477094 0.013259769 -0.0106786415 0.097862944 0.06746923 -0.08249912 -0.08199117 -0.07993341
-0.032413285 -0.014844433 0.073771864 0.08335242 -0.095827706 0.09132707 0.047485575 0.02922765
-0.09307217 -0.099307925 -0.07827945 0.06536962 -0.03779287 -0.024971593 -0.028652607 -0.03273598
-0.012701335 -0.048129197 -0.1078824 0.05777729 0.5047051 -0.056374315 0.4304317 -0.4717096
-0.7933498 -0.11108102 0.16495922 -0.15128113 0.39002955 0.14106596 -0.07199053 -0.04095472
-0.0422286 -0.19735786 -0.342693 0.37628075 -0.24129458 -0.11061563 -0.14990328 0.2392619
-0.061710723 0.05658352 -0.08381383 -0.049773227 -0.09047311 0.12647887 0.035391845 -0.3088348
-0.19393848 0.08820853 0.36301363 0.18180202 0.022646733 0.03308152 0.012888963 -0.2990589
-0.014117619 0.047850356 -0.19849017 -0.056387354 0.25382757 0.114368126 0.0035219456 0.11564541
-0.037256513 0.041326653 -0.1230643 0.03714512 0.062209524 0.20030235 -0.010833568 -0.0760213
-0.16841172 0.2366742 -0.046245705 -0.005802549 0.11507359 -0.11404046 0.033609707 0.20595112
-0.06369797 -0.18856767 0.0030076688 -0.014196304 -0.16593906 -0.091598906 -0.15046848 -0.20597695
-0.046482008 -0.05359462 -0.16444758 0.18288107 -0.08433167 -0.15052585 0.212517 0.20394324

conv2.bias f4 [16]
00000000: 2d02 ef3d b2b1 a3bd 782e 783e fdec 8b3e
00000010: 0473 95bd 5eb9 9fbc 66b6 5c3f ac57 fbbd
00000020: b010 1f3e 2434 463e a72c c43d 43bc 1bbe
00000030: d280 9e3e 6b08 a93e 0f49 7d3c 16d4 29be
0.11670337 -0.07992877 0.24236476 0.27329245 -0.07297328 -0.01949757 0.8621582 -0.122725815
0.1553371 0.19355828 0.09578829 -0.15208535 0.30957657 0.33014235 0.015459313 -0.1658481

conv3.weight f4 [32, 16, 3, 3]
00000000: a36d 343b 12fe 6d3d 9e32 f0bc 3662 17bd
00000010: 9372 a1bd 0294 13bc 34ea 003d dd8c 78b7
00000020: cf48 683c ac28 9bbd f9fa 8b3d f873 a2bb
00000030: 68ce 82bb 0b35 edbb 2280 7abd e354 94bd
00000040: 1199 a1bd 803d 4e3d 5160 dbbb 4f00 813c
00000050: 0df9 ec3c 3d4b 123d 195a 05bd f36c 993d
00000060: 7261 1c3d 02f1 a4bb d652 7f3d 004f 663d
00000070: abb4 77bd 51ae 55bc 3c2d 1cbd 4523 843d
00000080: 2a3f 63bd 5b41 203d f29d 2dbd b8b5 c8bc
00000090: 9f66 913c b3b6 4abd 5cd5 89bc 0c4a 9b3d
000000a0: 60c1 00bd f25e f0bc ee53 86bc 1872 4abd
000000b0: 8178 f53c 6477 53bd e3a3 e8bd d3b4 96bd
000000c0: 29ff e9bc 3fe4 0cbd 9393 d8bd c9a6 59bd
000000d0: 84c4 27bd 4da3 29bd 0ace ddbd 3770 133d
000000e0: 7a4f f43c 3ae4 65bd b9e3 a03d aee1 ddbb
000000f0: aa51 54bd 4718 06bd ac6c 12bd 37f9 82bd
00000100: 81f6 7d3d dfc0 56bd fe15 443d 41c9 ab3c
00000110: b9cf 573d 9ed5 18bd 5a29 813d 56f0 1e3c
00000120: 5642 1b3e e5a2 26bd 11f9 023d 9f0e 433c
00000130: 68ec 5dbc 2448 023d d1c0 9abc 182c 3fba
00000140: 9324 693d e3e5 86bd c14c 0c3d 926c c0bd
00000150: f728 44bd 8c02 a1bd ff3c 07bd 6a6c a23d
00000160: 2f2a 1bbd 66fe c4bb f63e d23c b8fb 403d
00000170: 25d7 853c 26df 7b3d 2f6a 6e3d 1bfd 13bd
00000180: 694e 35bd 8841 3a3d 15ad 203c 806e e13d
00000190: 12b8 bb3d 0f5c 8fbd 5455 5a3c ebd7 28bd
000001a0: 2d08 41bd f9d1 3dbd a7d0 5abc 1297 4e3d
000001b0: 59f6 203d aec8 463b 41f3 c7bb 7361 e73b
000001c0: f294 633d c509 37bd 80a8 833d 143e 9cbd
000001d0: b9b9 95bd 9898 553d 425b 423c 2037 a0bd
000001e0: 5708 f7bc 3771 9a3c 2023 133d 48e0 b23d
000001f0: 5b61 25bd 1f38 bd3d 9c97 2d3d 7c3d 453c
00000200: b4a0 193e de51 ca3d f2c6 383d c1f0 b13d
00000210: ee77 143d 7418 aa3d 9760 ac3d de30 23bd
00000220: 1b7b 90bd 7b9e 20be bd84 92bd 6ce4 abbd
00000230: 7c5b 07bc e58f 2abd 47fc fc3c a196 06bd
00000240: 885b 7e3d 498d 81bd 83fb 563d c9d0 e53c
00000250: dd5e ddbb 4e98 873c 8f11 9d3d c310 853d
00000260: 9c92 9eb9 d0bb cd3c c563 9abd fa93 803d
00000270: 111e 873c 4d3b 25bd c6ab 92bd ea0e 4d3d
00000280: 11a9 9dbd 6e6c a3bc c518 be3b 98f2 653d
00000290: 4d8e 3ebd 1b0e 20bd acb1 a7bd bed6 b73c
000002a0: a9fd 833c 2fe7 3f3d 83f4 72bd caf2 813d
000002b0: c156 62ba d386 973d 9985 d43c 1c37 653d
000002c0: 41ba d4bc 8654 f13c 2ac3 48bd d8a0 97bb
000002d0: 9cf2 ca3a f00e 40bd c65e 57bd 575b 8fbd
000002e0: d55f 613c 8417 553d 2d6a 97bd 028a 8abd
000002f0: ef67 a3bd dab7 87bb b1ff 723d 7f5a 873d
00000300: 013a 153d 4543 8cbd bb75 743d d0d0 823d
00000310: bc55 013c d9e6 74bd b5ad 94bd 94a1 933d
00000320: a384 c53a de29 8bbd 43fb 0a3d e499 1aba
00000330: 9fc4 a8bc a88f d93c c6a8 7c3b 8ee4 793d
00000340: 0859 b3bb f963 96bd 5f2a 61bd c463 babb
00000350: 028b 6dbd d5c9 143c 8fca 6d3d 790d 8fbc
00000360: fda4 83bd 173f a03d f41e ad3c 196e ac3c
00000370: 9605 9fbc b26d aabd 6aae 353d 32b6 65bc
00000380: 82f6 65bc 3b1e 16bc 67cb 8bbd 9db6 9fbd
00000390: 51ab 88bd c43c 73bd 43be 803d 98c4 74bd
000003a0: 25af f8bc 1224 4cbc 19bd 6f3b 9823 8cbb
000003b0: 493d d93c 9b58 47bd ae0d 553d 65cb 8e3d
000003c0: 2ec5 26bd 8d70 85bc 1a23 94bd b9ed 64bd
000003d0: d8f1 40bd bd01 21bd d2bd 883c 5cad 103d
000003e0: ec24 a53c 0062 e93c b31b 15bc fddd 0b3d
000003f0: 1609 6bbc f0f5 543d 82d1 47bd 13c1 b2bb
0.002753117 0.05810363 -0.029321011 -0.036958896 -0.078831814 -0.009007456 0.031473354 -1.4814749e-05
0.014177515 -0.07576117 0.068349786 -0.004957672 -0.0039918907 -0.007238989 -0.061157353 -0.07242753
-0.07890523 0.05035162 -0.0066948314 0.015747217 0.02892735 0.035716284 -0.032556627 0.074914835
0.03817887 -0.005033613 0.062334858 0.056227684 -0.060475033 -0.013042049 -0.038129076 0.0645204
-0.05548016 0.039124828 -0.042386957 -0.024500713 0.017749129 -0.04949064 -0.01682537 0.07582483
-0.031434417 -0.029342148 -0.016397443 -0.049425215 0.029964687 -0.05162753 -0.11359384 -0.07358708
-0.028564053 -0.03439736 -0.105750225 -0.053137574 -0.040958896 -0.0414155 -0.108303145 0.03599569
0.029823054 -0.056125857 0.07855935 -0.006771288 -0.051835693 -0.032737996 -0.03574817 -0.0639519
0.062002663 -0.05243003 0.047872536 0.020969989 0.052688334 -0.037313096 0.06306715 0.009700855
0.15162024 -0.040682692 0.03197581 0.011905341 -0.013545133 0.03180708 -0.01889077 -0.0007292642
0.056919646 -0.06586816 0.034252886 -0.09395708 -0.04789063 -0.07861814 -0.033017155 0.079308346
-0.037882026 -0.006011772 0.025664788 0.047115058 0.01633794 0.061492108 0.058206733 -0.036130052
-0.04426423 0.04547265 0.009806891 0.11007404 0.09165968 -0.06999981 0.013326008 -0.04122154
-0.047126938 -0.046342824 -0.013355411 0.05043704 0.039297435 0.0030332017 -0.006101996 0.0070611774
0.055561967 -0.04468705 0.06428623 -0.07629028 -0.073108144 0.052147478 0.011862578 -0.07823014
-0.030155344 0.018852813 0.03592217 0.087341845 -0.04037605 0.0923922 0.042380914 0.012038585
0.1500271 0.09878896 0.045111604 0.08688498 0.036247186 0.08305445 0.084168606 -0.039841525
-0.070547305 -0.15685456 -0.07154224 -0.083931774 -0.008261558 -0.041641135 0.030882014 -0.032858495
0.06209901 -0.06325776 0.052485954 0.028053658 -0.0067556933 0.016552117 0.07669365 0.06497338
-0.0003024534 0.02511397 -0.07538561 0.06278224 0.016493829 -0.040339757 -0.071616694 0.05006305
-0.076982625 -0.019949164 0.0058012926 0.05613956 -0.046522427 -0.039075952 -0.08188185 0.022441264
0.016112166 0.046851333 -0.059315216 0.063451365 -0.0008634143 0.073987626 0.02594261 0.05596076
-0.025967719 0.02945925 -0.049014248 -0.0046273284 0.001548368 -0.046889246 -0.052580617 -0.069998436
0.013755758 0.05202438 -0.07393298 -0.06764604 -0.07978808 -0.00414179 0.059325878 0.06609058
0.03643227 -0.06848768 0.05968259 0.06387484 0.007893976 -0.059790466 -0.072596945 0.07208553
0.0015069436 -0.06795095 0.033931028 -0.0005897565 -0.020601569 0.026557758 0.0038552745 0.061008982
-0.00547326 -0.07343287 -0.05497205 -0.0056881625 -0.057993896 0.009081324 0.058054503 -0.017462479
-0.064279534 0.078245334 0.021132924 0.021048592 -0.019411843 -0.08321704 0.044355787 -0.0140204895
-0.014035823 -0.009162481 -0.06825905 -0.077985026 -0.06673301 -0.059384122 0.062862895 -0.0597578
-0.030356953 -0.012459772 0.0036581217 -0.004276704 0.02651848 -0.048668485 0.052015 0.06972388
-0.04071539 -0.01628902 -0.072332576 -0.055890772 -0.04710564 -0.0393083 0.016692076 0.03532158
0.020159207 0.028489113 -0.009100842 0.03414725 -0.014345428 0.051992357 -0.048783787 -0.005455145

conv3.bias f4 [32]
00000000: dbb9 723e 7b0f 7ebd 365e 9d3e 105d 95bd
00000010: 2b53 c3bd c0e9 e93a 637b d03d 767b 8a3b
00000020: 5a13 63bc 0516 193d 46f9 56bd 647b 1a3f
00000030: be9d 5f3e 3283 73bd 5d87 0e3d 7654 5a3e
00000040: 68c9 9c3d 1261 c43d ce0c c23d 0dbe 8a3e
00000050: c683 d93b a7ef c9bc 2702 ce3e e815 c43e
00000060: 7ca5 1d3d 656d 3f3e 568a d6bc e20b 0bbe
00000070: d73b a4bd 355b da3e d99b 05bd 990a 563d
0.2370371 -0.062026482 0.3073594 -0.07293141 -0.095373474 0.0017846152 0.10179784 0.0042261435
-0.013859594 0.037374515 -0.05248382 0.6034453 0.21837518 -0.05945129 0.03479706 0.21321282
0.07655603 0.09588827 0.094750986 0.27098122 0.006638023 -0.024650408 0.40236017 0.38297963
0.038487896 0.18694074 -0.02618901 -0.13578752 -0.08019226 0.4264771 -0.03261933 0.0522562

conv4_1.weight f4 [2, 32, 1, 1]
00000000: 29f7 7bbe 7350 c73d b326 efbd ed7c 20bf
00000010: bbc7 e0be e3fd 2bbe 1061 9bbe 6446 193e
00000020: 5271 39be 1b4e 65be 27e5 c9be 63d8 a8bf
00000030: 13ae 1bbf 24e3 be3e 55d0 403f 865e 993e
00000040: cdde 133f 1650 e03e 372d ad3e 989b e23e
00000050: 488c 1a3e e560 3bbd 509c 7abe 84e6 893e
00000060: a12c 5b3e eedd ddbf ad78 4b3f 6992 42bd
00000070: 85cd 623e ffa7 6a3f ea3c 423c c820 14bf
00000080: 354f b23e 2548 89bd d61f 03bd 2423 3d3f
00000090: 19d9 e63e fcbe 533d 6421 a53e 9ea1 7cbd
000000a0: abd3 8d3e 137d 913d 2f39 8d3e 952f a73f
000000b0: 500a 0c3f e18d 22be e602 4fbf b967 d2be
000000c0: 2040 2fbf 7fdf 16bf ba13 1abf 8d4f 07bf
000000d0: 0bf5 c9bd 160c 053e 86f6 6c3e b86e c0be
000000e0: e82a 4fbe 5f3b db3f 1750 55bf 520f 033e
000000f0: 2dc4 58be e737 63bf 567c c1bd 5a2a 583f
-0.24606003 0.09732141 -0.11677303 -0.6269062 -0.43902382 -0.16796069 -0.3034749 0.14968258
-0.18109635 -0.22393076 -0.39432642 -1.3191036 -0.6081249 0.3728267 0.7531789 0.29954928
0.5776184 0.438111 0.3382356 0.44259334 0.15092576 -0.045746703 -0.24473691 0.26933682
0.21403743 -1.7333353 0.7948101 -0.04750291 0.22148712 0.9166259 0.011855343 -0.5786252
0.34826055 -0.067032136 -0.032012783 0.73881745 0.45087507 0.05169581 0.32252038 -0.061677568
0.27700552 0.07103934 0.2758269 1.3061396 0.54703236 -0.15874435 -0.808638 -0.4109476
-0.6845722 -0.5893478 -0.6018635 -0.5285576 -0.09861191 0.12992892 0.23140916 -0.37584472
-0.20231211 1.7127494 -0.8332533 0.12798813 -0.21168585 -0.88757175 -0.09447543 0.84439623

conv4_1.bias f4 [2]
00000000: 753a 15be e548 573e
-0.14573081 0.21023901

conv4_2.weight f4 [4, 32, 1, 1]
00000000: 29fc c33d d64f 80bc 968a 36be c6f5 023e
00000010: 86db 4a3d 3b16 8cbd 67a5 573d f7ae 043d
00000020: a7cf 183e 4e44 813e 9785 383c 65f5 763b
00000030: 4d20 8a3d e9fe 713c 790f ae3c d18a 1a3d
00000040: 5dd6 553e 79fb b83e 7e8b 1abd fbb0 dfbe
00000050: 7d98 3f3d 9b36 24be 08d1 60be 15e2 65be
00000060: 6890 b5bd 31f6 313c 4ac7 c23d 6b9f d93d
00000070: 5d7f 893c ee2f dcb9 8d32 d6bd 8b66 9abd
00000080: 92eb eabc 1214 eebd 92c0 2ebd 26aa 34bc
00000090: e452 9dbc 6a7e 17be af6d 33be 4236 e0bc
000000a0: ab7a f5bd 0c25 81bd 5279 2d3d 295d b3b9
000000b0: 4e41 94bd b6d0 59be 747f 123e fb95 ef3d
000000c0: 24ff ccbd 4e26 8a3e bd7e 273e 085e ea3d
000000d0: b1d6 03bc b831 a3bd 81c4 d13d 9b4f b2be
000000e0: 8cc5 893d a3e2 4f3d d5c8 16be 4646 68be
000000f0: 85a4 6c3e ff82 13bd ed95 263e efa2 04be
00000100: 9866 1dbc 3eff 01be 66c4 493e 9de3 a6bd
00000110: befa 033d 3c57 733d 851c 10bd aa61 bc3d
00000120: 23d9 76bd 1524 e33d 3ae3 f3bc e7eb ae3c
00000130: 0ee6 103d 6aa5 923c 6c7b 47bc 076f 253e
00000140: 0bee 14bc 6f69 6e3d d38d ddbd 1609 47bd
00000150: bb81 1cbe 95f3 9cbd 9f9b 193e f1d8 b73d
00000160: 01c4 883b ad3e 753c d219 15bd e177 433d
00000170: b61c 80bd 9916 4f3b a6c9 aabd 77de 193c
00000180: a1e5 fd3d 347d 99bd a58e 113d c343 1bbd
00000190: f1d8 2abd 0cbd 27bc b955 6c3e b063 543c
000001a0: 2e63 313d b247 23bc 325d 813a 0a89 67bd
000001b0: b816 8bbd b00a e2bd 7aad 9fbc df73 9bbc
000001c0: 66c7 fbbd ef83 47be 129c c2bd a7f8 f23d
000001d0: 713b dd3c 8779 f73d ec01 d63d 1146 2c3e
000001e0: fe2d 743d 5743 163b f05f 90bd 6325 45be
000001f0: 7f7d 8a3c 4577 2c3e 2ebe fdbd c8e7 71bd
0.0956958 -0.015663069 -0.17826304 0.12789068 0.04952576 -0.068401776 0.052647974 0.032393422
0.14922963 0.25247425 0.011262319 0.0037682888 0.06744442 0.014770248 0.021247612 0.037730042
0.20882554 0.36129358 -0.037730686 -0.43689713 0.046776284 -0.16036455 -0.21954739 -0.22449525
-0.08865434 0.010861919 0.095106676 0.1062611 0.016784364 -0.0004199738 -0.104588605 -0.0753909
-0.028676782 -0.11624922 -0.042664118 -0.011026895 -0.019204564 -0.14794317 -0.1752231 -0.027369622
-0.11986288 -0.06305894 0.04235203 -0.0003421095 -0.072390184 -0.21271023 0.14306432 0.116985284
-0.10009602 0.2698235 0.1635694 0.11443716 -0.008046792 -0.079684675 0.10242558 -0.3482636
0.06727132 0.050753247 -0.14725049 -0.22683057 0.23109634 -0.0360136 0.1626813 -0.12952779
-0.00960698 -0.12695023 0.19703826 -0.081488825 0.03222155 0.059409365 -0.03518345 0.091983154
-0.06026567 0.110908665 -0.029771436 0.021352721 0.035375647 0.017901141 -0.012175422 0.16155635
-0.009089957 0.058206018 -0.108180664 -0.04859265 -0.15283863 -0.07663647 0.15000771 0.08976925
0.004173756 0.014968556 -0.036401577 0.047721747 -0.06255476 0.0031599163 -0.08339243 0.009391419
0.12397314 -0.07494584 0.035536427 -0.03790642 -0.041710798 -0.010237943 0.23079576 0.0129632205
0.043307476 -0.009965824 0.0009869693 -0.056527175 -0.06791443 -0.11037195 -0.0194919 -0.01897615
-0.122938916 -0.19483922 -0.09502424 0.11863833 0.027005883 0.120837264 0.10449585 0.16823603
0.059614174 0.0022928321 -0.070495486 -0.19252543 0.016905544 0.16842373 -0.123897895 -0.059058934

conv4_2.bias f4 [4]
00000000: 6e42 753c 2420 833d 1aeb 393f 8ed5 403f
0.014969451 0.06402615 0.7262436 0.7532586

conv4_3.weight f4 [10, 32, 1, 1]
00000000: 73f2 ad3c 838a a63d f3df fb3d 4e44 933d
00000010: fcb5 aa3c ce84 333e fe97 c8bd f93c 143e
00000020: d028 a4bd d66c 033e 55d9 d63d 2d2e 593c
00000030: 3078 f73c 8228 5fbd caf8 243b 804d 85bd
00000040: d182 493c da5b 353d 849e f8ba a9e3 90bd
00000050: 9145 f7bd 9a75 963d 4fc5 17bd c6a2 4b3d
00000060: f6c6 aa3d cabf 7ebb 69e9 a13c d7f1 f7bd
00000070: a45a 1a3c 5c96 973d 74ff 95bd fc36 9c3c
00000080: ed48 c93d efdd b4bd 32f7 c7bd fc91 b7bd
00000090: eb80 a3bd 58f4 2abe 7413 d93c 8cd5 8d3d
000000a0: 9dbd aabd 5fb8 cebd 1a24 97bd eec2 033d
000000b0: 105e 393d 1636 7e3c 9059 d9bd 1ea8 1d3e
000000c0: a2ff babd 7c27 b13b bc91 92bd d3ff 20bd
000000d0: d971 67bc 62b0 293d 1f13 063e c003 893d
000000e0: 4ef5 a83d d08a bb3b 52b8 4cbb 8784 e83d
000000f0: 6e1b b3bd 3b81 673d 9420 263e 1551 ab3c
00000100: 1a66 9bbd 88d2 273e f642 3b3d 722f 95bd
00000110: e0df d5bd 99fc 2e3e 1570 1a3e fdc9 0ebe
00000120: bb08 2d3c 6642 303c 8f96 03be bbee 163c
00000130: 1c6b 3abd 3815 0c3d 43d3 fbbc 5659 2c3d
00000140: b8d5 a5bd 2939 343c a16a 3d3d aa5b 83bd
00000150: 4cc3 37bd f6bb 1dbe af52 0c3e ab32 07bd
00000160: c4dc afbd cd77 963c aad8 023d 0a2f b9bc
00000170: e3d7 db3d bcc0 e2bc e4bb f23d 990c 0dbd
00000180: 6301 f53d 1acf 07bc 7598 d33d 9095 c1bd
00000190: 35fb c2ba 53d1 333d 42b2 853c a02b dfbc
000001a0: 90f9 dd3d d6ca 14bd ba01 9b3c 78ec 243c
000001b0: 7d23 d03d d997 33bd e252 263d a850 fe3d
000001c0: d12d 5a3d a15b 02be cfe7 d93d 9547 0abc
000001d0: 8fae bb3d 8bf4 30bd f130 203e ad09 3abd
000001e0: 900c 093e d68c 713c 48e9 eabd f458 47bd
000001f0: 4b7f 08be 6079 563c 4f88 efbd 05b1 9b3d
00000200: 0d62 db3c 26ab 0bbd a684 f03d fbda 6cbd
00000210: 72f5 fbbc 3c9a 2ebe 3568 a43d 2e7b 1d3e
00000220: b8f7 5cbc 8f77 943d bb9e 463d 087e 173d
00000230: 6794 393c 998b ebbd 6845 ba3d 2aea babd
00000240: ada0 2abd 2fa3 06be 1c15 20bc 058e 843d
00000250: f694 943d a6f1 19be 77c2 0d3e 6c3a 2c3c
00000260: cbf9 0e3e bc46 7fbc 32ec 2abb f71f 15be
00000270: 4721 d8bc be26 c93c a26f 373d f3e2 e33c
00000280: fd27 db3c c3fc f4bd 0265 7d3d 3824 463d
00000290: a7ad 083d f242 523c 4fbd e4bd 2883 1dbe
000002a0: 6bd6 cfbd 224b 603c a9ea 9fbc c4ed febc
000002b0: 489a 3e3d d273 1dbd 9cc8 35bd e373 26bd
000002c0: 0179 b83c d231 523d 4e50 043d 4ed5 9fbc
000002d0: 531b 22be c1cc b6bd 35c2 113c c7a2 8f3d
000002e0: 72b6 d23d f323 213c 01a6 2d3c 3d74 0ebe
000002f0: 5137 91bd eb7c 943d e00b 233e 467e 5a3d
00000300: fa3e 83bc 692b db3d 5acc 38bd cf21 b8bc
00000310: ac22 423d e260 f53b 42c1 c4bd 016e 7ebd
00000320: 4ecb fdbd eaab b03d 6ca2 f6bd 59cb 32bb
00000330: 6726 903d 0acf e2bd 8d26 a93d 5a4f a33d
00000340: f8ef 113e 50ef 74bc 3eb4 2dbe b7e8 903d
00000350: c423 35bc a838 23be 3a64 a23d 0b49 e5ba
00000360: 79d1 d9bc b32a d1bc 8730 a33d dcd8 2fbd
00000370: 7688 8d3d 58a4 cdbd 4201 e4bd dfa0 343d
00000380: 6583 883a 1df9 14be 38c2 f43d 55f0 b8bc
00000390: 4f36 a63d d7f8 77bd 6456 dc3d 6cb5 cdbd
000003a0: 2ddb efbd f27c 073e d570 a23c ff0b 843d
000003b0: 7164 2bbd d586 07be d36c 0bbe 7740 1c3e
000003c0: 1eee 093d 4f5e 813d 6cf5 933d 4cf9 b0bd
000003d0: 95eb dbbc 4ff8 2b3d ef21 bc3d 2e52 d03d
000003e0: 5e42 4d3d 99e1 523b 07f7 cdbd 553f 963c
000003f0: e5e5 4fbd c65d f33d c5b1 173e 358f 47bc
0.021233773 0.08131888 0.12298574 0.071907625 0.02083873 0.1753113 -0.09794615 0.14476384
-0.08015597 0.12834486 0.104906715 0.013255638 0.030208677 -0.05448199 0.0025172704 -0.065089226
0.0122992555 0.04427705 -0.001896814 -0.07074673 -0.120738156 0.073466495 -0.037053403 0.04971578
0.0833873 -0.003887164 0.019764619 -0.12106674 0.0094210245 0.07401726 -0.073241144 0.019069187
0.098283626 -0.08831393 -0.09763946 -0.08963391 -0.079835735 -0.16694772 0.026498534 0.069254965
-0.08336947 -0.1009376 -0.07379933 0.03216832 0.04525572 0.015515825 -0.10612786 0.15396163
-0.09130789 0.005406318 -0.07156703 -0.039306473 -0.0141262645 0.041427977 0.13093232 0.066901684
0.08249913 0.005723335 -0.0031237793 0.113534026 -0.08745466 0.05651973 0.16223365 0.020912686
-0.07587834 0.16388905 0.045718156 -0.0728444 -0.104430914 0.17088546 0.15081818 -0.1394424
0.010561164 0.010758018 -0.12850402 0.009212191 -0.045512304 0.034199923 -0.030740386 0.042077385
-0.08097404 0.010999956 0.046244267 -0.06413968 -0.044863984 -0.15403733 0.13703416 -0.033007305
-0.085870296 0.018367672 0.03194491 -0.022605438 0.107345365 -0.027679794 0.118522435 -0.034435842
0.11963155 -0.008289123 0.10331813 -0.09452355 -0.0014875891 0.0439008 0.016320352 -0.027242482
0.10838616 -0.036326252 0.018921722 0.010066144 0.10163019 -0.043845985 0.040606387 0.12417728
0.05326635 -0.12730266 0.10639917 -0.008439918 0.09164154 -0.043201964 0.1564367 -0.045419384
0.13383698 0.014743051 -0.11470276 -0.048668817 -0.13329808 0.0130904615 -0.11695921 0.07602123
0.026780153 -0.034098767 0.11744051 -0.057826024 -0.030756686 -0.17051023 0.080276884 0.1537902
-0.013486795 0.072493665 0.04849122 0.036985427 0.011326886 -0.115012355 0.090952694 -0.091266945
-0.04165714 -0.13148187 -0.009770658 0.064724006 0.072549745 -0.15033588 0.13843714 0.010511976
0.13962476 -0.015580829 -0.0026080725 -0.14562975 -0.026383055 0.024554607 0.044784196 0.027818179
0.026752466 -0.11962273 0.061863907 0.048374385 0.033368733 0.012833344 -0.1116892 -0.15382063
-0.10148319 0.013689788 -0.019521074 -0.031119235 0.046533853 -0.038440533 -0.04438077 -0.040637862
0.022518637 0.051317044 0.032303147 -0.019510891 -0.15830736 -0.089257725 0.0088964 0.07013469
0.10288705 0.009835231 0.01059866 -0.13911529 -0.07090629 0.07250389 0.15922499 0.05334308
-0.01602124 0.10701639 -0.04511676 -0.022477059 0.047396347 0.007488356 -0.096071735 -0.062116627
-0.12392293 0.0862654 -0.12042698 -0.002728185 0.07038575 -0.11074646 0.08259306 0.079741195
0.14251697 -0.014949635 -0.16963288 0.07075637 -0.0110558905 -0.15939581 0.07929273 -0.0017493082
-0.026589142 -0.025533056 0.0796824 -0.042931423 0.069107935 -0.10041112 -0.111330524 0.04409873
0.0010415135 -0.14548154 0.11951107 -0.022575537 0.08115827 -0.060540047 0.10758665 -0.10044369
-0.11711726 0.13231257 0.019829193 0.064476006 -0.041843835 -0.13235028 -0.13615732 0.15258966
0.033674352 0.06316816 0.07224545 -0.086412996 -0.026845733 0.041984852 0.0918616 0.101719245
0.05011212 0.0032177924 -0.10056882 0.018340746 -0.050756354 0.1188312 0.14813907 -0.012180139

conv4_3.bias f4 [10]
00000000: 968d 053e 491a 793e 60cd ec3e 002e 4b3e
00000010: 7009 873e 9f33 e93e 5236 3e3e d704 dd3e
00000020: 8b87 dd3e cd4c b23e
0.13042292 0.24326433 0.4625044 0.19841766 0.26374388 0.45547196 0.18575409 0.43167755
0.43267474 0.3482422

momentum_buffer f4 [10, 3, 3, 3]
00000000: ce3e a03d 10b5 823d 9207 2e3e a9cb 1f3e
00000010: 7074 1a3e c080 393e 8f4b 073e 5a65 113e
00000020: ed66 1b3e d624 213d ddb4 283c 72f0 db3d
00000030: 746b de3d f844 aa3d 922f d83d a2fb a93d
00000040: e60d 8c3d 4043 9e3d 0a36 c8bb c29c c0bb
00000050: 1b5e ba3d dd92 8e3d 8964 6d3d c980 a33d
00000060: a3a3 293d 87d4 d73c 4857 f13c ed0d 7d3e
00000070: 8291 533e 26a4 743e 5aef 643e 00f5 603e
00000080: 6b45 6e3e 5ac6 6a3e 15f7 863e 5858 743e
00000090: c50b 613e 3e50 223e 52eb 343e ee1d 513e
000000a0: 9808 423e 08d7 303e c198 653e 23a9 793e
000000b0: d2d5 4d3e 2311 323e ed46 ef3d e653 f93d
000000c0: 2461 213e 5f27 123e 7731 fb3d 12b2 343e
000000d0: efe0 483e 8a24 1f3e 8899 133e cd16 2e3e
000000e0: 3e7e 3d3e fdc7 2a3e 5a53 553e 9eaf 5b3e
000000f0: e34b 5a3e cf46 5b3e d668 3c3e 2a44 8e3d
00000100: 5a72 ab3d 3e8b eb3d b7e2 b03d 3837 013e
00000110: 4e65 163e 9063 fd3d 2a3a fb3d 1c5e d83d
00000120: 30b4 233c 9244 143d 8aa2 923d c085 b93c
00000130: 87b7 993d 9428 d83d b51c 8c3d 7565 8b3d
00000140: 4c24 483d 26b4 cdbe 13aa c8be da07 adbe
00000150: f07e cdbe 5a12 babe 35dc acbe 6457 cebe
00000160: 608f cabe 03ca c1be 84cf 54be a300 4abe
00000170: ebe2 1bbe 6172 5dbe 44bc 34be 5519 2abe
00000180: 1808 6cbe 8241 64be bfa5 61be 16ef fbbd
00000190: 1a77 d7bd 569c 8cbd a64b 18be 909c cdbd
000001a0: 8eaa b3bd 0e04 36be 9f2d 29be d561 14be
000001b0: 9ef8 873b 3f16 683c 2016 3cbb cf2b 4d3c
000001c0: 8002 5e3c c630 74bb 8208 6c3c 2f17 2b3c
000001d0: f322 07bc bd52 a3bc 32f7 1ebb 0d64 50bc
000001e0: d8f2 a5ba 6de1 053c faaa e03a 6842 6f3b
000001f0: e8a4 813b ff7e 9dbb c892 573c 745c fa3c
00000200: 3588 a63b 713b c73c 447e 2d3d f813 003d
00000210: fe1a 503c bb80 0b3d 04d5 0b3d 48f1 3d3e
00000220: 24d5 093e 8456 103e 3dbf 1a3e 97f2 ee3d
00000230: 38f0 d93d 5174 133e 3265 103e 9448 f43d
00000240: a042 6c3c 3816 90bc 70ce e6bb 68ea b9bc
00000250: 8650 21bd faba 18bd 2807 fabc 78fc c0bc
00000260: 348a 1cbd 40c5 9bba 48cb 42bd 0f1d 2fbd
00000270: 8cba 17bd 688a 95bd b76a a1bd ae0c 37bd
00000280: f593 59bd f243 a5bd b0de fd3d ce0d 933d
00000290: 6816 9b3d 381b b03d e677 5d3d cad4 6e3d
000002a0: 98cf 6f3d 9e3f 8a3d 1a26 a23d 0a8c c23d
000002b0: bc3b 563d 4e00 713d 1ed0 933d 2265 3b3d
000002c0: d68c 4c3d ec4e 533d 2420 773d 3214 943d
000002d0: ace7 c73d 8a52 6d3d 18c3 843d f43f 8a3d
000002e0: a48e 473d 1698 763d 4292 383d 7c25 7c3d
000002f0: 064b ac3d 2fb1 2dbe 5e49 28be c087 33be
00000300: 38f5 21be 86cb 1cbe 6ca9 28be 63fd 30be
00000310: 864f 16be c84e 12be bf2d bdbd 2465 a1bd
00000320: 48d3 bfbd 9fa1 a3bd db7b 92bd 42e7 aebd
00000330: 9403 adbd f44b 7cbd bc30 5bbd dea3 7ebd
00000340: eb1f 6bbd d595 96bd 34f8 24bd f0a1 16bd
00000350: 1611 6bbd 7456 febc 586b 58bc 7c95 80bc
00000360: 64bb 743e 734a a43e ac70 ad3e c56b 8a3e
00000370: aaf8 9e3e b1d7 a73e 2590 843e d176 9f3e
00000380: c112 ae3e 001c 793e 7e88 aa3e d2ff b43e
00000390: 3362 9f3e dcd6 b63e f2d9 b93e 18f4 983e
000003a0: 1499 b53e 6278 be3e 854e 4a3e 801c 9f3e
000003b0: c41f aa3e 19ee 893e 3239 a83e cb56 aa3e
000003c0: d870 833e 19bf 9f3e b301 a83e f7c4 723e
000003d0: 1475 633e db4e 503e 0a2f 613e 5b3e 4b3e
000003e0: 8b89 443e 4bd0 773e d4e9 683e 37fd 453e
000003f0: e015 933c 3077 06bc e8ba 26bd 80c2 cbba
0.07824479 0.06382191 0.16995075 0.15605034 0.1508348 0.1811552 0.13212417 0.14198819
0.15175982 0.03934177 0.010297027 0.10739221 0.10860339 0.08313936 0.10555948 0.08299948
0.068385884 0.07727671 -0.0061099576 -0.005878062 0.090999804 0.06961606 0.057957206 0.07983548
0.04141582 0.026346458 0.029460564 0.24712344 0.20660976 0.23890743 0.2235693 0.2196846
0.23268668 0.22927228 0.26360384 0.23861825 0.21977146 0.15850922 0.17667893 0.20421574
0.18948591 0.17269528 0.22421552 0.24380927 0.20101097 0.1738935 0.1168345 0.121742055
0.15759712 0.14272831 0.12265294 0.17646053 0.19617055 0.15541282 0.14414036 0.17000885
0.18505189 0.16677852 0.20832577 0.21453711 0.21318011 0.2141373 0.18399367 0.06946595
0.0837142 0.11501168 0.086369924 0.1261872 0.14687082 0.12372506 0.12266953 0.10564825
0.0099916905 0.036198206 0.07159908 0.022646785 0.07505708 0.10554615 0.06841413 0.06806461
0.04886274 -0.40176505 -0.39192256 -0.33795053 -0.40135908 -0.36342126 -0.33761755 -0.4030105
-0.3956251 -0.37849435 -0.20782286 -0.19726805 -0.15223281 -0.21625663 -0.17649943 -0.16611226
-0.23049963 -0.22290614 -0.22035883 -0.123014614 -0.10520764 -0.06865756 -0.14872608 -0.100396276
-0.08772765 -0.17774984 -0.1652131 -0.14490445 0.0041495105 0.01416546 -0.002869971 0.012522652
0.013550401 -0.0037260517 0.014406325 0.010442539 -0.008248079 -0.019936914 -0.0024256227 -0.012719166
-0.0012660874 0.0081714215 0.0017140799 0.0036508087 0.003956426 -0.004806399 0.013157554 0.030561663
0.005082155 0.024320336 0.042356744 0.031269044 0.012701748 0.034058314 0.034138694 0.18549073
0.13460213 0.14095503 0.15112014 0.11667364 0.10641521 0.1439984 0.14101103 0.11927906
0.0144201815 -0.01758872 -0.0070436522 -0.022694781 -0.039383434 -0.03728769 -0.03052099 -0.023557886
-0.03821774 -0.0011884347 -0.047557145 -0.04275232 -0.03704314 -0.073017895 -0.07881682 -0.044689827
-0.05311962 -0.080696 0.1239599 0.071803674 0.07572633 0.085989416 0.054069422 0.0583084
0.058547586 0.06750415 0.079174235 0.094993666 0.05230306 0.05883818 0.072174296 0.045750745
0.049939 0.051588938 0.060333386 0.072304145 0.09760985 0.057940044 0.06482524 0.06750479
0.048720017 0.060203634 0.045061357 0.061559185 0.08412747 -0.16962121 -0.16434237 -0.17532253
-0.158162 -0.15312013 -0.1647088 -0.1728416 -0.14678773 -0.14287865 -0.09237241 -0.07880619
-0.093664706 -0.07989811 -0.0715253 -0.08540203 -0.08447948 -0.061595872 -0.053513274 -0.062167995
-0.057403486 -0.07352797 -0.040275767 -0.03677553 -0.05738934 -0.031047083 -0.0132091865 -0.01569628
0.23899609 0.3208805 0.33875024 0.27035347 0.3104909 0.32781747 0.25891224 0.31145337
0.33998683 0.24327087 0.3330726 0.35351425 0.31129608 0.357108 0.36299092 0.2987373
0.35468352 0.3720122 0.19756515 0.3107643 0.3322736 0.26939467 0.32856137 0.33269343
0.2567203 0.31200483 0.32813796 0.23707949 0.2221263 0.20342581 0.219906 0.19848005
0.19193093 0.24200551 0.22745448 0.19334875 0.017954767 -0.008207127 -0.04070559 -0.0015545636

momentum_buffer f4 [10]
00000000: 9873 f03d 7501 533f c001 cebc 131e ebbe
00000010: f5dc bd3c 9851 a1bd 35aa d93e 5269 84be
00000020: 11af fa3e e048 e8be
0.11740798 0.824241 -0.025147319 -0.45921382 0.02317665 -0.07876891 0.4251267 -0.25861603
0.4896169 -0.453681

momentum_buffer f4 [16, 10, 3, 3]
00000000: 8f73 0d3e 2ce8 273e 8522 1a3e dc0d fa3d
00000010: 6ac7 2a3e a338 353e c9f5 a23d 406f 093e
00000020: e48b 363e 7536 9b3d 0bd1 bc3d 7a09 b33d
00000030: ba47 823d fe71 963d 9aa2 a13d 661f 503d
00000040: 869c 7a3d fc6b 6c3d d819 283c 794d 5d3c
00000050: 1478 803c e29a 653d 2426 a93d 3eee 523d
00000060: fd42 ec3c 0c56 a23d 2efd d53d bc99 093d
00000070: 9f4a 1f3d 0ac1 553d 7b53 703d bc90 fc3c
00000080: cbac 1b3d 77c6 973d aa00 a53d 6d8c 8d3d
00000090: c4a0 ce3d 9ab3 c63d 2a73 bc3d c626 a53d
000000a0: e7c4 a63d 8e08 a93d 91ac 913d b489 8e3d
000000b0: 1b51 903d 07d1 8dbb dde2 733d f292 ef3d
000000c0: 6820 c13c c240 5e3d 82fb cf3d e9ad c9bb
000000d0: c438 b03c 9a36 193d 1503 1d3c 80bd d6ba
000000e0: 2eb0 07bc 06f6 213c 06aa d6bb 3197 3cbc
000000f0: 5e09 503c 4842 96ba f9a7 f6bb 8b3f 48bd
00000100: b3a4 67bd 7638 4dbd 2f70 25bd 9bbd 53bd
00000110: 5264 47bd c44c f6bc 5a42 11bd 420d ffbc
00000120: 831e d33d c688 073e 0cc0 1c3e 6006 793d
00000130: 84ca fd3d 8448 3b3e 0064 d83a ea5c 403d
00000140: dc0b c53d bac4 a13d 9c37 bf3d a672 963d
00000150: 83c4 8c3d 96a3 0a3e a453 ed3d 7255 203d
00000160: dd20 043e 5eaf f33d 1ee9 713d 7c53 863d
00000170: 6740 743d 2bc3 333d 255a 543d 041d 6d3d
00000180: 6b68 c63c 9e08 063d ff63 473d db5d ce3c
00000190: 5aa3 8d3c c524 833c 7d35 e83c 26a2 bc3c
000001a0: be41 7e3c dc02 d33c 34d0 bf3c e8a1 813c
000001b0: 0742 603d 12ea 6c3d 88f0 123d 0640 943d
000001c0: 1acf 833d 52cb 1a3d ce34 2b3d 101a 1f3d
000001d0: a859 083d aca6 363d 5ba3 453d 3d4e 2e3d
000001e0: e903 0a3d 9cec 253d 96ae f43c 7c18 c33c
000001f0: ae70 0e3d 6ebd 013d 34d8 a039 c4bf d53a
00000200: 57da 223b a0b9 6f38 dc38 1e39 727b b13a
00000210: 90fe 3cb8 8ec4 b8b9 70fa 57b8 2d74 693d
00000220: b0f2 a23d 86ec 853d b437 413d 969e 603d
00000230: a5eb 233d 9f6b 183d 6e53 053d 4421 ac3c
00000240: 03a5 0c3c ec46 073c 57bc 033c efd8 7d3c
00000250: 889c 563c 00d7 203c a699 893c 40ee 623c
00000260: d91c 103c 8546 983b f0c5 293a 1609 fcba
00000270: 21d2 203c 6b55 cc3b 3428 4f3a 7748 323c
00000280: aac7 0d3c 35b4 873b bb5c 663d ca5c 863d
00000290: c815 863d 0d60 103d 8f7b 2b3d ab6c 4a3d
000002a0: 1ac5 923c d11c 843c 2d02 5e3c 3a6a 863d
000002b0: 9ff3 4e3d e13a 363d 777d 5c3d ec83 513d
000002c0: 0c1b 6a3d 5b5e 473d ace8 633d ee2d 6e3d
000002d0: 873e 6fbe d7c8 59be 9acf 2dbe c487 45be
000002e0: e4c6 38be fac7 36be 9033 0cbe 9f0c 2abe
000002f0: 735d 3cbe 7341 efbd 1346 9ebd 73d4 82bd
00000300: d180 d6bd 53ca 7abd c2f3 4bbd 1aa4 9cbd
00000310: c550 95bd 0961 5ebd 92a5 46be 9339 69be
00000320: 112e 3cbe c336 85be 3f24 47be 1c64 fbbd
00000330: 52be 42be 58c7 32be 22a2 1fbe f973 13be
00000340: 1632 2ebe 102b 04be 385b 21be f6f8 1fbe
00000350: 52d1 e4bd 855e 02be 4762 08be 2cae cebd
00000360: f994 7fbd 0fc5 73bd a71d 7dbd 2b3e 39bd
00000370: 1cd3 34bd b240 4bbd 1566 39bd 0dc8 37bd
00000380: 36fc 40bd febc 88be ae25 96be 027d 63be
00000390: 0a05 a7be 2898 92be 31b9 46be 9edc 61be
000003a0: 2f0d 25be 5402 11be bf74 d4bd 6e72 b1bd
000003b0: a41f 9bbd aa70 f6bd a8b3 d1bd aa04 cdbd
000003c0: c709 0ebe b52c fabd f0ac f7bd b869 f13c
000003d0: 56f0 143d c60f 903c 2958 833c dbf3 0e3d
000003e0: eaab e13c a024 2abb 8a3c 003d 1202 0e3d
000003f0: 6c21 89be ca9a 84be bad6 5abe 9b4e 8bbe
0.13813613 0.1639716 0.1505223 0.12209675 0.16677633 0.17697386 0.07957036 0.13421345
0.17826802 0.07578746 0.09219559 0.08742042 0.06361337 0.07345961 0.07892342 0.050811194
0.06118443 0.05772017 0.010260068 0.01350724 0.015682258 0.05605591 0.08259228 0.051496737
0.028840536 0.079265684 0.10448681 0.03359388 0.038889524 0.05218605 0.058673363 0.030830733
0.038006585 0.07410901 0.08056767 0.0691155 0.10089257 0.09702225 0.09201653 0.08064036
0.08143025 0.08253585 0.071129926 0.069598585 0.0704672 -0.0043278965 0.059542526 0.116979495
0.023575023 0.054260977 0.10155393 -0.006154765 0.021511443 0.037405588 0.009583254 -0.001638338
-0.008281751 0.009885317 -0.00655103 -0.011510656 0.012697546 -0.0011463845 -0.007527348 -0.048888724
-0.056553554 -0.050102673 -0.04039019 -0.051694494 -0.048679657 -0.030065902 -0.03546367 -0.031134252
0.10308554 0.13235769 0.15307635 0.060797095 0.123921424 0.18289381 0.0016509295 0.04696361
0.096214026 0.07898851 0.093367785 0.07346086 0.06873419 0.13538966 0.11588219 0.039143987
0.12903161 0.11898683 0.05906021 0.06558892 0.05963173 0.0438873 0.05184378 0.057889
0.024219712 0.03272306 0.048679348 0.025191238 0.017289806 0.016008744 0.028345818 0.023026537
0.015518604 0.0257582 0.023414709 0.015824273 0.05475047 0.057840414 0.03587392 0.07238774
0.06435986 0.037791558 0.041798405 0.038843215 0.033288628 0.044592544 0.04825149 0.042555083
0.033695135 0.04050885 0.029868405 0.023815386 0.03477543 0.031674795 0.00030678662 0.0016307761
0.002484938 5.7154917e-05 0.00015089236 0.0013540818 -4.5059773e-05 -0.0003524166 -5.1493233e-05 0.05699556
0.07956445 0.06539254 0.047172263 0.05483874 0.04001965 0.03721201 0.032550268 0.021011956
0.008584264 0.008256655 0.008040509 0.0154936155 0.013098843 0.009816885 0.016796898 0.013850749
0.00879594 0.0046470785 0.00064763334 -0.0019228782 0.009815724 0.0062357686 0.0007902414 0.010881535
0.008653561 0.0041413554 0.05624078 0.06560667 0.06547123 0.03524785 0.04186588 0.04942004
0.017916251 0.016127022 0.013550323 0.0656323 0.050525304 0.044489745 0.05383059 0.0511512
0.0571547 0.04867397 0.055641815 0.05814927 -0.23363696 -0.2126802 -0.16973725 -0.19290072
-0.18044621 -0.17849723 -0.13691545 -0.16606377 -0.18395023 -0.11682405 -0.07728209 -0.06388178
-0.104737885 -0.061228108 -0.049793012 -0.076484874 -0.07290796 -0.05429176 -0.19399098 -0.22775869
-0.18376948 -0.26018342 -0.1944742 -0.12274954 -0.19017914 -0.17458856 -0.15589193 -0.14399709
-0.17011294 -0.12907052 -0.15757453 -0.15622315 -0.11172737 -0.12731369 -0.1331874 -0.100918144
-0.06239793 -0.0595141 -0.061795857 -0.045225304 -0.044146642 -0.049622245 -0.04526337 -0.044868518
-0.047115527 -0.2670669 -0.29325622 -0.22215655 -0.32621032 -0.2863171 -0.19406582 -0.22056815
-0.1611831 -0.14161044 -0.1037383 -0.08664404 -0.07574394 -0.12033208 -0.10239345 -0.10010655
-0.13870917 -0.122155584 -0.12093532 0.029469356 0.036362015 0.017585646 0.016033249 0.034900527
0.027547795 -0.0025961772 0.031307735 0.034669943 -0.2678331 -0.25899345 -0.21370974 -0.2720841

momentum_buffer f4 [16]
00000000: 4b1c 3e3d ce63 c63d e0c1 57be e8f9 d6bc
00000010: 8249 873c 345e 9b3d 2b3b 383e 3dfe 32b6
00000020: 43fd 28be e64e 8cbe baf3 253e 7c0c cdbc
00000030: 35d9 02be 52b6 b3bd 7661 013d daf4 403e
0.0464137 0.09687005 -0.21070051 -0.026242211 0.016514543 0.07586327 0.17991321 -2.6672053e-06
-0.16502862 -0.27403945 0.16206256 -0.025030367 -0.1277817 -0.08775009 0.031587087 0.18843403
