Pytorch face detection - Test/MTCNN_train_process/1/checkpoint_2600.pth (torch, 250413 bytes, 24 tensors)

conv1.weight f4 [10, 3, 3, 3]
00000000: 2777 a2bd 49eb febd 1663 20be ba0a 423e
00000010: fd5e 5abd 6b6e d53d 5304 043e 370c 7b3d
00000020: 1fa6 7f3d 514f adbc d163 dfbd 5b68 cc3c
00000030: b354 85bc e855 4fbd 3482 d4bd 1de7 04bd
00000040: 5dda 3cbe 44db 6bbd ca38 1abe 970e 75bd
00000050: 989a 01be ad4b cbbc 1d42 2dbe 03a9 a33d
00000060: 6c82 c93c 7fb6 78bd 9bbf 093e c118 da3c
00000070: 2d0f 323d 3580 843d f435 b9bd 6bd3 a4bd
00000080: 2ce7 5cbd ea45 0ebe 409c 373d 12e1 2fbe
00000090: ba45 98bb 44cb 18be 4dab bbbd 8d32 44be
000000a0: 826e 18be 3fd5 dfbd 1cbf 28be d53f 16be
000000b0: 07d7 4a3d a770 bdbb deae 243e 3cff bbbd
000000c0: a1ff d4bd 09a0 223e 677b fb3d 1e54 05be
000000d0: 73b0 a2bd d1a2 44be 96e9 95bf 4034 85bf
000000e0: d8b4 60bf 8cf4 18be 1d53 123f ae53 da3e
000000f0: c687 2f3f 1e22 393f 15ae 133f a53e 3abd
00000100: ddb1 22be 2c20 473e c2c8 543c 42e3 f53d
00000110: 1e44 ee3d 109d 973d fe59 30be 0cab 49be
00000120: 39fa c1bb 0593 86bd 1b12 833e b846 6ebe
00000130: 3dd5 9e3d 3982 5b3d ea24 113e 70cd 323c
00000140: 2645 85be d8dc 473e 81ed 1b3f c63d df3e
00000150: d5d3 373d 326e ee3e 4d3c b23e 5dc4 00be
00000160: d8b3 863e 2e61 8e3c 8a7d 82be 03cc bfbe
00000170: 825f 1ebe caec b1be 6c59 28be 5a59 83be
00000180: 2824 66be 158d 02be 19ed a4be a642 4e3d
00000190: d189 96be bf9a 97be b70c 483e b26c 9dbe
000001a0: 91f6 27bd 8d3d ca3e f01a 06be 5efb 1d3e
000001b0: da58 01bd 1de3 c73e 7f4b c03e 76f4 b13e
000001c0: f6a3 ef3d 3372 5f3e 4719 933d fbb4 c1bd
000001d0: 0e8c 2e3e 5135 433e 4e84 0b3e 4af5 543e
000001e0: 489c 003e 739c bfbd 8574 493d 7da1 a5bd
000001f0: 4d1f 85be c187 84bd 86e1 ad3d e308 0a3e
00000200: 2e27 05be b34f f4bc e877 f1bc 27a6 53be
00000210: 521f bf3d 45e2 0ebd bccc 2f3e 1b87 61bf
00000220: c394 f93d 6828 063f e37b d7be 3a8b 15be
00000230: 2111 233f 6e66 1abe ca67 8a3b 8b56 923e
00000240: 8650 fdbe f58b 543e 3ffa f13e e537 f6be
00000250: 5710 c1be bdca 473f 2903 2fbd 5f52 bfbe
00000260: 8de6 963e 074b d1bd b279 033e 29e6 86bc
00000270: 9934 143e e633 32be a2fb 7d3d a9bb 003e
00000280: 18bf c9bd 3ca6 93bd d892 23bf dda7 17bf
00000290: a175 6ebe c3fc c2be 5dfd 813e fcd0 bdbe
000002a0: 37c0 f1be 34bb a9be 275c b5bd 80d0 493f
000002b0: 9e87 193e 1e0c cc3e 1fbc 0b3f b346 123f
000002c0: b4a1 6e3e 5149 803f ad5f 2d3f 34a0 0a3f
000002d0: c96b 2c3e c16e fd3d 3b8b 473e b9b9 59be
000002e0: e2e3 63be 719d 69be 1e98 40be 2666 a5be
000002f0: 1b39 70be 6976 abbd d26d 0b3e d8b9 09be
00000300: 7ef9 36be f421 8bbd 46b6 e43c afea 903c
00000310: 50f5 133d e39e da3d 681b 9abd 2051 0bbe
00000320: 8732 17be c2b8 3d3e fb7c de3d b5ef 303e
00000330: 9e44 76bd 326b 61bd 8cc9 41bd c27a 44be
00000340: b951 89bd 37d4 35be 2e89 3e3c 55b8 26bd
00000350: 0d6a 18be b011 36be bd5f 91bd b67e d33b
00000360: 4ea0 da3e a577 eb3e d852 cfbe de89 ce3e
00000370: 0904 6fbe 553d 83be 0aa9 403d fa66 2cbe
00000380: bccf e4be b6d6 33bd 797b 843e afd6 c7be
00000390: d7a9 ed3e de8c b3be 7f8f 52bd 7adc 9abe
000003a0: 8c5b bebe d899 a03d 944a 5ebe 1396 ab3e
000003b0: 74b4 17bf 2365 69bc 36e3 22be 1e16 523e
000003c0: 6beb 663d e870 eabd 7f54 813f 7bcc 273d
000003d0: 72a8 60be 6d59 473e a23e 103e e7ab 02bf
000003e0: 4093 10bf 51df d43e 6cb4 e43e 28a3 3d3e
000003f0: fee9 a2be 4312 29bf 9a21 c0ba a822 593e
-0.07932883 -0.12447221 -0.15662798 0.18949404 -0.053313244 0.10421451 0.12892275 0.061290946
0.062414285 -0.021155985 -0.1090771 0.024952104 -0.01627574 -0.050619036 -0.10376397 -0.03244697
-0.18442674 -0.057582155 -0.15060726 -0.059828367 -0.12656629 -0.024816358 -0.16919751 0.07991221
0.024598323 -0.060720917 0.13451998 0.026623132 0.043471504 0.06469766 -0.09043494 -0.08048137
-0.0539314 -0.13893858 0.044826746 -0.17175701 -0.004646984 -0.1492129 -0.091635324 -0.19159909
-0.14885905 -0.10929345 -0.16479152 -0.14672787 0.049521472 -0.0057812515 0.16082332 -0.091795415
-0.1040032 0.15881361 0.122793965 -0.1302037 -0.07943811 -0.19202735 -1.171191 -1.040657
-0.87775946 -0.14937037 0.5715807 0.42641968 0.6856655 0.72317684 0.57687503 -0.0454699
-0.15888162 0.19445866 0.0129873175 0.120062366 0.11634086 0.07403004 -0.1722183 -0.19694155
-0.0059197214 -0.065710105 0.2559975 -0.23269165 0.07755516 0.053590987 0.14174238 0.010913238
-0.2602932 0.19517839 0.6090928 0.43601817 0.044879753 0.46568447 0.3481163 -0.12574907
0.26309085 0.017380323 -0.25486404 -0.37460336 -0.15466121 -0.34750968 -0.16440362 -0.25654107
-0.2247473 -0.12749131 -0.3221214 0.05035653 -0.2940202 -0.2961025 0.195361 -0.3074699
-0.04100663 0.39500085 -0.13096213 0.1542792 -0.031578876 0.3904046 0.375576 0.3475682
0.11701195 0.21820907 0.07182556 -0.094583474 0.17045614 0.19063307 0.13624689 0.20796695
0.12559617 -0.09356012 0.049183387 -0.08087442 -0.26000443 -0.064712055 0.08490281 0.13479953
-0.13003227 -0.02982316 -0.029476121 -0.20668851 0.09332146 -0.034883756 0.17167944 -0.8809678
0.12186577 0.52405405 -0.42086706 -0.14603892 0.6369801 -0.15078136 0.0042237984 0.28581652
-0.49475497 0.20756514 0.47261235 -0.4808952 -0.3770778 0.7804373 -0.042727623 -0.37367532
0.2947277 -0.102193885 0.12839392 -0.01646717 0.1447319 -0.1740261 0.062007554 0.12571587
-0.09850901 -0.07209441 -0.6389594 -0.59240514 -0.2328706 -0.38083467 0.25388613 -0.37073505
-0.4721696 -0.33150637 -0.08855467 0.7883377 0.1499314 0.39852995 0.54583925 0.5713913
0.23303872 1.0022374 0.67724115 0.541507 0.16837992 0.1237464 0.19486706 -0.21262254
-0.22254899 -0.22813965 -0.18808028 -0.32304496 -0.23459284 -0.08372194 0.13616112 -0.134498
-0.17868611 -0.067935854 0.027918946 0.01769003 0.03612262 0.106748365 -0.075247586 -0.13605165
-0.14765368 0.18527511 0.10863682 0.17278941 -0.060124032 -0.05503387 -0.04731135 -0.19187453
-0.067050405 -0.17756735 0.011629386 -0.040703136 -0.14884205 -0.17780185 -0.07098339 0.006454314
0.42700428 0.4598972 -0.40492892 0.4033956 -0.23341383 -0.2563273 0.04703621 -0.16836157
-0.4468974 -0.043905936 0.25875452 -0.39030978 0.4641864 -0.3506841 -0.05140638 -0.30246335
-0.3717922 0.07841843 -0.21708137 0.33512935 -0.59259725 -0.014245304 -0.15906987 0.2051625
0.056376856 -0.114473164 1.0103911 0.040966492 -0.21939257 0.19467707 0.14086393 -0.5104355
-0.56474686 0.41576627 0.446689 0.1851927 -0.31819147 -0.6604349 -0.0014658452 0.21204627

conv1.bias f4 [10]
00000000: 6328 1bbe 944e 1bbe 0399 823e 6cbb 47be
00000010: a4bc 6fbd 86a8 52ba d044 983d 3bf4 7bbd
00000020: 24c5 ac3e 57ce 383e
-0.15152125 -0.15166694 0.25507364 -0.1950509 -0.05852951 -0.0008035976 0.07435 -0.061512213
0.33744156 0.18047462

conv2.weight f4 [16, 10, 3, 3]
00000000: 201b 563d 6b4e 3bbd 25a5 c5bb 7ccf a7bd
00000010: 59d7 ba3d 9d7c 983d 239c 49bd cb7f 7bbd
00000020: 4219 83bd 85f8 0ebc 4b6b 15bd 3772 acbd
00000030: e1af 493d 510f cebd 603a 8dbd 43da a7bd
00000040: 4ab8 3fbc 7b29 103d d5b3 a83e 2e8d 5a3e
00000050: d505 423d 25fa 603d d213 ac3b e3f4 1e3d
00000060: dca2 fbbc ae68 36bd 323a f83d 6a32 423d
00000070: baf6 be3d 8e76 aabd b7d5 d03a 886f f8bc
00000080: 4da5 06be beb9 083e dbe6 8dbd 924b 2ebd
00000090: d933 003e f165 0c3d be53 c13e 4917 02bf
000000a0: b665 7dbe 9038 e63e 1db6 dabe a39f c03d
000000b0: a231 903e 30b8 23be cbc2 5abd 8434 0abd
000000c0: 2786 20bf 2774 0abf 0116 96be 5c83 b2be
000000d0: b2f9 62be 4a38 bbbe a055 0f3d 9bf7 bd3d
000000e0: 0dcd c6bd cf37 6fbe c123 cabb 9523 b1bd
000000f0: c1cb 2abe d6f4 9e3e 8abb fdbc 40ea 663c
00000100: aee1 163b 84ee 563b f61d d2bd 60d1 cfbc
00000110: 6244 9dbc c7e3 4e3d 5608 3d3c be8c 58bd
00000120: 4c3a 013e d0a0 223e 44e9 90bc 7613 85bd
00000130: 9f35 4bbd e245 7abe a4d5 c2bd 130d d63d
00000140: 6367 0bbe 46ac 63be 19a3 ddbd c892 7d3d
00000150: 82d1 ec3d ff0a 1f3d 0a08 7dbd e262 08bc
00000160: 4e8b f63d 5204 9ebc 8b48 2d3d d549 2abd
00000170: ffc8 93bd b368 68bb ebe2 d23d c52f c83b
00000180: aaa8 d33c 3488 81bc 4b35 493b b343 a33d
00000190: 1089 8e3d 8ebd 0d3c ba8f a1bd 9e67 b7bd
000001a0: bcbf 9f3d 0848 713d acf1 bebc db04 b6bd
000001b0: 64db 45be e241 a03e 2b87 173e a29b 743e
000001c0: ac14 913e b271 f2bb be07 ba3c 8dfa 5cbd
000001d0: 9536 5fbd 6056 81be f039 79bd 4264 af3d
000001e0: 757e 9a3d 4c92 ebbc 78e9 ec3d 4911 30bc
000001f0: 0a09 913c f857 383d b84e b8bd 3294 28be
00000200: 5a34 743e 14d5 ecbd a3c7 943e b328 8c3e
00000210: 32d7 313c 0bd3 59be 27ee f1bd a2cc b8bc
00000220: 3138 0bbe 6a8e fcbd ee04 133d 769f 25bc
00000230: 5078 ca3d 07a4 0e3c ec99 f5bd ca9a 253c
00000240: 83ee 5dbe 3450 643e 2234 66be 8081 67bd
00000250: b598 b93d c051 1dbd 5512 fe3c da3d 1d3e
00000260: ff37 05ba ee14 f83c 6861 acbd 53ba cd3c
00000270: a7e6 cb3c 667a 9fbd f852 d1bd d6c8 78bd
00000280: 3461 a0bb c2da a9bd 3f11 a13e 06d7 adbd
00000290: 0b31 76be 3064 803e 4781 62be 8994 2cbe
000002a0: bd76 883e 13b2 803e 82e7 7b3e 707c aebe
000002b0: 31c4 ec3c 600e f2bd 253b 3fbe 3754 35be
000002c0: 78ab 9b3c fa01 2cbd 4629 dbbb f02f 553d
000002d0: bda5 053d b518 c3bd f6f8 ad3d a6c6 783d
000002e0: 601c 20bd 1346 26bd 2088 843d 688e 8fbd
000002f0: 01fd 743c 8759 3e3d 030d ccbd 5bd9 bcbd
00000300: 75e0 6fbd 654b eabc 1ea2 3abd bae9 f9bb
00000310: 7a8a 24bd a223 283d 938a 18bf 7042 c9be
00000320: ca1c 6cbd 5386 d1be d5ac bfbb fce4 29be
00000330: 8493 e2bd 05f9 9b3c 31ad 1b3a 19cd 9bbe
00000340: 68b2 cbbd 917e 663d 5764 ff3d 0750 9e3d
00000350: f06d 8dbd 719f ccbd 4c47 6abd 54d1 d93d
00000360: 530a e9be b439 4cbf 41c1 9dbd 50d6 fb3d
00000370: 2657 2a3e 163d 883d 255e 0b3f 4d47 c93e
00000380: 49b4 5b3d 807e eb3d 8ed2 933e 4c83 013e
00000390: 5f62 503d c837 1dbd a461 f3bd 6c7c 233e
000003a0: 12d5 fabd 8631 ee3d dce8 1abe e0d2 acbe
000003b0: 7497 50bd 4f16 f63d 62c7 48be 6c36 803d
000003c0: a476 e33c 9e31 91bc 87af 4a3e 69cd 2b3d
000003d0: 47e2 e63c 7dae 67bd e52d 7cbd a05f 8abd
000003e0: 5a5d 83bd 37fc 673c d77e 9cbc 666b a3bb
000003f0: 3dde 353e 261b d23c 2042 cf3d b309 423e
0.052271962 -0.045729082 -0.0060316497 -0.081938714 0.091231056 0.07445643 -0.04922117 -0.06140117
-0.06401302 -0.008726244 -0.036479276 -0.08420222 0.049239997 -0.10061515 -0.068959 -0.08195927
-0.011701653 0.03519581 0.329497 0.21342918 0.047368843 0.054926056 0.005251386 0.03880776
-0.030717306 -0.044533424 0.12120475 0.04741136 0.09324403 -0.08323394 0.0015932833 -0.03032662
-0.13148995 0.13352105 -0.06928798 -0.04255254 0.12519778 0.034276906 0.37759203 -0.5081678
-0.24745831 0.4496503 -0.42717066 0.09405448 0.28162867 -0.1598823 -0.053408425 -0.03374149
-0.627047 -0.54083484 -0.29313663 -0.34865844 -0.22165564 -0.36566383 0.034993768 0.092757426
-0.09707079 -0.23361133 -0.006168813 -0.08649365 -0.16679288 0.3104617 -0.030973215 0.0140939355
0.00230227 0.0032795975 -0.10259621 -0.025368392 -0.019197647 0.050510194 0.011537632 -0.052868597
0.12619895 0.15881658 -0.017689355 -0.064978525 -0.049611684 -0.2444072 -0.09513405 0.104517125
-0.13613658 -0.22233686 -0.10822124 0.06190756 0.11563398 0.038828846 -0.061775245 -0.008324357
0.12038289 -0.01928917 0.04230551 -0.041574318 -0.07216071 -0.0035462796 0.102971874 0.00610921
0.025837261 -0.015812017 0.003070193 0.07971897 0.06959736 0.00865115 -0.07888742 -0.0895531
0.07800242 0.058906585 -0.023308598 -0.08887645 -0.19321972 0.31300265 0.14797656 0.23887494
0.28336084 -0.0073988074 0.02270877 -0.05394988 -0.054495413 -0.2526121 -0.06084627 0.085640445
0.07543651 -0.028756283 0.11567968 -0.010746309 0.017704505 0.04500577 -0.089993894 -0.16462782
0.23848096 -0.11564079 0.2905856 0.273748 0.010854529 -0.21271913 -0.11813002 -0.022558514
-0.13595654 -0.12331851 0.035893373 -0.010108819 0.09886229 0.008706099 -0.11992249 0.010107705
-0.21673016 0.2229622 -0.22480825 -0.056519985 0.0906233 -0.03840804 0.0310146 0.15355626
-0.00050818914 0.030283418 -0.08417016 0.02511326 0.024890257 -0.077870175 -0.10220903 -0.060738407
-0.0048944 -0.08293678 0.3145847 -0.08488278 -0.24042146 0.25076437 -0.22119628 -0.16853537
0.2665309 0.2513586 0.24600032 -0.34079313 0.028902145 -0.11819148 -0.18674906 -0.17707907
0.019002661 -0.041994072 -0.00668827 0.05204767 0.032628763 -0.09526197 0.08494751 0.06073632
-0.03908956 -0.04059417 0.06471276 -0.07009584 0.014952899 0.0464721 -0.09963419 -0.09221145
-0.05856367 -0.028600404 -0.045564763 -0.0076267393 -0.040171124 0.041049607 -0.5958645 -0.393085
-0.057644643 -0.40922794 -0.0058494606 -0.16591257 -0.110632926 0.01903964 0.00059385883 -0.30429915
-0.09946138 0.056273047 0.1247031 0.07730108 -0.069057345 -0.099913485 -0.0571969 0.10635629
-0.4551569 -0.7977555 -0.07702876 0.12296736 0.16634807 0.06652276 0.5444053 0.3931221
0.05363873 0.11498737 0.28871578 0.12647742 0.050875064 -0.038383275 -0.11883858 0.15965432
-0.12247671 0.116305396 -0.15127891 -0.33754635 -0.050925687 0.12015974 -0.19607309 0.0626038
0.027766533 -0.017723855 0.19793521 0.04194394 0.02818407 -0.05656289 -0.061567206 -0.0675652
-0.0641429 0.014159254 -0.01910345 -0.004987168 0.17760558 0.025647711 0.10120034 0.18949012

conv2.bias f4 [16]
00000000: b53c 7e39 295c 38be 347d cb3e 2e08 dbbc
00000010: 79df ef3e 19d5 cdbd de30 b53e ba50 9cbc
00000020: 9415 14bf 53fb b2bd 853c 333d 00e2 0a3f
00000030: 428e 073e 90a1 b9bd 845e 723e ecc0 13be
0.00024245943 -0.18003906 0.3974396 -0.026737299 0.46850184 -0.10050411 0.35388845 -0.019081462
-0.57845426 -0.087393425 0.043758888 0.542511 0.13237861 -0.09064019 0.23668867 -0.14429063

conv3.weight f4 [32, 16, 3, 3]
00000000: 689b 43bc ebe0 8ebd 5a5e 213e eba7 0bbd
00000010: afbd 283d 4859 b13d f3d9 0f3d 8f9b bd3c
00000020: 2166 9c3d b660 24bd d6a9 383d 6f46 eb3d
00000030: 7f64 823b e6ef d43d b4d8 7fbc 7a07 de3c
00000040: c3fe 3abd c228 37b9 2cdb 00bd 10d6 88bd
00000050: 5930 13bd 3b59 dfbc c61e 9fbd 73f3 ffbc
00000060: 9651 833a 92c0 2fbd a485 963d e44c 5fbd
00000070: e60e 27bd 6d12 e2bb 8b28 a5bb 3da3 2f3d
00000080: a8ec 6b3d b9fe cabc c171 c13d 61cb 3e3d
00000090: 052f 05be 6b36 8bbd d024 bebc 5284 30bd
000000a0: 70d7 54bd 6c2f 69bc aa6d dabb 2d5b 1d3c
000000b0: 5fec 28be cf1a 88bd 6b01 28bc b8ce 8a3d
000000c0: 91b0 c2bc aded 87bd 60c2 3abd 4120 9fbd
000000d0: 1d2f 1e3d 8229 ab3b 71a6 adbd cad4 2abd
000000e0: 3002 323d 1959 013d 4773 2c3d 9428 d33d
000000f0: 4b79 3a3c 1cbc 81bd 3b0c 7e3c d915 973d
00000100: 6e2f 3e3b ac47 c33b 71bc f9bb 5209 9c3d
00000110: 809f c8bc 7742 1d3d 7a9f 29bd 196a b03d
00000120: 3d3b 44bd 13b7 6ebc adfe 0c3c 58d8 663d
00000130: 3baf 903d a030 19bd 62f2 563d f431 d2bd
00000140: 7f6a 963d 3616 203d 01aa fabc f20a 82bc
00000150: 7141 12bd 951e 14bc dfe0 c1bb 60bd 87bd
00000160: 37e3 cabd 46d6 a7bd 8566 d8bd 2b76 18bd
00000170: 058b 99bd 334a 833d d6bd 233d 427c 11bd
00000180: 820b 95bd 5b66 f6bc f290 153d 492c c73d
00000190: 3f3c 023e 87c2 a9ba f307 e43d ae4d d43d
000001a0: 13d4 023d 2f71 fbbc c011 013e cab9 b1bd
000001b0: 3d16 65bc d591 773d c905 f13d d928 4a3d
000001c0: 7fec 96bb 5ddc d0bb a0d5 9d3d 781f 82bd
000001d0: 7408 133d d748 9fbc 134d 69bd c1ad babd
000001e0: 163b 13bd c2f1 8dbd 9417 743d 380f c13c
000001f0: 98d8 d4bc 751f fc3c a067 7b3d 9173 863d
00000200: c524 12bc d2bf a5bd 6114 7c3b f397 dfbd
00000210: a442 663c bb96 69bd 690f c3bd 1e66 fabc
00000220: 2927 2dbd 7888 003e 052e 773d 2680 cebc
00000230: 7b7d d73d 3ebc d6bc 42f5 1c3d 7de3 673d
00000240: e86b 5dbd 329b 0abd e098 413c 11ee 69bd
00000250: c6f8 6abd da01 74bd 581c a2bd fd6a 6dbc
00000260: 646d 833d de2b d23d 7e05 213d 1fb1 ab3d
00000270: 6743 9dbc f8a2 b5bc 38fa bdbc bb80 0ebd
00000280: e6d8 05bc 6d1a 20bd c13d 8f3b 2026 e93a
00000290: f37f 4e3d 1ce6 5b3d e05e e1bd fae8 7b3b
000002a0: 006d a9bd e2b8 afbc 2a4a 92bd 1349 e13c
000002b0: 0b18 443c 3931 5ebc 6f23 06bd 0168 683d
000002c0: a1e0 d9bc 170b 693d 604f 14bd 8dd9 dbbc
000002d0: 2d10 d5bc 9ac8 1d3d df32 9cbc 66e8 a83c
000002e0: 5aed 893d 9b32 303d 70da ed3b e66d 413d
000002f0: af79 fe3d fec3 ea3c 8671 683c 1f03 a4bd
00000300: eb99 a9bd 42fb a73d ed9c c1bc 552a 953d
00000310: 6445 383d 1cc2 763d 9224 96bd 989b 8d3c
00000320: 0262 33bd 0f48 c13c c75c d73d 1f04 52bc
00000330: 22b9 54bd a143 8c3d 7c2b 833d aeb8 be3c
00000340: c38d 7a3d 7358 2a3d a795 803d e2e4 89bd
00000350: 1deb b2bd fcb2 9fbd b14a 0ebd 2015 febc
00000360: 8aa4 fc3b e310 d33c ac1a 03bc 39e9 7a3c
00000370: 9cc1 86bc b4aa 5f3d ed12 de3b 32d5 7cbd
00000380: d7f7 6bbd 9733 fbbc dd9b 923d 0f9f febc
00000390: 9c9c aabd 30d7 40bd 3252 a8bd fb47 6abd
000003a0: e9de 6bbc e967 9abd cf64 05bc 1622 493d
000003b0: 2c98 183c 9d31 003d 8093 67bd 13d2 f3bc
000003c0: 0b20 65bd 87d4 bc3c cd05 92bd da83 9c3d
000003d0: 6674 763d e7a1 913c 984f 56bd 2718 9dbc
000003e0: 570b 34bd 2419 3a3d bef3 b33c fc24 3cbc
000003f0: 7bba 60bc 3b85 67bd 97f7 01ba 6e4a 5ebd
-0.011938907 -0.069764934 0.15758649 -0.034095686 0.04119652 0.08659607 0.035119962 0.023145465
0.07636667 -0.040131293 0.045083843 0.114880435 0.003979265 0.103973195 -0.015615631 0.027103174
-0.045653116 -0.00017467423 -0.03145902 -0.06681454 -0.03593478 -0.027264228 -0.077695414 -0.031244015
0.0010018821 -0.04290826 0.07349709 -0.054516688 -0.040785693 -0.006899169 -0.0050402335 0.042880286
0.05759874 -0.024779664 0.09445525 0.046580676 -0.13006218 -0.06797489 -0.023210913 -0.04309494
-0.05196327 -0.014232498 -0.006665905 0.0096042575 -0.16496418 -0.06645738 -0.010254244 0.0677771
-0.023765834 -0.0663713 -0.045595527 -0.07769824 0.03861915 0.005223454 -0.08479012 -0.041706838
0.043459117 0.03157911 0.042102125 0.10310474 0.011381458 -0.06334707 0.015505846 0.07377214
0.002901997 0.0059594717 -0.007621341 0.07618965 -0.024490118 0.038393464 -0.041411854 0.086139865
-0.047908057 -0.0145700155 0.008605641 0.056358665 0.070646726 -0.037399888 0.052477248 -0.10263434
0.07344531 0.039083682 -0.030598642 -0.01587436 -0.03570694 -0.009040494 -0.0059166993 -0.06627917
-0.09906619 -0.08195166 -0.10566429 -0.03722207 -0.07497219 0.06410637 0.039975964 -0.035518892
-0.072775856 -0.030078104 0.036515184 0.097252436 0.12718295 -0.001295165 0.11134329 0.10366379
0.03194053 -0.030693619 0.12604427 -0.086780146 -0.013982353 0.06044181 0.117686816 0.04935536
-0.0046058293 -0.0063739256 0.07706761 -0.063536584 0.035896733 -0.019443912 -0.05695827 -0.09115172
-0.03594502 -0.06930877 0.0595928 0.023566827 -0.025982186 0.030776719 0.06137812 0.06565011
-0.008919899 -0.080932274 0.0038464295 -0.10917654 0.014053974 -0.057028513 -0.09524424 -0.030566271
-0.042273674 0.12552059 0.060346622 -0.02520759 0.105219804 -0.026212808 0.038319834 0.056613434
-0.054057986 -0.033839412 0.011816233 -0.057111803 -0.057366155 -0.05957208 -0.079155624 -0.01449084
0.06417349 0.10262273 0.03931188 0.083833925 -0.019197179 -0.022172436 -0.023190603 -0.034790736
-0.008169388 -0.0390877 0.0043713753 0.0017787851 0.05041499 0.053686246 -0.11004424 0.0038438425
-0.08272743 -0.021450464 -0.07143052 0.027500665 0.011968623 -0.01356154 -0.032748636 0.05673981
-0.02659637 0.05689534 -0.03620851 -0.026837135 -0.02600869 0.038521387 -0.019067226 0.020618629
0.06734724 0.04301701 0.007258706 0.047223948 0.12425553 0.02865791 0.014187222 -0.08008408
-0.08281311 0.082022205 -0.023634398 0.07283465 0.04498805 0.06024371 -0.07331194 0.017286107
-0.04379464 0.02359393 0.10515743 -0.012818365 -0.05193437 0.06848837 0.06404778 0.023281422
0.06117035 0.041588258 0.06278544 -0.06733109 -0.087362505 -0.077978104 -0.0347392 -0.031015933
0.0077100443 0.025764888 -0.008001965 0.015314394 -0.016449742 0.054606155 0.0067771585 -0.061726756
-0.057609405 -0.030664248 0.07158635 -0.031081704 -0.08330652 -0.04708022 -0.082188025 -0.057197552
-0.014396408 -0.075393505 -0.00814171 0.049104773 0.009313624 0.031297315 -0.05653715 -0.029763257
-0.05593876 0.02305056 -0.07130013 0.07642336 0.0601696 0.017777396 -0.052322 -0.019176556
-0.043956127 0.045434132 0.021966811 -0.011483427 -0.013716335 -0.056523543 -0.0004957853 -0.0542702

conv3.bias f4 [32]
00000000: 228d d1bd a3e1 663d bfc7 c53d 724e 403d
00000010: e2a8 95bd d317 343e 79c3 cb3d 2ec7 f83e
00000020: b664 46bd 52a3 6a3b b87d a7bd 25ba 253c
00000030: 9d98 d7bd 7f31 d7bd cdd0 a93d 1717 8a3e
00000040: 01e3 8ebd bf18 4dbd fbee db3e 8e06 303e
00000050: bfd0 003e 0d25 03bd 7d9e af3e f049 31bc
00000060: c324 bbbd f955 153e b032 8fbd 14db 69bd
00000070: 1446 473e dfb4 35bd 4a8b 22bc 9eb6 f33d
-0.10231997 0.056367528 0.09657239 0.04694981 -0.073076025 0.17587213 0.09949393 0.48589462
-0.04843589 0.0035802913 -0.08178276 0.010115181 -0.105271555 -0.105074875 0.08291779 0.2697074
-0.06976891 -0.050072428 0.42955765 0.1719 0.1257963 -0.032017756 0.34300604 -0.010820851
-0.09137871 0.14583577 -0.0699209 -0.057093695 0.19460326 -0.044361945 -0.009920904 0.11900066

conv4_1.weight f4 [2, 32, 1, 1]
00000000: 5a0f d03e 3472 fb3d 34a5 44bf e202 92be
00000010: d74c 2dbe b38f 46be 18cc 0e3f 9700 04bf
00000020: 00ad 253e b3f9 75be ed01 1dbd 24fd 6cbe
00000030: d627 313f d114 1dbf 051c 9e3d 5244 cbbe
00000040: fea6 0dbf 1c5c 06be 0191 eabf 6ae5 453f
00000050: f345 893f f1e8 f2bd 2c9e 523f 327c 803e
00000060: 136a a33c ec43 103f 17ea b5be 41fb 1abe
00000070: 0679 413e 6394 2cbd dcdb 2ebd f613 2a3f
00000080: 9044 b9be cc5e f5bc 34f9 3d3f 9e98 933e
00000090: d992 d03d ec92 943e e311 12bf 1fbb 1d3f
000000a0: 9c9b 183e 7cbe ab3d 9655 1e3d 12e1 9bbc
000000b0: d5db 40bf 764c 333f eca1 973d d6b2 913e
000000c0: 91e1 293f 0140 bfbd ea02 d83f 01f6 4abf
000000d0: 4d7a 77bf 8ac3 5f3e 4f53 5ebf 7969 b3be
000000e0: 8247 2bbd f011 44bf 39da 903e 999b 6b3e
000000f0: 514f 103e 0c4d 36bd d482 8abe 80f4 2ebf
0.40636712 0.12277642 -0.7681458 -0.28517824 -0.16923843 -0.19390754 0.5578017 -0.515634
0.16179276 -0.24021034 -0.038331915 -0.2314344 0.6920141 -0.6135989 0.07720188 -0.39700562
-0.55332935 -0.13121074 -1.8325502 0.77303183 1.0724472 -0.11860836 0.822726 0.25094754
0.019948041 0.5635364 -0.3553016 -0.15134908 0.18893823 -0.0421337 -0.042690143 0.6643671
-0.36185122 -0.02995243 0.7420838 0.28827375 0.10184259 0.29018342 -0.5705854 0.6161365
0.1490311 0.083859414 0.03865584 -0.01902822 -0.7533544 0.70038545 0.07403931 0.28456753
0.6635981 -0.0933838 1.6875889 -0.7928162 -0.9667099 0.21851936 -0.8684587 -0.35041407
-0.041816242 -0.7658987 0.2829149 0.23008575 0.14092757 -0.04450707 -0.2705294 -0.6834183

conv4_1.bias f4 [2]
00000000: b389 cabe 27e3 b63e
-0.3955818 0.35720178

conv4_2.weight f4 [4, 32, 1, 1]
00000000: 63bd a2bc 6bf2 8e3d dbba 16bd 7101 823d
00000010: 7251 f23b 961f 43bd 9b5c 2f3e c9ff cd3c
00000020: 6d99 25be a953 243e 3f05 5dbd a2fc 883e
00000030: 8464 2cbe b4dc 11be dfcd 4b3d 6d6e b43d
00000040: 44eb 11bc f3b4 793d 65cf 783d 1643 a83e
00000050: 8790 82bd 2595 39be ed4e 1dbc a6b8 9dbd
00000060: 0bdf 65bd 47f3 8dbd 898c 0d3e 108c 5bbd
00000070: 3365 73bd 24ea 8a3d beae 773c 0108 133d
00000080: 16c7 783d 613c 873e 12f4 68bc 14e7 0abe
00000090: 3832 98bc 50d1 42be de40 1d3e 534c 26bd
000000a0: 3065 923b 6101 243e 445a 01be ab18 02be
000000b0: afc7 2bbe 1557 c93d 598a 78be c46d 8dbe
000000c0: bbd2 763d bc57 33be fc9c a3bc 37ab a53c
000000d0: c019 343d b131 b73d 23ad 37bc 6d2b d1bd
000000e0: 34b1 8c3d c5b1 8c3d a486 1fbe 7452 173e
000000f0: 6c78 8b3e 69c4 083e 4cc8 533e 29ae 94bd
00000100: 8f0c 9dbd 0798 65bb f33a 463d e6d6 393c
00000110: 01cb e93b 0bb2 3b3d 557f 83bc 5286 863d
00000120: ef52 1fbe 144c 6abc 3f75 87bd d226 03bc
00000130: e95a 3fbd 505d 233d 59f7 ee3c 810b 8d3d
00000140: d5d0 3fbb 754d 8bbd 823e 903b 2c4d a7bc
00000150: 5567 70bc db1b 21be c997 a93d 3d0d 49bd
00000160: 48aa e13b 945e 9f3c 32a3 97bd c061 7cbc
00000170: 0b42 b73c 939a 283e 4b0b b93d c84b 193d
00000180: 08d4 da3c b708 663d 488d d4bd aa80 11bd
00000190: e186 803d d238 08be 5bd0 51bd 04ea f73d
000001a0: 7721 b5bd d27f 0dbe 166a e7bd a1a4 c5bd
000001b0: cae0 4f3d d8d0 81bd e4a5 a5bd 3427 313d
000001c0: 8ab6 ba3c e028 42bd 13f0 9bbc a9bb 23be
000001d0: 7d08 a3bc 40d9 1a3e 46ef d93d 4060 113d
000001e0: 3018 b53d a1ad 6a3d 0a39 d23c 1d73 26bd
000001f0: 04d9 1e3d c2ab 103e 6a38 c63c c44c 343b
-0.019865697 0.06979831 -0.036799293 0.06347931 0.007394963 -0.047637545 0.1712517 0.025146382
-0.16171809 0.16047539 -0.05396008 0.26755244 -0.16835219 -0.14244348 0.04975688 0.088101245
-0.008906189 0.060963582 0.06074466 0.32863683 -0.06375223 -0.181233 -0.009601337 -0.077012345
-0.056120913 -0.06931167 0.13823141 -0.05360037 -0.059422683 0.0678294 0.015117345 0.035896305
0.06073674 0.26413253 -0.014218347 -0.13564712 -0.018578634 -0.19025159 0.15356776 -0.040600132
0.004467629 0.16016151 -0.1263209 -0.12704723 -0.16775392 0.09831063 -0.24271525 -0.27622807
0.060259562 -0.17513937 -0.019972317 0.020223243 0.04396987 0.08945025 -0.011210713 -0.10213361
0.06869736 0.06869844 -0.15578705 0.14777547 0.27240312 0.13356175 0.20681876 -0.07259781
-0.07668411 -0.0035033242 0.048396062 0.01134274 0.0071347957 0.045824092 -0.016051928 0.06568588
-0.1555898 -0.014300365 -0.0661416 -0.008004861 -0.046717558 0.03988391 0.029170679 0.0688696
-0.002926876 -0.06801883 0.0044019828 -0.02042254 -0.014673074 -0.15733282 0.08280904 -0.04908489
0.006886754 0.019454278 -0.07404174 -0.015404165 0.022370359 0.16465215 0.09035357 0.037425786
0.026712433 0.056160655 -0.1037851 -0.035523094 0.06275726 -0.13302925 -0.051224094 0.12105182
-0.088442735 -0.13818291 -0.11299531 -0.09650541 0.050751485 -0.06338662 -0.08088282 0.043250278
0.02279212 -0.047402263 -0.019035375 -0.15989555 -0.019901508 0.15121937 0.10641341 0.03549218
0.08842504 0.05729449 0.025661964 -0.040637124 0.03878118 0.1412802 0.024196822 0.0027511576

conv4_2.bias f4 [4]
00000000: 5828 9fbc 9ad1 db3c 47e7 4d3f 2e81 4b3f
-0.019428417 0.026833344 0.80431026 0.7949399

conv4_3.weight f4 [10, 32, 1, 1]
00000000: 4630 843d 3bf4 603d ed3a 103d 4d44 cb3b
00000010: ee5e de3d ba11 c0bc 06ea a4bd e5fe 0a3e
00000020: 78f5 043e d9d3 a1bb 5eff 823d 134c a23b
00000030: fde6 e93c 68c9 24bb 1d5f bf3d 28b9 82bd
00000040: a493 cabd 3a39 72bd 6602 e53b e36c c73d
00000050: 0559 ad3b 2566 b4bd 969d d4bc cf35 d7bd
00000060: e152 673d ec90 1bbc da6c eebc db12 f3bd
00000070: 6371 40bd 07b1 cbbd 6837 57bd 10dd 853c
00000080: dd8c a6bb 37d1 d0bd 0a27 5a3d 2671 8abd
00000090: 3906 113c cf57 dabc 6044 44bc 592d cc3d
000000a0: 2508 263d ec76 febc f161 2a3e d535 e33b
000000b0: ce10 24bd 28ff e13c 1a6c 2d3d c404 b53d
000000c0: aa5b 0a3d 84fb d93d 4b2e 623c d6b2 12bd
000000d0: 091e a8bc 558e e9bd 0234 c63d 9754 c6bc
000000e0: 4459 1d3e 73ee 163e 1a58 3dbd c9be 0abd
000000f0: 7c83 243e fda3 6cbd f9d4 1f3d cb66 efbc
00000100: 9f1b 193e 0262 f7bd 86cb 583c a5d4 c33d
00000110: 5d9c 9dbd f213 103e 30d1 e6bd e994 033c
00000120: 4123 e8bd 1c99 babd 6126 153e fd9e 8ebd
00000130: 2906 58bd 8448 97bd 6bec 0f3d 82a7 95bb
00000140: 37c8 93bd 91f5 81bd 3dc8 7e3c af4c 3d3d
00000150: e53a 2abd 5260 073d 5888 d43c e133 483d
00000160: c0f6 1ebe 68cb 16bc 2e0d cb3c 2f02 5a3d
00000170: 08b9 243d fb44 c3bd 9860 babd 95e2 ad3d
00000180: 9275 c7bd ac62 00bd 15e4 af3c a6d2 bcbb
00000190: 148f 8c3d 4ea8 26bd 78bc 75bd 3dd8 2c3d
000001a0: 9c60 f83d 42c2 5a3d c494 2cbe d6d1 3a3b
000001b0: bb76 5dbb 9cee 43bd 11eb 08bd c563 b5bc
000001c0: 26c7 8ebc ee9f 8ebc 314e 0f3d 44ec 05be
000001d0: 7886 7fbc b97d 26bc 0526 ff3d ab23 06be
000001e0: 0e41 203d 9db9 b63d 5e24 b73b 6d81 02bc
000001f0: 9711 be3d 0736 17be 0675 923b d679 f03c
00000200: 03ff a33d 82e3 f9bd a768 4f3d eaba 4d3d
00000210: 012f c53d 65e7 92bd c12a e23d 3da3 1c3e
00000220: f749 f4bd 307e 963d b8a6 32be 1d81 daba
00000230: 1307 17bd 3b69 0dbd 1eae 21be a7eb 743c
00000240: 3914 8bbd 75c9 30be ab53 3bbc 5058 f23c
00000250: 7f01 3ebc 9810 3cbc 7186 833d 522d 91bd
00000260: 3491 013e d879 123b 39c6 d93c 2048 27be
00000270: e035 0c3e 895f eabb bb84 9abd 7e20 9f3d
00000280: cd5c f03d 6362 56bd 2845 fe3c 5371 d63d
00000290: 50ee fa3d 55fd d63d 2bde 13be f941 fa3d
000002a0: 3767 003d 0d29 7cbd ffea 64bd 3c67 5bbc
000002b0: 9d3e 31bd 10c8 c5bd 4811 2e3d 8874 bcbd
000002c0: 0b7f 93bd 1ef7 01bd db5e ad3b fd33 73ba
000002d0: 5dbb 92bc a205 1dbd e076 7f3d 7541 1e3a
000002e0: 3d9f 883d de88 48bd 7012 f6bc 6779 d3bd
000002f0: 8093 143e 3999 fbbd 5551 d8bd d0ae d33d
00000300: aea3 3a3d 9b14 eabd 1dbe 553d 3f93 ddbd
00000310: 6c62 46bd a6a3 efbd 1fed f13d af96 063e
00000320: b009 b83d 0bd9 903d 92d1 aa3d 9a29 4bbc
00000330: d296 9cbd be49 973d b801 8e3d 9ee0 053e
00000340: 39a5 c33d 744e ba3d 7362 dcbc e1f5 a03d
00000350: 7ccf a13d a3bc 9dbb 2dac 13bd 5e47 953d
00000360: 5ca7 1dbe bf17 1b3c f140 9ebd 4a98 9abd
00000370: dfdf eb3d a6bd c2bc 3d6a 9fbb 1576 aabd
00000380: fb9a cc3d 2c5b 123d 0dd6 483d 57b4 ba3d
00000390: 7778 0b3d ea86 cf3c 2051 07be b54f 233e
000003a0: 7356 233e 9ec5 5f3d 38c6 143e d21a 3cbd
000003b0: 4f85 87bd eb9a 23bd 8710 4abd 59b7 45bc
000003c0: 5950 3c3d a542 c73b 3891 43bc 100c 16bc
000003d0: 1f7c 0c3d 7de5 2bbd 8168 0a3d 71a8 55bd
000003e0: f7ed c2bd 5569 bc3c 54cf 76bd c9cd 17be
000003f0: 19ea a33d 558d f1bd 909b adbd 0473 b93d
0.0645452 0.054920416 0.035212446 0.0062032104 0.1085795 -0.023445953 -0.08052449 0.13573797
0.12984264 -0.0049385843 0.06396364 0.0049529164 0.028552527 -0.0025144462 0.09344313 -0.06382972
-0.098914415 -0.059136607 0.0069888113 0.09737565 0.005290153 -0.08808545 -0.02595405 -0.1050831
0.056475524 -0.009495001 -0.029104639 -0.11868831 -0.046983134 -0.09945875 -0.052543074 0.016340762
-0.00508271 -0.101961546 0.053259887 -0.067598626 0.008851581 -0.026653199 -0.0119791925 0.09969587
0.04053511 -0.031062566 0.16638924 0.0069339075 -0.04005509 0.027587488 0.04233942 0.088387996
0.033778824 0.10643676 0.013804982 -0.035815082 -0.020522134 -0.11404101 0.096778885 -0.024210257
0.15366083 0.14739399 -0.0462266 -0.033873353 0.16065782 -0.05777358 0.039021466 -0.02922382
0.14951943 -0.120792404 0.0132321175 0.09562043 -0.076958396 0.14070109 -0.11270368 0.008031108
-0.11334849 -0.091112345 0.14565422 -0.06963918 -0.05274025 -0.07386878 0.035137575 -0.0045670876
-0.07215922 -0.06345666 0.01555067 0.04621571 -0.041560072 0.033050843 0.02594392 0.0488776
-0.15523815 -0.009203769 0.024786558 0.05322474 0.040215522 -0.09534641 -0.09100455 0.08490483
-0.09739222 -0.0313441 0.021471063 -0.005762416 0.068632275 -0.04068785 -0.05999419 0.04219841
0.12127802 0.053407915 -0.16853625 0.002850642 -0.0033792693 -0.047834978 -0.0334273 -0.0221423
-0.017428946 -0.017410245 0.03498668 -0.1307841 -0.015596025 -0.010161811 0.124584235 -0.13099544
0.03912454 0.08922122 0.005589052 -0.007965428 0.09280699 -0.14766704 0.0044695167 0.02935497
0.08007624 -0.12201597 0.050636914 0.050227083 0.09628106 -0.07173041 0.11043311 0.15296645
-0.1192817 0.07348287 -0.1744641 -0.0016670559 -0.03687198 -0.034524184 -0.15789077 0.014948762
-0.067909665 -0.1726435 -0.011433522 0.029583126 -0.011597036 -0.011478566 0.06422127 -0.07088722
0.12653047 0.0022350457 0.026583778 -0.16336107 0.13692427 -0.007152502 -0.075448476 0.07769869
0.1173645 -0.052339923 0.031038836 0.10470834 0.12252486 0.10497538 -0.14440219 0.122196145
0.031348433 -0.061562587 -0.055888172 -0.013391312 -0.043272603 -0.096572995 0.04249695 -0.09201914
-0.07201966 -0.03172981 0.0052908487 -0.0009277461 -0.017911607 -0.03833545 0.062369227 0.00060369755
0.06670997 -0.04895865 -0.030038089 -0.1032589 0.14509392 -0.12285084 -0.10562388 0.10336077
0.045566253 -0.114297114 0.05218326 -0.108191006 -0.048433706 -0.11701135 0.118128054 0.13143419
0.08986223 0.07072648 0.083407536 -0.012400055 -0.07645954 0.07387112 0.069339216 0.13073966
0.09552998 0.09096995 -0.026902413 0.07859398 0.07900903 -0.004813747 -0.03605287 0.07289003
-0.15395874 0.009466111 -0.0772723 -0.07548578 0.115173094 -0.023772072 -0.0048649595 -0.083233036
0.09990498 0.03573148 0.04903226 0.09116428 0.03405043 0.025332887 -0.1321454 0.15948375
0.15950947 0.05463182 0.1452874 -0.045924015 -0.066172235 -0.039942663 -0.049332168 -0.012067639
0.045975063 0.0060809427 -0.011936478 -0.009158149 0.03429806 -0.041966904 0.03379107 -0.05216259
-0.095180444 0.022999445 -0.060256317 -0.14824595 0.08003635 -0.11794535 -0.08476937 0.090551406

conv4_3.bias f4 [10]
00000000: 6c4a 173e 2103 383e c604 bc3e 920b 8d3e
00000010: 7ce0 393e 405b ab3e 9d8d 913d 22ed e43e
00000020: 40b5 b33e 0088 e93e
0.14774483 0.17969944 0.36722392 0.2754789 0.1815204 0.33468056 0.07107089 0.44712168
0.3509922 0.45611572

momentum_buffer f4 [10, 3, 3, 3]
00000000: 3f21 86b9 862e 90b8 8aff a637 2279 acba
00000010: 940d 85b8 461b 96b9 b4df ceba deb1 03b9
00000020: 85b2 84ba 8755 69b9 b89d c8b8 305a 2ab7
00000030: f5c2 98ba 5d07 31b9 7971 b8b9 1852 bbba
00000040: d357 7ab9 bd7c 88ba 2241 83b9 84b0 c8b8
00000050: ccac 08b7 ba85 a8ba ab31 28b9 e455 d1b9
00000060: a686 caba be0f 57b9 9c51 90ba 0000 0000
00000070: 0000 0000 0000 0000 0000 0000 0000 0000
00000080: 0000 0000 0000 0000 0000 0000 0000 0000
00000090: 0000 0000 0000 0000 0000 0000 0000 0000
000000a0: 0000 0000 0000 0000 0000 0000 0000 0000
000000b0: 0000 0000 0000 0000 0000 0000 0000 0000
000000c0: 0000 0000 0000 0000 0000 0000 0000 0000
000000d0: 0000 0000 0000 0000 aefb d5be 493c d2be
000000e0: 6140 bdbe 7127 eebe c4b0 e7be c214 d8be
000000f0: 3716 07bf 318b fdbe 9106 eebe 1840 96be
00000100: fac8 98be f8b2 85be 467b babe ba46 b0be
00000110: 58e2 95be a717 d1be ad2c bbbe c317 a2be
00000120: 94c1 82be 386c 82be 6da4 5bbe 2c2e abbe
00000130: f7af 9dbe c2ed 7dbe b698 babe 3e4b a8be
00000140: 35bb 8abe 4846 1f3d 263e 023d 0088 8eba
00000150: 92ef 4a3d 84e4 8c3d 9394 613d 6a40 1c3d
00000160: f6af 943d 8059 9a3d dc96 6e3c 2815 493c
00000170: 8076 a5ba ebf9 ac3c e63a 2c3d 9652 023d
00000180: 0035 273c ec67 1f3d cf87 383d bc6d 4b3c
00000190: a9cb ed3c 9c72 913c 8071 0b3c fe35 3f3d
000001a0: 3679 0d3d 0094 6b3a 1cc4 233d c855 1c3d
000001b0: 620a 5fbd 39ac 03be 05b9 d8bd 8b03 16bd
000001c0: b0d8 a0bd 8005 26bd 7cc8 72bd d215 14bd
000001d0: e851 5ebb 7636 90bd 361e 4ebe a924 49be
000001e0: acba 54bd 58b9 06be 7179 d3bd 8a56 adbd
000001f0: 696b a1bd aa1b 88bd 90ba afbd 783d 5bbe
00000200: e08a 4ebe f6f4 5cbd b4ff 15be 7881 eebd
00000210: dc6f 86bd 7469 a6bd 8dec a9bd a06a 47bb
00000220: b63f 55bd 9037 d5bd b8e1 13bd 8088 d8bd
00000230: b8fd fdbd b43e 40bd 7e44 f3bd 9f86 f6bd
00000240: 44ae a03d ed38 863d d8bf 2b3d f497 883c
00000250: d23b 05bd fc73 36bd 2848 eb3c 7810 a5bc
00000260: 641e 09bd 7a82 ec3d 7cbf d23d ce14 843d
00000270: e456 653d 00a5 7c3c 7077 0bbc 4c8a 6f3d
00000280: b0b0 b83c a095 633c 9c62 353e b164 423e
00000290: 67fa 433e 4db4 2b3e 5d8d 113e d06c 153e
000002a0: c6b8 1d3e b0c8 d83d 126d af3d ce10 203e
000002b0: 7403 463e 31f9 4a3e 7a4b 323e 7fef 323e
000002c0: 098d 283e f0b9 ef3d 5019 ca3d deb9 a73d
000002d0: 359a 353e aa28 673e 0ed3 703e c8bf 393e
000002e0: 1097 463e e817 483e 2f60 0e3e 84f0 fe3d
000002f0: dee0 f33d 0e78 7a37 65ae 9eb6 9435 f537
00000300: 4112 ac36 4d7d e638 08a3 b439 1b29 4d39
00000310: aba2 ae39 9e62 153a 68e7 d237 6424 e837
00000320: 7c24 c236 048e 2037 aaec 0b38 e668 d438
00000330: 86c3 1838 5fe2 6b38 add2 1f39 7f6c 2038
00000340: badb 5237 86b3 ef36 e983 6438 cf85 e937
00000350: 3fbd 1838 aa61 6e38 2f50 0e38 92bf 6738
00000360: fe77 733e 2db3 583e 7d9d d63d a324 4d3e
00000370: 0b4f 5e3e 4cd2 313e 50f1 7a3e d560 513e
00000380: 48bf 1b3e 0b56 263e 6ec5 033e 8ec3 b63c
00000390: af96 c93d f85f 013e b010 d33d 2a2f 013e
000003a0: 48cc c13d c9ad a13d 34b7 1c3e ccaf 0c3e
000003b0: a9d5 0d3d 48c8 e63d 66d7 223e 3cc1 0d3e
000003c0: 66c4 1e3e 6b6d 133e 067e 033e 3764 d5bd
000003d0: 07f9 f2bd f2fc c4bd 218e 9abd 92e6 a4bd
000003e0: e244 82bd ef4d adbd 87ab 06be d3f4 a9bd
000003f0: c855 86bd 44a5 81bd 8cf0 08bd a6b3 dfbc
-0.00025583242 -6.875121e-05 1.9907737e-05 -0.0013158659 -6.344463e-05 -0.0002863055 -0.0015783221 -0.00012559394
-0.0010124004 -0.00022252473 -9.5661206e-05 -1.0153788e-05 -0.0011654781 -0.00016882778 -0.0003517976 -0.0014291434
-0.00023874575 -0.0010413151 -0.00025034795 -9.569622e-05 -8.146464e-06 -0.0012857236 -0.00016040231 -0.0003992758
-0.0015451505 -0.00020509862 -0.001101065 0.0 0.0 0.0 0.0 0.0
0.0 0.0 0.0 0.0 0.0 0.0 0.0 0.0
0.0 0.0 0.0 0.0 0.0 0.0 0.0 0.0
0.0 0.0 0.0 0.0 0.0 0.0 -0.4179358 -0.4106162
-0.3696318 -0.46514466 -0.4525205 -0.42203337 -0.5276827 -0.49520257 -0.46489385 -0.29345775
-0.29840833 -0.26113105 -0.36422175 -0.3442896 -0.2927425 -0.40838358 -0.36557522 -0.31658754
-0.25538313 -0.2547319 -0.21449442 -0.33433664 -0.30798313 -0.24797729 -0.36444634 -0.32869905
-0.27095953 0.038885385 0.03179755 -0.0010874271 0.04954488 0.068795234 0.055073332 0.038147368
0.072601244 0.07536602 0.014562335 0.01227311 -0.0012623817 0.021115264 0.042048357 0.03181704
0.010205507 0.038917467 0.045051392 0.012416299 0.029027777 0.017754845 0.008510947 0.04668235
0.034539424 0.00089865923 0.039981946 0.038167745 -0.05445326 -0.12858666 -0.10582165 -0.036624473
-0.0785383 -0.04053259 -0.059273228 -0.036153622 -0.0033923332 -0.070416376 -0.20128712 -0.19642891
-0.051935837 -0.1315664 -0.103258975 -0.08463772 -0.07881815 -0.066459015 -0.08580506 -0.21410167
-0.20170164 -0.05394455 -0.14648324 -0.11645788 -0.06564304 -0.08125582 -0.082970716 -0.0030428544
-0.052062713 -0.10410988 -0.036103934 -0.1057291 -0.12401909 -0.0469348 -0.11878298 -0.12037396
0.078457385 0.065538265 0.041931003 0.01667402 -0.032527752 -0.044544205 0.02872093 -0.020149454
-0.03347625 0.11548324 0.10290429 0.06449281 0.05599107 0.015420198 -0.008512363 0.0584815
0.022545189 0.013890654 0.17713398 0.18983723 0.1913849 0.16767998 0.14214082 0.1459229
0.15402517 0.10585153 0.085657254 0.1563141 0.19337255 0.19821621 0.17411605 0.17474173
0.1646005 0.11705387 0.09868109 0.08189748 0.17734607 0.22574106 0.23518011 0.18139565
0.19393563 0.1954037 0.13903879 0.124482185 0.119081244 1.4929114e-05 -4.729069e-06 2.9231225e-05
5.1281245e-06 0.00010990594 0.00034453743 0.00019565636 0.00033309063 0.0005698594 2.5141708e-05 2.76735e-05
5.785898e-06 9.569809e-06 3.3360593e-05 0.000101284866 3.642172e-05 5.623919e-05 0.00015241904 3.8248018e-05
1.25681345e-05 7.1436543e-06 5.4482287e-05 2.7838074e-05 3.6415873e-05 5.683458e-05 3.3930115e-05 5.5253106e-05
0.23776242 0.211621 0.10479257 0.20033507 0.2170984 0.17365378 0.24506116 0.20447095
0.15209687 0.1624376 0.12868282 0.022310045 0.09843194 0.12634265 0.10305917 0.12615648
0.09462792 0.07894475 0.15304261 0.13738936 0.03462759 0.11268669 0.1590248 0.13843244
0.15504608 0.14397208 0.12841043 -0.10419505 -0.118639044 -0.09618558 -0.0754664 -0.0805179
-0.063607946 -0.0846213 -0.1315137 -0.0829865 -0.0655933 -0.0633035 -0.03343253 -0.027307343

momentum_buffer f4 [10]
00000000: 702f 04bb 0000 0000 c8d2 b1bf eb21 da3d
00000010: e0c2 9bbe 5ad4 3bbf 330f e93e 9d97 223a
00000020: aef9 523f ca83 9dbe
-0.0020169877 0.0 -1.389245 0.106510006 -0.30422115 -0.733709 0.4551941 0.0006202402
0.8241223 -0.3076461

momentum_buffer f4 [16, 10, 3, 3]
00000000: 1bbe 1736 d104 4837 5387 9d34 3003 aab5
00000010: 3351 8f37 e97e b7b5 684a 61b6 1e1d 8b37
00000020: 5af7 bcb6 0000 0000 0000 0000 0000 0000
00000030: 0000 0000 0000 0000 0000 0000 0000 0000
00000040: 0000 0000 0000 0000 231e d73d 7650 ff3d
00000050: d6ee 133e b6b0 763d 3852 b03d 3aac d33d
00000060: 46dc 5e3d 132f 823d e906 c13d 7877 773b
00000070: fc53 34bc e724 2abc 050f 5dbc 1f18 c4bc
00000080: 7b12 ccbc 4cb3 00bc c040 c0bb 60c2 683a
00000090: 16db 4d3e 34bb 463e 24ff 373e 4f15 643e
000000a0: 0172 573e 8694 573e f6ea 6c3e 3c93 693e
000000b0: 2d59 763e 60ad 883c 4ef9 a63c e6f0 04bc
000000c0: fd0a 8c3c 0a61 6d3c dc57 b43a 2843 9f3b
000000d0: 2ae2 5dbb 60d0 2b3c 5bde 113e dc5e 043e
000000e0: 7a17 f23d 747e 1d3e a6ee 0e3e 9fe4 053e
000000f0: 6cee 1c3e 2bf7 063e 73ca 083e 29aa 37a9
00000100: 639c 009f 7ac3 b1b7 55f9 6a9e 55f9 6a9e
00000110: 0400 0000 cce8 2384 fef7 5084 ccac ba92
00000120: 37d1 e23d fc19 ff3d 44a2 d03d a52f ea3d
00000130: 8e54 aa3d ceba 653d 96f4 a93d d3a7 883d
00000140: fd8b 6a3d 8ead d63d 1c7d 023e 0d9b 0d3e
00000150: c562 2f3d abef 793d 0e8e 803d b888 643d
00000160: 58ce a33d 29bb ca3d 7086 bd36 8813 a636
00000170: df5a 3fb7 effe 2735 71cf 5737 23eb 5f37
00000180: 02b0 8bb5 623d 3137 d970 2737 0000 0000
00000190: 0000 0000 0000 0000 0000 0000 0000 0000
000001a0: 0000 0000 0000 0000 0000 0000 0000 0000
000001b0: 4bc0 123e 8491 873e 9c06 a23e ea44 003e
000001c0: a47d 603e f268 883e f85b 3e3e 3f24 263e
000001d0: 3536 0e3e bbd2 773d f2e4 543d ae7c 413d
000001e0: fb36 8e3d f406 853d 58e6 683d 7e75 9e3d
000001f0: 259e 9a3d fc83 933d 869d a43e 768f 993e
00000200: 517a 943e 0852 a13e e07f 953e fe6c 943e
00000210: b815 ad3e 2bbc ba3e 22c4 c03e b440 fdbc
00000220: ba83 7c3d 953f f73d 00c4 f2b9 5344 ba3d
00000230: 308f f73d 40b9 c13c 5028 f73d 4c78 bd3d
00000240: cca2 0b3e e217 193e e3d3 ff3d f874 c03d
00000250: 7060 d13d 302e 043e 7693 1a3d 780b 7e3d
00000260: 8360 bb3d 9df4 21b7 d357 95b7 0e0f 99b7
00000270: 453e 85b5 95e0 c6b5 1b6e b7b2 a2f0 9434
00000280: b29f 8934 3744 e0b5 8409 853e 1e40 8c3e
00000290: b840 5f3e aa13 613e 81c4 693e 8b64 433e
000002a0: 3a45 473e ad7b 523e 40c8 463e 394a d33d
000002b0: c12c 423e 016a 4f3e 50ea f73c ce0f 0a3e
000002c0: 12d6 163e dd25 853d 8ad2 f23d 807c eb3d
000002d0: 3048 30ae 9a88 61ae 3d2c 18ba cc16 b932
000002e0: 7443 30b0 7e9e b1ae 9599 f134 748f beb6
000002f0: 1893 afb6 0000 0000 0000 0000 0000 0000
00000300: 0000 0000 0000 0000 0000 0000 0000 0000
00000310: 0000 0000 0000 0000 6fe9 403e 628e 3e3e
00000320: 204b 533e c54e 243e 0c03 0c3e d9e1 1e3e
00000330: 840d 003e f639 8b3d b061 453d 4c65 d83d
00000340: 9167 c53d 3923 c53d 594a bd3d d708 d33d
00000350: 9b76 f33d 2390 b03d d75f d93d 0833 f93d
00000360: 44c2 003f 05ce f63e 2c36 df3e cf89 fc3e
00000370: 3e78 f13e 25aa e73e 808b 013f 9738 f43e
00000380: 8652 e13e 67eb 903d 6191 39bc 4e53 7fbd
00000390: b683 603c be15 61bc 6195 6ebc 9897 1fbc
000003a0: 374d 4cbd c70e 6abd 39e1 ab3d 89fe d73d
000003b0: 9617 9d3d 9021 993d 3dbe 6d3d a80e bc3c
000003c0: 0bfc 603d b8fe d43b a51e 4bbd 0400 0080
000003d0: e221 bcab 1707 7832 7540 232a 501a b130
000003e0: 3b17 8732 f5ba bcb5 3762 3232 e342 09ab
000003f0: f5e7 4a3e bae9 5f3e 361d 6b3e 0271 323e
2.261141e-06 1.192205e-05 2.934199e-07 -1.2666915e-06 1.708474e-05 -1.3671498e-06 -3.3570923e-06 1.658365e-05
-5.631632e-06 0.0 0.0 0.0 0.0 0.0 0.0 0.0
0.0 0.0 0.10503795 0.124665186 0.14446577 0.06022712 0.08609432 0.10335584
0.054409288 0.06356635 0.09425146 0.0037760418 -0.011006352 -0.010384775 -0.0134923505 -0.023937283
-0.024911156 -0.007855248 -0.005867094 0.0008879062 0.20103106 0.1940735 0.17968422 0.22273754
0.21039583 0.21052751 0.23136505 0.22810072 0.24057455 0.016684234 0.02038255 -0.008114075
0.017095083 0.014488468 0.0013759094 0.0048603006 -0.0033856728 0.010486692 0.14244978 0.12926811
0.11820884 0.1538027 0.13958225 0.13075493 0.15325326 0.13180225 0.13358478 -4.0781753e-14
-2.7234414e-20 -2.119107e-05 -1.24394175e-20 -1.24394175e-20 6e-45 -1.9267453e-36 -2.4564155e-36 -1.1780848e-27
0.11075061 0.12456128 0.101872 0.11434869 0.08316909 0.056086354 0.08298604 0.06672635
0.05726241 0.10482322 0.12743038 0.13828678 0.042818803 0.06101958 0.06277095 0.055794448
0.07998341 0.09898979 5.6482895e-06 4.9494593e-06 -1.1405645e-05 6.2583325e-07 1.2863297e-05 1.3346583e-05
-1.0407532e-06 1.0564314e-05 9.98025e-06 0.0 0.0 0.0 0.0 0.0
0.0 0.0 0.0 0.0 0.14331166 0.26478207 0.31645668 0.12526289
0.21922928 0.26642567 0.18589771 0.16224764 0.13887866 0.060503703 0.05197615 0.047238044
0.069440804 0.06495467 0.056860298 0.077372536 0.07549695 0.072029084 0.3215143 0.29992265
0.2899957 0.31507897 0.29199123 0.28989404 0.33805633 0.36471686 0.37649637 -0.030914642
0.06164906 0.12072674 -0.00046303868 0.09095063 0.12087858 0.023647904 0.12068236 0.092514604
0.13636321 0.14950517 0.12491586 0.0939731 0.10223472 0.12908244 0.037738286 0.062022656
0.091492675 -9.653301e-06 -1.780308e-05 -1.8246032e-05 -9.927395e-07 -1.4817512e-06 -2.1354074e-08 2.7742232e-07
2.5634432e-07 -1.6709154e-06 0.25983822 0.27392668 0.21802032 0.21980157 0.22828867 0.19081323
0.19460002 0.20554991 0.19412327 0.10316891 0.18962385 0.20255281 0.030263096 0.13482592
0.14730099 0.065013625 0.118565634 0.11498356 -4.0081882e-11 -5.1280404e-11 -0.0005804932 2.1547201e-08
-6.4124284e-10 -8.077182e-11 4.5001494e-07 -5.6791414e-06 -5.2325304e-06 0.0 0.0 0.0
0.0 0.0 0.0 0.0 0.0 0.0 0.18839048 0.18609002
0.20634127 0.16045673 0.13673037 0.15515842 0.12505156 0.067981645 0.048188865 0.10566196
0.09638894 0.09625859 0.09242696 0.103044204 0.118878566 0.08621242 0.10613983 0.121679366
0.50296426 0.48204055 0.43596017 0.4932389 0.4716205 0.45246997 0.50603485 0.47699425
0.44008273 0.070761494 -0.011326165 -0.062335305 0.013703277 -0.013738094 -0.014561982 -0.009740733
-0.049878325 -0.057143 0.08392567 0.105465956 0.07670514 0.07477105 0.058042753 0.022956207
0.054927867 0.0065000914 -0.04958977 -6e-45 -1.3367608e-12 1.4437112e-08 1.4499671e-13 1.2885923e-09
1.5726632e-08 -1.4061503e-06 1.0383295e-08 -4.8765e-13 0.19815047 0.21866503 0.22960362 0.17425922

momentum_buffer f4 [16]
00000000: fc86 e33e 9064 393f 8291 623f b2f4 e43e
00000010: b1ae 17bf 1c9b 1fb9 5fe8 6e3f 4611 4d3f
00000020: 3c47 eabd 9e4e 1cbf 634c d2be b2da d53d
00000030: c5bd 9cbe 2834 2f3f 456a 7a3f 734d e13e
0.44438922 0.7241907 0.8850328 0.44717938 -0.5925093 -0.00015221204 0.9332332 0.8010448
-0.11439368 -0.6105746 -0.41073903 0.104421034 -0.30613533 0.6843896 0.97818404 0.44004402
