Pytorch face detection - Test/MTCNN_train_process/1/checkpoint_1700.pth (torch, 219685 bytes, 36 tensors)

conv1.weight f4 [10, 3, 3, 3]
-0.086483024 -0.15632217 -0.0029890097 0.17784245 0.2918349 0.25534347 -0.046353694 -0.21610893
-0.11356385 -0.20713869 -0.15712814 -0.12158751 0.13212985 0.2781478 0.095361345 0.01636482
-0.03300617 -0.25642586 -0.103126355 0.0254426 -0.1463752 0.18922502 0.18383934 0.34002274
-0.1121665 -0.13541128 -0.16005458 -0.39306915 -0.23563921 -0.3418435 -0.2981041 -0.014983731
0.014834673 -0.28473654 -0.16442975 -0.21644193 0.41242042 0.17571425 0.2818932 0.20439626
0.18097553 0.15578566 0.27699748 0.23534836 0.2959045 0.10012038 0.081077024 0.046528243
0.048213903 -0.08334638 -0.030692646 0.11633338 -0.057180025 -0.14046998 0.32944623 0.35663837
0.25370914 0.39828897 0.14793468 0.2040919 0.24554402 -0.2309573 0.032489665 0.13417064
0.04973247 -0.12072127 -0.09005602 -0.37191367 -0.32805058 0.003419458 -0.32792863 -0.028740214
-0.1661951 0.04258137 0.14938734 -0.04284774 0.031150537 -0.1467158 0.043575764 -0.08602858
0.19359441 0.16909012 -0.19313729 0.16181909 0.20344663 -0.14543866 0.015348412 0.008624718
-0.20908761 -0.13888122 0.12638825 -0.10515419 0.29381308 0.089013465 0.039068893 0.22011341
-0.16529422 -0.23713809 -0.1589146 0.055289716 -0.0038218745 -0.06311895 -0.22284728 -0.029798273
0.06479269 0.0022743414 0.06174992 0.111431256 -0.19926025 -0.022202397 0.10014834 -0.2391526
-0.17410523 -0.034005214 -0.23454688 -0.18883124 -0.06497946 0.2512846 0.04915495 0.10192781
0.30419803 0.27233243 0.0098073315 0.19500868 0.21799031 0.013705153 -0.10229039 0.08254219
-0.20714729 -0.034058984 0.03985845 0.12164819 -0.04312835 -0.062275924 0.0737357 0.18893239
0.06260879 -0.40488818 0.27780458 0.24096134 -0.2832457 -0.08709854 0.3264795 0.11937229
-0.03536176 -0.069073185 -0.2949405 -0.03813504 0.11655592 -0.28164336 -0.10673587 0.01155085
-0.13900055 0.12514146 -0.14808956 -0.10332852 0.020998904 0.10792701 0.041742392 0.119540215
0.007698992 0.11737357 0.20987365 -0.22097111 -0.035715804 0.122088805 -0.029674727 -0.014046747
-0.118877485 0.07244881 -0.1912333 0.022327611 0.04645496 0.13189596 -0.16437048 0.15077494
0.05861057 -0.10645011 0.31177574 0.17240961 -0.07710818 -0.13081528 0.11288592 0.108167134
-0.1883047 -0.031738997 -0.11944306 0.013767481 0.13448454 0.17137267 0.17003442 -0.11899387
0.377718 0.16509353 0.006063645 0.04931275 0.08827015 -0.10487056 -0.020012612 0.16693379
-0.23577145 -0.23603296 -0.27662012 -0.25254777 -0.19139554 -0.1859222 -0.08660576 0.039570056
0.12531671 -0.19783358 -0.01763456 -0.0134173 0.06385177 0.05038267 -0.03010456 0.26517382
-0.36853352 -0.36582682 -0.28268942 0.121836536 0.11232853 0.0073174993 0.27512977 0.2546467
0.21661694 -0.072897986 -0.04693424 0.03083123 0.0713293 0.017116824 0.083438836 0.015400989
-0.05219827 -0.015398494 -0.07756349 -0.051295973 -0.082223535 -0.022528961 0.027723344 0.06392563
0.053634625 0.10248744 -0.011041774 -0.3167351 0.210192 0.028755084 -0.12389368 0.2651313
-0.0044315187 -0.24646084 -0.147094 -0.05658496 0.15628682 -0.10473332 -0.010316715 -0.1208912
00000000: 031e b1bd eb12 20be 43e3 43bb 551c 363e
00000010: 626b 953e 61bc 823e 5fdd 3dbd a94b 5dbe
00000020: 2a94 e8bd 2a1c 54be 33e6 20be df02 f9bd
00000030: 0c4d 073e 6369 8e3e cf4c c33d 840f 863c
00000040: 7a31 07bd 404a 83be e933 d3bd 006d d03c
00000050: 61e3 15be 34c4 413e 6140 3c3e 7617 ae3e
00000060: 8db7 e5bd 41a9 0abe 59e5 23be 5c40 c9be
00000070: 684b 71be 1c06 afbe 1aa1 98be 537e 75bc
00000080: 210d 733c fdc8 91be 4660 28be f4a2 5dbe
00000090: c528 d33e 70ee 333e 4e54 903e 414d 513e
000000a0: a651 393e 4786 1f3e 9dd2 8d3e 29ff 703e
000000b0: cb80 973e ea0b cd3d b60b a63d 6694 3e3d
000000c0: f17b 453d 82b1 aabd 256f fbbc 3240 ee3d
000000d0: 9a35 6abd 5dd7 0fbe 2dad a83e 4e99 b63e
000000e0: 2ae6 813e 88ec cb3e 307c 173e 78fd 503e
000000f0: e46f 7b3e 1280 6cbe e213 053d 0764 093e
00000100: 46b4 4b3d b73c f7bd 4a6f b8bd 786b bebe
00000110: 3ff6 a7be fc18 603b 43e6 a7be 9970 ebbc
00000120: 0c2f 2abe cd69 2e3d fff8 183e 1d81 2fbd
00000130: 692f ff3c ab3c 16be 807c 323d c12f b0bd
00000140: 9d3d 463e f625 2d3e c8c5 45be e7b3 253e
00000150: 5054 503e dfed 14be e877 7b3c b04e 0d3c
00000160: 101b 56be e136 0ebe ec6b 013e 145b d7bd
00000170: ab6e 963e b14c b63d b406 203d 6965 613e
00000180: e342 29be 54d4 72be 82ba 22be 7877 623d
00000190: 6a78 7abb 8244 81bd 1432 64be 821b f4bc
000001a0: 08b2 843d 1e0d 153b 7ced 7c3d 1236 e43d
000001b0: e10a 4cbe cde1 b5bc 931a cd3d 6be4 74be
000001c0: a448 32be 0d49 0bbd 0f2d 70be fa5c 41be
000001d0: f313 85bd 60a8 803e b356 493d 87bf d03d
000001e0: d8bf 9b3e 286f 8b3e eeae 203c 5bb0 473e
000001f0: da38 5f3e 948b 603c a07d d1bd e10b a93d
00000200: 6b1e 54be 6f81 0bbd 9d42 233d b022 f93d
00000210: 5aa7 30bd 0a15 7fbd be02 973d 7e77 413e
00000220: 0a39 803d 814d cfbe 673c 8e3e 92be 763e
00000230: 9505 91be b860 b2bd 5228 a73e 7679 f43d
00000240: 7ed7 10bd 3e76 8dbd 7102 97be 7d33 1cbd
00000250: dfb4 ee3d 8f33 90be 5698 dabd c73f 3d3c
00000260: 2956 0ebe 1525 003e caa4 17be e79d d3bd
00000270: e505 ac3c d608 dd3d 12fa 2a3d 80d1 f43d
00000280: d347 fc3b 8e61 f03d 1ee9 563e 4046 62be
00000290: bc4a 12bd b209 fa3d 6a18 f3bc 5424 66bc
000002a0: 0a76 f3bd 0b60 943d aad2 43be 65e8 b63c
000002b0: 8e47 3e3d bc0f 073e bc50 28be bf64 1a3e
000002c0: a311 703d 8402 dabd 12a1 9f3e 258c 303e
000002d0: e5ea 9dbd 71f4 05be bc30 e73d bb86 dd3d
000002e0: f3d2 40be c000 02bd 909e f4bd 0091 613c
000002f0: 51b6 093e 517c 2f3e 811d 2e3e 0fb3 f3bd
00000300: 4164 c13e 470e 293e 8ab1 c63b 2bfc 493d
00000310: fbc6 b43d 60c6 d6bd 7df1 a3bc b1f0 2a3e
00000320: 126e 71be a0b2 71be 27a1 8dbe f14d 81be
00000330: 31fd 43be 6462 3ebe 5c5e b1bd 3614 223d
00000340: 0653 003e e394 4abe 5a76 90bc 3cd4 5bbc
00000350: b7c4 823d 0f5e 4e3d d79d f6bc ddc4 873e
00000360: 6db0 bcbe a74d bbbe abbc 90be 6f85 f93d
00000370: 800c e63d a2c7 ef3b cfdd 8c3e 0d61 823e
00000380: d5d0 5d3e 8a4b 95bd 1e3e 40bd c791 fc3c
00000390: 1915 923d 9538 8c3c fbe1 aa3d 6e54 7c3c
000003a0: dacd 55bd f749 7cbc 9bd9 9ebd ba1b 52bd
000003b0: d064 a8bd a88e b8bc 111c e33c 71eb 823d
000003c0: fbaf 5b3d efe4 d13d 8fe8 34bc 1a2b a2be
000003d0: 923c 573e c88f eb3c f8bb fdbd 4abf 873e
000003e0: 4636 91bb 3b60 7cbe cf9f 16be a2c5 67bd
000003f0: a709 203e 6c7e d6bd 7007 29bc ce95 f7bd

conv1.bias f4 [10]
0.15044212 0.24809895 -0.017634762 -0.0082098665 -0.108636454 0.08525725 9.0895956e-05 0.12525827
-0.0026814325 0.5943482
00000000: 800d 1a3e a70d 7e3e c776 90bc ad82 06bc
00000010: ca7c debd 5a9b ae3d 659f be38 b443 003e
00000020: f9ba 2fbb 3427 183f

conv2.weight f4 [16, 10, 3, 3]
0.08999324 -0.020885792 0.07063761 0.19546802 -0.016642721 -0.08928579 0.18876296 0.01835434
0.11207873 -0.093315616 0.051881954 0.32013655 0.03926174 0.11721248 0.1251185 -0.31732103
0.2309857 0.003199017 0.00022197301 0.07507491 0.061233338 -0.13027799 0.028898804 -0.00952872
-0.15424217 0.13618301 0.120925896 -0.024702713 -0.00028874658 0.5343495 0.35343635 0.280054
0.01628836 0.1471953 0.1948679 0.27985033 -0.09287368 -0.011507649 0.12070548 0.12995337
-0.043901686 -0.07367194 -0.0027100404 -0.011938479 0.22847612 -0.33490384 0.06124101 0.055862904
-0.09580316 -0.013402715 -0.08373349 -0.150309 0.099480316 0.021280257 -0.34643602 -0.12784885
0.078415655 -0.2501121 0.017115781 -0.115574695 -0.07704845 -0.15887614 -0.10016666 -0.0036941057
0.1863117 0.060344398 -0.07082458 0.114400335 -0.068230316 0.050733056 -0.18530694 -0.21605717
0.049471427 0.027036117 0.26586828 0.2681583 0.091473535 0.23444612 -0.033025935 0.14704336
0.0028062826 -0.24661699 0.16522014 0.19631107 -0.17678046 0.29182366 0.2104489 -0.5253556
-0.2184215 -0.050091613 0.13097887 -0.028423715 0.026914619 0.069284804 -0.039984114 0.010250077
0.09983432 -0.0047212113 -5.863577e-05 -0.07233073 0.025179535 -0.13402723 -0.10623974 0.048566177
-0.007319855 -0.1551548 -0.037911884 -0.14397503 0.09794515 -0.038631454 -0.07569969 0.113061376
-0.08720818 0.008914 0.24637152 0.021797515 0.05513682 -0.030231992 -0.0320941 0.092735395
-0.0030221918 0.043537743 -0.060833823 0.24578062 0.2205476 -0.02206638 0.0892148 -0.011527911
0.21295902 -0.046214286 -0.1201287 -0.043465607 0.07663115 0.070942804 0.14355467 -0.026921185
-0.05050287 0.029671453 -0.19640063 -0.1586337 0.22953634 -0.016322 0.08317174 -0.01600371
0.15410848 -0.036282554 -0.08351209 0.073108904 0.005594772 -0.046243515 -0.006536572 0.11518507
-0.08381073 -0.012855248 -0.0770106 0.056732506 -0.28812593 -0.47623208 -0.22228023 -0.21811764
-0.23169605 -0.2101417 -0.11701019 0.17549692 0.050697763 0.07702444 0.034232516 -0.0026632205
0.06679948 -0.12316632 0.0037224395 -0.07444554 0.048983205 0.17830062 -0.026374584 0.06649607
0.13914044 -0.05578466 -0.061306804 0.20178828 0.0681412 0.21781303 0.040979914 -0.108192414
0.15021898 0.013707572 -0.10780073 -0.083958186 0.04112491 0.21443412 -0.07765903 0.0076215793
0.030859025 -0.18591166 -0.12465027 -0.031145602 -0.16857296 -0.0935596 0.2687436 0.15620774
0.04760546 0.15716073 0.10588619 0.09322874 -0.03315532 0.052947003 0.09716731 0.058420766
-0.05641911 0.19692427 -0.032112006 0.019413777 -0.1061378 -0.09361531 -0.2204106 -0.08449666
-0.02961318 0.19768514 0.14905268 0.18037587 0.19439298 0.1866388 0.27625498 -0.042677786
0.035089947 -0.05398137 0.1389216 0.22471523 0.17725213 0.35660473 0.19451858 0.13141592
0.23712586 -0.16213924 -0.028380975 -0.27570206 -0.036019064 0.2520619 0.06924074 -0.026242524
-0.013560693 0.065580465 -0.029212773 -0.17272788 -0.23330182 -0.18627262 -0.3266494 -0.35131904
-0.22459628 -0.12425359 -0.080775976 -0.08664893 0.057326492 0.26058382 0.19442827 0.17611423
00000000: 604e b83d ae18 abbc 74aa 903d c528 483e
00000010: 5156 88bc 78db b6bd 144b 413e d75b 963c
00000020: 8889 e53d 421c bfbd 2c82 543d f0e8 a33e
00000030: ebd0 203d 190d f03d 101f 003e e777 a2be
00000040: 8487 6c3e 99a6 513b 6dc1 6839 e0c0 993d
00000050: cfcf 7a3d 9867 05be 2fbd ec3c 591e 1cbc
00000060: a9f1 1dbe 8f73 0b3e ffa7 f73d 585d cabc
00000070: e962 97b9 21cb 083f 9cf5 b43e 3d63 8f3e
00000080: 2b6f 853c 5dba 163e 738b 473e 8b48 8f3e
00000090: 8e34 bebd 948a 3cbc 6f34 f73d 7f12 053e
000000a0: 41d2 33bd 50e1 96bd ef9a 31bb 9c99 43bc
000000b0: a5f5 693e 8478 abbe dad7 7a3d 80d0 643d
000000c0: 7234 c4bd 1097 5bbc 777c abbd 9aea 19be
000000d0: 56bc cb3d ef53 ae3c 1060 b1be cfea 02be
000000e0: 6398 a03d b10e 80be 6536 8c3c 6db2 ecbd
000000f0: 94cb 9dbd 6db0 22be 2e24 cdbd cf18 72bb
00000100: 7fc8 3e3e b02b 773d 7a0c 91bd b94a ea3d
00000110: 56bc 8bbd 77cd 4f3d 1ac1 3dbe 173e 5dbe
00000120: 8da2 4a3d d97a dd3c e31f 883e 0b4c 893e
00000130: 7a56 bb3d a512 703e 3446 07bd 8992 163e
00000140: 9ce9 373b 2a89 7cbe 782f 293e c505 493e
00000150: f005 35be e969 953e eb7f 573e b47d 06bf
00000160: e3a9 5fbe dd2c 4dbd 531f 063e dad8 e8bc
00000170: 0c7c dc3c 31e5 8d3d 62c6 23bd f0ef 273c
00000180: f075 cc3d 64b4 9abb aeef 75b8 2222 94bd
00000190: 5045 ce3c 6f3e 09be 3994 d9bd 54ed 463d
000001a0: 65db efbb e6e0 1ebe 7e49 1bbd 316e 13be
000001b0: 7897 c83d 043c 1ebd 7008 9bbd b98c e73d
000001c0: 349a b2bd 070c 123c d148 7c3e b490 b23c
000001d0: 25d7 613d 15a9 f7bc 1a75 03bd 0eec bd3d
000001e0: f70f 46bb a254 323d e32c 79bd eaad 7b3e
000001f0: 3bd7 613e 8ec4 b4bc 40b6 b63d 90df 3cbc
00000200: ee11 5a3e 314b 3dbd 0906 f6bd fe08 32bd
00000210: cbf0 9c3d 764a 913d ffff 123e d189 dcbc
00000220: 19dc 4ebd 8c11 f33c 3f1d 49be df70 22be
00000230: 930b 6b3e b7b5 85bc f255 aa3d 361a 83bc
00000240: 9dce 1d3e 049d 14bd 6308 abbd 1fba 953d
00000250: 5954 b73b d769 3dbd bd30 d6bb 26e6 eb3d
00000260: f6a4 abbd d19e 52bc bcb7 9dbd 5860 683d
00000270: 3e85 93be b1d4 f3be 6e9d 63be 3b5a 5fbe
00000280: bb41 6dbe 632f 57be 0aa3 efbd 77b5 333e
00000290: 75a8 4f3d fdbe 9d3d 6537 0c3d 6d89 2ebb
000002a0: 2ace 883d a03e fcbd 2cf4 733b e776 98bd
000002b0: 9da2 483d 7094 363e 830f d8bc 172f 883d
000002c0: d57a 0e3e 757e 64bd d81c 7bbd 96a1 4e3e
000002d0: 9d8d 8b3d 610a 5f3e 8eda 273d fc93 ddbd
000002e0: 01d3 193e b995 603c a1c6 dcbd 45f2 abbd
000002f0: 9872 283d 9e94 5b3e b30b 9fbd 71be f93b
00000300: 11cc fc3c a05f 3ebe a448 ffbd 1025 ffbc
00000310: 649e 2cbe 2d9c bfbd c398 893e ecf4 1f3e
00000320: f1fd 423d beee 203e dcda d83d b6ee be3d
00000330: dfcd 07bd f5de 583d a8ff c63d 9d4a 6f3d
00000340: ba17 67bd 84a6 493e e187 03bd a409 9f3c
00000350: c65e d9bd 62b9 bfbd 51b3 61be 960c adbd
00000360: 5797 f2bc f96d 4a3e 44a1 183e 74b4 383e
00000370: f40e 473e 3e1e 3f3e 4b71 8d3e e7ce 2ebd
00000380: 7aba 0f3d 921b 5dbd 7741 0e3e c01b 663e
00000390: 9581 353e e594 b63e e12f 473e e591 063e
000003a0: 1fd1 723e d407 26be 387f e8bc d228 8dbe
000003b0: ba88 13bd 420e 813e 17ce 8d3d 90fa d6bc
000003c0: ab2d 5ebc 0d4f 863d a04f efbc 94df 30be
000003d0: ace6 6ebe 40be 3ebe 973e a7be 17e0 b3be
000003e0: 91fc 65be ab78 febd e06d a5bd ff74 b1bd
000003f0: 2fcf 6a3d 3e6b 853e 3418 473e 4a57 343e

conv2.bias f4 [16]
0.1434432 0.062625356 0.051760107 0.1328113 -0.16750075 -0.022190107 0.1699611 -0.12786147
0.015412574 -0.035565443 -0.26643783 -0.12869337 0.025852656 0.29960373 0.21366806 0.18185821
00000000: c6e2 123e b941 803d 6802 543d afff 073e
00000010: 5185 2bbe 07c8 b5bc 480a 2e3e 1eee 02be
00000020: 0585 7c3c 12ad 11bd 8a6a 88be 32c8 03be
00000030: f3c8 d33c a965 993e cdcb 5a3e 0a39 3a3e

conv3.weight f4 [32, 16, 3, 3]
0.052220725 0.238956 0.13629766 0.1065924 0.15823203 0.17031191 -0.4830954 -0.14908461
0.12770312 -0.32601073 -0.24350132 -0.67135113 -0.65019375 -0.41896245 -0.19320717 -0.91485584
-0.59129816 -0.08011832 0.10848965 0.11233181 0.0010126294 0.12510604 -0.026808048 0.15340811
0.10304527 -0.091865815 -0.056912456 0.2281094 -0.2218687 -0.0838091 -0.09992469 0.0013965545
-0.024303697 -0.25953084 -0.634713 -0.45926142 0.041556977 -0.1696644 0.04172764 0.019661957
-0.17015833 -0.019381043 -0.019805105 -0.100503705 0.046426695 0.050768986 -0.45202258 -0.014483283
0.1153614 0.17834587 0.068330824 -0.15362675 0.008864482 0.20174667 0.03429895 0.16189939
0.109334536 -0.15407196 0.06886 0.04924591 -0.21393837 -0.050458737 -0.053263534 -0.23790693
0.1183756 -0.16298336 -0.25563312 -0.19050622 -0.21331602 -0.19986127 -0.20652787 0.1255779
-0.5429842 -0.7214437 0.09953899 -0.8257806 -0.99790025 -0.859774 -0.49241355 -0.4425686
0.34553856 0.29964423 0.12788814 0.120058075 0.026307194 -0.0757622 0.16120395 0.11266034
-0.013239423 0.14404404 -0.45442632 -0.16194473 -0.13907339 -0.33715513 -0.05655059 -0.09939934
-0.541781 -0.11684217 -0.107095785 0.18485036 0.24796481 0.09734356 -0.101349466 0.0437241
-0.09381309 -0.37602803 -0.36009386 -0.13722932 0.05466477 -0.13970676 -0.08384161 0.03394391
-0.058304686 -0.0049053906 0.21335752 -0.08446363 -0.06507802 -0.10352962 0.03339744 0.069697306
-0.020921374 0.0006652425 -0.058313098 0.37790605 0.09723755 0.040306006 0.09739501 -0.17502108
-0.08659862 0.18654215 0.11851158 0.19453838 0.22068065 0.19574334 0.09077648 -0.2720508
0.1750286 -0.015082262 -0.066139296 -0.12410602 -0.029935876 -0.14586604 -0.9327486 -0.20044808
-0.14155263 -0.015503856 -0.033757593 -0.14647001 -0.0069367224 0.021012545 0.15881965 0.060384642
-0.042091504 0.36787793 0.013097534 -0.027014103 0.2530773 -0.01790503 -0.008207229 0.27339962
-0.18476893 0.27805656 0.07574158 0.15457372 -0.029295584 0.14605394 0.09481842 0.058578175
0.09846918 0.25720242 0.007478252 0.38554928 0.11679612 -0.01791261 -0.007090376 0.0043354435
-0.17337735 -0.2321418 0.11114516 0.006304885 0.03745869 -0.08120461 -0.14166303 -0.04587669
0.019530557 0.038339738 -0.1925088 -0.14867713 -0.2141205 0.4659115 0.42106062 0.10386148
0.52527386 -0.042751428 0.2660052 0.074139446 -0.0033742252 0.2745414 -0.025462126 0.32731834
0.08511672 0.096189834 0.25613132 0.04953613 0.062005866 0.089451775 0.073628426 -0.001034072
-0.16416019 -0.29432768 -0.3017618 -0.37375584 -0.5134202 -0.2527468 0.19724251 -0.19487697
-0.12070384 -0.29255038 0.10380045 0.028106306 0.19802381 0.5540682 0.13345422 -0.617746
0.11196415 -0.0525307 -0.12763609 -0.17120367 -0.13689896 -0.109583415 -0.059782933 -0.15461801
-0.06579638 0.0059365607 0.15393354 0.0040250183 0.103439234 0.0026628315 -0.090853766 0.1636921
0.20601416 0.108363435 0.027629558 -0.07509749 0.27065963 0.095425986 -0.10788981 0.2927196
0.17324965 -0.07609006 0.057690002 0.041490994 -0.016666709 0.0753577 0.10562309 0.1505811
00000000: 66e5 553d e2b0 743e 9d91 0b3e 1e4d da3d
00000010: 9407 223e 3f66 2e3e 4858 f7be a3a9 18be
00000020: 9bc4 023e e1ea a6be 6958 79be abdd 2bbf
00000030: 1973 26bf 3f82 d6be 1ad8 45be fe33 6abf
00000040: 515f 17bf 1315 a4bd d22f de3d 380e e63d
00000050: 34ba 843a cc1b 003e 8d9c dbbc 0417 1d3e
00000060: 6609 d33d 2524 bcbd 091d 69bd 8395 693e
00000070: 8c31 63be 1ba4 abbd 51a5 ccbd 980c b73a
00000080: 8c18 c7bc 3ae1 84be 8d7c 22bf 5024 ebbe
00000090: a637 2a3d 81bc 2dbe 9aea 2a3d 1d12 a13c
000000a0: fc3d 2ebe fec4 9ebc 513e a2bc e3d4 cdbd
000000b0: eb29 3e3d 24f3 4f3d 816f e7be 4b4b 6dbc
000000c0: 9942 ec3d 4da0 363e 08f1 8b3d 5550 1dbe
000000d0: 553c 113c ae96 4e3e 0e7d 0c3d f4c8 253e
000000e0: c9ea df3d 0ac5 1dbe 7906 8d3d 14b6 493d
000000f0: a912 5bbe d2ad 4ebd dd2a 5abd e09d 73be
00000100: e86e f23d 1ce5 26be 58e2 82be 1014 43be
00000110: 846f 5abe 6fa8 4cbe 0b7c 53be 7e97 003e
00000120: 0301 0bbf 89b0 38bf 19db cb3d 5b66 53bf
00000130: 6476 7fbf 261a 5cbf a11d fcbe 5a98 e2be
00000140: 6eea b03e f86a 993e 1cf5 023e 02e1 f53d
00000150: 2f82 d73c 3629 9bbd a612 253e 77ba e63d
00000160: 2aea 58bc 4880 133e 91aa e8be d7d4 25be
00000170: 4169 0ebe 999f acbe 97a1 67bd e291 cbbd
00000180: 29b2 0abf f34a efbd 0955 dbbd 6a49 3d3e
00000190: 7dea 7d3e 0f5c c73d 4f90 cfbd 0b18 333d
000001a0: 1421 c0bd bf86 c0be 395e b8be d885 0cbe
000001b0: 2ae8 5f3d 4a0f 0fbe 26b5 abbd c508 0b3d
000001c0: e5d0 6ebd 66bd a0bb 657a 5a3e 45fb acbd
000001d0: a047 85bd 5607 d4bd c1cb 083d 76bd 8e3d
000001e0: 4d63 abbc ab63 2e3a b7d9 6ebd e77c c13e
000001f0: 7b24 c73d e917 253d 0977 c73d ba38 33be
00000200: 9e5a b1bd e804 3f3e 33b6 f23d 1235 473e
00000210: 1cfa 613e f170 483e 05e9 b93d 3e4a 8bbe
00000220: b33a 333e 981b 77bc 0a74 87bd 4c2b febd
00000230: 153c f5bc e85d 15be 9dc8 6ebf 4342 4dbe
00000240: 2cf3 10be e303 7ebc 6745 0abd 3cfc 15be
00000250: 724d e3bb 8022 ac3c 9ea1 223e e355 773d
00000260: 2468 2cbd 7f5a bc3e 0a97 563c ae4c ddbc
00000270: 5993 813e 92ad 92bc 9d77 06bc 09fb 8b3e
00000280: 1134 3dbe 6e5d 8e3e 671e 9b3d 9348 1e3e
00000290: 4bfd efbc 2a8f 153e 2930 c23d abef 6f3d
000002a0: 36aa c93d 09b0 833e 200c f53b b766 c53e
000002b0: ce32 ef3d 77bd 92bc 6356 e8bb 5610 8e3b
000002c0: d589 31be 94b6 6dbe 13a0 e33d 3599 ce3b
000002d0: 496e 193d 9a4e a6bd 1d10 11be 32e9 3bbd
000002e0: 8cfe 9f3c 210a 1d3d 0721 45be d13e 18be
000002f0: 6842 5bbe f48b ee3e 4295 d73e 54b5 d43d
00000300: 5978 063f 1f1c 2fbd d531 883e 6cd6 973d
00000310: 1b22 5dbb b190 8c3e f395 d0bc 4596 a73e
00000320: ad51 ae3d 2dff c43d a523 833e 66e6 4a3d
00000330: ddf9 7d3d 7e32 b73d 80ca 963d b389 87ba
00000340: 9c19 28be 1eb2 96be 8680 9abe ed5c bfbe
00000350: 826f 03bf 0768 81be f1f9 493e d48d 47be
00000360: 9333 f7bd 2ac9 95be 5595 d43d 323f e63c
00000370: c1c6 4a3e 6ad7 0d3f 39a8 083e 9a24 1ebf
00000380: 764d e53d 6e2a 57bd 09b3 02be 0450 2fbe
00000390: 3e2f 0cbe 456d e0bd f3de 74bd 2f54 1ebe
000003a0: 41c0 86bd 7b87 c23b c1a0 1d3e 4de4 833b
000003b0: f3d7 d33d e682 2e3b 8a11 babd e79e 273e
000003c0: 60f5 523e a6ed dd3d 6257 e23c b6cc 99bd
000003d0: e693 8a3e b36e c33d 55f5 dcbd 58df 953e
000003e0: 5b68 313e 1bd5 9bbd 5a4c 6c3d 76f2 293d
000003f0: 9f88 88bc 2355 9a3d eb50 d83d ef31 1a3e

conv3.bias f4 [32]
0.05744967 -0.06353688 0.19366212 -0.059949994 -0.0092032235 0.0011266851 0.16972098 0.06228956
0.1400322 0.07244587 -0.011392889 0.056509104 0.007141832 -0.030303486 0.044162333 0.3027217
0.021545338 0.064765334 0.06779747 0.016117238 0.14577791 -0.10751312 0.30251962 0.31595862
-0.1429004 0.031396814 0.051410824 -0.09686491 0.13353306 0.16501689 -0.09067243 0.047387905
00000000: 5850 6b3d a01f 82bd 5d4f 463e 208e 75bd
00000010: 1ec9 16bc 47ad 933a 56cb 2d3e 5623 7f3d
00000020: 9a64 0f3e 805e 943d 3da9 3abc 1776 673d
00000030: 0706 ea3b 043f f8bc 90e3 343d 57fe 9a3e
00000040: d97f b03c b0a3 843d 66d9 8a3d 4c08 843c
00000050: ce46 153e d72f dcbd dae3 9a3e 54c5 a13e
00000060: 7c54 12be f299 003d 2894 523d 1c61 c6bd
00000070: e4bc 083e 30fa 283e 78b2 b9bd d219 423d

conv4_1.weight f4 [2, 32, 1, 1]
-1.9667567 0.6801542 0.20522137 -0.028215883 -0.25536436 -0.16610463 -0.17077091 1.2104992
1.7809753 1.4314686 -0.29376712 -0.7273953 -0.074847974 1.6046667 0.39540786 1.742382
0.30358458 0.706509 0.21820807 -0.016721865 1.5703888 -0.8312592 2.380304 1.0757148
1.6581172 -2.7814348 0.6663802 0.15209736 1.6619445 0.32950985 2.3441927 0.11291163
2.0689566 -0.6498547 -0.35400996 0.14014249 0.26718873 0.049848095 0.18980792 -1.1224928
-1.6850574 -1.5843431 0.1752582 0.7144271 0.013772705 -1.390568 -0.45086688 -1.853783
-0.4105597 -0.85775363 -0.48182413 -0.069253445 -1.5179456 0.9154314 -2.3936212 -1.1822039
-1.6464082 2.760837 -0.7048274 -0.071612924 -1.6521459 -0.30046052 -2.4272003 0.15291077
00000000: afbe fbbf 961e 2e3f 8d25 523e ff24 e7bc
00000010: 1ebf 82be 5517 2abe 92de 2ebe a3f1 9a3f
00000020: 00f7 e33f 5d3a b73f a568 96be 9436 3abf
00000030: e549 99bd b865 cd3f e672 ca3e 6006 df3f
00000040: 706f 9b3e c6dd 343f f071 5f3e 4bfc 88bc
00000050: 8002 c93f 67cd 54bf e756 1840 06b1 893f
00000060: 2f3d d43f 0703 32c0 e597 2a3f 69bf 1b3e
00000070: 99ba d43f 84b5 a83e 4107 1640 363e e73d
00000080: c969 0440 e15c 26bf cb40 b5be 8381 0f3e
00000090: f6cc 883e 842d 4c3d 025d 423e d8ad 8fbf
000000a0: f6af d7bf c1cb cabf e376 333e b2e4 363f
000000b0: e9a6 613c 22fe b1bf 06d8 e6be c348 edbf
000000c0: e234 d2be be95 5bbf a7b1 f6be c0d4 8dbd
000000d0: 0b4c c2bf b659 6a3f 1731 19c0 7552 97bf
000000e0: 81bd d2bf 8eb1 3040 926f 34bf cca9 92bd
000000f0: 8479 d3bf f6d5 99be 4057 1bc0 a494 1c3e

conv4_1.bias f4 [2]
-0.04843652 0.11294452
00000000: 5f65 46bd 754f e73d

conv4_2.weight f4 [4, 32, 1, 1]
0.0047161034 0.008090551 -0.60671014 0.098912455 0.06111724 -0.068271995 -0.13767837 0.016940847
-0.07070937 0.08430554 0.023283059 0.010401142 -0.0051465896 -0.023362389 0.0073950826 0.0137429265
0.021215118 0.17551975 -0.43985227 -0.15067622 -0.038444467 0.010021773 -0.14185926 0.0018437323
0.087360725 -0.026489764 -0.03702426 0.30272222 0.0384538 0.33905926 -0.0149583565 -0.10633022
-0.069602884 -0.0005039007 -0.05661091 -0.030763024 0.10248157 -0.14709733 -0.3072371 0.009083225
0.0021744077 0.0029938435 0.252608 -0.054394186 -0.12165835 -0.022934439 0.08962518 0.01960651
-0.194051 0.14361846 0.36601922 0.053897686 0.013891341 0.27223074 0.0993964 -0.06826911
-0.08053994 -0.005331347 0.034417283 -0.58090687 -0.07656636 0.020413613 0.027266929 -0.15243062
0.020366112 -0.00036540237 0.009978051 -0.17281164 -0.029068284 0.06139773 -0.040370923 -0.004287123
-0.039291814 0.018085588 0.05905583 0.00693948 -0.0034844156 -0.008429088 0.027032869 -0.0077626295
0.022567704 0.008564711 -0.07797625 -0.15975867 -0.025566442 -0.040613744 -0.010239402 0.016606346
0.015306076 0.004824796 -0.007689232 0.1718173 0.016669873 -0.062423125 -0.041549463 0.04116091
-0.047959425 -0.0055356785 0.24761981 0.014235111 0.020005392 -0.008228752 0.18176584 0.007156188
0.09095869 -0.076339975 -0.17385216 0.008055567 -0.16357292 0.024847219 -0.029084967 -0.019234443
-0.029019501 -0.104271606 0.11270118 0.0075849956 0.026783077 0.011974799 0.07423179 0.02189052
-0.042285975 -0.031536832 0.007543537 -0.34684545 -0.011930297 0.1459768 0.0019405717 -0.09508655
00000000: 8b89 9a3b 3b8e 043c 5b51 1bbf 9d92 ca3d
00000010: 1256 7a3d 30d2 8bbd 8ffb 0cbe 88c7 8a3c
00000020: 13d0 90bd 62a8 ac3d 1dbc be3c 8d69 2a3c
00000030: b9a4 a8bb 7b62 bfbc 7352 f23b 032a 613c
00000040: 54cb ad3c 73bb 333e 5134 e1be de4a 1abe
00000050: f277 1dbd 5d32 243c 8e43 11be 64a9 f13a
00000060: 2eea b23d 1001 d9bc c0a6 17bd 68fe 9a3e
00000070: bb81 1d3d 2d99 ad3e e513 75bc a9c3 d9bd
00000080: f58b 8ebd 3418 04ba d7e0 67bd bd02 fcbc
00000090: dbe1 d13d afa0 16be 2e4e 9dbe cfd1 143c
000000a0: 8280 0e3b 5c34 443b d655 813e 70cc 5ebd
000000b0: 0328 f9bd 01e1 bbbc 688d b73d d59d a03c
000000c0: 4eb5 46be b810 133e df66 bb3e d2c3 5c3d
000000d0: 8298 633c d461 8b3e 5790 cb3d add0 8bbd
000000e0: 20f2 a4bd 95b2 aebb 23f9 0c3d 50b6 14bf
000000f0: d3ce 9cbd 733a a73c e55e df3c c616 1cbe
00000100: d5d6 a63c 7a93 bfb9 fb7a 233c 89f5 30be
00000110: 9c20 eebc 307c 7b3d fb5b 25bd ff7a 8cbb
00000120: 74f0 20bd 3a28 943c 87e4 713d 9464 e33b
00000130: cb5a 64bb 281a 0abc 0974 dd3c a85d febb
00000140: e8df b83c 0053 0c3c 03b2 9fbd c797 23be
00000150: b770 d1bc 995a 26bd 2ac3 27bc 080a 883c
00000160: 56c6 7a3c 5319 9e3b f4f5 fbbb e0f0 2f3e
00000170: 428f 883c 64af 7fbd c52f 2abd 5898 283d
00000180: 1a71 44bd a364 b5bb 0c90 7d3e 623a 693c
00000190: 59e2 a33c e3d1 06bc d320 3a3e 757e ea3b
000001a0: 8d48 ba3d 2258 9cbd 4d06 32be 7ffb 033c
000001b0: a97f 27be 658c cb3c 9943 eebc 8d91 9dbc
000001c0: 4eba edbc 5a8c d5bd e0cf e63d 8e8b f83b
000001d0: 2f68 db3c f331 443c d606 983d bf53 b33c
000001e0: 0f34 2dbd c42c 01bd c62f f73b ba95 b1be
000001f0: 4b77 43bc f17a 153e c85a fe3a bdbc c2bd

conv4_2.bias f4 [4]
0.19838938 0.08561394 0.9420982 0.729669
00000000: 9626 4b3e 5d56 af3d 592d 713f 96cb 3a3f

conv4_3.weight f4 [10, 32, 1, 1]
-8.488036e-05 0.00015250733 -0.0003943958 0.123509616 -0.0004870992 0.17766775 0.0007683256 -0.0003668555
0.00066094287 0.002129393 -0.0004937302 0.0004071026 0.04883699 -0.0001949922 -0.00042637796 -0.0006485437
7.59154e-05 -0.00034285412 -0.0017770305 -0.096647985 -0.0007291481 0.00054484 0.0014379426 -0.00036128238
0.00011360278 -0.00024452392 -0.00045184934 0.00073811505 0.0006505894 0.0025510972 -0.0007854647 -0.0029787505
0.00079446915 -0.0001884461 -0.0037545613 -0.095924795 -0.0017839815 -0.16458535 0.00071661815 0.00025834423
-0.0017186101 0.0010210895 0.0013657655 0.00044010798 0.071203984 -6.327742e-05 -0.0011068566 0.00063050975
0.00052444084 -0.0010378815 -0.00035632998 -0.02971657 -0.00035321212 3.0404866e-05 -2.4655023e-05 3.2257245e-05
-0.0008542945 6.0360093e-05 -0.00038600748 -0.00015285579 0.0007347103 0.00038390124 -0.0008925766 0.05027
0.014506909 -0.0045796614 -0.036210172 -0.12319786 0.011400136 0.1732605 0.0035382453 -0.004891494
-0.036405344 -0.036413178 -0.010547927 0.006116656 -0.15346517 0.0013246635 0.028461218 -0.017360112
-0.02276196 -0.03228526 0.04143279 -0.02825177 0.009144477 -0.037090465 -0.027013753 0.007693555
-0.02105156 0.018899348 0.004912195 -0.009384356 0.0052737906 -0.06416874 -0.007584626 -0.12407895
-0.008637448 0.011273947 -0.009989183 -0.15342517 -0.23022248 0.046275727 0.09944528 0.011973811
-0.001998458 0.028669951 0.1452054 0.003280325 0.15828934 -0.006532523 -0.016616829 -0.008929625
-0.0041396776 0.0014511532 0.018097738 -0.04559688 0.020739488 -0.015786454 0.011000997 -0.010021748
-0.0018160738 0.0068927705 0.004223841 -0.017561613 -0.013774819 -0.0011690722 -0.020521939 0.13350286
0.018355273 -0.010639912 0.015997753 -0.046322163 0.08638102 -0.16818759 -0.009775593 0.0053112246
0.0066461163 0.000509494 -0.07644244 -0.0049370667 0.06830214 -0.0023158374 0.061666 0.021507282
-0.025081143 -0.036795136 0.055273652 0.078405604 0.00593757 -0.012614801 -0.006047243 0.016640015
-0.009914201 -0.015488955 0.011769027 -0.035185136 -0.002372467 -0.09497463 -0.0031238697 0.09555611
0.0037182763 0.0056645083 -0.02932844 0.17330247 -0.09428643 0.015206815 0.05395061 0.0030871322
-0.019233603 0.011007183 0.047668457 0.004402393 0.05310107 0.0029924265 0.016246203 -0.01067965
-0.011538435 0.0018539585 0.0160483 0.005251094 0.009917234 -0.03360505 -0.0005486478 -0.00399355
-0.0075236005 0.013646942 -0.00083203864 0.010038765 -0.0017129169 -0.034312963 -0.013264664 0.14984712
0.00065474975 -0.0074719777 0.002605689 -0.12367881 0.23655422 0.009811329 -0.10069323 -0.01189568
0.009009673 -0.03453983 -0.15430051 -0.0010136748 0.15570943 0.0061491686 -0.010089644 0.009159081
0.014031141 0.0052295118 -0.012109441 0.17119859 -0.0259695 0.01638364 -0.0132867275 0.0067192167
0.006400141 -0.010902543 -0.00394621 0.025910284 0.005879414 0.015114055 0.017841868 0.047943488
0.0013650478 0.00039609108 -0.008297009 0.048336465 -0.016568484 -0.058185335 0.0081950035 0.0023606454
-0.0031503963 -0.009542391 0.010857889 -0.0009116328 -0.096607655 -0.0027122893 -0.0011066585 0.003053534
-0.0010392232 -0.007199676 0.01023969 -0.06565895 0.0029718853 -0.0042923223 -0.0062848916 -0.00042478662
-0.0034148465 0.0023799792 0.0007348957 -0.009122301 0.0009330203 -0.008264851 -0.0022876442 -0.0361556
00000000: cc01 b2b8 60ea 1f39 e9c6 ceb9 9cf2 fc3d
00000010: 5961 ffb9 89ee 353e 7569 493a 8356 c0b9
00000020: 2043 2d3a 498d 0b3b ac6d 01ba 6370 d539
00000030: 4c09 483d d276 4cb9 7b8b dfb9 0803 2aba
00000040: c534 9f38 1ac1 b3b9 40eb e8ba 61ef c5bd
00000050: 4d24 3fba 98d3 0e3a 5979 bc3a 806a bdb9
00000060: 073e ee38 7233 80b9 31e6 ecb9 107e 413a
00000070: 518c 2a3a 4f30 273b a5e7 4dba 2437 43bb
00000080: ec43 503a 9d99 45b9 160f 76bb 3874 c4bd
00000090: 7cd4 e9ba 1089 28be 6edb 3b3a 6072 8739
000000a0: fc42 e1ba 14d6 853a 7c03 b33a 4bbe e639
000000b0: 65d3 913d ceb3 84b8 f213 91ba cb48 253a
000000c0: a17a 093a 8609 88ba cdd1 bab9 2a70 f3bc
000000d0: 542f b9b9 f40d ff37 42d2 ceb7 f44b 0738
000000e0: bcf2 5fba 282b 7d38 0c61 cab9 ea47 20b9
000000f0: 9399 403a 5a46 c939 cdfb 69ba eae7 4d3d
00000100: 63ae 6d3c fc10 96bb 1e51 14bd 294f fcbd
00000110: a3c7 3a3c 336b 313e e8e1 673b d348 a0bb
00000120: c51d 15bd fc25 15bd 36d1 2cbc 3b6e c83b
00000130: f925 1dbe 55a0 ad3a 8027 e93c cb36 8ebc
00000140: 4a77 babc 8c3d 04bd 6eb5 293d 4270 e7bc
00000150: b7d2 153c 2cec 17bd f24b ddbc 381a fc3b
00000160: 5274 acbc ced2 9a3c 7af6 a03b d8c0 19bc
00000170: c3cf ac3b e66a 83bd 7488 f8bb 1b1d febd
00000180: 1584 0dbc 5cb6 383c aca9 23bc 7d1b 1dbe
00000190: 71bf 6bbe 9e8b 3d3d f8a9 cb3d ce2d 443c
000001a0: 90f8 02bb 3fdd ea3c b9b0 143e b9fa 563b
000001b0: 9a16 223e c60e d6bb 0420 88bc 904d 12bc
000001c0: 22a6 87bb 9f34 be3a b541 943c cbc3 3abd
000001d0: dce5 a93c 9852 81bc 873d 343c 4232 24bc
000001e0: 5309 eeba c0dc e13b 2568 8a3b 5fdd 8fbc
000001f0: c7af 61bc 8e3b 99ba a01d a8bc f9b4 083e
00000200: cc5d 963c 0753 2ebc b80d 833c 4fbc 3dbd
00000210: 88e8 b03d 5e39 2cbe cf29 20bc c809 ae3b
00000220: aac7 d93b 908f 053a db8d 9cbd 1ec7 a1bb
00000230: fee1 8b3d 4ec5 17bb 7d95 7c3d 0a30 b03c
00000240: f876 cdbc 7fb6 16bd a066 623d 1e93 a03d
00000250: f28f c23b 4fae 4ebc f327 c6bb a450 883c
00000260: 2c6f 22bc 63c5 7dbc e1d2 403c 4a1e 10bd
00000270: 647b 1bbb 0f82 c2bd d6b9 4cbb ecb2 c33d
00000280: 53ae 733b 579d b93b 3242 f0bc 3476 313e
00000290: 3e19 c1bd 0126 793c 51fb 5c3d 7c51 4a3b
000002a0: ca8f 9dbc 7957 343c 0040 433d f341 903b
000002b0: 8280 593d 961c 443b c216 853c b3f9 2ebc
000002c0: b40b 3dbc 8600 f33a b977 833c 5e11 ac3b
000002d0: e57b 223c 73a5 09bd 21d3 0fba 53dc 82bb
000002e0: 8988 f6bb 6c97 5f3c 2b1d 5aba a279 243c
000002f0: f483 e0ba c08b 0cbd 0954 59bc 8671 193e
00000300: 83a3 2b3a 7ed7 f4bb 35c4 2a3b 514b fdbd
00000310: 453b 723e b2bf 203c 4138 cebd 19e6 42bc
00000320: 4f9d 133c a379 0dbd f400 1ebe 48dd 84ba
00000330: 4b72 1f3e f77e c93b 094f 25bc f80f 163c
00000340: dfe2 653c 535c ab3b ad66 46bc af4e 2f3e
00000350: fdbd d4bc fc36 863c 93b0 59bc e02c dc3b
00000360: 46b8 d13b 94a0 32bc 354f 81bb ce41 d43c
00000370: 19a8 c03b f1a0 773c 1c29 923c 6460 443d
00000380: 67eb b23a 72aa cf39 2ef0 07bc 75fc 453d
00000390: a1ba 87bc bf53 6ebd 5644 063c 0fb5 1a3b
000003a0: e176 4ebb b057 1cbc 4ae5 313c a4fa 6eba
000003b0: 3cda c5bd aac0 31bb 4c0d 91ba cd1d 483b
000003c0: 8b36 88ba 42eb ebbb 5fc4 273c 3378 86bd
000003d0: f6c3 423b 9ca6 8cbb 7ef1 cdbb e5b5 deb9
000003e0: 9ecb 5fbb 6df9 1b3b 04a6 403a b475 15bc
000003f0: ef95 743a 4c69 07bc 4dec 15bb e517 14bd

conv4_3.bias f4 [10]
0.22144704 0.3601594 0.46102408 0.3446916 0.3479528 0.49673888 0.24996997 0.63105994
0.45454857 0.6177721
00000000: 03c3 623e d066 b83e 590b ec3e 6b7b b03e
00000010: df26 b23e 8f54 fe3e 21f8 7f3e 258d 213f
00000020: 97ba e83e 5026 1e3f

exp_avg f4 [10, 3, 3, 3]
-0.0004098296 0.008177396 0.017317047 -0.0052564763 0.004183461 0.013557107 -0.0028489 0.009184754
0.021186385 0.016646067 0.024642872 0.030823935 0.0130261695 0.020533223 0.02990375 0.016135477
0.0247909 0.03529353 0.016164698 0.022227151 0.026641887 0.016290633 0.020963455 0.02860337
0.019571098 0.025462223 0.035132244 0.0019687153 -0.00065773044 -0.0025925662 -0.00044022946 0.0020563377
0.0011415677 -0.0034135936 -0.008525779 -0.015637059 -0.0024044814 -0.0037787908 -0.003980689 -0.0040388787
-0.0014931327 -0.000707054 -0.005080913 -0.010471824 -0.015033247 0.0015638601 0.00026271728 0.0015910758
-0.0025817123 0.0005554595 0.005015895 -0.0038629498 -0.008014949 -0.009639709 -0.05349823 -0.04284465
-0.036032006 -0.047931496 -0.037877806 -0.034868017 -0.042270645 -0.029944966 -0.034626722 -0.050664946
-0.042970687 -0.03569751 -0.044081025 -0.035925433 -0.033607833 -0.03420968 -0.023548745 -0.029992154
-0.0381896 -0.032498036 -0.02467544 -0.035433713 -0.029067352 -0.025397768 -0.027501568 -0.01861085
-0.024092916 0.10704408 0.09098977 0.10143796 0.10003415 0.08665451 0.0976835 0.08818847
0.07389302 0.08054646 0.08492089 0.07221184 0.084203586 0.07969046 0.069413625 0.07885952
0.066551514 0.05604159 0.059648093 0.073951945 0.060830623 0.07154608 0.06466155 0.054295003
0.06396155 0.047986135 0.03561677 0.039436106 -0.024524683 -0.02587493 -0.026483515 -0.023747263
-0.024588298 -0.025285328 -0.02457776 -0.026007846 -0.024709703 -0.019507337 -0.022008486 -0.021468624
-0.018976048 -0.02038168 -0.019985067 -0.018833928 -0.02033767 -0.018932497 -0.012636591 -0.013922855
-0.011622848 -0.011311921 -0.011485585 -0.009029611 -0.010034868 -0.011954129 -0.008579068 -0.070155606
-0.06344185 -0.062438212 -0.06927358 -0.07039281 -0.07145306 -0.06957031 -0.077227466 -0.08071274
-0.07454181 -0.06725303 -0.06306029 -0.070335336 -0.06908436 -0.06598675 -0.067344174 -0.07145274
-0.07338439 -0.06305389 -0.05754224 -0.05205155 -0.064077325 -0.062529385 -0.058416653 -0.06391938
-0.06667436 -0.0652063 0.054052725 0.026413755 0.012672932 0.0424185 0.027422074 0.020556863
0.023625085 0.028135715 0.026191747 0.03922058 0.015555307 0.00519009 0.029555298 0.019690553
0.015057696 0.015111249 0.022200529 0.02170083 0.017572008 -0.003778866 -0.009789736 0.011001958
0.0042749406 0.00052333437 0.0025742194 0.0112036625 0.007900071 0.05169153 0.025974475 0.0060897125
0.04141054 0.021143699 0.010550489 0.047533885 0.037341006 0.02973003 0.042786736 0.022287661
0.010701099 0.030166578 0.012068468 0.009140124 0.031349573 0.021994472 0.019905573 0.035823926
0.017155336 0.005532416 0.02776743 0.010751171 0.008653484 0.03494879 0.025230452 0.022775846
-0.08335184 -0.0748958 -0.07234617 -0.08500192 -0.081254944 -0.076212 -0.09239577 -0.09130952
-0.07968841 -0.053808384 -0.050204244 -0.05168648 -0.051887132 -0.05384602 -0.052151643 -0.054540064
-0.057571925 -0.050278522 -0.03227541 -0.025675714 -0.024845319 -0.031276945 -0.02896893 -0.02304373
-0.03532909 -0.031745423 -0.020057846 -0.016475838 -0.04015117 -0.057286136 -0.032463856 -0.048882663
-0.056617305 -0.032957073 -0.046061415 -0.054704156 -0.011088468 -0.024474105 -0.032190926 -0.02403531
00000000: 66de d6b9 7cfa 053c 7bdc 8d3c 853e acbb
00000010: 6a15 893b a11e 5e3c 9cb4 3abb a77b 163c
00000020: 128f ad3c 555d 883c d9df c93c 7a82 fc3c
00000030: b76b 553c 4a35 a83c b6f8 f43c 8c2e 843c
00000040: 4916 cb3c f38f 103d d46b 843c b715 b63c
00000050: 1640 da3c ef73 853c 8dbb ab3c 9d51 ea3c
00000060: 9153 a03c 2796 d03c d4e6 0f3d 9005 013b
00000070: 8b6b 2cba 0be8 29bb 99ce e6b9 9fc3 063b
00000080: a8a0 953a 99b6 5fbb b5af 0bbc 4a19 80bc
00000090: 8194 1dbb 97a5 77bb 7170 82bb 9258 84bb
000000a0: 38b5 c3ba 9759 39ba ca7d a6bb 0392 2bbc
000000b0: 024e 76bc 70fa cc3a 51bd 8939 a58b d03a
000000c0: f231 29bb 429c 113a 605c a43b 8b29 7dbb
000000d0: 2251 03bc dfef 1dbc f620 5bbd df7d 2fbd
000000e0: 4c96 13bd d153 44bd c225 1bbd c4d1 0ebd
000000f0: fc23 2dbd 254f f5bc c0d4 0dbd 0c86 4fbd
00000100: 0802 30bd 8d37 12bd 4e8e 34bd 8c26 13bd
00000110: 5ea8 09bd 731f 0cbd 4ce9 c0bc 1bb2 f5bc
00000120: b36c 1cbd a91c 05bd 2624 cabc f122 11bd
00000130: a81e eebc fb0e d0bc f84a e1bc c875 98bc
00000140: 825e c5bc ed39 db3d d858 ba3d b5be cf3d
00000150: b4de cc3d eb77 b13d 490e c83d 289c b43d
00000160: 3955 973d 8bf5 a43d 01eb ad3d cde3 933d
00000170: ee72 ac3d c034 a33d bb28 8e3d 1a81 a13d
00000180: 294c 883d de8b 653d 8f51 743d 1e74 973d
00000190: 8829 793d c086 923d 466d 843d 7064 5e3d
000001a0: 46fe 823d 1c8d 443d e4e2 113d c187 213d
000001b0: fde7 c8bc a9f7 d3bc f5f3 d8bc 9f89 c2bc
000001c0: 666d c9bc 2d23 cfbc 4c57 c9bc 680e d5bc
000001d0: 016c cabc dacd 9fbc 244b b4bc f8de afbc
000001e0: a873 9bbc 7bf7 a6bc b9b7 a3bc 9c49 9abc
000001f0: 2f9b a6bc 5318 9bbc b409 4fbc b01c 64bc
00000200: c26d 3ebc a355 39bc 092e 3cbc eff0 13bc
00000210: 4969 24bc 40db 43bc 388f 0cbc bead 8fbd
00000220: cded 81bd 36bf 7fbd 4fdf 8dbd 1b2a 90bd
00000230: fb55 92bd e17a 8ebd 6f29 9ebd b94c a5bd
00000240: 60a9 98bd f5bb 89bd c125 81bd f90b 90bd
00000250: 1a7c 8dbd 1024 87bd beeb 89bd d055 92bd
00000260: 8e4a 96bd 6622 81bd 69b1 6bbd 0234 55bd
00000270: f93a 83bd 680f 80bd 4d46 6fbd 2ae8 82bd
00000280: 918c 88bd e18a 85bd 6466 5d3d a961 d83c
00000290: 21a2 4f3c 05bf 2d3d 42a4 e03c de66 a83c
000002a0: 6589 c13c df7c e63c 1390 d63c c2a5 203d
000002b0: b0db 7e3c a111 aa3b f41d f23c 154e a13c
000002c0: 8eb4 763c 2c95 773c e2dd b53c f0c5 b13c
000002d0: 2cf3 8f3c daa6 77bb 2165 20bc 8e41 343c
000002e0: cd14 8c3b 6030 093a 3cb4 283b 918f 373c
000002f0: 4d6f 013c 7fba 533d 6cc8 d43c 368c c73b
00000300: 199e 293d 8d35 ad3c f5db 2c3c e4b2 423d
00000310: e2f2 183d 648c f33c 2541 2f3d 9d94 b63c
00000320: aa53 2f3c e61f f73c d3ba 453c 75c0 153c
00000330: 6968 003d c02d b43c 0311 a33c 1cbc 123d
00000340: 5989 8c3c 4549 b53b 8578 e33c ae25 303c
00000350: 58c7 0d3c 7626 0f3d 18b0 ce3c 6994 ba3c
00000360: 5fb4 aabd f862 99bd 3b2a 94bd 7d15 aebd
00000370: fe68 a6bd 0915 9cbd fe39 bdbd 7c00 bbbd
00000380: ad33 a3bd 2e66 5cbd f7a2 4dbd 34b5 53bd
00000390: 9a87 54bd a58d 5cbd f69c 55bd 6765 5fbd
000003a0: 8ad0 6bbd daf0 4dbd 3833 04bd e055 d2bc
000003b0: 6988 cbbc 411c 00bd 4050 edbc 34c6 bcbc
000003c0: 3cb5 10bd 7d07 02bd 5a50 a4bc 56f8 86bc
000003d0: 8e75 24bd dea4 6abd d2f8 04bd 3039 48bd
000003e0: 8ce7 67bd fffd 06bd e5aa 3cbd 7711 60bd
000003f0: 68ac 35bc eb7d c8bc a2da 03bd b3e5 c4bc

exp_avg_sq f4 [10, 3, 3, 3]
0.037914388 0.040254213 0.03900495 0.042004593 0.04517166 0.042067345 0.03777456 0.036637772
0.0342562 0.023711912 0.025305718 0.024347292 0.027144982 0.029250724 0.026710572 0.023903934
0.02257713 0.020648608 0.020215152 0.021744765 0.021148985 0.023330368 0.025335586 0.023410838
0.020507388 0.019473864 0.017992036 0.016478823 0.016404374 0.015967 0.016385686 0.01716823
0.01693808 0.016167104 0.016237937 0.015493826 0.013984809 0.01381401 0.013242798 0.01389266
0.014467548 0.014052905 0.013345031 0.01330462 0.012497481 0.0131504405 0.012930163 0.0122274365
0.01299648 0.013389527 0.012881295 0.012386563 0.012203255 0.011315366 0.02131099 0.020889968
0.019119106 0.019226842 0.016462952 0.015686722 0.017323554 0.013882865 0.014522346 0.017153004
0.016586432 0.01495872 0.01517063 0.0125153 0.011807602 0.013576465 0.01036118 0.0109098125
0.016039332 0.015592924 0.014147806 0.014181686 0.0117912935 0.011189796 0.0126281995 0.009722091
0.0103095565 0.11998233 0.10847595 0.12674506 0.09422797 0.08402894 0.10307345 0.07002589
0.059326563 0.071459025 0.08959031 0.08150584 0.09823842 0.06826933 0.061713323 0.07930185
0.049223356 0.041630093 0.052754764 0.07623977 0.06977291 0.08542571 0.05777794 0.053054236
0.0695759 0.04207707 0.036463916 0.04695824 0.025380509 0.029928004 0.029265016 0.026053455
0.03090131 0.031286903 0.022223115 0.025274422 0.02719021 0.026603604 0.031326 0.030034933
0.028026536 0.033254683 0.03288422 0.023724435 0.027177453 0.028554013 0.026249807 0.030991413
0.029568443 0.027886411 0.033270802 0.032955993 0.023700994 0.027306344 0.028781474 0.04967989
0.0423335 0.03587656 0.056637 0.052672833 0.045149677 0.057105776 0.05855841 0.05440626
0.031421363 0.025499426 0.020764384 0.03590421 0.03258481 0.02695636 0.03591627 0.03683949
0.033674374 0.027313046 0.021983594 0.017685734 0.03106926 0.028059835 0.02299879 0.030896142
0.031586412 0.028852858 0.08422708 0.07678071 0.08491818 0.08123918 0.08452061 0.08850941
0.07313317 0.09346837 0.09465432 0.060773287 0.055518914 0.063497014 0.057983853 0.06192519
0.06654502 0.05192905 0.0704115 0.07274113 0.05142167 0.046587285 0.05437211 0.049130656
0.05206243 0.056852445 0.044056274 0.060393333 0.063130185 0.108945526 0.09860913 0.07418225
0.097360246 0.087271616 0.07369955 0.08481169 0.08136971 0.07887091 0.07222928 0.06343904
0.04459529 0.06045319 0.052660577 0.04357882 0.05154236 0.048840735 0.048389494 0.06241725
0.05472341 0.037779555 0.052367516 0.045746986 0.03783944 0.044900846 0.042766064 0.04301769
0.1079415 0.10402285 0.10804909 0.12881076 0.12578687 0.12351043 0.14618492 0.14495453
0.13569309 0.06673368 0.064085394 0.06852153 0.08166535 0.07950349 0.07946419 0.09466897
0.093752936 0.08801598 0.05605233 0.05420854 0.058694564 0.0692218 0.06786729 0.06837679
0.08109459 0.08083251 0.076099165 0.019302491 0.021920195 0.023594148 0.01885737 0.021416903
0.022422913 0.019766696 0.019089721 0.018950494 0.013873681 0.015766563 0.01721842 0.0136475405
00000000: 1e4c 1b3d 9ae1 243d a8c3 1f3d 020d 2c3d
00000010: eb05 393d cf4e 2c3d 7fb9 1a3d 7d11 163d
00000020: 3b50 0c3d 7c3f c23c f04d cf3c f973 c73c
00000030: 275f de3c 379f ef3c 21d0 da3c 2fd2 c33c
00000040: acf3 b83c 4527 a93c 3f9a a53c 1422 b23c
00000050: a340 ad3c 541f bf3c 938c cf3c 16c8 bf3c
00000060: 1cff a73c a787 9f3c 0964 933c 99fe 863c
00000070: 7762 863c 3acd 823c 463b 863c 63a4 8c3c
00000080: bac1 8a3c e070 843c 6c05 853c d1d9 7d3c
00000090: 8a20 653c 2854 623c 52f8 583c 0a9e 633c
000000a0: 4b09 6d3c 283e 663c 1ea5 5a3c 9ffb 593c
000000b0: 3cc2 4c3c f274 573c 09d9 533c 9655 483c
000000c0: 30ef 543c bf5f 5b3c 110c 533c 03f1 4a3c
000000d0: 29f0 473c 1664 393c 6394 ae3c 7021 ab3c
000000e0: ac9f 9c3c 9c81 9d3c 50dd 863c 7181 803c
000000f0: 20ea 8d3c f574 633c 22ef 6d3c 7584 8c3c
00000100: 45e0 873c 6b15 753c 3c8e 783c f90c 4d3c
00000110: ac74 413c d26f 5e3c f0c1 293c 12bf 323c
00000120: eb64 833c 7779 7f3c 33cc 673c 4d5a 683c
00000130: 4530 413c 6855 373c 82e6 4e3c 6849 1f3c
00000140: 6ae9 283c 4cb9 f53d a428 de3d 75c9 013e
00000150: 98fa c03d 5d17 ac3d 2c18 d33d bc69 8f3d
00000160: 6900 733d 1c59 923d 207b b73d 89ec a63d
00000170: 3a31 c93d cad0 8b3d 1cc7 7c3d 0269 a23d
00000180: 6e9e 493d 5184 2a3d 6115 583d 9923 9c3d
00000190: 19e5 8e3d adf3 ae3d 90a8 6c3d 664f 593d
000001a0: cf7d 8e3d 0159 2c3d 305b 153d 4957 403d
000001b0: c9ea cf3c 932b f53c 30bd ef3c 0e6e d53c
000001c0: be24 fd3c b226 003d 400d b63c 4e0c cf3c
000001d0: 01be de3c cdef d93c b14f 003d d20b f63c
000001e0: e897 e53c 1036 083d 9bb1 063d bf59 c23c
000001f0: 40a3 de3c 1bea e93c d609 d73c b4e1 fd3c
00000200: 8539 f23c 0b72 e43c f746 083d ddfc 063d
00000210: 9628 c23c 8eb1 df3c 20c7 eb3c 247d 4b3d
00000220: e465 2d3d 4df3 123d 33fc 673d 78bf 573d
00000230: deee 383d bfe7 693d f1da 6f3d 19d9 5e3d
00000240: b0b3 003d 2ce4 d03c 121a aa3c 4b10 133d
00000250: a677 053d 96d3 dc3c f01c 133d 01e5 163d
00000260: 24ee 093d 9cbf df3c f016 b43c ace1 903c
00000270: f684 fe3c bddd e53c f567 bc3c e819 fd3c
00000280: c160 013d d45c ec3c 3f7f ac3d 343f 9d3d
00000290: 95e9 ad3d ba60 a63d 2419 ad3d 6c44 b53d
000002a0: d8c6 953d 586c bf3d 20da c13d 69ed 783d
000002b0: cd67 633d b90a 823d 7a80 6d3d 45a5 7d3d
000002c0: c148 883d 8eb3 543d e833 903d 4df9 943d
000002d0: 879f 523d 4fd2 3e3d 4ab5 5e3d 3a3d 493d
000002e0: 6a3f 553d 1cde 683d 5a74 343d 005f 773d
000002f0: 664a 813d d51e df3d 95f3 c93d ddec 973d
00000300: cf64 c73d 76bb b23d caef 963d c0b1 ad3d
00000310: 2aa5 a63d 1287 a13d f2ec 933d 54ec 813d
00000320: 8da9 363d c49d 773d 9eb2 573d b47f 323d
00000330: 151e 533d 390d 483d 1034 463d 3ba9 7f3d
00000340: a825 603d bcbe 1a3d 527f 563d 3161 3b3d
00000350: 87fd 1a3d f3e9 373d 782b 2f3d 5133 303d
00000360: 6f10 dd3d ef09 d53d d748 dd3d f8e6 033e
00000370: 46ce 003e 09f3 fc3d 80b1 153e f66e 143e
00000380: 21f3 0a3e abab 883d 343f 833d 0455 8c3d
00000390: 2a40 a73d bad2 a23d 1fbe a23d cee1 c13d
000003a0: 8a01 c03d b941 b43d 2197 653d c609 5e3d
000003b0: b669 703d 29c4 8d3d 01fe 8a3d 2109 8c3d
000003c0: ec14 a63d 848b a53d e1d9 9b3d 4220 9e3c
000003d0: fb91 b33c 8448 c13c c57a 9a3c 8072 af3c
000003e0: 42b0 b73c c4ed a13c 0c62 9c3c 113e 9b3c
000003f0: 704e 633c e128 813c a50d 8d3c ef99 5f3c

exp_avg f4 [10]
0.014555273 -0.013369819 0.03504606 0.14128435 -0.0032700144 -0.16004068 -0.051379967 0.066806145
-0.0028120568 0.007920756
00000000: 3d79 6e3c 160d 5bbc 758c 0f3d d8ac 103e
00000010: bd4d 56bb b4e1 23be cd73 52bd a9d1 883d
00000020: 7c4a 38bb 0fc6 013c

exp_avg_sq f4 [10]
0.1671173 0.06397549 0.11879734 0.587675 0.07372478 0.19067347 0.4349217 0.34910208
0.798483 0.09797032
00000000: cc20 2b3e 9505 833d 054c f33d de71 163f
00000010: 04fd 963d e83f 433e 0fae de3e 82bd b23e
00000020: 6269 4c3f aaa4 c83d
