Pytorch face detection - Test/MTCNN_train_process/1/checkpoint_200.pth (torch, 46563 bytes, 12 tensors)

conv1.weight f4 [10, 3, 3, 3]
000000 f7 3f 08 bd 69 bf 98 bd 60 98 9c 3d 3b 11 41 3e
       -0.033264127 -0.074583836 0.07646251 0.18854229
000010 7e ee 2f bd 1f 1a 22 3e 4c f6 42 bd 06 b7 81 3d
       -0.042952053 0.15830277 -0.04759817 0.06333737
000020 fa d5 85 bd f1 9f 7d bd 4c 4c 40 bd 6d fe fa 3c
       -0.065349534 -0.06192011 -0.046947762 0.030638898
000030 e6 c6 1a be 74 ba 81 3d 78 f7 4d 3e 28 82 0d bd
       -0.15114936 0.06334391 0.20113933 -0.034547955
000040 22 5e 10 3e 68 bd 40 3e 8f b3 21 be 88 c1 90 3d
       0.14098409 0.18822253 -0.15791152 0.07068163
000050 75 ea f8 3d e2 fe e0 3d a7 14 b4 bd 0c 8d 12 3e
       0.12154094 0.10986115 -0.087930016 0.14311618
000060 3e 54 0a bd 84 51 d7 bd e4 00 9e bd 8a 76 63 bc
       -0.033771746 -0.10513595 -0.077150136 -0.013883242
000070 e8 65 79 bd 22 2e 23 3e 5f 33 9b 3d 43 6d 2f be
       -0.0608882 0.15935567 0.07578158 -0.17131524
000080 25 01 23 be 4e b2 c6 3d f8 ba e1 bd f4 aa 0e 3e
       -0.15918405 0.09701978 -0.110219896 0.13932401
000090 9f 77 fe bc cc c7 e0 3d 59 40 ab 3d 21 22 85 bd
       -0.0310629 0.10975608 0.08361883 -0.0650065
0000a0 a4 d5 04 3d fb 8b 01 3e 78 8e 28 3e fc 3e 33 be
       0.032430306 0.12651055 0.16460598 -0.17504495
0000b0 cf 79 1d bd 4b 02 fd bd 4a 3c 90 3d 93 ee 97 bd
       -0.038446244 -0.12353953 0.07042749 -0.07418551
0000c0 b0 82 39 bd b1 2a 3a be 29 0b 28 be 40 49 de bc
       -0.04529065 -0.18180348 -0.16410507 -0.027134538
0000d0 a6 6f f7 3d f9 17 9e bc ec e3 cf bd 72 1a 14 3e
       0.12081842 -0.01929854 -0.101508945 0.14463213
0000e0 d5 32 17 be 34 c8 29 3c aa 02 2f 3b 8b 00 33 be
       -0.14765485 0.010362674 0.0026704469 -0.17480676
0000f0 52 97 02 be 91 33 46 3e f5 a9 8b bd f4 9c ba bd
       -0.12753037 0.19355609 -0.06819526 -0.09111968
000100 9a 9c 44 be a2 52 06 3e d4 d6 d4 bd 00 42 47 3d
       -0.19200364 0.1311746 -0.10392538 0.048646927
000110 eb 4e 3f be 6d d9 1e be fc ae 51 bd 51 bc 29 3e
       -0.18682449 -0.15512629 -0.05119227 0.16575743
000120 b9 61 b9 3d 0a bf c5 3c 6a a4 c0 3d e0 74 b2 3c
       0.09051842 0.024138946 0.094063595 0.021784246
000130 ea c0 75 bd c7 a5 3a 3e 67 4b 37 be 13 82 32 3e
       -0.05999843 0.18227302 -0.17899857 0.17432432
000140 17 2a 53 3d ec 4e 10 3e a5 00 2d bd a3 46 41 be
       0.051553812 0.14092606 -0.042236943 -0.18874602
000150 c3 a7 a0 bd fc a5 81 3d 1e d6 3d 3d ba ce c5 bd
       -0.07844498 0.06330487 0.046346776 -0.096585706
000160 b3 37 32 be 12 2e 37 3d af 57 1d 3e e0 8f 2d 3e
       -0.1740406 0.04472167 0.1536548 0.16949415
000170 ad 7a 2f bd af db d0 3c 81 e0 29 3e f5 55 d0 bd
       -0.042841602 0.025495378 0.16589548 -0.10172645
000180 72 0e 58 bd e0 cc ed bd 84 83 5b 3d 66 b8 61 3e
       -0.05274815 -0.116113424 0.05359222 0.22042999
000190 59 b8 d5 3d 4a bf 7c 3d 04 7e 0c 3d ac c2 a0 38
       0.10435552 0.061705865 0.034299865 7.665655e-05
0001a0 3d 09 5c 3e 1e 13 30 3e 5e 68 3a 3d b4 29 2b 3d
       0.21487899 0.17194793 0.04550969 0.041787818
0001b0 f0 93 85 3c d1 cb 30 be d4 44 83 bc 7a e4 e7 bd
       0.016305894 -0.1726525 -0.01602403 -0.11322875
0001c0 3c a3 b6 bd 6e c0 c3 bd f3 d8 01 3e c5 b7 8f bc
       -0.08917853 -0.095581874 0.12680416 -0.017543683
0001d0 36 f7 28 3e 5f 73 a5 bd 4d 59 36 3e 87 13 07 be
       0.16500553 -0.08078646 0.17807503 -0.13191043
0001e0 a0 59 18 be 56 6a a5 bc 84 8d 4b 3d 61 71 f6 bd
       -0.14877939 -0.020192306 0.049695507 -0.12033344
0001f0 7b 0a 1c 3e c4 55 0c be ba 08 1d 3e f5 4b 05 bd
       0.15238373 -0.13704592 0.1533536 -0.03254314
000200 4a ae 10 be 1c 9d da bc 34 5d e2 bd 0c e9 f7 bc
       -0.14128986 -0.026686244 -0.11052933 -0.030262493
000210 1e 38 d1 bd 18 40 17 3e 72 29 a4 3d 36 45 34 3d
       -0.10215782 0.14770544 0.080157176 0.044011317
000220 c2 f2 61 bc b2 8f 94 3d 03 65 88 3d 26 12 08 3e
       -0.013790788 0.0725397 0.066598915 0.13288173
000230 2d 18 2c be 6b 20 b4 bd 3f 73 02 be e1 7a d4 bd
       -0.16806097 -0.08795246 -0.12739275 -0.10375
000240 d1 76 03 bd 72 c8 f2 bd e5 17 45 3d 40 1f 23 3d
       -0.032095734 -0.11854638 0.04811849 0.039824724
000250 5a 08 11 3e ac fa 42 be e1 38 d3 bc a6 0d 30 3e
       0.14163342 -0.19040936 -0.025783958 0.17192706
000260 21 12 aa bd 25 8c 1c bd ff b7 03 be ce fb 13 3e
       -0.08304239 -0.03821959 -0.12863158 0.14451525
000270 f2 ba c5 3d 6c e2 3e be fa ad 72 3d d4 35 19 bd
       0.096547976 -0.1864106 0.05924795 -0.03740485
000280 2e 25 40 3c b5 d9 89 3d 05 81 e0 3d bd e6 51 3e
       0.011727614 0.067309774 0.109621085 0.20498176
000290 a8 23 14 3e a2 54 2f bc 08 5c a8 3d 23 6c bc bc
       0.14466727 -0.01070133 0.082206786 -0.023000782
0002a0 93 aa fb bd 24 4e 6d 3d 08 86 16 be 88 48 0b 3e
       -0.12288394 0.05793585 -0.14699566 0.13601887
0002b0 29 d7 94 3d ac 5a 09 be bb ee 31 3e a2 b0 1a 3e
       0.07267601 -0.13413495 0.17376225 0.15106443
0002c0 a8 8d 3a be 14 50 80 bd b4 0d bc 3d f3 16 18 ba
       -0.182181 -0.06265274 0.09182301 -0.00058017595
0002d0 10 d8 95 3d 48 30 82 bd 56 6a 67 bd 58 e6 d4 bd
       0.07316601 -0.06356865 -0.056497894 -0.10395497
0002e0 b6 73 0a be 0e c2 b5 bd 17 45 ef bd f1 f0 a2 3d
       -0.13520703 -0.088749036 -0.116831 0.07956112
0002f0 25 69 05 bd e3 a9 75 bc 9d cb 37 be 0d b5 a6 3d
       -0.032570977 -0.014994117 -0.17948766 0.081400014
000300 c8 3d 84 3d 26 9c 42 be 3d 36 3d be dc 51 8a bd
       0.06457096 -0.19004878 -0.18477722 -0.06753895
000310 2e 84 34 bd 8e 96 35 bd 11 54 07 bd d1 0a 23 be
       -0.04407137 -0.044333033 -0.033039156 -0.15922095
000320 56 12 19 be ce 63 3c be 26 7f e2 bb 4d d8 64 bc
       -0.14948401 -0.18397447 -0.00691213 -0.013967586
000330 38 4a db 3d 8d 24 30 bd 5f b1 5f bd 1f 46 d5 bd
       0.107075155 -0.043003608 -0.054612514 -0.10413765
000340 de 8f 34 be 27 0b 14 be 1a f7 8f 3d 28 22 31 be
       -0.17633006 -0.1445738 0.07029553 -0.17298186
000350 f2 5e 07 3e 10 6d 9f 3d 2f 20 13 3e 8c 84 83 bd
       0.13219813 0.07784474 0.14367746 -0.06421766
000360 12 e2 23 bd fe 94 08 be 21 90 30 be c9 fb 91 bc
       -0.04001052 -0.13338086 -0.17242481 -0.017820256
000370 f5 37 32 be 9d ba cd bc f6 00 fa bd 35 6b ba bd
       -0.17404158 -0.025113398 -0.122072145 -0.09102479
000380 ce d8 d8 3b a2 98 0e bd f6 07 25 be 65 be a1 bd
       0.006617642 -0.03481353 -0.16116318 -0.07897643
000390 67 92 32 bc 4c 1c 01 be 70 09 a2 3d ad c2 59 bc
       -0.010899163 -0.1260845 0.07911956 -0.013291043
0003a0 97 87 bd bd 47 0b f2 bd 5d 17 06 be f5 7c 94 3a
       -0.09254377 -0.11818557 -0.1309485 0.0011328744
0003b0 18 34 f1 3c 17 eb 98 3d 0b 1f 34 bd de b1 ab 3c
       0.029443786 0.07466715 -0.043974917 0.020958837
0003c0 f1 af 28 3e 03 a0 a1 3d 8c 77 13 be 18 4b df bd
       0.16473366 0.07891848 -0.14401072 -0.10902995
0003d0 36 fa 16 be 21 37 df 3d e0 49 e3 bc ce a1 11 be
       -0.14743885 0.10899187 -0.027745187 -0.1422188
0003e0 4f e7 39 3e c8 43 ee bd ab fe 0c be 7a b0 4c 3d
       0.18154643 -0.11634022 -0.13769023 0.04997299
0003f0 f3 d9 99 3d 07 fe ac bd 58 3b db bd 4f b7 2e bd
       0.07512274 -0.08446889 -0.10704678 -0.042655285

conv1.bias f4 [10]
000000 7f 7f fa 3d aa 27 a1 bc bf c1 59 bb a4 c4 88 bd
       0.12231349 -0.019672234 -0.0033227054 -0.06678131
000010 4b 99 d8 bd c4 1c 02 be f6 23 b3 3b af 4c 0f 3e
       -0.10576113 -0.12706286 0.0054669334 0.13994096
000020 ea 73 1d be aa 62 3c bd
       -0.15376249 -0.04599253

conv2.weight f4 [16, 10, 3, 3]
000000 6c 05 c7 bc 38 49 ba 3d 20 3d c6 bc c0 0c 23 3c
       -0.024294578 0.090959966 -0.024199069 0.00995177
000010 59 3b eb 3d 97 47 c6 3d 04 73 0b 3e 64 3f a9 3b
       0.11485929 0.096816234 0.13618094 0.0051650275
000020 84 34 08 3e a2 0b 8a bd 54 8b 55 3d 69 63 9c 3c
       0.13301283 -0.067405 0.052134827 0.019090371
000030 f8 c1 6c 3d 12 eb 2f 3d d6 fb bf bd 07 89 70 bd
       0.05780217 0.04294879 -0.09374206 -0.05872443
000040 b0 9e 48 3c 2c 9c 80 bc 72 cb 92 3d 41 eb 8d 3d
       0.012244865 -0.015699469 0.0716771 0.06929637
000050 0e 2d a5 3d 08 78 a1 3c 5d 75 77 3d 91 6a d7 3c
       0.08065234 0.019710556 0.06041466 0.026295932
000060 70 21 44 bc a3 f0 9e bd d3 c3 cc 3d 13 09 04 bd
       -0.011970863 -0.077607416 0.09998288 -0.032235216
000070 c6 eb b7 3d e9 0b 77 bd 98 04 b3 3c 2f 6d 64 3c
       0.08980517 -0.060314093 0.021852776 0.013942047
000080 20 8b dc 3c 93 75 4e 3d 87 1c 58 bd 13 08 74 bd
       0.026921809 0.050405096 -0.05276158 -0.059578013
000090 d1 e6 9f 3d 12 ea 9f bd 3f ae af bd 78 58 00 3d
       0.078076966 -0.07808317 -0.08578157 0.03133437
0000a0 13 23 bb 3d 9e 6f 66 3c aa 79 d7 bd 0b 20 14 3d
       0.09137549 0.014064698 -0.105212525 0.03616337
0000b0 48 04 c8 bd 42 ff ba bd 48 5e 7a bd 1e 9a b8 bd
       -0.097664416 -0.09130718 -0.06112507 -0.090137705
0000c0 c6 3d 56 bc 6f 39 a8 3d 10 b0 bb bc eb 11 92 3d
       -0.013076251 0.082140796 -0.022911102 0.07132324
0000d0 e3 d2 0e 3d bd 60 8c bd a4 01 e1 3d e2 ce bc 3c
       0.034869086 -0.06854389 0.10986641 0.023047868
0000e0 19 d2 ca 3c ce e0 62 3a d3 2d 4f 3d 69 0d b2 bd
       0.024758385 0.00086547143 0.05058081 -0.08693964
0000f0 0a f9 35 3c 4f 4d 5f bd b6 54 af bd d2 d0 ac 3d
       0.011106739 -0.054517087 -0.08561079 0.08438267
000100 29 e7 22 3d 5d eb 05 bc f2 93 22 bd ad 87 a3 3d
       0.039771233 -0.008173791 -0.039691873 0.079848625
000110 ae b7 a0 bd c2 c3 b1 bd 89 72 83 bd 29 1c a3 bc
       -0.07847534 -0.08679916 -0.0641833 -0.019910889
000120 80 e2 c8 3d a9 22 a6 bc 04 75 a6 bd c6 2d b8 3c
       0.098088264 -0.0202802 -0.08127788 0.022482764
000130 d7 05 2c bd 41 de a6 bd cc b8 b3 bd b0 41 c8 bb
       -0.041997757 -0.0814786 -0.087754816 -0.006111346
000140 d9 55 61 bd 33 8d 34 bd bc 26 02 bd 5d ac b3 3d
       -0.05501351 -0.04407997 -0.03177522 0.0877311
000150 6c 11 c8 bd ca 75 ab bd a9 51 e4 bc ec 5d c4 3d
       -0.09768948 -0.08372076 -0.02787097 0.09588227
000160 75 e9 1c bd 44 af c4 bd be d2 2f 3b 77 b5 69 bd
       -0.03830858 -0.09603742 0.0026828493 -0.057057824
000170 f4 16 04 bc 56 fd 42 bd ed 82 0e 3d 84 29 94 3b
       -0.008062113 -0.04760488 0.03479283 0.0045215506
000180 b9 95 75 3d 58 f3 bf 3d 94 81 c1 3c 3f ab 70 3d
       0.05995724 0.09372586 0.023621358 0.058757063
000190 08 8d 93 bd 0e a3 b5 3d 7b cc a2 3c ab 64 b6 3c
       -0.07204634 0.08868991 0.019872895 0.0222648
0001a0 cb 71 e2 3c 4b 6d 19 bd e7 59 72 bd 62 a7 30 bc
       0.027642151 -0.037457746 -0.05916777 -0.010782095
0001b0 c9 01 f5 bc 1b 3a 90 3d 6e 88 c7 3d 8f 18 2b 3d
       -0.029908078 0.07042333 0.09742819 0.041771468
0001c0 67 5a b4 3c dc 6e ee bc e6 60 63 bd ba be 17 3d
       0.022015763 -0.029105596 -0.05551233 0.037047125
0001d0 74 91 af bd 35 26 27 bc eb 68 c8 3c 40 05 00 bd
       -0.08572665 -0.01020198 0.024464091 -0.031255007
0001e0 71 36 4c 3d 04 38 ec 3d e5 87 69 3d 58 fd e8 bc
       0.049856607 0.11534122 0.057014365 -0.028441116
0001f0 3e e1 76 3d 96 f7 f7 3b b2 74 a2 ba 33 49 3b 3d
       0.0602734 0.0075673563 -0.0012394397 0.045724105
000200 f1 a5 6c 3d f1 7f a1 bd 37 a5 ad bd 5d 07 86 3d
       0.05777544 -0.07885731 -0.08478778 0.06544373
000210 8a 1d 0e 3c c4 16 8f 3d 6d c5 0f bd c5 90 b9 3b
       0.008674035 0.06986764 -0.03510039 0.00566301
000220 b3 62 81 3d 2a 49 cd 3d 35 cb fd bc 74 d8 83 3c
       0.063176535 0.100237206 -0.030980686 0.016094424
000230 f8 34 9f bd 43 2a c2 3c ab 88 52 bb 23 83 8f bc
       -0.07773775 0.023701793 -0.0032124917 -0.017518586
000240 b5 3a 61 3c a0 11 93 3c 8a c3 aa 3c b4 6b 56 bd
       0.013746907 0.01795274 0.020845193 -0.052348807
000250 a9 85 83 bd 67 d1 b3 bd 61 59 59 3c 09 10 43 bc
       -0.06421978 -0.08780175 0.0132659385 -0.011905679
000260 48 58 6c bd 1c 51 3e 3d 2c 8f 36 bd c6 ea 7f 3d
       -0.05770138 0.04646407 -0.044570133 0.062479757
000270 2a 24 98 bd 6c b4 5c 3d 27 ec 8b 3c 10 14 8c bd
       -0.07428773 0.053883 0.01708038 -0.06839764
000280 e2 41 5f bd d8 ec 8c 3d d9 ce 1d 3d 29 35 77 3d
       -0.05450619 0.06881112 0.038527343 0.06035343
000290 86 a4 d2 3d 2b 8c 31 bd 80 fa 80 3c 9e a6 a4 bd
       0.102852866 -0.043346565 0.015744448 -0.08039592
0002a0 5e 83 93 bc 64 7c 93 3d e3 ea a0 3c b9 ef 0e bd
       -0.018006977 0.0720146 0.019643253 -0.034896586
0002b0 fb b4 aa bd 97 2a c7 bc cd 41 58 bd ae 78 b6 bc
       -0.083353005 -0.0243123 -0.052797128 -0.022274341
0002c0 3e a2 37 3d 76 c4 79 bd d4 8a ba 3d 87 d3 6a bd
       0.04483246 -0.060978375 0.091085106 -0.057330634
0002d0 7e 3e 24 3d 39 99 d3 bd 49 92 b9 3c d0 c0 6f bd
       0.04009866 -0.10331959 0.022652762 -0.05853349
0002e0 84 81 44 bd 67 e5 9f bd 13 a9 6e bd 8e aa 78 3d
       -0.04797508 -0.07807427 -0.05826671 0.06070953
0002f0 65 c5 c6 ba 72 c6 03 3d d4 9e c5 bd 63 69 94 bd
       -0.0015165029 0.032171674 -0.09649435 -0.072466634
000300 6a 94 ac 3d 87 1b f6 3c ed 79 40 3d 4b 30 5d bd
       0.08426745 0.030042423 0.046991277 -0.054001134
000310 f1 20 a8 bd 9a 88 ff bc 12 3e 78 39 74 d1 8e bc
       -0.08209408 -0.031193066 0.00023674246 -0.01743386
000320 c4 e4 43 bd bb 0b d6 3c 7a 17 25 3c ba 3e 36 bd
       -0.04782559 0.02612864 0.010076398 -0.044493414
000330 4a d5 b2 3d ca cc 08 bc 5c c9 05 3d de 57 c0 bc
       0.08732088 -0.008349607 0.032662734 -0.023479398
000340 8b 76 ae bc b4 a3 a8 bb 7f 18 56 3d 02 c5 1b bc
       -0.02129676 -0.005146468 0.052269455 -0.00950742
000350 db aa d6 3d a1 4a 6e 3d b8 56 9b 3d 5e f1 56 3c
       0.10481807 0.05817664 0.075849 0.01311907
000360 88 44 14 3c 82 a8 0a bd ec dc 8c bd b2 b6 08 bd
       0.009049542 -0.033852108 -0.06878075 -0.033377357
000370 34 39 27 bd 12 ef 91 bd 00 3a c1 bd ea 3d c0 bd
       -0.040826038 -0.07125677 -0.09434891 -0.09386809
000380 84 b8 9a 3d 24 c9 3e bd 55 48 9e 3d 22 68 85 bd
       0.07554725 -0.04657854 0.0772864 -0.065140024
000390 be a5 a2 3d 30 50 c7 3d 82 1b 12 bc 1b c8 92 bc
       0.07941769 0.097320914 -0.008917691 -0.017917683
0003a0 d5 26 9d bd 72 0f 69 bd 2c 5c ae bd 55 b5 19 bc
       -0.07673422 -0.056899495 -0.08513674 -0.009381612
0003b0 e4 e4 8b bc e9 94 b1 3d ce 8e bc bd 9d 78 4c bc
       -0.017076917 0.086709805 -0.09206925 -0.012479928
0003c0 dd 89 db 3c ab 3d b0 bc 5b aa c5 3d 66 34 be bc
       0.026799137 -0.02151378 0.09651633 -0.023218345
0003d0 c6 40 c0 bd ef 94 af bd 6b 53 d2 bd d0 ba ca 3d
       -0.093873546 -0.08573329 -0.10269817 0.09898913
0003e0 70 2f 25 3a d1 c7 6f bd 52 a7 84 bd fc f2 04 3d
       0.0006301319 -0.05854017 -0.06477226 0.03245829
0003f0 b5 e6 29 bc 1b b3 90 3c d0 c1 49 3d 38 ef a8 3d
       -0.010369946 0.01766353 0.0492571 0.08248752

conv2.bias f4 [16]
000000 80 23 92 3e 27 9d 00 bd 81 09 86 bd a0 a0 59 bd
       0.2854271 -0.031399872 -0.065447815 -0.0531317
000010 e4 59 23 3d 75 b1 cd bd 81 bb dc 3d f5 21 6b 3e
       0.03988065 -0.10043613 0.10777951 0.22962172
000020 29 34 8c 3c 79 45 06 3c 3d 86 15 3e a0 48 ab 3d
       0.017114716 0.0081952745 0.14601989 0.083634615
000030 4a 48 d1 3d 4f bd f2 bb 34 58 8f bd 3f fb a9 3c
       0.10218866 -0.0074078212 -0.06999245 0.020749686

conv3.weight f4 [32, 16, 3, 3]
000000 12 94 f0 3c d7 ca e7 bb d4 5c 9e 3d 5b 7e 89 bd
       0.02936748 -0.007073741 0.07732549 -0.067135535
000010 d2 77 67 3d 98 21 6a bc 29 bf 73 bd 11 86 2b 3b
       0.056510754 -0.014290236 -0.059508476 0.002617244
000020 12 38 6f bd 39 a8 25 bd 2d a7 60 bd c7 c8 a5 3d
       -0.058403082 -0.040443633 -0.05484693 0.08094936
000030 ec 42 6a 3d 31 59 8a bd 8f 00 cb 3c d9 a4 0b bd
       0.057192728 -0.06755293 0.02478054 -0.034092758
000040 14 17 99 3d 22 c5 e4 bc 06 a5 85 3d d3 63 82 bd
       0.07475105 -0.027926032 0.06525616 -0.06366696
000050 d6 71 d1 bc d7 d4 91 bd 2b a9 75 bc 00 ea 12 bb
       -0.025566977 -0.07120674 -0.014993946 -0.0022417307
000060 c3 a4 4f 3d e0 10 1f 3d 2b d1 45 bb 3b 00 99 3d
       0.05069424 0.038834453 -0.0030184488 0.07470747
000070 f3 c8 59 bc 08 2d a1 bd df 78 94 3d ab c3 89 bd
       -0.013292539 -0.07869917 0.07249617 -0.06726774
000080 56 a0 8e ba 44 3d 6b 3b 8a 51 c6 39 96 29 de 3c
       -0.0010881524 0.0035894671 0.00037826254 0.02711944
000090 ec 5d ab 3c e3 39 3c bd 3e 7b 3f bd 6c 3b 94 3d
       0.020918809 -0.045953643 -0.046748392 0.07237896
0000a0 21 e1 ea 3b 21 09 a5 3d e2 5e 60 bd 64 8b c7 3c
       0.0071679507 0.08058382 -0.054777987 0.024358459
0000b0 61 2a 87 3d eb 18 5c 3c 10 7f ba bc 06 9c 66 3d
       0.0659988 0.013433675 -0.022765666 0.05630114
0000c0 b6 18 85 3c cb 63 9f bd eb 04 8d 3d ce 10 33 bd
       0.016247135 -0.07782706 0.06885704 -0.043717198
0000d0 1c 53 82 bd 4b ab 38 3c f3 42 36 3d be 82 1f 3d
       -0.06363508 0.011271308 0.04449744 0.038943045
0000e0 44 11 07 bb 42 68 97 bd c8 b7 88 3d fb ea 63 bd
       -0.0020609656 -0.073929325 0.066756785 -0.055644017
0000f0 8b c4 36 bd 79 68 df bc 92 4b 1c 3d 06 42 98 bd
       -0.04462103 -0.027271496 0.038158007 -0.07434468
000100 84 25 32 3d 34 1d 67 bd 63 54 4f 3c f8 c7 40 3d
       0.04349281 -0.056424335 0.012654397 0.047065705
000110 4b dc 3f bd f4 0c 1d 3d 6c c7 9a 3b 6e c1 5a 3d
       -0.046840947 0.03834243 0.00472348 0.053407125
000120 88 f5 57 3d 36 ad 44 bc 9e d9 4e bd c5 9c 85 bd
       0.05272439 -0.012004187 -0.050500505 -0.06524042
000130 10 65 c7 3c 72 46 d4 bc f8 a4 7a 3d aa fb 92 bc
       0.024340183 -0.025912497 0.061192483 -0.017942268
000140 fc 64 73 bc c9 a0 45 3d 93 e6 a5 bd 43 56 5c bd
       -0.0148556195 0.04824904 -0.08100619 -0.053793203
000150 b6 70 70 3d 00 72 2b ba 1b 91 cb 3c 41 8c ac bb
       0.05870124 -0.00065401196 0.024849465 -0.005265743
000160 06 90 08 bd 0e 79 a6 bd 04 94 64 bd be 77 9b 3b
       -0.033340476 -0.08128558 -0.05580522 0.004744499
000170 64 ea 89 3d 99 ef e9 3c 24 9a 9d 3d 15 70 30 bd
       0.067341596 0.028556632 0.076954156 -0.04307564
000180 69 72 a9 bd aa 4e a7 bc 8c 74 ce b8 ff c3 9c bc
       -0.08273775 -0.020423252 -9.844554e-05 -0.019136427
000190 bb 1b 1d bd ee 07 6a 3d 95 06 34 3c 45 74 74 bd
       -0.038356524 0.05713647 0.010987897 -0.059681196
0001a0 30 97 83 bb a3 80 be 3c 0e 6a 10 bd 07 59 36 bb
       -0.0040158257 0.023254698 -0.03525739 -0.002782406
0001b0 e5 3a 8e 3d 68 a4 7d bd f0 f9 89 3c cb 3e 4c 3d
       0.06944827 -0.06192437 0.016842812 0.04986457
0001c0 3e 43 4b bd 1e 32 83 bd e8 d2 d9 bc cf ed 92 bc
       -0.049624674 -0.064060435 -0.026589826 -0.017935662
0001d0 46 38 ec bb 63 24 73 bd de f3 02 3d 79 66 7d bd
       -0.0072088568 -0.059360873 0.03197085 -0.061865304
0001e0 46 cb 10 bd 00 28 81 bb 2a 6d 4a bc 14 17 b8 bc
       -0.035350107 -0.003941536 -0.012355128 -0.022471942
0001f0 59 b0 a7 3d 0f d3 13 3d f3 17 90 bd e6 b7 56 bd
       0.081879325 0.036089953 -0.07035818 -0.052421473
000200 a0 d3 18 3d 1b 44 ac 3c 9e e0 0e 3d 7f 6e 9c bd
       0.037311196 0.021028569 0.03488218 -0.07638263
000210 2f b4 87 3d 0b ff 13 3d 16 1c cf bb 32 5e a0 bd
       0.06626164 0.0361319 -0.006320487 -0.07830466
000220 3b 32 4a 3d 6f a6 8f 3d a0 78 be bc 76 61 8f bc
       0.04936431 0.070141666 -0.023250878 -0.017502528
000230 50 08 d9 3c 03 f9 77 bd 4c fc 98 3d b0 72 18 bd
       0.026493222 -0.06054021 0.07469997 -0.03721875
000240 e4 4d 64 3d be 64 db bc 42 60 b3 3d 03 9f c7 bc
       0.055738345 -0.026781436 0.08758594 -0.024367815
000250 b5 a8 35 bd ee d3 c3 3c 32 39 01 3d f5 04 9a 3b
       -0.044350345 0.023904767 0.031548686 0.004700298
000260 89 4d 23 bd df b5 d3 bc 1c 2b 4d bc 10 5f 4a bd
       -0.039868865 -0.025843559 -0.012522485 -0.049407065
000270 90 d7 01 bc 14 81 0d bc 38 32 75 3d 70 a9 d8 bc
       -0.007924929 -0.008636732 0.059862345 -0.026447982
000280 6e f0 3f 3c 28 db 8a 3d 16 20 26 3b 36 7c 81 bd
       0.011715038 0.06780082 0.0025348715 -0.063225195
000290 25 d7 19 bd 22 06 4b bd 15 da 4c 3d a6 eb 6a 3d
       -0.037558693 -0.049566396 0.050012667 0.057353638
0002a0 67 82 d5 3c 57 71 93 3d 82 d8 f7 3c 36 c2 a3 bd
       0.026063157 0.07199352 0.030254606 -0.07996027
0002b0 15 c4 27 3d b4 2d df 3c d2 84 59 bd aa 12 69 bd
       0.040958483 0.027243473 -0.053105183 -0.056902565
0002c0 64 28 5e 3d 2b 92 29 bc b9 a7 64 3d 11 44 76 3c
       0.05423774 -0.010349791 0.055824015 0.015030877
0002d0 27 c6 66 bd f9 c3 a6 3d f8 3e 47 3d f7 b8 5e bd
       -0.056341317 0.081428476 0.048644036 -0.054375615
0002e0 87 11 bc bb 62 96 f2 3c f4 2d 3c bd 07 c4 35 3d
       -0.005739394 0.029612724 -0.04594226 0.0443764
0002f0 2c cf 8f 3c b0 c9 b7 bc 96 9b ce 3b 5e 17 3d 3d
       0.017554842 -0.02243504 0.0063051684 0.046164863
000300 2b 2a 65 3b b6 2f 83 bd f0 c6 a0 3d 40 b5 41 3c
       0.003496776 -0.064055845 0.07850444 0.0118229985
000310 96 f6 cf bb 86 55 45 bd 46 d2 60 bd b7 25 35 bb
       -0.006346534 -0.048177265 -0.054888032 -0.0027640888
000320 f7 f2 71 3c 43 5c 04 3d ba e1 d4 3c 13 c2 03 3d
       0.0147674 0.03231455 0.025986541 0.032167505
000330 cd 3c e8 bc 3c 3e 23 3d 1a f8 19 bd 6c 68 a6 3d
       -0.028349305 0.039854273 -0.037590124 0.08125386
000340 34 ea 11 3d 21 4f 89 3d 4d 0c 81 bd 68 66 bd 3d
       0.035623744 0.06704546 -0.06301174 0.09248048
000350 e2 d5 ba 3d 27 b3 d3 3c f0 80 c8 3c 24 b6 94 3d
       0.09122826 0.025842262 0.024475545 0.07261303
000360 a8 82 cd bb 21 15 8b 3b 98 46 5e 3d 3c ae 46 bd
       -0.006271679 0.004244462 0.054266542 -0.048506007
000370 93 15 cc 3c 77 1a 44 3d 87 cb 4e 3d d7 aa 8b 3d
       0.024912631 0.0478768 0.050487068 0.068196945
000380 5e 2a 1b ba be 74 56 3d 7d cc 51 3d fc b2 50 3c
       -0.0005919094 0.052357428 0.051220406 0.012737986
000390 cc 78 9f 3d a9 06 22 bd 70 c2 22 3d 1d 45 27 3d
       0.07786712 -0.039557133 0.03973621 0.040837396
0003a0 47 7a 05 bd 80 c0 a4 3c 9f 4f 87 3c b2 f5 0b bb
       -0.032587316 0.020111322 0.016517458 -0.0021356163
0003b0 71 e6 c1 3d 17 dd 95 3d 7a 14 07 3d 3d c0 88 3d
       0.09467781 0.0731756 0.032978512 0.066772915
0003c0 5b a8 8a bc d2 74 92 bc d2 24 f5 3c e1 db 71 3d
       -0.016925981 -0.01787797 0.029924784 0.059047583
0003d0 16 a6 8d 3d af e9 ba 3b 27 92 b1 3a 1c e3 57 bd
       0.06916444 0.005704127 0.0013547585 -0.052706823
0003e0 0b cd e2 bc 60 33 d1 3c 92 49 39 3d 06 81 94 3d
       -0.027685663 0.025537193 0.045236178 0.07251172
0003f0 26 30 2f bc f4 8e 0d 3d 9f 63 9b 3d a7 59 a1 3c
       -0.010692632 0.03456016 0.075873606 0.01969607

conv3.bias f4 [32]
000000 16 0b 1c bd 44 d6 fe 3d 55 17 a0 3d a7 d4 56 bd
       -0.03809651 0.12443212 0.0781695 -0.052448895
000010 d3 c0 3e bd 33 5f 48 bd 28 bd 25 3d 93 37 32 3e
       -0.04657061 -0.048918914 0.040463597 0.17404012
000020 0f d9 37 3c 7e 76 f1 bb 18 12 58 bd 8a 7e 84 bd
       0.011221184 -0.0073688617 -0.05275163 -0.06469448
000030 9a ee 26 3e a3 6b 97 bd c1 49 8d bd 7c 78 09 bb
       0.16301957 -0.07393577 -0.06898833 -0.0020976355
000040 b3 64 bd 3c 4f 8f 14 bc b4 bd 95 3d 5c 03 71 bd
       0.023119306 -0.009067371 0.073115736 -0.058841094
000050 ac 47 a1 bc 98 82 70 3d d6 88 8a 3e 50 b3 28 bd
       -0.019687496 0.058718294 0.27057523 -0.04118663
000060 76 e9 a6 bd 78 1c 27 3b 63 1c b5 3d db 20 a7 bd
       -0.08149998 0.0025499146 0.08843305 -0.081605636
000070 98 54 22 bc 43 f4 8f bd 07 58 57 bd c8 51 7a bd
       -0.009907864 -0.07029011 -0.052574184 -0.06111315

conv4_1.weight f4 [2, 32, 1, 1]
000000 fe c7 2e 3d 82 c2 80 bc c2 1f 1f 3e 67 f0 a2 bd
       0.042671196 -0.015717749 0.15539458 -0.07956009
000010 d1 c3 95 3c 57 c4 f9 bd 2e f3 5f bd 73 58 f9 3d
       0.01828185 -0.12195652 -0.054675274 0.121750735
000020 fa 70 39 be e3 05 df bd db 1c bc bd c6 0d 0d 3d
       -0.18109503 -0.10889795 -0.09185191 0.034436963
000030 ed 55 ab bd df 6c f0 bd c5 d9 62 bd fa 99 28 be
       -0.083659984 -0.117395155 -0.055383462 -0.16464987
000040 83 56 82 3d fc b9 0b 3e af bc 06 3e d8 72 34 bc
       0.06364157 0.13645166 0.13157915 -0.011013709
000050 5d 28 f4 3d de be 14 bd 4f 81 0b 3e b7 70 0d be
       0.11921761 -0.036314838 0.13623546 -0.13812529
000060 82 5e a4 bc 33 78 98 bd 23 c8 ee 3d be 20 a1 3d
       -0.020064596 -0.07444801 0.11659267 0.07867573
000070 b0 8e 1f be 76 96 2b 3c eb ad 83 bd a8 ea 24 3c
       -0.15581775 0.010472884 -0.064296566 0.010065712
000080 2f 3f a7 3c 58 03 81 bc 18 3f a9 3d 7f 8a a1 3d
       0.02041587 -0.015748665 0.08263987 0.07887744
000090 72 50 a6 3c 9d 7f 2f be 2b 06 32 be c2 50 28 3c
       0.020302031 -0.17138524 -0.17385165 0.01027316
0000a0 a8 8e 2c 3e 8b c4 1a 3c 65 66 3a bb 08 83 21 3e
       0.16851294 0.009446274 -0.002844238 0.1577264
0000b0 29 e4 60 bd bb f9 b3 3d 25 89 96 3d 85 43 c9 3d
       -0.05490509 0.08787867 0.07350377 0.098273315
0000c0 86 9a c0 3d 18 54 f2 3d 1e ec 71 3d 7e 72 b1 3d
       0.09404473 0.11832446 0.05906307 0.08664416
0000d0 f8 11 e3 bd 34 ce a3 3b 97 da 34 be b8 5e 0e 3e
       -0.11087412 0.0049989466 -0.1766151 0.1390332
0000e0 bb ce 82 3d a0 2e 1f be 02 ab c3 3d 37 39 4b be
       0.06387087 -0.1554513 0.095541015 -0.19846044
0000f0 6d 1d 1a 3e 1a 2e 31 be 30 1d f3 bd 50 47 dd 3d
       0.15050288 -0.17302743 -0.118708014 0.108046174

conv4_1.bias f4 [2]
000000 77 c1 7a bc 44 44 2d 3e
       -0.015304915 0.16920573

conv4_2.weight f4 [4, 32, 1, 1]
000000 00 79 c0 bd c0 26 31 bd 23 08 02 be 5b 4b 4d 3d
       -0.09398079 -0.043249846 -0.12698416 0.050120693
000010 8a 4c dc bc 47 a1 1a be da c5 e6 bd 80 b5 7b 3d
       -0.026891965 -0.15100585 -0.11268206 0.06145239
000020 e6 e1 a9 bd 00 13 ea 3d 45 17 19 be 7d 31 06 3e
       -0.0829504 0.11429405 -0.14950283 0.13104816
000030 95 c3 fc 3d 0c 51 de 3d 9c 81 34 3e 1f 78 25 bd
       0.12341992 0.10855302 0.17627567 -0.04039776
000040 67 1f 29 3e cb 2b 1f 3e 58 98 de bd 90 56 a1 bd
       0.16515885 0.1554405 -0.10868901 -0.078778386
000050 64 5f b1 3d b8 d0 d4 3d fb 87 2f bd d3 b9 c8 3d
       0.086607724 0.103913724 -0.04285429 0.09801068
000060 f4 48 1d be 52 c6 2e be 6b ad 85 3d d7 cd 1a 3d
       -0.1535986 -0.1706784 0.065272175 0.03779396
000070 09 f4 a2 bd 7d 94 56 3d b2 92 c7 bd 6e d9 07 3d
       -0.07956702 0.052387703 -0.09744777 0.03316634
000080 3a 7b 2a 3d 58 5f 94 bc a4 70 0f be 30 db 84 3d
       0.041621424 -0.01811187 -0.14007813 0.06487119
000090 55 09 f9 bd 11 3c ea 3c a0 d9 62 bb 97 a5 d4 bc
       -0.12159983 0.028593095 -0.0034614578 -0.025957866
0000a0 5a 40 a5 3d 72 ab 90 3c cd 3b 92 3d 67 71 23 be
       0.08068915 0.017659876 0.07140312 -0.15961228
0000b0 4b cc f6 3d 69 b5 0e be 27 af 0b 3e 13 d8 70 bc
       0.120506845 -0.1393639 0.13641034 -0.014699954
0000c0 16 3d 1e 3e 5b d5 e7 bb 02 4d 99 3c 4c 28 39 bd
       0.1545299 -0.0070749945 0.018713478 -0.045204446
0000d0 7b 60 53 3d 01 e9 88 3d fa d4 9b 3d 00 d7 cf 3d
       0.051605683 0.06685067 0.076089814 0.1014843
0000e0 25 58 9e 3d 0c 36 04 3e 2e da ad bd 1b 39 17 3e
       0.07731656 0.12911242 -0.0848888 0.14767878
0000f0 73 b8 1c 3d 2a b8 ff bd e6 53 be bd 6b 5a fe 3c
       0.038261842 -0.124862984 -0.09293346 0.031048974
000100 d5 b2 32 3e d6 68 a0 3d 23 b6 d0 bc 05 ef ae bd
       0.17451032 0.07832496 -0.025477475 -0.08541683
000110 1b 07 1a 3e 3f cd 02 be 30 f8 03 be 4b ee 0c 3e
       0.15041773 -0.12773608 -0.12887645 0.13762777
000120 48 01 1d 3e 34 e7 1b bb 05 da c4 bd fd ed 06 be
       0.1533252 -0.002378893 -0.096118964 -0.13176723
000130 a9 c3 87 3d 50 b4 29 3e a8 ef d6 3d 49 57 9a 3d
       0.06629116 0.1657269 0.104949296 0.075361796
000140 64 85 ae bc 55 60 24 be f2 b2 2a 3e 2f 29 2b 3e
       -0.02130384 -0.16052373 0.16669825 0.16714929
000150 dd 83 11 3e 8a 25 00 3e d7 d7 7d 3e fb 4a b0 bd
       0.14210458 0.1251432 0.24789368 -0.086080514
000160 9e 69 a3 bd f5 a7 cc 3d 9f 18 9b 3d c3 2b 6f 3b
       -0.07979129 0.09992973 0.075730555 0.003649459
000170 2f ee 92 bd 1c e6 e4 bd 53 c7 05 3e 0b 37 9c 3d
       -0.07174336 -0.111767024 0.13064317 0.07627686
000180 2b 4c 05 3e 7c e4 8c bd d5 4f 33 bd e4 d3 f4 bd
       0.13017337 -0.068795174 -0.043777306 -0.119544774
000190 10 4d 04 3e 29 43 ab bd 1d 92 fc 3d 9b d6 71 3e
       0.12920022 -0.08362419 0.123325564 0.23617022
0001a0 51 76 bb bd 25 df f6 bd b6 d9 11 bc 3a 21 3d 3d
       -0.091534264 -0.1205428 -0.008902004 0.046174265
0001b0 ed 39 96 3d 42 95 fc bd 27 b5 34 be 27 91 20 bd
       0.07335267 -0.12333156 -0.17647229 -0.039200928
0001c0 ed ae 90 3c ee 81 eb 3d 7e 32 5e 3c bf 26 23 be
       0.017661536 0.114993915 0.013561843 -0.15932749
0001d0 af 8c d1 3d 8e 84 16 be ed 27 8c 3e 93 0d 8e 3d
       0.102319114 -0.14699003 0.2737421 0.06936183
0001e0 2c d2 f7 bd b5 e4 cc bc cf 5c 0d 3e 0b c1 a1 3d
       -0.12100634 -0.0250114 0.13804935 0.07898148
0001f0 98 db 6b 3d c5 7e e7 bd 61 55 42 3d dc 4f 90 bd
       0.057582468 -0.11303476 0.047444705 -0.07046482

conv4_2.bias f4 [4]
000000 73 93 03 3e 61 ea 04 b9 94 65 da 3e 24 33 f8 3e
       0.12849216 -0.00012675814 0.42655623 0.48476517

conv4_3.weight f4 [10, 32, 1, 1]
000000 39 77 1e 3e 58 7d b2 3d 75 c9 07 be b8 81 61 bd
       0.15475167 0.08715314 -0.13260444 -0.05505535
000010 89 1a 03 be 25 73 d3 3c d5 19 64 bd 6a e7 c2 bd
       -0.12803091 0.025811741 -0.055688698 -0.09516795
000020 92 5f fa 3c 88 f5 13 3e 7a bd 21 3d ad 05 86 bd
       0.03056315 0.14449131 0.03948734 -0.06544051
000030 f5 ae 0b 3e 41 ef 14 3e 81 07 8f 3d cc ac ce 3d
       0.1364096 0.14544393 0.06983853 0.10091552
000040 69 cc be bc 19 6a 0d be db 74 45 bd 81 d6 f5 3c
       -0.02329083 -0.13810004 -0.048207145 0.03000951
000050 60 e0 14 3e f0 8d 67 3d 56 ec 1e 3d 39 d3 4f bd
       0.14538717 0.056531847 0.038799606 -0.050738547
000060 42 43 0b 3e 06 89 8d 3d a0 92 24 3e f8 0f cd 3b
       0.13599876 0.06910901 0.16071558 0.006258007
000070 ac a2 d8 bd 66 bc 15 be d6 8d f5 bc 56 84 0e be
       -0.10577902 -0.1462265 -0.02997486 -0.1391767
000080 28 e8 88 3d 2f 74 bf bc 32 72 33 3d 65 b3 ef bd
       0.06684905 -0.02337083 0.043810077 -0.11704139
000090 a3 54 cd bd 0b ef 28 3e e2 7e 86 3d 3c e0 be 3d
       -0.10025909 0.16497438 0.0656717 0.09320113
0000a0 33 05 1e 3e e5 c5 de 3d 2b 44 9c 3d 1f e5 2d 3d
       0.15431671 0.10877589 0.076301895 0.042454835
0000b0 a8 89 65 3d b9 96 0c be 90 f0 0f bc 9b a5 09 be
       0.056039482 -0.13729371 -0.008785382 -0.1344208
0000c0 20 14 b6 3b 46 06 e7 3c 90 f3 fc bd 5a 92 3d 3d
       0.0055565983 0.028201234 -0.12351143 0.04628215
0000d0 11 d5 b8 bd 88 1d 09 3d 6d 3d 98 3d 7f 68 07 3d
       -0.09025014 0.03347543 0.07433591 0.03305864
0000e0 2b 68 06 3b 36 d6 0c 3d e7 20 57 bd 0a 3a 15 be
       0.0020508866 0.034383975 -0.052521612 -0.14572921
0000f0 eb ca 07 be 7e c4 b2 3d 0c 70 20 be 81 b7 48 bd
       -0.13261001 0.08728884 -0.15667742 -0.049003128
000100 d3 f7 45 bd fc 22 04 3b bc d2 79 bc 76 8d 2c bb
       -0.048332047 0.0020162454 -0.015247997 -0.0026329434
000110 6e 62 20 3e 6b 43 c6 bb 8c b4 8d 3d 39 64 ed 3d
       0.15662548 -0.0060505173 0.06919202 0.115913816
000120 f8 15 2c 3d e7 59 24 3e 43 b9 bb 3d 8f 92 83 3d
       0.04201314 0.1604992 0.09166195 0.06424438
000130 4d 18 18 bc 1d 1c 33 3e e0 fe 1b be 19 c2 20 be
       -0.0092831375 0.17491193 -0.15233946 -0.15699042
000140 74 18 29 be 04 e7 0f 3e a0 fc b9 bc 02 19 03 be
       -0.16513234 0.14052969 -0.022703469 -0.12802508
000150 b8 c7 9d bd d2 04 f0 bb 13 15 4a 3e e4 57 cc bd
       -0.07704109 -0.0073247934 0.19734602 -0.09977701
000160 3b 64 53 bd db e2 0c be 34 83 77 3d 49 6e 1e 3c
       -0.05160926 -0.13758413 0.06042786 0.009669849
000170 a2 53 fa bd f3 95 41 bc 66 9c 00 be e9 42 46 bd
       -0.12222983 -0.011815536 -0.12559661 -0.048403654
000180 86 74 1f 3e 5c 4c 0f 3e 0e b4 a4 3c 02 22 2c be
       0.15571794 0.13993973 0.020105388 -0.16809848
000190 40 9f d3 3d 0b 83 f7 bc c0 0d 12 be dd 5a a8 3d
       0.10333109 -0.030213853 -0.14263058 0.08220456
0001a0 ec be 0b be f1 5b 38 bd d2 16 1e be d7 61 f0 3c
       -0.1364705 -0.045009557 -0.15438393 0.029343529
0001b0 ae 77 7c 3c 12 f6 26 be c1 62 18 3e b6 82 c8 bc
       0.015409393 -0.16304806 0.14881422 -0.02447639
0001c0 1a 65 fb 3d 4e ee 31 3e e3 fc 1a be ca a7 4e 3d
       0.12275143 0.17376062 -0.15135531 0.050452985
0001d0 3e 05 92 bd 4d a7 0e bd d8 5d 25 3d 2b a3 eb 3b
       -0.07129906 -0.03482752 0.0403727 0.007191082
0001e0 0e 7c 63 3d 51 fb 3a 3e b3 2b 17 3e 17 c8 f7 bd
       0.05553823 0.18259932 0.14762764 -0.12098711
0001f0 22 fe 99 3d 62 67 8b bd 25 05 64 3d ca fa da 3d
       0.07519175 -0.06806828 0.05566897 0.106923655
000200 f1 ed 0b be 17 b7 81 bd c0 a7 02 3e a2 b1 bb bb
       -0.13664986 -0.0633375 0.12759304 -0.0057279626
000210 04 84 77 3c eb b7 b0 3d 3d 3c 37 3d 02 ef 08 3e
       0.015107159 0.086288296 0.044735182 0.13372424
000220 f9 ff 94 bd 08 2d a4 3c 28 3f 04 be 44 cb f4 3d
       -0.072753854 0.020041004 -0.12914717 0.11952832
000230 2b 29 f2 3d 03 a8 98 3d 21 fa 0f be 1b 9d f7 bd
       0.118242584 0.07453921 -0.1406026 -0.12090512
000240 73 25 b2 bd ec e3 bf 3c 30 fa ee bd f8 ba f3 3d
       -0.08698549 0.023424111 -0.11668813 0.11900896
000250 a2 bd 05 be 71 27 06 be 00 a0 4c 3e 2f b2 09 be
       -0.1306062 -0.13100983 0.1998291 -0.13446878
000260 b2 a1 ee bc 8d 75 05 be 0e bd 14 be 30 dd 19 be
       -0.029129837 -0.13033123 -0.14525244 -0.15025783
000270 89 af dd bd 02 bd e3 3d 7d f6 e0 3b a4 e9 af bd
       -0.10824496 0.11120035 0.006865321 -0.08589485
000280 74 f3 b1 bd 25 8a 46 3e f3 4f 8e 3d 5a f3 dd bd
       -0.08689013 0.19388635 0.06948843 -0.10837431
000290 8b e1 af bd b2 bf e7 bd 44 67 9c bd b3 2a 75 3d
       -0.08587941 -0.1131586 -0.07636884 0.059855174
0002a0 66 7e 3f 3d 8c 19 8c bd 52 48 1d be 92 60 84 bd
       0.046751402 -0.0684081 -0.1535962 -0.06463732
0002b0 7c c8 3d 3e 49 4e c9 3d 03 50 90 bd 38 b0 9c 3d
       0.1853351 0.09829385 -0.07046511 0.076507986
0002c0 a9 1d e5 3d 7d 80 05 3e f1 f2 d0 3d 4b d6 e6 bd
       0.11187298 0.13037296 0.102025874 -0.11271342
0002d0 63 f8 b6 bd 95 be 12 3e 24 e9 11 3e 88 e0 ac 3c
       -0.08934095 0.14330514 0.14249092 0.021103159
0002e0 9a a9 01 3e ff 63 b3 bd 15 50 15 bd 5e 94 8b bd
       0.12662354 -0.08759307 -0.036453325 -0.06815408
0002f0 74 d9 27 be 71 e7 8e 3b ee 9d 99 bd 2e c7 94 bd
       -0.16391546 0.004361086 -0.07500826 -0.07264553
000300 24 7c 1c 3d 6b 83 cd ba 10 04 b5 3d 40 d1 5a bd
       0.038204327 -0.0015679424 0.088386655 -0.053422213
000310 97 c3 d3 3d 0a 0f 2e 3e e3 08 c1 bd 01 77 2f bd
       0.1034004 0.16997924 -0.09425523 -0.0428381
000320 a4 96 0b 3e 88 e5 23 be db 55 d7 bd 6a 76 20 bd
       0.13631684 -0.16005528 -0.105144225 -0.03917543
000330 27 a9 ae bc 51 f7 12 3e c1 0e 87 3d 4c ec 85 bd
       -0.021320892 0.14352156 0.06594611 -0.06539211
000340 a4 12 11 be f1 22 2b 3e 67 07 28 be ae 39 1c 3e
       -0.14167267 0.16712548 -0.16409074 0.15256378
000350 ca 07 0f 3e bf 49 3a 3e bc c4 82 bd 59 c5 0c 3e
       0.13967815 0.18192194 -0.0638518 0.13747157
000360 63 f3 05 3d 61 9f 2d 3e 18 c3 28 bd 17 20 26 3e
       0.032702815 0.1695533 -0.04120168 0.16223179
000370 31 b0 58 3d 4e 14 9d 3d ca c4 ef 3d 4e 53 26 3d
       0.052902404 0.076698884 0.117074564 0.04060679
000380 5a 8c 0f 3e 18 63 1d 3e 2d 12 81 3d 9e b3 91 3d
       0.14018384 0.15369833 0.06302295 0.071143374
000390 7c 38 31 3e 99 8b e1 3c ba df 33 3e c4 06 80 bd
       0.17306703 0.027532386 0.17565814 -0.062512904
0003a0 1d bc 47 3e 0c ec 33 bd 0e a7 17 3e af 83 c1 bb
       0.19505353 -0.043926284 0.1480982 -0.0059055905
0003b0 54 ff 10 3e f0 71 0b be a3 a4 e5 3d 2d 47 ac bd
       0.141599 -0.13617682 0.112130426 -0.08412013
0003c0 21 44 32 be b9 07 d4 bd 96 c2 75 bd 2c f0 26 3e
       -0.17408802 -0.103530355 -0.060000025 0.16302556
0003d0 eb ba 9c bd 53 8f 0d 3e 0a 03 03 bd 15 d9 5b 3d
       -0.07652839 0.13824205 -0.03198532 0.053673822
0003e0 6b 0d ba bd 71 62 e2 3d 1e 87 57 3e 99 6b 62 3c
       -0.090845905 0.110539325 0.21047637 0.013819599
0003f0 f4 eb 19 3e 0d 20 d1 bd 90 27 06 be 0f 6e 1c 3e
       0.15031415 -0.10211191 -0.1310103 0.15276359

conv4_3.bias f4 [10]
000000 e7 05 bb 3d 8c 27 2b 3e 45 72 58 3e 39 2a 46 3e
       0.09131985 0.16714305 0.2113734 0.19352044
000010 4f 19 43 3e 8e a2 24 3e 3d 24 5d 3e 73 0b 60 3e
       0.19052623 0.16077635 0.21595855 0.21879368
000020 fd 1c c8 3d 03 46 9a 3e
       0.09771154 0.3013154
