Pytorch face detection - Test/MTCNN_train_process/1/checkpoint_2800.pth (torch, 234161 bytes, 12 tensors)

conv1.weight f4 [10, 3, 3, 3]
-0.6146703 -0.52343315 -0.24058056 -0.08455752 0.09181405 0.2734459 0.13186525 0.44432795
0.13558263 0.062410697 -0.07563384 0.06904633 -0.18640392 0.10387253 0.18355322 0.06402364
0.16893634 0.10098574 -0.17911361 -0.122777246 0.009555718 -0.096927784 -0.14502454 0.07972655
-0.02058602 -0.03456812 -0.058386344 0.2269059 0.066338345 0.16631478 0.31643897 0.16460659
0.010759622 0.12862967 0.06847767 0.20122357 -0.16497466 -0.06792377 -0.03369141 -0.24434201
-0.010015781 0.10687293 -0.04743866 -0.25950325 -0.16312258 -0.10164128 -0.008531043 -0.12872306
-0.12140397 -0.187726 -0.17110072 -0.10324612 0.17119335 -0.04674796 -0.102850474 0.13566922
-0.15399578 0.008617894 -0.00786237 -0.18650945 -0.12864195 0.17614123 -0.09265499 -0.0922752
-0.19730756 0.12780204 -0.1053288 0.042065673 -0.19404592 -0.15510778 -0.062679015 0.14850995
0.080871485 0.011561832 0.08509398 0.010307181 -0.07468481 0.17039132 -0.18917663 0.15561524
0.030982051 -0.2873552 -0.30992717 -0.26982552 -0.24138434 -0.060742266 -0.04084324 -0.17173757
-0.22979209 0.02229921 0.37747133 0.4579364 0.2740923 0.3774348 0.46099332 0.11037139
0.3303401 0.21905808 0.30021772 0.027545705 -0.003967443 0.022579525 -0.13671866 -0.23348959
-0.038476862 0.10515449 -0.070217125 -0.19141369 0.014482233 -0.17371787 -0.016701996 -0.113935
-0.09042454 -0.09911007 0.120833844 -0.027464824 0.15310585 -0.08263162 0.1769506 -0.13257769
-0.14963229 -0.021395039 0.04625767 -0.12627816 0.14257203 -0.14838114 0.15127052 -0.03386649
-0.1421718 -0.027576754 -0.11201081 -0.033849914 -0.10767631 0.13829558 0.06924604 0.1504313
0.10902199 0.02959905 0.18521184 0.20750985 -0.29766855 -0.12377882 -0.27811286 -0.2339981
0.07915004 0.04969074 0.07316774 0.118563965 0.21923155 -0.2894475 -0.14469528 -0.0053813825
-0.21118015 0.013423028 0.006204228 0.18782322 0.14220197 -0.09728172 0.039787043 -0.12996987
-0.08125147 0.063618235 0.3397416 0.45070425 0.52618265 -0.015881797 0.11587557 0.33978528
-0.37591687 -0.3256561 -0.032767065 0.079737164 -0.00064250466 -0.124494866 0.012651603 -0.010167677
-0.12919962 -0.26964968 -0.32812604 -0.05310062 0.34639105 0.18069018 0.16995363 -0.027979558
-0.11330579 0.04517701 -0.12579654 -0.23804526 -0.022453116 -0.13224444 -0.40453002 -0.10603989
-0.008872356 -0.24735156 -0.4480884 0.17429411 0.08902845 -0.03129315 -0.080733 -0.16689014
-0.08403885 -0.21291421 0.13298962 -0.023927953 0.26671973 0.14594255 0.10676686 -0.088473745
-0.076797865 0.030243931 0.039799135 0.009316342 0.18305229 0.10064925 0.24496986 0.035135303
-0.04001052 -0.13338086 -0.17242481 -0.017820256 -0.17404158 -0.025113398 -0.122072145 -0.09102479
0.006617642 -0.03481353 -0.16116318 -0.07897643 -0.010899163 -0.1260845 0.07911956 -0.013291043
-0.09254377 -0.11818557 -0.1309485 0.0011328744 0.029443786 0.07466715 -0.043974917 0.020958837
0.16473366 0.07891848 -0.14401072 0.12976275 -0.36352405 0.43527797 -0.041182585 -0.3542666
0.2908916 -0.16697912 -0.12560722 0.06314286 0.28310677 -0.32591462 0.16707155 0.028456708
00000000: 085b 1dbf b7ff 05bf c05a 76be 7e2c adbd
00000010: 0109 bc3d 1a01 8c3e af07 073e f47e e33e
00000020: 2cd6 0a3e 5ca2 7f3d eae5 9abd 2a68 8d3d
00000030: abe0 3ebe 1fbb d43d 60f5 3b3e d31e 833d
00000040: a6fd 2c3e 9dd1 ce3d 8f69 37be a372 fbbd
00000050: 968f 1c3c 1382 c6bd 5081 14be ac47 a33d
00000060: 03a4 a8bc 4d97 0dbd 8526 6fbd 055a 683e
00000070: 66dc 873d 6c4e 2a3e 4a04 a23e a18e 283e
00000080: 2049 303c 7fb7 033e 053e 8c3d 8d0d 4e3e
00000090: 1eef 28be 9e1b 8bbd 0100 0abd cb34 7abe
000000a0: 3b19 24bc 32e0 da3d 0a4f 42bd 9cdd 84be
000000b0: 9b09 27be 4e29 d0bd cac5 0bbc facf 03be
000000c0: a5a2 f8bd 3f3b 40be 0735 2fbe b472 d3bd
000000d0: 4f4d 2f3e ca7a 3fbd 45a3 d2bd dfec 0a3e
000000e0: 12b1 1dbe 1132 0d3c 2cd1 00bc 55fc 3ebe
000000f0: b7ba 03be 5e5e 343e e6c1 bdbd c8fa bcbd
00000100: fe0a 4abe 8ade 023e a0b6 d7bd 0e4d 2c3d
00000110: f9b3 46be 93d4 1ebe db5d 80bd fe12 183e
00000120: f39f a53d d76d 3d3c c145 ae3d 73df 283c
00000130: 5af4 98bd 107b 2e3e 85b7 41be 9a59 1f3e
00000140: 12ce fd3c 3920 93be c6ae 9ebe 9226 8abe
00000150: 752d 77be e2cc 78bd 3e4b 27bd f9db 2fbe
00000160: 9e4e 6bbe d5ac b63c ec43 c13e a476 ea3e
00000170: d355 8c3e 223f c13e 5107 ec3e 650a e23d
00000180: 5622 a93e c350 603e 23b6 993e 88a7 e13c
00000190: 5301 82bb b2f8 b83c faff 0bbe e517 6fbe
000001a0: ea99 1dbd 3d5b d73d ffcd 8fbd f301 44be
000001b0: e346 6d3c 19e3 31be a0d2 88bc c156 e9bd
000001c0: 8030 b9bd 38fa cabd bc77 f73d e9fd e0bc
000001d0: c8c7 1c3e c43a a9bd 8a32 353e 72c2 07be
000001e0: 3539 19be a644 afbc af78 3d3d 104f 01be
000001f0: 67fe 113e 3af1 17be a9e6 1a3e 97b7 0abd
00000200: 7c95 11be a5e8 e1bc ec65 e5bd 35a6 0abd
00000210: 6685 dcbd 5b9d 0d3e ded0 8d3d aa0a 1a3e
00000220: ec46 df3d b579 f23c 2ca8 3d3e 767d 543e
00000230: 0368 98be c07f fdbd cf64 8ebe 339d 6fbe
00000240: 6b19 a23d 8488 4b3d f8d8 953d aad1 f23d
00000250: 3c7e 603e 7632 94be 002b 14be 4f56 b0bb
00000260: 9c3f 58be 43ec 5b3c d64c cb3b bb54 403e
00000270: 659d 113e a33b c7bd bdf7 223d d216 05be
00000280: 2c67 a6bd 474a 823d 9cf2 ad3e b5c2 e63e
00000290: e8b3 063f 8b1a 82bc 2c50 ed3d 56f8 ad3e
000002a0: 2d78 c0be 65bc a6be c236 06bd 3d4d a33d
000002b0: c26d 28ba 2af7 febd ab48 4f3c 5496 26bc
000002c0: e84c 04be 860f 8abe 2300 a8be 0980 59bd
000002d0: 2b5a b13e d906 393e 5308 2e3e 6335 e5bc
000002e0: de0c e8bd 870b 393d cfd0 00be 23c2 73be
000002f0: 99ef b7bc 166b 07be 8f1e cfbe 712b d9bd
00000300: 5c5d 11bc ba49 7dbe d86b e5be 287a 323e
00000310: 8c54 b63d 3f2d 00bd 5857 a5bd 40e5 2abe
00000320: 901c acbd 2f06 5abe 6e2e 083e 8e04 c4bc
00000330: 7d8f 883e f771 153e 95a8 da3d b931 b5bd
00000340: 3348 9dbd 1fc2 f73c 6b04 233d 92a3 183c
00000350: 0f72 3b3e 3221 ce3d 61d9 7a3e 09ea 0f3d
00000360: 12e2 23bd fe94 08be 2190 30be c9fb 91bc
00000370: f537 32be 9dba cdbc f600 fabd 356b babd
00000380: ced8 d83b a298 0ebd f607 25be 65be a1bd
00000390: 6792 32bc 4c1c 01be 7009 a23d adc2 59bc
000003a0: 9787 bdbd 470b f2bd 5d17 06be f57c 943a
000003b0: 1834 f13c 17eb 983d 0b1f 34bd deb1 ab3c
000003c0: f1af 283e 03a0 a13d 8c77 13be 87e0 043e
000003d0: d31f babe c1dc de3e 12af 28bd 6f62 b5be
000003e0: beef 943e 93fc 2abe 2e9f 00be 0b51 813d
000003f0: 5ff3 903e 48de a6be ce14 2b3e 0b1e e93c

conv1.bias f4 [10]
0.4095756 -0.112541705 -0.064803444 0.018871762 -0.120565705 0.090157025 -0.0018261918 0.46204987
-0.15376249 0.02120676
00000000: e5b3 d13e 447c e6bd abb7 84bd f498 9a3c
00000010: 27eb f6bd 3fa4 b83d d45c efba cd91 ec3e
00000020: ea73 1dbe cdb9 ad3c

conv2.weight f4 [16, 10, 3, 3]
0.1496458 0.039452005 -0.07190878 0.14112455 0.15620987 0.12388559 0.096792154 0.065073185
0.1747601 -0.09972557 0.041228175 0.02045388 -0.05476693 -0.04205307 -0.13889678 -0.18009073
-0.09096643 -0.064387396 0.061495833 0.059728928 0.0765527 0.010405909 0.052363023 0.021302491
-0.020409059 -0.084377654 0.0957592 0.036073495 0.062245496 0.04414768 -0.07795684 -0.1426236
-0.03511853 0.013332173 -0.0844665 -0.013934376 0.07479801 -0.08114091 -0.08776058 0.027721033
0.08835058 0.012004617 -0.10654313 0.035150133 -0.09823426 -0.08815569 -0.1155747 -0.123661384
-0.024120588 0.0895711 0.0105554 0.01739244 0.03190466 -0.053491376 0.095538974 0.22316763
-0.050862182 -0.054846272 0.14507736 -0.13928282 -0.007080966 -0.042949434 -0.114842206 -0.013933917
-0.009032565 0.111633 -0.021047989 0.07448802 -0.1135106 -0.20529711 -0.07942901 -0.0012405441
0.098088264 -0.0202802 -0.08127788 0.022482764 -0.041997757 -0.0814786 -0.087754816 -0.006111346
-0.05501351 -0.2591812 -0.274256 0.08373513 -0.1018212 -0.037044264 0.06768066 0.05286956
-0.004386941 0.029898124 -0.1639945 -0.015619723 -0.012383031 0.04226379 0.047715202 -0.029463094
0.16944994 0.14801708 -0.012395721 0.0898283 0.043799877 0.16441134 0.03587568 0.13809204
0.09797647 -0.08612148 0.0006277429 0.023255415 -0.019474551 0.08006625 0.10418481 0.0495611
0.028560964 -0.025901439 -0.054029655 0.039033227 -0.088040315 -0.12906039 0.24551791 0.080589116
0.031839088 0.31202668 0.10013439 -0.113898374 0.13912275 -0.06704695 0.0020137585 0.04893919
0.059924625 -0.0769954 -0.083016984 0.06662551 0.009686536 0.0705484 -0.035038423 -0.005276558
0.086647265 0.16019402 0.062674806 0.09435518 -0.032081548 0.14244269 0.050977543 -0.069396846
0.18570021 0.07274271 -0.1960598 0.023183353 0.0589482 -0.20125851 -0.023742491 0.07405921
-0.13107446 0.08636127 0.02939382 0.16574503 -0.04967125 0.02732085 0.03592682 -0.113829084
-0.017163353 0.064396314 0.038527343 0.06035343 0.102852866 -0.043346565 0.015744448 -0.08039592
-0.018006977 0.0720146 0.019643253 -0.13307257 0.011903721 0.006901266 -0.12218938 0.013556836
0.069157265 -0.14963086 0.24640363 0.06368832 -0.028598543 -0.05639931 0.048450097 0.007886613
0.013773075 -0.018784361 0.027553052 0.109969355 0.06796727 0.04590425 -0.054462075 -0.043862794
0.12720677 0.09056697 0.07346235 -0.023717659 -0.03724544 -0.026556645 0.0049462635 -0.013167245
-0.046378575 0.029695526 0.013279412 -0.042391885 0.08882031 -0.0065131905 0.033767786 -0.093753524
-0.027825065 -0.0753132 0.12672004 0.12141493 0.18866074 0.13034984 0.16919346 0.07284295
0.011052494 -0.032090154 -0.06768859 -0.031495538 -0.039208394 -0.07026094 -0.09377769 -0.09349744
0.0756468 -0.04757158 0.111717634 -0.022545446 0.10312531 0.121287264 0.0029627844 0.055745512
-0.02731695 -0.06105195 -0.09846715 -0.14509246 -0.09167895 0.11514642 -0.11431544 -0.029450972
0.11599189 0.08617204 0.14164296 0.024412142 -0.08502161 -0.13600595 -0.10206854 0.10569104
0.06342614 -0.032964755 -0.05562149 0.068854935 -0.010369946 0.01766353 0.0492571 0.08248752
00000000: c03c 193e 6d98 213d e944 93bd f482 103e
00000010: 7bf5 1f3e bab7 fd3d f73a c63d 1745 853d
00000020: 50f4 323e eb3c ccbd e0de 283d e58e a73c
00000030: 4a53 60bd d73f 2cbd f53a 0ebe b469 38be
00000040: 9c4c babd 8add 83bd 0ee3 7b3d 52a6 743d
00000050: a9c7 9c3d 8c7d 2a3c 9c7a 563d 9082 ae3c
00000060: e630 a7bc 31ce acbd 661d c43d cdc1 133d
00000070: 22f5 7e3d 33d4 343d d6a7 9fbd ec0b 12be
00000080: 73d8 0fbd 306f 5a3c c6fc acbd 024d 64bc
00000090: b32f 993d 352d a6bd d2bb b3bd 3817 e33c
000000a0: 26f1 b43d 03af 443c 4933 dabd 96f9 0f3d
000000b0: 0b2f c9bd f88a b4bd 6eb2 ecbd 2e42 fdbd
000000c0: 8a98 c5bc 0e71 b73d 8ef0 2c3c 977a 8e3c
000000d0: 76ae 023d c619 5bbd f0a9 c33d 0e86 643e
000000e0: dd54 50bd 7ca6 60bd 298f 143e 28a0 0ebe
000000f0: 7307 e8bb bfeb 2fbd 6432 ebbd 154b 64bc
00000100: 53fd 13bc d89f e43d d56c acbc 2d8d 983d
00000110: 3f78 e8bd 6839 52be adab a2bd c199 a2ba
00000120: 80e2 c83d a922 a6bc 0475 a6bd c62d b83c
00000130: d705 2cbd 41de a6bd ccb8 b3bd b041 c8bb
00000140: d955 61bd 66b3 84be 486b 8cbe 537d ab3d
00000150: a287 d0bd babb 17bd 289c 8a3d c08d 583d
00000160: 54c0 8fbb e9ec f43c 2dee 27be dee9 7fbc
00000170: 32e2 4abc cc1c 2d3d 0471 433d 965c f1bc
00000180: 4984 2d3e ca91 173e 6c17 4bbc e6f7 b73d
00000190: 8067 333d 725b 283e 61f2 123d 0068 0d3e
000001a0: e3a7 c83d 7560 b0bd 1d8f 243a 2482 be3c
000001b0: 1889 9fbc c6f9 a33d d85e d53d 9400 4b3d
000001c0: aff8 e93c 412f d4bc 334e 5dbd 4ee1 1f3d
000001d0: 7b4e b4bd 6828 04be 0c69 7b3e e80b a53d
000001e0: b469 023d f6c1 9f3e 4213 cd3d 8d43 e9bd
000001f0: 3276 0e3e e94f 89bd 43f9 033b 7674 483d
00000200: 8673 753d c4af 9dbd cf04 aabd f572 883d
00000210: 47b4 1e3c ae7b 903d 7384 0fbd fae6 acbb
00000220: 1f74 b13d e709 243e a65b 803d 4a3d c13d
00000230: f167 03bd 7fdc 113e d4cd 503d ef1f 8ebd
00000240: 3228 3e3e 21fa 943d e6c3 48be 04eb bd3c
00000250: ab73 713d b616 4ebe 9d7f c2bc 5bac 973d
00000260: 6238 06be 2dde b03d 4fcb f03c 11b9 293e
00000270: 1574 4bbd facf df3c 0028 133d 391f e9bd
00000280: 299a 8cbc 37e2 833d d9ce 1d3d 2935 773d
00000290: 86a4 d23d 2b8c 31bd 80fa 803c 9ea6 a4bd
000002a0: 5e83 93bc 647c 933d e3ea a03c 2d44 08be
000002b0: d307 433c 0424 e23b 6d3e fabd 7e1d 5e3c
000002c0: 53a2 8d3d d538 19be 3c51 7c3e 066f 823d
000002d0: 7e47 eabc f602 67bd 9c73 463d da36 013c
000002e0: 77a8 613c a9e1 99bc f0b6 e13c 9d37 e13d
000002f0: 6d32 8b3d 1806 3c3d a013 5fbd 79a9 33bd
00000300: 7e42 023e 2d7b b93d 6e73 963d 894b c2bc
00000310: ad8e 18bd 528d d9bc 4414 a23b 6ebb 57bc
00000320: 76f7 3dbd 0844 f33c e491 593c 1da3 2dbd
00000330: 6ce7 b53d 9a6c d5bb 1750 0a3d d901 c0bd
00000340: 64f1 e3bc cf3d 9abd e6c2 013e 64a8 f83d
00000350: 4830 413e 6e7a 053e 0d41 2d3e af2e 953d
00000360: 8515 353c f770 03bd 51a0 8abd 7701 01bd
00000370: fb98 20bd f8e4 8fbd 840e c0bd 967b bfbd
00000380: b6ec 9a3d 6bda 42bd 37cc e43d 3ab1 b8bc
00000390: 5d33 d33d 7565 f83d 462b 423b 6855 643d
000003a0: ccc7 dfbc 9c11 7abd 25a9 c9bd 1e93 14be
000003b0: 2cc2 bbbd e3d1 eb3d 371e eabd 2a43 f1bc
000003c0: 288d ed3d f77a b03d da0a 113e f9fb c73c
000003d0: cf1f aebd 2545 0bbe 5009 d1bd 8b74 d83d
000003e0: 90e5 813d 0d06 07bd 5cd3 63bd d103 8d3d
000003f0: b5e6 29bc 1bb3 903c d0c1 493d 38ef a83d

conv2.bias f4 [16]
0.50693244 -0.053670175 -0.053715944 0.01566795 0.20999937 -0.09399678 0.10241166 0.8705003
0.0413121 0.07155513 0.3185223 0.17408584 0.12239535 0.04908432 0.061221372 0.008724743
00000000: 53c6 013f 42d5 5bbd 4005 5cbd 135a 803c
00000010: 130a 573e 6281 c0bd 34bd d13d 1cd9 5e3f
00000020: e036 293d 7f8b 923d 5b15 a33e 8f43 323e
00000030: 6aaa fa3d a40c 493d 43c3 7a3d 39f2 0e3c

conv3.weight f4 [32, 16, 3, 3]
0.029324606 -0.0071214894 0.077325456 -0.067133345 0.056454673 -0.014340197 -0.05953297 0.0025782578
-0.058443744 -0.04046142 -0.05485005 0.08098583 0.05716373 -0.0675559 0.02478901 -0.034132093
0.074749134 -0.027930932 0.065262005 -0.06366745 -0.025573114 -0.071204744 -0.015018863 -0.002254298
0.050668146 0.038805895 -0.00304458 0.07470652 -0.013300599 -0.07869998 0.072517626 -0.067259066
-0.0010902559 0.0035852503 0.00038258554 0.027119614 0.02092111 -0.04595222 -0.046751626 0.07238147
0.007168405 0.080589786 -0.054772183 0.024355767 0.0660025 0.013433675 -0.022765666 0.05630114
0.016247135 -0.07782706 0.06885704 -0.043717198 -0.06363508 0.011271308 0.044496696 0.03893642
-0.0020534229 -0.073918924 0.0667525 -0.055650767 -0.044627234 -0.027310016 0.03814513 -0.074344814
0.043485392 -0.056425914 0.01265619 0.047056854 -0.046845514 0.038342413 0.0047180895 0.053414606
0.05274502 -0.0120056225 -0.050497193 -0.06524195 0.024331309 -0.025917944 0.061184987 -0.017969042
-0.014892981 0.048264038 -0.0810019 -0.053786613 0.058710404 -0.00064631115 0.024855832 -0.0052611683
-0.03333896 -0.08128558 -0.05584016 0.004697344 0.067350425 0.028501559 0.076913536 -0.043159544
-0.08272797 -0.020512134 -0.00017974818 -0.019199781 -0.038410086 0.057092924 0.010938229 -0.059700105
-0.004066897 0.023186874 -0.035285573 -0.0028376165 0.06944827 -0.061924443 0.01684687 0.049864564
-0.049624585 -0.06406043 -0.026589734 -0.017935237 -0.007206346 -0.05935111 0.03195276 -0.06187287
-0.03534961 -0.004002254 -0.0124096405 -0.022488348 0.081883684 0.036064886 -0.07035472 -0.05241211
0.037309438 0.02102809 0.034872685 -0.076383695 0.0662532 0.03612675 -0.0063414644 -0.07830466
0.04936296 0.07014113 -0.023250954 -0.017502027 0.026492976 -0.06053971 0.07469997 -0.03721902
0.059343547 -0.029470652 0.07704494 -0.017397227 -0.049924277 0.008772532 0.043504413 0.0032340852
-0.0454175 -0.026335858 -0.009371129 -0.047338277 -0.0020418616 -0.00011646744 0.06442506 -0.0119914925
0.028108185 0.07760545 0.0064146654 -0.059369914 -0.03297692 -0.04907481 0.05191878 0.060083058
0.026613954 0.073169336 0.028414289 -0.0759738 0.045384564 0.030184558 -0.048766483 -0.053409338
0.05700339 -0.002068011 0.063214384 0.020566732 -0.04590386 0.09106793 0.056635786 -0.043851912
0.0015128155 0.031557675 -0.03512826 0.050835438 0.017528547 -0.02240553 0.006356062 0.04622504
0.003505511 -0.06407627 0.07847374 0.011814708 -0.0063638748 -0.048179653 -0.05550662 -0.0071427017
0.024995139 0.028955612 0.028925756 0.050000478 -0.032686625 0.05631333 -0.012377823 0.08556721
0.041207593 0.07710767 -0.051687542 0.10403019 0.105484545 0.038527485 0.044798862 0.09472874
-0.012432846 -0.004029436 0.039354544 -0.045030884 0.019718707 0.033602748 0.057991702 0.06557776
-0.007974543 0.04764832 0.049040228 0.012237151 0.07465599 -0.039706178 0.040846366 0.04196888
-0.026902234 0.027909767 0.016512057 -0.0010987691 0.08206417 0.078572325 0.029541787 0.054424543
-0.01044783 -0.019489598 0.025029887 0.059158187 0.06084222 -0.0063869823 0.0016539488 -0.062098194
-0.040103048 0.022148788 0.030237194 0.054639403 -0.009627539 0.03728735 0.07942076 0.022553347
00000000: 283a f03c 625b e9bb cf5c 9e3d 357d 89bd
00000010: 043d 673d 25f3 6abc d8d8 73bd fdf7 283b
00000020: b562 6fbd e0ba 25bd 72aa 60bd e6db a53d
00000030: 8424 6a3d bf5a 8abd 5212 cb3c 18ce 0bbd
00000040: 1316 993d 69cf e4bc 16a8 853d 1464 82bd
00000050: b57e d1bc cbd3 91bd ad11 76bc d8bc 13bb
00000060: 6789 4f3d eef2 1e3d 9487 47bb bbff 983d
00000070: c1ea 59bc 752d a1bd 1f84 943d 1fbf 89bd
00000080: ebe6 8eba 85f6 6a3b c395 c839 f429 de3c
00000090: bf62 ab3c 6538 3cbd a27e 3fbd bc3c 943d
000000a0: f1e4 ea3b 420c a53d cc58 60bd bf85 c73c
000000b0: 522c 873d eb18 5c3c 107f babc 069c 663d
000000c0: b618 853c cb63 9fbd eb04 8d3d ce10 33bd
000000d0: 1c53 82bd 4bab 383c 2b42 363d cc7b 1f3d
000000e0: b892 06bb ce62 97bd 89b5 883d 0ff2 63bd
000000f0: 0ccb 36bd 41b9 dfbc 113e 1c3d 1842 98bd
00000100: bd1d 323d dc1e 67bd e95b 4f3c b0be 403d
00000110: 15e1 3fbd ef0c 1d3d 349a 9a3b 46c9 5a3d
00000120: 290b 583d 3bb3 44bc 25d6 4ebd 929d 85bd
00000130: 7452 c73c de51 d4bc 1c9d 7a3d d033 93bc
00000140: b101 74bc 83b0 453d 53e4 a5bd 5a4f 5cbd
00000150: 527a 703d 356d 29ba 759e cb3c e165 acbb
00000160: 6f8e 08bd 0e79 a6bd a7b8 64bd 2dec 993b
00000170: 05ef 893d 1a7c e93c d884 9d3d 10c8 30bd
00000180: 486d a9bd 1009 a8bc c97a 3cb9 dc48 9dbc
00000190: e553 1dbd 45da 693d 4236 333c 1988 74bd
000001a0: 9b43 85bb 66f2 bd3c 9b87 10bd 4ef7 39bb
000001b0: e53a 8e3d 7ca4 7dbd 7202 8a3c c93e 4c3d
000001c0: 2643 4bbd 1d32 83bd b7d2 d9bc ebec 92bc
000001d0: 3623 ecbb 261a 73bd e6e0 023d 686e 7dbd
000001e0: c1ca 10bd 5725 83bb ce51 4bbc 7c39 b8bc
000001f0: a2b2 a73d c6b8 133d 2316 90bd 15ae 56bd
00000200: c8d1 183d 1a43 ac3c a9d6 0e3d 0e6f 9cbd
00000210: c2af 873d a5f9 133d 0fcc cfbb 325e a0bd
00000220: d130 4a3d 27a6 8f3d c978 bebc 6960 8fbc
00000230: cc07 d93c 7df8 77bd 4cfc 983d f972 18bd
00000240: 3812 733d 706c f1bc bdc9 9d3d a184 8ebc
00000250: 667d 4cbd abba 0f3c af31 323d f2f2 533b
00000260: b307 3abd 4cbe d7bc 5d89 19bc c8e5 41bd
00000270: c1d0 05bb fb3f f4b8 49f1 833d f777 44bc
00000280: 2343 e63c 9bef 9e3d 1d32 d23b de2d 73bd
00000290: cf12 07bd ab02 49bd c9a8 543d a719 763d
000002a0: 8205 da3c ced9 953d 15c5 e83c 2798 9bbd
000002b0: 2ae5 393d 9b45 f73c 5dbf 47bd c0c3 5abd
000002c0: 637c 693d 7887 07bb 8b76 813d 907b a83c
000002d0: b005 3cbd d381 ba3d edfa 673d 109e 33bd
000002e0: aa49 c63a 9f42 013d a6e2 0fbd d238 503d
000002f0: 0798 8f3c cd8b b7bc 8346 d03b 7856 3d3d
00000300: b7bc 653b 6b3a 83bd d7b6 a03d 7a92 413c
00000310: 0d88 d0bb 0758 45bd e95a 63bd 530d eabb
00000320: 9bc2 cc3c 5234 ed3c b5f5 ec3c 4dcd 4c3d
00000330: 69e2 05bd cea8 663d 5acc 4abc dd3d af3d
00000340: 4bc9 283d a0ea 9d3d 51b6 53bd c80d d53d
00000350: 4808 d83d ffce 1d3d 037f 373d 2401 c23d
00000360: 23b3 4bbc 5c09 84bb 3b32 213d 4e72 38bd
00000370: 2089 a13c 09a3 093d b588 6d3d a24d 863d
00000380: a8a7 02bc e32a 433d 68de 483d 557e 483c
00000390: 3de5 983d f2a2 22bd 854e 273d 8fe7 2b3d
000003a0: 1362 dcbc 06a3 e43c 4b44 873c 9304 90ba
000003b0: 4211 a83d 87ea a03d 9e01 f23c 45ec 5e3d
000003c0: 602d 2bbc a6a8 9fbc 7a0b cd3c db4f 723d
000003d0: b135 793d e449 d1bb 50c9 d83a ad5a 7ebd
000003e0: 1843 24bd 6071 b53c feb3 f73c 91cd 5f3d
000003f0: d3bc 1dbc 9fba 183d 5aa7 a23d ccc1 b83c

conv3.bias f4 [32]
-0.038165342 0.150296 0.109401144 -0.05430335 -0.04699393 -0.043831818 0.09362174 0.22262156
0.15648757 -0.03476714 -0.06677854 -0.0714332 0.16770102 -0.084370755 -0.081299394 0.012601109
0.021527123 -0.01654071 0.114712395 -0.045058645 0.01833681 0.057389107 0.37564972 -0.054620896
-0.084201634 0.04673906 0.12699449 0.013809582 -0.00745372 -0.003848304 -0.047060035 -0.06558494
00000000: 4353 1cbd 32e7 193e b50d e03d 316d 5ebd
00000010: b57c 40bd fe88 33bd c1bc bf3d e8f6 633e
00000020: 473e 203e fd67 0ebd 30c3 88bd 924b 92bd
00000030: d1b9 2b3e 93ca acbd 4c80 a6bd e274 4e3c
00000040: a659 b03c 6280 87bc 55ee ea3d 6a8f 38bd
00000050: 1437 963c d710 6b3d 2955 c03e 29ba 5fbd
00000060: e871 acbd 7571 3f3d d80a 023e 9641 623c
00000070: 563e f4bb d433 7cbb 06c2 40bd 6651 86bd

conv4_1.weight f4 [2, 32, 1, 1]
0.042743452 0.024367593 0.22033778 -0.43127537 0.017857503 -0.11730668 0.1355311 0.29117477
-0.98272437 -0.33195958 -0.09218039 -0.19472003 -0.13934927 -0.14210768 -0.08873113 -0.7047975
0.065455206 0.13417037 0.24468428 -0.05781833 0.18241125 0.025875451 0.74000585 -0.13670123
-0.020641197 0.06576787 0.2651523 0.4311462 -0.7596127 0.30739602 -0.049634308 -0.33460814
0.020344883 -0.055831566 0.017699892 0.4305922 0.020726377 -0.17594357 -0.3640518 -0.15915275
0.97014135 0.23251821 -0.0021748266 0.38688806 0.0007828585 0.11258789 0.106859684 0.6384208
0.092231095 0.12068383 -0.05404726 0.13344586 -0.17406553 -0.057190698 -0.7803822 0.13760914
0.06442152 -0.29568055 -0.053021427 -0.55091673 0.7542981 -0.46995103 -0.1333216 0.45270154
00000000: c213 2f3d 8c9e c73c 3aa0 613e 20d0 dcbe
00000010: e649 923c 7c3e f0bd aac8 0a3e dc14 953e
00000020: d393 7bbf 9bf6 a9be 13c9 bcbd b064 47be
00000030: 93b1 0ebe ad84 11be abb8 b5bd 9c6d 34bf
00000040: 610d 863d f563 093e 848e 7a3e ead2 6cbd
00000050: 04ca 3a3e c1f8 d33c 0671 3d3f 68fb 0bbe
00000060: ba17 a9bc 4eb1 863d 0bc2 873e 32bf dc3e
00000070: fa75 42bf 0363 9d3e 584d 4bbd c251 abbe
00000080: 50aa a63c a4af 64bd 5dff 903c 9576 dc3e
00000090: 5dca a93c 8d2a 34be ff64 babe f0f8 22be
000000a0: 2f5b 783f 4119 6e3e 8987 0ebb 3116 c63e
000000b0: bf38 4d3a 7b94 e63d 40d9 da3d 8c6f 233f
000000c0: a8e3 bc3d 1529 f73d a960 5dbd 08a6 083e
000000d0: 3c3e 32be cb40 6abd 21c7 47bf 69e9 0c3e
000000e0: 6eef 833d 7163 97be ff2c 59bd e108 0dbf
000000f0: ae19 413f 6c9d f0be 7585 08be 7fc8 e73e

conv4_1.bias f4 [2]
0.047499616 0.10640295
00000000: f58e 423d cae9 d93d

conv4_2.weight f4 [4, 32, 1, 1]
-0.0939808 -0.081961215 -0.17845246 0.040799607 -0.02684411 -0.15185487 -0.18168801 0.030642835
0.006900532 0.12513298 -0.14950444 0.13073641 0.10350088 0.10570941 0.1769504 -0.07317988
0.1650465 0.15282907 -0.124405526 -0.07570161 0.15492347 0.22978495 -0.05817193 0.09799369
-0.15359849 -0.21957009 0.13058454 0.08419071 -0.14226839 0.13304584 -0.09444633 0.017928725
0.041614667 -0.082992144 -0.20633206 0.10842683 -0.12173148 0.026357979 -0.069303356 -0.034325626
0.025777128 0.062303852 0.07071032 -0.17590503 0.14665058 -0.1480278 0.129441 -0.0014650472
0.15445222 -0.010901184 -0.018826593 -0.07506631 0.082755856 0.07023456 0.04489668 0.101420976
0.07719872 0.2182691 -0.11581431 0.217957 -0.020339763 -0.15769419 -0.093018085 0.0022011725
0.17451032 0.10138806 -0.0059035067 -0.084849 0.15030093 -0.1292962 -0.116741635 0.1177282
0.08007504 0.018004917 -0.096222214 -0.09651087 0.07908377 0.1612674 0.10130213 0.081692725
-0.021533864 -0.16003104 0.16692437 0.15557861 0.117734835 0.10372618 0.20451099 -0.08608356
-0.07976757 0.07002752 0.059966017 -0.041363858 -0.028507171 -0.12536763 0.13055062 0.098424904
0.13017337 -0.039707962 -0.039812293 -0.078997694 0.12909523 -0.08055568 0.10522494 0.22485025
-0.0363299 -0.08284945 -0.00798252 0.08028006 0.09958758 -0.11360594 -0.17379297 0.021565098
0.017637488 0.11516369 0.013862037 -0.13765554 0.076002054 -0.17717981 0.18796916 0.06935436
-0.120731734 -0.046045955 0.09803852 -0.005876713 0.1454701 -0.18265046 0.046345256 -0.019789474
00000000: 0179 c0bd 48db a7bd 3ebc 36be 7d1d 273d
00000010: 2ee8 dbbc d87f 1bbe 6c0c 3abe af06 fb3c
00000020: dc1d e23b dc22 003e b117 19be c4df 053e
00000030: 45f8 d33d 2d7e d83d 7c32 353e 55df 95bd
00000040: f301 293e 397f 1c3e 53c8 febd 7209 9bbd
00000050: 42a4 1e3e bf4c 6b3e b145 6ebd eab0 c83d
00000060: ec48 1dbe fbd6 60be f4b7 053e 2e6c ac3d
00000070: ceae 11be 2b3d 083e 146d c1bd 43df 923c
00000080: 2474 2a3d c9f7 a9bd b648 53be e30e de3d
00000090: 5b4e f9bd b0ec d73c ebee 8dbd 0799 0cbd
000000a0: 8e2a d33c 5332 7f3d 92d0 903d 7320 34be
000000b0: 922b 163e 9994 17be 2e8c 043e d406 c0ba
000000c0: b928 1e3e e19a 32bc 3a3a 9abc 5ebc 99bd
000000d0: e77b a93d 23d7 8f3d 95e5 373d cdb5 cf3d
000000e0: 5d1a 9e3d ef81 5f3e 0e30 edbd 1f30 5f3e
000000f0: 939f a6bc 967a 21be 4480 bebd 8c41 103b
00000100: d5b2 323e 8ba4 cf3d 3472 c1bb 50c5 adbd
00000110: 7de8 193e 3966 04be 3d16 efbd 7c1b f13d
00000120: 62fe a33d 0c7f 933c 2710 c5bd 7ea7 c5bd
00000130: acf6 a13d 4823 253e 7e77 cf3d 844e a73d
00000140: c967 b0bc 2ddf 23be 39ee 2a3e 0050 1f3e
00000150: f61e f13d 646e d43d 546b 513e 944c b0bd
00000160: 2e5d a3bd 976a 8f3d ed9e 753d 266d 29bd
00000170: df87 e9bc 5f60 00be 10af 053e ff92 c93d
00000180: 2b4c 053e d1a4 22bd 3712 23bd 8bc9 a1bd
00000190: 8a31 043e 60fa a4bd 2c80 d73d 253f 663e
000001a0: a9ce 14bd f9ac a9bd 1ec9 02bc df69 a43d
000001b0: 93f4 cb3d 3baa e8bd c9f6 31be 4aa9 b03c
000001c0: 7e7c 903c f1da eb3d 991d 633c 93f5 0cbe
000001d0: f7a6 9b3d a06e 35be fd7a 403e a909 8e3d
000001e0: 3342 f7bd af9a 3cbd 6bc8 c83d 7191 c0bb
000001f0: 1df6 143e b908 3bbe 86d4 3d3d 891d a2bc

conv4_2.bias f4 [4]
0.100423954 -0.070262626 0.5086372 0.5273784
00000000: 13ab cd3d dae5 8fbd 0c36 023f 4502 073f

conv4_3.weight f4 [10, 32, 1, 1]
0.15475167 0.08873235 -0.114477195 -0.052823275 -0.12803091 0.0228717 -0.041520078 -0.09016863
0.033747274 0.11922661 0.039487638 -0.0648263 0.12213345 0.14393808 0.069454364 0.105818704
-0.023289174 -0.13810004 -0.041722443 0.034342766 0.14439051 0.04650858 0.048706897 -0.050738547
0.13599876 0.060870204 0.1607356 -0.01207481 -0.096274756 -0.14471008 -0.029977448 -0.13310412
0.06684905 0.0127984 0.064668745 -0.089507535 -0.10025909 0.16494976 0.05953595 0.10108415
0.13672054 0.14053462 0.076301895 0.058361042 0.07538701 -0.13630141 -0.0093409605 -0.09677115
0.0054606968 0.028076017 -0.12260772 0.053327445 -0.0917859 0.027783955 0.06608425 0.03305864
0.002005011 0.039833527 -0.053950746 -0.13382818 -0.08685334 0.07880678 -0.15667742 -0.017858848
-0.048332047 0.019647736 0.0046954816 0.029142862 0.15662543 -0.006433226 0.050781768 0.13039148
0.101071425 0.17669588 0.09175544 0.07270247 0.011714907 0.17477256 -0.15236863 -0.090683885
-0.16513234 0.14053236 -0.025288682 -0.11222183 -0.07790324 -0.019587152 0.15771024 -0.09977701
-0.051599104 -0.14285932 0.049695205 -0.05318128 -0.051456288 -0.071346655 -0.12559661 -0.016125942
0.15571794 0.114499316 -0.007893178 -0.14965788 0.10333109 -0.029932912 -0.14665043 0.092539564
-0.04899457 -0.054236863 -0.15438366 0.028799431 0.020862224 -0.16401711 0.14881305 -0.013800753
0.12274317 0.17378753 -0.14676197 0.045785863 -0.07056584 -0.023978192 0.04461127 0.0071870275
0.055522136 0.17167617 0.16005324 -0.1278504 0.07609142 -0.07241965 0.05563787 0.09498587
-0.13664986 -0.059617944 0.12219182 0.033252027 0.015104911 0.08619892 0.01252479 0.14008126
0.015974818 0.050006658 -0.12914103 0.12406554 0.1200621 0.073889926 -0.14063603 -0.06575876
-0.0869855 0.024601048 -0.12520587 0.11691236 -0.1314844 -0.12527697 0.15546565 -0.13446878
-0.029016957 -0.13832822 -0.14217876 -0.17987935 -0.046703253 0.07650924 0.007014588 -0.06508353
-0.08689013 0.19220878 0.07074369 -0.0776117 -0.08587992 -0.11311384 -0.08943538 0.05802714
0.090760164 -0.045677252 -0.1535962 -0.046116665 0.19368011 0.095906936 -0.07075645 0.11749421
0.11186936 0.13036358 0.09424914 -0.10712816 -0.090845585 0.1361776 0.11664587 0.021102265
0.12662354 -0.08862343 -0.03551158 -0.090368345 -0.114602946 -0.020978712 -0.07500806 -0.04442904
0.038204327 0.004861806 0.09209708 -0.05716584 0.103399485 0.16862278 -0.09890247 -0.03204092
0.09480162 -0.15426894 -0.105136946 -0.032171432 -0.009986313 0.14277717 0.063998 -0.0658212
-0.14167236 0.16704811 -0.15568285 0.15322919 0.13831891 0.1784498 -0.071090125 0.13747157
0.032588888 0.14706804 -0.045242723 0.12901875 0.054889414 0.06357664 0.117077105 0.043022703
0.14018384 0.14514862 0.055562098 0.033579778 0.17306703 0.030061567 0.18440095 -0.052905586
0.10424035 -0.07078894 0.14794919 -0.034535035 0.131366 -0.1365174 0.11114274 -0.13529447
-0.17408799 -0.10432714 -0.04942068 0.15350324 -0.06806407 0.1319413 0.008940102 0.05367535
-0.09085555 0.111117564 0.21096425 0.019467918 0.0799762 -0.09280465 -0.1310103 0.11095202
00000000: 3977 1e3e 4eb9 b53d 0573 eabd 385d 58bd
00000010: 891a 03be 6e5d bb3c f510 2abd 55aa b8bd
00000020: 953a 0a3d 152d f43d cabd 213d a7c3 84bd
00000030: 1a21 fa3d 8164 133e 173e 8e3d 7ab7 d83d
00000040: f0c8 bebc 196a 0dbe 27e5 2abd 00ab 0c3d
00000050: 1bdb 133e c87f 3e3d e280 473d 39d3 4fbd
00000060: 4243 0b3e 0953 793d e097 243e 6dd5 45bc
00000070: b32b c5bd e12e 14be 4493 f5bc 724c 08be
00000080: 28e8 883d 61b0 513c 0c71 843d ba4f b7bd
00000090: a354 cdbd 97e8 283e f8db 733d 3505 cf3d
000000a0: 7800 0c3e 4fe8 0f3e 2b44 9c3d fd0b 6f3d
000000b0: 8164 9a3d 9992 0bbe d40a 19bc f42f c6bd
000000c0: a5ef b23b adff e53c c219 fbbd e16d 5a3d
000000d0: 3ffa bbbd 2d9b e33c 2e57 873d 7f68 073d
000000e0: 8166 033b 7b28 233d 75fb 5cbd 410a 09be
000000f0: 2ae0 b1bd 7365 a13d 0c70 20be b84c 92bc
00000100: d3f7 45bd 4af4 a03c 8edc 993b 03bd ee3c
00000110: 6b62 203e d0cd d2bb 8b00 503d 5885 053e
00000120: 89fe ce3d c4ef 343e 47ea bb3d 08e5 943d
00000130: e2ef 3f3c 94f7 323e 8606 1cbe 79b8 b9bd
00000140: 7418 29be b7e7 0f3e 362a cfbc 8fd4 e5bd
00000150: bc8b 9fbd 3c75 a0bc cb7e 213e e457 ccbd
00000160: 9559 53bd b749 12be 338d 4b3d 9dd4 59bd
00000170: d4c3 52bd 321e 92bd 669c 00be 8d1a 84bc
00000180: 8674 1f3e 9e7e ea3d 6352 01bc ea3f 19be
00000190: 409f d33d de35 f5bc 882b 16be 6285 bd3d
000001a0: 88ae 48bd 7927 5ebd c016 1ebe c9ec eb3c
000001b0: 41e7 aa3c 1af4 27be 7362 183e 8e1c 62bc
000001c0: c560 fb3d 5cf5 313e c548 16be f589 3b3d
000001d0: d384 90bd ea6d c4bc 4fba 363d 2881 eb3b
000001e0: 2e6b 633d e1cb 2f3e ffe4 233e 37eb 02be
000001f0: d2d5 9b3d c150 94bd 89e4 633d f487 c23d
00000200: f1ed 0bbe f231 74bd b43f fa3d 4733 083d
00000210: 977a 773c 0f89 b03d c734 4d3c 7671 0f3e
00000220: 9fdd 823c c8d3 4c3d 8c3d 04be 1316 fe3d
00000230: 1ee3 f53d 9a53 973d e402 10be 87ac 86bd
00000240: 7425 b2bd 2388 c93c f835 00be bf6f ef3d
00000250: d9a3 06be 9b48 00be 6332 1f3e 2fb2 09be
00000260: f8b4 edbc eaa5 0dbe 4f97 11be 4b32 38be
00000270: e94b 3fbd e0b0 9c3d a1da e53b 844a 85bd
00000280: 74f3 b1bd 61d2 443e 11e2 903d e2f2 9ebd
00000290: d0e1 afbd 3ba8 e7bd e629 b7bd dead 6d3d
000002a0: 77e0 b93d 1218 3bbd 5248 1dbe d4e4 3cbd
000002b0: 1454 463e db6a c43d c2e8 90bd cea0 f03d
000002c0: c31b e53d 087e 053e b105 c13d 0266 dbbd
000002d0: 400d babd 2472 0b3e 08e4 ee3d a8de ac3c
000002e0: 9aa9 013e 3380 b5bd 9774 11bd 0a13 b9bd
000002f0: f3b4 eabd 8cdb abbc d39d 99bd 3afb 35bd
00000300: 247c 1c3d c94f 9f3b 659d bc3d ba26 6abd
00000310: 1cc3 d33d 73ab 2c3e 618d cabd 573d 03bd
00000320: 5a27 c23d adf8 1dbe 0a52 d7bd 31c6 03bd
00000330: a29d 23bc 2e34 123e 6211 833d 44cd 86bd
00000340: 8f12 11be a90e 2b3e 536b 1fbe 1de8 1c3e
00000350: 79a3 0d3e 8bbb 363e b397 91bd 59c5 0c3e
00000360: ed7b 053d 0199 163e 6f50 39bd 7e1d 043e
00000370: b9d3 603d 7834 823d 1fc6 ef3d 9338 303d
00000380: 5a8c 0f3e d7a1 143e 1595 633d f38a 093d
00000390: 7c38 313e ad43 f63c 9ad3 3c3e 87b3 58bd
000003a0: f77b d53d cbf9 90bd fe7f 173e 9c74 0dbd
000003b0: cf84 063e 38cb 0bbe ce9e e33d a28a 0abe
000003c0: 1f44 32be 78a9 d5bd 576d 4abd f42f 1d3e
000003d0: 2d65 8bbd 9f1b 073e 8179 123c afda 5b3d
000003e0: 7912 babd 9b91 e33d 0307 583e 2f7b 9f3c
000003f0: 90ca a33d 5d10 bebd 9027 06be d03a e33d

conv4_3.bias f4 [10]
0.09735029 0.19021587 0.24894775 0.21401818 0.20298855 0.18043384 0.2351996 0.2523426
0.124652565 0.3145141
00000000: 975f c73d f3c7 423e 29ec 7e3e 9527 5b3e
00000010: 3bdc 4f3e a6c3 383e 2ad8 703e 0d33 813e
00000020: d849 ff3d fe07 a13e
