Pytorch face detection - Test/MTCNN_train_process/1/checkpoint_200.pth (torch, 111347 bytes, 36 tensors)

conv1.weight f4 [10, 3, 3, 3]
-0.012899204 -0.08415262 0.07699549 0.05466531 0.14037505 0.09070425 -0.056885462 -0.21874318
-0.055726387 -0.14369918 0.017226242 0.10352522 0.06325882 0.21644767 0.07842685 0.079011515
0.018139943 -0.18718033 -0.039505303 0.18264169 -0.08023428 0.121843606 0.06993889 0.21540663
0.011767982 -0.0023176249 -0.089199446 -0.22647806 -0.18097462 -0.19413868 -0.23244262 -0.07745317
0.009434072 -0.071482636 -0.10814946 -0.19757675 0.2724587 0.0999092 0.17308858 0.09944822
0.185837 0.054073185 0.15572886 0.15876764 0.19809873 0.1327688 0.04986896 -0.014944316
0.04135955 0.032666076 0.080755316 0.028728427 -0.0059066094 0.015240674 0.20255065 0.17305337
0.16992286 0.2895135 0.057495065 0.24828884 0.31250134 -0.13938917 0.09582289 0.26789442
0.16338274 0.03872137 0.0035903878 -0.3700179 -0.19148019 0.08554722 -0.3232586 0.042454667
-0.016319761 0.122113936 0.16449885 -0.026960365 -0.120000675 -0.22410877 -0.02524172 -0.20304598
0.1104132 0.10337821 -0.18998732 0.08971594 0.115665674 -0.15821098 -0.06019137 0.080128364
-0.16913684 -0.1961342 0.14148173 -0.045595124 0.27868703 0.06571433 0.09646971 0.16909839
-0.13052528 -0.11342271 -0.1128425 0.007387629 -0.06463 0.030920349 -0.23502184 -0.019125981
0.09178612 -0.0064311842 0.06898181 0.10615599 -0.19522627 -0.036224745 0.10588603 -0.14133799
-0.097733185 -0.022997214 -0.15880276 -0.05808892 -0.049460247 0.23612781 0.0008094476 0.10179707
0.23109111 0.1650077 -0.092309855 0.18893774 0.19242847 -0.075717665 -0.031809032 0.11315188
-0.21330161 -0.061778963 -0.041756727 0.115792185 -0.021544691 -0.091287084 0.119844936 0.10574647
-0.024343377 -0.35402575 0.2514834 0.10771822 -0.17830323 -0.015961107 0.28248477 0.15462674
-0.021591153 0.0047226935 -0.2916617 0.08955505 0.20347367 -0.1602803 -0.044494867 0.043678008
-0.17806219 0.023225779 -0.13841091 -0.21717113 -0.07717055 0.08458862 0.14203224 0.08073266
0.0009426288 0.0993969 0.05060551 -0.17017572 0.022184212 0.14705908 -0.043602515 0.043409035
-0.07179365 -0.1266734 -0.14000146 0.09142369 0.20224126 0.024783436 -0.09310547 0.15093644
-0.04398132 0.088428795 0.23332831 0.11954676 -0.13825637 -0.040944204 0.08037214 0.030047515
-0.12772903 -0.0633818 -0.08487411 0.071709484 0.14472349 0.16193275 0.15665136 -0.14293046
0.22489373 0.17338671 0.023224536 0.013480283 0.091808535 -0.060712878 0.03711927 0.12120609
-0.2831362 -0.20745248 -0.16208635 -0.26122776 -0.10077146 -0.06839319 -0.044400927 0.059087075
0.099521026 -0.08360219 -0.084515825 0.025348734 0.09401061 0.006827877 -0.13419375 0.15675163
-0.20354441 -0.24812725 -0.099391714 0.15038078 0.018893234 -0.07545601 0.22603664 0.20893733
0.10574504 -0.20298547 -0.15740891 0.077026725 0.08401871 -0.07971489 0.056218795 0.049924474
0.06950191 0.057756435 -0.14924558 -0.037526548 -0.09370472 0.012921562 -0.009445138 0.016610103
0.027519451 0.17611678 -0.023208648 -0.30961078 0.18615313 0.13234504 -0.065341935 0.16573592
0.0062822117 -0.18978521 -0.13233961 -0.0080806855 0.11390921 -0.11899456 -0.0682647 0.066340156
00000000: 2f57 53bc 3558 acbd d0af 9d3d bbe8 5f3d
00000010: 7abe 0f3e 26c3 b93d bb00 69bd 36fe 5fbe
00000020: 5a41 64bd e125 13be 0c1e 8d3c 0805 d43d
00000030: d78d 813d 75a4 5d3e 429e a03d cad0 a13d
00000040: 389a 943c 33ac 3fbe 50d0 21bd 6c06 3b3e
00000050: df51 a4bd 2489 f93d 1f3c 8f3d 8e93 5c3e
00000060: 7ece 403c 4be3 17bb 33ae b6bd dde9 67be
00000070: 6951 39be 4acc 46be 7005 6ebe c59f 9ebd
00000080: 5e91 1a3c 7d65 92bd 777d ddbd 8f51 4abe
00000090: b57f 8b3e 329d cc3d 223e 313e 82ab cb3d
000000a0: 0e4c 3e3e d87b 5d3d 6377 1f3e fc93 223e
000000b0: 65da 4a3e 8bf4 073e 6543 4c3d 01d9 74bc
000000c0: a268 293d ddcc 053d 0b63 a53d e157 eb3c
000000d0: 3b8c c1bb 05b4 793c 7069 4f3e e734 313e
000000e0: 4200 2e3e 1d3b 943e f27f 6b3d 6e3f 7e3e
000000f0: 2d00 a03e 09bc 0ebe cb3e c43d 7529 893e
00000100: ce4d 273e 4d9a 1e3d b64c 6b3b fc72 bdbe
00000110: 6213 44be 6233 af3d 2782 a5be f2e4 2d3d
00000120: 05b1 85bc df16 fa3d 6372 283e fcdb dcbc
00000130: eac2 f5bd c57c 65be b9c7 cebc 49eb 4fbe
00000140: 5120 e23d f4b7 d33d 098c 42be febc b73d
00000150: 20e2 ec3d 0f02 22be 3a8b 76bd 571a a43d
00000160: 3532 2dbe 67d7 48be 96e0 103e f4c1 3abd
00000170: 11b0 8e3e 3c95 863d e991 c53d 2128 2d3e
00000180: 6ba8 05be 2a4a e8bd f819 e7bd ec13 f23b
00000190: bc5c 84bd ac4c fd3c 91a9 70be 17ae 9cbc
000001a0: 5cfa bb3d afbc d2bb 5646 8d3d 5068 d93d
000001b0: 65e9 47be 6660 14bd c6da d83d e8ba 10be
000001c0: 5628 c8bd a764 bcbc 319d 22be a6ee 6dbd
000001d0: d496 4abd 7dcb 713e 1c31 543a fb7a d03d
000001e0: 26a3 6c3e c7f7 283e f30c bdbd e578 413e
000001f0: f80b 453e dd11 9bbd 304a 02bd 2cbc e73d
00000200: bd6b 5abe f00b 7dbd 1a09 2bbd 7424 ed3d
00000210: 7e7e b0bc b9f4 babd 4371 f53d 9b91 d83d
00000220: c36b c7bc dd42 b5be 6fc2 803e 5f9b dc3d
00000230: 1f95 36be dec0 82bc d8a1 903e 7956 1e3e
00000240: eedf b0bc d3c0 9a3b af54 95be a368 b73d
00000250: 675b 503e 8520 24be 4040 36bd b6e7 323d
00000260: ef55 36be fd43 be3c 97bb 0dbe 1c62 5ebe
00000270: 980b 9ebd cc3c ad3d e670 113e 2a57 a53d
00000280: bf1a 773a 9a90 cb3d b947 4f3d 8b42 2ebe
00000290: aabb b53c a896 163e 8d98 32bd accd 313d
000002a0: 8d08 93bd acb6 01be 8b5c 0fbe 583c bb3d
000002b0: 5518 4f3e a206 cb3c 15ae bebd 158f 1a3e
000002c0: c225 34bd 281a b53d 9eed 6e3e efd4 f43d
000002d0: 1493 0dbe 1cb5 27bd 269a a43d 3526 f63c
000002e0: 66cb 02be 51ce 81bd 7ad2 adbd 6cdc 923d
000002f0: 6532 143e b3d1 253e 3769 203e 5d5c 12be
00000300: 8b4a 663e 498c 313e 6241 be3c 68dc 5c3c
00000310: 1d06 bc3d 11ae 78bd 600a 183d e63a f83d
00000320: 3af7 90be 6c6e 54be f7f9 25be a5bf 85be
00000330: 4461 cebd bb11 8cbd bfdd 35bd 4a05 723d
00000340: aed1 cb3d a037 abbd a216 adbd 26a8 cf3c
00000350: a288 c03d 62bc df3b 166a 09be 8083 203e
00000360: f26d 50be 1215 7ebe e28d cbbd 6bfd 193e
00000370: fcc5 9a3c ae88 9abd 2676 673e abf3 553e
00000380: db90 d83d 6cdb 4fbe cd2f 21be 30c0 9d3d
00000390: 0012 ac3d 8f41 a3bd ae45 663d 9b7d 4c3d
000003a0: 0457 8e3d 0392 6c3d d5d3 18be 70b5 19bd
000003b0: 43e8 bfbd f6b4 533c c8bf 1abc e911 883c
000003c0: 7970 e13c f557 343e 1020 bebc 4e85 9ebe
000003d0: ed9e 3e3e 7585 073e fed1 85bd adb6 293e
000003e0: 03db cd3b 0e57 42be 0984 07be da64 04bc
000003f0: 3b49 e93d 6bb3 f3bd 5dce 8bbd 59dd 873d

conv1.bias f4 [10]
0.13712512 0.091245584 0.036034036 0.022678554 -0.1310003 0.06670674 0.0028407772 0.10424223
0.0039364635 0.30307537
00000000: 876a 0c3e f7de ba3d 6d98 133d 60c8 b93c
00000010: f124 06be 8b9d 883d 552c 3a3b f37c d53d
00000020: 73fd 803b b22c 9b3e

conv2.weight f4 [16, 10, 3, 3]
0.09912794 0.021713058 -0.018103058 -0.028329555 0.10008606 -0.046735357 0.037236385 -0.012821597
0.07556811 -0.058167163 0.075565934 0.21080787 -0.05127838 0.043729052 0.14184552 -0.24080022
0.1612274 0.033397287 -0.009927878 0.086877555 0.011885174 -0.102030605 0.060660448 -0.039012767
0.008152361 0.13954741 0.13954046 0.20202279 0.13416144 0.3714581 0.37879738 0.300061
0.12106751 -0.0064466577 0.21489708 0.26132935 -0.050048452 0.019909818 -0.1940463 0.10368326
0.098577745 -0.08986182 0.00486537 0.23627718 0.24542016 -0.23939872 0.12677631 0.111895494
0.008475682 0.18944249 0.026173875 -0.05573886 0.18412003 0.13377541 -0.17501575 0.011709184
0.12914965 -0.24631143 -0.04242872 -0.1015107 -0.16169666 -0.21738002 -0.12275977 -0.0070508057
0.21295205 0.11473669 -0.1129234 0.0942453 -0.0064894306 -0.03588518 -0.17850342 -0.14159645
0.075809546 0.029636472 0.2017691 0.291635 0.10816229 0.104666874 0.025517026 -0.034616075
0.018444348 -0.2637991 -0.042176165 -0.0007789282 -0.13164815 0.12576692 0.07440565 -0.3022787
-0.19488136 -0.04536514 -0.058868565 -0.08181194 0.026340675 0.03101273 -0.054795552 0.0072122063
-0.06381853 -0.07646384 -0.07363312 0.037587136 0.07262926 -0.115192205 -0.06608272 0.08494663
-0.02300142 -0.02423248 0.014622941 -0.14385056 -0.0072186845 -0.04447522 -0.023116142 0.113156565
-0.071924694 0.026266456 0.18365656 -0.040932916 0.053338245 0.12502973 -0.015904866 -0.04040982
0.057742838 0.1043692 0.0034813758 0.11828683 -0.04699279 0.017700873 -0.17768839 -0.16728553
0.09053495 -0.080496885 -0.10951371 -0.0887494 -0.09409765 -0.013301658 0.06926703 -0.029748417
0.038923085 0.074318886 -0.1468961 -0.043777853 0.1572249 -0.09236925 0.13610278 0.06685274
0.1498496 0.056989525 0.04048047 0.14137337 0.09378321 0.10319711 -0.016687723 0.15332411
0.004755913 0.024672186 -0.04752304 0.08640156 -0.08568542 -0.27603343 -0.18533005 -0.22772239
-0.2391312 -0.17156349 0.05779963 0.07290576 0.0024506333 0.096520014 -0.000917029 0.0447826
-0.023591427 -0.09023476 -0.052471165 0.044452544 0.097793885 0.093877316 0.013096669 0.10655064
0.0872913 -0.030020347 -0.017526472 0.15864152 0.07986335 0.122316964 -0.03891837 0.01655813
0.09488726 -0.0057914113 0.025264286 -0.031018766 0.01659114 0.13460834 -0.054818768 0.09060249
0.06733766 -0.16101615 -0.05158988 0.015988039 -0.16058658 -0.065072455 0.16998082 0.095806606
0.037620205 0.15659511 0.074092776 0.09856226 -0.021767918 0.08806807 0.11225864 -0.18985435
-0.112681516 0.07230228 -0.14708039 0.036141064 -0.1518463 -0.24466573 -0.20107107 -0.16109258
0.057487432 -0.007299363 0.03642598 -0.0558025 0.102728084 0.19614704 0.11314781 -0.013481131
0.015623799 -0.04321851 0.023814963 0.14249083 0.12445875 0.22598456 0.17851041 0.024681542
0.1460873 -0.06468752 -0.088817775 -0.14616308 0.07801328 -0.020866392 -0.013169046 -0.05456578
-0.12378109 -0.06464832 -0.107872 -0.35639077 -0.25898033 -0.10590237 -0.20230955 -0.21996698
-0.08219057 -0.11462029 -0.07798105 -0.010666029 0.14014883 0.2258591 0.19679993 0.15631112
00000000: 9703 cb3d 95df b13c dd4c 94bc 6213 e8bc
00000010: ecf9 cc3d 936d 3fbd 2e85 183d ad11 52bc
00000020: 74c3 9a3d b140 6ebd 50c2 9a3d 05de 573e
00000030: 4709 52bd 3c1d 333d f43f 113e 5594 76be
00000040: cc18 253e 98cb 083d 8aa8 22bc dcec b13d
00000050: 08ba 423c 6cf5 d0bd 1777 783d dacb 1fbd
00000060: 7b91 053c 84e5 0e3e b2e3 0e3e 10df 4e3e
00000070: 9e61 093e c22f be3e bbf1 c13e 98a1 993e
00000080: 3ef2 f73d 7c3e d3bb fb0d 5c3e f6cc 853e
00000090: 9bff 4cbd ea19 a33c 13b4 46be e457 d43d
000000a0: 21e3 c93d 7909 b8bd af6d 9f3b a5f2 713e
000000b0: 6c4f 7b3e f024 75be a6d1 013e 7729 e53d
000000c0: 96dd 0a3c 36fd 413e 986a d63c 6e4e 64bd
000000d0: f689 3c3e 6cfc 083e 5437 33be e1d7 3f3c
000000e0: ce3f 043e 1039 7cbe bdc9 2dbd d8e4 cfbd
000000f0: cf93 25be de98 5ebe 7969 fbbd 720a e7bb
00000100: 1a10 5a3e 12fb ea3d 6244 e7bd ae03 c13d
00000110: 4aa5 d4bb 57fc 12bd 9ac9 36be a9fe 10be
00000120: 0942 9b3d 30c8 f23c 8f9c 4e3e 2f51 953e
00000130: 3184 dd3d 965b d63d 1509 d13c 96c9 0dbd
00000140: 9a18 973c ad10 87be eac0 2cbd fd30 4cba
00000150: c6ce 06be 0bc9 003e fd61 983d 46c4 9abe
00000160: fb8e 47be ccd0 39bd 2a20 71bd 058d a7bd
00000170: 66c8 d73c 690e fe3c 4d71 60bd 5f54 ec3b
00000180: 4ab3 82bd 1399 9cbd f6cc 96bd f8f4 193d
00000190: a6be 943d e4e9 ebbd 6156 87bd 80f8 ad3d
000001a0: 796d bcbc 3283 c6bc 0f95 6f3c 904d 13be
000001b0: b78a ecbb a62b 36bd 105e bdbc a1be e73d
000001c0: 414d 93bd c02c d73c 7710 3c3e 46a9 27bd
000001d0: 3479 5a3d cb07 003e ec4a 82bc c484 25bd
000001e0: c183 6c3d 85bf d53d cb27 643b 5e40 f23d
000001f0: 837b 40bd 6c01 913c f2f3 35be e64c 2bbe
00000200: 636a b93d 8ddb a4bd b948 e0bd 3fc2 b5bd
00000210: 45b6 c0bd 33ef 59bc dfdb 8d3d f4b2 f3bc
00000220: d06d 1f3d 8034 983d ee6b 16be 6850 33bd
00000230: 90ff 203e 172c bdbd 875e 0b3e 17ea 883d
00000240: 2c72 193e d96d 693d d9ce 253d 2ec4 103e
00000250: 6911 c03d 0259 d33d b1b4 88bc ff00 1d3e
00000260: 7dd7 9b3b 531d ca3c 85a7 42bd 4df3 b03d
00000270: d67b afbd 4154 8dbe 29c7 3dbe 0f30 69be
00000280: cfde 74be 57ae 2fbe 4ebf 6c3d 9d4f 953d
00000290: ce9a 203b 49ac c53d c664 70ba f66d 373d
000002a0: cf42 c1bc 00cd b8bd 01ec 56bd df13 363d
000002b0: 2948 c83d c042 c03d 6993 563c 3937 da3d
000002c0: c8c5 b23d 3bed f5bc ad93 8fbc ec72 223e
000002d0: 658f a33d 5181 fa3d de68 1fbd eaa4 873c
000002e0: 4054 c23d e1c5 bdbb 0cf7 ce3c 111b febc
000002f0: 24ea 873c c5d6 093e a589 60bd cc8d b93d
00000300: 54e8 893d 6be1 24be e94f 53bd 59f9 823c
00000310: cf70 24be b544 85bd 740f 2e3e 4136 c43d
00000320: a517 1a3d 785a 203e f4bd 973d 03db c93d
00000330: a252 b2bc 085d b43d dce7 e53d 2e69 42be
00000340: 91c5 e6bd 3813 943d 3e9c 16be a708 143d
00000350: 997d 1bbe a789 7abe 93e5 4dbe 74f5 24be
00000360: f177 6b3d 7f2f efbb 6933 153d 2a91 64bd
00000370: 1a63 d23d c5da 483e 0aba e73d f6df 5cbc
00000380: f6fa 7f3c e405 31bd 9917 c33c 1ee9 113e
00000390: 3be4 fe3d 7f68 673e 6fcb 363e f230 ca3c
000003a0: e997 153e e47a 84bd 18e6 b5bd c6ab 15be
000003b0: 6dc5 9f3d ffef aabc fbc2 57bc 5e80 5fbd
000003c0: f180 fdbd 5766 84bd ffeb dcbd da78 b6be
000003d0: 1299 84be 57e3 d8bd 3c2a 4fbe 063f 61be
000003e0: 8853 a8bd 0bbe eabd 87b4 9fbd 91c0 2ebc
000003f0: 2d83 0f3e 9c47 673e ec85 493e 0610 203e

conv2.bias f4 [16]
0.057581294 -0.008190656 0.08040632 0.14146955 -0.08115351 -0.0101307165 0.082435004 -0.10445628
0.039521854 -0.016698012 -0.12463327 -0.037936058 0.0873758 0.197164 0.14207225 0.09306253
00000000: 5dda 6b3d 1a32 06bc 12ac a43d 65dd 103e
00000010: d033 a6bd 4efb 25bc afd3 a83d 2ded d5bd
00000020: abe1 213d 45ca 88bc ba3f ffbd d762 1bbd
00000030: 15f2 b23d 5ce5 493e 637b 113e 9197 be3d

conv3.weight f4 [32, 16, 3, 3]
-0.078188635 0.09709973 -0.026819859 -0.16262852 -0.089796625 -0.059409305 -0.24397032 -0.1375729
-0.08305415 -0.2652965 -0.22608167 -0.35939297 -0.18740295 -0.31217542 -0.42717585 -0.35011256
-0.5476762 -0.363619 0.11320923 0.11137311 -3.376963e-05 0.13973847 -0.0059367614 0.011968957
0.10399829 -0.022479014 -0.1030072 0.20551595 -0.0089191925 -0.0734046 0.010099183 0.04683963
-0.13357806 0.048130747 -0.16004047 -0.17380328 0.012205765 -0.12333157 -0.06869542 0.024761204
-0.14813395 -0.08792383 0.064408794 -0.06332886 0.066705845 0.06901956 -0.071637616 0.07368753
0.052328765 -0.04823181 -0.128635 0.038233466 -0.036136378 -0.0123971645 -0.03496895 0.08069056
0.11902948 -0.05216572 0.06869273 0.05435264 -0.044547234 -0.035765868 0.030693267 -0.0653871
0.055613868 -0.052350666 0.045984477 0.019416023 0.0532927 -0.038192008 0.062365275 0.007150341
-0.18522961 -0.46650156 -0.5374048 -0.44148818 -0.45652422 -0.522931 -0.13689628 -0.1637771
-0.19819789 0.08667136 0.07169378 0.008619908 -0.01227719 -0.10300077 0.06949938 0.11115184
-0.06508839 0.09791152 -0.19613208 -0.14383076 -0.23480181 -0.099136144 -0.10525673 -0.26053214
-0.13266133 -0.13315088 -0.19723047 0.14888044 0.14635052 0.10432697 0.01298902 -0.030751366
-0.031213365 -0.052089956 -0.002801869 0.07128166 0.18733579 0.005216674 -0.07279248 0.11536278
0.0732263 -0.034466695 0.1422445 -0.04329678 -0.051720787 0.032860294 0.050348025 0.023026269
-0.041126277 0.067607194 0.12599567 0.11527684 0.030611763 0.18078183 0.16175286 0.088158876
0.11081628 0.10779846 0.10155261 0.033003435 -0.012819955 0.04478423 -0.03913791 -0.049084574
-0.21968901 -0.26617226 -0.044938967 -0.2608865 -0.16896583 0.07746631 -0.22686273 -0.3242568
0.1324623 -0.07369899 0.08103179 0.0879673 -0.0063444735 0.07343992 0.16605148 0.09128345
0.051063523 0.22796619 0.13681743 0.2813583 0.17674375 0.07997171 0.052136526 0.21870197
0.046154644 0.064338095 -0.020593049 0.06955341 0.013469788 -0.023912217 -0.039922874 0.062375
0.01566556 0.07619001 -0.008677832 -0.004178835 0.016566519 0.14661145 0.04024775 0.099091016
0.0080959145 -0.014679815 0.018992133 0.07889885 0.047538232 -0.032403123 -0.05360041 -0.008313344
0.08641764 0.057939082 -0.10838919 -0.06729588 -0.14921552 0.08779497 0.15712877 0.07936878
0.15737058 0.06665418 0.12525159 0.11105716 0.065014765 -0.02149526 -0.04118484 0.09589259
0.007534202 -0.034139052 0.07617315 0.027408173 0.017946076 0.03091026 -0.011002555 0.062411048
0.00027131304 -0.07604697 -0.054379534 -0.0042630453 -0.05454601 0.011193857 0.05774269 -0.019549403
0.13028474 0.20626928 0.16816378 0.4139797 0.22341822 0.1803415 0.281349 0.16195245
0.17212842 -0.0645014 -0.07037269 -0.09234477 -0.06368954 -0.055454295 0.028348679 -0.07793448
-0.047311135 -0.086753264 0.2417378 0.19489007 0.21146445 0.088915616 0.16767381 0.20836514
0.08493753 0.08457978 -0.0033523687 -0.07638298 -0.046341535 -0.1158108 0.057809725 0.05057489
0.024535477 0.078011245 0.019959109 0.019002942 -0.06740314 0.08101267 0.0035526992 -0.003168832
00000000: 5d21 a0bd 39dc c63d 52b5 dbbc 1788 26be
00000010: 4be7 b7bd 2c57 73bd 5bd3 79be e9df 0cbe
00000020: 4b18 aabd f1d4 87be f481 67be 5b02 b8be
00000030: 8fe6 3fbe 75d5 9fbe cbb6 dabe f441 b3be
00000040: 8234 0cbf 452c babe 3eda e73d 9617 e43d
00000050: dda3 0db8 9a17 0f3e 2a89 c2bb 7219 443c
00000060: 0efd d43d e925 b8bc 70f5 d2bd c672 523e
00000070: ce21 12bc 2755 96bd 0b77 253c e9da 3f3d
00000080: b0c8 08be bf24 453d a6e1 23be 7df9 31be
00000090: b0fa 473c 4395 fcbd 2fb0 8cbd 02d8 ca3c
000000a0: 6db0 17be 6911 b4bd c2e8 833d 90b2 81bd
000000b0: 139d 883d 215a 8d3d beb6 92bd 7de9 963d
000000c0: b056 563d b88e 45bd e5b8 03be b29a 1c3d
000000d0: bd03 14bd 7a1d 4bbc 9a3b 0fbd 1841 a53d
000000e0: bac5 f33d b9ab 55bd c6ae 8c3d e0a0 5e3d
000000f0: 2977 36bd 3b7f 12bd 7270 fb3c ace9 85bd
00000100: 5ecb 633d a76d 56bd 385a 3c3d 5a0e 9f3c
00000110: 7249 5a3d 396f 1cbd bb72 7f3d 684d ea3b
00000120: d5ac 3dbe 4bd9 eebe 5c93 09bf bd0a e2be
00000130: 8bbd e9be cede 05bf 8a2e 0cbe 2fb5 27be
00000140: 63f4 4abe c180 b13d 30d4 923d 843a 0d3c
00000150: 4426 49bc 11f2 d2bd b155 8e3d 93a3 e33d
00000160: 104d 85bd d685 c83d d9d6 48be 5f48 13be
00000170: e36f 70be e407 cbbd d790 d7bd 7864 85be
00000180: 5fd8 07be b458 08be c9f6 49be 1d74 183e
00000190: e9dc 153e 61a9 d53d e6cf 543c 4aea fbbc
000001a0: 2cb3 ffbc 475c 55bd 909f 37bb 1efc 913d
000001b0: f4d4 3f3e a2f0 aa3b 3914 95bd 5243 ec3d
000001c0: acf7 953d f32c 0dbd 8ba8 113e f757 31bd
000001d0: 2dd9 53bd 8498 063d bb39 4e3d 96a1 bc3c
000001e0: 0774 28bd a475 8a3d 0205 013e 4416 ec3d
000001f0: 85c5 fa3c df1e 393e 8ba2 253e a48c b43d
00000200: a5f3 e23d 70c5 dc3d d1fa cf3d 9c2e 073d
00000210: ca0a 52bc ab6f 373d 134f 20bd e80c 49bd
00000220: 28f6 60be bb47 88be ec11 38bd ea92 85be
00000230: 6105 2dbe a8a6 9e3d b44e 68be fd04 a6be
00000240: 32a4 073e 7fef 96bd fff3 a53d 3328 b43d
00000250: 4de5 cfbb ab67 963d 6609 2a3e d1f2 ba3d
00000260: fc27 513d f86f 693e de19 0c3e 320e 903e
00000270: 50fc 343e 35c8 a33d 1c8d 553d 69f3 5f3e
00000280: a70c 3d3d b1c3 833d c1b2 a8bc 0572 8e3d
00000290: 63b0 5c3c 8ee3 c3bc 2b86 23bd ee7c 7f3d
000002a0: 0f55 803c 8209 9c3d 772d 0ebc 9cee 88bb
000002b0: 82b6 873c 5021 163e d3da 243d 3bf0 ca3d
000002c0: baa4 043c 9b83 70bc 6495 9b3c b895 a13d
000002d0: 73b7 423d 23b9 04bd 1b8c 5bbd b134 08bc
000002e0: bbfb b03d 8851 6d3d 27fb ddbd 6cd2 89bd
000002f0: f4cb 18be d9cd b33d 5de6 203e 198c a23d
00000300: c125 213e fd81 883d f441 003e f071 e33d
00000310: 7626 853d d416 b0bc 6fb1 28bd 5663 c43d
00000320: 78e1 f63b 64d5 0bbd ab00 9c3d 1b87 e03c
00000330: a603 933c 8337 fd3c 0f44 34bc baa2 7f3d
00000340: 053f 8e39 84be 9bbd 13bd 5ebd 04b1 8bbb
00000350: a36b 5fbd 7066 373c 9983 6c3d 1226 a0bc
00000360: 5d69 053e 4138 533e 2033 2c3e 26f5 d33e
00000370: bfc7 643e 71ab 383e fa0c 903e ddd6 253e
00000380: 6f42 303e 4f19 84bd 8f1f 90bd 411f bdbd
00000390: a96f 82bd 0b24 63bd 7d3b e83c 1d9c 9fbd
000003a0: 52c9 41bd b2ab b1bd 1d8a 773e 4391 473e
000003b0: 238a 583e 6419 b63d afb2 2b3e ac5d 553e
000003c0: baf3 ad3d 2a38 ad3d 6ab3 5bbb ae6e 9cbd
000003d0: 9fd0 3dbd 362e edbd e4c9 6c3d 9e27 4f3d
000003e0: a0fe c83c 5cc4 9f3d 4981 a33c 0fac 9b3c
000003f0: a80a 8abd f9e9 a53d 67d4 683b 2eac 4fbb

conv3.bias f4 [32]
0.09969131 -0.09677595 0.16263145 -0.05773188 -0.027211832 0.0011266851 0.15737805 0.06201587
0.03700927 0.07549298 -0.027328296 0.092136815 0.0116896145 -0.008497191 0.035861887 0.17637838
0.01057372 0.039781228 0.0041403715 0.016117238 0.0767835 -0.031967524 0.18181573 0.19019341
-0.03283609 -0.0010797195 0.03422881 -0.18991244 0.019739613 0.13715178 -0.03809167 0.04896102
00000000: f52a cc3d 7832 c6bd dc88 263e 4478 6cbd
00000010: 59eb debc 47ad 933a b627 213e 5a04 7e3d
00000020: 0897 173d 109c 9a3d 97df dfbc 3ab2 bc3d
00000030: cc85 3f3c cd37 0bbc eae3 123d 899c 343e
00000040: 653d 2d3c a4f1 223d f4ab 873b 4c08 843c
00000050: ab40 9d3d 61f0 02bd e72d 3a3e 10c2 423e
00000060: 237f 06bd 6085 8dba 8233 0c3d 6878 42be
00000070: f8b4 a13c 8471 0c3e 0306 1cbd 5a8b 483d

conv4_1.weight f4 [2, 32, 1, 1]
-0.5853432 0.3782357 0.19786075 -0.029776292 -0.20763458 -0.16610463 -0.11490459 0.48829687
0.03645438 0.25437045 -0.26401502 -0.5257513 -0.07561185 0.8947223 0.37605703 0.5564442
0.25798303 0.3157344 0.13731623 -0.016721865 0.4297759 -0.012199164 0.16046646 0.40294805
0.11838825 -0.97262555 0.30713916 0.14914168 0.6461603 0.30798757 -0.0049168724 0.11291163
0.687559 -0.3479469 -0.3466367 0.14170283 0.21947965 0.049848095 0.13395207 -0.4002799
0.05946014 -0.4072718 0.14551936 0.5127927 0.014536629 -0.68064934 -0.4315093 -0.6678348
-0.36495042 -0.4669735 -0.40092623 -0.069253445 -0.3773198 0.096372895 -0.17378378 -0.5094575
-0.10666919 0.95204663 -0.3455799 -0.0686543 -0.63636136 -0.27893066 -0.078081064 0.15291077
00000000: 0dd9 15bf 1ca8 c13e 029c 4a3e 69ed f3bc
00000010: 299e 54be 5517 2abe 1953 ebbd 0c02 fa3e
00000020: 3051 153d d83c 823e fa2c 87be a397 06bf
00000030: 63da 9abd 850c 653f 8c8a c03e 2173 0e3f
00000040: 5a16 843e f0a7 a13e a09c 0c3e 4bfc 88bc
00000050: 960b dc3e 01df 47bc 5251 243e 354f ce3e
00000060: 8a75 f23d fdfd 78bf 5841 9d3e 99b8 183e
00000070: c36a 253f 8cb0 9d3e b71d a1bb 363e e73d
00000080: de03 303f 1926 b2be 5e7a b1be 8c1a 113e
00000090: 46bf 603e 842d 4c3d bb2a 093e 7df1 ccbe
000000a0: 7a8c 733d ee85 d0be 0703 153e 6246 033f
000000b0: 0b2b 6e3c 093f 2ebf c9ee dcbe 39f7 2abf
000000c0: c8da babe 2717 efbe 3446 cdbe c0d4 8dbd
000000d0: 1030 c1be 275f c53d 60f4 31be cf6b 02bf
000000e0: 6075 dabd 54b9 733f d9ef b0be a09a 8cbd
000000f0: 94e8 22bf 00d0 8ebe f7e8 9fbd a494 1c3e

conv4_1.bias f4 [2]
-0.025848703 0.09036436
00000000: a9c0 d3bc f310 b93d

conv4_2.weight f4 [4, 32, 1, 1]
0.076323114 0.0703458 -0.3179206 0.098912455 0.07979598 -0.068271995 -0.018288119 -0.0067230337
0.12820616 0.3747325 -0.033870663 -0.09352138 -0.0051465896 -0.07250525 0.0619691 0.0043006176
-0.0008679198 0.4380354 -0.29370752 -0.15067622 -0.0019607658 -0.16803646 -0.45558086 -0.0713564
-0.06434181 -0.03795797 -0.19427241 0.13600428 0.103226855 0.17041925 -0.11334461 -0.10633022
-0.0655532 0.016052455 -0.024068117 -0.030763024 0.100917205 -0.14709733 -0.17594588 -0.0025659823
-0.040045094 0.0019267879 0.16782138 -0.081923835 -0.12165835 0.0686332 0.024157608 0.06254959
-0.17968309 0.4491994 0.21491863 0.053897686 -0.052225202 -0.07244617 0.17540857 -0.0702803
0.007854035 0.035579562 -0.18618159 -0.5314946 0.110225625 -0.044717792 0.15854235 -0.15243062
-0.037962385 -0.042543806 0.0034059011 -0.17281164 0.002073312 0.06139773 0.0024160573 0.021869032
-0.13507576 0.047158014 -0.0024431236 0.08333238 -0.0034844156 -0.047206085 0.07921019 0.02063017
-0.0016708529 -0.02635323 -0.056548268 -0.15975867 -0.010104977 -0.07278693 0.07035173 0.034251247
0.03229031 0.038079806 -0.014643358 0.11283858 -0.016998675 0.025977397 -0.08978891 0.04116091
0.027331278 -0.00634388 0.32094783 0.014235111 0.006706022 -0.008228752 0.14661622 -0.04477808
0.06100601 -0.18103373 -0.09081678 -0.008522255 -0.16357292 0.09049709 -0.12200786 0.0058465493
-0.04013103 -0.25576052 -0.02555348 0.0075849956 0.1904355 0.13050193 0.08699622 0.029700946
0.02684015 -0.065506585 0.043723974 -0.27497023 0.043299355 0.18047574 -0.12561151 -0.09508655
00000000: 4b4f 9c3d 7511 903d 7dc6 a2be 9d92 ca3d
00000010: 136c a33d 30d2 8bbd f7d0 95bc e54c dcbb
00000020: 7a48 033e f0dc bf3e f7bb 0abd 2388 bfbd
00000030: b9a4 a8bb a27d 94bd 50d3 7d3d 32ec 8c3b
00000040: 1d85 63ba 2d46 e03e d560 96be de4a 1abe
00000050: 3180 00bb c011 2cbe e541 e9be 4e23 92bd
00000060: a4c5 83bd d179 1bbd 59ef 46be b544 0b3e
00000070: 9a68 d33d 6282 2e3e 3821 e8bd a9c3 d9bd
00000080: c240 86bd 7080 833c 802a c5bc bd02 fcbc
00000090: aead ce3d afa0 16be 282b 34be 0a2a 28bb
000000a0: 5306 24bd 468c fc3a 5ed9 2b3e afc7 a7bd
000000b0: 0328 f9bd 908f 8c3d 2de6 c53c 001a 803d
000000c0: d8fe 37be 77fd e53e a113 5c3e d2c3 5c3d
000000d0: 18ea 55bd a85e 94bd 4e9e 333e 1eef 8fbd
000000e0: 36ae 003c e0bb 113d 63a6 3ebe 0810 08bf
000000f0: f9bd e13d 012a 37bd ed58 223e c616 1cbe
00000100: 727e 1bbd 6a42 2ebd 8a35 5f3b 89f5 30be
00000110: 67e0 073b 307c 7b3d b756 1e3b af26 b33c
00000120: 4d51 0abe c328 413d d01c 20bb 2baa aa3d
00000130: cb5a 64bb 2b5b 41bd f438 a23d 9a00 a93c
00000140: 8500 dbba bbe2 d7bc 289f 67bd c797 23be
00000150: 588f 25bc 5011 95bd 9114 903d 094b 0c3d
00000160: d842 043d 92f9 1b3d b2ea 6fbc ea17 e73d
00000170: ce40 8bbc 8dce d43c 3fe3 b7bd 5898 283d
00000180: d8e5 df3c 53e0 cfbb 4653 a43e 623a 693c
00000190: 31be db3b e3d1 06bc 9022 163e 3869 37bd
000001a0: 70e1 793d e860 39be 26fe b9bd eea0 0bbc
000001b0: a97f 27be 8a56 b93d 42df f9bd 6994 bf3b
000001c0: 6f60 24bd 0bf3 82be 8855 d1bc 8e8b f83b
000001d0: 8601 433e 4ca2 053e 132b b23d 664f f33c
000001e0: e0df db3c 5128 86bd e917 333d e6c8 8cbe
000001f0: aa5a 313d a2ce 383e 4ea0 00be bdbc c2bd

conv4_2.bias f4 [4]
0.06864978 0.027501334 0.8232294 0.56955445
00000000: 4198 8c3d 7a4a e13c 29bf 523f 52ce 113f

conv4_3.weight f4 [10, 32, 1, 1]
0.0017931387 0.00038335728 0.004707643 0.12352023 0.001163552 0.17766775 -0.008556172 -0.00022205978
-0.10252185 0.0054669385 0.007598318 -0.0003112884 0.04883699 0.00018370064 0.0037563052 -9.6302305e-05
-0.0025141314 -0.0020355752 -0.0045363866 -0.096647985 0.0002382943 0.07697931 -0.0023962364 -0.00013429744
0.06278137 -0.0008772719 0.0006241981 0.0038131597 -0.0017329777 0.0003381094 -0.07324606 -0.0030040236
-0.00022955785 0.0012286245 -0.004316214 -0.09592199 -0.005581771 -0.16458535 0.009425954 1.1351735e-05
-0.10023111 0.0024252953 -0.0030140593 -0.00032966025 0.071203984 0.00037909695 -0.004049497 -0.0002879058
0.00035820887 0.00074754196 0.0010037814 -0.02971657 -0.00035476775 0.043379545 -0.0009645721 -0.0003171805
0.07029503 0.00028662817 -0.0012804962 -0.0026956354 0.0015846319 0.0048497044 0.16223365 0.050244566
-0.011623538 -0.013976599 -0.06631199 -0.12257494 -0.054081608 0.1732605 0.14153439 -0.028838493
-0.023785193 -0.04724782 -0.086144984 0.043116488 -0.15346517 0.008729916 0.033637274 -0.030592369
-0.05195024 -0.022476202 0.048040833 -0.02825177 0.044653334 -0.1500111 0.02377384 0.0113621615
-0.13797414 0.01621737 -0.0030213261 -0.02477434 0.026746327 -0.0014487545 0.118396126 -0.123693965
-0.064751744 -0.020687677 0.056186125 -0.15345162 -0.021179669 0.046275727 0.038614992 0.0010042135
0.09156595 -0.05591111 0.024504319 -0.007040532 0.15828934 0.022748113 0.043077476 -0.006378692
-0.040045183 -0.022400241 -0.02594971 -0.04559688 0.013985541 -0.040349897 0.099749416 0.052736312
0.16024768 0.07051058 0.015966287 -0.06158813 -0.058253497 -0.043251127 -0.117225476 0.13359998
0.0013822733 -0.034624618 0.035221882 -0.04664455 -0.06745903 -0.16818759 0.09630269 0.026589412
0.023151783 0.046654057 -0.040287767 0.054702327 0.06830214 -0.017544972 0.038886596 -0.001477854
-0.07601472 -0.05910553 0.10761554 0.078405604 0.07645101 -0.1533399 -0.030174665 0.00038301962
0.15486212 -0.03773074 0.009100586 -0.054741763 0.023684215 -0.04233136 0.04576212 0.096371025
-0.016210167 -0.020084048 0.06661809 0.17372069 0.01129252 0.015206815 0.00056544784 0.013992539
-0.108427435 -0.027977895 0.0047192774 0.02036201 0.05310107 -0.0006137665 0.07349558 -0.0021529954
-0.034404654 -0.0217821 -0.009315799 0.005251094 -0.0049220324 -0.08539523 0.034986876 0.03130787
0.11052584 0.030208353 -0.0048716934 0.005266785 -0.05748546 -0.055179484 0.15931405 0.15022776
0.058053344 0.0004281311 -0.03803181 -0.12403558 0.13031091 0.009811329 -0.06549686 -0.010889718
-0.15244205 0.064159356 -0.07439327 -0.0058286306 0.15570943 -0.036044914 -0.008819631 0.031408932
0.04131484 -0.0012027399 -0.030152412 0.17119859 0.0131130945 -0.15699515 -0.05350642 -0.030686907
-0.009248493 -0.077098325 -0.023404332 0.068239346 0.043168582 0.041208822 -0.1114876 0.048474643
-0.0072554657 -0.001347431 -0.01017498 0.048450034 -0.0058117793 -0.058185335 0.026462609 0.0017869432
-0.12454715 -0.038405284 -0.017888244 -0.0009703526 -0.096607655 -0.0041130735 -0.003744045 -0.00021856862
1.2928874e-05 -0.0034061114 0.010425039 -0.06565895 0.004619903 0.04146207 0.007541506 0.0015493401
0.068139106 0.0076613994 0.00378436 -0.015892627 0.00014207572 -0.0063263956 0.14827691 -0.03621971
00000000: c007 eb3a 58fd c839 9242 9a3b 2df8 fc3d
00000010: 5482 983a 89ee 353e 302f 0cbc b8d8 68b9
00000020: faf6 d1bd 0124 b33b 50fb f83b 6c34 a3b9
00000030: 4c09 483d c49f 4039 582c 763b e8f5 c9b8
00000040: 20c4 24bb 4967 05bb f8a5 94bb 61ef c5bd
00000050: a4de 7939 54a7 9d3d 2d0a 1dbb 32d2 0cb9
00000060: 8593 803d b8f8 65ba 3aa1 233a 34e6 793b
00000070: 1525 e3ba 4744 b139 0802 96bd 27df 44bb
00000080: 77b5 70b9 cc09 a13a 076f 8dbb c072 c4bd
00000090: 4ae7 b6bb 1089 28be 516f 1a3c 5573 3e37
000000a0: f845 cdbd b4f1 1e3b 8687 45bb 40d6 acb9
000000b0: 65d3 913d 88c1 c639 a5b1 84bb 10f2 96b9
000000c0: fbcd bb39 b1f6 433a 5191 833a 2a70 f3bc
000000d0: 1f00 bab9 c0ae 313d 56db 7cba 3f4b a6b9
000000e0: d7f6 8f3d 9546 9639 53d6 a7ba 42a9 30bb
000000f0: 6cb3 cf3a 45ea 9e3b 9420 263e 3fcd 4d3d
00000100: a770 3ebc 1bfe 64bc 95ce 87bd 9208 fbbd
00000110: ad84 5dbd 336b 313e 64ee 103e b43e ecbc
00000120: 2ad9 c2bc ee86 41bd c86c b0bd ea9a 303d
00000130: f925 1dbe ec07 0f3c 3dc7 093d d99c fabc
00000140: c6c9 54bd 0320 b8bc 77c6 443d 4270 e7bc
00000150: 6ae6 363d 839c 19be 5bc1 c23c 5c28 3a3c
00000160: 1849 0dbe 4ada 843c 7101 46bb 8ff3 cabc
00000170: 1d1b db3c 22e4 bdba ab79 f23d 4353 fdbd
00000180: 909c 84bd 3479 a9bc 6c23 663d 6c22 1dbe
00000190: fc80 adbc 9e8b 3d3d c12a 1e3d d09f 833a
000001a0: ee86 bb3d 0c03 65bd 48bd c83c 43b4 e6bb
000001b0: 9a16 223e 405a ba3c 0272 303d 5904 d1bb
000001c0: 6b06 24bd b680 b7bc 7c94 d4bc cbc3 3abd
000001d0: 9c23 653c ef45 25bd 6c49 cc3d 0802 583d
000001e0: f817 243e da67 903d bbcb 823c d643 7cbd
000001f0: 389b 6ebd 1828 31bd e913 f0bd 6fce 083e
00000200: 652d b53a 8bd2 0dbd d244 103d 5b0e 3fbd
00000210: f627 8abd 5e39 2cbe 583a c53d 0ad2 d93c
00000220: cfa8 bd3c 5318 3f3d c904 25bd 8c0f 603d
00000230: fee1 8b3d 79ba 8fbc 8d47 1f3d 8db4 c1ba
00000240: 9bad 9bbd a418 72bd 8965 dc3d 1e93 a03d
00000250: 5992 9c3d 2205 1dbe dc30 f7bc 06d0 c839
00000260: 2d94 1e3e 8c8b 1abd a01a 153c e638 60bd
00000270: 6605 c23c a663 2dbd 1071 3b3d 2c5e c53d
00000280: 2fcb 84bc 4d87 a4bc 116f 883d d6e3 313e
00000290: 4304 393c 0126 793c 903a 143a f640 653c
000002a0: 340f debd e631 e5bc 2ba4 9a3b 3bce a63c
000002b0: 8280 593d 2ce5 20ba da84 963d 4519 0dbb
000002c0: e5eb 0cbd 6070 b2bc 4ba1 18bc 5e11 ac3b
000002d0: 0049 a1bb b2e3 aebd 664e 0f3d ae3c 003d
000002e0: 5f5b e23d 8277 f73c baa2 9fbb ff94 ac3b
000002f0: e075 6bbd e203 62bd 3923 233e 4ed5 193e
00000300: 58c9 6d3d c976 e039 3ec7 1bbd 5e06 febd
00000310: 3970 053e b2bf 203c 3823 86bd ca6a 32bc
00000320: c519 1cbe fb65 833d 805b 98bd 19fe bebb
00000330: 4b72 1f3e d5a3 13bd 3780 10bc a7a6 003d
00000340: c039 293d 41a5 9dba 3102 f7bc af4e 2f3e
00000350: 4ed8 563c 56c3 20be 8c29 5bbd 1c63 fbbc
00000360: fe86 17bc bae5 9dbd 71ba bfbc 12c1 8b3d
00000370: 8ad1 303d 95ca 283d 9c53 e4bd 598d 463d
00000380: 42bf edbb 489c b0ba f6b4 26bc 8b73 463d
00000390: bd70 bebb bf53 6ebd 1dc8 d83c dd37 ea3a
000003a0: 9412 ffbd dc4e 1dbd 5e8a 92bc 435f 7eba
000003b0: 3cda c5bd f6c6 86bb a75e 75bb 912f 65b9
000003c0: 17e9 5837 1139 5fbb c8cd 2a3c 3378 86bd
000003d0: 8e62 973b 22d4 293d bd1e f73b 3a13 cb3a
000003e0: 848c 8b3d 7a0c fb3b 0603 783b 4131 82bc
000003f0: 29fa 1439 a74d cfbb e7d5 173e 1e5b 14bd

conv4_3.bias f4 [10]
0.22316924 0.3557529 0.39180782 0.2762433 0.2910819 0.45619458 0.2647349 0.62467664
0.4179908 0.51944786
00000000: 7a86 643e 3e25 b63e 099b c83e c36f 8d3e
00000010: b008 953e 5692 e93e 558b 873e cfea 1f3f
00000020: e402 d63e 89fa 043f

exp_avg f4 [10, 3, 3, 3]
0.00880913 0.0062246765 0.0012153742 0.006576474 0.0023908122 0.0009761303 0.0065370523 0.0035866539
0.0023799448 0.008331727 0.007808001 0.00453155 0.004565042 0.0017734799 0.0034180228 0.002444226
0.0009763252 0.0026264696 0.010046302 0.011047334 0.0074081235 0.008049481 0.0066828844 0.0074148527
0.007573272 0.006252735 0.0068562874 -0.018816432 -0.007660384 -0.0018838247 -0.014998704 -0.0091600465
-0.0026963158 -0.01733642 -0.016649315 -0.003384867 -0.02025609 -0.007142703 -0.0002621451 -0.015523736
-0.008154442 -0.0007368829 -0.016717909 -0.015445394 -0.0010542909 -0.022653867 -0.012903186 -0.006081924
-0.0134115415 -0.0086614285 -0.0018626053 -0.014649578 -0.012916724 -0.0003239059 0.016636927 0.014803107
0.015373606 0.01465773 0.016099576 0.017417528 0.011738044 0.01774361 0.018010234 0.018369626
0.017256828 0.017371528 0.018470488 0.020705722 0.020807324 0.01781212 0.02287779 0.021793202
0.011773189 0.011587707 0.013216957 0.012683748 0.014925007 0.016274074 0.012740788 0.01672344
0.017399976 -0.056999553 -0.058684804 -0.053453133 -0.044532273 -0.046459414 -0.045314785 -0.029299874
-0.031614043 -0.029911611 -0.04712237 -0.0505865 -0.045262445 -0.031249022 -0.03772102 -0.038056444
-0.017239887 -0.022722444 -0.022479277 -0.059090756 -0.059440564 -0.05416233 -0.04715147 -0.044785224
-0.046842605 -0.03170024 -0.028717713 -0.031317964 -0.01774395 -0.021596171 -0.024891691 -0.018939124
-0.020927837 -0.023124749 -0.020363186 -0.021615991 -0.024797766 -0.019788707 -0.023647359 -0.027704401
-0.022224272 -0.024830395 -0.026959658 -0.021687044 -0.023490362 -0.025813447 -0.016080521 -0.020690091
-0.024893327 -0.02191116 -0.02459737 -0.02576246 -0.022196801 -0.024523051 -0.0260496 0.031906527
0.02788053 0.025994321 0.03365672 0.03237038 0.029947776 0.03717224 0.037100196 0.034061458
0.035607815 0.031802975 0.027193494 0.037011992 0.036000878 0.03119558 0.040858056 0.040555354
0.036463175 0.032579236 0.030919218 0.027889278 0.03073397 0.032737758 0.030397993 0.03151017
0.03545999 0.03357982 -0.04427646 -0.035926685 -0.0130762225 -0.041973855 -0.043238085 -0.029304205
-0.03212721 -0.040124048 -0.021587944 -0.042030465 -0.03416216 -0.010510792 -0.040321525 -0.04184559
-0.02884917 -0.02814432 -0.03420675 -0.017666034 -0.052491467 -0.04774018 -0.025464585 -0.047125388
-0.05196338 -0.041768976 -0.034561064 -0.045636248 -0.033151697 -0.039744414 -0.035442237 -0.029591694
-0.03981865 -0.032929502 -0.024282692 -0.04219484 -0.03539884 -0.024239661 -0.046621293 -0.04463893
-0.03846893 -0.050431572 -0.044432294 -0.036703244 -0.054415345 -0.04639259 -0.03631994 -0.041082732
-0.043017503 -0.03696655 -0.045005772 -0.04437886 -0.035346914 -0.04891703 -0.046438653 -0.034660444
0.0042867013 -0.0016029518 -0.005144369 0.0018631519 -0.0056156954 -0.0060079 0.0007226665 -0.0016233413
-0.010075839 0.015529389 0.011813413 0.011321563 0.015748424 0.010168099 0.011290869 0.013338461
0.0136126485 0.0047972947 0.025466226 0.022976832 0.023036098 0.029646683 0.02696877 0.028060816
0.029381491 0.032847308 0.024376916 -0.013936659 -0.009629838 0.00082978327 -0.007921049 0.0020402512
0.006532327 -0.016610244 -0.0063297343 0.0044846623 -0.013762742 -0.011618958 -0.0040429854 -0.0052953796
00000000: 2b54 103c 5ff8 cb3b 314d 9f3a 767f d73b
00000010: 2caf 1c3b ffe2 7f3a c534 d63b 110e 6b3b
00000020: d9f8 1b3b cc81 083c 42da ff3b 667d 943b
00000030: 5996 953b 1c74 e83a e800 603b 4f2f 203b
00000040: 13f0 7f3a d920 2c3b 3f99 243c e1ff 343c
00000050: d8bf f23b f8e1 033c 19fc da3b 4bf8 f23b
00000060: 3629 f83b bee3 cc3b b5aa e03b eb24 9abc
00000070: f503 fbbb abea f6ba 20bd 75bc 0514 16bc
00000080: acb4 30bb 1c05 8ebc 2564 88bc a5d4 5dbb
00000090: 1af0 a5bc 560d eabb 8570 89b9 4557 7ebc
000000a0: 359a 05bc 602b 41ba fff3 88bc ae0e 7dbc
000000b0: 2230 8aba 9a94 b9bc e267 53bc e04a c7bb
000000c0: 15bc 5bbc aae8 0dbc aa22 f4ba c904 70bc
000000d0: aba0 53bc ead1 a9b9 2a4a 883c bb88 723c
000000e0: 94e1 7b3c fa26 703c 42e3 833c 34af 8e3c
000000f0: ed50 403c 0c5b 913c 338a 933c e67b 963c
00000100: 315e 8d3c bc4e 8e3c 6c4f 973c 0c9f a93c
00000110: 1f74 aa3c b9ea 913c 346a bb3c a887 b23c
00000120: 55e4 403c 5eda 3d3c f08b 583c 7fcf 4f3c
00000130: 0488 743c 3551 853c bdbe 503c 98ff 883c
00000140: 658a 8e3c 5d78 69bd 7a5f 70bd acf1 5abd
00000150: 7967 36bd 3a4c 3ebd ff9b 39bd 4a06 f0bc
00000160: ba7d 01bd 3209 f5bc 6303 41bd ca33 4fbd
00000170: 1d65 39bd f3fd ffbc 5b81 1abd 13e1 1bbd
00000180: aa3a 8dbc 6b24 babc 7626 b8bc 2609 72bd
00000190: f377 73bd 52d9 5dbd e621 41bd b670 37bd
000001a0: 08de 3fbd 1cd8 01bd 6941 ebbc 4447 00bd
000001b0: c35b 91bc 74ea b0bc a9e9 cbbc 3926 9bbc
000001c0: db70 abbc 1d70 bdbc b2d0 a6bc 0514 b1bc
000001d0: af24 cbbc ed1b a2bc 1bb8 c1bc 57f4 e2bc
000001e0: ad0f b6bc 1d69 cbbc 80da dcbc 07a9 b1bc
000001f0: dc6e c0bc b976 d3bc 4cbb 83bc 447e a9bc
00000200: 17ed cbbc 087f b3bc 6c80 c9bc cb0b d3bc
00000210: 11d6 b5bc 91e4 c8bc f965 d5bc 6bb0 023d
00000220: b665 e43c 0bf2 d43c a1db 093d ce96 043d
00000230: 0a55 f53c eb41 183d 60f6 173d 0784 0b3d
00000240: 80d9 113d d643 023d e4c4 de3c e399 173d
00000250: a875 133d df8d ff3c c75a 273d 5f1d 263d
00000260: 695a 153d ce71 053d 4d4a fd3c 0e78 e43c
00000270: cfc5 fb3c 0718 063d 3605 f93c cf10 013d
00000280: 7f3e 113d fe8a 093d 3c5b 35bd dc27 13bd
00000290: a73d 56bc c7ec 2bbd 6b1a 31bd 5f0f f0bc
000002a0: d297 03bd 1d59 24bd 33d9 b0bc 2328 2cbd
000002b0: 9fed 0bbd 7535 2cbc 2f28 25bd 4866 2bbd
000002c0: 1855 ecbc eb8e e6bc 611c 0cbd 5cb8 90bc
000002d0: 4b01 57bd 358b 43bd 1b9b d0bc 8d06 41bd
000002e0: 8ed7 54bd f215 2bbd e78f 0dbd 13ed 3abd
000002f0: 13ca 07bd 0acb 22bd e12b 11bd 486a f2bc
00000300: e118 23bd 16e1 06bd 7fec c6bc 7fd4 2cbd
00000310: 60fe 10bd 4192 c6bc f8f5 3ebd 50d7 36bd
00000320: 9991 1dbd 5691 4ebd a3fe 35bd 2456 16bd
00000330: a0e2 5ebd 2806 3ebd 38c4 14bd 5e46 28bd
00000340: 1f33 30bd 3d6a 17bd f957 38bd 9cc6 35bd
00000350: edc7 10bd 395d 48bd 7536 3ebd 1cf8 0dbd
00000360: 7577 8c3b 231a d2ba 1892 a8bb 0135 f43a
00000370: de03 b8bb ebdd c4bb 5471 3d3a 4cc6 d4ba
00000380: 2215 25bc fa6e 7e3c 0c8d 413c 147e 393c
00000390: d702 813c 1998 263c 56fd 383c 8f89 5a3c
000003a0: 9607 5f3c a032 9d3b 8c9e d03c e939 bc3c
000003b0: 33b6 bc3c 9add f23c 9ced dc3c ccdf e53c
000003c0: 74b1 f03c e68a 063d 19b2 c73c 9656 64bc
000003d0: 78c6 1dbc d085 593a 4ac7 01bc bcb5 053b
000003e0: 210d d63b 3512 88bc a969 cfbb 13f4 923b
000003f0: 207d 61bc 715d 3ebc 057b 84bb dd84 adbb

exp_avg_sq f4 [10, 3, 3, 3]
0.025607621 0.029032428 0.029160755 0.026545528 0.028977558 0.028231705 0.023912542 0.023512779
0.022431849 0.01756892 0.020394212 0.020417 0.018355845 0.02033242 0.019598763 0.016322777
0.015900156 0.014857325 0.013832365 0.016210921 0.016201852 0.014483841 0.016134191 0.015555018
0.0127728265 0.012408093 0.011578064 0.0028259838 0.002687972 0.002580184 0.0029572258 0.0031213337
0.0031030762 0.0031383722 0.003182984 0.0030412262 0.0024414724 0.0023151373 0.0021745253 0.0025594316
0.0026990736 0.002638252 0.0026207776 0.002661558 0.0025300449 0.002391722 0.0022705772 0.0021576674
0.002491801 0.0026289285 0.0025766524 0.0025142657 0.0025564781 0.0024643913 0.0038244007 0.003778119
0.0036133109 0.0033388613 0.002998947 0.0029211368 0.0029827112 0.0025557203 0.0025702384 0.0029171463
0.0028124354 0.00263337 0.0024339478 0.0020623263 0.0020199995 0.002124176 0.0017364589 0.0017946458
0.0026643309 0.0025891464 0.0024209898 0.0022035036 0.0018346171 0.0018119052 0.0019073905 0.0015331785
0.0016282534 0.10484757 0.09720914 0.12581438 0.080661096 0.074732214 0.096876934 0.06555339
0.05529273 0.06497933 0.08334049 0.07856193 0.10415079 0.062427066 0.059742857 0.07984884
0.049652133 0.042837694 0.051700376 0.0741288 0.07096285 0.09525782 0.055490136 0.05461237
0.074055955 0.04522317 0.040285558 0.048893634 0.036359433 0.0383688 0.034560584 0.03660465
0.03769473 0.034160372 0.034533262 0.03544292 0.032430395 0.03880651 0.040404126 0.035098996
0.03955163 0.040433545 0.03541426 0.036814027 0.037645914 0.033597257 0.036790993 0.0383464
0.03291644 0.037494082 0.038554184 0.034000356 0.034941733 0.035950612 0.032529633 0.008250923
0.007152825 0.0063759256 0.009945143 0.009565742 0.008697663 0.010387556 0.011031523 0.010631128
0.005503995 0.0045559416 0.0038445357 0.0065645026 0.0062213205 0.005464299 0.006757489 0.0072114402
0.006846274 0.0050624507 0.0041638343 0.00350623 0.0060004136 0.005660933 0.004933109 0.0061927824
0.006557606 0.006145497 0.17526264 0.18028876 0.18719378 0.18177296 0.18800624 0.18390383
0.17299065 0.19721788 0.19310074 0.13955425 0.1458728 0.15082744 0.14546104 0.15286317
0.14811993 0.13908765 0.16290267 0.15851305 0.11629813 0.122868635 0.12931249 0.12195249
0.12897365 0.12662755 0.11743184 0.13959977 0.13728108 0.051344745 0.04589708 0.034614187
0.043930188 0.040892 0.034552082 0.037752956 0.03633519 0.03481556 0.030355196 0.025198275
0.016938139 0.023059122 0.019843217 0.015933508 0.018750178 0.016783996 0.016385075 0.029192088
0.0247822 0.017221631 0.022156319 0.01950741 0.016199008 0.017884972 0.016381785 0.016562195
0.10830638 0.10526864 0.11600319 0.1304909 0.12554428 0.12549075 0.14778486 0.14791374
0.13642769 0.061293826 0.059273783 0.06865754 0.07738857 0.0740391 0.07556578 0.09049197
0.09105694 0.08336767 0.04776677 0.046414312 0.05461412 0.061176028 0.05889801 0.06049481
0.0725412 0.07372679 0.06739634 0.00690731 0.008465539 0.009831129 0.006573318 0.008174779
0.009202782 0.006634005 0.007140302 0.007877759 0.004679431 0.0059533934 0.0070989938 0.0044374326
00000000: 13c7 d13c 6ad5 ed3c 89e2 ee3c 0276 d93c
00000010: 5862 ed3c 2d46 e73c 3ce4 c33c df9d c03c
00000020: ffc2 b73c b2ec 8f3c c311 a73c 8d41 a73c
00000030: ff5e 963c 2d90 a63c 968d a03c 58b7 853c
00000040: 0b41 823c 236c 733c 25a1 623c c4cc 843c
00000050: bfb9 843c a24d 6d3c da2b 843c 79da 7e3c
00000060: 1e45 513c 504b 4b3c ecb1 3d3c 2434 393b
00000070: b028 303b 4e18 293b 04ce 413b 4a8f 4c3b
00000080: fb5c 4b3b 26ad 4d3b 9c99 503b 4f4f 473b
00000090: 1c01 203b 8fb9 173b 7b82 0e3b 23bc 273b
000000a0: f1e2 303b 86e6 2c3b 5ac1 2b3b 896d 2e3b
000000b0: 1ccf 253b 70be 1c3b f7cd 143b a767 0d3b
000000c0: 7c4d 233b 1a4a 2c3b 0edd 283b 61c6 243b
000000d0: 968a 273b a081 213b cca2 7a3b 529a 773b
000000e0: 4ccd 6c3b ccd0 5a3b fb89 443b 8b70 3f3b
000000f0: 9779 433b df7d 273b 7271 283b 982d 3f3b
00000100: d650 383b 9e94 2c3b de82 1f3b 1828 073b
00000110: f861 043b c235 0b3b e499 e33a 523a eb3a
00000120: 0e9c 2e3b abae 293b 78a9 1e3b a868 103b
00000130: 8977 f03a 737d ed3a 6801 fa3a eff4 c83a
00000140: 1e6b d53a 53ba d63d 9615 c73d 7cd5 003e
00000150: a531 a53d 340d 993d 6a67 c63d db40 863d
00000160: a17a 623d e213 853d 6bae aa3d 14e5 a03d
00000170: 024d d53d 86b3 7f3d edb4 743d ca87 a33d
00000180: 0960 4b3d 9476 2f3d c6c3 533d d7d0 973d
00000190: f854 913d 8816 c33d a049 633d 38b1 5f3d
000001a0: a6aa 973d ee3b 393d 7802 253d b144 483d
000001b0: a1ed 143d 9a28 1d3d 668f 0d3d c2ee 153d
000001c0: ca65 1a3d bfeb 0b3d c072 0d3d 982c 113d
000001d0: bcd5 043d 93f3 1e3d cc7e 253d f7c3 0f3d
000001e0: e400 223d a59d 253d 8b0e 113d 4eca 163d
000001f0: 9a32 1a3d 479d 093d 27b2 163d 1d11 1d3d
00000200: 64d3 063d 6593 193d feea 1d3d f543 0b3d
00000210: 101f 0f3d f340 133d cb3d 053d e12e 073c
00000220: 3f62 ea3b 24ed d03b f4f0 223c a1b9 1c3c
00000230: a580 0e3c 9130 2a3c 90bd 343c 2f2e 2e3c
00000240: db5a b43b 024a 953b 9bf4 7b3b 0a1b d73b
00000250: 38dc cb3b dd0d b33b ed6d dd3b f24d ec3b
00000260: b556 e03b eae2 a53b c670 883b c7c8 653b
00000270: 1e9f c43b 597f b93b eba5 a13b d3ec ca3b
00000280: 30e1 d63b 2a60 c93b 0d78 333e 9e9d 383e
00000290: baaf 3f3e b122 3a3e b584 403e 4951 3c3e
000002a0: 7624 313e 7cf3 493e 33bc 453e 4fe7 0e3e
000002b0: ae5f 153e 8272 1a3e bdf3 143e 2a88 1c3e
000002c0: c0ac 173e fe6c 0e3e f5cf 263e 3f51 223e
000002d0: b72d ee3d 8da2 fb3d 7e6a 043e 3ac2 f93d
000002e0: ab11 043e a7aa 013e 1b80 f03d 3ef3 0e3e
000002f0: 6993 0c3e de4e 523d 94fe 3b3d 9bc7 0d3d
00000300: 24f0 333d 5f7e 273d 7c86 0d3d d8a2 1a3d
00000310: 35d4 143d c39a 0e3d 76ab f83c 9d6c ce3c
00000320: dac1 8a3c 7ce6 bc3c 3e8e a23c fd86 823c
00000330: f999 993c 977e 893c fe39 863c 3f24 ef3c
00000340: 0a04 cb3c 6114 8d3c 2b81 b53c 01ce 9f3c
00000350: c8b3 843c 8183 923c 1833 863c 71ad 873c
00000360: bccf dd3d 1697 d73d 1593 ed3d 689f 053e
00000370: ae8e 003e a680 003e ea54 173e b376 173e
00000380: b3b3 0b3e 3c0f 7b3d 11c9 723d 539c 8c3d
00000390: e67d 9e3d d0a1 973d 3bc2 9a3d db53 b93d
000003a0: 107c ba3d abbc aa3d 17a7 433d ef1c 3e3d
000003b0: 0eb3 5f3d b793 7a3d 0a3f 713d 68c9 773d
000003c0: 7b90 943d 12fe 963d 1807 8a3d b756 e23b
000003d0: 0bb3 0a3c be12 213c fd64 d73b 82ef 053c
000003e0: 44c7 163c 1162 d93b 32f9 e93b b711 013c
000003f0: ea55 993b af14 c33b ad9e e83b e267 913b

exp_avg f4 [10]
0.0007935427 -0.021486863 0.03394272 -0.11495433 -0.0342507 0.011107003 -0.05213116 -0.033869162
-0.0037664522 -0.0035410349
00000000: c005 503a 3805 b0bc 8607 0b3d 2d6d ebbd
00000010: 764a 0cbd 26fa 353c 7c87 55bd 64ba 0abd
00000020: 95d6 76bb b510 68bb

exp_avg_sq f4 [10]
0.09232539 0.005565062 0.01070468 0.6087761 0.066055775 0.021843601 0.64293754 0.12326796
0.7124389 0.028541954
00000000: 1815 bd3d 205b b63b af62 2f3c c0d8 1b3f
00000010: 4048 873d 5af1 b23c 8e97 243f ea73 fc3d
00000020: 6562 363f d1d0 e93c
