Pytorch face detection - Test/MTCNN_train_process/1/checkpoint_500.pth (torch, 98899 bytes, 24 tensors)

conv1.weight f4 [10, 3, 3, 3]
00000000: cb7e b7bd f082 04be 7d75 21be fe8f 3c3e
00000010: 5c54 3cbd 283d f53d c0df f73d 0da8 7d3d
00000020: b27c 933d df74 b2bc 78b7 e1bd 1d25 cd3c
00000030: 09ff 8cbc 6c7e 41bd 40d2 c7bd c83c 23bd
00000040: 40a1 3bbe cf49 4dbd aa69 18be 437e 74bd
00000050: 13b0 00be a6e9 a4bc 7653 26be f7a9 b73d
00000060: f48a ce3c 6143 58bd e0ed 173e c118 da3c
00000070: 2d0f 323d 3580 843d f435 b9bd 6bd3 a4bd
00000080: 2ce7 5cbd ea45 0ebe 409c 373d 12e1 2fbe
00000090: ba45 98bb 44cb 18be 4dab bbbd 8d32 44be
000000a0: 826e 18be 3fd5 dfbd 1cbf 28be d53f 16be
000000b0: 07d7 4a3d a770 bdbb deae 243e 3cff bbbd
000000c0: a1ff d4bd 09a0 223e 677b fb3d 1e54 05be
000000d0: 73b0 a2bd d1a2 44be f5e6 4bbf c623 22bf
000000e0: b8bb d7be 376e d53b 5c2a b13e e2e8 c73d
000000f0: a57d b93e c432 143f 8e22 a33e 8181 33be
00000100: e284 91be fd4e c43c 19e3 f63d 355c 19be
00000110: 33d2 ca3d 7a61 983d 0bc8 3dbd 8642 45bb
00000120: b8ff 2dbe c88e 24be 206c 41bd 9d87 72bd
00000130: f991 1e3d b076 e53d 8a40 5c3e 4cb7 643e
00000140: a9c8 39bd 921c 91bd 29bb 693e 4e6b 7e3e
00000150: 45bf 1e3d 8af2 9f3e cb53 5e3e a5a7 9c3d
00000160: 1cfd 913e 1492 e23c 9331 0cbd 5ce3 6bbe
00000170: 7d13 0ebe 49e2 31be 05d7 2bbe f38f 87be
00000180: affb 1abe fb25 ebbd 9f81 aebd 31b7 c53d
00000190: d1fd 63bc 9a43 38be cba9 943d a186 2bbe
000001a0: b88d 07bc 97ad 8a3d 8916 29be 50a7 e93d
000001b0: 5176 243d c24c ec3e dc65 233e abef 883d
000001c0: 44aa 1f3e c0c0 0f3e 3939 3d3e 42f1 1e3e
000001d0: ce47 0b3d 9429 b73e 9379 b53d 5f2c b23e
000001e0: d0a4 9b3d 5d07 f3bd 00aa 5f3e 1e3d c0bd
000001f0: 8ed9 12be 9d7c 40be cf19 ad3e d643 543e
00000200: ad2b 073e 956c 2c3e 7b40 a63d 4ece 4f3d
00000210: d5b3 09bc b586 e4bd 8efd 963c 0f5f 03be
00000220: 62c0 09bc 3e12 b43e e413 9e3c 8594 87be
00000230: 48be d2bc 2130 3c3d ef99 a0bc 70a0 9bbd
00000240: d577 a3be c807 b8bc e3e2 da3e fb90 81be
00000250: b3bc a0be 337f be3e 844e 873d 79f8 98be
00000260: 534e 14be 5343 9dbe c725 42be e899 b63e
00000270: 3554 e73d e1c8 ebbd dd00 bc3d 32df 143e
00000280: 8f6f 113e 86e5 f03d 2a12 abbe 4be9 89be
00000290: 08ae d1bd afdf 9ebe 06b3 87bd 7573 53be
000002a0: f9be 1cbe 2911 bcbe b7cb 5abb a222 d33e
000002b0: 6ba9 8f3e 67e5 213e 7f30 873e 8c2d e23e
000002c0: 5673 5d3e 4ce8 123f fac6 043f 43c5 fd3e
000002d0: 8798 81bd 3402 47bd 8b47 d4bc 31b5 8fbc
000002e0: d000 a7bd 1957 1fbe 40f1 4abe 385c 9cbe
000002f0: b33a 2abe eb73 adbd 01b6 093e bcf9 07be
00000300: c496 35be c77a 8bbd dfc3 db3c 1f49 8d3c
00000310: 1d1e 213d 1925 d93d 7f35 9abd 3414 0cbe
00000320: 5477 15be 6cb0 3f3e 58b8 e43d 54c4 343e
00000330: c822 6dbd 65a8 3cbd cdcf 20bd 16b8 44be
00000340: f05a 8bbd 8b5d 35be 85ab 463c 4eb7 2abd
00000350: ef84 1cbe c670 35be 294a 8dbd 4bbf 903b
00000360: e028 dc3e 390d ea3c 9a12 26be ac50 063e
00000370: 590a 8abe 367c d4bd 1e9d 20be 399a 3bbe
00000380: 23f1 93be 62fc 603e 9951 09bd 02c9 7abe
00000390: f4a6 8c3e a042 51be 1285 0abe 1b41 1ebe
000003a0: ed86 49bd c89a fabc 3011 973d 9f0e 113e
000003b0: dbc5 9ebe d4ea b7bd 0c62 133e 14cd 2d3e
000003c0: 4007 c8bc 518c ddbc 5e36 fc3e 974b 0abe
000003d0: d649 47bc 71ef cabd 2d0c 04be e1b2 14be
000003e0: 91de 41be b6c2 f23d 77a5 46bc a81b 4a3e
000003f0: b989 89be a76f d8be e007 88be 6729 1d3d
-0.08959731 -0.12940574 -0.15767474 0.18414304 -0.04597889 0.11974555 0.12103224 0.061927844
0.07201518 -0.021784244 -0.11021322 0.025042111 -0.017211454 -0.047239706 -0.09756899 -0.039852887
-0.1832323 -0.050119217 -0.14884058 -0.059690725 -0.12567167 -0.020130944 -0.16242775 0.08967965
0.025212742 -0.052798633 0.14836836 0.026623132 0.043471504 0.06469766 -0.09043494 -0.08048137
-0.0539314 -0.13893858 0.044826746 -0.17175701 -0.004646984 -0.1492129 -0.091635324 -0.19159909
-0.14885905 -0.10929345 -0.16479152 -0.14672787 0.049521472 -0.0057812515 0.16082332 -0.091795415
-0.1040032 0.15881361 0.122793965 -0.1302037 -0.07943811 -0.19202735 -0.7964929 -0.63335836
-0.42135406 0.006513383 0.3460263 0.09761216 0.36228672 0.5788996 0.318623 -0.1752987
-0.28421694 0.023963446 0.12055034 -0.1497658 0.099033736 0.07440467 -0.046333354 -0.0030099466
-0.1699208 -0.16070092 -0.047222257 -0.059211362 0.03871343 0.112042785 0.21508995 0.22335547
-0.04535738 -0.070855275 0.22825302 0.24845621 0.038756628 0.3123973 0.21711652 0.07649163
0.2851342 0.027657546 -0.034226965 -0.2303595 -0.13874622 -0.17371477 -0.16781242 -0.26477012
-0.15135072 -0.114818536 -0.08520817 0.096540816 -0.013915495 -0.17994538 0.07258948 -0.16750576
-0.0082735345 0.06771391 -0.16512503 0.114088655 0.040151898 0.46152312 0.15956825 0.06686338
0.15592295 0.14038372 0.1847886 0.1552172 0.034004025 0.3577391 0.08861079 0.34799477
0.07599795 -0.11866639 0.21842194 -0.09386657 -0.14340803 -0.18797536 0.33808753 0.20729002
0.13200255 0.16838296 0.081177674 0.050733857 -0.008404692 -0.11158506 0.018431451 -0.1282923
-0.008407684 0.35170168 0.019296594 -0.264805 -0.025725499 0.045944337 -0.019604651 -0.075989604
-0.31927362 -0.022464648 0.42751226 -0.25305924 -0.31393966 0.3720642 0.066067725 -0.2987707
-0.14483003 -0.30715427 -0.18959723 0.35664296 0.11295358 -0.11512924 0.09179852 0.14538267
0.14202712 0.11762528 -0.33412296 -0.269358 -0.10238272 -0.31030032 -0.06625943 -0.20649512
-0.15307225 -0.36731842 -0.0033385584 0.4123736 0.28058943 0.15810166 0.26404187 0.44175375
0.21626028 0.57385707 0.51866114 0.4956456 -0.063279204 -0.048586085 -0.02591302 -0.017542453
-0.08154452 -0.15560569 -0.19818592 -0.30539107 -0.16623954 -0.08469375 0.13448335 -0.1327886
-0.17733294 -0.06810527 0.026826797 0.01724678 0.03933536 0.10602779 -0.07529735 -0.13679582
-0.14596301 0.18719643 0.11167973 0.17653018 -0.057894498 -0.04605903 -0.039260674 -0.19210848
-0.06804454 -0.17711465 0.012125854 -0.04167872 -0.15285085 -0.17718801 -0.068989106 0.004417335
0.42999935 0.028570758 -0.16218033 0.13116711 -0.2696102 -0.10375254 -0.15684935 -0.1832055
-0.2889491 0.21971276 -0.033525083 -0.24490741 0.27471125 -0.20435572 -0.13527325 -0.15454523
-0.04920094 -0.030591384 0.07376325 0.14165734 -0.31010327 -0.08980337 0.1439287 0.16972762
-0.02441752 -0.027044447 0.4926023 -0.13505398 -0.0121636 -0.09908951 -0.1289527 -0.14521362
-0.18932559 0.118535444 -0.012124411 0.19737113 -0.26862887 -0.42272684 -0.26568508 0.038369562

conv1.bias f4 [10]
00000000: fee6 18be 944e 1bbe 0f6c 923e d4a3 f9bd
00000010: 3659 b7bd f85f aa3d 8e00 4d3d 27d3 82bd
00000020: b4bd b33e b8f9 80bd
-0.14931867 -0.15166694 0.28598067 -0.12189451 -0.089525625 0.08319086 0.050049357 -0.0638793
0.3510567 -0.0629763

conv2.weight f4 [16, 10, 3, 3]
00000000: 658c 583d d20c 36bd 9ba2 88bb 1a5a a7bd
00000010: 549b ba3d 83a4 983d 1ddb 4abd be62 7dbd
00000020: 5fde 84bd 85f8 0ebc 4b6b 15bd 3772 acbd
00000030: e1af 493d 510f cebd 603a 8dbd 43da a7bd
00000040: 4ab8 3fbc 7b29 103d 94f8 213d beeb d43d
00000050: 3679 b23d 04ec 97bd 46d6 083d 2502 123e
00000060: 8dd4 3ebb cfa3 77bd 3fb4 ad3d c639 acbd
00000070: 9380 a63d fe2b a8bd 82e5 c8bd e589 483d
00000080: 487a 8cbd 538e 99bd 9a25 d1bd d55a 9ebb
00000090: 5528 8c3d c94d 173d 90fe 82bc d789 5dbc
000000a0: e29e d4bd cea8 183d 4812 86bd 9839 af3d
000000b0: 21ee 49bb 0dd2 c4bb 8a0e 89bc 0fca e1bd
000000c0: 05f4 81bd 58b0 39bd 5d38 f4bd 6a41 1fbe
000000d0: a797 ccbc fba8 d4bd 39ab 8e3d f8d5 603d
000000e0: 5be2 a9bc 46b5 a9bd ba49 573c 7b2b 21bc
000000f0: 443c 56bd 5982 973d afa3 d3bd e1f6 663c
00000100: 77db 1a3b 232c 633b 7f23 d2bd fb73 cfbc
00000110: bdf2 9bbc 5b26 503d 6233 423c cef8 57bd
00000120: fe07 f03c 9a0f 68bd 4ebe 06be 7a2f 86bc
00000130: 39f8 6bbd da07 00be 61e6 05be 170b c7bb
00000140: 2b93 c1bd ce4e eabd b168 70bc 4219 793d
00000150: 6f66 503d efe8 6fbc 8a45 8ebd 0ece 49bd
00000160: 3893 e43c 36e7 143c 29e9 213d f8b7 2cbd
00000170: b3cb 8ebd 8c33 b8bb 3e82 d13d 53eb ea3b
00000180: d5a1 cf3c 7552 8bbc 58e1 fa3a b343 a33d
00000190: 1089 8e3d 8ebd 0d3c ba8f a1bd 9e67 b7bd
000001a0: bcbf 9f3d 0848 713d acf1 bebc db04 b6bd
000001b0: 1e1a b03d 3618 3f3d 686b f63c 06a4 06bd
000001c0: 42da cc3d 9cc6 b6bd 77e6 693d 2c43 aebd
000001d0: 92bf 083c ea16 d0bd 889e 663d 6ecc 553d
000001e0: ca6e dd3d 5afb d93c f19d da3c d962 f53d
000001f0: 40a5 343d d8c7 093c b21b 73bc 5030 d8bd
00000200: efdc 463d e6a0 b33c 763d cd3d 219e f63d
00000210: 87f9 103c 54c1 01be 4ce5 5fbd 15d1 f93d
00000220: f108 87bd f25a 0abe c1b0 88bc 67c1 0f3d
00000230: ff1b c23d 5fe3 0d3d 9def 42bc 00a8 0bbd
00000240: 080c 16bd 7b80 713d 7036 823c 4c25 e0bd
00000250: 05fb ca3c aa20 4b3c d222 7abd 65fd 503d
00000260: 3dbc 0abd ba43 f93c c4b1 abbd 2986 d13c
00000270: 3b4e ce3c c698 9ebd c789 d0bd b4e1 78bd
00000280: 9840 afbb c697 aabd 91de 133e 88e8 51bd
00000290: 7c20 15be 6dc0 783d f158 0cbe fce8 08be
000002a0: 8de3 e63d 7c15 e0b9 e1bc 4dbd 1257 2a3d
000002b0: ccfa a33d 4d23 193c 1b90 bfbd 6070 0b3d
000002c0: efea c63d 97e8 dc3c ddb9 31bc f6af 6dbd
000002d0: bcad 053d 0f21 c3bd bfe9 ac3d 44e4 783d
000002e0: 5638 21bd f548 27bd a5ed 8a3d ca08 8fbd
000002f0: 2360 6b3c 8759 3e3d 030d ccbd 5bd9 bcbd
00000300: 75e0 6fbd 654b eabc 1ea2 3abd bae9 f9bb
00000310: 7a8a 24bd a223 283d c566 27bf 60d7 c1be
00000320: 8a78 31bd b7c5 cbbe 2783 86be 43d1 d5bd
00000330: da08 0f3c 0caf 063e bd6d 403c 2fa8 b3bd
00000340: 820c 89bd 14de b63c 128d bb3c 1cb7 9bbd
00000350: d9d9 88bd 47d0 a8bc 76c3 89bd 4aab 123d
00000360: a2b6 73be 1178 debe 983c 1ebe e553 2f3d
00000370: 549d ba3d 23d6 373d 5c84 a93e 193f 7a3e
00000380: 7212 9f3d 24a8 4a3e 45e7 5b3e cdd3 3b3e
00000390: 38f9 063e 1472 4b3e a61f 9e3b 5928 b13d
000003a0: 7dc8 d53d 5cb9 9dbc 89d7 7cbe 5d39 903c
000003b0: 8d6e 2ebe 0713 823c 38ac 363e 6417 15be
000003c0: 9cdd 2bbe ff79 0b3e b19c 81bd 69cd 2b3d
000003d0: f9f5 e63c e65d 67bd 9c38 7cbd 5d5d 8abd
000003e0: 4b4d 83bd a57f 653c 9962 9dbc 17dc a5bb
000003f0: fcf7 26ba 71cf a63d e1f8 1c3d 298b 983d
0.052868266 -0.04444582 -0.0041697747 -0.081714824 0.09111658 0.07453253 -0.04952537 -0.061861746
-0.064877264 -0.008726244 -0.036479276 -0.08420222 0.049239997 -0.10061515 -0.068959 -0.08195927
-0.011701653 0.03519581 0.039543703 0.10396527 0.087145254 -0.07418063 0.033407472 0.1425863
-0.002911839 -0.060458954 0.08481645 -0.08409457 0.08129992 -0.08211516 -0.098094 0.04895963
-0.06859261 -0.07497849 -0.1021225 -0.0048326054 0.0684363 0.036939416 -0.015990525 -0.013521633
-0.10381867 0.03727036 -0.065464556 0.08555907 -0.0030812102 -0.0060064853 -0.016730566 -0.11024868
-0.06345371 -0.04533419 -0.11924813 -0.15552297 -0.024974657 -0.10383793 0.06966252 0.054891557
-0.020737818 -0.08286528 0.013140136 -0.009837027 -0.052303568 0.07397909 -0.103339545 0.014096946
0.0023629346 0.0034663759 -0.102606766 -0.025323858 -0.019036645 0.05081783 0.011853071 -0.052727513
0.029300686 -0.056655504 -0.13158533 -0.01638006 -0.05760977 -0.12502995 -0.13076164 -0.00607432
-0.09451898 -0.11440812 -0.014673398 0.060815103 0.05087894 -0.014642938 -0.06946857 -0.049268775
0.02790223 0.009088328 0.039529 -0.042167634 -0.06972446 -0.0056213792 0.1022992 0.007169166
0.025345722 -0.017007092 0.0019140644 0.07971897 0.06959736 0.00865115 -0.07888742 -0.0895531
0.07800242 0.058906585 -0.023308598 -0.08887645 0.085987315 0.04665395 0.030080512 -0.03287127
0.10002567 -0.089246005 0.057104554 -0.08508906 0.008346455 -0.101606205 0.05630353 0.052196912
0.10812147 0.026609112 0.02668664 0.11981744 0.044102907 0.008409463 -0.014838146 -0.1055609
0.048550542 0.021927308 0.10021488 0.120418794 0.008848554 -0.12671405 -0.054662034 0.12198082
-0.06593502 -0.13511255 -0.016685845 0.035096552 0.09477996 0.034640666 -0.011897949 -0.034095764
-0.036632568 0.05896042 0.015895098 -0.10944614 0.024777899 0.012397924 -0.061068363 0.051022906
-0.033870924 0.030427802 -0.083835155 0.025576668 0.025183788 -0.07743983 -0.10182529 -0.060762122
-0.0053482763 -0.0832973 0.14440371 -0.05124715 -0.14563173 0.060730387 -0.13705803 -0.13370126
0.112738706 -0.00042740616 -0.050228957 0.041586943 0.0800682 0.009346795 -0.09353658 0.034042716
0.09712779 0.026966376 -0.010847536 -0.058029138 0.03263639 -0.0952779 0.08443021 0.060764566
-0.039360367 -0.04084106 0.06783608 -0.06984098 0.0143661825 0.0464721 -0.09963419 -0.09221145
-0.05856367 -0.028600404 -0.045564763 -0.0076267393 -0.040171124 0.041049607 -0.6539119 -0.3785963
-0.043327846 -0.39799282 -0.26271936 -0.10440304 0.008730138 0.13152713 0.011744914 -0.08772313
-0.06691839 0.022322692 0.022894416 -0.07603285 -0.06682176 -0.020607127 -0.06726734 0.035807885
-0.23800138 -0.43450978 -0.15452802 0.042804617 0.09112039 0.04488195 0.33108795 0.24438132
0.0776719 0.19790703 0.21474941 0.18342514 0.13181007 0.19867736 0.00482555 0.08650274
0.10438631 -0.019253425 -0.24691595 0.017605478 -0.1703436 0.015878214 0.17839134 -0.14559704
-0.16783756 0.13620757 -0.06328715 0.04194394 0.02819346 -0.056486033 -0.061577424 -0.06756089
-0.06411227 0.014007484 -0.019212054 -0.005061637 -0.000636935 0.08145035 0.038323287 0.07448418

conv2.bias f4 [16]
00000000: 4d68 b23d 55df 8d3d f0e2 f03e fc2d 313d
00000010: 29fd 343e b4d9 e3bd d670 9b3e 7783 37bd
00000020: 9c19 95be 5e87 093e 6b45 32be 758c c23e
00000030: c933 7f3d cdd6 513e dc7b 0f3e 7553 aabc
0.087113 0.06927363 0.4704814 0.043256745 0.17674698 -0.11125508 0.30359524 -0.04480311
-0.291211 0.13430545 -0.17409293 0.37997785 0.062305246 0.20492096 0.14012092 -0.020791749

conv3.weight f4 [32, 16, 3, 3]
00000000: 327d 6dbd b26e 82bd 944f bc3d 6e9a 67bd
00000010: e5dc 863d 431a 5f3d 7b16 49bc c40b b63c
00000020: b4b0 053d c5dd 123b 79c6 9a3c 86b9 c73d
00000030: b6c7 b0bc 059b 9d3d 9bad 5fbd 9dc9 8c3b
00000040: ade5 d7bc 09c0 0bbd 67e9 9cbc 4312 95bd
00000050: f618 2dbd 2b7a 0d3c a5b7 56bd 0430 d93c
00000060: 65d8 6b3b 76b6 20bd 15ef b53d 1446 e6bc
00000070: b91b 8dbc 5f0d 893b ce21 77bd 72f8 a43c
00000080: a02b 883d 9ba9 1dbd 563d d43d da24 ed3c
00000090: ba8a d4bd 7d13 313d 23cb 933c 1627 563b
000000a0: d9d1 973d 3035 e93c ba06 a23c 8176 9a3d
000000b0: 33bd aebd 07e0 83bd d5e9 8bbb 2b7a 8d3d
000000c0: 0385 d7bc 909d 88bd 1596 3ebd 9fad a1bd
000000d0: 00c7 1a3d a1fb b73b 956d a0bd fe76 ec3c
000000e0: 6f63 2d3d 1bfc 583d bfb6 2c3d 8a16 aa3d
000000f0: 7a3e 02bb cfcf aebd 2ca1 23bc 3b9c fe3c
00000100: ee8f 87bc 1be8 f0bc fc57 03bd e44b 863d
00000110: 6676 57bd 75b7 2dbd aae6 73bd 35cd 793d
00000120: 55d6 73bc 65cf 76bc 3729 513b f42c 803d
00000130: 0a33 413d 2b01 87bd f2da 143d ecd1 c6bd
00000140: 32ee ee3c 06ce 193c 78ae 27bc 5bbb 893b
00000150: 6604 71bc abad 213d 78e9 953d 118c 27bd
00000160: d142 6abd 5393 dbbc 27a0 90bd 2c84 00bd
00000170: 8d19 8cbd aac7 6d3d 497b 6b3d 1fee 4bbd
00000180: 32e1 9abd 2f42 debc b714 603d 9354 263d
00000190: 53e9 c33d 3df6 663a fe2e 9d3d 0a55 c03d
000001a0: 60a6 613d e771 7dbd 9ea8 b03d ea5e 5abd
000001b0: 97e8 62bd d1d2 283c ba24 1f3d 9552 803c
000001c0: bddc d9bc 8294 39bd 4cfb f03c f39f 3dbd
000001d0: 56c8 033d 360b d33c 9737 6a3c 56a2 8bbd
000001e0: 641f 89bd 9018 a3bd 8470 373d d154 f6bc
000001f0: c521 87bc 7f02 853c 0995 cf3d 2f57 1c3d
00000200: faf7 9bbc ffea ffbc 16db 80b9 90d8 85bd
00000210: e6a8 2d3d 5845 ccbc f6f4 4fbd ae5e 373b
00000220: 8d8d 03bd c56f a43d 39eb 953d 4efd f9ba
00000230: 5a21 7f3d 3033 78bd 12f8 1d3d b7f0 3d3d
00000240: a7df 7abd de65 14bd 40a4 f0ba 1c0b 61bd
00000250: d947 37bd 50ac 73bd 9a0a a4bd c848 f6bb
00000260: 405a 883d 4def 903d fddb 503c 1e6d a23d
00000270: 02ab dbbc c522 9fbc b9d4 a5bc cba1 e7bc
00000280: 4305 79bb a784 51bd 875a 8d3b 6d27 ff3b
00000290: 69a7 6a3d 72c2 843d e399 c3bd ef07 b13c
000002a0: 3a11 a6bd b627 77bc 3958 77bd fd01 b83c
000002b0: ff97 403c 4c2d 6c3b fcc9 38bd 9524 3f3d
000002c0: 2616 e7bc f419 993d 7c3d 14bd 59b8 f1bb
000002d0: b8e4 f3bc 8a8f a53c 11b7 85bd f429 443d
000002e0: eb52 a83d 98e7 853d d2bc dd3c c96f 343d
000002f0: ada9 d03d 7230 ed3c bab7 673c 5ea2 a3bd
00000300: 6e46 aabd 1f42 a83d 5be5 c0bc 533c 953d
00000310: ac71 383d b722 773d 8f39 46bd d14c e83b
00000320: 664b 80bd 482e dc3c e1cd 993d c634 57bd
00000330: c9ed 88bd 5553 713d fd52 613d 8103 0d3c
00000340: ce65 973d 5422 573d d66c 563d 36a7 5cbd
00000350: f50b 80bd e963 bdbd 5812 e5bc 72ee c0bc
00000360: 2593 ff3c ca33 113d 50c2 52bb 4eee 063c
00000370: 1713 32bd 7dab b93c c785 0abb d5a0 abbd
00000380: 70d8 7ebd 83f7 51bd 3f91 963d 75ab 01bd
00000390: 0647 a5bd 8aa9 53bc 294a fcbc 6067 18bd
000003a0: 9343 013d 8e59 82bc aa2f 54bc 6fd7 7e3d
000003b0: f1c7 cd3c c182 b13c 5a64 51bd 2a82 c5bc
000003c0: 73a0 55bd 9ae9 ca3c 9670 55bd c8fa a13d
000003d0: 5bb1 b03d cc2f ec3c 4712 6abd e72d 9339
000003e0: 3189 ebbc 1f56 2c3d 04ec 003d 57db 493c
000003f0: 36bc 933c 1896 86bd 007a a1bc c2e0 0dbd
-0.057980724 -0.0636877 0.09194866 -0.05654376 0.06585101 0.054468405 -0.012273426 0.022222407
0.03263922 0.0022410017 0.018893467 0.09752183 -0.021579605 0.07695583 -0.054608922 0.004296495
-0.026354635 -0.034118686 -0.019154264 -0.07278874 -0.042260133 0.008635084 -0.05242123 0.026512153
0.0035987135 -0.03923651 0.08883492 -0.028109588 -0.017225133 0.004182502 -0.060334973 0.020138
0.06648946 -0.038491827 0.103632614 0.028948236 -0.103780225 0.043231476 0.0180412 0.0032677106
0.07413072 0.028467745 0.019778598 0.07542134 -0.08532181 -0.06439214 -0.0042698183 0.06908067
-0.026308542 -0.06670678 -0.046529848 -0.07894444 0.037787437 0.0056147133 -0.07833401 0.028865334
0.042331155 0.0529748 0.042166468 0.0830508 -0.0019873665 -0.0853573 -0.009987157 0.031080356
-0.016548123 -0.029407552 -0.03206633 0.06557444 -0.052603148 -0.042411286 -0.05954615 0.060986716
-0.014882644 -0.015064095 0.0031915435 0.06258574 0.047167815 -0.0659202 0.036341615 -0.09708008
0.029166315 0.009387499 -0.010234468 0.0042032427 -0.014710521 0.039472263 0.07319921 -0.040905062
-0.057192627 -0.026803648 -0.07061797 -0.03137605 -0.06840811 0.058051743 0.05749062 -0.049787637
-0.07562484 -0.027131168 0.054707255 0.040608 0.095659874 0.0008810496 0.07674979 0.0939122
0.05509031 -0.061876204 0.08625911 -0.053313173 -0.055397596 0.010304169 0.038853385 0.015664378
-0.026594514 -0.045307644 0.029416703 -0.046295118 0.032173477 0.025762182 0.01429548 -0.068180725
-0.066954404 -0.07963669 0.044785038 -0.03006974 -0.016495595 0.016236542 0.10135848 0.038169082
-0.019039143 -0.031239985 -0.00024577294 -0.06535447 0.042397402 -0.02493541 -0.050770722 0.0027980017
-0.032117415 0.08029131 0.07320256 -0.0019072683 0.062287666 -0.06059569 0.038566656 0.04637214
-0.061248448 -0.03622996 -0.0018359497 -0.054942235 -0.044746254 -0.059490502 -0.080098346 -0.0075160004
0.06657839 0.07076893 0.012747762 0.07930969 -0.026814941 -0.01942576 -0.020243036 -0.028275391
-0.003799752 -0.051151898 0.00431377 0.0077866823 0.05728856 0.064824 -0.09550836 0.021610228
-0.081087545 -0.015085151 -0.06038687 0.022461886 0.011754989 0.0036037741 -0.045114502 0.046665747
-0.028208803 0.07475653 -0.03619145 -0.0073767123 -0.029772148 0.020210046 -0.06529058 0.047891572
0.0821894 0.065383136 0.027067576 0.04405192 0.10188613 0.028953765 0.014142925 -0.079899535
-0.08314215 0.082157366 -0.023546865 0.072868966 0.04503028 0.06033584 -0.048394736 0.0070892354
-0.06264381 0.026877537 0.075099714 -0.052540563 -0.06685979 0.058917362 0.055010784 0.008606792
0.073924646 0.052522972 0.052349888 -0.053870402 -0.062522806 -0.09247572 -0.027962849 -0.0235512
0.031198094 0.03544978 -0.0032159276 0.008235527 -0.043475237 0.02266478 -0.0021136866 -0.08380286
-0.06221813 -0.051261436 0.07351922 -0.031657655 -0.08070187 -0.012918839 -0.030797081 -0.03720796
0.031558584 -0.015911844 -0.012950817 0.062217172 0.025119754 0.021668794 -0.051121093 -0.024109919
-0.05215497 0.024769593 -0.052109323 0.07909161 0.08627578 0.028831385 -0.057146337 0.00028072225
-0.028751941 0.04207432 0.031475082 0.012320361 0.018034082 -0.06571597 -0.019711494 -0.034638174

conv3.bias f4 [32]
00000000: fa6c 76bd 7cb6 073d d5fc 43bd d7ee f1bc
00000010: bd0a 4bbd bcb5 003e 1595 133d efed ac3e
00000020: 1765 27bd 47f1 843c 39a6 84bd 18cd f4bc
00000030: 7509 0e3d 28f6 f23c a0b8 5a3d ba86 f43d
00000040: c603 72bd b841 bebc 801c d53e 88c8 e03d
00000050: 7c47 8c3d bcac 87bd b0dc 763e 1ba5 adbc
00000060: 9600 c1bd 610c e23d ecd7 95bd 06b7 f2bc
00000070: 29c7 2f3e 9b30 1cbd 28da 86bc 8568 a93d
-0.060162522 0.033133015 -0.04784854 -0.029532833 -0.049570788 0.12569326 0.036030848 0.3377528
-0.04086789 0.016228331 -0.06477017 -0.029882953 0.034676988 0.029658392 0.05339873 0.119397596
-0.05908563 -0.023224697 0.41623306 0.10975748 0.06849572 -0.06624743 0.24107623 -0.021196892
-0.0942394 0.11037517 -0.073165745 -0.029628288 0.17165817 -0.03813229 -0.016461447 0.08271889

conv4_1.weight f4 [2, 32, 1, 1]
00000000: ae49 3c3e c426 5b3d f7c3 95be ea31 90bd
00000010: 1d71 b7bd e318 f8bd e01c 413e 57b1 aabe
00000020: 3547 183e 9f95 d9bd 383d 2fbd 8371 4fbe
00000030: 6756 d13e 2dc8 38bd 1eb6 763d c02e f1bd
00000040: 1811 bfbd c915 eebd d05b 9fbf 9fee 1e3f
00000050: 02cb 593f 0000 4fbd 7e74 213f 224c ee3c
00000060: 23e5 2d3c 204f a83e 2ff4 93bd fc6b bcbd
00000070: 5c81 3e3e 35d4 31bd 7486 cebd f23e 953e
00000080: aeb1 0ebe f40e 213d 5b6b 883e 4588 963d
00000090: 74ac b53c 2aa3 5e3e e931 4ebe f728 de3e
000000a0: 6801 263e 3639 4dbd e290 303d 1515 44bd
000000b0: 73bd f0be 6f13 073e f262 ba3d 7c7f ae3b
000000c0: cf76 503e 3ae9 ddbd d7cd 8c3f 18ff 23bf
000000d0: 7bbb 3ebf 510f 1a3e 6529 2dbf bba0 03be
000000e0: 1d09 05bd bdf9 07bf 4d42 1bb9 73d7 2e3e
000000f0: a847 133e 3a0d 31bd ba7b 59be fbff 9ebe
0.18387482 0.053503767 -0.29251072 -0.0704077 -0.089571215 -0.12114122 0.18858671 -0.33338425
0.14870913 -0.10624241 -0.042782992 -0.20258145 0.40886232 -0.045112778 0.060232274 -0.11776495
-0.09329432 -0.11625249 -1.2449894 0.62082857 0.8507539 -0.05053711 0.6306838 0.029089037
0.0106137125 0.32872868 -0.07224309 -0.09200284 0.18604034 -0.043415267 -0.10084239 0.29149586
-0.13934967 0.0393209 0.26644406 0.0735021 0.022176959 0.2174193 -0.20136227 0.4339063
0.16211474 -0.05010339 0.04310692 -0.047871668 -0.47019538 0.13191007 0.091009036 0.005325256
0.20357822 -0.108355 1.1000317 -0.6406112 -0.7450482 0.15044905 -0.6764129 -0.12854283
-0.032479394 -0.53115445 -0.00014806651 0.17074375 0.14382803 -0.043225504 -0.21238604 -0.31054673

conv4_1.bias f4 [2]
00000000: 2856 afbe 81b0 9b3e
-0.3424542 0.304081

conv4_2.weight f4 [4, 32, 1, 1]
00000000: 46ac ef3c b1ff ba3d b64b 5ebe 2d8c ed3c
00000010: 0635 683d 1b74 6dbd 1216 913d c7f5 e13a
00000020: 3457 1cbe 07ce f73d cc00 5bbd ff65 6a3e
00000030: 25f1 66be 38f3 57be 2861 42bc c075 cb3d
00000040: a9a3 b43d 25e3 7e3d ecd1 1b3e 7960 9c3e
00000050: b5ed 143d b457 d3bd eec3 863d 1d16 eebc
00000060: a987 58bd 20db 33bc 0285 023e f7c8 dbbc
00000070: 6c5b ecbc ab81 893d 5047 7f3d c296 183d
00000080: b7e5 a03d 3bd0 4b3e 75c1 10bd 873a f5bd
00000090: 4564 5ebd 8b28 35be f34a 543e 78e4 b4bd
000000a0: 1a83 2c39 5444 f43d fadf 02be 7d03 1fbe
000000b0: 1685 44be d000 4f3e 6bfe 33be d9fa 54be
000000c0: c044 173e 29af 33be 05f0 373c 900a 00bd
000000d0: b5fa 293d bca9 163c 5f00 463d 2f80 13be
000000e0: 4087 823d 8677 af3d f602 0ebe 8d84 043e
000000f0: 8f48 853e e36f 083e 4534 4c3e 8658 52bd
00000100: c39e 00be dcb3 123d 1f41 0f3e a240 373d
00000110: 1209 f5bb 7a09 d63d 310b 3bbd 531c e03d
00000120: 31ca 21be 62f0 fabc f4e3 85bd 22d7 1d3b
00000130: 2a19 17be 59f9 c33d e986 c5bc 97d7 a33d
00000140: a7d7 893d 9d52 8dbd 8489 ad3c dbce dabb
00000150: 3d22 023d 0b83 10be 1484 2d3e 3599 98bd
00000160: cbe8 d63b 8b66 113d 7ff7 bfbd d9a1 863d
00000170: cb94 c53b e2d6 283e 3166 e43d fae7 9e3d
00000180: afb0 14bd 2d67 bc3d 72e7 adbc ba0f 30bd
00000190: e4e1 1e3d 988e d8bd 414c a9bc 56e3 3c3e
000001a0: df8c cfbd a00f 2cbe 3856 e9bd 83b4 adbd
000001b0: 3da7 7e3d 5e26 bbbd f7c7 a0bd 3aa7 7f3c
000001c0: ad37 373b 8d81 4bbd 2efe 11bc 8465 41bd
000001d0: 212c 44bd b286 093e 48f8 c43d 8f00 a83b
000001e0: c958 b53d 4a6a 283d dce2 083d 06cd a1bd
000001f0: 6019 d43c cbf9 103e 472e 2e3d e8b6 fb3a
0.029256951 0.091308005 -0.21708569 0.028997505 0.056691192 -0.057972055 0.07084288 0.0017239385
-0.1526764 0.120998435 -0.053467557 0.22890471 -0.22552927 -0.21088874 -0.011863984 0.099345684
0.08820278 0.06222834 0.15216798 0.30542353 0.036359508 -0.103194624 0.06580339 -0.029063279
-0.05286375 -0.010977536 0.12746051 -0.026829226 -0.028852187 0.06714185 0.06232387 0.03725315
0.07856315 0.19903652 -0.035340745 -0.11974054 -0.054294843 -0.17691247 0.20731716 -0.088326395
0.00016452037 0.11927095 -0.12780753 -0.15528674 -0.19191393 0.20215154 -0.17577522 -0.20798816
0.1477232 -0.17547287 0.011226659 -0.031260073 0.04149886 0.009195741 0.048340198 -0.14404367
0.06373453 0.08567719 -0.13868317 0.12941189 0.2603192 0.13323931 0.19941814 -0.051353954
-0.12560563 0.03581606 0.13989685 0.044739373 -0.007477888 0.10451026 -0.04566497 0.109429024
-0.15799786 -0.030632202 -0.06537619 0.0024084528 -0.14755693 0.09569044 -0.024112182 0.08000105
0.067305855 -0.06900523 0.021183737 -0.006677491 0.031770933 -0.14112489 0.16944915 -0.07451097
0.006558513 0.035498183 -0.09373378 0.06573839 0.0060297004 0.16488221 0.11152304 0.0775909
-0.03630131 0.09199367 -0.021228526 -0.042983748 0.038789645 -0.105740726 -0.020666244 0.18446097
-0.10134291 -0.16802835 -0.11393398 -0.084816955 0.06217121 -0.09138177 -0.0785064 0.015603835
0.002795677 -0.049684096 -0.008910699 -0.047215953 -0.047893647 0.13430288 0.096176684 0.0051270197
0.08854825 0.04111699 0.033419475 -0.07900433 0.025891006 0.14157788 0.042524602 0.0019204291

conv4_2.bias f4 [4]
00000000: d69d cbbd 7c48 a53d 4527 243f ceb9 3a3f
-0.09942214 0.08070466 0.6412242 0.72939765

conv4_3.weight f4 [10, 32, 1, 1]
00000000: 0643 203e a3f1 333d 9e04 e63d d276 13bd
00000010: 021f e03d aa51 08bd 0f50 b0bd 7ee9 353e
00000020: 6bf6 043e d411 6fbc 5eff 823d 5592 a83d
00000030: 0fca e33d 8dfe 253d 85ba cf3d cbb6 5bbd
00000040: 8791 2ebe fbed 76bd bc70 623c 6f0f 083e
00000050: 0f5b 663d 5441 11be d733 54bd d071 1fbe
00000060: 766d 6b3d 1ec1 cabc a78b ce3c 3ebe c8bd
00000070: 4fd9 1fbe 1fb1 cbbd 2a21 a8bd 0f1b 413c
00000080: 28e8 9e3c c2d8 fcbd 3e1c 0e3e 0dfd 80bd
00000090: 35a7 ca3b 3440 37ba 13c1 64bc d539 5f3d
000000a0: 0cf2 243d 326b f0bd f161 2a3e d05d 003d
000000b0: eb13 e1bc 7481 c83d 91ca 293d 9f95 863d
000000c0: 7c20 743d b50e da3d 2a72 3d3d 71cc c5bd
000000d0: 3365 813b c840 22be 64c0 0e3e 1d9c dcbd
000000e0: bd8d 1d3e f9d8 573e 022d 1fbd 4832 e1ba
000000f0: 1b76 2b3e 82cf 6dbd f148 63bb 8303 84bd
00000100: f41d 343e 85f4 0bbe cc23 ca3d c3d9 273e
00000110: ff68 aabd 18f3 413e 35d7 ebbd c8d1 273d
00000120: fc2a eabd fcf0 03be 6126 153e 7809 99bd
00000130: 74f4 a6bd 14cb 27be 67f4 123d 4561 a73c
00000140: aa76 f3bd e6dd 83bd 9bab a23c de38 313d
00000150: 4d57 87bd 1ae3 873d 6e9c c73c 6a6a b33d
00000160: 5565 1fbe 4f12 35bb a5bd c63c a6ee 093e
00000170: 22d0 e53c 6249 c3bd 88b5 e3bd 8741 133e
00000180: 9ae1 e5bd 9247 0bbd 1414 bd3d c117 69bc
00000190: bbd2 7e3d bfb1 5abd 6ef1 acbd 476f 1ebc
000001a0: c635 fe3d b4ee ca3d c494 2cbe c044 20bd
000001b0: 9999 d43d 9e81 593c 37f9 77bd 6e77 b2bc
000001c0: 2ea1 60bd 442b 95bc 9d1e bd3d 8a4e 27be
000001d0: c90d a53d a4a4 233d 7fbf d23d 1458 30be
000001e0: 68a9 1a3d b01d 143e 8768 dc3c f637 3cbb
000001f0: aba0 b93d ca5a 17be 53d7 123d 1187 9a3d
00000200: bee4 dc3d 426c e6bd 4bfa 263d 8f1d 9c3d
00000210: 4d9b f13d 6fb6 dcbd 91b1 063e c889 3e3e
00000220: 8e63 f5bd 92cc cc3d b8a6 32be adc1 563d
00000230: cf41 64bd 4131 babd 0bb1 26be 335b aa3c
00000240: d633 d3bd 2f55 31be dd12 dfbc 6150 4c3d
00000250: b66f f8bc 9295 dc3c 13cf 6c3d c4a9 c9bd
00000260: 639a 023e bbf0 ea3b 9f64 873c 5620 13be
00000270: dd52 2f3e e913 e6bb 46f1 56bd ee40 023e
00000280: 7bb5 1e3e ccb3 58bd 46d1 b13d 00e3 f93d
00000290: 4587 003e 437b 1d3e f704 20be af99 303e
000002a0: 68a4 033d e644 b2bd 37ee 64bd df1c 883c
000002b0: d7a6 80bd e2d2 24be a710 2c3d a0b8 fdbd
000002c0: db66 eebd 993d 08bd e183 3dbd 333c 74bd
000002d0: 3da3 afba 9b23 10bd 0898 383d ad40 0d3d
000002e0: 4b6a 883d 45ca a4bd fc6a 99bd 8d03 dbbd
000002f0: fa55 1d3e 3f6a fbbd 884a d5bd 96ef 193e
00000300: aee9 9e3d bdde f8bd ea1e c63d 8027 0dbe
00000310: d8db 25bd 2d68 2cbe 1fe8 153e ce31 103e
00000320: f8c5 b53d f786 513d 6dd2 aa3d 244f cabc
00000330: 6f8e 0dbe 91b5 933c b4c6 b73d b82d e13d
00000340: 9f02 203e c636 bc3d ef89 313c 8bc9 f83d
00000350: 22bc 0f3e 3f2f 9f3d 43ae 80bb 6f2b dc3d
00000360: 7e09 1cbe 9f8b df3b 618a 15be f85b a7bd
00000370: d7d4 043e 97ef c2bc b0fe ee3b 4ae3 17be
00000380: 793b c63d e6ed 4d3d 346e d43d 6f48 eb3d
00000390: bd47 083d 762c b63d 8982 0ebe 6e0e 4a3e
000003a0: 3162 233e 228e d93d 38c6 143e 322b c1bd
000003b0: 1280 07be 19a0 84bd 07f2 48bd c582 a23c
000003c0: 33dd b03d 4d8a d03b 124f 65bd b596 113d
000003d0: d4f5 533d 537b 7fbd 7b9c 30bc c86a 0ebd
000003e0: 82ef c2bd 386a 373d 4899 bcbd bd80 20be
000003f0: 0881 b03d c370 f2bd 9131 fabd 51ff 423e
0.15650567 0.043931615 0.112313494 -0.036001988 0.10943414 -0.033281006 -0.0860902 0.17764851
0.12984626 -0.014591653 0.06396364 0.082310356 0.11122524 0.04052596 0.10142998 -0.05364112
-0.17047702 -0.06028555 0.013820823 0.13287137 0.056239184 -0.14185077 -0.05180725 -0.1557076
0.057477437 -0.024750289 0.025213076 -0.09801911 -0.1561024 -0.099458925 -0.082094505 0.011786236
0.01939781 -0.12346031 0.13877961 -0.062982656 0.0061844834 -0.0006990463 -0.013962048 0.054498512
0.040269896 -0.11739196 0.16638924 0.031339467 -0.027475318 0.09790316 0.041452948 0.06571507
0.059601292 0.106473364 0.046251453 -0.09658135 0.0039488315 -0.15845025 0.13940579 -0.10771964
0.153861 0.21078862 -0.038861282 -0.0017181123 0.16744272 -0.058059223 -0.0034680928 -0.06445982
0.17589551 -0.13667496 0.09870109 0.16391663 -0.08320808 0.18940389 -0.11515657 0.040971547
-0.1143398 -0.12884897 0.14565422 -0.07472509 -0.081520945 -0.16386062 0.03587761 0.020432124
-0.11887868 -0.06438808 0.019857218 0.043267123 -0.06608448 0.06635113 0.024366584 0.08760531
-0.15565999 -0.002762932 0.024260351 0.13469943 0.028053347 -0.09535481 -0.11118609 0.14380465
-0.11224671 -0.0340038 0.09232345 -0.014226855 0.062212687 -0.053392168 -0.084444866 -0.009670085
0.124126 0.0990881 -0.16853625 -0.039128065 0.10380859 0.013275532 -0.060540404 -0.021785464
-0.054841213 -0.018209107 0.09234355 -0.16338554 0.0805927 0.039951935 0.10290431 -0.17221099
0.037759215 0.1446445 0.026905311 -0.0028719879 0.09063848 -0.14780727 0.03584988 0.07545293
0.107858166 -0.11251117 0.04076604 0.07622825 0.117971994 -0.10776984 0.13153674 0.18607247
-0.11981879 0.09999956 -0.1744641 0.052430797 -0.055726822 -0.09091426 -0.16278474 0.02079544
-0.10312621 -0.17317651 -0.027230674 0.049881343 -0.030326705 0.02692679 0.05781467 -0.09846833
0.12754206 0.0071698106 0.016527472 -0.14367804 0.17121454 -0.0070214164 -0.05247619 0.12720081
0.15498917 -0.052905843 0.08682494 0.122015 0.12551601 0.15379052 -0.15626894 0.17246126
0.032139212 -0.087045476 -0.055891242 0.01661533 -0.06281822 -0.1609607 0.04200807 -0.1238873
-0.11640712 -0.03326187 -0.046268348 -0.059627723 -0.0013400089 -0.035190206 0.045066863 0.034485508
0.06660899 -0.08046392 -0.07491109 -0.10694037 0.15364829 -0.12276124 -0.10414606 0.15032801
0.077594146 -0.12151859 0.09673865 -0.137846 -0.040492862 -0.16836615 0.14639328 0.14081499
0.0887565 0.051154103 0.08340917 -0.02469594 -0.13823865 0.018030914 0.089734465 0.10995048
0.15626 0.09190135 0.010836109 0.12147816 0.1403661 0.07772683 -0.0039270236 0.10750472
-0.15237996 0.006822064 -0.14603569 -0.081718385 0.12971817 -0.023795886 0.0072935447 -0.14832798
0.09679312 0.050275706 0.10372582 0.11488425 0.03327154 0.08895199 -0.13916983 0.19732067
0.15955426 0.10622813 0.1452874 -0.09432067 -0.13232449 -0.06475849 -0.04905894 0.019837746
0.086359404 0.006364143 -0.05598361 0.035544116 0.05174811 -0.06237347 -0.010779495 -0.034769803
-0.09518339 0.044779032 -0.092089236 -0.1567411 0.08618361 -0.11837914 -0.12216485 0.19042708

conv4_3.bias f4 [10]
00000000: 1508 fa3c 1a26 c13d b073 953e 6f0b 1c3e
00000010: 65a7 133e f829 983e 6a0b 063d 7b00 c63e
00000020: 9914 883e dbee cb3e
0.030521432 0.094310954 0.29189825 0.15238737 0.14419325 0.2971952 0.03272573 0.38672242
0.26578215 0.3983067

momentum_buffer f4 [10, 3, 3, 3]
00000000: 53b6 9e3a fe28 113a d942 e239 1597 f03a
00000010: 1338 9b3a d2e7 5f3a fdd7 dc3a 9e5b c63a
00000020: 593d 953a ea0b 6039 a337 1339 493d 1839
00000030: 785e c039 1542 4b39 f66f 5b39 0ac6 3039
00000040: b110 8939 2fd7 a239 c58b 9039 0f86 6639
00000050: 5100 4b39 2a00 f839 a430 a739 9950 b739
00000060: 9f08 c739 ced6 ec39 7f3c 113a 0000 0000
00000070: 0000 0000 0000 0000 0000 0000 0000 0000
00000080: 0000 0000 0000 0000 0000 0000 0000 0000
00000090: 0000 0000 0000 0000 0000 0000 0000 0000
000000a0: 0000 0000 0000 0000 0000 0000 0000 0000
000000b0: 0000 0000 0000 0000 0000 0000 0000 0000
000000c0: 0000 0000 0000 0000 0000 0000 0000 0000
000000d0: 0000 0000 0000 0000 aa0a 1b3f 4cdc 1b3f
000000e0: 2777 2a3f 5819 333f 9193 393f 059a 3d3f
000000f0: b958 453f 410d 433f 0fc7 3c3f 7370 bb3e
00000100: f5b2 b73e acc9 d63e fddc ed3e a7dd ed3e
00000110: 6bfa f63e ef6b 093f 61b4 003f f4ae ed3e
00000120: caa3 c73e ac1f cb3e 7c57 e33e d466 f93e
00000130: 40d7 fc3e 4bac ff3e 6280 123f 209d 073f
00000140: cec9 f33e da96 0fbe 229b 43be ce9e 7ebe
00000150: dc74 44be 8a43 84be d637 8bbe 53ae 53be
00000160: b16d 87be cca7 80be f24d 25bd caea 87bd
00000170: b8df e6bd 217e 82bd d0b8 d4bd 6e16 f4bd
00000180: 0839 7cbd 802c ccbd b8d0 c9bd 6a3f d1bd
00000190: e812 f4bd 12f0 10be 4590 f1bd 7a0a 08be
000001a0: c8f8 06be b6c4 e5bd 4670 f1bd a231 dabd
000001b0: 3a4f 343e 3222 2e3e 43c0 213e 5e16 283e
000001c0: eb2e 203e c459 fa3d 5257 f03d db28 fc3d
000001d0: fcf6 133e aa7f 1f3e 97dd 2d3e 2828 2a3e
000001e0: 507f 153e 3eec 1a3e 34a5 fb3d c427 c13d
000001f0: f03d e43d 5c7b 073e 1a46 0b3e e77f 203e
00000200: a455 1d3e e48c 0f3e 7a51 1d3e 1f81 fe3d
00000210: e5a3 b13d 65ad eb3d ac0a 0a3e cc52 b2bd
00000220: 40d8 c0bd 90b0 f6bd d9cc abbd db7d b5bd
00000230: eb25 ddbd 1b37 e5bd f824 c1bd a3e4 babd
00000240: 20c3 6fbc 47b8 b3bc 9eed 66bd b0e4 67bc
00000250: 7b10 47bc 611d 24bd 90ee 57bd e305 c1bc
00000260: c4d4 c7bc c0bb 12bc c0b7 0aba a04e 8abc
00000270: 3c69 23bc 2f6d 803c 28e9 c43b 5fce 36bd
00000280: 28ac ad3b f8dd a83c 907f 98be e67a 99be
00000290: 0406 a4be ab29 8cbe 2344 87be 328b 88be
000002a0: 1733 bdbe 4202 9ebe c07f 92be e287 93be
000002b0: 8fec 98be 34c9 a0be 04d2 82be b116 7abe
000002c0: 94f9 84be 408b c0be f0a8 9cbe ed1e 95be
000002d0: 57fe bcbe 2a76 b7be 0e51 adbe 32e1 a0be
000002e0: 8233 94be 840a 8ebe d06f e1be 2a11 b3be
000002f0: 4d2a a1be 1298 2b33 898a b433 3cc0 8f33
00000300: 7729 8533 87a4 f1b3 61c2 b6b4 900e 9a34
00000310: 5fe4 2cb5 8c00 2934 35ab 60b2 5d27 0032
00000320: d705 3733 1e78 dab2 8bd4 47b3 5ca7 9134
00000330: 2c7a c8b3 2da0 91b4 f3ed 9035 5940 8bb2
00000340: 10ae a932 6933 6233 80ba 0432 b836 17b3
00000350: 43d0 8a34 42f9 4fb3 1c1e 92b4 c1c3 a935
00000360: 2a93 00bf 442d cfbe ebfe a0be e284 d6be
00000370: d79a aebe 207d 93be 2abf 9abe 2cdf 8ebe
00000380: a880 83be 3987 cebe ced1 9bbe eeca 5cbe
00000390: 9e61 a7be a13c 75be 10f8 39be cc14 5fbe
000003a0: f547 39be 7540 13be a690 c6be e98d 9dbe
000003b0: 8a80 6cbe ff0b a6be bf28 80be c33b 52be
000003c0: 0b44 6fbe 74b3 51be d259 3ebe ba65 9dbe
000003d0: 3821 a0be 98a6 abbe a1be d1be 95a3 d4be
000003e0: 55f4 d5be 202e 02bf fad3 f4be 08e8 ebbe
000003f0: 1c64 6dbe 68f5 7ebe 74e6 8ebe 6b22 b2be
0.001210878 0.00055374193 0.00043155884 0.0018355573 0.0011842273 0.0008541319 0.0016849037 0.0015133505
0.0011386081 0.00021366743 0.00014039739 0.0001451868 0.00036691478 0.00019384206 0.00020927176 0.00016858443
0.00026143112 0.00031059372 0.00027569957 0.0002198445 0.00019359706 0.00047302368 0.00031888962 0.0003496453
0.0003796266 0.0004517347 0.00055403257 0.0 0.0 0.0 0.0 0.0
0.0 0.0 0.0 0.0 0.0 0.0 0.0 0.0
0.0 0.0 0.0 0.0 0.0 0.0 0.0 0.0
0.0 0.0 0.0 0.0 0.0 0.0 0.6056315 0.6088302
0.6658806 0.69960546 0.72490793 0.7406314 0.77088505 0.761921 0.7374124 0.3660923
0.3587872 0.41950738 0.46457663 0.4645817 0.4823793 0.5368032 0.50275236 0.4642254
0.3899215 0.396726 0.44402683 0.48711264 0.49382973 0.49936137 0.57227147 0.5297413
0.47614902 -0.14022389 -0.19102147 -0.24865267 -0.19185203 -0.25832778 -0.27191037 -0.20671968
-0.26450875 -0.2512802 -0.040357538 -0.06636579 -0.1127314 -0.063717134 -0.10386813 -0.119183406
-0.061577827 -0.09969425 -0.09854263 -0.102171734 -0.119176686 -0.1415408 -0.11795095 -0.13285246
-0.1318084 -0.1121916 -0.117889926 -0.10653998 0.17608348 0.17005232 0.15795998 0.16414782
0.15642898 0.12224153 0.11735405 0.1231248 0.14449686 0.15576044 0.16979061 0.16616881
0.14599347 0.15129182 0.12287369 0.09431413 0.11144626 0.13230652 0.1360096 0.15673791
0.153647 0.1401859 0.15363112 0.12426972 0.086738385 0.11507682 0.13480633 -0.087071985
-0.094162464 -0.120453954 -0.08388681 -0.08861896 -0.10798248 -0.11192151 -0.09430879 -0.0912564
-0.014633924 -0.021938456 -0.056378953 -0.014153644 -0.012149925 -0.04006708 -0.052717745 -0.023562377
-0.024393447 -0.008955896 -0.0005291663 -0.016883194 -0.00997382 0.015677063 0.0060092397 -0.044630405
0.0053000636 0.020613655 -0.29784822 -0.29976577 -0.3203584 -0.2737554 -0.26419172 -0.26668698
-0.3695304 -0.30861098 -0.2861309 -0.28814608 -0.2986798 -0.31403506 -0.25550854 -0.24422719
-0.25971663 -0.3760624 -0.3059764 -0.29125157 -0.36912796 -0.3583234 -0.33850902 -0.3142181
-0.28945547 -0.27742398 -0.4403062 -0.34974033 -0.31477585 3.9952347e-08 8.4071026e-08 6.6939236e-08
6.2008375e-08 -1.12523644e-07 -3.404157e-07 2.869533e-07 -6.4407317e-07 1.573955e-07 -1.3077444e-08 7.459531e-09
4.261332e-08 -2.5433163e-08 -4.6526605e-08 2.7130125e-07 -9.335449e-08 -2.7124898e-07 1.0798088e-06 -1.6210992e-08
1.9753344e-08 5.2666483e-08 7.725816e-09 -3.5207194e-08 2.5856033e-07 -4.8422642e-08 -2.7216527e-07 1.2648453e-06
-0.50224555 -0.40464222 -0.31444487 -0.41898257 -0.34102508 -0.288064 -0.30223972 -0.27904642
-0.25684094 -0.40337542 -0.30433506 -0.21561787 -0.32691664 -0.2394891 -0.18161035 -0.21785277
-0.18093856 -0.14380057 -0.38782233 -0.3077233 -0.23095909 -0.32431027 -0.25031087 -0.2053061
-0.233658 -0.20478612 -0.18588951 -0.30741674 -0.31275344 -0.33525538 -0.4096575 -0.41531053
-0.41787973 -0.5085163 -0.47817975 -0.46075463 -0.2318272 -0.24898303 -0.27910197 -0.34791884

momentum_buffer f4 [10]
00000000: bca4 cd3a 0000 0000 9e48 fb3f b4d0 dabe
00000010: f044 bf3e 613d 0bbf e597 4dbf 4cc5 fcb4
00000020: cad8 7abf 5076 46bf
0.0015689353 0.0 1.9631536 -0.42737353 0.37357283 -0.5439053 -0.803099 -4.708221e-07
-0.97987044 -0.7752428

momentum_buffer f4 [16, 10, 3, 3]
00000000: 7faa 9836 10a2 2b37 27e5 4337 56ee 71b6
00000010: 043f f9b7 8b75 6cb8 1936 1033 71dd cfb3
00000020: 0821 59b4 0000 0000 0000 0000 0000 0000
00000030: 0000 0000 0000 0000 0000 0000 0000 0000
00000040: 0000 0000 0000 0000 54d6 0ebd 64af 6bbc
00000050: c0a0 02bb 14e8 01bd dc36 ebbc 909b a5bc
00000060: ce03 a8bc 9656 6cbc 5803 83bb ccba 803b
00000070: 183c 353b 2018 2a39 85d2 943b b609 243b
00000080: 302c c839 afc1 653b ca0b 3b3b 24e4 493b
00000090: 75b7 0bbe 825f 07be e202 0abe 8c51 d7bd
000000a0: bfd2 d6bd a7a5 e5bd 8e41 dfbd d63b e7bd
000000b0: c442 e9bd 9867 abba cbdd 75bb d012 57bb
000000c0: 74c1 eb3b 8072 a038 1ec2 613a ee78 f73b
000000d0: 909f 7aba 6898 d039 85ab c43b f1b7 073c
000000e0: 495c 1c3c f0e3 d83a 5093 78ba a07e 113a
000000f0: 4047 0f3a 40b7 2bbb 0072 f6b9 24e9 7ab2
00000100: 51dc aeb3 c898 21b2 51ce 5ab0 ff1b 84b3
00000110: 13e8 b5b2 69b7 e1b0 3684 12b2 aab9 b2b2
00000120: 52dd b0bc b6bc 25bc 346b df39 7497 c9bc
00000130: c150 6abc 4f5d aabb 4011 a1bc 26be 96bc
00000140: 1a81 9dbc 777f dfbc b23c 91bc 617b 4cbc
00000150: a574 c9bc 8653 b2bc aa25 9cbc 34ca 8fbc
00000160: 5a95 5fbc 0c3a 43bc 8a1d e1b8 7719 75b8
00000170: 2618 36b7 1308 45b9 c938 35b9 b409 bcb8
00000180: 5422 97b7 c55f 13b8 1402 5bb7 0000 0000
00000190: 0000 0000 0000 0000 0000 0000 0000 0000
000001a0: 0000 0000 0000 0000 0000 0000 0000 0000
000001b0: 3f05 3ebe 4a36 18be d513 ddbd b388 35be
000001c0: 2e37 17be dc8d fcbd 1b4b ebbd 751b d1bd
000001d0: 948e d3bd c5cc 7fbc 72c5 70bc fd18 92bc
000001e0: 4486 93bc bd84 94bc e36d 94bc 811a dabc
000001f0: a3d4 cbbc 5d07 98bc 7338 bebe 00ae c6be
00000200: e213 d7be a6a1 b9be d1d3 b2be fafe bebe
00000210: b437 b8be 8bf5 b7be 1084 c3be c69c 74bd
00000220: 2e8d 8fbd 77b3 77bd 551c 34bd ac98 7fbd
00000230: 1e20 67bd 8e3a 14bd 7a97 52bd 3955 6dbd
00000240: cb4e 42bd d4d0 5dbd ebe4 81bd eb10 27bd
00000250: 0b4d 50bd 232f 87bd 61da 11bd fcf4 33bd
00000260: a025 7cbd cef3 0532 4690 33b4 6777 a6b4
00000270: e564 68b2 bf99 ebb3 86d8 dbb3 4180 f9b3
00000280: 474d 3fb4 d26c 0fb4 7672 d3bd bfbd adbd
00000290: 6675 8ebd 5ed4 eabd 4664 b8bd 46af 8bbd
000002a0: feb5 e3bd 9a62 d2bd 48c4 c4bd a859 81bd
000002b0: c718 05bd 394b 41bc 1f88 32bd 2439 d5bc
000002c0: dcdc 81bc 2a2e e1bc 4586 8ebc 70f8 acbc
000002d0: df51 0e33 35c1 48b4 bcd3 4036 34f1 37b7
000002e0: 4f9b fa35 ac71 9437 8b27 ddb7 a2be f6b6
000002f0: 8f24 a0b5 0000 0000 0000 0000 0000 0000
00000300: 0000 0000 0000 0000 0000 0000 0000 0000
00000310: 0000 0000 0000 0000 b1f4 0bbe 32b4 ffbd
00000320: 6320 c5bd bfa9 24be b88b 03be 001c f2bd
00000330: 02b7 34be 2591 15be cc7e c5bd 2e53 adbd
00000340: 10b4 9dbd 3c78 8cbd d416 95bd 8434 97bd
00000350: a7f8 76bd 965c 80bd e838 8dbd 57c2 57bd
00000360: 60c7 7ebd 98ae 26bd 4806 d4bd 22bb 01be
00000370: 4c34 d6bd 0481 b9bd 2ae1 32be ce6e d2bd
00000380: 9409 8ebd 0d51 97bc fb0f 1fbd 57d1 bdbd
00000390: 8d90 ebbc da34 fdbc 5230 a6bd 195e 35bd
000003a0: 6905 5abd 0d6c ddbd 095d 393d da9a 663d
000003b0: b8c9 763d 2cb9 223d 4741 733d 8c16 753d
000003c0: 7eb3 aa3c 02a8 5d3d 0d2b 903d 0400 0080
000003d0: b851 ccb4 85b5 eeb2 8703 a0a9 92da 43ad
000003e0: 4c9d abb2 b91b d932 4ee4 f4b3 9115 16b4
000003f0: b0e1 e3bd e51f d9bd a2ec b0bd 7a94 02be
4.5498014e-06 1.0230127e-05 1.1676259e-05 -3.6050528e-06 -2.9712457e-05 -5.6376255e-05 3.3576814e-08 -9.6794686e-08
-2.0221717e-07 0.0 0.0 0.0 0.0 0.0 0.0 0.0
0.0 0.0 -0.034872368 -0.014385078 -0.001993224 -0.031715468 -0.028712682 -0.02021578
-0.020509627 -0.014424941 -0.0039982013 0.003928518 0.0027654227 0.0001622145 0.0045416974 0.0025030202
0.00038179895 0.0035058071 0.0028540962 0.0030806148 -0.13644202 -0.13220027 -0.13477662 -0.10513601
-0.104894154 -0.11213236 -0.109011754 -0.1129071 -0.11389688 -0.0013077138 -0.0037516232 -0.003281761
0.0071946923 7.650722e-05 0.00086119946 0.0075522577 -0.000956052 0.00039786403 0.006001892 0.008283601
0.009543487 0.0016547423 -0.00094824005 0.00055501796 0.0005465634 -0.0026201755 -0.00047005713 -1.4604925e-08
-8.142582e-08 -9.406172e-09 -7.960113e-10 -6.1518215e-08 -2.1176708e-08 -1.6423033e-09 -8.52838e-09 -2.0806358e-08
-0.021589909 -0.010115793 0.00042613747 -0.024608351 -0.01430148 -0.0051991115 -0.019661546 -0.018401217
-0.0192266 -0.02728246 -0.017729137 -0.012480588 -0.024591753 -0.021768343 -0.019060928 -0.017552473
-0.013646448 -0.011915695 -0.00010734338 -5.8436268e-05 -1.0853668e-05 -0.00018790392 -0.00017282659 -8.966346e-05
-1.8016588e-05 -3.5136723e-05 -1.3053901e-05 0.0 0.0 0.0 0.0 0.0
0.0 0.0 0.0 0.0 -0.18556689 -0.1486446 -0.10794798 -0.17727928
-0.14767143 -0.12331745 -0.114889346 -0.10210315 -0.10329929 -0.015612786 -0.014695512 -0.017834181
-0.018008359 -0.0181297 -0.018118804 -0.026623966 -0.024881667 -0.018558199 -0.37152442 -0.38804626
-0.42007357 -0.3625614 -0.34927228 -0.37303907 -0.35979998 -0.35929522 -0.38186693 -0.059719823
-0.0700935 -0.060473885 -0.043972332 -0.06240146 -0.056427114 -0.036188655 -0.05141399 -0.057942603
-0.047438424 -0.054154232 -0.06342491 -0.04078762 -0.050854724 -0.066007875 -0.035608653 -0.043934807
-0.06155932 7.797054e-09 -1.672316e-07 -3.1006786e-07 -1.3527118e-08 -1.09710065e-07 -1.02373676e-07 -1.1618295e-07
-1.7816375e-07 -1.3357501e-07 -0.10324566 -0.08483457 -0.06955986 -0.11466287 -0.09003501 -0.0682054
-0.11118697 -0.10272713 -0.0960775 -0.06315929 -0.032494333 -0.01179772 -0.043586846 -0.026028223
-0.015852384 -0.027487833 -0.01739801 -0.021114558 3.3136413e-08 -1.869674e-07 2.8733475e-06 -1.09638095e-05
1.8671652e-06 1.7695907e-05 -2.6363667e-05 -7.353564e-06 -1.1931569e-06 0.0 0.0 0.0
0.0 0.0 0.0 0.0 0.0 0.0 -0.13667561 -0.124855414
-0.09625318 -0.16080378 -0.12846267 -0.11821747 -0.17647937 -0.1460615 -0.09643325 -0.08463131
-0.0770036 -0.068588704 -0.07279745 -0.073830634 -0.060295727 -0.06267659 -0.0689562 -0.05267557
-0.062201858 -0.04069385 -0.103527606 -0.12669042 -0.104591936 -0.09057811 -0.17468706 -0.102750406
-0.06935421 -0.018471265 -0.0388336 -0.09268444 -0.02875545 -0.03090899 -0.08114685 -0.04427919
-0.053227816 -0.10811625 0.04525474 0.05630002 0.060250968 0.039727375 0.059388425 0.059835956
0.020837542 0.054115303 0.07039461 -6e-45 -3.805742e-07 -2.7789392e-08 -7.106039e-14 -1.1132999e-11
-1.997855e-08 2.5274732e-08 -1.1403664e-07 -1.3977684e-07 -0.11127031 -0.106017865 -0.08638884 -0.12751952

momentum_buffer f4 [16]
00000000: 360d d1bc 2341 98be cfb8 c1be 58c8 bebe
00000010: 5e3f a23f 9c4c 3d3a 78af c1be d26a 103e
00000020: be4b 4f3e fe37 043f 794b 8e3d 320a 42be
00000030: 8621 e73d 8d79 13bf c79c 1fbf 2082 7fbe
-0.025518995 -0.29737195 -0.3783631 -0.37262225 1.2675588 0.00072211935 -0.37829185 0.14103249
0.20243737 0.5164794 0.06947989 -0.18949202 0.11285691 -0.57607347 -0.623486 -0.24951982
