Pytorch face detection - Test/MTCNN_train_process/1/checkpoint_200.pth (torch, 111347 bytes, 36 tensors)

conv1.weight f4 [10, 3, 3, 3]
0.021694388 -0.05535504 0.057868116 0.047217816 0.13044922 0.0841845 -0.020481143 -0.17777826
0.003208848 -0.1370229 0.044199865 0.06325896 0.042957522 0.21138877 0.07076628 0.0889766
0.04796878 -0.14828567 -0.0067682867 0.23454215 -0.102715135 0.110604025 0.07260164 0.22342323
0.025972672 0.041032538 -0.02717089 -0.13288331 -0.13793986 -0.18354166 -0.19497803 -0.112560034
0.0015750257 0.08802666 -0.013294973 -0.1632925 0.18758568 0.048898138 0.048404705 -0.0018211021
0.101115674 -0.03905971 0.16525197 0.19398361 0.13987064 0.15157206 0.14635529 0.034354102
0.06558834 0.1124056 0.17523938 0.151597 0.18805636 0.1400381 0.09740411 0.115198836
0.11187497 0.259274 0.13129237 0.29555297 0.24783072 -0.055059772 0.13720033 0.21175167
0.20698543 0.10460775 0.052405126 -0.20506507 -0.034585055 0.065126635 -0.22034132 0.13031505
-0.06085401 0.14409816 0.16430865 0.050790906 0.030085342 -0.11009225 -0.043250464 -0.1313882
0.15946251 0.023870338 -0.2155126 0.03314986 0.051916443 -0.18984368 -0.0983202 0.057386912
-0.19868763 -0.17665708 0.107807115 -0.041045446 0.23634651 0.058641184 0.11825534 0.15234657
-0.09760611 -0.08549672 -0.06481068 -0.0035587384 -0.03793152 0.025619607 -0.21479973 0.025896087
0.10394479 0.043832626 0.10215575 0.16336374 -0.21363713 -0.017380603 0.13040811 -0.14258221
-0.10098208 -0.035620682 -0.12615658 -0.04591019 -0.03435901 0.20938556 0.0010703063 0.113048404
0.19887115 0.13424191 -0.12471626 0.19180726 0.17684169 -0.08210573 -0.02353016 0.14735067
-0.17312087 -0.090500064 -0.064735025 0.107695654 -0.010870563 -0.10301276 0.13728541 0.0702886
0.016583849 -0.23674832 0.23910451 0.046978395 -0.12306043 0.015217038 0.19382086 0.15792121
-0.054176062 0.05523752 -0.24263927 0.12700108 0.19190297 -0.10354306 0.00867516 -0.038313493
-0.16053884 -0.0100344615 -0.103524484 -0.1951281 -0.09015877 0.054050323 0.22534004 0.09457192
-0.08394906 0.1692562 0.027787669 -0.18139607 0.032656245 0.14361052 -0.066582225 0.038847268
-0.08807575 -0.15373923 -0.11876604 0.08698491 0.19626164 0.028705569 -0.08287773 0.12536243
-0.060919177 0.09119608 0.21734995 0.1329589 -0.12114462 -0.035987113 0.08361685 0.07410265
-0.12041492 -0.06657272 -0.054925602 0.08302278 0.1656055 0.16675355 0.141353 -0.12298357
0.21754088 0.14638011 0.0006521719 -0.0038730279 0.08610926 -0.0851289 0.018583013 0.07367633
-0.23840764 -0.18554237 -0.15585746 -0.24615906 -0.08983418 0.0013115132 -0.03015212 0.01932539
0.04356913 -0.04429358 -0.067944705 0.02082968 0.08111669 -0.01214055 -0.11974957 0.08826272
-0.08230426 -0.15628566 0.004423869 0.19589704 0.023094708 -0.08334305 0.23282792 0.20074634
0.079339355 -0.21445563 -0.19456924 0.09809234 0.07240953 -0.1368872 0.0048225787 0.028485723
0.04181996 0.015195921 -0.1483294 -0.03759594 -0.039075777 0.00010627863 -0.041726697 -0.0045557534
-0.0070739356 0.15681528 -0.04751824 -0.18800572 0.19120833 0.08852924 0.06946002 0.09459355
-0.06981729 -0.13296331 -0.102984875 0.0065173437 0.117436916 -0.092702836 -0.07932339 0.13751431
00000000: 6eb8 b13c f7bb 62bd 1e07 6d3d 7867 413d
00000010: 7b94 053e ec68 ac3d 12c8 a7bc 810b 36be
00000020: 894b 523b bb4f 0cbe eb0a 353d ea8d 813d
00000030: 3af4 2f3d 4c76 583e e9ed 903d 5d39 b63d
00000040: e97a 443d 33d8 17be 81c8 ddbb d12b 703e
00000050: 505c d2bd 5d84 e23d 2bb0 943d 0fc9 643e
00000060: a4c4 d43c bc11 283d 7c95 debc 9012 08be
00000070: 1b40 0dbe 58f2 3bbe 52a8 47be e085 e6bd
00000080: 1871 ce3a 5247 b43d 29d3 59bc 2636 27be
00000090: 7616 403e 6a49 483d 0344 463d 0cb2 eeba
000000a0: bc15 cf3d 13fd 1fbd d037 293e a4a3 463e
000000b0: 403a 0f3e b535 1b3e 29de 153e e3b6 0c3d
000000c0: 2e53 863d e834 e63d f471 333e 3e3c 1b3e
000000d0: d991 403e 2666 0f3e ce7b c73d 5eed eb3d
000000e0: b41e e53d 90bf 843e 8271 063e b852 973e
000000f0: 56c7 7d3e 5b86 61bd 3e7e 0c3e 6ed5 583e
00000100: fdf3 533e 973c d63d c2a6 563d 94fc 51be
00000110: 0fa9 0dbd 1d61 853d 28a1 61be 4f71 053e
00000120: 0e42 79bd 788e 133e 8740 283e 200a 503d
00000130: 8975 f63c 0c78 e1bd 6627 31bd a18a 06be
00000140: 244a 233e ba8b c33c 56af 5cbe 26c8 073d
00000150: 56a6 543d 6266 42be 1a5c c9bd 8a0e 6b3d
00000160: c574 4bbe 98e5 34be fac9 dc3d 451f 28bd
00000170: d204 723e bd31 703d db2f f23d bd00 1c3e
00000180: b6e5 c7bd e818 afbd 76bb 84bd b939 69bb
00000190: 155e 1bbd 36e0 d13c 76f4 5bbe 0824 d43c
000001a0: 02e1 d43d d789 333d 0937 d13d d348 273e
000001b0: b1c3 5abe c461 8ebc b489 053e 1201 12be
000001c0: b1cf cebd fee6 11bd 312f 01be 530c 3cbd
000001d0: 09bc 0cbd 2b69 563e 8549 8c3a ec85 e73d
000001e0: e1a4 4b3e b676 093e 3d6b ffbd 1f69 443e
000001f0: fd15 353e 0d27 a8bd 52c2 c0bc 18e3 163e
00000200: 9946 31be 1958 b9bd cc93 84bd 8a8f dc3d
00000210: 721a 32bc 5bf8 d2bd 8c94 0c3e 78f3 8f3d
00000220: dada 873c 276e 72be d0d7 743e 6b6c 403d
00000230: 1b07 fcbd e250 793c fa78 463e 19b6 213e
00000240: b8e7 5dbd bd40 623d 6e76 78be 920c 023e
00000250: 3682 443e 620e d4bd 4222 0e3c 9cee 1cbd
00000260: 4b64 24be 9567 24bc a504 d4bd a9cf 47be
00000270: 29a5 b8bd df63 5d3d 8abf 663e ecae c13d
00000280: 7ced abbd 7f51 2d3e f7a2 e33c e4bf 39be
00000290: 8ec2 053d a30e 133e 435c 88bd 501e 1f3d
000002a0: 0f61 b4bd d16d 1dbe 9c3b f3bd 2525 b23d
000002b0: d0f8 483e f127 eb3c cdbb a9bd 025f 003e
000002c0: 6386 79bd 03c5 ba3d fc90 5e3e 6126 083e
000002d0: ac1a f8bd 3967 13bd 503f ab3d 21c3 973d
000002e0: 199c f6bd 4757 88bd abf9 60bd d907 aa3d
000002f0: 7d94 293e 71c1 2a3e d7be 103e cfde fbbd
00000300: 09c3 5e3e abe4 153e 84f6 2a3a a0d2 7dbb
00000310: 0d5a b03d 1058 aebd 673b 983c 9ee3 963d
00000320: 2221 74be d2fe 3dbe 1999 1fbe 1f11 7cbe
00000330: fcfa b7bd 15e7 ab3a 9401 f7bc 4850 9e3c
00000340: 8b75 323d 2f6d 35bd 9826 8bbd 01a3 aa3c
00000350: 8220 a63d 28e9 46bc 433f f5bd 16c3 b43d
00000360: 238f a8bd 5909 20be 1af6 903b 3c99 483e
00000370: 1d31 bd3c c3af aabd 716a 6e3e 7390 4d3e
00000380: ac7c a23d 429a 5bbe 293d 47be a3e4 c83d
00000390: 734b 943d 282c 0cbe b906 9e3b e45a e93c
000003a0: 684b 2b3d 50f8 783c aae3 17be 33fe 19bd
000003b0: ec0d 20bd e8e1 de38 9de9 2abd 6e48 95bb
000003c0: 79cc e7bb 2f94 203e 7ca2 42bd 9284 40be
000003d0: 1ecc 433e d14e b53d 0e41 8e3d 43ba c13d
000003e0: 5efc 8ebd 8927 08be bce9 d2bd 718f d53b
000003f0: c482 f03d fcda bdbd 4d74 a2bd 8dd0 0c3e

conv1.bias f4 [10]
0.16737585 0.099223725 0.019816892 0.08333873 -0.14689815 -0.008608461 0.028527703 0.055843912
0.022688314 0.20261964
00000000: 9364 2b3e cf35 cb3d 0957 a23c 7fad aa3d
00000010: 786c 16be 810a 0dbc eeb2 e93c 96bc 643d
00000020: d8dc b93c 867b 4f3e

conv2.weight f4 [16, 10, 3, 3]
0.12469129 0.05132687 -0.0066145537 -0.044254325 0.08272853 -0.06276328 0.06491735 -0.004310015
0.078411944 0.023478083 0.08079516 0.17741242 -0.019850831 -0.021421716 0.15417984 -0.14645475
0.05225796 0.05514075 0.0552362 0.09998978 -0.014365607 -0.065962724 0.060509 -0.04941963
0.06796522 0.13604422 0.119172096 -0.037641924 0.14412783 0.3188721 -0.034178957 -0.0011710816
0.068458796 -0.15118442 -0.07709218 0.13076356 -0.05713546 -0.024666773 0.025738543 0.061743665
0.020531708 -0.032158967 0.015264384 0.08799517 0.08448161 -0.16414031 0.08585525 0.12731877
0.104090445 0.2128566 0.067249775 0.13861233 0.13679224 0.119321525 -0.13814561 0.051755603
0.18978807 -0.24577807 -0.043157645 -0.05865495 -0.1471263 -0.25754175 -0.09062263 -0.00091274653
0.15863237 0.10921758 -0.120171115 0.0014002814 -0.03047348 0.092032045 -0.11002999 -0.059821364
-0.07146015 0.08479871 0.24115087 0.22466859 0.15157226 0.043846216 0.096752 -0.07063955
0.027769525 -0.17466511 -0.09353602 -0.053772427 -0.10849038 -0.012655005 -0.0063816924 -0.14435618
-0.16419299 -0.07192554 -0.07324845 -0.07417534 0.062423985 0.016276767 -0.042271756 0.056176797
-0.06740801 -0.057448503 -0.024159886 0.098814376 0.10370347 -0.04804072 -0.021094194 0.11241304
0.034647856 0.047410395 0.057159055 -0.06248175 -0.034158345 -0.059820328 -0.022789145 0.07111419
-0.095306665 0.02273109 0.12707618 -0.07970495 0.048207052 0.17521459 0.1361229 0.052148066
0.0452292 0.14397937 0.031946667 0.12865001 -0.047238894 0.037683837 -0.15480231 -0.17358209
0.010739604 -0.04900559 -0.113805324 -0.17338799 -0.0797723 -0.058325425 -0.06535001 -0.04197651
-0.01625063 0.02737805 -0.11201207 -0.06036083 0.09394758 -0.09134289 0.10324658 0.0048514265
0.13851278 0.060964484 0.10394386 0.13579643 0.102342345 0.16075115 -0.0067824908 0.1741332
0.08273186 0.06846662 -0.022577632 0.076676495 0.03307359 -0.15372987 -0.12601341 -0.118799955
-0.11951242 -0.11406954 -0.033144988 -0.015652379 -0.120741755 -0.007268919 -0.023006126 0.025794348
-0.124499634 -0.10606071 -0.02089968 0.06113281 0.027044976 0.013907961 0.030715728 0.06641485
0.029670823 0.028741537 -0.012842889 0.111006364 0.08923084 0.13048753 -0.042921733 0.03284808
0.07929522 -0.036306344 0.04671284 -0.03231187 0.003510104 0.07636596 -0.023669237 0.097882025
0.08133023 -0.1174611 -0.020280942 0.0019068773 -0.11990949 -0.035227675 0.1210981 0.08168974
0.017529882 0.12403482 0.056658894 0.0859518 -0.040186413 0.08877011 0.108959354 0.06455903
-0.03865959 0.1331957 -0.061453816 -0.01739826 -0.13339204 -0.08968996 -0.16518766 -0.122412786
0.041246034 -0.043884516 -0.03288149 -0.0013717801 0.08738938 0.14782181 0.100209534 -0.025907664
-0.018231938 0.01149186 0.02384992 0.04558601 0.076042086 0.1982224 0.14302951 -0.026525615
0.12438415 -0.08387768 -0.058412086 -0.12618415 0.080504805 -0.013991827 -0.025156997 -0.06350634
-0.12357291 -0.05988185 -0.103120215 -0.3504502 -0.19484574 -0.043767337 -0.23763256 -0.22371173
-0.05197757 -0.14355959 -0.061841913 0.025576234 0.14871615 0.1519441 0.20044896 0.25089744
00000000: 265e ff3d 203c 523d e6be d8bb 0644 35bd
00000010: 936d a93d 098a 80bd 63f3 843d 073b 8dbb
00000020: 7196 a03d 1c55 c03c ef77 a53d 9aab 353e
00000030: 369e a2bc 987c afbc 52e1 1d3e 3cf8 15be
00000040: 710c 563d 44db 613d 5b3f 623d 71c7 cc3d
00000050: b95d 6bbc 7717 87bd 49d8 773d 3d6c 4abd
00000060: 5931 8b3d 2d4f 0b3e 8010 f43d 6b2e 1abd
00000070: 3f96 133e 3443 a33e 3cff 0bbd fa7e 99ba
00000080: 2034 8c3d 17d0 1abe 81e2 9dbd e2e6 053e
00000090: df06 6abd f911 cabc a3d9 d23c ede6 7c3d
000000a0: 1d32 a83c 1fb9 03bd 7817 7a3c d036 b43d
000000b0: b204 ad3d 6614 28be e1d4 af3d da5f 023e
000000c0: 5f2d d53d 15f7 593e 40ba 893d 64f0 0d3e
000000d0: 4413 0c3e d85e f43d 0b76 0dbe affd 533d
000000e0: ce57 423e 3fad 7bbe 12c6 30bd 2c40 70bd
000000f0: 47a8 16be 83dc 83be 5c98 b9bd 6245 6fba
00000100: 8670 223e 77ad df3d 461c f6bd a689 b73a
00000110: 85a3 f9bc 4c7b bc3d 6757 e1bd 3f07 75bd
00000120: b359 92bd f2aa ad3d 41f0 763e 860f 663e
00000130: c235 1b3e 1798 333d ea25 c63d 78ab 90bd
00000140: ea7c e33c 69db 32be d08f bfbd 7a40 5cbd
00000150: 3430 debd f056 4fbc 841d d1bb 1bd2 13be
00000160: 3522 28be b34d 93bd 4903 96bd 3ee9 97bd
00000170: 4bb0 7f3d db56 853c 2625 2dbd a419 663d
00000180: 360d 8abd 1f4f 6bbd f4ea c5bc 315f ca3d
00000190: 7c62 d43d 59c6 44bd bbcd acbc cf38 e63d
000001a0: e9ea 0d3d 6731 423d 9d1f 6a3d ddec 7fbd
000001b0: 9fe9 0bbd 2906 75bd 4db0 babc 51a4 913d
000001c0: 2430 c3bd 8d36 ba3c 4220 023e 593c a3bd
000001d0: c274 453d 746b 333e cd63 0b3e 3699 553d
000001e0: 4142 393d 546f 133e 82da 023d d4bc 033e
000001f0: 927d 41bd 5e5a 1a3d 7f84 1ebe 81bf 31be
00000200: 2af5 2f3c 16ba 48bd c412 e9bd 9f8c 31be
00000210: a95f a3bd a4e6 6ebd 3ad6 85bd 90ef 2bbd
00000220: 0b20 85bc ef47 e03c 9666 e5bd eb3c 77bd
00000230: 9767 c03d fb11 bbbd f172 d33d b7f8 9e3b
00000240: 4bd6 0d3e e5b5 793d 85e0 d43d 380e 0b3e
00000250: dd98 d13d f39b 243e a83f debb f94f 323e
00000260: 526f a93d 3a38 8c3d baf4 b8bc 9108 9d3d
00000270: 2c78 073d 5d6b 1dbe a909 01be 644d f3bd
00000280: edc2 f4bd 4a9d e9bd 0ac3 07bd 6b39 80bc
00000290: 7447 f7bd 1d30 eebb 5877 bcbc ab4e d33c
000002a0: aaf9 febd 5c36 d9bd ce35 abbc 6666 7a3d
000002b0: 6d8d dd3c 37de 633c 8d9f fb3c 8204 883d
000002c0: 3a10 f33c 5f73 eb3c fb6a 52bc 4e57 e33d
000002d0: a9be b63d 869e 053e b3ce 2fbd b58b 063d
000002e0: 8865 a23d f6b5 14bd f755 3f3d 7459 04bd
000002f0: c609 663b c265 9c3d fde5 c1bc 5f76 c83d
00000300: 7790 a63d 728f f0bd 3824 a6bc 2ff0 f93a
00000310: 1b93 f5bd e54a 10bd 4802 f83d f34c a73d
00000320: d49a 8f3c f805 fe3d 2813 683d 7f07 b03d
00000330: 829a 24bd 1acd b53d 1526 df3d 8637 843d
00000340: 8559 1ebd 7464 083e ffb6 7bbd cc86 8ebc
00000350: ec97 08be 5faf b7bd f426 29be 8eb3 fabd
00000360: 9af1 283d 40c0 33bd beae 06bd 4dcd b3ba
00000370: 34f9 b23d 9a5e 173e a83a cd3d 4f3c d4bc
00000380: 255b 95bc 5b48 3c3c e860 c33c 65b8 3a3d
00000390: f4bb 9b3d d0fa 4a3e 5476 123e 3f4c d9bc
000003a0: 1ebd fe3d 10c8 abbd 8341 6fbd 6b36 01be
000003b0: b4df a43d fa3d 65bc 0c16 cebc 9d0f 82bd
000003c0: cb13 fdbd ac46 75bd b130 d3bd 356e b3be
000003d0: a485 47be 6145 33bd f355 73be b014 65be
000003e0: 6fe6 54bd 4901 13be f24d 7dbd 4085 d13c
000003f0: 0c49 183e 3c97 1b3e 7e42 4d3e a175 803e

conv2.bias f4 [16]
-0.014448709 -0.017568048 0.08489474 0.12311098 -0.05540233 -0.028605582 0.05993998 -0.10083639
0.016829232 0.030910222 -0.1358804 -0.04240565 0.06410573 0.16924249 0.025621084 0.087227285
00000000: 47ba 6cbc deea 8fbc 4bdd ad3d 9c21 fc3d
00000010: 8eed 62bd 4156 eabc a083 753d 4f83 cebd
00000020: 75dd 893c 6f37 fd3c 3b24 0bbe 8cb1 2dbd
00000030: dd49 833d e74d 2d3e 4fe3 d13c 38a4 b23d

conv3.weight f4 [32, 16, 3, 3]
-0.011062204 0.07310928 -0.021646162 -0.09785184 -0.096875206 -0.017724972 -0.10871966 -0.045118995
0.018586226 -0.24725801 -0.12228451 -0.19599538 -0.17575459 -0.1793274 -0.21930796 -0.20563592
-0.21622539 -0.047967825 0.041302428 0.08866846 0.015831856 0.10894568 -0.02406559 0.0008917418
0.08109403 0.0004107975 -0.036881313 0.12109416 -0.020588616 -0.030166076 -0.011089885 0.078602925
-0.07896943 -0.011546454 -0.095066555 -0.063410886 0.011697284 -0.09099637 -0.054899532 0.04568828
-0.07616345 -0.05610232 0.014380427 -0.040123455 0.057108905 -0.032676727 -0.08209318 -0.009189665
-0.0385604 -0.06626314 -0.078151874 -0.067499936 -0.07899778 -0.037727296 -0.014607585 0.099169396
0.114323385 -0.025910297 0.0793422 0.030336414 -0.008998941 -0.04345186 0.011427119 -0.074466005
0.05045523 -0.05516822 0.04946006 0.01960225 0.040372696 -0.04121334 0.061559394 0.0027495902
-0.14553766 -0.38827237 -0.33230183 -0.25858524 -0.32804802 -0.28602752 -0.11307395 -0.18142727
-0.17982069 0.018607013 0.057631884 -0.012727889 -0.023984473 -0.079135746 0.070146605 0.088832915
-0.043542445 0.09127171 -0.2337747 -0.17629948 -0.18841797 -0.12855677 -0.14130929 -0.23011053
-0.089654885 -0.072740115 -0.12948103 0.03527777 0.07371316 0.0005796795 -0.02998449 -0.06664777
-0.049402256 -0.08899456 -0.01935878 0.0768608 0.098348185 -0.0020161523 -0.034620367 0.08684247
0.07829536 -0.018893313 0.11490776 -0.013514397 -0.019420959 0.058901113 0.06503701 -0.020475596
-0.050164238 0.087338746 0.09327096 0.05656041 -0.016823843 0.112708904 0.040962238 0.029917419
0.11996648 0.08241658 0.075869575 0.036645222 -0.019427625 0.053839006 0.028923506 -0.11297955
-0.22342615 -0.27501428 -0.08007176 -0.1960229 -0.13723421 0.0072214613 -0.061724294 -0.100697234
0.10804704 -0.046147913 0.08282839 0.11077637 0.05399817 0.07905016 0.17907515 0.13845427
0.06629578 0.09911142 0.01047878 0.14586605 0.121578686 0.050490778 0.004816664 0.14323816
0.004757242 0.025385525 0.00057242427 0.0378631 -0.034765985 -0.031956363 -0.066769555 0.056535833
0.048558947 0.08015135 -0.010689032 0.022250274 0.0026594424 0.12658153 0.021009581 0.089797795
0.042818006 0.03574528 0.0014365779 0.07033776 0.01038161 -0.04125122 -0.045900974 -0.02965742
0.06333712 0.07133868 -0.06526201 -0.044536408 -0.082691945 -0.0037674508 0.059031736 0.06600244
0.03661449 -0.06850794 0.059752613 0.064311914 0.007978539 -0.05967013 -0.06081427 0.06203809
-0.0086025065 -0.041942216 0.05093497 0.0062764324 0.016636372 0.047027905 0.007874039 0.07020192
0.00074234605 -0.07011812 -0.05764095 -0.004877569 -0.058286097 0.019737216 0.056966335 -0.017006047
0.10147471 0.32768658 0.25626865 0.22723944 0.22042164 0.1600648 0.13453859 0.13822651
0.15922423 -0.056342226 -0.08388798 -0.09931599 -0.07967416 -0.054904666 0.050902814 -0.07493335
-0.035556313 -0.046471108 0.2217252 0.19640252 0.18033326 0.11864008 0.22719534 0.20772034
0.07213832 0.09264235 -0.0073026335 -0.0633313 -0.08057341 -0.10067106 0.04935781 0.04574734
0.0020360283 0.0761771 0.01459202 0.019250942 -0.050003972 0.06960679 -0.015218191 -0.027229192
00000000: 3f3e 35bc 51ba 953d 4b53 b1bc 8c66 c8bd
00000010: 8266 c6bd f633 91bc 6aa8 debd b2ce 38bd
00000020: 2442 983c 3431 7dbe 4d70 fabd 03b3 48be
00000030: 03f9 33be 9aa1 37be 4492 60be 3992 52be
00000040: 306a 5dbe e979 44bd bc2c 293d cf97 b53d
00000050: cfb1 813c ea1e df3d 3325 c5bc c7c3 693a
00000060: a014 a63d 4f60 d739 dc10 17bd 3700 f83d
00000070: 75a9 a8bc d91e f7bc 59b2 35bc 92fa a03d
00000080: b9ba a1bd 572d 3dbc 41b2 c2bd 91dd 81bd
00000090: f7a5 3f3c 4e5c babd 55de 60bd a223 3b3d
000000a0: 95fb 9bbd 8ccb 65bd e29b 6b3c 7e58 24bd
000000b0: 07eb 693d 08d8 05bd 7820 a8bd 4090 16bc
000000c0: 83f1 1dbd f8b4 87bd 170e a0bd 683d 8abd
000000d0: 97c9 a1bd f087 1abd a754 6fbc 5319 cb3d
000000e0: 6122 ea3d d541 d4bc 2a7e a23d 1284 f83c
000000f0: 4b70 13bc 94fa 31bd d038 3b3c a281 98bd
00000100: 25aa 4e3d 12f8 61bd a296 4a3d e694 a03c
00000110: d75d 253d 52cf 28bd b425 7c3d 7832 343b
00000120: d307 15be a3cb c6be 7723 aabe 4965 84be
00000130: e9f5 a7be 3372 92be 5193 e7bd 12c8 39be
00000140: ea22 38be bc6d 983c 690f 6c3d a388 50bc
00000150: 167b c4bc ec11 a2bd 06a9 8f3d 08ee b53d
00000160: 9059 32bd aaec ba3d a362 6fbe da87 34be
00000170: a4f0 40be 63a4 03be 62b3 10be 18a2 6bbe
00000180: fb9c b7bd c5f8 94bd ad96 04be 6c7f 103d
00000190: edf6 963d a2f5 173a 08a2 f5bc a07e 88bd
000001a0: 055a 4abd c842 b6bd 4e96 9ebc 3269 9d3d
000001b0: c66a c93d 6c21 04bb 16ce 0dbd 77da b13d
000001c0: 5159 a03d 26c6 9abc c254 eb3d 7d6b 5dbc
000001d0: b418 9fbc 4b42 713d 2032 853d 70bc a7bc
000001e0: 0479 4dbd a8de b23d d804 bf3d e3ab 673d
000001f0: 28d2 89bc edd3 e63d 05c8 273d 6015 f53c
00000200: fcb0 f53d 06ca a83d 8261 9b3d 4d19 163d
00000210: af26 9fbc 4a86 5c3d fdf0 ec3c d361 e7bd
00000220: d3c9 64be acce 8cbe aafc a3bd 3aba 48be
00000230: 2087 0cbe 02a2 ec3b 9dd2 7cbd 5a3a cebd
00000240: c447 dd3d 9805 3dbd eea1 a93d b9de e23d
00000250: 2f2d 5d3d 0de5 a13d 7a5f 373e f5c6 0d3e
00000260: 15c6 873d eefa ca3d 30af 2b3c e95d 153e
00000270: 3ffe f83d 6bcf 4e3d 1bd5 9d3b 06ad 123e
00000280: a3e2 9b3b 4ef5 cf3c be0e 163a 5716 1b3d
00000290: c766 0ebd ade4 02bd 7abe 88bd 1e92 673d
000002a0: bfe5 463d 6426 a43d 0d21 2fbc 3546 b63c
000002b0: 0a4a 2e3b 979e 013e 491c ac3c e8e7 b73d
000002c0: ef61 2f3d a569 123d 8e4b bc3a 3e0d 903d
000002d0: a117 2a3c 0af7 28bd a902 3cbd 1ef4 f2bc
000002e0: e4b6 813d 041a 923d 17a8 85bd cf6b 36bd
000002f0: 655a a9bd 56e7 76bb 43cb 713d 4a2c 873d
00000300: 13f9 153d e44d 8cbd 28bf 743d f7b5 833d
00000310: 6bb8 023c ab68 74bd 6218 79bd a71b 7e3d
00000320: 87f1 0cbc 9acb 2bbd 30a1 503d 88aa cd3b
00000330: 0049 883c 55a0 403d 1d02 013c 06c6 8f3d
00000340: 009a 423a 179a 8fbd eb18 6cbd 04d4 9fbb
00000350: 67bd 6ebd f1af a13c 8855 693d 4450 8bbc
00000360: f9d1 cf3d 89c6 a73e a535 833e 75b1 683e
00000370: 36b6 613e 07e8 233e 7cc4 093e 408b 0d3e
00000380: ad0b 233e 1bc7 66bd 76cd abbd 2f66 cbbd
00000390: 352c a3bd b7e3 60bd 787f 503d a876 99bd
000003a0: 7fa3 11bd 7d58 3ebd ee0b 633e be1d 493e
000003b0: 48a9 383e 92f9 f23d e5a5 683e a4b4 543e
000003c0: 41bd 933d 46bb bd3d ee4a efbb d7b3 81bd
000003d0: ac03 a5bd a12c cebd 6a2b 4a3d 9061 3b3d
000003e0: e36e 053b bd02 9c3d 5e13 6f3c 27b4 9d3c
000003f0: f7d0 4cbd 018e 8e3d b855 79bc c10f dfbc

conv3.bias f4 [32]
0.13301992 -0.08779498 0.1323025 -0.05628714 -0.034464706 0.0014607043 0.13326156 0.040602345
0.041243955 0.09190209 -0.03059263 0.10745169 0.0112020755 -0.0849246 0.014823761 0.09964471
-0.009610036 0.033427455 -0.0074311653 0.023095869 0.059668187 -0.026618784 0.13233551 0.1792456
-0.025102574 0.032623254 0.01340399 -0.086910926 -0.048366286 0.114413545 -0.027719801 0.039661627
00000000: 6036 083e dbcd b3bd 4e7a 073e 588d 66bd
00000010: dd2a 0dbd 1a75 bf3a b875 083e a54e 263d
00000020: 6cef 283d 2a37 bc3d 659d fabc a20f dc3d
00000030: e988 373c f3ec adbd 5cdf 723c 8712 cc3d
00000040: 6a73 1dbc 3aeb 083d 2281 f3bb 8c33 bd3c
00000050: a166 743d a30f dabc f682 073e 298c 373e
00000060: eaa3 cdbc f69f 053d 699c 5b3c 5bfe b1bd
00000070: ba1b 46bd a651 ea3d a314 e3bc 3b74 223d

conv4_1.weight f4 [2, 32, 1, 1]
-0.22716495 0.33950418 0.112655155 -0.03264803 -0.16887733 -0.16678166 -0.07871006 0.35088253
0.036315955 0.13987927 -0.21685779 -0.28545704 -0.07454269 0.42746967 0.33557886 0.3363278
0.19407815 0.23028119 0.09168779 -0.0173432 0.33099547 -0.017862396 0.05771268 0.14857711
0.19927962 -0.3684432 0.23843579 0.22360095 0.4544583 0.27872548 -0.014323614 0.036880605
0.32938206 -0.3092166 -0.26143113 0.14457543 0.18072352 0.050525334 0.09775721 -0.2628687
0.059598614 -0.292778 0.09836212 0.27249634 0.013467291 -0.21339935 -0.39103517 -0.44772074
-0.30104488 -0.3815203 -0.35529765 -0.068632215 -0.27853778 0.102036215 -0.071028925 -0.2550898
-0.18756072 0.34786874 -0.2768798 -0.14311452 -0.4446581 -0.2496637 -0.06867336 0.22895142
00000000: ee9d 68be 7ed3 ad3e bfb7 e63d f1b9 05bd
00000010: 2eee 2cbe d0c8 2abe bd32 a1bd e0a6 b33e
00000020: 0ac0 143d 833c 0f3e f80f 5ebe 6d27 92be
00000030: d6a9 98bd 4edd da3e fed0 ab3e 2833 ac3e
00000040: 6cbc 463e d5ce 6b3e cfc6 bb3d 5413 8ebc
00000050: 3d78 a93e 2954 92bc 2264 6c3d 9924 183e
00000060: f50f 4c3e 96a4 bcbe 8328 743e a6f7 643e
00000070: c2ae e83e 1bb5 8e3e 97ad 6abc 1e10 173d
00000080: c4a4 a83e a351 9ebe 4dda 85be 950b 143e
00000090: 960f 393e a7f3 4e3d ef34 c83d ba96 86be
000000a0: ad1d 743d ffe6 95be 1472 c93d a484 8b3e
000000b0: eaa5 5c3c 5c85 5abe c335 c8be a73b e5be
000000c0: 8e22 9abe a156 c3be 93e9 b5be 0c8f 8cbd
000000d0: 819c 8ebe 5df8 d03d 9d77 91bd 219b 82be
000000e0: eb0f 40be da1b b23e 30c3 8dbe 9d8c 12be
000000f0: 3aaa e3be d7a7 7fbe 9ea4 8cbd 3e72 6a3e

conv4_1.bias f4 [2]
-0.026799362 0.091315724
00000000: 568a dbbc bd03 bb3d

conv4_2.weight f4 [4, 32, 1, 1]
0.15259486 -0.070776545 -0.052553393 0.102992415 0.077870175 -0.0683437 0.01001276 -0.09273491
0.1288924 0.33958292 -0.051203415 -0.15949182 -0.0046476033 0.2288064 -0.06767214 -0.17610846
0.06356511 0.24345392 -0.15522356 -0.15418915 0.05527121 -0.16629262 -0.09846219 -0.17955564
-0.15981716 -0.06444561 -0.14072573 0.052587837 0.1324732 0.062473126 -0.1460165 -0.09081996
-0.14733766 -0.015171642 0.005513144 -0.02880273 0.06071083 -0.14740355 -0.16849315 -0.029881483
-0.04052849 -0.118233785 0.115733206 -0.00827907 -0.122360535 0.10133332 -0.036207538 -0.00061632384
-0.16440229 0.27368063 0.08478099 0.05197187 -0.022634437 -0.07427537 0.16905566 -0.037240613
0.0833245 0.12022037 -0.12837055 -0.20382492 0.18925297 -0.038432643 0.22351024 -0.15790051
-0.036109652 -0.14488259 0.23723346 -0.17243516 0.08305768 0.060917184 -0.0029538868 0.08964386
-0.13595232 0.048795354 0.010129948 0.11362465 -0.0040089465 -0.10374801 0.10131832 0.069666564
0.0076108826 0.058637954 -0.15664425 -0.16301337 -0.16400467 -0.07612078 0.18949716 0.096087635
-0.18091585 0.0015607047 -0.019970665 0.01123957 -0.09039699 0.022977762 -0.15671295 0.10167633
0.12104416 -0.04090371 0.15724659 0.011959819 0.0029933872 -0.008703084 0.14102122 0.050075665
0.060134444 -0.09271311 -0.06380071 0.055584412 -0.16409612 -0.159816 0.068997525 0.17094484
-0.08952556 -0.12404301 -0.13831866 0.011365247 0.06058202 0.12711057 0.15177132 0.16874067
0.10556117 -0.08937158 0.01738035 -0.11344573 -0.05922807 0.16047363 -0.16568825 0.016386092
00000000: d441 1c3e 4bf3 90bd 3a42 57bd b0ed d23d
00000010: 667a 9f3d c8f7 8bbd 8f0c 243c cdeb bdbd
00000020: 5ffc 033e d0dd ad3e acba 51bd d351 23be
00000030: ec4a 98bb 3a4c 6a3e b197 8abd c755 34be
00000040: 6d2e 823d fc4b 793e edf2 1ebe c3e3 1dbe
00000050: 1064 623d 9d48 2abe 8ba6 c9bd 6fdd 37be
00000060: 1ca7 23be 0ffc 83bd 681a 10be 5866 573d
00000070: 0ea7 073e d2e3 7f3d 5985 15be d1ff b9bd
00000080: afdf 16be 7b92 78bc 9ba7 b43b b4f3 ebbc
00000090: ebab 783d f5f0 16be 7889 2cbe 03ca f4bc
000000a0: 3401 26bd 8e24 f2bd 8805 ed3d f0a4 07bc
000000b0: 2998 fabd d887 cf3d 5b4e 14bd cb90 21ba
000000c0: 1359 28be de1f 8c3e a8a1 ad3d 75e0 543d
000000d0: db6b b9bc af1d 98bd ed1c 2d3e 9d89 18bd
000000e0: 09a6 aa3d 1936 f63d 9273 03be 7bb7 50be
000000f0: 88cb 413e 8c6b 1dbd dedf 643e acb0 21be
00000100: b7e7 13bd 1a5c 14be 54ed 723e d892 30be
00000110: 251a aa3d 4c84 793d ff95 41bb 3397 b73d
00000120: 1637 0bbe a3dd 473d 15f8 253c 0ab4 e83d
00000130: 7b5d 83bb d679 d4bd fb7f cf3d 58ad 8e3d
00000140: b664 f93b 5a2e 703d 5a67 20be faec 26be
00000150: d7f0 27be 36e5 9bbd 8b0b 423e 98c9 c43d
00000160: 0142 39be 8f90 cc3a 8599 a3bc 2c26 383c
00000170: 0f22 b9bd dc3b bc3c 5c79 20be ae3b d03d
00000180: 00e6 f73d a68a 27bd 4005 213e 1ef3 433c
00000190: b42c 443b 6197 0ebc de67 103e 241c 4d3d
000001a0: 894f 763d 5fe0 bdbd f2a9 82bd 7bac 633d
000001b0: d008 28be cea6 23be 934e 8d3d 2a0c 2f3e
000001c0: 2d59 b7bd 430a febd 68a3 0dbe 4d35 3a3c
000001d0: da24 783d 4629 023e f169 1b3e 5bca 2c3e
000001e0: 7430 d83d 7208 b7bd 3c61 8e3c 3c56 e8bd
000001f0: 2299 72bd 3353 243e 2eaa 29be 203c 863c

conv4_2.bias f4 [4]
0.094566226 0.05407786 0.41852376 0.3006316
00000000: f0ab c13d bf80 5d3d bf48 d63e 63ec 993e

conv4_3.weight f4 [10, 32, 1, 1]
0.030268267 0.025729561 0.061358448 0.12385966 -0.00097590854 0.17711203 -0.094551995 0.020585567
-0.10347968 0.0101709645 0.11264963 0.02704198 0.048239842 3.707193e-05 0.0013780262 -0.01091745
0.031010596 -0.02653816 -0.03785167 -0.09730042 -0.014749344 0.07434045 0.002220136 0.010891925
-0.018018356 -0.045550182 0.004761666 -0.032826427 -0.0020229379 0.0033067781 -0.05745937 0.009666649
-0.010098495 -0.06407107 -0.014558062 -0.09610406 -0.04841588 -0.16514 0.08655554 0.002022781
-0.10120634 0.0062886695 -0.045162197 0.028283788 0.070606835 -0.024320312 0.024131002 -0.023987744
-0.01170513 -0.0180649 0.045602817 -0.030367125 -0.0010591703 0.04224539 0.08701421 -0.007953604
-0.022857053 0.00506357 -0.0642006 0.028912507 0.022690995 0.026376802 0.11275733 -0.003686063
-0.027645392 0.06305345 -0.10167049 -0.12214411 -0.11121727 0.17268617 0.19121526 -0.0689482
-0.024773046 -0.0044531925 -0.08123297 0.04102582 -0.15406863 0.04564137 0.0054138317 -0.08327976
-0.09827946 -0.029497175 0.021695545 -0.028916838 0.031957615 -0.15307608 0.10433725 0.006430549
-0.0410352 0.024296131 0.11001077 -0.14893004 -0.001058422 0.03690016 0.10437433 0.0017110182
0.07440266 -0.047617134 0.08602708 -0.1536973 0.034894783 0.045717765 0.01628655 -0.011619107
0.090584196 -0.009609728 -0.00977383 -0.014942324 0.1576878 -0.11227546 0.12808917 0.09996326
0.03980841 -0.13871962 0.008351196 -0.046161912 0.036458217 -0.04191915 0.13942435 -0.0003880743
0.14486481 -0.026357796 -0.0930237 -0.09380115 -0.044874616 -0.01711474 -0.17135897 0.09687059
-0.02668871 0.033417422 0.03818295 -0.046919204 -0.086006954 -0.16870895 0.09688691 0.07053451
0.022218756 0.022879122 0.00072356977 0.065878205 0.06771356 -0.09296825 0.042315338 -0.017817484
-0.08201229 -0.07095315 -0.03987755 0.07764364 0.096643254 -0.14953783 0.084444866 -0.022092283
-0.014539504 -0.013723396 0.028917572 -0.058333714 0.01330889 -0.014210842 0.08337515 0.033074487
0.013880966 0.005786916 0.14104211 0.17413634 0.06893734 0.014649585 -0.046921927 -0.041996785
-0.10940621 -0.033569403 0.0052647367 -0.06900489 0.0525003 -0.00465025 0.0074392175 0.06130219
0.031114602 -0.0165819 0.013158066 0.0046474542 -0.11018598 -0.08832447 0.0285595 0.033894464
-0.016846126 0.13738972 0.10529655 -0.07367011 -0.053195633 -0.028288158 0.10654404 0.08754109
0.06129869 0.0080842525 -0.07782763 -0.12373983 0.13870955 0.009269835 -0.06521702 -0.11187695
-0.15339936 0.09177584 -0.057751223 0.0306214 0.15511556 -0.051440325 0.0576162 0.027710142
0.077671126 0.039229833 -0.0941951 0.17038402 -0.014942395 -0.1586219 0.07447966 -0.0065392205
-0.068972915 -0.12332407 0.11700919 -0.04892947 0.04319207 -0.034634482 -0.07735866 -0.018613653
-0.02209289 -0.040750455 0.06889184 0.04817566 0.027567279 -0.058742292 0.051765896 0.01733573
-0.12551652 -0.006083045 -0.060624495 0.08953764 -0.0972064 -0.067448705 0.03790473 0.032247286
0.005796809 -0.041408222 0.0049020746 -0.066309124 0.0051448345 0.042912077 0.089834675 0.014706332
-0.0765499 0.0010871126 -0.067619674 -0.036410127 0.010825215 0.039103396 0.09066656 -0.002955735
00000000: 28f5 f73c cdc6 d23c ff52 7b3d 22aa fd3d
00000010: 1dd4 7fba db5c 353e 7aa4 c1bd 10a3 a83c
00000020: 28ed d3bd 1ea4 263c d9b4 e63d 2487 dd3c
00000030: 2497 453d af7d 1b38 e39e b43a 1bdf 32bc
00000040: ef09 fe3c 8e66 d9bc 5a0a 1bbd 7145 c7bd
00000050: 3ca7 71bc ce3f 983d b47f 113b 0b74 323c
00000060: 3b9b 93bc d492 3abd c007 9c3b 0175 06bd
00000070: 4493 04bb 88b6 583b 845a 6bbd dd60 1e3c
00000080: 2874 25bc b137 83bd f084 6ebc 35d2 c4bd
00000090: bb4f 46bd 761a 29be 0844 b13d a290 043b
000000a0: 4545 cfbd 2f11 ce3b fffb 38bd 67b3 e73c
000000b0: 519a 903d 643b c7bc 61ae c53c f281 c4bc
000000c0: e0c6 3fbc d7fc 93bc 05ca 3a3d 7ac4 f8bc
000000d0: dcd3 8aba 8109 2d3d 8234 b23d d54f 02bc
000000e0: b73e bbbc 4eec a53b 9b7b 83bd ecd9 ec3c
000000f0: 77e2 b93c 2a14 d83c 51ed e63d e091 71bb
00000100: 9778 e2bc 2b22 813d 9e38 d0bd b126 fabd
00000110: e1c5 e3bd a5d4 303e efcd 433e b734 8dbd
00000120: d8f0 cabc 16ec 91bb 795d a6bd b10a 283d
00000130: 2bc4 1dbe 72f2 3a3d 8366 b13b 948e aabd
00000140: be46 c9bd 0fa4 f1bc dbba b13c 01e3 ecbc
00000150: fde5 023d fabf 1cbe c5ae d53d 5bb7 d23b
00000160: 8714 28bd ae08 c73c 544d e13d 1e81 18be
00000170: c0ba 8aba 9f24 173d 35c2 d53d 3e44 e03a
00000180: 6c60 983d 2f0a 43bd f72e b03d d362 1dbe
00000190: d5ed 0e3d 8d42 3b3d 5f6b 853c 115e 3ebc
000001a0: 3584 b93d 1f72 1dbc 6a22 20bc a6d0 74bc
000001b0: e978 213e adf0 e5bd cf29 033e 8ab9 cc3d
000001c0: 250e 233d 840c 0ebe 74d3 083c 4614 3dbd
000001d0: 3655 153d 6ab3 2bbd 42c5 0e3e 7376 cbb9
000001e0: 7157 143e 4eec d7bc 3683 bebd d11a c0bd
000001f0: 72ce 37bd 3634 8cbc ba78 2fbe 1664 c63d
00000200: 48a2 dabc b5e0 083d ba65 1c3d 5a2e 40bd
00000210: 6a24 b0bd 0ac2 2cbe a56c c63d 6674 903d
00000220: 1c04 b63c ff6c bb3c f2ad 3d3a 27eb 863d
00000230: 68ad 8a3d 2366 bebd d952 2d3d f9f5 91bc
00000240: 0ff6 a7bd e34f 91bd a456 23bd a103 9f3d
00000250: e6ec c53d 7220 19be 6ef1 ac3d e0fa b4bc
00000260: 1a37 6ebc 18d8 60bc 8be4 ec3c 55ef 6ebd
00000270: 880d 5a3c 97d4 68bc 97c0 aa3d 1d79 073d
00000280: fe6c 633c 2ba0 bd3b 586d 103e cc50 323e
00000290: 052f 8d3d d004 703c 3531 40bd d204 2cbd
000002a0: 5d10 e0bd 1280 09bd d083 ac3b 7052 8dbd
000002b0: 8e0a 573d 2061 98bb aec4 f33b 0118 7b3d
000002c0: 0de4 fe3c c4d6 87bc ee94 573c ac49 983b
000002d0: 30a9 e1bd 76e3 b4bd 9df5 e93c ecd4 0a3d
000002e0: e300 8abc e4af 0c3e b8a5 d73d 5be0 96bd
000002f0: aae3 59bd 91bc e7bc c333 da3d be48 b33d
00000300: 5614 7b3d d073 043c 1864 9fbd 4f6b fdbd
00000310: e009 0e3e 82e0 173c 8090 85bd be1f e5bd
00000320: b914 1dbe f9f4 bb3d 8c8c 6cbd bbd9 fa3c
00000330: 9dd6 1e3e 17b3 52bd f7fe 6b3d 6100 e33c
00000340: 0a12 9f3d 76af 203d 5ce9 c0bd 2679 2e3e
00000350: f2d0 74bc c86d 22be cb88 983d f546 d6bb
00000360: ac41 8dbd 5491 fcbd 84a2 ef3d 456a 48bd
00000370: 2bea 303d e3dc 0dbd 386e 9ebd a97b 98bc
00000380: 26fc b4bc f3e9 26bd 2a17 8d3d d753 453d
00000390: c6d4 e13c c29b 70bd 7a08 543d a903 8e3c
000003a0: 6787 00be 4854 c7bb 6451 78bd 835f b73d
000003b0: 2614 c7bd 8c22 8abd fd41 1b3d bb15 043d
000003c0: 29f3 bd3b ab9b 29bd 95a1 a03b 14cd 87bd
000003d0: 0096 a83b 93c4 2f3d 3efb b73d d4f2 703c
000003e0: 32c6 9cbd 727d 8e3a 2f7c 8abd c922 15bd
000003f0: 3e5c 313c e22a 203d 64af b93d 01b5 41bb

conv4_3.bias f4 [10]
0.19455469 0.27150783 0.30298507 0.099253535 0.16948685 0.3185407 0.1832399 0.40365523
0.24458489 0.08847996
00000000: 5839 473e 1303 8b3e dc20 9b3e 7045 cb3d
00000010: f68d 2d3e c417 a33e 3ea3 3b3e e6ab ce3e
00000020: 7674 7a3e fb34 b53d

exp_avg f4 [10, 3, 3, 3]
0.05552982 0.055628944 0.050261784 0.04998676 0.050901596 0.04985203 0.04622216 0.046460986
0.046963565 0.045600105 0.04733405 0.042373843 0.040812094 0.042683136 0.041674644 0.035306368
0.037060875 0.037894893 0.047264133 0.05127117 0.04714235 0.04471331 0.0484154 0.047647573
0.041668616 0.043862958 0.044507116 0.0038859402 0.009238005 0.015830487 0.00342686 0.00696975
0.013229187 0.0034036017 0.007055167 0.0150466 -0.0012093668 0.004554523 0.0098296655 -0.00071574823
0.0027468344 0.00771208 -0.00073168066 0.0031924588 0.010212665 0.00024969046 0.006240564 0.0120817665
0.004068195 0.00787308 0.01236819 0.0062852586 0.011246784 0.016937885 -0.017418573 -0.019924456
-0.021099322 -0.014329469 -0.015585023 -0.018428633 -0.016331686 -0.014602829 -0.016143488 -0.011577775
-0.013888813 -0.014760522 -0.0069864574 -0.008178071 -0.010749523 -0.007552256 -0.0062478636 -0.007287724
-0.012494478 -0.015471649 -0.016739788 -0.0100084795 -0.011345526 -0.013734699 -0.011101384 -0.010075056
-0.010262769 -0.06952424 -0.06297867 -0.06599012 -0.05615439 -0.050665967 -0.048666153 -0.048492253
-0.03859815 -0.030739281 -0.062182967 -0.053693034 -0.05623993 -0.04859167 -0.04452484 -0.044193033
-0.042472288 -0.034795146 -0.028533231 -0.06493339 -0.056063406 -0.05749332 -0.052689634 -0.048538487
-0.048190728 -0.04625678 -0.038812894 -0.033721924 0.011342102 0.011498436 0.0097522065 0.014420772
0.010037048 0.008724585 0.013305796 0.008980569 0.005559139 0.008452755 0.008986487 0.0052755345
0.01099531 0.006926238 0.004340189 0.0110445805 0.008292406 0.004868777 0.01215839 0.014042508
0.009950145 0.012692315 0.01126824 0.009316623 0.013603686 0.011893558 0.008958668 0.043719552
0.042044677 0.039181467 0.045912813 0.04661352 0.042962834 0.052090798 0.04772809 0.04585094
0.04097823 0.037622258 0.031509694 0.044514768 0.0441495 0.03795356 0.05126778 0.046633203
0.04353195 0.041503366 0.03943962 0.034010287 0.04275766 0.04398536 0.038580127 0.04667428
0.0440066 0.042345803 -0.1739703 -0.16416687 -0.16185382 -0.18069194 -0.17034279 -0.16811171
-0.16706346 -0.16609742 -0.15647227 -0.15640938 -0.15077767 -0.1459587 -0.16495106 -0.16376007
-0.15870053 -0.149412 -0.15553065 -0.14488582 -0.1654502 -0.1676378 -0.16364372 -0.1725395
-0.17754762 -0.1762824 -0.15927231 -0.17086981 -0.16404697 -0.06004943 -0.052425493 -0.04228207
-0.050546106 -0.04657162 -0.03242806 -0.044830333 -0.03714591 -0.03516291 -0.048581377 -0.04278619
-0.031805716 -0.039632984 -0.035455097 -0.021583768 -0.035773788 -0.026583333 -0.024376106 -0.05407529
-0.05063262 -0.04002191 -0.044976022 -0.045884114 -0.031191254 -0.040612724 -0.03919726 -0.035695665
0.11119016 0.10127067 0.11229654 0.11529676 0.10722235 0.11089045 0.12345691 0.12167849
0.11316154 0.08938927 0.081201166 0.09333579 0.097623 0.091769256 0.094826296 0.105213255
0.104967624 0.09438732 0.092520185 0.086130366 0.098314114 0.0984474 0.09430009 0.1013466
0.10659566 0.10942885 0.10310723 -0.021713607 -0.029002806 -0.026992392 -0.01989828 -0.024740374
-0.022151802 -0.018551856 -0.022855854 -0.020028396 -0.01637194 -0.02171293 -0.020043701 -0.0138728395
00000000: 3d73 633d 2ddb 633d 4ddf 4d3d ebbe 4c3d
00000010: 317e 503d a431 4c3d 7353 3d3d e04d 3e3d
00000020: de5c 403d 2dc7 3a3d 59e1 413d 3290 2d3d
00000030: 952a 273d 83d4 2e3d 08b3 2a3d 699d 103d
00000040: 25cd 173d ad37 1b3d 0998 413d b801 523d
00000050: 5618 413d 4e25 373d 3a4f 463d 1a2a 433d
00000060: b6ac 2a3d a5a9 333d 184d 363d 42ab 7e3b
00000070: 005b 173c f0ae 813c 2c95 603b 8062 e43b
00000080: 3bbf 583c f60e 5f3b 082f e73b 0486 763c
00000090: 9e83 9eba 1c3e 953b 9b0c 213c 0da1 3bba
000000a0: 3c04 343b 9eb5 fc3b 42ce 3fba 9238 513b
000000b0: 0653 273c e3e8 8239 a57d cc3b 9af2 453c
000000c0: 7e4e 853b 17fe 003c f3a3 4a3c 92f4 cd3b
000000d0: 6e44 383c 52c1 8a3c 65b1 8ebc 9d38 a3bc
000000e0: 7cd8 acbc 26c6 6abc 5358 7fbc a5f7 96bc
000000f0: 07ca 85bc b440 6fbc 593f 84bc b5b0 3dbc
00000100: e78d 63bc 1ed6 71bc a7ee e4bb 51fd 05bc
00000110: c41e 30bc ea78 f7bb e1ba ccbb dccd eebb
00000120: a4b5 4cbc cd7c 7dbc e121 89bc 9bfa 23bc
00000130: 96e2 39bc 8107 61bc 94e2 35bc d911 25bc
00000140: 2c25 28bc ba62 8ebd f6fa 80bd d425 87bd
00000150: 2502 66bd 1e87 4fbd 2956 47bd d09f 46bd
00000160: 1819 1ebd f2d0 fbbc 91b3 7ebd 3aed 5bbd
00000170: d75b 66bd 0f08 47bd ae5f 36bd c103 35bd
00000180: 6cf7 2dbd 5b85 0ebd 86be e9bc ccfb 84bd
00000190: bea2 65bd 1e7e 6bbd 16d1 57bd 4bd0 46bd
000001a0: a463 45bd c077 3dbd 45fa 1ebd 0020 0abd
000001b0: 39d4 393c f063 3c3c b8c7 1f3c 1a45 6c3c
000001c0: 6e72 243c 90f1 0e3c 8e00 5a3c 3d23 133c
000001d0: 7029 b63b 6d7d 0a3c 0f3c 133c 64de ac3b
000001e0: ac25 343c 7ff5 e23b 2538 8e3b 54f4 343c
000001f0: dfdc 073c 438a 9f3b fc33 473c 8c12 663c
00000200: ef05 233c 6df3 4f3c 6d9e 383c c0a4 183c
00000210: ffe1 5e3c 33dd 423c 61c7 123c 4613 333d
00000220: 0a37 2c3d bf7c 203d 130f 3c3d d1ed 3e3d
00000230: ccf9 2f3d 295d 553d 887e 433d 32ce 3b3d
00000240: cad8 273d cc19 1a3d 4f10 013d 1e55 363d
00000250: 1bd6 343d 3175 1b3d 2afe 513d 7502 3f3d
00000260: 8f4e 323d 6fff 293d 708b 213d 5f4e 0b3d
00000270: a822 2f3d fe29 343d 3206 1e3d 882d 3f3d
00000280: 4440 343d cb72 2d3d 4525 32be 5c1b 28be
00000290: 02bd 25be 4f07 39be 576e 2ebe 7a25 2cbe
000002a0: af12 2bbe 7115 2abe 443a 20be c829 20be
000002b0: 7665 1abe 3376 15be eee8 28be b8b0 27be
000002c0: 6482 22be 76ff 18be 6d43 1fbe f35c 14be
000002d0: c76b 29be 3ea9 2bbe 3892 27be 32ae 30be
000002e0: 0bcf 35be 6083 34be 4818 23be 7ff8 2ebe
000002f0: eefb 27be 64f6 75bd 1dbc 56bd f72f 2dbd
00000300: 6f09 4fbd e2c1 3ebd 49d3 04bd 03a0 37bd
00000310: 4f26 18bd fc06 10bd 44fd 46bd 9240 2fbd
00000320: b646 02bd 3256 22bd 5d39 11bd 71d0 b0bc
00000330: 8987 12bd 4ac5 d9bc 66b0 c7bc 0d7e 5dbd
00000340: 2664 4fbd 04ee 23bd c738 38bd fbf0 3bbd
00000350: cd84 ffbc 8759 26bd 4e8d 20bd 9e35 12bd
00000360: abb7 e33d ff66 cf3d bafb e53d b520 ec3d
00000370: 6497 db3d 881a e33d fad6 fc3d 9232 f93d
00000380: 3dc1 e73d b911 b73d cc4c a63d d626 bf3d
00000390: 91ee c73d 85f1 bb3d 4a34 c23d 0c7a d73d
000003a0: 44f9 d63d 244e c13d 397b bd3d 1e65 b03d
000003b0: e958 c93d ca9e c93d 6820 c13d ce8e cf3d
000003c0: d34e da3d 3c1c e03d e229 d33d bce0 b1bc
000003d0: 4b97 edbc 261f ddbc b801 a3bc 53ac cabc
000003e0: b277 b5bc 10fa 97bc 333c bbbc 9712 a4bc
000003f0: 721e 86bc 51df b1bc b032 a4bc e84a 63bc

exp_avg_sq f4 [10, 3, 3, 3]
0.021726705 0.024553958 0.023887113 0.022925898 0.025233189 0.024181016 0.020878617 0.021002518
0.020026173 0.015161693 0.01758812 0.016999261 0.016202703 0.018164014 0.01722904 0.014504568
0.01455078 0.013669974 0.011854907 0.013920249 0.013396027 0.012677244 0.014352576 0.013594687
0.011202798 0.011274991 0.010602388 0.003326208 0.003237529 0.0030196141 0.0034659884 0.0035848184
0.0033959022 0.0037453827 0.0038655975 0.0035688973 0.0022785636 0.0022578845 0.002096436 0.0024133506
0.00257876 0.0024383452 0.0026265648 0.0027922655 0.0025863214 0.0018296659 0.0018334498 0.0017120095
0.0019842254 0.0021401003 0.0020316697 0.002179802 0.0023413377 0.0021767097 0.004236553 0.0043836413
0.004207569 0.004147025 0.0040953616 0.004039332 0.0037799047 0.003641116 0.0037682578 0.0023823362
0.0025027352 0.0024003396 0.0023002895 0.0022607723 0.0022610263 0.0020588564 0.0019692976 0.0021087467
0.0016213089 0.0017212752 0.0016585651 0.0015732845 0.0015393943 0.0015503782 0.0014176031 0.0013430633
0.0014645022 0.01768944 0.016941428 0.0244752 0.014135198 0.014152086 0.020132346 0.0133775575
0.011854444 0.014847028 0.015355859 0.015133028 0.021998696 0.012093143 0.012689193 0.018247928
0.0111950245 0.010375716 0.013125525 0.014562456 0.014635399 0.021267671 0.011644624 0.012643514
0.018200606 0.011058276 0.010659228 0.013413556 0.022589501 0.026498422 0.026561944 0.021675263
0.023216778 0.022719804 0.02317891 0.023314985 0.022493916 0.027232122 0.030993333 0.029918205
0.026569683 0.027875545 0.026263304 0.027793916 0.027685996 0.025963692 0.023727413 0.027343977
0.02621154 0.02279852 0.024367739 0.02355235 0.023895824 0.024217498 0.023581209 0.008879261
0.007778747 0.006294618 0.010261801 0.009659734 0.00814792 0.010060813 0.010013793 0.0093346285
0.006483285 0.00554209 0.00430536 0.0075070467 0.007038056 0.005791031 0.0072476557 0.007201131
0.006679106 0.0052825785 0.0044848667 0.0034796463 0.0061162454 0.005736553 0.004743262 0.005892085
0.005870412 0.005504214 0.22950867 0.22908309 0.24317886 0.2409803 0.23376302 0.23379864
0.22431877 0.2479439 0.2512104 0.17581888 0.17892863 0.190407 0.18623473 0.18373816
0.18280056 0.17386934 0.19889858 0.20132492 0.14393127 0.1480265 0.16107076 0.15406537
0.15250266 0.15428047 0.1447284 0.16824 0.17261386 0.05490756 0.046264604 0.031507622
0.046529446 0.041225128 0.031888768 0.039717652 0.038039662 0.03488111 0.029324003 0.022429042
0.012551986 0.021823894 0.017696576 0.012232336 0.017713608 0.01622347 0.015027912 0.023878252
0.018276796 0.010186503 0.017352605 0.014215925 0.01002965 0.013880659 0.012793381 0.012301698
0.07424553 0.07234067 0.08470194 0.09486452 0.0892215 0.090036236 0.11033411 0.10874212
0.09828219 0.047623377 0.046081778 0.05704283 0.06357207 0.05888026 0.060699347 0.07629618
0.07487199 0.066922545 0.035623144 0.034566764 0.043718446 0.048440393 0.04470456 0.04636716
0.05896725 0.058010273 0.051448107 0.009950879 0.012269946 0.012887686 0.010127472 0.012354631
0.012291811 0.009852759 0.011627061 0.01193618 0.006381532 0.008105184 0.008642392 0.006535402
00000000: 34fc b13c 6225 c93c e8ae c33c 18cf bb3c
00000010: d5b5 ce3c 4417 c63c a209 ab3c 790d ac3c
00000020: ee0d a43c c068 783c f614 903c 0942 8b3c
00000030: 88bb 843c b3cc 943c ea23 8d3c 91a4 6d3c
00000040: 6566 6e3c 07f8 5f3c 153b 423c c211 643c
00000050: 027b 5b3c 37b4 4f3c 1127 6b3c 40bc 5e3c
00000060: f18b 373c bdba 383c a3b5 2d3c 83fc 593b
00000070: b92c 543b b8e4 453b a325 633b 46ef 6a3b
00000080: c98d 5e3b 1875 753b f755 7d3b 29e4 693b
00000090: f453 153b 04f9 133b 5c64 093b 4e29 1e3b
000000a0: 6a00 293b a5cc 1f3b 7222 2c3b 71fe 363b
000000b0: 467f 293b 66d1 ef3a 5e50 f03a 8265 e03a
000000c0: c709 023b ed40 0c3b c325 053b 02db 0e3b
000000d0: 2171 193b 21a7 0e3b c8d2 8a3b a6a4 8f3b
000000e0: a6df 893b c4e3 873b 6232 863b 5f5c 843b
000000f0: 47b8 773b ca9f 6e3b e0f4 763b f820 1c3b
00000100: ee04 243b 044f 1d3b 74c0 163b 7729 143b
00000110: ba2d 143b e1ed 063b 550f 013b e632 0a3b
00000120: 1982 d43a 699c e13a 3664 d93a ab36 ce3a
00000130: 80c5 c93a 0f36 cb3a dece b93a ba09 b03a
00000140: 8af4 bf3a 72e9 903c c0c8 8a3c 3780 c83c
00000150: 5197 673c 27de 673c 97ec a43c 8b2d 5b3c
00000160: 2439 423c f340 733c 2497 7b3c 85f0 773c
00000170: 9c36 b43c 5122 463c 55e6 4f3c ae7c 953c
00000180: 566b 373c e8fe 293c 710c 573c 5e97 6e3c
00000190: 50c9 6f3c 8a39 ae3c 18c9 3e3c be26 4f3c
000001a0: 7019 953c c52d 353c 0ba4 2e3c 88c4 5b3c
000001b0: 9e0d b93c 3813 d93c 6f98 d93c 5290 b13c
000001c0: 1d31 be3c e21e ba3c b3e1 bd3c 11ff be3c
000001d0: 2945 b83c e615 df3c bbe5 fd3c 0617 f53c
000001e0: aaa8 d93c 415b e43c 2426 d73c 11b0 e33c
000001f0: becd e23c cfb1 d43c fe5f c23c 7a00 e03c
00000200: 95b9 d63c f6c3 ba3c da9e c73c dcf0 c03c
00000210: 2dc1 c33c c663 c63c 612d c13c 527a 113c
00000220: dce4 fe3b 1543 ce3b 1d21 283c dc43 1e3c
00000230: da7e 053c 1cd6 243c e410 243c 45f0 183c
00000240: bd71 d43b 6c9a b53b fa13 8d3b acfd f53b
00000250: 7e9f e63b b0c2 bd3b be7d ed3b 77f7 eb3b
00000260: 67dc da3b 7b19 ad3b caf5 923b c70a 643b
00000270: c96a c83b b2f9 bb3b 5e6d 9b3b 6412 c13b
00000280: 965c c03b b25c b43b 5204 6b3e c294 6a3e
00000290: e103 793e 8ac3 763e 935f 6f3e e968 6f3e
000002a0: d2b3 653e 01e5 7d3e a69e 803e dd09 343e
000002b0: 1139 373e 0dfa 423e 51b4 3e3e db25 3c3e
000002c0: 1230 3b3e ce0a 323e 12ac 4b3e 1f28 4e3e
000002d0: b862 133e 4294 173e bcef 243e 50c3 1d3e
000002e0: a829 1c3e b3fb 1d3e af33 143e 1b47 2c3e
000002f0: b0c1 303e c0e6 603d f47f 3d3d 230e 013d
00000300: a995 3e3d aedb 283d cc9d 023d faae 223d
00000310: 7acf 1b3d 7fdf 0e3d e438 f03c 1cbd b73c
00000320: d8a6 4d3c 06c8 b23c 69f8 903c 236a 483c
00000330: 211c 913c 15e7 843c a237 763c 539c c33c
00000340: 38b9 953c 4ae5 263c 0d27 8e3c e9e9 683c
00000350: 6753 243c b46b 633c 549b 513c 108d 493c
00000360: 0a0e 983d 5827 943d 3678 ad3d 5448 c23d
00000370: c3b9 b63d eb64 b83d daf6 e13d 30b4 de3d
00000380: 2c48 c93d bb10 433d 3fc0 3c3d bea5 693d
00000390: 1332 823d 6d2c 713d e19f 783d 2c41 9c3d
000003a0: 7c56 993d b00e 893d 93e9 113d e195 0d3d
000003b0: 1d12 333d 6f69 463d 211c 373d 7eeb 3d3d
000003c0: a587 713d 2e9c 6d3d 40bb 523d 0309 233c
000003d0: e207 493c df26 533c b2ed 253c 146b 4a3c
000003e0: 9863 493c 776d 213c 6e7f 3e3c f88f 433c
000003f0: 2c1c d13b 9bcb 043c d298 0d3c ed26 d63b

exp_avg f4 [10]
0.10415904 0.018913215 -0.032472212 -0.13780597 0.00160268 0.07847156 -0.37204108 -0.10338357
0.24416184 -0.04739075
00000000: 5651 d53d e3ef 9a3c 9501 05bd 021d 0dbe
00000010: 0411 d23a b2b5 a03d 2b7c bebe c4ba d3bd
00000020: 9005 7a3e ce1c 42bd

exp_avg_sq f4 [10]
0.07758267 0.011540339 0.010359382 0.10301866 0.048488587 0.030054744 0.8978931 0.14808194
0.39824542 0.054532494
00000000: aae3 9e3d b113 3d3c 66ba 293c 72fb d23d
00000010: f89b 463d 5e35 f63c 52dc 653f cba2 173e
00000020: d3e6 cb3e 775d 5f3d
