Pytorch face detection - Test/MTCNN_train_process/1/checkpoint_2200.pth (torch, 190897 bytes, 12 tensors)

conv1.weight f4 [10, 3, 3, 3]
-0.38059157 -0.18405141 -0.1665347 -0.056810353 0.06417437 -0.11055347 -0.0036749297 -0.22790419
-0.13848376 0.21260858 0.1735746 0.5913952 0.35106808 0.4342099 0.33979762 0.3990278
0.45217127 0.24260448 0.27329907 0.21317506 -0.19254346 -0.08854956 -0.4656564 -0.16511007
-0.3085517 -0.076420836 0.23924711 -0.1113026 -0.3445975 0.5338012 -0.6688113 -0.39225087
0.20355174 -0.61145216 -0.05495272 -0.18446264 0.38455275 -0.1400462 0.1589741 0.041920736
-0.10720294 -0.17542395 0.27830148 0.45895374 0.108997405 0.21729 -0.115531124 -0.595247
0.6157521 0.18356109 -0.06958015 0.47146922 0.3157562 -0.266505 0.313927 0.3763071
0.37772974 0.48260507 0.24515036 0.035176646 -0.54168385 -0.6377964 -0.42062494 0.21786906
0.27442685 0.054960318 0.17561851 -0.053190716 -0.37177542 -0.44694078 -0.4064862 0.10807316
0.3192095 0.30119088 0.28115985 0.1807502 0.03189758 -0.38478118 -0.41714776 -0.36262572
0.34554264 0.32230604 -0.8411669 0.7809027 0.22790249 -0.6474499 0.03626879 0.07233682
-0.0017613677 -0.14659314 0.1750697 -0.7366024 0.9020511 0.48045552 -0.21143456 0.19554795
-0.13314606 -0.09079632 -0.05244586 -0.088729285 -0.4221409 0.32962942 0.13001059 0.013462864
-0.06732332 -0.008302887 0.09297905 -0.32707602 -0.40363857 -0.27462265 -0.07851766 -0.27412227
-0.22231102 -0.12386651 -0.100303866 -0.06585861 -0.06626413 0.54816014 0.30083328 0.37824544
0.33836755 0.24489437 0.019197632 0.2103878 0.20437278 0.0008464353 -0.04117266 0.071475595
-0.27308407 -0.04368499 0.05139773 0.022141233 -0.10057593 -0.06667115 0.03995095 0.39718032
0.32018533 -0.80427206 0.5983186 0.1564764 -0.51691884 0.3013249 0.0830923 -0.25419652
0.12289911 0.11551004 -0.35686794 0.3314835 0.015574561 -0.42870337 0.293185 -0.17064267
-0.36600652 0.17018844 0.10508347 -0.14452487 0.22531146 -0.0872127 -0.28368112 0.309357
-0.14926215 0.07133773 0.3793186 -0.1136791 0.06769844 0.109726645 -0.26060778 -0.074928336
-0.3899951 -0.14217073 -0.22144881 0.12134003 -0.1812862 -0.31833047 -0.1521009 -0.3095973
-0.43482623 0.122775175 0.19790693 0.06250461 -0.23362565 -0.1400246 -0.07198456 0.09135699
-0.13594449 -0.054275203 0.0063969432 0.1339885 0.14030248 0.04311045 0.09081198 0.08442638
0.3409885 0.45589584 0.03939786 0.2488395 0.53441626 -0.17810754 -0.04811293 -0.023274148
-0.30041113 -0.46152863 -0.44116646 -0.33135447 -0.5026974 -0.5500172 -0.32126203 0.08291772
-0.056508433 0.13281202 -0.08800343 -0.062063105 0.35930252 0.17986564 -0.09470635 0.3854122
-0.7554117 -0.9498042 -0.74611074 0.5224246 0.29286924 -0.27460897 0.5833065 0.6091245
0.5779063 0.12088443 -0.2255996 0.06602698 0.37363657 0.30305517 -0.0042078095 -0.13945703
-0.14155062 -0.08620282 0.18227452 -0.1523582 -0.016831702 0.015894946 -0.015893394 -0.061351277
-0.031214438 0.005955647 -0.15435694 -1.0341415 -0.008064922 0.5593946 -0.55036366 0.45634252
0.3444328 -0.5444878 0.24068762 0.44304118 0.21065763 -0.21615371 -0.023816908 -0.06705077
00000000: e6dc c2be f977 3cbe 1388 2abe f9b1 68bd
00000010: da6d 833d dc69 e2bd 17d7 70bb b75f 69be
00000020: b0ce 0dbe 10b6 593e 8abd 313e ad65 173f
00000030: 32bf b33e c350 de3e f4f9 ad3e 5f4d cc3e
00000040: fe82 e73e 4f6d 783e dbed 8b3e 904a 5a3e
00000050: 1d2a 45be 7959 b5bd 846a eebe 9d12 29be
00000060: 7dfa 9dbe 8782 9cbd 32fd 743e 9ef2 e3bd
00000070: 156f b0be 32a7 083f 3837 2bbf 1bd5 c8be
00000080: de6f 503e 2188 1cbf 1a16 61bd c6e3 3cbe
00000090: 19e4 c43e 4568 0fbe 1bca 223e 14b5 2b3d
000000a0: 378d dbbd 56a2 33be 887d 8e3e fcfb ea3e
000000b0: 083a df3d 4581 5e3e 959b ecbd 1b62 18bf
000000c0: eea1 1d3f 70f7 3b3e 0a80 8ebd 6a64 f13e
000000d0: ccaa a13e 5873 88be 0abb a03e 53ab c03e
000000e0: cb65 c13e 0318 f73e b208 7b3e 6315 103d
000000f0: cbab 0abf a046 23bf 275c d7be 1119 5f3e
00000100: ad81 8c3e 121e 613d 57d5 333e 82de 59bd
00000110: 5959 bebe 6cd5 e4be f61e d0be 7655 dd3d
00000120: 6d6f a33e b135 9a3e 2ff4 8f3e 9516 393e
00000130: 09a7 023d 0a02 c5be 6494 d5be 14aa b9be
00000140: f7ea b03e 4c05 a53e b756 57bf 3de9 473f
00000150: 455f 693e 47bf 25bf 958e 143d 5425 943d
00000160: b1dd e6ba 831c 16be 7945 333e fa91 3cbf
00000170: d2ec 663f 44fe f53e 4d82 58be b93d 483e
00000180: 7157 08be 6cf3 b9bd 78d1 56bd b3b7 b5bd
00000190: da22 d8be 30c5 a83e 7f21 053e 5893 5c3c
000001a0: cfe0 89bd d508 08bc cd6b be3d 8276 a7be
000001b0: b7a9 cebe 579b 8cbe decd a0bd c159 8cbe
000001c0: 80a5 63be baad fdbd 1d6c cdbd e1e0 86bd
000001d0: 7db5 87bd 3954 0c3f d206 9a3e 63a9 c13e
000001e0: 833e ad3e 97c5 7a3e 5a44 9d3c e66f 573e
000001f0: 1947 513e 50e3 5d3a aaa4 28bd cc61 923d
00000200: add1 8bbe 08ef 32bd 6d86 523d 8861 b53c
00000210: c1fa cdbd e28a 88bd 9ba3 233d 385b cb3e
00000220: 55ef a33e c6e4 4dbf 682b 193f 593b 203e
00000230: cb54 04bf 4247 9a3e 4c2c aa3d 0c26 82be
00000240: 87b2 fb3d 8790 ec3d 65b7 b6be 35b8 a93e
00000250: 722c 7f3c 027f dbbe 581c 963e f4bc 2ebe
00000260: 3565 bbbe e145 2e3e 0136 d73d 54fe 13be
00000270: 0cb8 663e 929c b2bd a73e 91be 0a64 9e3e
00000280: 2dd8 18be 8419 923d 0c36 c23e 97d0 e8bd
00000290: 7ba5 8a3d 5db8 e03d 626e 85be 0774 99bd
000002a0: 70ad c7be 3495 11be 7ac3 62be 1f81 f83d
000002b0: 17a3 39be 36fc a2be 57c0 1bbe 8a83 9ebe
000002c0: 8ba1 debe 8d71 fb3d 1da8 4a3e 6b02 803d
000002d0: 903b 6fbe 9c62 0fbe a46c 93bd 6019 bb3d
000002e0: 0835 0bbe ad4f 5ebd 739d d13b 4834 093e
000002f0: 74ab 0f3e 9594 303d a2fb b93d bde7 ac3d
00000300: 0b96 ae3e 2e6b e93e a75f 213d c8cf 7e3e
00000310: 81cf 083f d361 36be 1012 45bd 6da9 bebc
00000320: 7dcf 99be 7b4d ecbe 92e0 e1be 4ba7 a9be
00000330: c7b0 00bf edcd 0cbf 757c a4be c4d0 a93d
00000340: 6375 67bd e0ff 073e 243b b4bd e235 7ebd
00000350: 80f6 b73e b32e 383e 67f5 c1bd bf54 c53e
00000360: a962 41bf 5e26 73bf 1d01 3fbf 9ebd 053f
00000370: f5f2 953e 8c99 8cbe 9353 153f 95ef 1b3f
00000380: abf1 133f 4292 f73d 9503 67be 2739 873d
00000390: 4b4d bf3e 0c2a 9b3e aae1 89bb d3cd 0ebe
000003a0: a5f2 10be 1b8b b0bd 2ca6 3a3e ca03 1cbe
000003b0: a3e2 89bc 1e36 823c dd32 82bc 7a4b 7bbd
000003c0: 6cb5 ffbc 9727 c33b bf0f 1ebe c05e 84bf
000003d0: bc22 04bc 7c34 0f3f a2e4 0cbf baa5 e93e
000003e0: 7f59 b03e 8d63 0bbf d176 763e 4bd6 e23e
000003f0: a2b6 573e 6657 5dbe ad1b c3bc ea51 89bd

conv1.bias f4 [10]
0.046081 0.052068815 -0.0033776641 -0.008253231 -0.23372068 -0.019437231 0.3376691 -0.09408752
0.08202748 0.39730623
00000000: 6ebf 3c3d 1c46 553d cd5b 5dbb 8f38 07bc
00000010: 7954 6fbe d43a 9fbc f7e2 ac3e f5b0 c0bd
00000020: 06fe a73d b96b cb3e

conv2.weight f4 [16, 10, 3, 3]
0.22551546 -0.2043964 -0.018528216 -0.14753023 0.014785655 -0.0360793 -0.07972436 0.17987731
0.054135166 0.020036222 -0.12458278 0.038747933 0.116185084 -0.21227503 -0.056941643 -0.16177829
0.22820301 0.09311946 0.30072662 -0.2946022 0.011595021 -0.18053094 0.10420875 0.14490506
-0.19058725 0.1816343 0.17691448 -0.024131937 -0.030620381 0.0744709 0.23425429 -0.3031111
-0.1912766 0.057219848 -0.0057825595 -0.0874896 -0.02006873 -0.06086992 0.14539517 0.120274656
-0.061657727 -0.014615256 0.11353338 0.011832663 0.11174145 0.14340343 -0.064912885 -0.3282161
-0.1829975 -0.27666423 0.29747552 -0.052034594 0.10627166 -0.11348479 -0.15591994 0.07865816
0.064752296 -0.013350462 0.10719648 -0.018543499 -0.033308867 -0.028492086 0.031848136 -0.122410856
0.097651295 0.073729806 -0.11031908 0.074213766 -0.024582159 0.071636975 0.011255091 -0.053057186
-0.43090543 0.14247252 0.47702432 0.15565796 -0.11776558 0.01489415 -0.05236275 -0.026984936
0.038430102 -0.3532174 -0.14185344 -0.16083841 0.34138444 0.19716832 -0.0768391 -0.22277614
0.007907982 0.09882004 -0.04667713 -0.06072751 0.07550677 0.014630512 -0.05917911 0.05681778
-0.07653063 -0.07345638 -0.0074556875 0.07734797 0.058516927 -0.06928962 -0.060284562 0.042857997
-0.0049308417 0.026212595 0.014164623 -0.07046558 -0.008652804 -0.021157576 -0.020365264 0.05830117
-0.100520015 0.0029075674 0.08781555 -0.109984785 0.023074668 0.10472924 0.045676295 0.05219542
-0.03622222 0.024170376 0.012984514 0.10704772 -0.1101419 0.06247103 -0.06486489 -0.09447002
0.100181825 0.020754037 -0.058113694 -0.098772846 -0.021157494 -0.022901686 -0.008547931 -0.037021868
0.038797107 0.078667715 -0.095626496 -0.05617147 0.07508675 -0.10671181 0.057719484 -0.04923096
0.027159581 -0.054951902 0.0522447 0.015814519 -0.024606103 0.10117024 -0.09191107 0.0955997
0.07166422 -0.0164894 -0.030551758 0.08575655 0.039498806 -0.09592265 -0.0837823 -0.10385461
-0.045435876 -0.01952591 -0.004133007 0.029079948 -0.11522381 0.025892988 0.0039449893 0.01709031
-0.09619433 -0.08115961 -0.023693692 0.054873534 -0.040074527 -0.034755588 0.004577661 -0.005787488
-0.0012498399 0.00020149983 -0.061982952 0.10111431 0.51625293 -0.010873081 0.39018735 -0.45653275
-0.7538463 -0.119510084 0.15305693 -0.19450843 0.3734041 0.112769745 -0.08112745 -0.017838152
-0.052576575 -0.20788221 -0.3334991 0.37265837 -0.25771198 -0.113851614 -0.15193598 0.29013526
-0.08145794 0.051767103 -0.07685866 -0.0837136 -0.06894411 0.08022849 0.045854602 -0.3490926
-0.12847276 0.13261627 0.29902098 0.14084814 0.016320592 0.057680313 -0.023250889 -0.30385008
-0.019244114 0.025744082 -0.21750973 -0.060623214 0.25769156 0.11420128 -0.0007452228 0.12681508
-0.033633564 0.020506782 -0.110630505 0.082668826 0.081372835 0.19762366 -0.038306013 -0.066974044
-0.15127824 0.22931072 -0.07350735 0.00024117566 0.12793978 -0.10371918 0.02484582 0.12651506
-0.04594529 -0.17727102 -0.038863584 -0.031304233 -0.15803729 -0.08731221 -0.10888094 -0.22686453
-0.08093423 -0.026615066 -0.16637528 0.1517514 -0.10162344 -0.15780997 0.19916582 0.20283788
00000000: 86ed 663e 4a4d 51be 7cc8 97bc 2a12 17be
00000010: 883f 723c e3c7 13bd 8646 a3bd c231 383e
00000020: d6bc 5d3d 0123 a43c 4225 ffbd 27b6 1e3d
00000030: 72f2 ed3d a05e 59be a43b 69bd 35a9 25be
00000040: 0dae 693e 6ab5 be3d d7f8 993e 19d6 96be
00000050: 0bf9 3d3c 1add 38be 666b d53d fe61 143e
00000060: 4e29 43be 58fe 393e 1229 353e 57b0 c5bc
00000070: 98d7 fabc 3384 983d 5be0 6f3e 6131 9bbe
00000080: 03de 43be 5c5f 6a3d a07b bdbb bf2d b3bd
00000090: 2d67 a4bc bd52 79bd 79e2 143e 8f52 f63d
000000a0: d08c 7cbd d474 6fbc 3084 e83d c9dd 413c
000000b0: b4d8 e43d 59d8 123e 0cf1 84bd f10b a8be
000000c0: b263 3bbe efa6 8dbe b64e 983e 3a22 55bd
000000d0: f5a4 d93d b76a e8bd 7aa9 1fbe 8817 a13d
000000e0: da9c 843d e5bb 5abc d489 db3d 89e8 97bc
000000f0: e16e 08bd 3c68 e9bc 3173 023d 8bb2 fabd
00000100: 67fd c73d a7ff 963d f8ee e1bd 63fd 973d
00000110: 8660 c9bc 68b6 923d 4667 383c 7e52 59bd
00000120: a39f dcbe 51e4 113e 883c f43e cd64 1f3e
00000130: 152f f1bd 9806 743c 537a 56bd 830f ddbc
00000140: e268 1d3d e9d8 b4be 0742 11be d3b2 24be
00000150: f1c9 ae3e 7ee6 493e d15d 9dbd 6e1f 64be
00000160: 7b90 013c 2962 ca3d 8530 3fbd 69bd 78bd
00000170: 4ba3 9a3d d1b4 6f3c cb65 72bd c3b9 683d
00000180: 17bc 9cbd 4c70 96bd d74e f4bb 9d68 9e3d
00000190: 72af 6f3d b7e7 8dbd f2ec 76bd de8b 2f3d
000001a0: e692 a1bb ccbb d63c bc12 683c 4250 90bd
000001b0: 7ec4 0dbc a752 adbc 0ed5 a6bc 35cd 6e3d
000001c0: 70dd cdbd e38c 3e3b a4d8 b33d b43f e1bd
000001d0: 1607 bd3c 497c d63d 1117 3b3d ddca 553d
000001e0: c05d 14bd f400 c63c 00bd 543c d63b db3d
000001f0: 1492 e1bd 9fe1 7f3d e2d7 84bd 7f79 c1bd
00000200: 212c cd3d 5f04 aa3c a008 6ebd 6b49 cabd
00000210: 7b52 adbc 519c bbbc 9f0c 0cbc 3ea4 17bd
00000220: b7e9 1e3d 8a1c a13d d3d7 c3bd 0e14 66bd
00000230: 15c7 993d b98b dabd 446b 6c3d 67a6 49bd
00000240: c57d de3c 3f15 61bd 8afe 553d 738d 813c
00000250: bd92 c9bc 5832 cf3d df3b bcbd c7c9 c33d
00000260: b1c4 923d c714 87bc ae47 fabc 21a1 af3d
00000270: 80c9 213d 1873 c4bd 0e96 abbd bab1 d4bd
00000280: f81a 3abd cdf4 9fbc 2d6e 87bb 1239 ee3c
00000290: 76fa ebbd 881d d43c f844 813b fa00 8c3c
000002a0: 8801 c5bd 0237 a6bd 4619 c2bc 12c3 603d
000002b0: 3025 24bd e05b 0ebd 3400 963b f8a4 bdbb
000002c0: abd1 a3ba b349 5339 d6e1 7dbd 0515 cf3d
000002d0: 2729 043f 0225 32bc a3c6 c73e a9be e9be
000002e0: 12fc 40bf b4c1 f4bd f5ba 1c3e 382d 47be
000002f0: d22e bf3e d3f3 e63d 2626 a6bd 5121 92bc
00000300: 895a 57bd 13df 54be 65c0 aabe 14cd be3e
00000310: d3f2 83be 092b e9bd 1b95 1bbe 9c8c 943e
00000320: 6cd3 a6bd be09 543d 1368 9dbd 0972 abbd
00000330: 9232 8dbd d64e a43d 09d2 3b3d 44bc b2be
00000340: 5d8e 03be 8fcc 073e 4719 993e 7f3a 103e
00000350: c3b2 853c 3142 6c3d a678 bebc 3d92 9bbe
00000360: d5a5 9dbc 41e5 d23c dfba 5ebe 0c50 78bd
00000370: 26f0 833e 5ce2 e93d 0e5b 43ba d0db 013e
00000380: 59c3 09bd d7fd a73c 3f92 e2bd 464e a93d
00000390: cda6 a63d db5d 4a3e c4e6 1cbd b029 89bd
000003a0: afe8 1abe 6ed0 6a3e 068b 96bd 19e4 7c39
000003b0: a502 033e b96a d4bd 7689 cb3c 2a8d 013e
000003c0: 2131 3cbd 8986 35be 6c2f 1fbd de38 00bd
000003d0: 87d4 21be bed0 b2bd f8fc debd 2d4f 68be
000003e0: d8c0 a5bd d707 dabc 485e 2abe b864 1b3e
000003f0: f31f d0bd f098 21be 20f2 4b3e bcb4 4f3e

conv2.bias f4 [16]
0.081228435 -0.04580874 0.2311706 0.01237877 -0.1024051 -0.019032193 0.7934265 -0.123573974
0.16352402 0.2044004 0.14202878 -0.12126966 0.2565123 0.32520217 0.0177902 0.07724767
00000000: 185b a63d f2a1 3bbd fcb7 6c3e 53d0 4a3c
00000010: c4b9 d1bd 67e9 9bbc 001e 4b3f 5a14 fdbd
00000020: d772 273e 574e 513e fe6f 113e 3a5c f8bd
00000030: 9555 833e e680 a63e c1bc 913c 0734 9e3d

conv3.weight f4 [32, 16, 3, 3]
-0.008249233 0.048776384 -0.029546596 -0.043115377 -0.088128515 -0.01166001 0.017584931 -0.0042016143
0.012030045 -0.0719074 0.077443816 -0.003889833 0.0022657784 0.0018268966 -0.053387053 -0.070012935
-0.0750073 0.060489215 -0.014758279 0.02288645 0.04031502 0.035310604 -0.036656998 0.07226426
0.029654395 0.0027739212 0.06018011 0.04386211 -0.07190566 -0.006137899 -0.05460572 0.047440417
-0.047600318 0.023904579 -0.04674408 -0.030987678 0.020104663 -0.053745415 -0.02071282 0.069173105
-0.027781146 -0.030235806 -0.027179012 -0.04990218 0.03405513 -0.035378683 -0.099269494 -0.052657347
-0.020273859 -0.027630415 -0.08352737 -0.04421913 -0.041045785 -0.017637795 -0.11029019 0.033402916
0.034111448 -0.057348236 0.0780828 0.0010682101 -0.04899366 -0.038525395 -0.034211285 -0.06416306
0.06171678 -0.05258383 0.047701396 0.02090617 0.05260907 -0.03755435 0.062984705 0.009692607
0.14349036 -0.047532372 0.025333658 0.005915222 -0.021784207 0.020194743 -0.019778444 -0.0014750559
0.0456995 -0.051632304 0.0302008 -0.11188828 -0.041854084 -0.08173079 -0.025837775 0.0801359
-0.036171034 0.0021905252 0.0261158 0.012882596 -0.00880857 0.069958024 0.035168547 -0.07280816
-0.02100571 0.049733415 -0.009334101 0.094678216 0.08067592 -0.053403776 -0.004078466 -0.051203962
-0.030532299 -0.04829203 -0.010706581 0.047977883 0.04096008 0.009178218 -0.008345709 0.014209736
0.06579983 -0.033637132 0.060538627 -0.07156946 -0.07285048 0.07292738 0.027165364 -0.058467325
0.00079992943 0.03368803 0.038577646 0.11295334 -0.03840582 0.08757378 0.04013707 0.002450101
0.14822744 0.101735875 0.039733384 0.08992133 0.030138154 0.06811206 0.07650483 -0.029939812
-0.060973804 -0.13318996 -0.052007165 -0.060628522 0.008270409 -0.037994858 0.026591634 -0.04293644
0.062354535 -0.06282019 0.05370077 0.029420894 -0.0060001994 0.015262776 0.07722956 0.066529796
0.0005287381 0.0251309 -0.07533915 0.0627655 0.016459862 -0.040310744 -0.071603216 0.050031714
-0.07698886 -0.019925058 0.007012253 0.056532253 -0.04530257 -0.039164603 -0.08211286 0.024958557
0.01673139 0.049861085 -0.05670906 0.06395457 -0.0030013607 0.07181366 0.026479315 0.057032987
-0.02618606 0.03354133 -0.04400341 -0.0031701606 0.001546312 -0.046870407 -0.05261605 -0.06999622
0.013753045 0.052030127 -0.07394299 -0.06763438 -0.079836294 -0.004314722 0.059961483 0.06783072
0.036580812 -0.06867626 0.061120257 0.06346995 0.0072845533 -0.059513077 -0.07262167 0.07186784
0.0024796147 -0.06758358 0.03391574 -0.00040027927 -0.020413801 0.026614795 0.0040275394 0.06100961
-0.0054731015 -0.073434986 -0.054970983 -0.0056874794 -0.057993334 0.009083708 0.058059964 -0.017462183
-0.065305784 0.0780174 0.020822981 0.019116884 -0.020857718 -0.08364449 0.04323226 -0.015097835
-0.01420017 -0.0075893146 -0.066319466 -0.07743226 -0.0647929 -0.05727728 0.06338012 -0.06014044
-0.030917013 -0.012441817 0.0055013555 -0.0024780675 0.024761347 -0.047517855 0.052399494 0.06928542
-0.041025724 -0.018623777 -0.07242512 -0.055739574 -0.047234952 -0.041223764 0.01977935 0.039264485
0.022795012 0.032617893 -0.0049774507 0.036125615 -0.013982437 0.052017592 -0.048545178 -0.005679807
00000000: ca27 07bc bfc9 473d b40b f2bc c099 30bd
00000010: b97c b4bd a009 3fbc 460e 903c b2ad 89bb
00000020: aa19 453c 3044 93bd dd9a 9e3d 92ec 7ebb
00000030: 747d 143b 7a74 ef3a 62ac 5abd f162 8fbd
00000040: 6d9d 99bd 8ac3 773d b5cc 71bc 5d7c bb3c
00000050: 5d21 253d daa1 103d a625 16bd 49ff 933d
00000060: c6ed f23c adca 353b 6b7f 763d c1a8 333d
00000070: 4643 93bd 6e20 c9bb 3faa 5fbd e250 423d
00000080: 8df8 42bd 89d3 c33c b876 3fbd dfd9 fdbc
00000090: 89b2 a43c 2724 5cbd efad a9bc a1aa 8d3d
000000a0: 4995 e3bc 15b1 f7bc 85a6 debc 3a66 4cbd
000000b0: 647d 0b3d 3de9 10bd ce4d cbbd 3baf 57bd
000000c0: 5d15 a6bc 2e59 e2bc 6610 abbd 1e1f 35bd
000000d0: a01f 28bd 237d 90bc d3df e1bd 7fd1 083d
000000e0: 72b8 0b3d fce5 6abd e0e9 9f3d 2f03 8c3a
000000f0: 93ad 48bd cecc 1dbd 2221 0cbd ec67 83bd
00000100: bcca 7c3d 2462 57bd 8a62 433d 6b43 ab3c
00000110: 9c7c 573d 97d2 19bd 20fe 803d becd 1e3c
00000120: 23ef 123e 4eb1 42bd 8888 cf3c 7bd4 c13b
00000130: cb74 b2bc 726f a53c 6706 a2bc aa56 c1ba
00000140: 662f 3b3d 657c 53bd ab67 f73c af25 e5bd
00000150: 306f 2bbd 7962 a7bd bea9 d3bc 4a1e a43d
00000160: 1428 14bd ea8e 0f3b cdf0 d53c 8611 533c
00000170: d251 10bc 2746 8f3d e50c 103d 721c 95bd
00000180: 2b14 acbc 44b5 4b3d 0fee 18bc a7e6 c13d
00000190: 6b39 a53d ebbd 5abd a7a4 85bb 3fbb 51bd
000001a0: df1e fabc ddcd 45bd a86a 2fbc 7584 443d
000001b0: c2c5 273d 3d60 163c 71bc 08bc f4cf 683c
000001c0: 10c2 863d 17c7 09bd 5af7 773d 0293 92bd
000001d0: a232 95bd f35a 953d e689 de3c 6f7b 6fbd
000001e0: 5bb2 513a 76fc 093d 9803 1e3d 1554 e73d
000001f0: 6c4f 1dbd e259 b33d c566 243d e091 203b
00000200: efc8 173e e65a d03d 79bf 223d ad28 b83d
00000210: 4ae4 f63c 567e 8b3d 90ae 9c3d 5644 f5bc
00000220: abbf 79bd f362 08be 7705 55bd 9d55 78bd
00000230: 9c80 073c 7fa0 1bbd b3d6 d93c 1fde 2fbd
00000240: 7867 7f3d dfa7 80bd 57f5 5b3d 1604 f13c
00000250: 529d c4bb b910 7a3c 882a 9e3d c640 883d
00000260: 039b 0a3a 51df cd3c 6a4b 9abd 338b 803d
00000270: d5d6 863c e11c 25bd b5a4 92bd 0eee 4c3d
00000280: 56ac 9dbd e039 a3bc 0bc7 e53b 5d8e 673d
00000290: 308f 39bd 106b 20bd ca2a a8bd e375 cc3c
000002a0: 4510 893c 233b 4c3d c247 68bd 9dfa 823d
000002b0: 7ab2 44bb 0a13 933d 26eb d83c 6c9b 693d
000002c0: 2684 d6bc a262 093d eb3c 34bd 78c2 4fbb
000002d0: 9fad ca3a 2ffb 3fbd ed83 57bd 2e5a 8fbd
000002e0: 7454 613c 8b1d 553d 6c6f 97bd e583 8abd
000002f0: 3681 a3bd 8362 8dbb 2c9a 753d d5ea 8a3d
00000300: c3d5 153d 24a6 8cbd 3c59 7a3d 88fc 813d
00000310: 43b3 ee3b fcc3 73bd acba 94bd 722f 933d
00000320: 0881 223b 4369 8abd 3beb 0a3d 93dc d1b9
00000330: d83a a7bc 4507 da3c 73f9 833b 36e5 793d
00000340: b457 b3bb 1565 96bd 4129 61bd 095e babb
00000350: 6b8a 6dbd d5d3 143c 49d0 6d3d da0c 8fbc
00000360: 0abf 85bd 96c7 9f3d f594 aa3c 039b 9c3c
00000370: cedd aabc cd4d abbd 4f14 313d e95c 77bc
00000380: d4a7 68bc c9af f8bb 80d2 87bd ce94 9ebd
00000390: 24b2 84bd 959b 6abd 70cd 813d d255 76bd
000003a0: ad45 fdbc c3d8 4bbc b744 b43b 1367 22bb
000003b0: 4fd8 ca3c 15a2 42bd daa0 563d 84e5 8d3d
000003c0: 970a 28bd e490 98bc 9f53 94bd 2e4f 64bd
000003d0: 7079 41bd 40da 28bd 4e08 a23c ccd3 203d
000003e0: 9bbc ba3c 579a 053d e219 a3bb 74f8 133d
000003f0: 9716 65bc 6610 553d 4fd7 46bd ad1d babb

conv3.bias f4 [32]
0.22449178 -0.060603708 0.28102946 -0.08797617 -0.09666137 0.0011984071 0.104601294 0.0037520279
0.01210473 0.066089466 -0.045781665 0.671789 0.28630576 -0.08613687 0.06920423 0.23028086
0.1774873 0.11598381 0.108261585 0.23187275 0.009504079 -0.022288203 0.3756705 0.36038977
0.019766634 0.24174142 0.041143563 -0.14818777 -0.07064132 0.4492881 -0.027366415 0.16219121
00000000: 2ce1 653e 983b 78bd 18e3 8f3e da2c b4bd
00000010: 65f6 c5bd df13 9d3a 3439 d63d 95e4 753b
00000020: eb52 463c ea59 873d 8e85 3bbd 5dfa 2b3f
00000030: ab96 923e 8768 b0bd f3ba 8d3d bfce 6b3e
00000040: 3bbf 353e eb88 ed3d 40b8 dd3d 0d70 6d3e
00000050: ffb6 1b3c c095 b6bc e257 c03e 0285 b83e
00000060: a3ed a13c 108b 773e 2786 283d 89be 17be
00000070: 65ac 90bd 1709 e63e 882f e0bc 7415 263e

conv4_1.weight f4 [2, 32, 1, 1]
-0.21142085 0.099534996 -0.116140634 -0.6222608 -0.3706811 -0.16785248 -0.24709271 0.14922865
-0.14047742 -0.21568196 -0.33871 -1.2935051 -0.5514984 0.3134224 0.74375474 0.30241832
0.5368546 0.36757475 0.3303175 0.39760736 0.15317366 -0.036745727 -0.2425501 0.22448698
0.2061153 -1.6907009 0.7675527 -0.06251292 0.1626077 0.904054 0.015178971 -0.54309344
0.3136095 -0.06924572 -0.03263889 0.7341744 0.38252437 0.051585488 0.26614198 -0.061236102
0.23639758 0.06278771 0.22021966 1.2805405 0.49041113 -0.09934862 -0.7992132 -0.41381463
-0.6438186 -0.5187951 -0.59391636 -0.48358342 -0.10071355 0.12097208 0.22922932 -0.3310044
-0.19435768 1.6701158 -0.8059972 0.14299017 -0.15280662 -0.87499815 -0.09810991 0.808913
00000000: b57e 58be 01d9 cb3d 24db edbd 7c4c 1fbf
00000010: eac9 bdbe 85e1 2bbe df05 7dbe 65cf 183e
00000020: 50d9 0fbe bbdb 5cbe 666b adbe 9391 a5bf
00000030: 002f 0dbf e778 a03e b666 3e3f 93d6 9a3e
00000040: 4e6f 093f c232 bc3e 601f a93e 3193 cb3e
00000050: 8ed9 1c3e b082 16bd 0e5f 78be eadf 653e
00000060: e40f 533e e368 d8bf 557e 443f c606 80bd
00000070: a282 263e 1570 673f 38b1 783c 2c08 0bbf
00000080: 6d91 a03e b3d0 8dbd 5bb0 05bd daf2 3b3f
00000090: 3cda c33e 4e4b 533d c343 883e b5d2 7abd
000000a0: 3512 723e d896 803d 4381 613e c0e8 a33f
000000b0: 2b17 fb3e 4a77 cbbd 3c99 4cbf 83df d3be
000000c0: 4cd1 24bf c1cf 04bf e70a 18bf 3f98 f7be
000000d0: e842 cebd 36c0 f73d 17bb 6a3e 6979 a9be
000000e0: b305 47be 5bc6 d53f d555 4ebf 046c 123e
000000f0: 5779 1cbe e1ff 5fbf d9ed c8bd ec14 4f3f

conv4_1.bias f4 [2]
-0.13122328 0.19572489
00000000: 655f 06be 1b6c 483e

conv4_2.weight f4 [4, 32, 1, 1]
0.10886979 -0.016451824 -0.12086463 0.08649225 0.061329614 -0.06840987 0.051000565 0.03234011
0.15276502 0.25875813 0.006338253 0.024149913 0.07835337 0.045611687 0.004604081 0.02549592
0.21894243 0.37071598 -0.043793105 -0.4305817 0.046518307 -0.16286837 -0.21271111 -0.22298901
-0.08979478 0.012756763 0.041497964 0.08763078 0.026340174 0.032331865 -0.103762 -0.06803147
-0.016820239 -0.11554126 -0.038833234 -0.058946278 -0.018635817 -0.1479204 -0.194246 -0.027347695
-0.11319782 -0.06078505 0.058210813 -0.0051637124 -0.060978677 -0.21096894 0.13686012 0.09950445
-0.04984422 0.25101835 0.18246682 0.10146694 -0.0077048773 -0.08152005 0.10985061 -0.34376308
0.08468654 0.056533765 -0.17633021 -0.23165776 0.22277336 -0.03767844 0.16162512 -0.1387715
-0.02118581 -0.12675013 0.21897121 -0.09014902 0.030396938 0.059415992 -0.029007876 0.09197687
-0.07312435 0.10428631 -0.023351254 0.031274185 0.037583612 0.011522633 -0.009716103 0.16391993
-0.013917218 0.07493114 -0.107021205 -0.054340854 -0.15325847 -0.07646244 0.1694566 0.09581926
0.00915422 0.013084651 -0.05675589 0.044780627 -0.059982467 0.01022057 -0.08323793 0.0028631687
0.1176571 -0.07420304 0.013791099 -0.036842808 -0.04794924 -0.010246109 0.22695906 0.012958974
0.056389347 -0.0129997665 -0.02020605 -0.059779227 -0.08922498 -0.15323469 -0.0006421527 -0.012408219
-0.12540905 -0.20645677 -0.101196505 0.10597524 0.02739881 0.12279175 0.0879449 0.17467178
0.052002117 0.004643077 -0.07081381 -0.18852633 -0.0008793755 0.17182021 -0.12250047 -0.049244493
00000000: 20f7 de3d fac5 86bc e087 f7bd d922 b13d
00000010: c334 7b3d 791a 8cbd f8e5 503d 1077 043d
00000020: 6f6e 1c3e f27b 843e 1fb1 cf3b 0ad6 c53c
00000030: bb77 a03d 52d3 3a3d d5dd 963b d2dc d03c
00000040: 7232 603e 7cce bd3e 6660 33bd 3475 dcbe
00000050: fb89 3e3d f7c6 26be f1d0 59be 3b57 64be
00000060: 53e6 b7bd be01 513c c5f9 293d c477 b33d
00000070: 59c7 d73c 6b6e 043d 2c81 d4bd 1554 8bbd
00000080: 99ca 89bc e5a0 ecbd 990f 1fbd a771 71bd
00000090: 24aa 98bc 7278 17be 6ce8 46be 4608 e0bc
000000a0: 42d4 e7bd bff9 78bd 766e 6e3d 5c34 a9bb
000000b0: c7c4 79bd 3e08 58be 0f25 0c3e fdc8 cb3d
000000c0: 7429 4cbd 7a85 803e 95d8 3a3e e6cd cf3d
000000d0: 3279 fcbb fcf3 a6bd 5bf9 e03d b701 b0be
000000e0: 2370 ad3d f38f 673d e88f 34be b137 6dbe
000000f0: b31e 643e b554 1abd 0e81 253e 1e1a 0ebe
00000100: dd8d adbc c9ca 01be fd39 603e 0da0 b8bd
00000110: 0003 f93c 2f5e 733d eda1 edbc 5f5e bc3d
00000120: 38c2 95bd 1094 d53d 214b bfbc 5c19 003d
00000130: 46f1 193d 6dc9 3c3c 4a30 1fbc a0da 273e
00000140: 0b05 64bc 7f75 993d ef2d dbbd 8494 5ebd
00000150: caef 1cbe 5798 9cbd 0886 2d3e e33c c43d
00000160: 95fb 153c 0161 563c dd78 68bd e46b 373d
00000170: 2db0 75bd 2d74 273c a678 aabd 00a4 3b3b
00000180: 35f6 f03d c3f7 97bd 10f4 613c 7ce8 16bd
00000190: 6c66 44bd 4cdf 27bc f567 683e e051 543c
000001a0: 84f8 663d f9fc 54bc 2887 a5bc 10db 74bd
000001b0: 96bb b6bd 8ee9 1cbe 2356 28ba d84b 4bbc
000001c0: 3b6b 00be 6769 53be 1d40 cfbd 8c09 d93d
000001d0: 7873 e03c 3e7a fb3d 751c b43d 29dd 323e
000001e0: 2c00 553d f424 983b d506 91bd 0c0d 41be
000001f0: e485 66ba a3f1 2f3e 87e1 fabd 98b4 49bd

conv4_2.bias f4 [4]
0.07990166 0.06313426 0.734326 0.7194932
00000000: 7ba3 a33d 894c 813d cafc 3b3f b530 383f

conv4_3.weight f4 [10, 32, 1, 1]
0.0150690405 0.081493005 0.1367169 0.065742254 0.012557694 0.17531157 -0.11300043 0.14476384
-0.085473776 0.12304518 0.11732435 0.018953498 0.043324273 -0.0587846 -0.0064601423 -0.07321746
0.0078120916 0.046648134 -6.0995437e-05 -0.068581566 -0.11983053 0.07356162 -0.036426786 0.050302442
0.082952626 -0.003059423 0.009310215 -0.12629837 0.010836363 0.081760876 -0.07345795 0.0025729388
0.10052368 -0.08830725 -0.09616015 -0.08686891 -0.08971708 -0.16694729 0.02404245 0.069254965
-0.09034385 -0.108608335 -0.07864498 0.03145387 0.058408283 0.008618683 -0.10455757 0.15992682
-0.09053398 0.0015318578 -0.07556395 -0.040994223 -0.013402228 0.041451182 0.1361968 0.06119013
0.07987913 0.0034070977 -0.0055033034 0.12101655 -0.094519705 0.0666214 0.16219498 0.011794315
-0.062177505 0.16355596 0.048416153 -0.07378351 -0.12062594 0.17088532 0.16365981 -0.1394424
-0.0005776417 0.0103680715 -0.13245288 0.0066589518 -0.06118007 0.034439992 -0.04136885 0.027562868
-0.08844947 0.0034561187 0.051985864 -0.0600846 -0.04515739 -0.15402964 0.14231718 -0.026257632
-0.087626755 0.018009758 0.04347954 -0.026498783 0.12340856 -0.041589558 0.11854525 -0.04235457
0.11577955 -0.008538413 0.0921221 -0.0972368 0.012520193 0.04390101 0.023139369 -0.02724343
0.11300635 -0.03195288 0.009885573 0.012641432 0.1071449 -0.03614137 0.058000237 0.13815658
0.06267005 -0.12575965 0.10668934 -0.02816608 0.09060751 -0.044345293 0.14108872 -0.056629606
0.13456339 0.010962078 -0.11906782 -0.041755665 -0.15039505 0.0119444365 -0.1169989 0.09467179
0.033333674 -0.033835318 0.10890715 -0.063426726 -0.036765788 -0.17050993 0.09472821 0.1537902
-0.014230241 0.088302545 0.047149528 0.042411838 0.005277005 -0.12023743 0.0976314 -0.09090682
-0.05244575 -0.13301492 -0.015752515 0.066352546 0.07330064 -0.14952275 0.12154588 -0.003678568
0.13768204 -0.021861626 -0.002821976 -0.1523129 -0.028781846 0.02901714 0.044490244 0.048861723
0.019098034 -0.11964289 0.06485978 0.04636389 0.034455854 0.01283316 -0.11800711 -0.15382063
-0.10572958 0.006628722 -0.022751894 -0.027963728 0.04077026 -0.036428094 -0.053812403 -0.035784844
0.03174588 0.047748692 0.031830348 -0.014039625 -0.1561541 -0.088555306 -0.0050102314 0.074440084
0.10302635 0.018552907 0.0057737674 -0.14987448 -0.077805206 0.07296022 0.15829732 0.05923209
-0.019748291 0.10724692 -0.04478672 -0.025702564 0.038941454 0.00748831 -0.09960903 -0.062111992
-0.118517175 0.08744556 -0.13213313 0.0016451469 0.11552794 -0.10666366 0.08761702 0.08470854
0.14332026 -0.0063230423 -0.18119861 0.0732364 -0.0109819565 -0.15861717 0.06674443 0.001037799
-0.02892349 -0.015440939 0.07673825 -0.051393665 0.094090104 -0.092823796 -0.111197315 0.058634873
0.01585587 -0.14562887 0.122236654 -0.011787871 0.09438219 -0.060540285 0.12560642 -0.10044369
-0.11447362 0.12994628 0.028123936 0.063469 -0.06721766 -0.13043484 -0.13413027 0.15712887
0.036696073 0.06491546 0.08037663 -0.07883955 -0.026911756 0.040938146 0.08942893 0.11679245
0.052744772 -0.0009453888 -0.09387706 0.015788823 -0.059475116 0.12900245 0.14720754 -0.0017888572
00000000: 23e4 763c cee5 a63d 84ff 0b3e e0a3 863d
00000010: c9be 4d3c e084 333e c56c e7bd f93c 143e
00000020: e00c afbd 1dff fb3d c047 f03d 5e44 9b3c
00000030: cb74 313d 1fc8 70bd 9aaf d3bb 09f3 95bd
00000040: 93fc ff3b 1d12 3f3d 5ad5 7fb8 7e74 8cbd
00000050: b569 f5bd 7aa7 963d 4134 15bd ef09 4e3d
00000060: 11e3 a93d 9a80 48bb df89 183c 5c54 01be
00000070: 008b 313c 3f72 a73d 1f71 96bd c09e 283b
00000080: 5cdf cd3d 6eda b4bd 9def c4bd 54e8 b1bd
00000090: 97bd b7bd 3bf4 2abe acf4 c43c 8cd5 8d3d
000000a0: 3206 b9bd 0c6e debd 9f10 a1bd c6d5 003d
000000b0: 863d 6f3d 6035 0d3c 4722 d6bd dbc3 233e
000000c0: e169 b9bd 9ec8 c83a 46c1 9abd 8fe9 27bd
000000d0: 0595 5bbc b7c8 293d 2d77 0b3e 80a2 7a3d
000000e0: ab97 a33d 9d49 5f3b 0e55 b4bb 86d7 f73d
000000f0: 8c93 c1bd cd70 883d 7116 263e f13c 413c
00000100: d7ad 7ebd 377b 273e 0450 463d cf1b 97bd
00000110: bc0a f7bd 90fc 2e3e 7096 273e fdc9 0ebe
00000120: e16c 17ba d8de 293c baa1 07be 5633 da3b
00000130: f497 7abd f310 0d3d 6272 29bd 86cb e13c
00000140: ff24 b5bd 0d80 623b 21ef 543d 451b 76bd
00000150: f5f6 38bd f2b9 1dbe 98bb 113e 3f1a d7bc
00000160: a875 b3bd 3389 933c 9a17 323d fa13 d9bc
00000170: a1bd fc3d d059 2abd dac7 f23d fc7b 2dbd
00000180: d41d ed3d b3e4 0bbc 83aa bc3d 1624 c7bd
00000190: 7f21 4d3c 8cd1 333d c68e bd3c 9d2d dfbc
000001a0: e06f e73d 06e1 02bd 19f7 213c 021e 4f3c
000001b0: c96e db3d f908 14bd a891 6d3d eb78 0d3e
000001c0: 2859 803d 23c7 00be f17f da3d 8dbc e6bc
000001d0: 6e90 b93d 69a3 35bd 9079 103e 72f4 67bd
000001e0: fcca 093e 4a9a 333c d4d9 f3bd fd07 2bbd
000001f0: 2901 1abe 99b2 433c 1f9d efbd 49e3 c13d
00000200: e488 083d e796 0abd b60a df3d dfe5 81bd
00000210: b997 16bd 289a 2ebe dd00 c23d 2e7b 1d3e
00000220: f525 69bc f7d7 b43d dd1f 413d 09b8 2d3d
00000230: baea ac3b 0b3f f6bd f9f2 c73d 5b2d babd
00000240: 5bd1 56bd 1035 08be 6b0b 81bc d8e3 873d
00000250: a51e 963d 7e1c 19be 0ced f83d 2114 71bb
00000260: 85fc 0c3e 2717 b3bc e7f0 38bb eaf7 1bbe
00000270: e8c7 ebbc 5ab5 ed3c 673b 363d 3b23 483d
00000280: 7b73 9c3c 5507 f5bd 34d5 843d 10e8 3d3d
00000290: 9521 0d3d 2d42 523c b6ad f1bd 2883 1dbe
000002a0: c088 d8bd c035 d93b 2e62 babc 3014 e5bc
000002b0: b7fe 263d a035 15bd 656a 5cbd 2193 12bd
000002c0: f807 023d 2294 433d 8a60 023d 7506 66bc
000002d0: dce6 1fbe 7c5c b5bd de2c a4bb 0b74 983d
000002e0: 7bff d23d 44fc 973c df31 bd3b b278 19be
000002f0: 5658 9fbd 2b6c 953d b118 223e 599d 723d
00000300: 2bc7 a1bc 46a4 db3d 4872 37bd 2f8e d2bc
00000310: 1381 1f3d 7f60 f53b d2ff cbbd 2569 7ebd
00000320: 22b9 f2bd a816 b33d e84d 07be f8a1 d73a
00000330: ea99 ec3d 7a72 dabd 8d70 b33d ac7b ad3d
00000340: 8cc2 123e 8631 cfbb 218c 39be f7fc 953d
00000350: aaed 33bc 8a6c 22be 4eb1 883d c206 883a
00000360: f4f0 ecbc fefb 7cbc f228 9d3d 2a82 52bd
00000370: 50b2 c03d 671a bebd 6bbb e3bd 1f2b 703d
00000380: 2be4 813c bc1f 15be 3657 fa3d ea21 41bc
00000390: 734b c13d 17f9 77bd f89e 003e 6cb5 cdbd
000003a0: 2571 eabd a310 053e 2b64 e63c 09fc 813d
000003b0: 6aa9 89bd b690 05be 7259 09be 64e6 203e
000003c0: 9f4e 163d 66f2 843d 819c a43d a176 a1bd
000003d0: 0b76 dcbc c2ae 273d 8426 b73d e130 ef3d
000003e0: e70a 583d f8d3 77ba 9e42 c0bd 9057 813c
000003f0: 2e9c 73bd 3819 043e 93bd 163e 1678 eaba

conv4_3.bias f4 [10]
0.12710202 0.24314131 0.45621076 0.19122222 0.247611 0.44718483 0.18180215 0.42135283
0.4191345 0.34104717
00000000: 0827 023e 09fa 783e 7594 e93e c2cf 433e
00000010: bd8d 7d3e 69f5 e43e 582a 3a3e 8fbb d73e
00000020: cc98 d63e bc9d ae3e
