Pytorch face detection - Test/MTCNN_train_process/1/checkpoint_2400.pth (torch, 205361 bytes, 12 tensors)

conv1.weight f4 [10, 3, 3, 3]
-0.59970284 -0.50109124 -0.22710742 -0.06039172 0.080853626 0.2569106 0.10769642 0.4087632
0.10319329 0.04643928 -0.0704801 0.064645946 -0.17013566 0.105986536 0.18219315 0.057935283
0.17063761 0.09807026 -0.200303 -0.113414146 0.024919558 -0.082454525 -0.14214993 0.09479208
-0.028900402 -0.042342544 -0.059162565 0.19926034 0.055561695 0.1690403 0.29627198 0.1381255
0.005368062 0.12810276 0.058175605 0.2129214 -0.16588989 -0.053480472 -0.03585611 -0.23261979
-0.002730168 0.10116013 -0.042358845 -0.25094393 -0.1525215 -0.10525551 0.004852474 -0.1323557
-0.10857473 -0.17062189 -0.16658701 -0.109546974 0.16682523 -0.04750106 -0.102333084 0.1364849
-0.15326709 0.009014482 -0.0068696993 -0.18559748 -0.1283753 0.17706081 -0.092040665 -0.09192404
-0.19661973 0.1290051 -0.10515645 0.04292282 -0.19272724 -0.15507516 -0.062009793 0.14914463
0.081815496 0.012942088 0.08713509 0.0112033 -0.073142305 0.17251101 -0.18833876 0.15706748
0.03238724 -0.2650855 -0.3049293 -0.2728468 -0.25629383 -0.099339 -0.0657116 -0.15031011
-0.2520764 0.012025539 0.35305604 0.45126 0.27052528 0.35520363 0.44606268 0.109074354
0.3303532 0.20046824 0.29501975 0.039651077 0.020621564 0.051727336 -0.107712254 -0.19833279
0.0014899031 0.1419402 -0.055207044 -0.16176128 0.014533762 -0.17369033 -0.01669701 -0.11391964
-0.09039777 -0.098977774 0.12127697 -0.02688656 0.15378958 -0.08255764 0.17699851 -0.13258125
-0.14959256 -0.021366473 0.04640678 -0.12585306 0.14311057 -0.14774375 0.15130435 -0.033831466
-0.14216629 -0.027572403 -0.11198639 -0.033716813 -0.10729752 0.1387741 0.06980642 0.13762689
0.063961685 0.044983815 0.17938568 0.18857779 -0.26379538 -0.1020435 -0.23644112 -0.21067302
0.060382612 -0.015664792 0.06404557 0.11471101 0.18872732 -0.2764093 -0.110296324 0.029584084
-0.20730297 0.044235777 -0.022575999 0.19275519 0.16770716 -0.117282435 0.03768546 -0.08925018
-0.06615966 0.031708617 0.31111935 0.4335668 0.5009426 -0.038478665 0.12075408 0.3422662
-0.34983855 -0.2582062 0.0029406 0.08415582 -0.0148676615 -0.14691463 -0.015095116 -0.0318269
-0.13873672 -0.28727087 -0.31231397 -0.045326184 0.34594253 0.17364952 0.17316203 -0.04854698
-0.111543834 0.07851793 -0.13478813 -0.18993291 0.029722366 -0.09401193 -0.396992 -0.10192214
0.008452108 -0.24532154 -0.41433182 0.17661117 0.07559015 -0.02109244 -0.049928956 -0.18006197
-0.11265222 -0.20128235 0.11892338 -0.021053271 0.2761485 0.13112845 0.09177805 -0.060430598
-0.09400874 -0.009913074 0.056573495 -0.0020329985 0.1778424 0.12723534 0.24293692 0.020478852
-0.04001052 -0.13338086 -0.17242481 -0.017820256 -0.17404158 -0.025113398 -0.122072145 -0.09102479
0.006617642 -0.03481353 -0.16116318 -0.07897643 -0.010899163 -0.1260845 0.07911956 -0.013291043
-0.09254377 -0.11818557 -0.1309485 0.0011328744 0.029443786 0.07466715 -0.043974917 0.020958837
0.16473366 0.07891848 -0.14401072 0.124944106 -0.32611468 0.41327706 -0.06044635 -0.3428475
0.30571315 -0.20874259 -0.1547756 0.06753269 0.2614405 -0.29145825 0.13596259 -0.0022400483
00000000: 2086 19bf 8447 00bf d98e 68be 4f5d 77bd
00000010: 9696 a53d c989 833e f18f dc3d 6949 d13e
00000020: 0157 d33d 1d37 3e3d df57 90bd 1865 843d
00000030: 0b38 2ebe 780f d93d d790 3a3e 8c4d 6d3d
00000040: a0bb 2e3e 0fd9 c83d 3b1c 4dbe ad45 e8bd
00000050: 1a24 cc3c ebdd a8bd c08f 11be 5a22 c23d
00000060: 89c0 ecbc 606f 2dbd 7254 72bd e70a 4c3e
00000070: a994 633d e718 2d3e f6b0 973e c570 0d3e
00000080: 91e6 af3b 5f2d 033e 8b49 6e3d 1108 5a3e
00000090: 0adf 29be 570e 5bbd dbdd 12bd e233 6ebe
000000a0: 9eec 32bb 0b2d cf3d 7880 2dbd b97b 80be
000000b0: 992e 1cbe 3390 d7bd 8101 9f3b 4188 07be
000000c0: 6e5c debd 81b7 2ebe c995 2abe 2a5a e0bd
000000d0: 3cd4 2a3e 7990 42bd 0294 d1bd b3c2 0b3e
000000e0: 0cf2 1cbe 7ab1 133c 371b e1bb 440d 3ebe
000000f0: d174 03be 6e4f 353e d17f bcbd ac42 bcbd
00000100: af56 49be ea19 043e 445c d7bd d7cf 2f3d
00000110: 4a5a 45be 06cc 1ebe fbfd 7dbd 5fb9 183e
00000120: e28e a73d 0d0b 543c e273 b23d 0c8e 373c
00000130: a2cb 95bd baa6 303e e0db 40be 4cd6 203e
00000140: 7ca8 043d 49b9 87be b11f 9cbe 93b2 8bbe
00000150: f238 83be 3f72 cbbd ce93 86bd e5ea 19be
00000160: 2810 81be c406 453c c3c3 b43e 8d0b e73e
00000170: 4a82 8a3e 40dd b53e 5462 e43e 6062 df3d
00000180: 0e24 a93e 8c47 4d3e d40c 973e 2b69 223d
00000190: 8eee a83c 0be0 533d 3e98 dcbd c017 4bbe
000001a0: da48 c33a c658 113e c820 62bd c0a4 25be
000001b0: 041f 6e3c e1db 31be 2bc8 88bc b34e e9bd
000001c0: 7722 b9bd dcb4 cabd 0f60 f83d 3441 dcbc
000001d0: 047b 1d3e fb13 a9bd 193f 353e 61c3 07be
000001e0: cb2e 19be be08 afbc 0915 3e3d a0df 00be
000001f0: 948b 123e 234a 17be 87ef 1a3e dd92 0abd
00000200: 0a94 11be 85df e1bc 1f59 e5bd a41a 0abd
00000210: cdbe dbbd cc1a 0e3e abf6 8e3d 10ee 0c3e
00000220: 58fe 823d f340 383d e1b0 373e 891a 413e
00000230: 3010 87be 2ffc d0bd 9f1d 72be abba 57be
00000240: c253 773d 7353 80bc 532a 833d 9bed ea3d
00000250: bc41 413e 8585 8dbe 0ae3 e1bd 525a f23c
00000260: 3b47 54be 9330 353d 4df1 b8bc 9e61 453e
00000270: 6dbb 2b3e c631 f0bd 125c 1a3d ccc8 b6bd
00000280: b77e 87bd e5e0 013d 094b 9f3e 78fc dd3e
00000290: c63d 003f ce9b 1dbd ea4d f73d 843d af3e
000002a0: 0a1e b3be 9a33 84be 15b7 403b e359 ac3d
000002b0: 7e97 73bc ca70 16be 8151 77bc ec5c 02bd
000002c0: 0011 0ebe 2b15 93be 9ee7 9fbe f3a7 39bd
000002d0: 611f b13e 2ed1 313e 6351 313e 33d9 46bd
000002e0: 1871 e4bd 02ce a03d e605 0abe c67d 42be
000002f0: 527c f33c 5489 c0bd 8942 cbbe 8ebc d0bd
00000300: b67a 0a3c 9235 7bbe 4d23 d4be 8fd9 343e
00000310: 02cf 9a3d 0dca acbc 4e82 4cbd 2a62 38be
00000320: 35b6 e6bd f61c 4ebe 1a8e f33d e977 acbc
00000330: 5663 8d3e 8946 063e 21f6 bb3d 1386 77bd
00000340: a787 c0bd 726a 22bc 9cb9 673d 0e3c 05bb
00000350: 511c 363e fb49 023e 75c4 783e 44c3 a73c
00000360: 12e2 23bd fe94 08be 2190 30be c9fb 91bc
00000370: f537 32be 9dba cdbc f600 fabd 356b babd
00000380: ced8 d83b a298 0ebd f607 25be 65be a1bd
00000390: 6792 32bc 4c1c 01be 7009 a23d adc2 59bc
000003a0: 9787 bdbd 470b f2bd 5d17 06be f57c 943a
000003b0: 1834 f13c 17eb 983d 0b1f 34bd deb1 ab3c
000003c0: f1af 283e 03a0 a13d 8c77 13be b2e2 ff3d
000003d0: 81f8 a6be 0d99 d33e 9896 77bd b589 afbe
000003e0: 6f86 9c3e 9ec0 55be 7f7d 1ebe 944e 8a3d
000003f0: 87db 853e 043a 95be c739 0b3e c6cd 12bb

conv1.bias f4 [10]
0.42358214 -0.09795913 -0.061426595 0.033958673 -0.11981816 0.04331282 -0.0038834626 0.37911338
-0.15376249 0.028879466
00000000: c2df d83e cc9e c8bd 749a 7bbd 4018 0b3d
00000010: 3963 f5bd c968 313d b181 7ebb 261b c23e
00000020: ea73 1dbe a194 ec3c

conv2.weight f4 [16, 10, 3, 3]
0.14592847 0.04001661 -0.05502755 0.1357602 0.16402633 0.13304344 0.11043679 0.077113055
0.17529194 -0.1027429 0.03988142 0.021659791 -0.038685933 -0.027579023 -0.13161421 -0.16595626
-0.08012295 -0.06581865 0.06152794 0.059726346 0.07647967 0.01071697 0.05261113 0.021580594
-0.020052196 -0.08411293 0.09614028 0.042462062 0.082379654 0.035860803 -0.072753936 -0.13621224
-0.026933318 0.020354932 -0.082629405 -0.007629639 0.074887335 -0.081039935 -0.087701425 0.027915152
0.08848689 0.012089759 -0.10652432 0.035167452 -0.098234326 -0.101125576 -0.1060377 -0.12616438
-0.02643363 0.08291011 -0.010879287 0.030795023 0.03630726 -0.046533 0.102784224 0.22536826
-0.041919053 -0.04761255 0.14830327 -0.13411798 -0.0037785815 -0.050795548 -0.11556105 -0.013901298
-0.014769194 0.110681 -0.041795287 0.06674879 -0.108186096 -0.18779878 -0.088227786 -0.0234202
0.098088264 -0.0202802 -0.08127788 0.022482764 -0.041997757 -0.0814786 -0.087754816 -0.006111346
-0.05501351 -0.24170126 -0.2659675 0.075030684 -0.1176404 -0.061226882 0.06552922 0.04880568
-0.02780927 0.02069881 -0.1580792 -0.01884521 0.0002349192 0.04111683 0.06179044 -0.022594484
0.19103585 0.170994 -0.014995777 0.101080336 0.026911698 0.1487652 0.04538759 0.11848221
0.08589297 -0.07157787 -0.011414366 0.020045279 -0.019658953 0.07995021 0.10421526 0.049527675
0.028451797 -0.025827505 -0.053770218 0.039055314 -0.08766381 -0.10690419 0.23325965 0.07052304
0.0314062 0.29927114 0.100758925 -0.11240853 0.11879052 -0.07159856 0.0018752031 0.048796333
0.05984573 -0.07705105 -0.08310196 0.066579916 0.00965528 0.07051345 -0.03503034 0.009421631
0.09189485 0.14662714 0.04524589 0.07865204 -0.05705386 0.11809999 0.0427384 -0.06526547
0.18763739 0.05917412 -0.18913943 0.024597103 0.04222929 -0.20587498 -0.026119655 0.052493025
-0.12782201 0.08421341 0.035317916 0.1575129 -0.045966573 0.05144448 0.042879403 -0.09922203
-0.016005728 0.05760123 0.038527343 0.06035343 0.102852866 -0.043346565 0.015744448 -0.08039592
-0.018006977 0.0720146 0.019643253 -0.120412 0.02806267 0.026547626 -0.111077346 0.039933987
0.082969196 -0.1520648 0.24080864 0.051394634 -0.019867891 -0.04944178 0.041781716 -0.008698263
0.0010660528 -0.03365894 0.013661257 0.10175869 0.06357157 0.0545463 -0.057915304 -0.048338756
0.12711275 0.083104976 0.07353916 -0.021267131 -0.037926946 -0.015438998 0.004853241 -0.013238552
-0.046287194 0.029584315 0.013138516 -0.04248365 0.08892752 -0.0065125767 0.033732597 -0.098821394
-0.03264272 -0.06151139 0.11846214 0.11273953 0.18380065 0.123314016 0.15973575 0.063815966
0.010951576 -0.03217019 -0.067734905 -0.03162321 -0.039309427 -0.07031859 -0.09379806 -0.09350588
0.075661786 -0.044386562 0.104341134 -0.03262735 0.1003765 0.11966236 0.00159521 0.038784336
-0.044283126 -0.07030712 -0.10094958 -0.13996193 -0.09058094 0.112472735 -0.107200764 -0.01787124
0.112448104 0.08047561 0.14684238 0.028958036 -0.07675313 -0.13332146 -0.09945124 0.10318676
0.04787898 -0.03906046 -0.051185507 0.07208052 -0.010369946 0.01766353 0.0492571 0.08248752
00000000: 466e 153e 75e8 233d 9164 61bd b904 0b3e
00000010: 85f6 273e 8a3c 083e af2c e23d 73ed 9d3d
00000020: bb7f 333e df6a d2bd b35a 233d e06f b13c
00000030: 2475 1ebd 67ed e1bc e0c5 06be 70f0 29be
00000040: 8017 a4bd eecb 86bd b904 7c3d 9da3 743d
00000050: 60a1 9c3d 3b96 2f3c c57e 573d c9c9 b03c
00000060: 8144 a4bc 6643 acbd 32e5 c43d b3ec 2d3d
00000070: aab6 a83d c7e2 123d 0400 95bd 397b 0bbe
00000080: 43a3 dcbc 63bf a63c 9b39 a9bd 0d02 fabb
00000090: 885e 993d 44f8 a5bd ce9c b3bd 51ae e43c
000000a0: 9d38 b53d 2014 463c 6c29 dabd bf0b 103d
000000b0: 142f c9bd ed1a cfbd 4b2a d9bd 3c31 01be
000000c0: 578b d8bc c7cc a93d 093f 32bc d845 fc3c
000000d0: ecb6 143d 6399 3ebd 8980 d23d f0c6 663e
000000e0: 50b3 2bbd 6105 43bd d0dc 173e 3956 09be
000000f0: 14a2 77bb fe0e 50bd 46ab ecbd 45c2 63bc
00000100: 7dfa 71bc b8ac e23d 8931 2bbd 97b3 883d
00000110: ac90 ddbd 534e 40be c5b0 b4bd b8db bfbc
00000120: 80e2 c83d a922 a6bc 0475 a6bd c62d b83c
00000130: d705 2cbd 41de a6bd ccb8 b3bd b041 c8bb
00000140: d955 61bd 8980 77be e42c 88be b0a9 993d
00000150: 73ed f0bd 0ac9 7abd 2f34 863d 77e8 473d
00000160: 44d0 e3bc 8d90 a93c 84df 21be 4561 9abc
00000170: a454 7639 1f6a 283d f917 7d3d 1118 b9bc
00000180: e79e 433e 0d19 2f3e d9b0 75bc 3503 cf3d
00000190: ec75 dc3c e855 183e 56e8 393d cda6 f23d
000001a0: a7e8 af3d 6b97 92bd 5203 3bbc ff35 a43c
000001b0: d00b a1bc f0bc a33d cf6e d53d 88dd 4a3d
000001c0: be13 e93c 3494 d3bc 293e 5cbd 77f8 1f3d
000001d0: 1589 b3bd 95f0 dabd 9edb 6e3e 626e 903d
000001e0: caa3 003d 113a 993e b25a ce3d 7236 e6bd
000001f0: 7248 f33d 44a2 92bd 60c9 f53a aade 473d
00000200: cc20 753d f1cc 9dbd 5c31 aabd 0d5b 883d
00000210: 2e31 1e3c 5b69 903d f97b 0fbd 2f5d 1a3c
00000220: 5e33 bc3d 6d25 163e c153 393d 5214 a13d
00000230: 4fb1 69bd 68de f13d 760e 2f3d e7a9 85bd
00000240: 0424 403e 9060 723d c4ad 41be dd7f c93c
00000250: 9ff8 2c3d e4d0 52be e3f8 d5bc ed02 573d
00000260: c6e3 02be 1578 ac3d 85a9 103d 104b 213e
00000270: 7247 3cbd 72b7 523d 50a2 2f3d eb34 cbbd
00000280: 721e 83bc 44ef 6b3d d9ce 1d3d 2935 773d
00000290: 86a4 d23d 2b8c 31bd 80fa 803c 9ea6 a4bd
000002a0: 5e83 93bc 647c 933d e3ea a03c 919a f6bd
000002b0: afe3 e53c 687a d93c 857c e3bd d291 233d
000002c0: c1eb a93d e0b6 1bbe 8a96 763e 2e83 523d
000002d0: fdc1 a2bc 7783 4abd 4e23 2b3d 2983 0ebc
000002e0: ccba 8b3a f5dd 09bd 77d3 5f3c dc66 d03d
000002f0: d031 823d f16b 5f3d 9938 6dbd dcfe 45bd
00000300: d829 023e f132 aa3d b39b 963d 6838 aebc
00000310: 4959 1bbd daf3 7cbc f007 9f3b 83e6 58bc
00000320: a497 3dbd ce5a f23c ee42 573c 5603 2ebd
00000330: a21f b63d 7467 d5bb 312b 0a3d df62 cabd
00000340: 5fb4 05bd 5ef3 7bbd 479c f23d fce3 e63d
00000350: 3d36 3c3e 0f8c fc3d c591 233e f2b1 823d
00000360: 3d6e 333c e4c4 03bd 99b8 8abd 5787 01bd
00000370: ec02 21bd 3103 90bd 3319 c0bd 0380 bfbd
00000380: 91f4 9a3d afce 35bd ceb0 d53d 42a4 05bd
00000390: 3292 cd3d 8a11 f53d 5e16 d13a 53dc 1e3d
000003a0: 3962 35bd 2efd 8fbd a7be cebd 2e52 0fbe
000003b0: 8082 b9bd 1b58 e63d 138c dbbd b566 92bc
000003c0: 314b e63d 66d0 a43d d95d 163e 6739 ed3c
000003d0: bf30 9dbd 6c85 08be 17ad cbbd 9453 d33d
000003e0: c01c 443d dcfd 1fbd e5a7 51bd f49e 933d
000003f0: b5e6 29bc 1bb3 903c d0c1 493d 38ef a83d

conv2.bias f4 [16]
0.47713807 -0.03281607 -0.040074456 0.007725567 0.20347537 -0.09452889 0.12677266 0.844013
0.03294405 0.07112688 0.30550393 0.16395988 0.10208933 0.06442667 0.04242405 -0.0044515976
00000000: 714b f43e 256a 06bd 1d25 24bd c126 fd3b
00000010: d95b 503e 5d98 c1bd b1d0 013e 3c11 583f
00000020: 57f0 063d f8aa 913d 036b 9c3e 19e5 273e
00000030: 3614 d13d 21f2 833d d7c4 2d3d b5de 91bb

conv3.weight f4 [32, 16, 3, 3]
0.029321803 -0.0071249227 0.077306174 -0.067143574 0.05645133 -0.0143436 -0.05953845 0.002575254
-0.05844711 -0.040470235 -0.05485948 0.08096563 0.05715866 -0.06755699 0.024779534 -0.034130372
0.074746266 -0.027935801 0.06525793 -0.06367119 -0.025573734 -0.071206905 -0.015018321 -0.0022548207
0.05066777 0.03880396 -0.003042059 0.07470424 -0.013300836 -0.078700006 0.072510496 -0.06726255
-0.0010921704 0.0035825996 0.00037860312 0.027116712 0.02092111 -0.04595222 -0.046752688 0.07238147
0.0071679465 0.08058536 -0.054773476 0.024353119 0.06599395 0.013433675 -0.022765666 0.05630114
0.016247135 -0.07782706 0.06885704 -0.043717198 -0.06363508 0.011271308 0.044486217 0.038925614
-0.0020619507 -0.073937 0.066746265 -0.05565856 -0.044628758 -0.027303806 0.03814024 -0.074344814
0.043488376 -0.05642437 0.012656262 0.04705985 -0.046844337 0.03834654 0.0047239764 0.05341552
0.052736722 -0.012010177 -0.05050472 -0.06524856 0.024324501 -0.025924372 0.061184373 -0.017971152
-0.014891521 0.048256285 -0.08100203 -0.05378701 0.058707383 -0.00064821413 0.024853071 -0.0052623
-0.03333896 -0.08128558 -0.055842716 0.004688824 0.06732102 0.028498106 0.07689323 -0.04315795
-0.08274479 -0.020509642 -0.00017616921 -0.019198896 -0.03841337 0.05708704 0.010933874 -0.059716344
-0.0040674405 0.023184663 -0.035298504 -0.0028377597 0.06944827 -0.061924696 0.016844401 0.04986457
-0.049624674 -0.064060435 -0.02658957 -0.017935237 -0.007207408 -0.05936348 0.03194381 -0.06188377
-0.035360314 -0.0040028235 -0.012411103 -0.022489997 0.08186855 0.03605714 -0.07035472 -0.05241556
0.037308197 0.021021657 0.03486943 -0.07638668 0.066248484 0.036118343 -0.006340621 -0.07830466
0.0493643 0.070141666 -0.023250878 -0.017502528 0.026492788 -0.06054021 0.07469997 -0.03721875
0.058428068 -0.029966548 0.07757422 -0.017712576 -0.048796695 0.01043462 0.043410517 0.0045988257
-0.045312766 -0.026330732 -0.00981505 -0.047781315 -0.002590683 -0.00017562974 0.064486645 -0.013870476
0.0267862 0.07650109 0.006189763 -0.05913754 -0.032856785 -0.048751816 0.052572455 0.06044666
0.026485303 0.07338211 0.029051531 -0.07589579 0.045165677 0.030106781 -0.04911631 -0.053796247
0.056471158 -0.0029427372 0.06165092 0.018727556 -0.04707793 0.08954428 0.055330027 -0.045036297
4.8729325e-05 0.03071976 -0.036683958 0.049254507 0.017129876 -0.022416873 0.0063379323 0.046205677
0.003505851 -0.06406234 0.07848585 0.011825486 -0.0063477024 -0.048176806 -0.056853466 -0.0057773846
0.025180018 0.028845036 0.030220471 0.050758965 -0.032554325 0.055661768 -0.012360221 0.085203744
0.04157341 0.07716998 -0.05264755 0.10419531 0.105694406 0.036945704 0.043394174 0.093568064
-0.011249313 -0.0030015379 0.041075613 -0.04512411 0.020833025 0.035238903 0.05734149 0.06606332
-0.0082381135 0.04859086 0.049523283 0.0122960135 0.07522915 -0.03966343 0.040469646 0.041738767
-0.028400488 0.025452403 0.016061012 -0.0027194142 0.08244406 0.07742253 0.029317558 0.055240437
-0.011372706 -0.019570077 0.024991643 0.059218157 0.062064856 -0.004033799 0.0021329434 -0.060866307
-0.038658988 0.023455093 0.03202037 0.056569483 -0.009588082 0.037215963 0.07920385 0.022070322
00000000: 4734 f03c 2f78 e9bb b352 9e3d 9282 89bd
00000010: 8339 673d 6b01 6bbc 97de 73bd 98c5 283b
00000020: 3d66 6fbd 1ec4 25bd 56b4 60bd 4fd1 a53d
00000030: 331f 6a3d 525b 8abd 73fe ca3c 4acc 0bbd
00000040: 9214 993d 9fd9 e4bc f3a5 853d 0a66 82bd
00000050: 0280 d1bc edd4 91bd 670f 76bc 9dc5 13bb
00000060: 0289 4f3d e7f0 1e3d 485d 47bb 89fe 983d
00000070: c0eb 59bc 782d a1bd 6280 943d f3c0 89bd
00000080: 2827 8fba 0cca 6a3b 407f c639 de23 de3c
00000090: bf62 ab3c 6538 3cbd bf7f 3fbd bc3c 943d
000000a0: 18e1 ea3b f009 a53d 275a 60bd 3180 c73c
000000b0: d627 873d eb18 5c3c 107f babc 069c 663d
000000c0: b618 853c cb63 9fbd eb04 8d3d ce10 33bd
000000d0: 1c53 82bd 4bab 383c 2e37 363d 7770 1f3d
000000e0: cb21 07bb 486c 97bd 44b2 883d 3bfa 63bd
000000f0: a5cc 36bd 3bac dfbc f138 1c3d 1842 98bd
00000100: de20 323d 3d1d 67bd 365c 4f3c d4c1 403d
00000110: d9df 3fbd 4311 1d3d 96cb 9a3b 3bca 5a3d
00000120: 7602 583d 55c6 44bc 0ade 4ebd 09a1 85bd
00000130: 2d44 c73c 595f d4bc 779c 7a3d 3d38 93bc
00000140: 91fb 73bc 62a8 453d 64e4 a5bd c54f 5cbd
00000150: 2777 703d eaec 29ba ab98 cb3c 5f6f acbb
00000160: 6f8e 08bd 0e79 a6bd 55bb 64bd b5a4 993b
00000170: 9adf 893d dc74 e93c 337a 9d3d 64c6 30bd
00000180: 1a76 a9bd d603 a8bc 10ba 38b9 0147 9dbc
00000190: 5657 1dbd 1ad4 693d fe23 333c 2099 74bd
000001a0: 2a48 85bb c3ed bd3c 2a95 10bd b5f9 39bb
000001b0: e53a 8e3d c0a4 7dbd 45fd 893c cb3e 4c3d
000001c0: 3e43 4bbd 1e32 83bd 5fd2 d9bc ebec 92bc
000001d0: 1f2c ecbb 1f27 73bd 83d7 023d d679 7dbd
000001e0: fad5 10bd 1e2a 83bb f057 4bbc f13c b8bc
000001f0: b3aa a73d a7b0 133d 2316 90bd b3b1 56bd
00000200: 7bd0 183d 9c35 ac3c 3fd3 0e3d 9f70 9cbd
00000210: 49ad 873d d4f0 133d fcc4 cfbb 325e a0bd
00000220: 3832 4a3d 6fa6 8f3d a078 bebc 7661 8fbc
00000230: 6707 d93c 03f9 77bd 4cfc 983d b072 18bd
00000240: 4552 6f3d 687c f5bc 3cdf 9e3d f719 91bc
00000250: 0bdf 47bd f8f5 2a3c 3acf 313d bfb1 963b
00000260: e199 39bd 8cb3 d7bc 4ecf 20bc 57b6 43bd
00000270: 73c8 29bb 4029 38b9 9311 843d fe40 63bc
00000280: bc6e db3c 9aac 9c3d 7fd3 ca3b 353a 72bd
00000290: d694 06bd fcaf 47bd 3756 573d eb96 773d
000002a0: b5f7 d83c 5c49 963d 7afd ed3c 406f 9bbd
000002b0: a5ff 383d 7fa2 f63c 2f2e 49bd 7459 5cbd
000002c0: 4d4e 673d f0da 40bb ad85 7c3d 886a 993c
000002d0: cad4 40bd fe62 b73d bda1 623d fb77 38bd
000002e0: b762 4c38 02a8 fb3c eb41 16bd 18bf 493d
000002f0: f453 8c3c 97a3 b7bc 6eae cf3b 2a42 3d3d
00000300: 6bc2 653b 1e33 83bd 30bd a03d afbf 413c
00000310: 6300 d0bb 0b55 45bd 2edf 68bd 3750 bdbb
00000320: 5346 ce3c 6d4c ec3c ec90 f73c a2e8 4f3d
00000330: af57 05bd 98fd 633d 8682 4abc 4d7f ae3d
00000340: e148 2a3d 4b0b 9e3d f5a4 57bd 5a64 d53d
00000350: 4f76 d83d 6154 173d 17be 313d 9da0 bf3d
00000360: 0a4f 38bc 73b5 44bb e73e 283d 0fd4 38bd
00000370: 05aa aa3c ab56 103d e9de 6a3d 354c 873d
00000380: 27f9 06bc 3607 473d edd8 4a3d 3875 493c
00000390: be11 9a3d 1f76 22bd 80c3 253d 45f6 2a3d
000003a0: 24a8 e8bc 8f81 d03c 6292 833c 3338 32bb
000003b0: 6ed8 a83d b48f 9e3d 602b f03c cc43 623d
000003c0: 9654 3abc 6d51 a0bc 46bb cc3c bd8e 723d
000003d0: b837 7e3d f52d 84bb dac8 0b3b f34e 79bd
000003e0: e358 1ebd e524 c03c cb27 033d 67b5 673d
000003f0: 5517 1dbc c46f 183d a135 a23d d2cc b43c

conv3.bias f4 [32]
-0.03817481 0.14772725 0.10583375 -0.056203283 -0.047021452 -0.04367335 0.08873172 0.21863899
0.14005905 -0.028465223 -0.06542142 -0.067306906 0.16776228 -0.08245317 -0.08058505 0.0065760743
0.021722749 -0.015404773 0.111172855 -0.047188364 0.020336071 0.058511693 0.36555314 -0.054774903
-0.08370809 0.04400328 0.122297436 0.011152439 -0.005847414 -0.008508535 -0.047243744 -0.0703799
00000000: 315d 1cbd d045 173e 5dbf d83d 6a35 66bd
00000010: 9199 40bd d4e2 32bd fab8 b53d e6e2 5f3e
00000020: a46b 0f3e e62f e9bc aafb 85bd 34d8 89bd
00000030: e0c9 2b3e 35dd a8bd c609 a5bd 1c7c d73b
00000040: e8f3 b13c 4d64 7cbc 98ae e33d 9648 41bd
00000050: d597 a63c f5a9 6f3d c829 bb3e a65b 60bd
00000060: 266f abbd c93c 343d 1477 fa3d b8b8 363c
00000070: aa9b bfbb 6267 0bbc a882 41bd 5623 90bd

conv4_1.weight f4 [2, 32, 1, 1]
0.042733144 0.018779602 0.20884973 -0.4130993 0.017892515 -0.11916828 0.12066203 0.27136493
-0.9277513 -0.31351113 -0.09236703 -0.17648442 -0.13469042 -0.13543023 -0.08157609 -0.6690141
0.06545805 0.1342675 0.23231287 -0.05321258 0.17849529 0.020499863 0.6893506 -0.13669346
-0.020076944 0.057510808 0.2492731 0.40425584 -0.7177047 0.28380594 -0.04992222 -0.31404865
0.020354172 -0.05024282 0.029184785 0.41241613 0.020691365 -0.17408518 -0.34918812 -0.13933887
0.9151685 0.21406385 -0.0020374933 0.36865944 -0.003872893 0.10591431 0.09970464 0.6026374
0.09222825 0.12057431 -0.041676886 0.12884341 -0.17014955 -0.051815715 -0.7297269 0.13760138
0.06387388 -0.287424 -0.0371363 -0.5240188 0.7123901 -0.44636086 -0.13303669 0.4321421
00000000: f308 2f3d aed7 993c b4dc 553e c081 d3be
00000010: 5393 923c 800e f4bd a81d f73d 58f0 8a3e
00000020: 1c81 6dbf 8884 a0be ed2a bdbd 55b8 34be
00000030: 49ec 09be 39ae 0abe 5d11 a7bd 8244 2bbf
00000040: df0e 863d 6b7d 093e 6de3 6d3e 6ff5 59bd
00000050: 78c7 363e 54ef a73c 4879 303f 5ff9 0bbe
00000060: 6778 a4bc 7490 6b3d 7341 7f3e 9ffa ce3e
00000070: 7fbb 37bf 034f 913e 3e7b 4cbd fcca a0be
00000080: cbbd a63c 6acb 4dbd ee14 ef3c 3528 d33e
00000090: f080 a93c 6343 32be c9c8 b2be d9ae 0ebe
000000a0: 7c48 6a3f 8e33 5b3e 7787 05bb eec0 bc3e
000000b0: 5dd0 7dbb 9ae9 d83d f231 cc3d 7246 1a3f
000000c0: 2ae2 bc3d aaef f63d 62b5 2abd 87ef 033e
000000d0: af3b 2ebe b73c 54bd 62cf 3abf 60e7 0c3e
000000e0: 4fd0 823d 3d29 93be 3c1c 18bd 1926 06bf
000000f0: 335f 363f 6989 e4be c53a 08be bb41 dd3e

conv4_1.bias f4 [2]
0.04213012 0.11177469
00000000: a290 2c3d 21ea e43d

conv4_2.weight f4 [4, 32, 1, 1]
-0.09398077 -0.080278486 -0.17752269 0.039869353 -0.026856005 -0.15219513 -0.17611545 0.030799175
0.0023363011 0.123894416 -0.149489 0.12812532 0.10554974 0.106019914 0.17678015 -0.07320395
0.16505419 0.15292804 -0.12077255 -0.07620366 0.1482969 0.21778123 -0.057677086 0.09799667
-0.15358703 -0.21430902 0.122171655 0.07756855 -0.13606068 0.11975957 -0.09442479 0.014412382
0.041619588 -0.07610124 -0.19629869 0.09912344 -0.121706374 0.026794178 -0.065088 -0.030378249
0.033136047 0.057317007 0.07071303 -0.17061311 0.13657865 -0.14538312 0.13072242 0.00033948437
0.15445304 -0.010806104 -0.009976585 -0.068282336 0.078609936 0.06990283 0.050633866 0.10141559
0.0772575 0.20583525 -0.108543776 0.21250221 -0.016148824 -0.15116954 -0.093016125 0.006263114
0.17451032 0.09742381 -0.009604166 -0.085183434 0.15030096 -0.12921342 -0.11820886 0.11872942
0.08922705 0.017948719 -0.0962283 -0.101396196 0.07832275 0.16292162 0.102059364 0.0806297
-0.02153746 -0.16002874 0.16843705 0.15684505 0.121101044 0.10609378 0.21077539 -0.08608359
-0.079818234 0.07333889 0.059515968 -0.034196515 -0.03195649 -0.12571186 0.13055062 0.09870375
0.13017337 -0.041904394 -0.040238157 -0.07967607 0.12909523 -0.08084654 0.10376783 0.22807126
-0.03502786 -0.08162807 -0.008033161 0.07766377 0.09687126 -0.116607636 -0.17506312 0.022561772
0.017606039 0.115104534 0.0151190795 -0.14054981 0.07914523 -0.17306174 0.18900055 0.069354355
-0.12088705 -0.047193833 0.10118899 -0.002196388 0.1473367 -0.17808655 0.04632385 -0.020002708
00000000: fd78 c0bd 0c69 a4bd 82c8 35be 0c4e 233d
00000010: 2001 dcbc 0ad9 1bbe 9c57 34be 8d4e fc3c
00000020: a11c 193b 5bbc fd3d a513 19be 4933 033e
00000030: 762a d83d f820 d93d db05 353e f4eb 95bd
00000040: f703 293e 2b99 1c3e 9957 f7bd aa10 9cbd
00000050: 24db 173e 0b02 5f3e cf3e 6cbd 7ab2 c83d
00000060: eb45 1dbe d373 5bbe 2235 fa3d 43dc 9e3d
00000070: 7e53 0bbe 8144 f53d c961 c1bd e921 6c3c
00000080: 4d79 2a3d f8da 9bbd 8602 49be 3b01 cb3d
00000090: 3141 f9bd 777f db3c db4c 85bd cedb f8bc
000000a0: aab9 073d 3dc5 6a3d fed1 903d 34b5 2ebe
000000b0: 46db 0b3e 50df 14be 19dc 053e d2fc b139
000000c0: f028 1e3e 160c 31bc d574 23bc 9cd7 8bbd
000000d0: 3ffe a03d 3729 8f3d 7565 4f3d fab2 cf3d
000000e0: 2e39 9e3d 7ac6 523e 334c debd 2e9a 593e
000000f0: 8a4a 84bc 30cc 1abe 3d7f bebd cf3a cd3b
00000100: d5b2 323e 2286 c73d cb5a 1dbc a774 aebd
00000110: 7fe8 193e 8650 04be 7d17 f2bd 6928 f33d
00000120: acbc b63d 3109 933c 5813 c5bd cfa8 cfbd
00000130: ae67 a03d edd4 263e 8004 d13d 2f21 a53d
00000140: 546f b0bc 93de 23be c37a 2c3e fd9b 203e
00000150: d303 f83d b247 d93d 81d5 573e 984c b0bd
00000160: be77 a3bd b332 963d 04c7 733d a511 0cbd
00000170: cfe4 02bd 9cba 00be 10af 053e 3125 ca3d
00000180: 2b4c 053e f1a3 2bbd c4d0 24bd 352d a3bd
00000190: 8a31 043e df92 a5bd 3a84 d43d 838b 693e
000001a0: 6079 0fbd 9e2c a7bd 859d 03bc 2f0e 9f3d
000001b0: 7064 c63d fccf eebd bf43 33be 77d3 b83c
000001c0: 8a3a 903c edbb eb3d 04b6 773c 4aec 0fbe
000001d0: e516 a23d 1937 31be 5c89 413e a809 8e3d
000001e0: a193 f7bd 524e 41bd 2c3c cf3d 47f1 0fbb
000001f0: 6fdf 163e 525c 36be 14be 3d3d b8dc a3bc

conv4_2.bias f4 [4]
0.10239332 -0.064552665 0.49979198 0.5242361
00000000: 97b3 d13d 3034 84bd bce4 ff3e 5634 063f

conv4_3.weight f4 [10, 32, 1, 1]
0.15475167 0.08997863 -0.11715258 -0.052145768 -0.12803091 0.02322571 -0.04387695 -0.09208351
0.03354611 0.1265914 0.03948734 -0.063773505 0.12777911 0.14455093 0.06966073 0.10591978
-0.02328972 -0.13810004 -0.044051968 0.033406902 0.14440823 0.047642987 0.04606301 -0.050738547
0.13599876 0.06356783 0.15968518 -0.0071191685 -0.0954774 -0.14483894 -0.029977448 -0.13272724
0.06684905 0.008995601 0.062797934 -0.092622384 -0.10025909 0.16495116 0.06116018 0.10062888
0.14356379 0.13710056 0.076301895 0.05679801 0.07315577 -0.1363698 -0.009031438 -0.10106003
0.005462151 0.028075427 -0.12274333 0.05237769 -0.09178218 0.028503029 0.070212804 0.03305864
0.0020080584 0.0408482 -0.052682042 -0.1329462 -0.09237036 0.08138559 -0.15667742 -0.020650556
-0.048332047 0.017527323 0.0010983965 0.027695654 0.15662543 -0.006363803 0.050123803 0.13097565
0.104620904 0.17769122 0.09175544 0.07277031 0.010619831 0.17486393 -0.15236889 -0.09450663
-0.16513234 0.14053236 -0.025274819 -0.11454332 -0.077799134 -0.01681622 0.16074067 -0.09977701
-0.05160612 -0.14544211 0.052636083 -0.04955025 -0.055121083 -0.066512324 -0.12559661 -0.016796874
0.15571794 0.11956607 -0.0030956788 -0.15145072 0.10333109 -0.030099764 -0.1480645 0.09263296
-0.060259156 -0.05164623 -0.15438363 0.031083047 0.022156794 -0.16370201 0.14881757 -0.012574583
0.12274317 0.17378512 -0.14771196 0.047318395 -0.07083557 -0.024711521 0.042018145 0.007187661
0.055528447 0.17094776 0.15856087 -0.13012423 0.080022305 -0.07395725 0.055637825 0.09812167
-0.13664986 -0.058562048 0.123394445 0.03152088 0.015104911 0.08622234 0.013484628 0.14056508
0.012276825 0.049195703 -0.12914103 0.12615427 0.12149358 0.07432533 -0.14062098 -0.066952944
-0.0869855 0.02460925 -0.12350355 0.11868859 -0.13138713 -0.12536089 0.1564606 -0.13446878
-0.029054044 -0.13958019 -0.14273241 -0.18223007 -0.04794242 0.07654708 0.0070137344 -0.06376114
-0.08689013 0.19656597 0.07336124 -0.07968256 -0.08587992 -0.11311454 -0.08785964 0.061524417
0.089909434 -0.046153493 -0.1535962 -0.046950217 0.1957903 0.09707905 -0.07061605 0.11636271
0.11186936 0.13036358 0.09635723 -0.107078984 -0.09092436 0.13705058 0.12175383 0.021102265
0.12662354 -0.08835039 -0.034935478 -0.087133825 -0.11622924 -0.01801267 -0.07500806 -0.04485892
0.038204327 5.189514e-06 0.08968281 -0.058725964 0.103399485 0.16876343 -0.09843631 -0.03600746
0.10313564 -0.1571549 -0.10513869 -0.035114367 -0.013698878 0.14311303 0.06468992 -0.06805615
-0.14167236 0.16705035 -0.15799122 0.15258393 0.13871974 0.1785755 -0.07149912 0.13747157
0.032610074 0.15033756 -0.04613786 0.13063827 0.050927702 0.06326964 0.117077604 0.040852904
0.14018384 0.14409748 0.056301106 0.031814445 0.17306703 0.030204779 0.18645738 -0.05601417
0.10576812 -0.07248151 0.14794919 -0.034392066 0.13031158 -0.13630684 0.111742906 -0.13750489
-0.17408799 -0.10432714 -0.049868055 0.15411854 -0.06803478 0.13200498 0.00779673 0.05367535
-0.090854555 0.11203713 0.21007177 0.020809293 0.07971472 -0.09264917 -0.1310103 0.11122846
00000000: 3977 1e3e b746 b83d b1ed efbd cd96 55bd
00000010: 891a 03be d843 be3c 51b8 33bd 4796 bcbd
00000020: a567 093d 2da1 013e 7abd 213d af9b 82bd
00000030: 87d8 023e 2905 143e 49aa 8e3d 78ec d83d
00000040: 15ca bebc 196a 0dbe d66f 34bd add5 083d
00000050: c0df 133e 4b25 433d 91ac 3c3d 39d3 4fbd
00000060: 4243 0b3e da2f 823d 8384 233e ea47 e9bb
00000070: a889 c3bd a950 14be 4493 f5bc a6e9 07be
00000080: 28e8 883d 4962 133c 349c 803d ceb0 bdbd
00000090: a354 cdbd f5e8 283e 1983 7a3d 8416 ce3d
000000a0: 6302 133e 1764 0c3e 2b44 9c3d 08a5 683d
000000b0: b1d2 953d 86a4 0bbe 99f8 13bc 90f8 cebd
000000c0: d8fb b23b 70fe e53c db60 fbbd fd89 563d
000000d0: 4cf8 bbbd 2f7f e93c bbcb 8f3d 7f68 073d
000000e0: a199 033b 7150 273d 20c9 57bd 0c23 08be
000000f0: ac2c bdbd 7dad a63d 0c70 20be 5b2b a9bc
00000100: d3f7 45bd 7695 8f3c 12f8 8f3a ffe1 e23c
00000110: 6b62 203e 7387 d0bb 9e4e 4d3d 7b1e 063e
00000120: 7c43 d63d b0f4 353e 47ea bb3d 9a08 953d
00000130: cdfe 2d3c 880f 333e 9706 1cbe b18c c1bd
00000140: 7418 29be b7e7 0f3e 230d cfbc b095 eabd
00000150: 2755 9fbd 2bc2 89bc 3499 243e e457 ccbd
00000160: f060 53bd c7ee 14be ef98 573d 34f5 4abd
00000170: a5c6 61bd 9d37 88bd 669c 00be 9999 89bc
00000180: 8674 1f3e 0edf f43d dfe0 4abb e615 1bbe
00000190: 409f d33d c893 f6bc 389e 17be 59b6 bd3d
000001a0: 4ed2 76bd ff8a 53bd be16 1ebe e0a1 fe3c
000001b0: 2a82 b53c 80a1 27be a263 183e a005 4ebc
000001c0: c560 fb3d baf4 313e ce41 17be efd0 413d
000001d0: 3d12 91bd d16f cabc 381b 2c3d 7886 eb3b
000001e0: cc71 633d ee0c 2f3e c85d 223e 493f 05be
000001f0: bce2 a33d e676 97bd 7de4 633d 04f4 c83d
00000200: f1ed 0bbe c2de 6fbd 3ab6 fc3d 0a1c 013d
00000210: 977a 773c 5795 b03d a1ee 5c3c 4bf0 0f3e
00000220: bc24 493c 6f81 493d 8c3d 04be 962e 013e
00000230: a0d1 f83d e137 983d f2fe 0fbe a01e 89bd
00000240: 7425 b2bd 5699 c93c 6eef fcbd 0113 f33d
00000250: 598a 06be 9b5e 00be 3537 203e 2fb2 09be
00000260: bf02 eebc 1cee 0ebe 7228 12be 859a 3abe
00000270: 455f 44bd b7c4 9c3d 78d3 e53b 3395 82bd
00000280: 74f3 b1bd 9748 493e 6b3e 963d 9c30 a3bd
00000290: d0e1 afbd 99a8 e7bd c1ef b3bd 0701 7c3d
000002a0: 7022 b83d 720b 3dbd 5248 1dbe df4e 40bd
000002b0: 417d 483e 62d1 c63d 269f 90bd 934f ee3d
000002c0: c31b e53d 087e 053e f056 c53d 3a4c dbbd
000002d0: 8d36 babd fd56 0c3e 125a f93d a8de ac3c
000002e0: 9aa9 013e 0df1 b4bd 8118 0fbd 3873 b2bd
000002f0: 9909 eebd 4f8f 93bc d39d 99bd fdbd 37bd
00000300: 247c 1c3d 9621 ae36 9fab b73d a38a 70bd
00000310: 1cc3 d33d 52d0 2c3e fa98 c9bd 8f7c 13bd
00000320: c738 d33d 37ed 20be f452 d7bd 15d4 0fbd
00000330: 4271 60bc 398c 123e 267c 843d 0661 8bbd
00000340: 8f12 11be 3f0f 2b3e 73c8 21be f63e 1c3e
00000350: 8c0c 0e3e 7fdc 363e 216e 92bd 59c5 0c3e
00000360: 2492 053d 17f2 193e 0dfb 3cbd 0ac6 053e
00000370: 9199 503d 8393 813d 62c6 ef3d 6055 273d
00000380: 5a8c 0f3e 4a8e 133e fd9b 663d dd4f 023d
00000390: 7c38 313e 0370 f73c afee 3e3e 1d6f 65bd
000003a0: f59c d83d 3071 94bd fe7f 173e b2de 0cbd
000003b0: 6670 053e 0594 0bbe 77d9 e43d 15ce 0cbe
000003c0: 1f44 32be 78a9 d5bd 7242 4cbd 40d1 1d3e
000003d0: d255 8bbd 502c 073e b67b ff3b afda 5b3d
000003e0: f411 babd b973 e53d 0e1d 573e 4078 aa3c
000003f0: 7941 a33d d9be bdbd 9027 06be bfcb e33d

conv4_3.bias f4 [10]
0.096725866 0.18848208 0.24740888 0.2130416 0.20336765 0.1816496 0.23079994 0.24628441
0.12525453 0.31438643
00000000: 3618 c63d 7201 413e c158 7d3e 9427 5a3e
00000010: 9c3f 503e 5a02 3a3e d256 6c3e fb31 7c3e
00000020: b942 003e 42f7 a03e
