Pytorch face detection - Test/MTCNN_train_process/1/checkpoint_1600.pth (torch, 212517 bytes, 36 tensors)

conv1.weight f4 [10, 3, 3, 3]
-0.076924056 -0.15137659 -0.0067000585 0.17328756 0.28530636 0.25888526 -0.0522841 -0.21909559
-0.10496429 -0.19412664 -0.1451056 -0.12400828 0.12047698 0.27135774 0.093563296 0.01065575
-0.0360304 -0.25965375 -0.10253012 0.027131375 -0.15423237 0.18564911 0.18175168 0.34735227
-0.10585104 -0.12901095 -0.15452157 -0.38476244 -0.23546833 -0.3307675 -0.29508895 -0.019993687
0.006504426 -0.2765175 -0.16948657 -0.2280363 0.39798146 0.1647164 0.27896988 0.19551286
0.18357581 0.15375574 0.27335444 0.23597968 0.29553282 0.11500122 0.08086831 0.04450339
0.05509119 -0.07322765 -0.0307615 0.10421573 -0.051932853 -0.124117315 0.32159442 0.35156664
0.25109002 0.39442003 0.14530228 0.20287722 0.25101262 -0.23485082 0.038293287 0.14099915
0.058708128 -0.110150315 -0.08386755 -0.37090528 -0.3250966 0.012191203 -0.3357046 -0.024625212
-0.17125696 0.040768605 0.14805444 -0.040777884 0.024406265 -0.1476268 0.044610713 -0.09897304
0.1967595 0.1661096 -0.19872709 0.15773824 0.20235035 -0.14821893 0.016248284 0.015688939
-0.19963947 -0.13632849 0.13238111 -0.10835087 0.29173416 0.08897444 0.03287914 0.21565638
-0.16786331 -0.23287891 -0.15920672 0.06398089 -0.0058247014 -0.051772464 -0.22163369 -0.035830695
0.07028419 -0.004999532 0.05565158 0.10869611 -0.19973747 -0.020742895 0.098811425 -0.22892325
-0.17337598 -0.03764893 -0.23006333 -0.18406783 -0.06301523 0.24809699 0.050265886 0.105513915
0.30203336 0.26254252 0.002626761 0.19734587 0.22025788 0.011187588 -0.10800081 0.09206063
-0.20225917 -0.0419184 0.03449593 0.12429533 -0.03610022 -0.0538045 0.0813147 0.1829567
0.060356103 -0.40355146 0.27772424 0.2422436 -0.2817953 -0.084890656 0.32072783 0.1154447
-0.043800917 -0.07533859 -0.2948298 -0.03376682 0.12317844 -0.28034854 -0.105131924 0.010470729
-0.14086187 0.124852754 -0.146939 -0.10159108 0.021376338 0.105823815 0.037225384 0.122090496
0.0027606785 0.119894125 0.20299858 -0.2208998 -0.032311972 0.13025193 -0.033195153 -0.010684089
-0.124059066 0.05711014 -0.19516425 0.03623511 0.059038024 0.12743284 -0.14756636 0.1507474
0.05304574 -0.0925529 0.30880862 0.16623773 -0.08397888 -0.1260306 0.10812228 0.09765845
-0.18783242 -0.034259647 -0.12443778 0.028276261 0.14530669 0.1701623 0.16678053 -0.12664072
0.37405112 0.15950438 0.0048389276 0.052526355 0.095095344 -0.09562158 -0.015833318 0.16810797
-0.22834384 -0.23205419 -0.2758228 -0.24563766 -0.19705305 -0.18682203 -0.09183615 0.04211346
0.12453921 -0.19710469 -0.01716668 -0.015144932 0.07019805 0.050426498 -0.031409312 0.2597684
-0.36546803 -0.3644855 -0.28062224 0.121702895 0.10912869 0.006040254 0.2741911 0.2502897
0.21383557 -0.08131658 -0.056037217 0.025662838 0.07579982 0.017540568 0.08774501 0.02210044
-0.047915082 -0.0121026905 -0.08005269 -0.050194353 -0.09030696 -0.02235551 0.031325303 0.06747121
0.053463224 0.10420735 -0.017670108 -0.31575865 0.20905049 0.020899208 -0.13117175 0.26265356
0.0004887482 -0.24395439 -0.14889604 -0.053905763 0.16016328 -0.08945943 -0.011676226 -0.12290059
00000000: 5c8a 9dbd 7702 1bbe 2a8c dbbb 4b72 313e
00000010: ad13 923e 9c8c 843e da27 56bd 985a 60be
00000020: 85f7 d6bd 22c9 46be 9096 14be 0ef8 fdbd
00000030: a3bc f63d 67ef 8a3e 1d9e bf3d 7495 2e3c
00000040: 9d94 13bd 56f1 84be 50fb d1bd 9e42 de3c
00000050: 17ef 1dbe cd1a 3e3e 1d1d 3a3e 28d8 b13e
00000060: 6ec8 d8bd 721b 04be e73a 1ebe 95ff c4be
00000070: 9c1e 71be 5c5a a9be e615 97be cdc9 a3bc
00000080: 1423 d53b b493 8dbe e38d 2dbe 5982 69be
00000090: 3ac4 cb3e 6aab 283e 24d5 8e3e 8634 483e
000000a0: 4cfb 3b3e 2572 1d3e 1df5 8b3e a8a4 713e
000000b0: 1450 973e c285 eb3d 499e a53d 3049 363d
000000c0: 4da7 613d 61f8 95bd 8bff fbbc 0f6f d53d
000000d0: 8bb7 54bd 3831 febd 06a8 a43e 8b00 b43e
000000e0: df8e 803e 6cf1 c93e 1fca 143e 0cbf 4f3e
000000f0: ba84 803e bc7c 70be 6cd9 1c3d 1562 103e
00000100: ef77 703d 7d96 e1bd c0c2 abbd 4ce7 bdbe
00000110: 1073 a6be 9dbd 473c 79e1 abbe d0ba c9bc
00000120: fc5d 2fbe fbfc 263d 959b 173e b606 27bd
00000130: a6ef c73c 7b2b 17be b9b9 363d 61b2 cabd
00000140: 537b 493e a318 2a3e 1d7f 4bbe 2286 213e
00000150: ee34 4f3e b4c6 17be 1f1b 853c 1786 803c
00000160: 4a6e 4cbe b299 0bbe ea8e 073e 10e7 ddbd
00000170: 2e5e 953e 3b38 b63d 47ac 063d 07d5 5c3e
00000180: 5ce4 2bbe cf77 6ebe 1607 23be 6a08 833d
00000190: 23dd bebb 5d0f 54bd f1f3 62be 35c3 12bd
000001a0: 28f1 8f3d 1dd3 a3bb e9f2 633d 119c de3d
000001b0: fb87 4cbe 01ed a9bc a55d ca3d db6a 6abe
000001c0: 7989 31be c435 1abd b995 6bbe 477c 3cbe
000001d0: 210e 81bd 230d 7e3e 9ae3 4d3d ae17 d83d
000001e0: 1ea4 9a3e f96b 863e bd25 2c3b 0915 4a3e
000001f0: 488b 613e 254c 373c 872f ddbd 498a bc3d
00000200: 071d 4fbe a1b2 2bbd 9b4b 0d3d 8d8e fe3d
00000210: d3dd 13bd 1b62 5cbd 5288 a63d 0059 3b3e
00000220: f637 773d 4c9e cebe df31 8e3e b50e 783e
00000230: 7947 90be 27db adbd 7036 a43e 456e ec3d
00000240: 9768 33bd 1e4b 9abd eef3 96be 144f 0abd
00000250: fa44 fc3d d889 8fbe 684f d7bd 6c8d 2b3c
00000260: 183e 10be cdb2 ff3d 2d77 16be fc0e d0bd
00000270: 6e1d af3c 28ba d83d a579 183d 950a fa3d
00000280: 80ec 343b 0d8b f53d dcde 4f3e 8f33 62be
00000290: 8f59 04bd c360 053e a4f7 07bd 510c 2fbc
000002a0: ae12 febd 52ec 693d 23d9 47be 446b 143d
000002b0: dbd1 713d c17d 023e a31b 17be 875d 1a3e
000002c0: 7d46 593d 608c bdbd 2a1c 9e3e 393a 2a3e
000002d0: 1efd abbd 2a0e 01be 376f dd3d 2701 c83d
000002e0: 2457 40be d853 0cbd 3cd9 febd 9ea3 e73c
000002f0: 47cb 143e 073f 2e3e 84c8 2a3e 1bae 01be
00000300: a183 bf3e 1e55 233e de8f 9e3b e025 573d
00000310: 59c1 c23d 3fd5 c3bd e0b4 81bc 7f24 2c3e
00000320: f8d2 69be 9d9f 6dbe a538 8dbe 7088 7bbe
00000330: 46c8 49be 464e 3fbe 9714 bcbd 2a7f 2c3d
00000340: 6a0e ff3d d0d5 49be 23a1 8cbc 7322 78bc
00000350: ffc3 8f3d 048c 4e3d 0da7 00bd 5d00 853e
00000360: a01e bbbe d89d babe b8ad 8fbe 5e3f f93d
00000370: dd7e df3d 53ed c53b c762 8c3e f925 803e
00000380: b6f7 5a3e 4f89 a6bd 4887 65bd df3a d23c
00000390: f03c 9b3d 3db1 8f3c a8b3 b33d fb0b b53c
000003a0: 9b42 44bd 5d4a 46bc aaf2 a3bd 9898 4dbd
000003b0: dbf2 b8bd e722 b7bc f64e 003d 592e 8a3d
000003c0: 41fc 5a3d aa6a d53d e7c0 90bc 1eab a1be
000003d0: 5511 563e d134 ab3c e351 06be 877a 863e
000003e0: 561f 003a 2ecf 79be 3478 18be 4acc 5cbd
000003f0: d801 243e 8136 b7bd a44d 3fbc 4eb3 fbbd

conv1.bias f4 [10]
0.15318589 0.24825221 -0.019289732 -0.008564935 -0.11795794 0.095482975 0.0004687941 0.12707625
-0.0020288245 0.5849705
00000000: c3dc 1c3e d435 7e3e 8005 9ebc f153 0cbc
00000010: ef93 f1bd 948c c33d 7bc8 f539 4720 023e
00000020: 07f6 04bb a0c0 153f

conv2.weight f4 [16, 10, 3, 3]
0.09144347 -0.020693224 0.07024877 0.1885147 -0.018943112 -0.092726655 0.18339325 0.010990178
0.11670644 -0.091643445 0.054295346 0.31556654 0.030739537 0.113631144 0.11852656 -0.32093838
0.23199894 -0.005406361 0.003751557 0.072224885 0.06082013 -0.13354792 0.02305798 -0.018159606
-0.14946172 0.13448848 0.123755485 -0.0046599405 0.04491018 0.55230075 0.3334919 0.3095924
0.059054144 0.16174784 0.15175098 0.27614167 -0.12560467 -0.00868383 0.124296516 0.088257015
-0.047312293 -0.052493926 -0.002492921 0.0007732851 0.21556337 -0.32750535 0.06658413 0.07719398
-0.09073581 -0.015763076 -0.080921374 -0.12676013 0.10102106 0.033125553 -0.32788998 -0.11678507
0.07861388 -0.25152522 0.0086662695 -0.11273768 -0.07648883 -0.15612228 -0.10720722 -0.019268911
0.17619339 0.061412785 -0.0887708 0.10139487 -0.060558904 0.041341893 -0.2042528 -0.22737922
0.04117076 0.02263049 0.27562675 0.26039413 0.08522242 0.2463849 -0.038709335 0.14663488
0.020229593 -0.24756871 0.16271426 0.19616559 -0.17141534 0.29408076 0.20985553 -0.516268
-0.21531828 -0.040588323 0.13485028 -0.01793439 0.03132906 0.06847885 -0.042125348 0.014351476
0.09934574 0.0019146126 -0.004280044 -0.06603388 0.031351868 -0.13537076 -0.10316102 0.051605243
-0.007240094 -0.15133332 -0.038413092 -0.15101719 0.09237205 -0.041176002 -0.077012554 0.11149344
-0.088093415 0.011104793 0.24183412 0.02215894 0.050708536 -0.04001506 -0.029135205 0.076901495
-0.0018998071 0.04477716 -0.058076967 0.23599923 0.22041845 -0.018716253 0.07398772 -0.0030672657
0.23290588 -0.06207863 -0.14808922 -0.03985127 0.07240784 0.06380036 0.14508641 -0.027818527
-0.026933119 0.020995043 -0.19135109 -0.14770825 0.21123292 -0.026670223 0.0832977 -0.010486878
0.14993788 -0.03978848 -0.0830369 0.09502692 0.02319281 -0.03113263 0.0023102073 0.11407518
-0.08380492 -0.013630665 -0.06687204 0.050261665 -0.2903294 -0.47629362 -0.22657868 -0.21543464
-0.2318347 -0.19897345 -0.109110884 0.16610803 0.036445856 0.08027837 0.040288754 0.0021882723
0.05125346 -0.12421141 -0.007869304 -0.06700487 0.047221348 0.17743757 -0.023384556 0.07203569
0.1338644 -0.057164922 -0.05564776 0.19350134 0.06939268 0.23118725 0.03459862 -0.10480134
0.14694612 0.004519913 -0.11002819 -0.07056458 0.03579226 0.2196708 -0.07766937 0.010354196
0.024462078 -0.19693965 -0.13118759 -0.038100474 -0.18216252 -0.10741236 0.26324412 0.16721801
0.05575153 0.14505139 0.1110884 0.10298918 -0.032855112 0.06388444 0.103854045 0.071740985
-0.066920795 0.20452324 -0.03480854 -0.022759689 -0.15013573 -0.08852915 -0.18631798 -0.079920046
0.034154918 0.19768646 0.17219101 0.2381781 0.18892917 0.16673847 0.30564174 -0.0705736
-0.013100545 -0.0412562 0.15173301 0.21111715 0.18364316 0.3740368 0.19439174 0.10342869
0.24361074 -0.13241956 -0.037200984 -0.26002118 -0.015966468 0.24030055 0.069952786 -0.017344182
-0.028497005 0.08534563 -0.015237293 -0.14353743 -0.19310293 -0.16012199 -0.3156227 -0.341054
-0.20620859 -0.12377136 -0.07380999 -0.08492096 0.044010997 0.25437644 0.18488765 0.17042948
00000000: b746 bb3d d684 a9bc 96de 8f3d ff09 413e
00000010: 962e 9bbc 79e7 bdbd 71cb 3b3e 2610 343c
00000020: c903 ef3d 8faf bbbd cc64 5e3d f091 a13e
00000030: 7bd1 fb3c 72b7 e83d 0ebe f23d 0952 a4be
00000040: 2191 6d3e d827 b1bb afdc 753b a4ea 933d
00000050: 871e 793d c9c0 08be 17e4 bc3c 74c3 94bc
00000060: 7e0c 19be 59b7 093e 8473 fd3d 6ab2 98bb
00000070: bdf3 373d 9563 0d3f 73bf aa3e e582 9e3e
00000080: c2e2 713d 3aa1 253e 9c64 1b3e 7162 8d3e
00000090: 839e 00be 9f46 0ebc 2c8f fe3d 18c0 b43d
000000a0: 89ca 41bd df03 57bd 4660 23bb 49b6 4a3a
000000b0: a5bc 5c3e c8ae a7be 435d 883d e117 9e3d
000000c0: b2d3 b9bd 9121 81bc 1bba a5bd 68cd 01be
000000d0: 21e4 ce3d a9ae 073d 32e1 a7be 032d efbd
000000e0: 5000 a13d eac7 80be f8fc 0d3c 03e3 e6bd
000000f0: 2da6 9cbd 85de 1fbe 758f dbbd d6d9 9dbc
00000100: 0a6c 343e f98b 7b3d 77cd b5bd 1da8 cf3d
00000110: 9d0c 78bd 1e56 293d a527 51be 19d6 68be
00000120: aca2 283d 9463 b93c f31e 8d3e 6152 853e
00000130: 1889 ae3d 534c 7c3e ae8d 1ebd 7427 163e
00000140: 88b8 a53c a782 7dbe 919e 263e a2df 483e
00000150: 8187 2fbe c191 963e 5ee4 563e 242a 04bf
00000160: 657c 5cbe f13f 26bd 3116 0a3e 24eb 92bc
00000170: e752 003d a43e 8c3d a18b 2cbd 7422 6b3c
00000180: c875 cb3d bdf3 fa3a 9d3f 8cbb c53c 87bd
00000190: d16a 003d a29e 0abe 1646 d3bd 0560 533d
000001a0: 4f3e edbb 1ff7 1abe 0c57 1dbd 40a4 1abe
000001b0: 8f2d bd3d 2ba8 28bd c2b8 9dbd ac56 e43d
000001c0: 526a b4bd e1f0 353c 5da3 773e aa86 b53c
000001d0: c1b3 4f3d d5e6 23bd f4ac eebc 887e 9d3d
000001e0: f302 f9ba 4168 373d 1de2 6dbd c8a9 713e
000001f0: 60b5 613e d452 99bc e086 973d 2e04 49bb
00000200: e17e 6e3e 2946 7ebd b3a4 17be 163b 23bd
00000210: 904a 943d c3a9 823d 8891 143e aee3 e3bc
00000220: d8a2 dcbc ccfd ab3c 8af1 43be d540 17be
00000230: 714d 583e 837b dabc fc97 aa3d 28d1 2bbc
00000240: 5189 193e 3ff9 22bd 400f aabd 799d c23d
00000250: d9fe bd3c db09 ffbc d966 173b 3fa0 e93d
00000260: eaa1 abbd 2753 5fbc 35f4 88bd 2ddf 4d3d
00000270: 0ea6 94be c2dc f3be 3e04 68be e69a 5cbe
00000280: 1366 6dbe b2bf 4bbe 8775 dfbd 3918 2a3e
00000290: 4048 153d fc68 a43d d205 253d 1e69 0f3b
000002a0: 26ef 513d 8d62 febd 41ee 00bc d939 89bd
000002b0: 2c6b 413d 32b2 353e f890 bfbc 7387 933d
000002c0: c013 093e c425 6abd e8ee 63bd 3725 463e
000002d0: c01d 8e3d 5abc 6c3e 48b7 0d3d 16a2 d6bd
000002e0: 0b79 163e c71b 943b 7656 e1bd 2a84 90bd
000002f0: e89a 123d 62f1 603e 1e11 9fbd a5a4 293c
00000300: b264 c83c 8caa 49be 0a56 06be 3e0f 1cbd
00000310: d088 3abe 03fb dbbd efc7 863e 333b 2b3e
00000320: b75b 643d 5a88 143e 5182 e33d feeb d23d
00000330: 1593 06bd d8d5 823d 6eb1 d43d f0ec 923d
00000340: c50d 89bd 8a6e 513e 6693 0ebd 8772 babc
00000350: 2ebd 19be c54e b5bd 24ca 3ebe 1fad a3bd
00000360: 07e6 0b3d 526e 4a3e d752 303e f6e4 733e
00000370: a676 413e 7dbd 2a3e 137d 9c3e e488 90bd
00000380: aba3 56bc 43fc 28bd e65f 1b3e 182f 583e
00000390: f40c 3c3e c081 bf3e a10e 473e 6cd2 d33d
000003a0: 1875 793e fe98 07be 0f60 18bd 7f21 85be
000003b0: 1ccc 82bc 5911 763e 6843 8f3d 6315 8ebc
000003c0: 8d72 e9bc b1c9 ae3d d7a5 79bc 7afb 12be
000003d0: c6bc 45be 05f7 23be 4c99 a1be a19e aebe
000003e0: 5828 53be d77b fdbd b129 97bd 0aeb adbd
000003f0: e044 343d a13d 823e 3053 3d3e 1185 2e3e

conv2.bias f4 [16]
0.1420947 0.060447793 0.043221403 0.14038351 -0.16611642 -0.029574493 0.17743385 -0.12779562
0.016470172 -0.03445585 -0.2595365 -0.121729776 0.029175805 0.28937134 0.21577847 0.17859574
00000000: 4681 113e 1b98 773d ed08 313d b2c0 0f3e
00000010: 6c1a 2abe 3546 f2bc 38b1 353e dbdc 02be
00000020: 74ec 863c 9421 0dbd f8e1 84be 764d f9bd
00000030: 1902 ef3c 7b28 943e 08f5 5c3e cde1 363e

conv3.weight f4 [32, 16, 3, 3]
0.030543981 0.22073656 0.109122574 0.081275664 0.15025206 0.17156515 -0.48135337 -0.14273947
0.14428784 -0.30228755 -0.23234992 -0.66371983 -0.59135 -0.3886215 -0.21948227 -0.885159
-0.6338758 -0.10056795 0.11293262 0.11533545 0.012086462 0.11721502 -0.028973784 0.14929736
0.089926764 -0.08784162 -0.044564284 0.23988794 -0.17727543 -0.119132705 -0.12543784 0.037682828
-0.02311331 -0.28553128 -0.6557402 -0.44642928 0.046905626 -0.15801789 0.05377776 0.013444831
-0.16978635 -0.012803063 -0.018897826 -0.10549209 0.06673286 0.07972693 -0.4194434 -0.0024913463
0.16284853 0.18492559 0.045654368 -0.1470244 -0.009629562 0.24426772 0.042720623 0.15610465
0.11740946 -0.15236995 0.07030238 0.056849286 -0.20565112 -0.041958924 -0.03742342 -0.26217085
0.11327034 -0.12907788 -0.21090464 -0.11089875 -0.17743954 -0.16462573 -0.23410986 0.09178361
-0.61265564 -0.74261427 0.047844086 -0.8519435 -0.97170955 -0.8681848 -0.43625975 -0.43848228
0.2750945 0.29261672 0.13507938 0.13264978 0.025660213 -0.08020461 0.15049398 0.121307485
-0.021488715 0.12790763 -0.4521924 -0.16628416 -0.13538006 -0.3338808 -0.056076154 -0.098302364
-0.51000476 -0.113825664 -0.10701189 0.22615965 0.24941345 0.10293018 -0.08660518 0.038930964
-0.08187678 -0.37009686 -0.3140845 -0.10348085 0.044582017 -0.14302278 -0.08130485 0.0357915
-0.062379234 -0.011092716 0.21575542 -0.092492126 -0.07140777 -0.09323967 0.04063332 0.075343736
-0.027534181 -0.00052104366 -0.05222101 0.37173626 0.09912967 0.043237418 0.101362 -0.1502131
-0.108191215 0.16749847 0.11834635 0.19274987 0.20788024 0.19542845 0.09641402 -0.24007118
0.14502354 -0.012737604 -0.06673332 -0.1440189 -0.0629309 -0.14573011 -0.92080194 -0.16778834
-0.14018299 -0.024023166 -0.02652482 -0.15425572 -0.0081741605 0.033519946 0.15575673 0.06949555
-0.039603386 0.36808914 0.075621605 0.045831524 0.2594596 0.0043162447 -0.027128352 0.27762112
-0.18805893 0.19366667 0.074732624 0.15005559 -0.02206406 0.1326537 0.08246736 0.05137882
0.09469762 0.23871282 -0.0031504396 0.37980384 0.09936499 0.023817746 0.029930588 0.0037309101
-0.15860637 -0.19806905 0.12805873 0.0028365373 0.045437973 -0.07984779 -0.14628427 -0.039754417
0.023101479 0.034115054 -0.18955177 -0.15132745 -0.21868205 0.42259786 0.40469754 0.097276546
0.47329178 0.0013306963 0.26881287 0.08195976 -0.01796716 0.20950289 -0.022977917 0.332417
0.10149213 0.0697682 0.25330147 0.060942765 0.08139879 0.10910003 0.07301629 -0.060968325
-0.14256482 -0.30450246 -0.29042205 -0.3373681 -0.49109328 -0.27840835 0.14600343 -0.20881182
-0.07419035 -0.35337436 0.10982445 0.11172043 0.22809973 0.5489116 0.119879015 -0.5937473
0.08403143 -0.051361017 -0.13875242 -0.17809431 -0.13992348 -0.12589432 -0.0738548 -0.15156452
-0.07785438 -0.015730754 0.17539537 0.022228438 0.12615907 0.015001613 -0.07500569 0.1587172
0.20461029 0.11336441 0.027039444 -0.07928264 0.25187716 0.07981494 -0.07468346 0.27457958
0.1519466 -0.05903099 0.053986453 0.039481077 -0.007132087 0.07297899 0.090080895 0.16212599
00000000: 5f37 fa3c c408 623e a87b df3d db73 a63d
00000010: addb 193e c6ae 2f3e f373 f6be 4c2a 12be
00000020: 31c0 133e 6fc5 9abe 23ed 6dbe 8be9 29bf
00000030: b762 17bf 66f9 c6be f6bf 60be c899 62bf
00000040: af45 22bf 92f6 cdbd 3849 e73d fe34 ec3d
00000050: 4c06 463c 6e0e f03d 6e5a edbc 68e1 183e
00000060: 862b b83d 4fe6 b3bd 0a89 36bd 2fa5 753e
00000070: b187 35be d9fb f3bd c772 00be 4f59 1a3d
00000080: 2058 bdbc 2831 92be 97de 27bf 6192 e4be
00000090: 1d20 403d 71cf 21be 1246 5c3d b547 5c3c
000000a0: 79dc 2dbe f0c3 51bc 9dcf 9abc 3d0c d8bd
000000b0: 3dab 883d df47 a33d 49c1 d6be db45 23bb
000000c0: c4c1 263e 225d 3d3e 1300 3b3d 908d 16be
000000d0: 4fc5 1dbc 5121 7a3e d2fb 2e3d e6d9 1f3e
000000e0: 5f74 f03d de06 1cbe b2fa 8f3d ccda 683d
000000f0: 3596 52be 1fdd 2bbd 4d49 19bd 423b 86be
00000100: 48fa e73d fe2c 04be 63f7 57be e21e e3bd
00000110: b6b2 35be a693 28be 7fba 6fbe 0cf9 bb3d
00000120: 00d7 1cbf f81b 3ebf 29f8 433d f818 5abf
00000130: f5c1 78bf 5c41 5ebf 705d dfbe c080 e0be
00000140: 30d9 8c3e dcd1 953e 4052 0a3e 58d5 073e
00000150: 5e35 d23c 5142 a4bd 181b 1a3e 0f70 f83d
00000160: 1a09 b0bc 38fa 023e c385 e7be 6546 2abe
00000170: 12a1 0abe 6df2 aabe 1cb0 65bd c052 c9bd
00000180: ac8f 02bf 6e1d e9bd 0d29 dbbd 6596 673e
00000190: 3d66 7f3e 0fcd d23d 0e5e b1bd 1376 1f3d
000001a0: 03af a7bd 567d bdbe afcf a0be c5ed d3bd
000001b0: a29b 363d 9074 12be 2883 a6bd 1c9a 123d
000001c0: 5e81 7fbd 39be 35bc fdee 5c3e 836c bdbd
000001d0: 3d3e 92bd 71f4 bebd 206f 263d d14d 9a3d
000001e0: 5d8f e1bc a696 08ba b3e5 55bd 3754 be3e
000001f0: 7f04 cb3d b819 313d e196 cf3d 76d1 19be
00000200: 5b93 ddbd b884 2b3e 925f f23d 3960 453e
00000210: 8fde 543e 651e 483e b774 c53d 38d5 75be
00000220: 0d81 143e 62b1 50bc 7bab 88bd b179 13be
00000230: eae1 80bd 463a 15be adb9 6bbf b5d0 2bbe
00000240: 218c 0fbe 3bcc c4bc 944a d9bc 36f5 1dbe
00000250: eaec 05bc 364c 093d b17e 1f3e af53 8e3d
00000260: 2937 22bd 2e76 bc3e 80df 9a3d d6b9 3b3d
00000270: e4d7 843e 496f 8d3b 473c debc 5b24 8e3e
00000280: 8592 40be 8e50 463e 6b0d 993d 2ca8 193e
00000290: b0bf b4bc 5fd6 073e a6e4 a83d 9972 523d
000002a0: d3f0 c13d 2271 743e 9b77 4ebb a675 c23e
000002b0: df7f cb3d 6f1d c33c fe30 f53c 4982 743b
000002c0: b569 22be 9dd2 4abe d421 033e 33e5 393b
000002d0: 2b1d 3a3d 3d87 a3bd 8bcb 15be 87d5 22bd
000002e0: 503f bd3c 3abc 0b3d dc19 42be 95f5 1abe
000002f0: 30ee 5fbe bf5e d83e 8434 cf3e ed38 c73d
00000300: 4d53 f23e c26a ae3a d7a1 893e 85da a73d
00000310: de2f 93bc ed87 563e 2f3c bcbc 9032 aa3e
00000320: 1bdb cf3d a1e2 8e3d bbb0 813e 1f9f 793d
00000330: 69b4 a63d d66f df3d 9189 953d ecb9 79bd
00000340: 83fc 11be bfe7 9bbe 33b2 94be 83bb acbe
00000350: 9470 fbbe 8a8b 8ebe ec81 153e c4d2 55be
00000360: 1cf1 97bd 7ced b4be a4eb e03d aecd e43d
00000370: fa92 693e 7885 0c3f 2183 f53d d3ff 17bf
00000380: ac18 ac3d ee5f 52bd 1d15 0ebe 5b5e 36be
00000390: 1a48 0fbe 71ea 00be 2f41 97bd bb33 1bbe
000003a0: 1e72 9fbd c8dd 80bc d89a 333e 6a18 b63c
000003b0: d82f 013e 53c9 753c 959c 99bd c386 223e
000003c0: 5c85 513e 9a2b e83d d381 dd3c f05e a2bd
000003d0: 0bf6 803e 0476 a33d a4f3 98bd b295 8c3e
000003e0: e497 1b3e 7bca 71bd e620 5d3d e9b6 213d
000003f0: 48b4 e9bb 0276 953d 557c b83d 5b04 263e

conv3.bias f4 [32]
0.051062778 -0.061362047 0.18996167 -0.059949994 -0.0096228765 0.0011266851 0.1696155 0.06389407
0.073570915 0.069310956 -0.011467931 0.05910156 0.007127061 -0.044155996 0.035718035 0.28942922
0.019210031 0.07956373 0.05379185 0.016117238 0.13450629 -0.062628895 0.2992609 0.33093917
-0.12559462 0.027239373 0.05582467 -0.10650112 0.12551445 0.15665966 -0.119584024 0.047387905
00000000: 3427 513d c556 7bbd 5085 423e 208e 75bd
00000010: 45a9 1dbc 47ad 933a b0af 2d3e e5da 823d
00000020: 59ac 963d e7f2 8d3d fde3 3bbc 7a14 723d
00000030: 1f8a e93b ebdc 34bd 134d 123d 1130 943e
00000040: 5b5e 9d3c 4ff2 a23d d854 5c3d 4c08 843c
00000050: 04bc 093e 9443 80bd ba38 993e dc70 a93e
00000060: e09b 00be 1b25 df3c 69a8 643d 421d dabd
00000070: dc86 003e 646b 203e 78e8 f4bd d219 423d

conv4_1.weight f4 [2, 32, 1, 1]
-1.9057385 0.6631248 0.2106465 -0.028215883 -0.25115314 -0.16610463 -0.16747588 1.1602185
1.7853327 1.4128662 -0.29152587 -0.72730017 -0.07472344 1.5735651 0.39442122 1.7093276
0.2933987 0.6391769 0.20244098 -0.016721865 1.5277218 -0.28940678 2.3770313 1.0608752
1.5774126 -2.767225 0.65090257 0.14801966 1.5546117 0.32575637 2.4404683 0.11291163
2.0079308 -0.63285166 -0.35941646 0.14014249 0.262981 0.049848095 0.18651342 -1.072207
-1.6894201 -1.5657878 0.17303437 0.7143314 0.013648204 -1.3594943 -0.44987968 -1.820701
-0.40037242 -0.79042006 -0.4660666 -0.069253445 -1.4752748 0.37358063 -2.3903532 -1.1673728
-1.5657041 2.7466261 -0.68934256 -0.06753604 -1.5448127 -0.29670662 -2.523472 0.15291077
00000000: 3def f3bf 8cc2 293f b7b3 573e ff24 e7bc
00000010: 2597 80be 5517 2abe cc7e 2bbe 0a82 943f
00000020: c885 e43f cdd8 b43f e142 95be 5830 3abf
00000030: 9a08 99bd 956a c93f 94f1 c93e 3fcb da3f
00000040: 5b38 963e 19a1 233f b04c 4f3e 4bfc 88bc
00000050: 638c c33f 202d 94be 4821 1840 c2ca 873f
00000060: a8e8 c93f 371a 31c0 8da1 263f 7792 173e
00000070: 84fd c63f 8ac9 a63e a230 1c40 363e e73d
00000080: f081 0040 9102 22bf 6f05 b8be 8381 0f3e
00000090: 72a5 863e 842d 4c3d 60fd 3e3e 143e 89bf
000000a0: eb3e d8bf bc6b c8bf ec2f 313e 6cde 363f
000000b0: b79c 5f3c e903 aebf a156 e6be bb0c e9bf
000000c0: 9dfd ccbe f858 4abf 48a0 eebe c0d4 8dbd
000000d0: ced5 bcbf f645 bf3e 8cfb 18c0 796c 95bf
000000e0: fe68 c8bf b9c8 2f40 c178 30bf 5650 8abd
000000f0: 6cbc c5bf eee9 97be 9180 21c0 a494 1c3e

conv4_1.bias f4 [2]
-0.047743883 0.112250865
00000000: 178f 43bd c8e3 e53d

conv4_2.weight f4 [4, 32, 1, 1]
0.009165609 0.008358443 -0.6454634 0.098912455 0.05900667 -0.068271995 -0.14169657 0.015145349
0.017449912 0.10150451 0.029604806 0.015638128 -0.0051465896 -0.023895962 0.04340505 0.016950818
0.0024434966 0.15300968 -0.45055124 -0.15067622 -0.046162628 -0.051585823 -0.112071574 -0.0024934602
0.09670648 -0.027265688 -0.02951093 0.30141822 0.033729587 0.34283793 -0.015633198 -0.10633022
-0.06768839 -0.0014647815 -0.031402335 -0.030763024 0.10951557 -0.14709733 -0.30699325 0.011878142
-0.004798133 0.0016784244 0.25581664 -0.059853736 -0.12165835 -0.020644616 0.15197195 0.025247306
-0.21265365 0.13998134 0.3467109 0.053897686 0.01960257 0.25618187 0.096668355 -0.069548264
-0.07229473 -0.0017585141 0.013380461 -0.5907551 -0.07708444 0.030498315 0.0019384164 -0.15243062
0.019828726 0.0008303586 0.0062690806 -0.17281164 -0.038218584 0.06139773 -0.036249 -0.0025549137
-0.020598115 0.022455398 0.05818438 0.014382927 -0.0034844156 -0.0108199185 0.007270334 -0.0097396625
0.030157574 0.004638307 -0.06339105 -0.15975867 -0.027909636 -0.07615839 -0.00896059 0.016405808
0.011908163 0.0040499773 -0.0038068616 0.17063268 0.018041315 -0.0644115 -0.04187116 0.04116091
-0.048629668 -0.005414043 0.2691862 0.014235111 0.015864138 -0.008228752 0.19272213 0.0034888573
0.0069443644 -0.08839761 -0.17171977 -0.0012538813 -0.16357292 0.027476294 -0.00803733 -0.022830611
-0.024973862 -0.086678684 0.094531335 0.0075849956 0.029778805 -0.010450337 0.059014786 0.017875032
-0.044145346 -0.029375128 0.0046106945 -0.3480886 -0.010050168 0.1428871 0.022361072 -0.09508655
00000000: 5a2b 163c daf1 083c 173d 25bf 9d92 ca3d
00000010: fab0 713d 30d2 8bbd e818 11be 3324 783c
00000020: 1ef3 8e3c 99e1 cf3d c785 f23c 881b 803c
00000030: b9a4 a8bb 77c1 c3bc 7ec9 313d 71dc 8a3c
00000040: 1223 203b 92ae 1c3e a7ae e6be de4a 1abe
00000050: 0615 3dbd a84b 53bd c885 e5bd 5269 23bb
00000060: 0c0e c63d 4b5c dfbc e8c0 f1bc 7d53 9a3e
00000070: 0928 0a3d 7488 af3e 3111 80bc a9c3 d9bd
00000080: 36a0 8abd e9fd bfba bc9f 00bd bd02 fcbc
00000090: b349 e03d afa0 16be 382e 9dbe 8a9c 423c
000000a0: a839 9dbb 94fe db3a 66fa 823e 3129 75bd
000000b0: 0328 f9bd e61e a9bc 899e 1b3e 70d3 ce3c
000000c0: e1c1 59be 4557 0f3e 1784 b13e d2c3 5c3d
000000d0: 9295 a03c 452a 833e 0ffa c53d 526f 8ebd
000000e0: 420f 94bd f17d e6ba b939 5b3c ba3b 17bf
000000f0: 72de 9dbd 9ad7 f93c 7612 fe3a c616 1cbe
00000100: da6f a23c 6cac 593a dc6c cd3b 89f5 30be
00000110: 178b 1cbd 307c 7b3d d579 14bd 5770 27bb
00000120: 61bd a8bc 62f4 b73c bf52 6e3d 5ea6 6b3c
00000130: cb5a 64bb 0746 31bc fb3b ee3b 1b93 1fbc
00000140: 040d f73c f0fc 973b 2bd3 81bd c797 23be
00000150: c0a2 e4bc eef8 9bbd 70cf 12bc 7965 863c
00000160: 751a 433c acb5 843b 8a7c 79bb 55ba 2e3e
00000170: 61cb 933c 2dea 83bd 1881 2bbd 5898 283d
00000180: e72f 47bd 4968 b1bb c6d2 893e 623a 693c
00000190: 82f5 813c e3d1 06bc f358 453e 50a5 643b
000001a0: 8d8d e33b ce09 b5bd 4fd7 2fbe 4659 a4ba
000001b0: a97f 27be f715 e13c 01af 03bc 4307 bbbc
000001c0: fc95 ccbc 9884 b1bd a599 c13d 8e8b f83b
000001d0: aef2 f33c e437 2bbc 7db9 713d a96e 923c
000001e0: c0d1 34bd 1ca4 f0bc 4f15 973b ab38 b2be
000001f0: 76a9 24bc ff50 123e 912e b73c bdbc c2bd

conv4_2.bias f4 [4]
0.183742 0.08675718 0.94313896 0.73003256
00000000: dd26 3c3e c0ad b13d 8e71 713f 6ae3 3a3f

conv4_3.weight f4 [10, 32, 1, 1]
0.00038022883 0.00017777825 0.00018460226 0.123509616 -0.0004456459 0.17766775 0.00084966264 -0.00019667449
0.00010102307 0.0024206967 -0.00055345887 0.00034118973 0.04883699 0.0002544557 -0.00059924135 -5.820233e-05
0.00017880791 -0.00070247264 -0.0017338814 -0.096647985 -0.000556021 0.0010161478 0.0012521661 -0.0003174625
8.140272e-05 -0.00035233883 -0.00030700298 0.0005777784 0.00015078059 0.0026062527 -0.0007045621 -0.0029787505
0.00082949805 -0.0002487647 -0.004326655 -0.095924795 -0.0016621257 -0.16458535 0.0006426682 0.00083071337
0.00012873825 0.0011573437 0.0013005177 0.0002647423 0.071203984 -3.9339757e-05 -0.0009099116 0.0002673209
0.00039234135 -0.00069065404 -0.0006067858 -0.02971657 6.524039e-05 -0.0006621389 0.00033283155 -0.00042685008
-0.0010267949 7.107146e-05 -0.00042586672 0.00016546082 0.00041765824 0.0004543125 -0.0007184081 0.05027
0.017138408 -0.0025754855 -0.037671804 -0.12319786 0.011789874 0.1732605 0.0023543662 -0.013177921
-0.0064325226 -0.03659844 -0.010181531 0.0034436823 -0.15346517 0.0040289075 0.032355685 -0.019231364
-0.020737216 -0.036367062 0.03479377 -0.02825177 0.006409996 -0.09395002 -0.021801166 0.0068233516
-0.022652848 0.021404834 0.0006888394 -0.0046628024 0.0066537475 -0.05896046 -0.020332972 -0.12407895
-0.0043613175 0.007818731 -0.006857484 -0.15342517 -0.22588828 0.046275727 0.09657412 0.009174942
-0.030310307 0.024676597 0.14299308 0.005518641 0.15828934 -0.005385885 -0.0033410399 -0.009940795
-0.005024886 0.00032398853 0.00327027 -0.04559688 0.020031037 0.022715366 0.015555977 -0.010082954
0.0015000455 0.007204128 0.001131224 -0.008125214 -0.015378972 0.005940238 -0.027051281 0.13350286
0.020033823 -0.0072086817 0.017726073 -0.046322163 0.078279324 -0.16818759 -0.0041988995 -0.0007895589
0.024577726 0.0050158063 -0.0726669 -0.008933103 0.06830214 0.0005610427 0.06253781 0.022123164
-0.016293313 -0.04925575 0.053333957 0.078405604 0.0016017478 -0.061806526 0.005415879 0.017211366
-0.009750594 -0.015142516 0.0074180984 -0.03822618 0.0021679476 -0.090225294 -0.019841047 0.09555611
0.005078175 0.005308869 -0.030019939 0.17330247 -0.09276154 0.015206815 0.049336303 -0.001417786
-0.01731315 0.011269085 0.04976482 0.004708012 0.05310107 0.004834009 0.02066803 -0.011179615
-0.009733012 -0.002072712 0.0032962498 0.005251094 0.01062995 -0.0914429 0.0020262478 -0.007931508
-0.008316539 0.0145924315 -0.0013467252 0.01712551 -0.0019921123 -0.028635701 -0.017121349 0.14984712
-0.005845346 -0.006244521 0.0003297835 -0.12367881 0.23556218 0.009811329 -0.10180141 -0.0062407805
0.026496988 -0.032839384 -0.1510433 -0.0020033207 0.15570943 0.003408186 -0.02381996 0.010014127
0.013002212 0.010131779 -0.0005904921 0.17119859 -0.022421414 -0.035684675 -0.02001701 0.006962668
0.004820248 -0.012088861 0.000741758 0.016111972 0.006257517 0.00836443 0.030486116 0.047943488
0.00205105 0.00012776471 -0.009645299 0.048336465 -0.016678406 -0.058185335 0.008087521 0.0008974237
0.00066878233 -0.010727893 0.011405728 -0.001220889 -0.096607655 -0.0030469806 0.0021738673 0.0023322604
-0.0015067686 -0.007834858 0.0074114245 -0.06565895 0.0033744173 0.00023289124 -0.0043840436 -0.00192068
-0.0032123113 0.0029538015 0.00036390996 -0.006962021 0.000945242 -0.0076351785 -0.005054672 -0.0361556
00000000: 7359 c739 fc69 3a39 cb91 4139 9cf2 fc3d
00000010: 95a5 e9b9 89ee 353e e5bb 5e3a 683a 4eb9
00000020: 59dc d338 8da4 1e3b ff15 11ba b6e1 b239
00000030: 4c09 483d 7768 8539 6816 1dba 471e 74b8
00000040: 627e 3b39 2426 38ba 6843 e3ba 61ef c5bd
00000050: f0c1 11ba 4330 853a b91f a43a 1871 a6b9
00000060: c1b6 aa38 1eba b8b9 3ef5 a0b9 0d76 173a
00000070: db1a 1e39 aacd 2a3b 5db2 38ba 2437 43bb
00000080: ac72 593a a26c 82b9 9dc6 8dbb 3874 c4bd
00000090: afdb d9ba 1089 28be bc78 283a 3bc4 593a
000000a0: e9fd 0639 03b2 973a 2276 aa3a 1ccd 8a39
000000b0: 65d3 913d be00 25b8 2287 6eba 3427 8c39
000000c0: 2ab3 cd39 020d 35ba b510 1fba 2a70 f3bc
000000d0: abd1 8838 6493 2dba e57f ae39 d9ca dfb9
000000e0: 8595 86ba 330c 9538 dd46 dfb9 8d7f 2d39
000000f0: 24f9 da39 cb30 ee39 8d53 3cba eae7 4d3d
00000100: d965 8c3c 7ac9 28bb c04d 1abd 294f fcbd
00000110: 512a 413c 336b 313e b64b 1a3b 35e8 57bc
00000120: e9c7 d2bb 3fe8 15bd 70d0 26bc 67af 613b
00000130: f925 1dbe ed04 843b 6587 043d 188b 9dbc
00000140: 18e1 a9bc a1f5 14bd ea83 0e3d 4270 e7bc
00000150: f20a d23b de68 c0bd 5c98 b2bc 6c96 df3b
00000160: 7792 b9bc 3159 af3c 3b93 343a 6cca 98bb
00000170: ae07 da3b 8680 71bd 5591 a6bc 1b1d febd
00000180: 62e9 8ebb 221a 003c bfb4 e0bb 7d1b 1dbe
00000190: 424f 67be 9e8b 3d3d a7c8 c53d 7f52 163c
000001a0: 524d f8bc 9326 ca3c c76c 123e b7d5 b43b
000001b0: 9a16 223e 147c b0bb 59f5 5abb b7de 22bc
000001c0: cda7 a4bb 01dd a939 0752 563b cbc3 3abd
000001d0: 2118 a43c 9315 ba3c 7fde 7e3c f932 25bc
000001e0: 2d9d c43a 9b10 ec3b 9445 943a 9e1f 05bc
000001f0: 15f8 7bbc 54a6 c23b a69a ddbc f9b4 083e
00000200: f91d a43c ce36 ecbb 4536 913c 4fbc 3dbd
00000210: e950 a03d 5e39 2cbe ec96 89bb 67fa 4eba
00000220: 3a57 c93c a25b a43b 62d2 94bd 265c 12bc
00000230: fee1 8b3d f012 133a d313 803d a33b b53c
00000240: 8e79 85bc 66c0 49bd b574 5a3d 1e93 a03d
00000250: bdf1 d13a d728 7dbd b077 b13b dafe 8c3c
00000260: f5c0 1fbc 5118 78bc 8513 f33b 0e93 1cbd
00000270: 2014 0e3b 0ac8 b8bd b189 a2bc ecb2 c33d
00000280: d266 a63b 05f6 ad3b 60ec f5bc 3476 313e
00000290: c3f9 bdbd 0126 793c dd14 4a3d 01d5 b9ba
000002a0: 4fd4 8dbc f8a1 383c 32d6 4b3d ab45 9a3b
000002b0: 8280 593d 9b66 9e3b 0050 a93c b42a 37bc
000002c0: 3677 1fbc 56d6 07bb e505 583b 5e11 ac3b
000002d0: 3e29 2e3c 6a46 bbbd ccca 043b 28f3 01bc
000002e0: 1842 08bc 1815 6f3c 9984 b0ba cc4a 8c3c
000002f0: 198e 02bb 6b95 eabc 1242 8cbc 8671 193e
00000300: 518a bfbb d79e ccbb cbe6 ac39 514b fdbd
00000310: 3637 713e b2bf 203c 427d d0bd 767f ccbb
00000320: 3610 d93c 9782 06bd 18ab 1abe 254a 03bb
00000330: 4b72 1f3e df5b 5f3b 1422 c3bc 4b12 243c
00000340: 3b07 553c c3ff 253c 41cb 1aba af4e 2f3e
00000350: 1dad b7bc 182a 12bd b6fa a3bc 1827 e43b
00000360: 2cf3 9d3b 5c10 46bc 8972 423a 41fd 833c
00000370: db0b cd3b f60a 093c 05be f93c 6460 443d
00000380: e96a 063b 94f8 0539 5107 1ebc 75fc 453d
00000390: 27a1 88bc bf53 6ebd 8681 043c 1641 6b3a
000003a0: 3951 2f3a 0bc4 2fbc 17df 3a3c 3d06 a0ba
000003b0: 3cda c5bd daaf 47bb 7177 0e3b d6d8 183b
000003c0: c47e c5ba c75d 00bc 89db f23b 3378 86bd
000003d0: 5425 5d3b 4434 7439 06a8 8fbb 54bf fbba
000003e0: a485 52bb 9194 413b 2bcb be39 aa21 e4bb
000003f0: 1eca 773a 8530 fabb a9a1 a5bb e517 14bd

conv4_3.bias f4 [10]
0.22127146 0.35985768 0.46169308 0.34593058 0.34841576 0.5011085 0.24913423 0.6309317
0.45411387 0.6195175
00000000: fc94 623e 443f b83e 0963 ec3e d01d b13e
00000010: 8d63 b23e a648 003f 0b1d 7f3e bd84 213f
00000020: 9d81 e83e b398 1e3f

exp_avg f4 [10, 3, 3, 3]
0.036340564 0.044135153 0.04083641 0.03703064 0.0448204 0.044056736 0.029335555 0.033474192
0.03877829 0.03415932 0.03887914 0.037074495 0.036639884 0.041910745 0.042052567 0.026861975
0.027996993 0.03421143 0.030449118 0.030749343 0.02597483 0.03418999 0.03474339 0.033548005
0.024713755 0.0237969 0.02755327 -0.010952162 -0.0083647305 -0.013631705 -0.0077997507 -0.0037122553
-0.011398814 -0.0013551081 0.0014265605 0.00029961288 -0.0110444 -0.009233475 -0.015140615 -0.011822069
-0.0075146365 -0.014787295 -0.009973266 -0.005057356 -0.0051102843 -0.019077942 -0.019065628 -0.025394542
-0.018317185 -0.014207885 -0.021119658 -0.014420362 -0.009731467 -0.009699403 0.055321474 0.058330256
0.060252387 0.054468166 0.051913083 0.051828485 0.051559247 0.043720566 0.04104998 0.037511546
0.036758553 0.03882803 0.034544285 0.032628927 0.033798497 0.0365929 0.031649582 0.030984938
0.03459675 0.035120618 0.036238156 0.031595405 0.030948162 0.033401076 0.030783014 0.028120484
0.02973566 0.0013432772 -0.003320071 -0.009160365 -0.0068159667 -0.004094559 -0.006475643 -0.0011140689
-0.0034559576 -0.010505123 0.02018634 0.015068595 0.0022752788 0.014132051 0.00762435 -0.004309256
0.00450857 -0.0041911593 -0.013803593 0.007539759 0.0016755688 -0.01185246 0.00030173387 -0.006909994
-0.020702345 -0.01092964 -0.021323474 -0.03431696 0.052285455 0.06524199 0.06277369 0.058352936
0.07159994 0.07335909 0.06318497 0.07517268 0.07843472 0.05310562 0.06643246 0.06437178
0.05749885 0.070994 0.073562786 0.062440626 0.0753474 0.079464994 0.064704895 0.0786495
0.074445024 0.06885779 0.08341199 0.085017994 0.07229156 0.08708715 0.09089977 0.016873451
0.0053342683 -0.017934425 0.005525208 -0.006830903 -0.022108464 0.01289075 -0.0046106908 -0.019429497
-0.007957479 -0.009368413 -0.02071385 -0.012016822 -0.019934498 -0.030427558 -0.012867317 -0.026635136
-0.03645714 -0.006816173 -0.0066009606 -0.015895829 -0.0127775 -0.018527629 -0.02732486 -0.014730716
-0.027900772 -0.036265004 -0.06331302 -0.07051696 -0.08635846 -0.06371017 -0.07478896 -0.09006044
-0.056839325 -0.0739355 -0.08659068 -0.042397406 -0.05047478 -0.07056664 -0.04772827 -0.060773626
-0.078688234 -0.040735994 -0.062544 -0.07744361 -0.030445632 -0.039515316 -0.057920434 -0.038733434
-0.050844926 -0.06814752 -0.03241683 -0.055067237 -0.06982728 -0.12659489 -0.101734415 -0.06962055
-0.12588862 -0.092370756 -0.061344594 -0.11335341 -0.08442762 -0.065831855 -0.067021534 -0.05287398
-0.03962749 -0.061415847 -0.03659803 -0.021509634 -0.06332164 -0.03529731 -0.022103364 -0.048203077
-0.039676398 -0.034209765 -0.045880407 -0.02591144 -0.016611263 -0.046215143 -0.02231207 -0.016176224
0.04568768 0.04103386 0.0395454 0.06320619 0.055886693 0.046962246 0.07278384 0.06393078
0.054278534 0.011254323 0.008083715 0.0070068315 0.028220866 0.022954486 0.015073981 0.03904806
0.031321738 0.022219835 0.0119017465 0.010725567 0.011729043 0.030952264 0.027867964 0.022613171
0.04130121 0.037397016 0.029323986 -0.0017831295 -0.012504327 -0.012337978 0.0062158457 0.0050782715
-0.0017563413 0.016653927 0.024335708 0.021983024 -0.01029127 -0.011087964 -0.008954585 -0.00068315736
00000000: d8d9 143d 10c7 343d 1444 273d 71ad 173d
00000010: 9995 373d d674 343d 1e51 f03c 3c1c 093d
00000020: fcd5 1e3d a5ea 0b3d bc3f 1f3d 6ddb 173d
00000030: b413 163d 9aaa 2b3d 503f 2c3d a50d dc3c
00000040: f359 e53c 4921 0c3d 6e70 f93c 0ce6 fb3c
00000050: 2bc9 d43c ce0a 0c3d 164f 0e3d a269 093d
00000060: 8074 ca3c b7f1 c23c 65b7 e13c b270 33bc
00000070: 390c 09bc 8457 5fbc 0d95 ffbb 4f49 73bb
00000080: 17c2 3abc e29d b1ba 6dfb ba3a 5c15 9d39
00000090: 92f3 34bc 0048 17bc 5810 78bc 5ab1 41bc
000000a0: 573d f6bb 6946 72bc e966 23bc 2db8 a5bb
000000b0: 2c74 a7bb 5849 9cbc 852f 9cbc 3708 d0bc
000000c0: ec0d 96bc 30c8 68bc 2203 adbc 6243 6cbc
000000d0: bb70 1fbc 3fea 1ebc c598 623d b5eb 6e3d
000000e0: 35cb 763d 031a 5f3d d0a2 543d 1b4a 543d
000000f0: ca2f 533d 5614 333d 0624 283d b5a5 193d
00000100: 2390 163d 240a 1f3d 4f7e 0d3d e9a5 053d
00000110: 4b70 0a3d 70e2 153d fea2 013d 20d4 fd3c
00000120: 52b5 0d3d a3da 0f3d 766e 143d 2f6a 013d
00000130: 0087 fd3c 91cf 083d a92c fc3c ee5c e63c
00000140: 3398 f33c e710 b03a 8c95 59bb 5b15 16bc
00000150: 7958 dfbb a62b 86bb a131 d4bb f305 92ba
00000160: 597d 62bb ae1d 2cbc d35d a53c 45e2 763c
00000170: d81c 153b 1e8a 673c afd5 f93b a934 8dbb
00000180: a0bc 933b fe55 89bb 7728 62bc 1510 f73b
00000190: c29e db3a d230 42bc 0932 9e39 3b6d e2bb
000001a0: f797 a9bc 3c12 33bc 91ae aebc f18f 0cbd
000001b0: 4629 563d 989d 853d 7e8f 803d 7d03 6f3d
000001c0: fda2 923d 4a3d 963d 1f67 813d 22f4 993d
000001d0: 62a2 a03d 4785 593d be0d 883d 5ad5 833d
000001e0: ea83 6b3d 4d65 913d 16a8 963d bec1 7f3d
000001f0: bd4f 9a3d 8bbe a23d 0084 843d fd12 a13d
00000200: a276 983d 5005 8d3d e8d3 aa3d ea1d ae3d
00000210: 990d 943d bf5a b23d a929 ba3d 313a 8a3c
00000220: 16cb ae3b 37eb 92bc ce0c b53b c4d5 dfbb
00000230: cf1c b5bc b933 533c 4715 97bb 9c2a 9fbc
00000240: 1660 02bc f97d 19bc 18b0 a9bc 34e2 44bc
00000250: ac4d a3bc 3743 f9bc 70d1 52bc ee31 dabc
00000260: 1554 15bd 345a dfbb df4c d8bb f837 82bc
00000270: b858 51bc 41c7 97bc 63d8 dfbc 1a59 71bc
00000280: 2990 e4bc 9d8a 14bd 42aa 81bd 326b 90bd
00000290: b4dc b0bd 7a7a 82bd f42a 99bd 9c71 b8bd
000002a0: 5ad0 68bd 7f6b 97bd 7456 b1bd e7a8 2dbd
000002b0: a5be 4ebd 3e85 90bd b87e 43bd c4ed 78bd
000002c0: 4c27 a1bd c9da 26bd 1217 80bd c19a 9ebd
000002d0: 1e69 f9bc d0da 21bd fa3d 6dbd f3a6 1ebd
000002e0: c542 50bd ed90 8bbd 83c7 04bd 2f8e 61bd
000002f0: 9b01 8fbd 17a2 01be 225a d0bd 3895 8ebd
00000300: f2e8 00be e12c bdbd 7844 7bbd d525 e8bd
00000310: 63e8 acbd dad2 86bd 9642 89bd 6392 58bd
00000320: 6f50 22bd 2f8f 7bbd d1e7 15bd f934 b0bc
00000330: c7ae 81bd ea93 10bd 1d12 b5bc 9770 45bd
00000340: b883 22bd 8a1f 0cbd 18ed 3bbd 3a44 d4bc
00000350: 5814 88bc 174c 3dbd cdc7 b6bc 0084 84bc
00000360: 0123 3b3d 1f13 283d 5bfa 213d 3f72 813d
00000370: 72e9 643d 7c5b 403d b20f 953d 24ee 823d
00000380: 2b53 5e3d 0d64 383c 8f71 043c 9099 e53b
00000390: 722f e73c 0c0b bc3c dcf8 763c dcf0 1f3d
000003a0: 394b 003d 5f06 b63c 8bff 423c 4aba 2f3c
000003b0: 2c2b 403c 9a8f fd3c 5b4b e43c 423f b93c
000003c0: 752b 293d 9d2d 193d db38 f03c e6b7 e9ba
000003d0: f3de 4cbc 3b25 4abc 4bae cb3b a167 a63b
000003e0: 0935 e6ba d16d 883c ae5b c73c be15 b43c
000003f0: b79c 28bc 4baa 35bc 40b6 12bc ea15 33ba

exp_avg_sq f4 [10, 3, 3, 3]
0.034405157 0.03686735 0.03588244 0.038539726 0.04153494 0.03893537 0.03459884 0.033509605
0.03159473 0.0219816 0.023568278 0.02285767 0.025367498 0.027428154 0.025256772 0.022347039
0.021081176 0.019411787 0.019181283 0.020646624 0.020068264 0.02220124 0.024144225 0.022407118
0.019435754 0.018425431 0.017087234 0.016029289 0.015807517 0.015387747 0.015698647 0.016636755
0.016392764 0.015777666 0.015842369 0.015075808 0.013365796 0.013199828 0.0126591595 0.013130739
0.013999904 0.013547278 0.012957997 0.013054176 0.012167487 0.012282971 0.012026124 0.011367862
0.012076949 0.01273301 0.012164169 0.011794307 0.011705128 0.010822231 0.019892748 0.01960363
0.018137326 0.01809817 0.015601656 0.015109075 0.016545352 0.013281144 0.013956066 0.016083365
0.015519226 0.014097639 0.014371873 0.011824175 0.011344881 0.013007008 0.009892425 0.010500592
0.0149045 0.014460468 0.013231973 0.013347306 0.010993629 0.010596012 0.012109883 0.009243778
0.009907943 0.122191146 0.109526984 0.12849687 0.09472387 0.083575614 0.10406293 0.06963238
0.05872641 0.07225372 0.08880713 0.08016671 0.09754878 0.0666738 0.05985014 0.07840519
0.04753567 0.04044012 0.052488524 0.07472808 0.06782066 0.08374709 0.055847194 0.050956532
0.06813439 0.04040216 0.035201408 0.04632601 0.026370693 0.03147787 0.030508501 0.027275603
0.032229405 0.032306936 0.023886159 0.026965674 0.028384352 0.027664497 0.03293471 0.031250663
0.029367322 0.03472182 0.033931933 0.025458705 0.028896775 0.029809192 0.027533593 0.032685027
0.030709984 0.029466582 0.03484821 0.033974215 0.025767721 0.029282274 0.030190246 0.050152276
0.04331927 0.036641177 0.056832172 0.053342134 0.04558788 0.05706716 0.058804903 0.05529112
0.03138557 0.025945274 0.021278506 0.035664607 0.03274739 0.027119353 0.035581667 0.036583133
0.03405117 0.027116371 0.022263505 0.018246895 0.030812766 0.028254883 0.023295587 0.030895334
0.03172603 0.029452752 0.07960216 0.071744986 0.07931633 0.07615686 0.079426624 0.08284221
0.068151504 0.08848387 0.08913118 0.05885831 0.053159077 0.060541112 0.055728745 0.05980212
0.06389416 0.049851667 0.069048285 0.070664786 0.050644737 0.045511357 0.053074755 0.047713038
0.051060412 0.05580832 0.04270402 0.05999679 0.062554635 0.10438162 0.09269648 0.06813708
0.093632236 0.08230562 0.06829815 0.080685034 0.07566146 0.0728133 0.06962966 0.0602572
0.041825946 0.05834515 0.049911097 0.04102564 0.049343187 0.045724288 0.045273382 0.060642622
0.052176174 0.035718516 0.050497156 0.043186277 0.03542841 0.042964417 0.039902885 0.039974537
0.1072754 0.10328503 0.10768432 0.12905785 0.12533124 0.12361404 0.14696231 0.1453846
0.13579662 0.0660282 0.06356085 0.06797503 0.08133021 0.07885216 0.07905282 0.09456799
0.0934057 0.087481886 0.05696489 0.055268962 0.059548516 0.07056964 0.068917386 0.069520235
0.08258488 0.082050115 0.07706974 0.019301938 0.021245876 0.02304514 0.018559283 0.021130975
0.022138422 0.01905998 0.018718425 0.018881587 0.014005853 0.01563388 0.01739906 0.013840427
00000000: 6cec 0c3d 3802 173d 77f9 123d d5db 1d3d
00000010: 8b20 2a3d b27a 1f3d 83b7 0d3d 5e41 093d
00000020: 7a69 013d c212 b43c 4312 c13c 0240 bb3c
00000030: 80cf cf3c 02b1 e03c 4ae7 ce3c 2311 b73c
00000040: 6eb2 ac3c 7805 9f3c 1122 9d3c 1c23 a93c
00000050: 3366 a43c 60df b53c 1cca c53c 228f b73c
00000060: bb37 9f3c eef0 963c 87fa 8b3c db4f 833c
00000070: c47e 813c e41c 7c3c 739a 803c ce49 883c
00000080: 1e4a 863c 2a40 813c dbc7 813c 8600 773c
00000090: 36fc 5a3c 1744 583c 5d68 4f3c 5022 573c
000000a0: da5f 653c 67f5 5d3c c74d 543c 2fe1 553c
000000b0: 245a 473c 843e 493c 3809 453c 4540 3a3c
000000c0: 65de 453c 1d9e 503c 394c 473c e93c 413c
000000d0: ddc6 3f3c ba4f 313c 1ef6 a23c cb97 a03c
000000e0: bb94 943c 9d42 943c 179e 7f3c 0e8c 773c
000000f0: 1e8a 873c 2899 593c fca7 643c 43c1 833c
00000100: 5a44 7e3c c9f9 663c 0178 6b3c 2fba 413c
00000110: e1df 393c 581b 553c d613 223c ad0a 2c3c
00000120: 0132 743c 99eb 6c3c ebca 583c a9ae 5a3c
00000130: 9f1e 343c e59a 2d3c 8868 463c 3773 173c
00000140: ed54 223c 5a3f fa3d af4f e03d af94 033e
00000150: 97fe c13d b129 ab3d f21e d53d 6c9b 8e3d
00000160: 1b8b 703d c2f9 933d 83e0 b53d 722e a43d
00000170: a8c7 c73d 468c 883d 6c25 753d e692 a03d
00000180: c3b4 423d 8aa4 253d 35fe 563d 090b 993d
00000190: 8fe5 8a3d 9883 ab3d 07c0 643d ccb7 503d
000001a0: 0b8a 8b3d bc7c 253d 5a2f 103d 58c0 3d3d
000001b0: 5a07 d83c f0ee 003d f7ec f93c 1671 df3c
000001c0: fb02 043d 4754 043d e8ac c33c 1ee7 dc3c
000001d0: 4d86 e83c a8a0 e23c 8ce6 063d b200 003d
000001e0: bd93 f03c 7838 0e3d 36fc 0a3d c68e d03c
000001f0: eeb8 ec3c 6832 f43c 218e e13c bce0 053d
00000200: 8193 fb3c e763 f13c ffbc 0e3d 8c28 0b3d
00000210: d416 d33c 61e1 ef3c 8951 f73c 796c 4d3d
00000220: 8c6f 313d 0f15 163d dac8 683d 487d 5a3d
00000230: 5bba 3a3d 41bf 693d 69dd 703d f178 623d
00000240: 288e 003d 2f8b d43c 4350 ae3c 0d15 123d
00000250: 2122 063d 6829 de3c 15be 113d 32d8 153d
00000260: 3d79 0b3d 2723 de3c f461 b63c 837a 953c
00000270: 0e6b fc3c c976 e73c 63d6 be3c 3618 fd3c
00000280: 27f3 013d e646 f13c 7506 a33d 09ef 923d
00000290: 9a70 a23d 21f8 9b3d 6daa a23d 2da9 a93d
000002a0: 0493 8b3d 0837 b53d 688a b63d 6915 713d
000002b0: 55bd 593d f5f9 773d d343 643d 11f3 743d
000002c0: f1da 823d 4331 4c3d 3069 8d3d b3b8 903d
000002d0: db70 4f3d 1e6a 3a3d ea64 593d bf6e 433d
000002e0: b924 513d 4497 643d 69ea 2e3d 32bf 753d
000002f0: a51c 803d 08c6 d53d a7d7 bd3d 748b 8b3d
00000300: 42c2 bf3d d98f a83d e7df 8b3d 323e a53d
00000310: 65f4 9a3d 241f 953d ff99 8e3d 41d0 763d
00000320: af51 2b3d 53fb 6e3d 946f 4c3d 800a 283d
00000330: 151c 4a3d 6449 3b3d 9570 393d 6664 783d
00000340: afb6 553d 944d 123d 1bd6 4e3d 18e4 303d
00000350: 611d 113d 75fb 2f3d 3571 233d 57bc 233d
00000360: 34b3 db3d 1a87 d33d 9989 dc3d be27 043e
00000370: d556 003e 5c29 fd3d 4a7d 163e b3df 143e
00000380: 450e 0b3e cb39 873d 312c 823d 7e36 8b3d
00000390: 7490 a63d 3e7d a13d 72e6 a13d ddac c13d
000003a0: 7d4b bf3d b429 b33d 0454 693d b561 623d
000003b0: 25e9 733d d186 903d 8f24 8d3d a060 8e3d
000003c0: 4322 a93d e409 a83d bdd6 9d3d 191f 9e3c
000003d0: d50b ae3c 29c9 bc3c a309 983c de1a ad3c
000003e0: a35b b53c ad23 9c3c 6257 993c 8fad 9a3c
000003f0: ce78 653c 9f12 803c 7988 8e3c f5c2 623c

exp_avg f4 [10]
0.057431873 -0.031814225 0.11139704 -0.104630604 0.07813229 0.026591493 -0.08661062 -0.23952974
0.085008025 0.06191227
00000000: af3d 6b3d a24f 02bd 2224 e43d 9248 d6bd
00000010: d203 a03d 67d6 d93c e960 b1bd 4947 75be
00000020: b018 ae3d b897 7d3d

exp_avg_sq f4 [10]
0.15631327 0.062410563 0.10639949 0.5913555 0.07333167 0.19335563 0.40236002 0.33537754
0.80276686 0.091867715
00000000: 9610 203e 38a2 7f3d fae7 d93d 1363 173f
00000010: ea2e 963d 05ff 453e 2202 ce3e 9bb6 ab3e
00000020: 2182 4d3f 2425 bc3d
