Pytorch face detection - Test/MTCNN_train_process/1/checkpoint_300.pth (torch, 84499 bytes, 24 tensors)

conv1.weight f4 [10, 3, 3, 3]
00000000: 04d2 b8bd b1e2 05be c220 23be 5b3e 3c3e
00000010: 4449 42bd 6916 f43d a9be f83d 057d 7c3d
00000020: 1c48 953d 340f aebc 1699 e1bd 6a88 ce3c
00000030: 734b 89bc 7a33 41bd 3b22 c6bd 2614 22bd
00000040: 1b53 3bbe 4689 44bd 2258 17be 9920 74bd
00000050: 8b90 00be 9444 94bc f48e 25be b974 ba3d
00000060: 552f e13c d6cf 51bd 048b 1b3e c118 da3c
00000070: 2d0f 323d 3580 843d f435 b9bd 6bd3 a4bd
00000080: 2ce7 5cbd ea45 0ebe 409c 373d 12e1 2fbe
00000090: ba45 98bb 44cb 18be 4dab bbbd 8d32 44be
000000a0: 826e 18be 3fd5 dfbd 1cbf 28be d53f 16be
000000b0: 07d7 4a3d a770 bdbb deae 243e 3cff bbbd
000000c0: a1ff d4bd 09a0 223e 677b fb3d 1e54 05be
000000d0: 73b0 a2bd d1a2 44be a3d9 29bf 2d7d 12bf
000000e0: 8c35 a0be 91d6 fe3c 87e1 a03e 19e6 aa3d
000000f0: 2d3c 8c3e c727 f33e be15 483e db2e 07be
00000100: 7041 98be 21e9 8cbc 0684 3b3e cbc5 0abe
00000110: 5ac2 ff3d 539c ff3d 4640 9c3b 5f9a 293d
00000120: f9ac 02be abb0 1bbe 6127 14be b80f 2cbd
00000130: a394 623d 61e4 b83d a525 463e d2fb 753e
00000140: d453 10bd 0673 d3bd 64e6 4b3e f96d 683e
00000150: 9696 e4bc 35a7 633e 8f46 ec3d 60f5 0a3e
00000160: 4ae5 8e3e e12a 013d e8ad 603c f70d eebd
00000170: ae91 0ebd 5e72 18be 6af8 ddbd 2476 6abe
00000180: 0465 aebd f23e a4bd 13a4 8fbc cf21 02ba
00000190: 0fdd 81bc e9be 4bbe 174b 34bc a4b4 33be
000001a0: 9f33 9bbd 23c3 933c d642 57be 1e56 533d
000001b0: 8d54 15bd 7a76 b63e 3a88 da3c ba21 c23c
000001c0: 264e 173e 0f8f f63d d838 553e bf96 563e
000001d0: 1be6 9f3d 2904 933e 21a1 143d a4ca 8f3e
000001e0: 7058 a13d 2d59 79bd 1cc6 863e f87d c2bd
000001f0: a08a cdbd c122 17be 41a0 903e caf3 293e
00000200: 2f9d 703d bc33 573e 1933 223e 6c06 c13d
00000210: a68c 4a3c c99c 93bd 47f3 d23c 5417 963d
00000220: 3bf6 093c 4e29 633e f35a bd3d c86d 30be
00000230: f23c f2bd 95f3 73bc 7f1a c03c fca7 dbbd
00000240: e0d7 74be f901 c1bd df70 633e cd54 8abe
00000250: 5a6f 85be 966f 793e 9a60 86bd 7d37 8abe
00000260: 142b 42be 624d 4cbe 1586 3abe 53a2 943e
00000270: be0f d83d 6141 53bc 5166 9a3d 6b9b d43c
00000280: c0b7 583e 4a3f 283e f072 97be 1116 9abe
00000290: c317 d3bd 4538 a9be a3ef 41be b410 52be
000002a0: d5d3 c6bd c5ab cebe b9ca 3b3c 30dc af3e
000002b0: 210f 8e3e f89e 013e 64c4 573e 7f53 ec3e
000002c0: 93f7 723e cc52 fa3e 3136 fb3e 83af da3e
000002d0: 340f eebd 61e1 b1bd f4ff 99bd 6b1f 5f3c
000002e0: cc19 7c3b 22b3 bebd 916d 35be 8eab 96be
000002f0: b836 4abe 910d adbd 4c10 0a3e dc9a 07be
00000300: d07c 33be 2a03 87bd 0f57 f13c 6eba a03c
00000310: 6905 2f3d 0648 e33d 15d1 99bd b1ef 0bbe
00000320: 6d49 15be e356 413e 6f10 e83d 28d7 363e
00000330: 24b2 66bd 446e 32bd fe08 10bd 77b2 44be
00000340: c34f 8bbd e752 35be a9f5 4e3c f317 2abd
00000350: a143 1cbe b105 35be 4ee7 8bbd 27c8 c83b
00000360: 5d12 9a3e 9cf6 77bd d84b 05bd a9f3 363d
00000370: f76a 8abe 4283 00bd 8697 21be 0798 b4bd
00000380: f01e 59be b57a 133e 866f 0fbe 2f4d 6fbe
00000390: d36b 643e 2840 69be c03b 4bbe ff5e 23be
000003a0: 0303 a8bc 3608 07be eaa7 773e 12d2 423e
000003b0: 15e1 4bbe e070 673d 7580 633e 1a44 063e
000003c0: 9af7 4b3d 2b45 07bc 21e3 963e 2bb5 edbd
000003d0: 38c8 4e3d 8089 d2bd 59e4 c9bd 3bce a1bd
000003e0: 2626 07be 813f 153d b013 02bc 9f34 593e
000003f0: 37d5 4cbe f3c2 bcbe f308 6fbe 8d14 583d
-0.09024432 -0.13074757 -0.15930465 0.18383162 -0.047433153 0.11918337 0.121457405 0.061642665
0.072891444 -0.021247484 -0.11015527 0.025211532 -0.01675961 -0.047168233 -0.09674498 -0.039569996
-0.18293421 -0.047982477 -0.14779714 -0.0596014 -0.12555139 -0.018099107 -0.16167814 0.09104294
0.02748839 -0.0512236 0.15189749 0.026623132 0.043471504 0.06469766 -0.09043494 -0.08048137
-0.0539314 -0.13893858 0.044826746 -0.17175701 -0.004646984 -0.1492129 -0.091635324 -0.19159909
-0.14885905 -0.10929345 -0.16479152 -0.14672787 0.049521472 -0.0057812515 0.16082332 -0.091795415
-0.1040032 0.15881361 0.122793965 -0.1302037 -0.07943811 -0.19202735 -0.6634771 -0.57222253
-0.31290853 0.031108173 0.31422064 0.08344669 0.2738966 0.47491285 0.19539544 -0.13201468
-0.29737425 -0.017201008 0.18312082 -0.13552015 0.124882415 0.12480988 0.004768404 0.041406985
-0.12761296 -0.15204112 -0.14468147 -0.042007178 0.055317532 0.09027935 0.19350298 0.24021843
-0.035236195 -0.10324673 0.19912106 0.22698201 -0.027903836 0.22231753 0.115368955 0.13570166
0.2790931 0.031535033 0.0137133375 -0.11623757 -0.0348069 -0.14887378 -0.10838397 -0.2289663
-0.08515361 -0.08019818 -0.017534291 -0.00049641443 -0.01585248 -0.19897045 -0.011004231 -0.17549378
-0.07578205 0.018037384 -0.2102159 0.0515958 -0.036457587 0.35637265 0.026676286 0.023697723
0.14775905 0.12039005 0.20822465 0.20955943 0.07807561 0.2871411 0.036286477 0.2808429
0.07878196 -0.06087606 0.2632302 -0.09496683 -0.10036206 -0.14759351 0.28247264 0.16596904
0.058743652 0.21015829 0.15839805 0.09425053 0.012362635 -0.07207639 0.02575077 0.07328668
0.008420522 0.22183725 0.09245863 -0.17229378 -0.11828031 -0.014889617 0.023450134 -0.107254
-0.23910475 -0.094242044 0.22211026 -0.27017823 -0.26061517 0.24358973 -0.06561394 -0.2699546
-0.18961746 -0.19951394 -0.1821521 0.29030094 0.105498776 -0.0128940055 0.075390466 0.025953015
0.21163845 0.16430393 -0.29579878 -0.3009496 -0.103072666 -0.33050743 -0.1893907 -0.20514184
-0.097083725 -0.40365425 0.011461907 0.34347677 0.27745917 0.12658298 0.21071011 0.46157452
0.23727255 0.48891294 0.49064782 0.4271203 -0.116239935 -0.08685566 -0.07519522 0.0136183305
0.0038467525 -0.093115106 -0.17717578 -0.2942776 -0.19747436 -0.08449853 0.1348278 -0.13242668
-0.17528081 -0.065924 0.029460458 0.019620147 0.04272977 0.11097722 -0.07510582 -0.13665654
-0.14578791 0.18880801 0.113312595 0.17855513 -0.056322232 -0.04356219 -0.035164826 -0.19208704
-0.06802323 -0.17707406 0.012631812 -0.041526746 -0.15260173 -0.17677952 -0.06831227 0.0061273756
0.30092135 -0.06053792 -0.032543033 0.044665966 -0.27034733 -0.031375177 -0.15780458 -0.088180594
-0.21203208 0.14402278 -0.14007387 -0.23369287 0.22306757 -0.2277838 -0.19847012 -0.15954207
-0.020509249 -0.13186726 0.24185148 0.19025448 -0.1991008 0.05650413 0.22216971 0.13111916
0.049796678 -0.008256237 0.2947016 -0.11606821 0.050483912 -0.10280132 -0.09858007 -0.079006635
-0.13198146 0.036437515 -0.007939264 0.2121148 -0.2000321 -0.36867484 -0.23343258 0.052753974

conv1.bias f4 [10]
00000000: 0cd5 15be 944e 1bbe f8d6 153e a434 93bd
00000010: b0aa 0bbe b3e0 b43d 823e 0a3e 9fbf 6cbd
00000020: 57b8 7b3e 9850 6dbd
-0.14632052 -0.15166694 0.14632785 -0.07187775 -0.13639331 0.088319205 0.13500407 -0.05779993
0.24582039 -0.05793819

conv2.weight f4 [16, 10, 3, 3]
00000000: b370 563d cf46 38bd 470d 9bbb 31ee a7bd
00000010: f5e2 b93d f2ee 973d 48e8 4abd f888 7dbd
00000020: 50ee 84bd 85f8 0ebc 4b6b 15bd 3772 acbd
00000030: e1af 493d 510f cebd 603a 8dbd 43da a7bd
00000040: 4ab8 3fbc 7b29 103d a7d1 c33d 82d7 e53d
00000050: fd71 cb3d 90c8 8ebd 6bb6 b33b 50c3 cf3d
00000060: 11cb b5bc c898 93bd 71bf 573d bbf7 b8bd
00000070: d626 953d 7314 b7bd eb0f c7bd dfbb 483d
00000080: 829c 85bd 08b9 6abd e9fe abbd 21ce 933c
00000090: aa4d 1e3d 36a3 0e3d af4c 02bd 3884 fe3b
000000a0: 4389 a1bd 138c f33c e706 8dbd 4806 af3d
000000b0: 281e 5abd 1157 b33d c1fb 333d cf4e 84bd
000000c0: d3da d53c f365 ab3c db81 9abd cd61 d2bd
000000d0: d057 193c e708 94bd 8d10 ca3d 642d 8e3d
000000e0: 0470 9ebc 65fe 75bd f35a ee3c fdea 2bbc
000000f0: 3db1 1abd cdcc ab3d 5e41 d3bd b7a4 663c
00000100: 39af 1a3b 9620 633b 4b2a d2bd fb8a cfbc
00000110: 31fa 9bbc 1336 503d 1456 423c 94f7 57bd
00000120: f55d 403d d9c0 2ebd 1ebd abbd ae42 b03c
00000130: dbc6 6abc 68c6 91bd 2a44 d5bd 5953 b03c
00000140: 9890 7abd 6bf8 8bbd 4a54 9f3c 0e0a b13d
00000150: d1c5 963d cff5 0cba 8d08 8bbd 181e 65bd
00000160: df2e cc3c 3f2c 5b3b 362b 1d3d 8bb1 2fbd
00000170: 09b7 8fbd 97f8 f1bb 1945 ce3d af59 c93b
00000180: d369 c93c 3ede 91bc 324d af3a b343 a33d
00000190: 1089 8e3d 8ebd 0d3c ba8f a1bd 9e67 b7bd
000001a0: bcbf 9f3d 0848 713d acf1 bebc db04 b6bd
000001b0: 28dc ae3d 4e18 e43c 864b 503d 5329 8ebd
000001c0: 1de0 c53d 0790 76bd 1a6d ec3c 5385 a5bd
000001d0: 6f1a 303c 08ed a2bd 1a41 a23d 060f 903d
000001e0: d1c4 b13d 02ee 913c a3f0 0b3d bb34 e23d
000001f0: 9b58 523d a02e 1a3d e2d6 3abc 3559 97bd
00000200: 9c90 da3c 3cf0 f13c ea19 df3d a375 ab3d
00000210: ffa1 3e3d 4cd2 dcbd 6fa9 99bd 1eb9 f83d
00000220: 2df8 8ebd cc2c dfbd e991 c83c 255d 293d
00000230: ed06 aa3d 6d91 523d 9214 b9bc d793 46bd
00000240: 54fb 29bd 83fc 383d 57f1 343c 553e b4bd
00000250: 6811 103d e0d8 52bb 08db 2bbd 16c4 6c3d
00000260: 0dfb 6dbd cf31 f93c f6ab abbd ceb1 d13c
00000270: f230 ce3c e88b 9ebd 3b78 d0bd f5f0 78bd
00000280: 57c8 afbb 5b99 aabd cae2 f03d 0fd0 44bd
00000290: 6a0c b7bd 6aac 8f3d d7f0 d0bd e646 d0bd
000002a0: 027b c53d a711 64bb 73a7 87bd 9898 793d
000002b0: 0ea6 e63d f7e0 283d 96ef 87bd 1647 863d
000002c0: 118a ec3d 43e9 853c 85d2 8ebc 5d5c 84bd
000002d0: 5ebf 053d c724 c3bd 2ea5 ac3d dad7 783d
000002e0: 3037 22bd 182f 27bd 1fde 8b3d 052e 8fbd
000002f0: 72d3 663c 8759 3e3d 030d ccbd 5bd9 bcbd
00000300: 75e0 6fbd 654b eabc 1ea2 3abd bae9 f9bb
00000310: 7a8a 24bd a223 283d 8576 0dbf d6eb bdbe
00000320: ca23 62be db64 b3be 03d9 63be 48f4 87bd
00000330: 4cfa 393d 0576 133e a4b3 823c 19b1 a1bd
00000340: b632 b5bd 3113 21bc 870c e03c 7af1 f6bd
00000350: d13c e3bd 4767 8a3c 0d1c acbd 69ed 6e3c
00000360: d7ad b9bd 19b0 8cbe 37c2 18be 562a 74bc
00000370: 183a d93c 1be5 2c3d a89a 663e f90a 153e
00000380: 76a9 ac3d 5ca0 133e f087 113e 82eb c43d
00000390: 51de 733d 6c81 133e a146 64bd 9b7b 2f3c
000003a0: 4a12 763d 7971 3ebd d10e 51be e403 b03d
000003b0: c54c c2bd b281 7b3c e050 5f3e 8f84 bebd
000003c0: 9745 35be 8a63 0a3e 7556 4abd 69cd 2b3d
000003d0: 2de7 e63c 474e 67bd af41 7cbd 4f71 8abd
000003e0: 9856 83bd 9581 643c 1819 9ebc 5862 a8bb
000003f0: 6829 a3bc ea8e 023d cd56 273d 6f0e 10bc
0.052353572 -0.044989403 -0.0047318074 -0.08199728 0.09076492 0.07418622 -0.049537927 -0.0618982
-0.06490767 -0.008726244 -0.036479276 -0.08420222 0.049239997 -0.10061515 -0.068959 -0.08195927
-0.011701653 0.03519581 0.095614724 0.112227455 0.09933851 -0.06971848 0.0054843924 0.10144675
-0.022191556 -0.07206875 0.052672807 -0.09031626 0.07282798 -0.08939447 -0.09719833 0.049007293
-0.06523992 -0.057305366 -0.0839823 0.018042626 0.038648285 0.03482362 -0.031811412 0.0077672265
-0.07887509 0.029729879 -0.06886082 0.0854612 -0.053251415 0.08756841 0.043941263 -0.06460344
0.02610532 0.020922637 -0.07544299 -0.1027256 0.009359315 -0.072282605 0.09866438 0.06942251
-0.019340523 -0.060057063 0.029096102 -0.010493037 -0.037766684 0.08388672 -0.10315202 0.014077357
0.0023602976 0.0034656874 -0.10261973 -0.025334826 -0.019040199 0.05083282 0.011861343 -0.052726343
0.046964604 -0.042664383 -0.083856806 0.02151617 -0.014329637 -0.07117921 -0.10413392 0.021524118
-0.06117305 -0.06834491 0.019449372 0.08644496 0.07361949 -0.00053772045 -0.0678874 -0.055936903
0.024924694 0.003344312 0.038371287 -0.042893928 -0.07017333 -0.0073843705 0.10071773 0.0061447243
0.024586594 -0.017806169 0.0013374446 0.07971897 0.06959736 0.00865115 -0.07888742 -0.0895531
0.07800242 0.058906585 -0.023308598 -0.08887645 0.08538085 0.02784362 0.050853275 -0.06941476
0.09661887 -0.06019595 0.028860617 -0.0808207 0.01074849 -0.079553664 0.079225734 0.070341155
0.08680118 0.017813686 0.034165036 0.11045214 0.051354032 0.03764212 -0.011403771 -0.07390062
0.026680283 0.029533498 0.108936146 0.08372047 0.04654121 -0.107822984 -0.0750302 0.12144683
-0.069809295 -0.10897216 0.024483638 0.041348595 0.08302102 0.05140822 -0.022592817 -0.048480835
-0.04149945 0.04516269 0.011043868 -0.088009514 0.03517285 -0.0032172725 -0.04195693 0.05780419
-0.05810075 0.030419258 -0.08382408 0.02559748 0.025169823 -0.07741529 -0.10179182 -0.06077667
-0.0053644585 -0.083300315 0.117620066 -0.048049983 -0.08937915 0.07015307 -0.102021866 -0.10169773
0.096426025 -0.003480056 -0.06623735 0.06093654 0.11262141 0.04123017 -0.06637494 0.06556527
0.115497716 0.01634658 -0.017434368 -0.064629294 0.032653205 -0.09528499 0.08429943 0.060752727
-0.039603412 -0.040816396 0.068294756 -0.069911994 0.014088498 0.0464721 -0.09963419 -0.09221145
-0.05856367 -0.028600404 -0.045564763 -0.0076267393 -0.040171124 0.041049607 -0.5525897 -0.3709399
-0.22083965 -0.35037884 -0.22250752 -0.0663839 0.045404717 0.1440049 0.0159548 -0.07895107
-0.08847563 -0.009831236 0.027349724 -0.12057777 -0.11095584 0.01689495 -0.08403788 0.01458297
-0.090663604 -0.27478102 -0.14917837 -0.014902672 0.02651696 0.04221068 0.22519934 0.14554967
0.084307596 0.14416641 0.14212012 0.09615232 0.05953819 0.1440484 -0.05573142 0.010710622
0.060076036 -0.046494935 -0.20415808 0.08594492 -0.09487299 0.015350746 0.21808195 -0.09302627
-0.17702328 0.13514534 -0.049398858 0.04194394 0.028186405 -0.056471135 -0.06158608 -0.06759893
-0.06413001 0.01394691 -0.019299075 -0.0051386766 -0.019917205 0.031874575 0.040854264 -0.008792504

conv2.bias f4 [16]
00000000: a15e 94bd 4283 d3bb 9737 da3e f895 1fbc
00000010: d01a 903e ed2e dabd 79b6 1e3e b00f fcbc
00000020: 9617 25be b05c f73d b2d0 13be fb2a a73e
00000030: af5f 8d3d 79ac 8c3e 6c46 033e 2b98 32bd
-0.072446115 -0.006454856 0.42620537 -0.009740345 0.28145456 -0.10653482 0.15499295 -0.0307692
-0.16122279 0.120782256 -0.1443508 0.3264998 0.06903016 0.27475336 0.12819833 -0.04360215

conv3.weight f4 [32, 16, 3, 3]
00000000: a314 7bbd af64 8abd f902 af3d 6b36 7abd
00000010: c5ac 803d 76d8 493d aa71 80bc 7ede 983c
00000020: 6b58 db3c 283f 823b 1bf9 363c f51f b53d
00000030: 5ccd c1bc 715a 973d 7c95 62bd df35 c4ba
00000040: be58 dfbc 6c62 0cbd 9185 cfbc 81cd 97bd
00000050: 2257 42bd b130 113c 9351 3fbd da9a d33c
00000060: 36f3 03bc cc77 39bd a51a a03d 4df1 12bd
00000070: 4f16 e7bc 83ea 4fbc 9ffc 94bd f7b5 f03b
00000080: b633 583d b794 63bd c9cb b13d cc89 323c
00000090: 7dde c5bd 04c9 483d a8fc e13c c68d 24bb
000000a0: 7529 7c3d 3d0e fc3c 1057 bc3c b4e8 893d
000000b0: 1097 b8bd 2fd5 83bd 9aed 88bb 086b 8d3d
000000c0: 9e35 d8bc a2c8 88bd 1710 3fbd adb8 a1bd
000000d0: de1d 1a3d c6f6 af3b 6e22 8fbd e3fe 033d
000000e0: 2604 103d 28a7 583d 7d21 3c3d ac5a ad3d
000000f0: 65e8 6a3b 8201 acbd 23e7 1cbc 6ebc bf3c
00000100: 442d f8bc 9e27 2bbd e5c8 27bd ee0d 523d
00000110: 503d 84bd 780e 39bd bf02 5ebd 18b9 863d
00000120: 980b 15bc bc06 67bc d81f 8b3b 5166 933d
00000130: f6de 543d 3cda 87bd 9214 593d 845c b5bd
00000140: ef36 f73c a007 823b 22c9 0ebc 8cd7 d73b
00000150: 4866 3dbc 0051 393d b257 9c3d 19e0 0bbd
00000160: d4e8 30bd 0b51 92bc e275 80bd 43cc 01bd
00000170: 223c 8dbd 9cc6 823d b827 7d3d 1941 3abd
00000180: 582f 91bd 8e54 8dbc 11be 8a3d 23c5 043d
00000190: b997 a13d 8f61 5abc d87d 8c3d a300 a53d
000001a0: 9cc1 2d3d 0a4a 88bd 66dc 9e3d 209c 78bd
000001b0: 71f5 5abd ceba 893b 1754 013d 22c1 233c
000001c0: fb02 06bd e89f 3ebd 7641 b23c a655 58bd
000001d0: e94f 063d 32dc c63c 231f a03c 9f66 9cbd
000001e0: 42a6 8bbd 917c 8ebd fe41 473d 161e 00bd
000001f0: 9813 23bc 1292 f83c f789 b03d c924 d03c
00000200: 3890 f7bc c25b 2fbd e92f 4bbc b9ba 9cbd
00000210: 86da 0f3d a8c9 f5bc df64 66bd 0ecd 143b
00000220: c564 0fbd 98a7 943d 6556 8a3d 3d03 24bc
00000230: 5b71 443d 603b 85bd c2c4 103d c2e9 263d
00000240: 76ed 7dbd acbb 1ebd f021 b0bb f687 5ebd
00000250: a645 35bd ed36 78bd 7cec a3bd 09b2 02bc
00000260: d59a 863d 8193 923d cbed 143c 91ca 993d
00000270: c194 f0bc cafa bebc ad6b c7bc 4589 ebbc
00000280: d534 c4bb 7d91 60bd 5859 163b a075 0e3c
00000290: 5c16 783d 5dc1 8c3d cb78 b7bd 9fe2 ee3c
000002a0: 1186 a1bd 6957 38bc 9c70 66bd bec1 ad3c
000002b0: bfde dd3b 1ca0 87bb 48cf 33bd 2c2c 3f3d
000002c0: 48c5 fabc a49c a03d 0ecf 19bd e3fd 63bc
000002d0: 85bf 53bc 1540 fc3c 96af 81bd 2349 5f3d
000002e0: 94d0 a63d 1526 833d a0fa df3c 7b2e 0f3d
000002f0: 19fa c13d da3a ed3c ab9b 673c 5ea2 a3bd
00000300: 6e46 aabd df43 a83d 10d0 c0bc 533c 953d
00000310: 4b75 383d b622 773d d20d 45bd 7bcd a83b
00000320: 6af3 89bd 832a c53c b34e 913d 90fd 6cbd
00000330: 0380 89bd 2cef 753d c7af 6c3d 576a 623c
00000340: be0a 9b3d e0f2 593d 1e28 6c3d b3f9 58bd
00000350: 5553 81bd 01c0 a4bd 1609 95bc e219 a1bc
00000360: 2c49 fe3c f4f4 043d 96b8 b5bb 3283 113c
00000370: 3b57 3dbd e823 b23c d2a5 00ba 9ad1 abbd
00000380: e5bc 70bd 1cdf 51bd 0521 9c3d 03a7 f1bc
00000390: 8f3e a4bd a486 20bc c01d efbc c295 16bd
000003a0: 3836 063d e39a 82bc 286f acbc 85b5 683d
000003b0: 0210 c93c 4d70 853c a674 5ebd f2ed c5bc
000003c0: 9ce9 5bbd 69d5 c83c fecd 50bd 8dd2 a43d
000003d0: 493d af3d e258 e73c c698 58bd 351f 583b
000003e0: 9893 dfbc f09a 3a3d f962 0c3d 8e69 843c
000003f0: f120 d93c e865 7fbd ffa4 a5bc b3eb efbc
-0.061298978 -0.06757485 0.08545489 -0.061087053 0.06282953 0.0492787 -0.0156792 0.01866078
0.02677556 0.003974814 0.01116779 0.08843986 -0.023657493 0.07390297 -0.05531834 -0.0014969668
-0.027263995 -0.03427355 -0.025332244 -0.07412244 -0.047446378 0.008861707 -0.046708655 0.025830675
-0.0080535915 -0.045280263 0.07817582 -0.035874654 -0.02820888 -0.012690189 -0.07274746 0.0073459106
0.05278369 -0.055561747 0.08681447 0.010897111 -0.09661577 0.04901983 0.027586296 -0.0025108918
0.061562974 0.030768508 0.022990733 0.06733838 -0.09013188 -0.06437146 -0.004178715 0.0690518
-0.026392754 -0.06678893 -0.046646204 -0.07896552 0.03762614 0.005369994 -0.06988989 0.0322255
0.035160206 0.052893788 0.045930374 0.0846456 0.0035844084 -0.08398725 -0.009576592 0.02340528
-0.030295022 -0.04178583 -0.040963072 0.051282816 -0.06457007 -0.045179814 -0.054201838 0.065782726
-0.009097002 -0.014100727 0.0042457394 0.0719725 0.051970445 -0.06633422 0.052998133 -0.088555366
0.030177562 0.003968194 -0.008714946 0.0065869745 -0.01156003 0.045243263 0.07633914 -0.034149263
-0.043190792 -0.01786091 -0.06272484 -0.03168894 -0.06896235 0.06385538 0.061805457 -0.04547224
-0.07089108 -0.017252233 0.067745335 0.032414567 0.07890267 -0.013328924 0.0685994 0.08056762
0.04242097 -0.06654747 0.077568814 -0.060695767 -0.053456727 0.004203177 0.031574335 0.009994777
-0.032717686 -0.046539217 0.02175973 -0.052816056 0.032791052 0.02427492 0.019546097 -0.07636761
-0.068188205 -0.06957353 0.04864692 -0.031278692 -0.009953402 0.03034309 0.08620065 0.025408166
-0.030220136 -0.042812116 -0.012401559 -0.07652802 0.03512051 -0.030003384 -0.056248542 0.002270523
-0.03500821 0.072585285 0.0675476 -0.010010538 0.047959667 -0.065054655 0.035343893 0.040750273
-0.06199404 -0.038753197 -0.0053751394 -0.05432888 -0.044255875 -0.060599256 -0.0800409 -0.007977017
0.065725006 0.071570404 0.009089897 0.075093396 -0.029367806 -0.023312945 -0.024343336 -0.028751979
-0.0059877434 -0.05482625 0.0022941437 0.008695036 0.0605682 0.068728186 -0.08958586 0.029160796
-0.07886899 -0.011251309 -0.056259736 0.021210548 0.006770938 -0.0041389596 -0.04389885 0.046672985
-0.03061165 0.07842377 -0.03755098 -0.013915512 -0.01292408 0.030792275 -0.063323185 0.054513108
0.08145252 0.06403748 0.027341187 0.034956437 0.094715305 0.028958727 0.014136235 -0.079899535
-0.08314215 0.082160704 -0.023536712 0.072868966 0.045033734 0.060335837 -0.048108883 0.0051514483
-0.06735881 0.024068123 0.07095089 -0.057859004 -0.067138694 0.060042545 0.05778482 0.013819299
0.07570408 0.05321014 0.057655446 -0.052972507 -0.063147224 -0.08044434 -0.01819281 -0.019665662
0.03104075 0.032460168 -0.005545686 0.008881377 -0.046225768 0.021745637 -0.00049075217 -0.08389588
-0.058773894 -0.051238164 0.076234855 -0.029498583 -0.080197446 -0.009797726 -0.02918899 -0.036763914
0.03276655 -0.015942996 -0.021049097 0.056813736 0.024543766 0.0162889 -0.054310463 -0.024161313
-0.053689584 0.024515824 -0.0509777 0.08047972 0.08556611 0.028240625 -0.05288007 0.0032977585
-0.027292058 0.045557916 0.034274075 0.016163614 0.026504965 -0.062353045 -0.020220278 -0.029287195

conv3.bias f4 [32]
00000000: a2a5 a5bd cfc2 2f3d 0a95 6fbd 773a 18bd
00000010: eff0 3fbd 0bf5 f63d 0dc1 393c 89c0 a23e
00000020: 629d 03bd 077b cb3c 6818 79bd 719a 34bd
00000030: 2fb7 cc3c 7fa8 0c3d 0289 5f3d c7f2 e53d
00000040: 6084 6fbd 0990 a0bc b79d d73e ee8c c93d
00000050: c573 2e3d f080 95bd c4ed 613e 3f4c d8bc
00000060: 41ac c0bd 86d9 d13d fb12 84bd 4aa3 01bd
00000070: e2bc 2c3e c4fe 1abd 05bc bfbc 2ae9 983d
-0.080882326 0.042910393 -0.058491744 -0.03716513 -0.04686063 0.12058457 0.011337531 0.31787518
-0.032132514 0.024838937 -0.06081429 -0.0440926 0.024989692 0.034340378 0.05457402 0.11227947
-0.058475852 -0.019599931 0.42112514 0.09841333 0.042590875 -0.072999835 0.22063357 -0.026403544
-0.09407855 0.102465674 -0.06448933 -0.031649865 0.16868928 -0.03784062 -0.023405084 0.074663475

conv4_1.weight f4 [2, 32, 1, 1]
00000000: 17c5 293e 73d2 383d 3112 7fbe c733 76bd
00000010: 6874 b5bd bbab bbbd ea2c 243e 4959 8ebe
00000020: b935 193e 1e1c b9bd d838 26bd 8ca1 42be
00000030: 9808 b13e 0030 98bc 3733 5c3d 017d f6bd
00000040: ae91 8dbd 6d6d ecbd 11d4 89bf 745c 063f
00000050: f6c2 393f ee74 01bd 90a9 0a3f cbd3 cd3c
00000060: f17c 303c 48d0 803e 2de3 8cbd 1d4c 84bd
00000070: e84f 2d3e a4d4 30bd 89a3 dcbd ed5b 5e3e
00000080: ab5a f8bd 4d63 433d d860 643e 5670 813d
00000090: 3fbb ad3c a16c 403e f141 31be f9d0 c13e
000000a0: e412 253e 0e16 87bd 838c 273d 8a55 77bd
000000b0: a06f d0be 65cf d73d 3ba4 c73d acb1 013c
000000c0: 47b7 373e 9691 dfbd e68c 6e3f e76c 0bbf
000000d0: 66b3 1ebf dbac 063e 725e 16bf 9823 ffbd
000000e0: efae 05bd 3c74 e8be d2ed 6bbb 76c7 123e
000000f0: 2b79 243e cb0c 32bd 0a6d 52be e2dd 71be
0.1657909 0.045122575 -0.24909283 -0.060107972 -0.08860093 -0.09163614 0.16032758 -0.27802494
0.149619 -0.09038566 -0.040581554 -0.19006938 0.3457687 -0.018577576 0.05375978 -0.12035561
-0.06912552 -0.11544309 -1.0767843 0.5248482 0.7256311 -0.031605653 0.5416498 0.025125405
0.010771976 0.25158906 -0.06879268 -0.0645983 0.16925013 -0.04317154 -0.10773379 0.21714754
-0.121266685 0.047702122 0.22302568 0.063202545 0.02120745 0.18791439 -0.17310311 0.37854746
0.16120487 -0.065960035 0.040905487 -0.06038431 -0.40710163 0.10537604 0.09748121 0.007915895
0.17941009 -0.1091644 0.93183744 -0.54463047 -0.6199249 0.13151877 -0.5873786 -0.12457961
-0.032637533 -0.4540118 -0.0035999906 0.14333901 0.16061847 -0.04346923 -0.20549408 -0.23619798

conv4_1.bias f4 [2]
00000000: 6064 a8be c8be 943e
-0.3288908 0.29051805

conv4_2.weight f4 [4, 32, 1, 1]
00000000: c185 1b3c 458f cf3d fbd6 45be 133d f13c
00000010: c9c7 463d 7ef8 69bd c62d 4c3d bff8 883c
00000020: 3b16 1dbe e580 ad3d 91bc 5bbd f272 3a3e
00000030: 2fee 38be 543a 39be 2652 09bc 3572 c13d
00000040: 18c6 b63d 2f71 7d3d 8148 183e d351 833e
00000050: e670 633d c65d acbd 3aa5 a43d f8b9 e1bc
00000060: 261a 59bd bf1c 283c fbb0 043e b157 41bd
00000070: 491f 35bc fc7f 893d c537 863d 8170 6e3d
00000080: 3d4a 6b3d ccf4 303e da57 c4bc c840 f7bd
00000090: ebdc 7ebd 12d9 2bbe 5de7 3f3e c2ed a6bd
000000a0: 6833 5339 aeaa df3d 06a0 03be a9a3 0ebe
000000b0: cd81 37be 743f 353e 1f9f 27be 064a 38be
000000c0: aee0 1a3e ddc3 33be d721 d6ba 9cd0 53bd
000000d0: d718 a83c 16cf 8b3c dca3 633d a714 14be
000000e0: efb5 823d 6f6e a23d 326a 0fbe 0336 f33d
000000f0: 2067 6b3e f66f 083e fe66 3f3e 80a5 21bd
00000100: c475 f4bd 9eb9 283d 0a8d 153e 2321 313d
00000110: aa6d 3c3a 810f e63d 39bc 18bd 68f4 d13d
00000120: d546 22be 25ac e7bc 03e1 83bd bdba fc3b
00000130: 0e3f 30be cc02 d63d 3af5 1cbd 9bd7 9a3d
00000140: 2c5d 963d 1e46 8dbd 9cf3 0b3d a925 ab3b
00000150: 2668 183d 15db 22be 5bde 323e 00d6 97bd
00000160: 9759 e63b 2dc9 093d 247c c0bd f29d a73d
00000170: f068 593c e2d6 283e 231a eb3d c24c 8f3d
00000180: fdb9 28bd df6d cd3d e7d9 a8bc 890c 2cbd
00000190: 8afe 193d e905 eabd bebb 68bc 40b5 433e
000001a0: 37bc d1bd b68e 30be 964e e9bd 17a3 a6bd
000001b0: 126d 813d de43 c7bd 30eb a6bd b74d 1b3c
000001c0: 674d e63b 2658 4abd ece2 fa3b 0d7e 08bd
000001d0: eaf6 35bd e006 113e 7c84 a93d 4a7d 583b
000001e0: 3829 b53d 3228 113d a363 083d 4993 8ebd
000001f0: 66a4 d03c d3f9 103e 0d6e 4e3d 0263 babb
0.009492339 0.10134748 -0.1932029 0.029448068 0.048530374 -0.057121746 0.04984834 0.016720174
-0.15340512 0.0847185 -0.053646628 0.1820791 -0.1805961 -0.18088657 -0.008381402 0.094456114
0.08924502 0.06187552 0.14871408 0.25648364 0.05552759 -0.08416323 0.08039327 -0.027554497
-0.053003453 0.01026076 0.12958138 -0.04720277 -0.011054822 0.06713864 0.06553606 0.05821276
0.057443846 0.17280883 -0.023967672 -0.12072903 -0.062222403 -0.16782025 0.18740602 -0.081508175
0.00020141678 0.109212264 -0.12854013 -0.13929619 -0.17920609 0.17699987 -0.16369294 -0.17996988
0.15124771 -0.17555185 -0.0016336989 -0.051712617 0.020519657 0.01706652 0.05557619 -0.14461003
0.06382357 0.0793122 -0.14005354 0.11875536 0.22988558 0.1332396 0.18691632 -0.039464474
-0.119365245 0.041192643 0.14604583 0.043244492 0.0007187972 0.11233426 -0.037288878 0.10251695
-0.15847333 -0.028280327 -0.06439402 0.0077126906 -0.17211553 0.10449752 -0.038319804 0.07560655
0.0734199 -0.068981394 0.03416787 0.0052229953 0.0372087 -0.15903886 0.17467634 -0.07413864
0.007029723 0.03363912 -0.09398678 0.081844226 0.013269648 0.16488221 0.114795946 0.06997062
-0.041192997 0.10030722 -0.020611716 -0.042004142 0.037596263 -0.114269085 -0.0142049175 0.1911211
-0.10240977 -0.1724194 -0.11391942 -0.08136576 0.06319632 -0.097297415 -0.08150327 0.009478978
0.00702827 -0.04940047 0.0076564457 -0.033323336 -0.04442493 0.14162779 0.082772225 0.0033033662
0.088457525 0.035438724 0.033298146 -0.06961686 0.025469016 0.141578 0.05039792 -0.005688072

conv4_2.bias f4 [4]
00000000: ef49 d5bd d8ce a73d 1b74 1e3f e861 373f
-0.10414492 0.08193749 0.6189591 0.7163377

conv4_3.weight f4 [10, 32, 1, 1]
00000000: 659c 203e 91bc 203d d84d f43d a879 20bd
00000010: 655f db3d 6d06 edbc 0e46 b5bd d1bd 3a3e
00000020: 6bf6 043e 3b89 59bc 5eff 823d 70b3 b93d
00000030: 72b9 013e 99ec 1f3d 3dff d63d 2966 2cbd
00000040: 21a6 2fbe db9b 77bd 57f3 8d3c 8956 0b3e
00000050: 3b7e 7a3d fc27 15be 9d34 5bbd 56cf 21be
00000060: a067 6b3d f70b d7bc 8b59 c93c eee4 d6bd
00000070: b5e2 2bbe 1fb1 cbbd ab02 bbbd c8b5 833c
00000080: 211b 9c3c 9ae6 01be 2188 203e dbbe 83bd
00000090: c500 c03b f1d2 583b 3d56 74bc 172e 823d
000000a0: 4483 243d 8955 04be f161 2a3e e56d c13c
000000b0: d278 94bc 5128 d63d 2f36 1f3d 7839 863d
000000c0: eb7d 6e3d 900f da3d 0bdd 543d 4aa9 dcbd
000000d0: db4a 553a f13d 27be 8931 113e 1d27 ddbd
000000e0: bd8d 1d3e 283a 5e3e 6f87 20bd 9ef3 e6ba
000000f0: f0fe 303e 65d0 6dbd 8454 21bc 2024 85bd
00000100: 75d6 333e 1253 13be 7168 eb3d 8f7a 2b3e
00000110: 1e17 b3bd 3c39 463e ce6e f0bd af66 5e3d
00000120: 933f eabd 30d5 0cbe 6126 153e 6984 86bd
00000130: f58f 98bd 1ab9 2dbe 633a 133d ffdd c13c
00000140: 8b4a f2bd 87e3 83bd e8ed d03c c98d 1a3d
00000150: 2ffa 90bd df4e 9a3d 2da4 7f3c 148c b33d
00000160: 5565 1fbe 6f8a efbb 2a70 c03c dcca 113e
00000170: 5543 e53c 6249 c3bd 6b59 e1bd cefe 143e
00000180: e822 e9bd 9a8d 09bd 8f8e a63d 9241 8bbc
00000190: 118a 753d 1ecb 73bd 6c95 b3bd 9cfa 83bc
000001a0: 267a fd3d 8e10 de3d 4495 2cbe 0ad8 28bd
000001b0: b92e e23d 876c 053c 8ef4 71bd 1acb 12bc
000001c0: 316c 5ebd 7c4d 95bc 215d ea3d 2321 26be
000001d0: 069f af3d 3926 0a3d 9017 ce3d 0426 30be
000001e0: 9a70 1a3d ba07 173e baca d03c 8169 22bc
000001f0: 00c4 a83d ca5a 17be 874f d73c 58e2 aa3d
00000200: f941 e73d 9214 dfbd fff6 af3c e1a3 9c3d
00000210: d00d 043e 0174 d6bd bdc2 093e d28b 373e
00000220: 384c f5bd b3e7 f43d 47a6 32be dadd 783d
00000230: e2b7 90bd b6a6 d2bd ed2a 26be b9d0 013d
00000240: c7b5 d1bd 3455 31be d5a7 10bc e632 933d
00000250: b981 d6bc 77ec 843c 533d 753d 1d2f cbbd
00000260: 749a 023e b70d 343c 9db8 863c c597 12be
00000270: a93a 323e 7e3a e6bb 2aa1 4abd c3e8 033e
00000280: c053 213e 725f 76bd 7ca3 d63d 17ac 003e
00000290: 3680 fc3d d496 203e a444 22be 10a0 3d3e
000002a0: 322a 033d c0a0 ccbd 10f4 64bd 4011 a43c
000002b0: 995b 3fbd 5fb2 23be e947 233d 19b8 04be
000002c0: a515 f3bd 5b82 08bd 69d4 8abd 42ac 97bd
000002d0: 6368 00bc 4b50 c3bc 2c06 123d 6f62 0e3d
000002e0: b86a 883d 72eb b5bd 6a8a 98bd 5b3e d7bd
000002f0: a4af 1e3e 3f6a fbbd d4c5 c5bd 33bd 183e
00000300: fe73 9d3d 5a6a f7bd 2359 f03d eda1 0ebe
00000310: f317 25bd 931c 2fbe dcd0 163e 9792 143e
00000320: c055 b73d 6023 303d e9d7 aa3d 45ff 09bd
00000330: a1a8 12be 33f3 b83c 26cd b93d 2b48 ca3d
00000340: 6d8b 203e 1bab bc3d ab0b 9c3c 7c9c ea3d
00000350: 9317 103e 0cd5 b03d 70dc cebb fcab de3d
00000360: 6209 1cbe 061d b13b 6bad 16be 4b5c a6bd
00000370: 992c 0e3e f604 c3bc 06a8 e83b a016 1fbe
00000380: d636 c13d 90b7 673d 9e65 b73d 76f1 e23d
00000390: 5ab6 0b3d 01ac c43d 6c12 0fbe 6a32 453e
000003a0: 3162 233e f7be f53d 38c6 143e cca1 c9bd
000003b0: c476 0abe 1db2 8fbd 58e7 44bd 966c 0e3d
000003c0: 622a b23d 0210 d33b c5eb 2cbd 06ff 5f3d
000003d0: 6993 853d 1014 9ebd fd07 72ba 0afe 0cbd
000003e0: 6104 c3bd b78e 5c3d 3f33 bfbd 44a5 2abe
000003f0: 0e58 af3d c470 f2bd 0994 0abe bb6d 493e
0.1568466 0.03924233 0.1192891 -0.03917852 0.107115544 -0.028933728 -0.088512525 0.18236472
0.12984626 -0.013277347 0.06396364 0.09067428 0.12668398 0.039043996 0.104979016 -0.042089615
-0.17153217 -0.06045137 0.017327948 0.1360723 0.06115554 -0.14566034 -0.053516973 -0.15801749
0.05747187 -0.026250822 0.02457883 -0.104928836 -0.167857 -0.099458925 -0.09131368 0.016077891
0.019055905 -0.12685624 0.15676929 -0.06432887 0.0058594667 0.0033084715 -0.014913139 0.06356447
0.040164247 -0.12923254 0.16638924 0.023611972 -0.018124018 0.104569085 0.038870033 0.0655393
0.058225553 0.106474996 0.051968616 -0.10774477 0.00081364595 -0.16332223 0.14179052 -0.10798476
0.153861 0.21701872 -0.03919166 -0.0017620211 0.17284751 -0.05806007 -0.00984681 -0.06501031
0.17562278 -0.14387158 0.1149453 0.16745971 -0.08744644 0.1935777 -0.11739884 0.054297145
-0.11437907 -0.137532 0.14565422 -0.06568224 -0.074493326 -0.16965142 0.035944354 0.023665426
-0.11830624 -0.06439882 0.025504068 0.037732873 -0.07078969 0.07534575 0.015603107 0.08766952
-0.15565999 -0.0073102037 0.023490984 0.14237541 0.027986208 -0.09535481 -0.11003383 0.14550325
-0.11383611 -0.033582307 0.0813266 -0.01699904 0.059946124 -0.05951988 -0.08768734 -0.01611071
0.123768136 0.10843001 -0.16853815 -0.041221656 0.11044068 0.008143551 -0.059071116 -0.008959556
-0.054302398 -0.018225424 0.11443544 -0.16223578 0.08575253 0.03372786 0.10063088 -0.17202002
0.03770504 0.14749041 0.025487293 -0.009912849 0.08240509 -0.14780727 0.026283039 0.08343953
0.1129188 -0.10892595 0.021480082 0.07648445 0.12895894 -0.10471345 0.13453193 0.17924431
-0.11977428 0.119582556 -0.17446242 0.06075845 -0.07066323 -0.10285704 -0.16227312 0.031693194
-0.102397494 -0.17317659 -0.008829077 0.071874425 -0.026184903 0.016226036 0.059872936 -0.099210955
0.12754232 0.010989598 0.016445452 -0.14315708 0.1740519 -0.007026016 -0.049470104 0.1288176
0.15754604 -0.060149617 0.10480401 0.12565647 0.12329142 0.15682536 -0.15846497 0.1851809
0.032022662 -0.09991598 -0.05589682 0.020027757 -0.046718214 -0.15986012 0.0398635 -0.12960853
-0.11869363 -0.03332744 -0.06778795 -0.074059024 -0.007837388 -0.023841998 0.035650417 0.034761842
0.0666098 -0.08882798 -0.074482754 -0.1050994 0.15496689 -0.12276124 -0.09656873 0.14915924
0.076881394 -0.12080832 0.117357515 -0.13928957 -0.040306043 -0.17100744 0.14728111 0.14509045
0.089519024 0.043002486 0.08341963 -0.03369071 -0.1432214 0.022576904 0.09072332 0.09877046
0.15678187 0.09212323 0.019048532 0.11455628 0.14071493 0.086343855 -0.0063128993 0.10872647
-0.15237954 0.005405071 -0.14714591 -0.08123072 0.138842 -0.023806076 0.007100108 -0.15535975
0.09434287 0.056571543 0.08954929 0.11081211 0.03410945 0.0960312 -0.13971871 0.19257513
0.15955426 0.11999314 0.1452874 -0.098453134 -0.13521868 -0.07016394 -0.04807219 0.034771524
0.0869949 0.0064411173 -0.042217035 0.05468657 0.06522257 -0.0771867 -0.0009232758 -0.034421958
-0.095223196 0.05384704 -0.09335946 -0.16664606 0.08561717 -0.118379146 -0.13533033 0.19670765

conv4_3.bias f4 [10]
00000000: 3c8e a53c aba5 bc3d d368 953e 907a 0b3e
00000010: acc9 0f3e eb7a 953e eae4 073d 6dfb c13e
00000020: 6ca3 883e f343 c93e
0.020209424 0.09211286 0.29181537 0.13620973 0.14041775 0.2919534 0.033177294 0.37887135
0.2668718 0.39309654

momentum_buffer f4 [10, 3, 3, 3]
00000000: 287b c338 fc51 8038 8565 2939 eb29 3239
00000010: 2824 9c38 8dcf cd39 9529 0f3a b203 9439
00000020: e8c3 0d3a b53c 82b6 3fb2 3d38 4391 0138
00000030: 667c e538 e49b e537 d1ef 2939 bbc3 9039
00000040: 6675 2c38 00cb 0439 815b 1138 ce02 01b7
00000050: ff46 e537 22f1 4d39 27b9 8538 47dc 3539
00000060: e4fc c139 44ff db38 c1a0 2239 0000 0000
00000070: 0000 0000 0000 0000 0000 0000 0000 0000
00000080: 0000 0000 0000 0000 0000 0000 0000 0000
00000090: 0000 0000 0000 0000 0000 0000 0000 0000
000000a0: 0000 0000 0000 0000 0000 0000 0000 0000
000000b0: 0000 0000 0000 0000 0000 0000 0000 0000
000000c0: 0000 0000 0000 0000 0000 0000 0000 0000
000000d0: 0000 0000 0000 0000 d0d7 dbbd a362 2cbe
000000e0: 7058 5fbe c59a 16be bacf 20be c6a1 80be
000000f0: c2d8 25be 24ae 28be 8115 70be f66e fbbd
00000100: f4b2 15be eef4 26be 9695 eabd b4c5 c3bd
00000110: 8259 34be b4c2 dfbd 5b02 c6bd a59c 12be
00000120: aed8 58be 5e56 62be fc7e 64be 46a8 35be
00000130: 52e4 1ebe 441f 62be b090 24be 9485 1bbe
00000140: c583 2ebe 3062 f43d 1a64 033e d89a 183e
00000150: 3833 d83d 583a ee3d b70b 033e 5ac6 de3d
00000160: 323a eb3d 79b1 053e 4a35 b33d 3c5d be3d
00000170: e047 df3d a286 9a3d d07a af3d 71bb bc3d
00000180: fc2a 9f3d 418f a93d 0d44 ba3d e46c 263d
00000190: 8af0 263d b34d 4e3d 9294 1c3d 69fa 2d3d
000001a0: 0f6e 213d 682c 153d d687 173d 2a5a 253d
000001b0: 3b4d e6bd debf 00be dc47 abbd ae5c a8bd
000001c0: c6ed c6bd d321 6bbd b247 3fbd 4563 7cbd
000001d0: e8bc 64bc 0097 debd 3eb6 e9bd 9aeb 9dbd
000001e0: db92 97bd e1e6 acbd c7ec 64bd 54c8 55bd
000001f0: 58fc 7fbd d5e0 aebc 4b56 dcbd 0aff d6bd
00000200: 78e9 9bbd fed0 a5bd ab57 bbbd 838c 91bd
00000210: f745 7abd dade 9ebd 6010 3cbd 2eae eb3d
00000220: a7d3 163e eb09 393e d14e 8c3d b830 f43d
00000230: 0128 1f3e e25f d13d 9a29 fb3d 25cb 0a3e
00000240: aba0 cc3d d43c 053e 4dc6 253e 8264 883d
00000250: 6c8c f53d 3261 173e 1f05 d03d e421 073e
00000260: cdfc 023e 2030 d93d e277 0d3e d054 393e
00000270: 043e a13d 20b0 023e 2e65 1f3e bacc e23d
00000280: 6e67 113e 40df 0b3e 2cec 1cbd 4877 983c
00000290: 1866 b53c 4a64 0dbe 8571 13be 1dd7 eebd
000002a0: 50fa 15be edce 6cbe 6654 79be 98f5 67bd
000002b0: 009c c2ba f85b d4bc 65ba 16be d064 1abe
000002c0: e670 15be fac5 37be d0db 72be 78a5 87be
000002d0: 9619 3abd 0022 1ebb 62cd 3cbd 7ee8 fbbd
000002e0: 1aea 06be d9ca 10be 0a8e 28be 63d7 75be
000002f0: 4e7e 93be 4a69 14b8 ac8e 59b8 f12c 06b9
00000300: 487b c9b8 3a29 a4b9 a327 06b8 72ab 4db9
00000310: cc24 5438 b5b4 733a f15e 69b6 9a08 3937
00000320: a80c 9c36 4582 3bb8 91da 3db9 b166 1339
00000330: 501a ffb7 1a0c 7139 02fe 943a f738 b135
00000340: 85ed 7337 1ba2 2736 3125 97b7 629d 18b9
00000350: 5afa 0239 0152 93b7 8453 5b39 5273 8d3a
00000360: fc0a 063d a84c 6a3d 680e 103d 0e52 b6bd
00000370: 7168 c3bd 20ef 3dbd a588 11be 3122 e8bd
00000380: 4cf5 f8bc eac8 393d f459 943d b9a6 2e3d
00000390: 2c44 5fbd b1c5 5abd c455 06bd fcc7 cdbd
000003a0: b30b 81bd 20b6 133b ad9e ce3d 2411 fc3d
000003b0: 680b a23d 20a4 3ebb 809f 97ba 00fe 82b8
000003c0: d4b7 43bd 8c11 fcbc 4a0b 823c b809 2a3e
000003d0: 5b85 333e 1b8b 303e 4628 1c3e 4810 1b3e
000003e0: 69da 2c3e aa6a 1c3e 997f 0a3e 50a5 253e
000003f0: 8961 223e 1086 1e3e 526c 153e 0b13 0a3e
9.321264e-05 6.1187864e-05 0.00016154915 0.00016991018 7.445394e-05 0.00039255284 0.00054612133 0.00028231513
0.00054079155 -3.881369e-06 4.5227116e-05 3.0891282e-05 0.00010942742 2.737152e-05 0.00016206435 0.0002761165
4.111733e-05 0.00012664124 3.4655914e-05 -7.689652e-06 2.7331987e-05 0.00019640152 6.3764215e-05 0.00017343565
0.00037000247 0.00010490281 0.0001550941 0.0 0.0 0.0 0.0 0.0
0.0 0.0 0.0 0.0 0.0 0.0 0.0 0.0
0.0 0.0 0.0 0.0 0.0 0.0 0.0 0.0
0.0 0.0 0.0 0.0 0.0 0.0 -0.10734522 -0.16834502
-0.2181108 -0.14707477 -0.15704241 -0.25123423 -0.16195968 -0.1647268 -0.23445703 -0.122770235
-0.14619046 -0.16304371 -0.114543125 -0.09559193 -0.1761227 -0.109258085 -0.09668418 -0.14317568
-0.21176407 -0.22103259 -0.22314066 -0.17739972 -0.15516785 -0.2208224 -0.16070819 -0.15187675
-0.17042454 0.1193279 0.12831154 0.14902818 0.10556644 0.11632222 0.12797438 0.10877676
0.11485709 0.13055982 0.087503985 0.09295127 0.10902381 0.075452104 0.085683465 0.09215439
0.077718705 0.08279277 0.09095011 0.04063119 0.04075674 0.05036707 0.038227625 0.042475138
0.0394116 0.036419302 0.036994778 0.04036919 -0.11245199 -0.12573192 -0.083633155 -0.08220802
-0.097133204 -0.057405304 -0.046699233 -0.06161811 -0.013961054 -0.10868645 -0.11411713 -0.07710953
-0.07401057 -0.08442474 -0.05588987 -0.052193 -0.062496513 -0.021347443 -0.107586466 -0.104978636
-0.0761289 -0.08096503 -0.09147581 -0.071068786 -0.06110188 -0.07757349 -0.045914054 0.115078315
0.14729176 0.1807019 0.068509705 0.11923355 0.15542604 0.10223366 0.12263794 0.13554056
0.099915825 0.13011485 0.16188927 0.06659795 0.11989674 0.14783171 0.10157227 0.13196522
0.12791748 0.10604882 0.13815263 0.1809876 0.07873157 0.12762499 0.1556594 0.11074205
0.14199612 0.13659382 -0.03831117 0.018611565 0.022143409 -0.13807788 -0.14398773 -0.11662123
-0.14646268 -0.23125811 -0.24348602 -0.0566307 -0.0014847517 -0.02592276 -0.14719541 -0.1507752
-0.14593849 -0.17946616 -0.23716664 -0.2649343 -0.045434557 -0.0024129152 -0.046094306 -0.12300204
-0.1317524 -0.1413988 -0.16460434 -0.24007945 -0.288073 -3.5384008e-05 -5.1869705e-05 -0.00012795978
-9.60739e-05 -0.00031311234 -3.1985004e-05 -0.00019614192 5.057901e-05 0.0009296642 -3.4774969e-06 1.1028862e-05
4.6506357e-06 -4.4705597e-05 -0.00018105867 0.00014057268 -3.0410622e-05 0.00022988059 0.0011367204 1.3204107e-06
1.45392305e-05 2.4979297e-06 -1.8017921e-05 -0.0001455448 0.0001249103 -1.7561952e-05 0.0002091658 0.0010791814
0.03272532 0.05720201 0.03516999 -0.089023694 -0.09541405 -0.046370625 -0.14212282 -0.113346465
-0.030390404 0.045357622 0.0724372 0.042639468 -0.054508373 -0.05341119 -0.032796636 -0.100479096
-0.063010596 0.0022538975 0.10088859 0.12307957 0.07912332 -0.0029089525 -0.001156792 -6.246194e-05
-0.047782734 -0.030770086 0.015874524 0.1660527 0.1753134 0.17240565 0.15249738 0.1514293
0.16880192 0.15275064 0.13525237 0.16176343 0.15857519 0.15480828 0.14592102 0.13483827

momentum_buffer f4 [10]
00000000: f6c8 513a 0000 0000 fc71 fabf f098 813e
00000010: 9a51 b1bd 6b20 293f ba9e 5a3f 9f89 853a
00000020: e0eb c93e 03a2 b13e
0.0008002663 0.0 -1.9566035 0.25311995 -0.086581424 0.6606509 0.8539845 0.0010188109
0.3943777 0.34693918

momentum_buffer f4 [16, 10, 3, 3]
00000000: 48eb 6cb7 3822 0fb6 0f1e d236 0cc4 c035
00000010: a5ee 8a36 aecc 0637 b09e 0734 f77d 2535
00000020: 5748 a935 0000 0000 0000 0000 0000 0000
00000030: 0000 0000 0000 0000 0000 0000 0000 0000
00000040: 0000 0000 0000 0000 d2d9 01bd dbcb 2dbd
00000050: 9a03 25bd 00e5 12bd c1d3 15bd eb71 07bd
00000060: 2b88 84bc c8cb 69bc c79b 85bc 8c58 72ba
00000070: dc53 70ba 6a30 2eb9 8371 e1ba b0e8 87ba
00000080: 80f7 2f37 b3d7 b7ba 06f3 a6b9 0e51 143a
00000090: 6e5e 2dbd d999 11bd db3b 04bd accf 73bd
000000a0: 9456 60bd 966e 55bd 7f27 87bd 2ee0 77bd
000000b0: 6c70 7bbd 84cc 95b9 3cfb beba 367e 16bb
000000c0: fb0d 1bba c87a 70ba e47b 19bb faaf 06bb
000000d0: 4dd9 25bb 2997 39bb 382f 6abb ddb5 7dbb
000000e0: 914d 6fbb bb9f 74bb 6a8e 1abb 8c31 05bb
000000f0: b6fb e6ba 00d3 1039 10e7 703a a6a1 1cb8
00000100: 6f47 33b7 81a6 1435 1bea 2fb7 39a9 2533
00000110: e06f 40b2 f69d 14b4 3097 bbb0 aef3 f42f
00000120: 42c7 23bc ec9c e5bb 17b5 43bb b0b0 8bbb
00000130: f4ac e5b8 0e75 b03a b63a 6ebb 1455 42bb
00000140: 9f6f 80bb cee0 48bc af17 85bc 107b 8dbc
00000150: 3ec0 77bc 2091 60bc cb96 4fbc aa59 d0bb
00000160: f8cb c0bb f50d babb f5b5 94b7 1ccc 9637
00000170: 293f b737 6bae 66b4 b80d 1038 425c 2838
00000180: 0418 a4b7 99f7 d2b6 a3b9 7235 0000 0000
00000190: 0000 0000 0000 0000 0000 0000 0000 0000
000001a0: 0000 0000 0000 0000 0000 0000 0000 0000
000001b0: 7e8e 81bb bd56 9bbc 5d97 d6bc 4e88 7abc
000001c0: 6f1d 95bc 0086 8ebc a4c9 9cbb f6f7 1b3b
000001d0: c853 203c 4c34 263b c868 b23b b0a6 fa3b
000001e0: 587e a33a e506 a83b 5c05 143c 6812 9c3a
000001f0: 7679 df3b 9caf 363c 7c5f a1bc f08d 01bd
00000200: 6b12 59bd d40c 25bd 5191 4abd 45b0 93bd
00000210: 6a71 64bd 2959 4cbd edd2 6dbd 65c7 aaba
00000220: 0081 f5bb cd73 bfbb d85a 6439 327f d0bb
00000230: c207 00bc 2c13 5c3b 4e29 00bb bee0 44bb
00000240: fc56 14bc 013a 29bc 85a7 2cbc d172 f9bb
00000250: 3498 01bc 2e0b 1cbc e1fa b3bb 404f 2bbb
00000260: e696 26bb c77d 37b8 6b20 16b7 06e4 5c37
00000270: 47fe 0eb7 a51b 8133 83e1 3538 5cdc 8634
00000280: 5c55 20b4 abf4 8238 f02b db3b 1cbe 043c
00000290: 911f 3c3c 4c98 243b 12c2 273c 2ecf 3b3c
000002a0: 2479 bd3a 4856 e83a dbd1 a239 e359 c6bb
000002b0: 5a34 69bc d9cb a2bc 2b53 1ebc 4152 48bc
000002c0: 77cc 65bc 5c89 a4bb 659b b8bb ba4d b7ba
000002d0: 8b73 59b1 2f32 6eb5 c579 a637 9e23 93b5
000002e0: f5cb 1bb6 930f 0d38 6c8b 6db7 81ef ddb6
000002f0: be4d 4537 0000 0000 0000 0000 0000 0000
00000300: 0000 0000 0000 0000 0000 0000 0000 0000
00000310: 0000 0000 0000 0000 483c 033e d470 f83d
00000320: 649d ab3d 74cc 3e3e 151d 4a3e 55c9 643e
00000330: 233e a23e 053f 9e3e 6226 993e ae8a a43c
00000340: e583 7a3c bcbc 133d df42 c43c 1845 a33c
00000350: 70b8 273d 48da fb3c 27bd c23c 5bd9 103d
00000360: 844d 793e e468 9b3e 53ca c13e 68c4 c63d
00000370: 0038 3c3e 0ebc 9e3e dd59 e83d d28a 6b3e
00000380: 834e d53e ad9f a03d 5785 803d 8958 293d
00000390: d0fe 7d3d c852 4f3d 920d 193d 5a9a 7a3d
000003a0: 22a5 7d3d 6045 443d 0057 633d f883 843d
000003b0: 1352 603d eb5b 213d 7a0d 663d 0c1f 813d
000003c0: bc12 243d 226b 603d 68af 803d 0400 0080
000003d0: 506c 77b3 1a51 4eb4 4924 9db4 1d76 60b5
000003e0: f12c 2633 5b44 c5b2 9b41 a0b6 01e2 5eb7
000003f0: 0499 703e 7a13 493e bb82 2e3e 5768 3f3e
-1.4121477e-05 -2.1328578e-06 6.261987e-06 1.4362172e-06 4.1405024e-06 8.034678e-06 1.2630585e-07 6.1650593e-07
1.2612535e-06 0.0 0.0 0.0 0.0 0.0 0.0 0.0
0.0 0.0 -0.03170187 -0.04243074 -0.040286638 -0.035862923 -0.036578897 -0.033067625
-0.016178211 -0.014269777 -0.016309632 -0.0009244762 -0.00091677695 -0.00016611969 -0.0017199967 -0.0010369029
1.0488438e-05 -0.0014026075 -0.00031843054 0.000565783 -0.042326383 -0.03554711 -0.032283645 -0.059524223
-0.054770067 -0.052107416 -0.0659933 -0.06051653 -0.06138651 -0.0002857187 -0.0014570723 -0.0022963411
-0.0005914864 -0.0009173569 -0.0023419792 -0.0020551668 -0.0025306523 -0.0028318858 -0.003573371 -0.0038713135
-0.003651474 -0.0037326652 -0.002358342 -0.0020323722 -0.0017622623 0.00013811514 0.00091897044 -3.7343845e-05
-1.0685863e-05 5.537659e-07 -1.048532e-05 3.8570963e-08 -1.1201308e-08 -1.384104e-07 -1.3649011e-09 4.4556486e-10
-0.009996237 -0.007007232 -0.0029862577 -0.004263006 -0.00010951786 0.0013462619 -0.0036350912 -0.0029652761
-0.0039195563 -0.012260629 -0.016246645 -0.017270595 -0.015121518 -0.0137064755 -0.012670229 -0.006358345
-0.00588369 -0.0056779333 -1.7727705e-05 1.797644e-05 2.1844711e-05 -2.1483872e-07 3.4345052e-05 4.0140243e-05
-1.9561507e-05 -6.287312e-06 9.042216e-07 0.0 0.0 0.0 0.0 0.0
0.0 0.0 0.0 0.0 -0.003953754 -0.018962258 -0.026195223 -0.015291287
-0.018202512 -0.01739788 -0.0047847796 0.002379892 0.0097856 0.0025360761 0.00544462 0.007649265
0.0012473566 0.005127775 0.009034481 0.0011907341 0.006819899 0.011150267 -0.01969885 -0.031629503
-0.05299608 -0.040295437 -0.04945499 -0.07211355 -0.055772223 -0.049889717 -0.058062483 -0.0013029395
-0.0074921846 -0.005842662 0.00021777616 -0.006362819 -0.00781435 0.0033580763 -0.001955587 -0.0030041183
-0.009053942 -0.010328771 -0.010537987 -0.007612564 -0.007909823 -0.00952415 -0.0054925536 -0.0026139766
-0.0025419532 -4.374774e-05 -8.948245e-06 1.3166113e-05 -8.523063e-06 6.012059e-08 4.3363787e-05 2.5119778e-07
-1.4932215e-07 6.244456e-05 0.0066885874 0.008101966 0.011482135 0.002511519 0.010239141 0.01146297
0.0014455658 0.0017725909 0.00031055402 -0.006053196 -0.014233673 -0.019872593 -0.0096633835 -0.012226642
-0.014025799 -0.0050212573 -0.005633759 -0.0013984956 -3.1643335e-09 -8.8734936e-07 1.9845445e-05 -1.096272e-06
-2.3215518e-06 3.3631524e-05 -1.41587625e-05 -6.614195e-06 1.1760216e-05 0.0 0.0 0.0
0.0 0.0 0.0 0.0 0.0 0.0 0.12815964 0.12130895
0.08379629 0.1863268 0.19737656 0.22342427 0.31688032 0.30907455 0.29912096 0.020085659
0.015290235 0.036068663 0.023957668 0.019930407 0.040947378 0.030743733 0.023771835 0.035363536
0.24345976 0.30353463 0.37849674 0.0970543 0.18380737 0.3100285 0.11345265 0.23002174
0.41661462 0.07842956 0.062754326 0.0413442 0.062010586 0.050616056 0.037366457 0.061182357
0.06192506 0.047917724 0.05550289 0.064704835 0.054765772 0.0393943 0.056165196 0.0630475
0.04005693 0.05478967 0.06283456 -6e-45 -5.760768e-08 -1.921475e-07 -2.926993e-07 -8.361838e-07
3.869076e-08 -2.2964903e-08 -4.776009e-06 -1.3284852e-05 0.23495871 0.19636336 0.17042057 0.18692146

momentum_buffer f4 [16]
00000000: 203e 1dbd e8a5 083c 0700 383f c409 6cbd
00000010: 6bb2 18bf dce3 caba c0d5 f33d b6d7 3fbd
00000020: 3efe 86bc 18d3 913b fe8f 0bbd 4357 5c3d
00000030: 362d f6bc 7e19 843e ab4e 8c3e b2ad d33d
-0.038389325 0.008340336 0.7187504 -0.0576265 -0.59647244 -0.0015479284 0.11906004 -0.046836577
-0.016478654 0.004450213 -0.03407287 0.053794157 -0.030050855 0.258007 0.2740377 0.10335864
