Pytorch face detection - Test/MTCNN_train_process/1/checkpoint_1300.pth (torch, 156781 bytes, 24 tensors)

conv1.weight f4 [10, 3, 3, 3]
00000000: 827a 7fbe ce36 80be 4428 07be d2ec 89bd
00000010: 87f2 ae3d 291b 30be a893 9a3c 2f0e 51be
00000020: 8825 84bd 7d7e 3b3e 35b4 6b3e 06bd 083f
00000030: 9645 8d3e ec54 fb3e d485 9d3e cbbd b13e
00000040: e3a1 c83e 0e83 743e 19a9 383e b4ce 2b3e
00000050: ddf0 92bd deb7 18be 8a62 c6be 3b6a dbbd
00000060: 8129 58be bcd7 c8bd 7cbc 523e d38f a5bd
00000070: df6f a3be 1764 c03e 7301 19bf 4a7b a4be
00000080: adef 383e db67 fabe 1beb 4ebd 80a7 12be
00000090: ee66 bd3e 1cc0 47be e6b8 873d afe3 6c3d
000000a0: 77c3 cdbc 95cd 37be 1dc2 5a3e e680 bd3e
000000b0: e970 973d d02e 773e fdf1 01be 5254 e3be
000000c0: 21b0 fd3e 43ad 573e 6093 c6bc a248 b13e
000000d0: 0680 943e 795d 3abe 8217 983e 957a b73e
000000e0: 7778 8b3e 1488 d53e 5186 563e 4e44 d63c
000000f0: 68dc d3be 7878 10bf be3f a6be 46c8 463e
00000100: ec37 7e3e 6c39 583d 51e4 cf3d a58f b7bd
00000110: 3491 9abe 8d0b c8be eb64 d0be 77fa fb3d
00000120: b2c1 553e 99f1 9f3e 6537 943e bf94 433e
00000130: 868b 713d d897 a8be 6210 abbe d5d3 b8be
00000140: 662a 963e 246d 953e e267 2abf 5399 1c3f
00000150: b838 443e c2e8 0cbf 260a af3c f711 7e3d
00000160: 193a 0fbd 4bd9 fcbd 3e5b c13d c09a 06bf
00000170: 3aff 543f 5d49 973e 1cd6 30be 75fd 7e3e
00000180: 2961 dcbd e448 98bd 715c 04be a50d 64bd
00000190: f1ff abbe 0374 5e3e c62c a43d 6012 82bc
000001a0: ac33 48bd f54e ee3c f702 e93d cbe4 8fbe
000001b0: 8594 b7be 9ea5 6ebe c4c4 16bd ff65 6bbe
000001c0: cff8 3abe 53e2 bbbd 5038 dbbd c7ee 81bd
000001d0: e774 20bd 5f47 f73e ae47 3a3e 88f0 8b3e
000001e0: 6b8d a73e cf39 853e c26e dd3c 59a1 3f3e
000001f0: cf30 443e 462d 06bc 5aa6 31bb 6108 a13d
00000200: 9551 7abe 2ec4 7bbd eb93 963c 21bc 693d
00000210: 44f1 dcbd ed7f ccbd 91d4 183d e21c b73e
00000220: f06d 6b3e d08d 29bf ddc8 093f 4878 193e
00000230: 074e f3be 1980 593e 2c07 233e 37fe 51be
00000240: 2d8e b93d a6b9 cf3d 37e9 79be a51b 8a3e
00000250: 36b0 923c 23e1 dbbe ac4b 363e 1ee4 ecbd
00000260: 71cf bbbe c419 3d3e a29c be3c 70fe fbbd
00000270: 6ee6 4e3e 5fa6 b4bd 4d28 56be 3f20 963e
00000280: 4893 b5bd 0151 5c3d 1367 893e cbd0 fbbd
00000290: 0cc6 b03d 28df 173e 831b 3bbe 333a 5cbd
000002a0: 96d5 84be 3922 f9bd 7d85 47be 3a87 573d
000002b0: 067c e5bd 1c2f 65be 7951 12be c162 37be
000002c0: 4e90 b9be 4477 b23d f06b 303e c2df bd3c
000002d0: b99a 55be 75cb 0fbe a292 d33b ecee bc3d
000002e0: fe66 04be aaaf 9ebd 18a1 d9bc b67d f63d
000002f0: a1cf 043e 67b0 6e3b b30d 8f3c 46f1 e03c
00000300: e9af ae3e b5df b63e 202b 4e3d 0562 673e
00000310: d89f cf3e 87b5 03be c58a 9a3c 70b4 9b3c
00000320: 4a66 68be 6276 bebe c523 bdbe 2f3a a7be
00000330: d4ee c3be 18ed c3be 4e83 91be e183 013d
00000340: 8c98 03bd d5dd 1b3e 232b 03be e23e 9fbc
00000350: cb84 ae3e 2b59 973d ea0f a8bd 1fa5 a03e
00000360: 08f7 28bf 9c7c 63bf cc7c 42bf 1490 d03e
00000370: c9ba 983e 0f1b 3cbe 9d50 043f 6a2c 0a3f
00000380: 664b 073f 58ed db3d 5747 4dbe aee4 303d
00000390: d2f4 9a3e 0f08 7e3e 05f6 5c3c 77c2 a2bd
000003a0: d256 dabd fc0b 4cbd eb29 0f3e 6e0b cebd
000003b0: 11db a4bc e029 26ba c0ac 163d b342 87bd
000003c0: 2b1a 82bd d7f7 5e3c 665e 12be b9ae 5abf
000003d0: 498c 0ebc 7eaa f93e 56bc 00bf 7457 c43e
000003e0: aade 943e e6d9 edbe 7cfa cf3d decc 9a3e
000003f0: e9bf 5e3e d010 5fbe 4c74 27bd c07f 9ebd
-0.24949077 -0.25041813 -0.13198954 -0.06734623 0.08542352 -0.17197861 0.018869236 -0.20415567
-0.06452471 0.1830997 0.23017962 0.53413427 0.27592152 0.49088228 0.30766165 0.34715113
0.3918601 0.23878118 0.18033256 0.1677807 -0.07174847 -0.1491389 -0.38747054 -0.10713621
-0.21109582 -0.09806773 0.20579714 -0.08084073 -0.31921288 0.37576362 -0.59767836 -0.32125312
0.18060179 -0.4890736 -0.050517183 -0.14321709 0.36992592 -0.19506878 0.066270635 0.057834323
-0.025117619 -0.17949517 0.21363111 0.37012404 0.07394583 0.24138951 -0.12689967 -0.4440027
0.49548438 0.21062188 -0.024240196 0.34625727 0.29003924 -0.1819972 0.29705435 0.3583571
0.27240345 0.41705382 0.20949675 0.026155617 -0.41379094 -0.5643382 -0.32470506 0.19412336
0.2482602 0.052789137 0.1015097 -0.08962945 -0.30188906 -0.39071313 -0.40701994 0.12303632
0.2087467 0.31239012 0.28948513 0.19099711 0.05897095 -0.32928348 -0.33410937 -0.36099115
0.29329222 0.2918483 -0.6656476 0.61171454 0.19162261 -0.5504266 0.021367144 0.06202885
-0.034967516 -0.12346133 0.09441231 -0.5257988 0.83201945 0.2954816 -0.17269176 0.24901374
-0.10760719 -0.07435778 -0.12925889 -0.055677075 -0.33593705 0.21723942 0.08016352 -0.015877903
-0.048877403 0.029090384 0.113775186 -0.28104243 -0.358555 -0.23305365 -0.036808744 -0.22988127
-0.18258975 -0.09174027 -0.107041 -0.06344371 -0.039173987 0.4829664 0.18191406 0.27331948
0.3272508 0.26020667 0.027030353 0.18713893 0.19159244 -0.008189505 -0.002710721 0.07862926
-0.24445184 -0.06146639 0.01838108 0.05706418 -0.10788205 -0.099853374 0.037312094 0.35764223
0.22991157 -0.66232014 0.5382212 0.1498729 -0.47520468 0.21240272 0.15920705 -0.20507132
0.09060321 0.101428315 -0.2440537 0.26974216 0.01790629 -0.42945203 0.17802304 -0.115669474
-0.36681703 0.1846686 0.023268048 -0.123043895 0.2020509 -0.08820795 -0.20913811 0.29321477
-0.08865982 0.05378819 0.26836452 -0.122956835 0.086315244 0.14831221 -0.18272214 -0.05376644
-0.25944203 -0.121647306 -0.19484515 0.052619196 -0.11205296 -0.22381252 -0.14288892 -0.17908765
-0.36242908 0.08714154 0.17228675 0.023177985 -0.20859803 -0.14042456 0.006456689 0.09225258
-0.12929913 -0.07748349 -0.026566073 0.12035696 0.12969829 0.0036421062 0.017462587 0.027458798
0.34118584 0.3571755 0.050334096 0.22595985 0.4055164 -0.12862216 0.018864999 0.019006938
-0.2269527 -0.37199694 -0.36941352 -0.32661578 -0.3826815 -0.38266826 -0.2842049 0.03161991
-0.032127902 0.15221341 -0.12809424 -0.019439165 0.34085688 0.07390054 -0.0820616 0.31375977
-0.6600194 -0.88862014 -0.75971675 0.40734923 0.29830006 -0.18369697 0.51685506 0.5397402
0.52849424 0.10738629 -0.20046745 0.043186836 0.30264908 0.24807762 0.01348639 -0.079472475
-0.10661091 -0.049816117 0.13980834 -0.10060774 -0.02012399 -0.00063386373 0.03678584 -0.06604519
-0.063526474 0.013608894 -0.14293823 -0.85422856 -0.008700439 0.48762888 -0.5028738 0.3834797
0.2907613 -0.46455306 0.10155198 0.30234426 0.21752895 -0.21783757 -0.040882394 -0.0773921

conv1.bias f4 [10]
00000000: 4ccb 60bd 8e64 3d3d 413c 0bbc 360a 13bc
00000010: 8e4f 4abe c5d1 69bc a84c 813e 7b8d a9bd
00000020: d2b0 c83d f619 fe3e
-0.05488138 0.046238475 -0.008498252 -0.008974602 -0.1975691 -0.014271204 0.25253797 -0.082789384
0.09799351 0.49629182

conv2.weight f4 [16, 10, 3, 3]
00000000: 55fd 243e ee7f 0cbe ed4e 20bd e8b0 ddbd
00000010: 8b67 963c a011 c1bd 647e 98bd cbf4 bc3d
00000020: a60c 403d 2653 debc b96c c9bd 2b47 9b3c
00000030: 8f8c c03d e50b 44be 3ed2 4fbd 69ab 70bd
00000040: 773a 433e ec9e 0e3d ae39 813e eae3 77be
00000050: 2338 62bd 82f5 29be b41a 863d 09d4 133e
00000060: 9099 10be 142b 5d3e 44d9 313e 6ae0 7c3c
00000070: b892 6cbc 392e ed3d a469 1f3e f3e9 6ebe
00000080: c630 2cbe 5c1b 123e 9b80 34bd 4cc4 24bd
00000090: 99a3 babc be26 0cbd ca44 093e 524e da3d
000000a0: 9f31 ecbc ee89 0cbc 4355 b63d df24 363d
000000b0: b130 c33d 9753 f23d 944e 46be 1fc7 1dbe
000000c0: 988c 4fbe 0a83 7cbe 2d9b 143e 3db6 17be
000000d0: d7f7 6c3d 3ae9 88bd c6e3 edbd 6e69 c03c
000000e0: 8a32 a23d fb9b 1ebd 11c4 8a3d 035d 10bc
000000f0: 04e7 0d3d 9d15 66bd d50e 4e3d 079a 14bc
00000100: 6b36 073e 850c a33c 576f fdbd 431c 6e3d
00000110: d2a7 b3bc 3101 853c 3cf5 99bd da92 e6bd
00000120: 16e2 b9be 8994 e43d 8719 f53e 8e2e ed3d
00000130: d77c c9bd c74d 293c a59a cc3c 28cd 77bd
00000140: 0c54 cb3d 6eee ddbe a5cc 31be eba1 d6bd
00000150: 99b4 3b3e 5e5e 5d3e c62b 01be b368 27be
00000160: 8959 e83c 331e 9c3d d932 59bd 1f25 8dbd
00000170: e7a2 6f3d 4317 2a3c bd43 80bd 0ad4 213d
00000180: f656 9dbd 9f5a 90bd e508 b7bc 71b4 903d
00000190: c440 613d 177c 91bd e66e 94bd b85c 143d
000001a0: b695 02bc 7820 613c 5648 a43b 9b48 9dbd
000001b0: 118c a5bc 4c1c 1cbd eb2c d8bc 6476 703d
000001c0: 20e8 d8bd 7695 62ba e5a1 bf3d 7fe5 d5bd
000001d0: 1db4 fb3c 5c30 d43d a4b8 5e3d 898e 3b3d
000001e0: ccf2 26bd 33a7 0d3d fcb2 d73a ea15 d03d
000001f0: 833d d3bd 2bbf 403d 5ce5 83bd db0d c2bd
00000200: d3e0 ca3d 9035 ae3c 469d 6dbd 1f0b cabd
00000210: 0661 adbc 7b5c bcbc d688 02bc 7170 0bbd
00000220: 0278 d03c 0e53 833d ea7a b9bd be95 43bd
00000230: 8345 9e3d e5e8 d2bd 9442 993d c147 0ebd
00000240: 94c5 f83c 9fd1 5abd 68a8 543d 5527 7f3c
00000250: 7e75 c1bc 681f d03d 50df bcbd f944 c13d
00000260: 1df3 943d 1ea9 86bc 37c5 05bd 53ae aa3d
00000270: e63c 283d 0800 c2bd 3c0c aabd 6153 d5bd
00000280: 09b2 39bd 45de 9abc 730a c63c 3a8f 423d
00000290: be14 dabd 56ac 293d a849 b53c 6d3d c53c
000002a0: 4bc4 c6bd ac07 96bd e1e4 90bc c418 473d
000002b0: ca26 11bd 7fc3 27bd 7336 d23b 521d da3a
000002c0: a0cd 99bc df2f 533b 995b 6dbd bb6f ac3d
000002d0: 5a05 db3e b8f7 303d 83a8 863e 8a00 b3be
000002e0: 82b2 22bf 30a5 39be 5252 253e 8928 5abe
000002f0: 795b b03e abf9 db3d 9759 f4bd 1c35 003c
00000300: b3e1 3dbd 09aa 63be 9149 73be 1912 b73e
00000310: 9a85 6bbe 248f dbbd 69fa 18be ae1a 933e
00000320: 7497 a1bd 3340 95bb 70e7 93bc 3ec9 c8bd
00000330: 84c0 a4bd 1865 8e3d 772c cf3d 1083 b8be
00000340: 0847 2bbe d4af 343e d9e4 9b3e 8a09 393e
00000350: f8c9 bdbb e95a e73d 1904 8cbd 0150 8dbe
00000360: ed79 52bd 6c16 623c ee18 adbd 86f0 a8bd
00000370: 6302 573e 6b2e 2c3e f3ff d0bb 5505 613d
00000380: 41d9 cabc ecb8 233c 9d5e 3fbe fdb9 273d
00000390: b7cb ea3d 6271 853e d053 e4bc a7d1 0abe
000003a0: 70c9 37be 1564 493e 6b60 acbd ff08 95bd
000003b0: 94dc 0d3e 3f85 89bd 0216 dfbb 9487 e73c
000003c0: 3ac9 01bd 57f5 d2bd bebd 56bd 12fa a4bd
000003d0: 2e72 41be 2a50 c4bd 8b7a 8ebd 54e9 80be
000003e0: 682b dcbd 68cc a73c 5560 1ebe 3440 553d
000003f0: ce35 e4bd fb5a 92bd ee39 3d3e b161 5b3e
0.16112264 -0.13720676 -0.03913777 -0.10824758 0.01835992 -0.0942719 -0.07445982 0.09226378
0.046887062 -0.027139258 -0.0983519 0.018954834 0.094018094 -0.19145162 -0.050737612 -0.05875722
0.19065271 0.03481953 0.2523932 -0.24208036 -0.055229317 -0.1659756 0.06548062 0.14436354
-0.1412108 0.21598464 0.17368037 0.015434364 -0.014439277 0.11581082 0.15567642 -0.23331432
-0.1681548 0.1426825 -0.04406796 -0.040226266 -0.022783088 -0.034216635 0.13405147 0.1065947
-0.028832255 -0.008577807 0.08902981 0.044468757 0.095307715 0.1183235 -0.19365913 -0.1540799
-0.20268476 -0.24659362 0.1451232 -0.14815612 0.057853546 -0.066851094 -0.1161571 0.023487773
0.07919796 -0.038722973 0.06775678 -0.008811238 0.03464414 -0.056172956 0.050307114 -0.009069926
0.13204353 0.01990343 -0.12374752 0.05813242 -0.021930609 0.01623592 -0.07517478 -0.112584785
-0.36305302 0.11161143 0.47871038 0.11581145 -0.098382644 0.010333485 0.024976084 -0.060498387
0.0992814 -0.4334597 -0.17363222 -0.10480102 0.18330611 0.2161803 -0.12614354 -0.16348533
0.028363006 0.076229475 -0.053027008 -0.06891846 0.058504965 0.010381523 -0.0626292 0.039508857
-0.07682602 -0.070485346 -0.022343108 0.070656665 0.054993406 -0.071037464 -0.07247715 0.036221236
-0.007970264 0.013740651 0.005013506 -0.07679864 -0.02020839 -0.038112924 -0.026388606 0.058706656
-0.10591149 -0.0008643487 0.09357051 -0.104441635 0.030725533 0.10360786 0.054375306 0.04579023
-0.040758893 0.03458328 0.001645654 0.1016043 -0.10314467 0.047057312 -0.06440231 -0.09475299
0.09906163 0.021265775 -0.058011316 -0.098654024 -0.021164428 -0.022993317 -0.007967195 -0.03404278
0.02544785 0.06412326 -0.09056647 -0.047750227 0.07728102 -0.10298327 0.07483402 -0.0347364
0.03036765 -0.053422567 0.051918417 0.015573342 -0.023615595 0.1016224 -0.09222281 0.094369836
0.07272933 -0.016438063 -0.03265878 0.08334031 0.041073702 -0.09472662 -0.08303115 -0.10416294
-0.045335803 -0.018904814 0.024174904 0.047499873 -0.106484875 0.041424118 0.022129849 0.024077142
-0.09705409 -0.07325682 -0.017687263 0.048607603 -0.035437383 -0.040957924 0.0064151823 0.0016640818
-0.018774807 0.0032224578 -0.057948682 0.084197484 0.4277752 0.043204993 0.2630044 -0.3496135
-0.6355363 -0.1812942 0.16144684 -0.21304525 0.34444788 0.1074098 -0.119311504 0.007825162
-0.04635782 -0.22232832 -0.23758532 0.35755995 -0.23000184 -0.10720661 -0.14939274 0.28731292
-0.078902155 -0.0045547723 -0.018054694 -0.09804009 -0.08044532 0.06952876 0.10115903 -0.36037493
-0.16726315 0.17645198 0.30448034 0.18070045 -0.005791899 0.112966366 -0.06836719 -0.276001
-0.05138581 0.013799291 -0.084520206 -0.08249001 0.20997004 0.16814582 -0.006378168 0.054936726
-0.024761798 0.009992819 -0.18688436 0.040948857 0.11464637 0.26063067 -0.027871996 -0.13556539
-0.17947936 0.19667085 -0.08416828 -0.072771065 0.13853675 -0.06714868 -0.0068080435 0.02826289
-0.031686045 -0.10300701 -0.052427046 -0.080555096 -0.18891212 -0.095856026 -0.06956967 -0.25178015
-0.107504666 0.02048321 -0.15466435 0.052063182 -0.11143075 -0.071462594 0.1847913 0.21423985

conv2.bias f4 [16]
00000000: 08e6 5b3e 2fad 24bd 0edc 953e f91c 193e
00000010: b5a1 c4bd 9406 1d3b 8472 4d3f d884 f6bd
00000020: e9a2 303d d2a2 c7bc 9f8f 2b3d 517d 38be
00000030: df60 c93e a8a2 b03e b8b1 003d 6b8a e63d
0.21474469 -0.040204223 0.2926945 0.14952458 -0.09601156 0.002396022 0.8025286 -0.12037057
0.043124113 -0.024369631 0.041885015 -0.18016554 0.3933172 0.34499097 0.031419486 0.1125687

conv3.weight f4 [32, 16, 3, 3]
00000000: 038f a2bc f51a 283d abd9 3abd 90e0 8bbd
00000010: 523d b1bd c06f 73bc 03ab fa39 5a74 8bba
00000020: 7b92 0f3d 9415 92bd 6a5b a23d a30c 82bb
00000030: 8874 543b 5bec cb3b 7b22 56bd 0488 8cbd
00000040: eec5 8fbd 3501 823d b384 13bc 4112 823d
00000050: 8bfe 4a3d bf1f 413d fe64 b4bc 7d91 9d3d
00000060: bff8 583d d4d8 313c 7c47 563d 22b1 5b3d
00000070: a632 7ebd 3c21 a1bc 13f0 1bbd 5862 9e3d
00000080: 444f 42bd 8918 283d 0ecf 30bd 9995 abbc
00000090: f32b ae3c 7760 6bbd 9992 b2bc aff4 863d
000000a0: 702f c1bc a721 f7bc 1ba9 f5bc f8fb 40bd
000000b0: d869 f73c 24e8 0cbd 7a8b b1bd 3b25 9fbc
000000c0: 604f 1cbd 0dd6 83bd 8f84 b3bd 1fa4 8abd
000000d0: 1c29 97bd 03a3 0ebd 00c3 d4bd 71cf da3c
000000e0: d2af 2c3d 007c 84bd 738a 963d c675 26bb
000000f0: 6213 49bd b075 4abd 5e47 fabc 7ed7 82bd
00000100: 4402 7e3d cbc0 56bd 4ee3 413d a3e9 ab3c
00000110: b420 583d 676a 18bd 5a29 813d 037f 1f3c
00000120: 50d6 ee3d 3ca9 58bd 19d6 98bb 247d 18bb
00000130: 94aa 0ebd 942f 103c 8282 c8bc baf7 aebc
00000140: 0acd 993c a5d7 33bd 9fa3 cb3c 4290 ddbd
00000150: b3b0 0ebd d576 9fbd 6252 eebc 28d2 973d
00000160: 96a7 12bd 21a3 d03b 2308 d1bb a588 7f3c
00000170: 3668 b43b d03e 713d 341f 233d ab13 76bd
00000180: 8779 57bc ab19 413d d976 1cbd d92b d73d
00000190: f081 b43d 6a7a 4ebd d40b 1b3d 850b acbc
000001a0: c1fa 1dbd 57c7 21bd 0ece ed3b eb62 823d
000001b0: 7726 0c3d 7949 2a3c 17f8 0fbd 16bd 6c3c
000001c0: 3022 a43d c5a0 04bd 7ef3 593d 91f1 6dbd
000001d0: 54a5 8ebd d1d1 b43d b334 5a3d 4815 3abd
000001e0: bc7d b8b9 3a6f 6f3d be2b 6e3d 57ac db3d
000001f0: 1c95 a6bc f903 e73d b027 213d 523c b5bb
00000200: 377d f83d 9cf4 b93d e4df 853d 6451 9c3d
00000210: 0d54 2e3b 325c 9a3d 121a 8e3d de5b 9cbc
00000220: 1f82 85bd ed85 ffbd db2b 23bd 5ee6 57bd
00000230: 7018 0c3c 1abd c0bc 5c10 e23c 3d3d 15bd
00000240: 73fb 7c3d 6090 82bd 3d4b 553d 2d13 e83c
00000250: f222 e3bb 114f 883c 2ef7 9e3d 6593 853d
00000260: 9757 53ba 6fd9 cd3c ab58 9abd 9a8c 803d
00000270: d6d4 863c 443b 25bd 7faa 92bd daf8 4c3d
00000280: e4a8 9dbd fc3c a3bc 5862 aa3b 3c00 623d
00000290: 00d7 3fbd 7123 20bd e3e0 a7bd 0be4 bc3c
000002a0: 5eb1 853c 3a42 403d 13ed 72bd c853 843d
000002b0: bb64 3fb9 58b6 993d 6f9b db3c ca58 653d
000002c0: 01aa d5bc fc27 f73c 379f 47bd 6e15 97bb
000002d0: 9ea5 ca3a 4123 40bd ac75 57bd 575b 8fbd
000002e0: f05e 613c a212 553d 2d6a 97bd 028a 8abd
000002f0: f167 a3bd 812d 7cbb a385 713d bcc4 863d
00000300: 6d77 153d 7061 8cbd a4c9 743d 0aff 823d
00000310: 4dac ff3b a21b 75bd 267f 94bd 6b18 943d
00000320: 2493 c63a 1516 8bbd 1a50 0b3d 43b4 1eba
00000330: 8b03 a9bc 2763 d93c 0dc6 793b 8ee4 793d
00000340: 0859 b3bb f963 96bd 5f2a 61bd c463 babb
00000350: 028b 6dbd d5c9 143c 8fca 6d3d 790d 8fbc
00000360: 18af 83bd 1476 a03d fb7c ad3c f396 ac3c
00000370: eefb 9ebc 733d aabd 3ee9 353d 4dd2 5fbc
00000380: 5e46 5ebc 3a9d 1bbc b5c8 8bbd ea65 9ebd
00000390: 7005 89bd 3f8f 73bd cfa7 803d dcef 74bd
000003a0: 7c3e f9bc 713b 4cbc 8c4f 9d3b 6a90 48bb
000003b0: 8c51 dc3c 04af 43bd 1986 5c3d cb72 913d
000003c0: e8e2 25bd 2770 83bc cd17 94bd e940 65bd
000003d0: 1200 40bd e07e 20bd 1d62 8a3c de75 113d
000003e0: 89c2 a53c b36c e93c 5443 18bc 3abd 0b3d
000003f0: 0560 6cbc 09d4 533d 022a 47bd 40e6 b6bb
-0.019843584 0.041041333 -0.04561774 -0.06829941 -0.08654274 -0.014858186 0.0004781113 -0.0010639534
0.035051804 -0.07133022 0.07927592 -0.0039687916 0.003241809 0.006223244 -0.052278977 -0.068618804
-0.07020174 0.063478865 -0.009003806 0.06351138 0.049559157 0.047149416 -0.022020813 0.07693765
0.052971598 0.0108549185 0.052314267 0.053635724 -0.06206002 -0.019669168 -0.03807075 0.07733601
-0.047438875 0.041039024 -0.043166213 -0.020945357 0.021261191 -0.057465043 -0.021798419 0.065896384
-0.02358219 -0.030167414 -0.029987862 -0.047115296 0.030201837 -0.034401074 -0.08669181 -0.019426933
-0.038161635 -0.06437311 -0.08765518 -0.06769585 -0.07380888 -0.03482343 -0.10388756 0.026710244
0.042159863 -0.064689636 0.07350626 -0.0025399788 -0.04909075 -0.04942864 -0.030551609 -0.06388758
0.06201388 -0.052429955 0.047335915 0.02098543 0.052765563 -0.03721085 0.06306715 0.009734872
0.116619706 -0.05289577 -0.0046641943 -0.002326795 -0.034830645 0.008800406 -0.024476293 -0.02135836
0.018774528 -0.043906827 0.024858294 -0.108185306 -0.034836482 -0.07786337 -0.029092018 0.07413131
-0.035804354 0.0063671027 -0.006379144 0.015596543 0.005505587 0.058897793 0.03982468 -0.06007735
-0.013151533 0.04714362 -0.03819928 0.1050641 0.08813846 -0.050409712 0.037853077 -0.021001587
-0.038569216 -0.039496746 0.0072572296 0.06366523 0.03421637 0.010393494 -0.035148706 0.0144493785
0.08014333 -0.032379884 0.053210728 -0.058091704 -0.069651276 0.08829082 0.053272914 -0.04543045
-0.00035188894 0.058455683 0.058147185 0.107262306 -0.020334773 0.112800546 0.03934449 -0.0055308724
0.12133258 0.09079859 0.065368444 0.076327115 0.002660039 0.07537116 0.06938566 -0.019086774
-0.06518959 -0.12476716 -0.039836746 -0.05270993 0.008550748 -0.02352767 0.027595691 -0.036435355
0.06176324 -0.063751936 0.052073706 0.028329456 -0.006931656 0.016639264 0.077619895 0.06522254
-0.0008062063 0.025128094 -0.07536443 0.062768176 0.01645891 -0.040339723 -0.07161426 0.05004201
-0.07698229 -0.01992654 0.005199712 0.055176005 -0.0468359 -0.0390963 -0.081971906 0.023057958
0.016319927 0.04693816 -0.059308123 0.064612925 -0.00018252704 0.075054824 0.026807515 0.05599288
-0.02608204 0.030170433 -0.048735823 -0.004610709 0.0015460735 -0.04690862 -0.052602455 -0.069998436
0.013755545 0.052019723 -0.07393298 -0.06764604 -0.079788096 -0.003847927 0.058965337 0.06580493
0.036490846 -0.06854522 0.059762612 0.06396301 0.0078025223 -0.059840806 -0.07250814 0.0723122
0.0015150052 -0.06791321 0.034011938 -0.0006054083 -0.020631572 0.026536537 0.0038112432 0.061008982
-0.00547326 -0.07343287 -0.05497205 -0.0056881625 -0.057993896 0.009081324 0.058054503 -0.017462479
-0.06429881 0.078350216 0.02117776 0.021068072 -0.019407239 -0.08312502 0.04441189 -0.013660979
-0.0135665815 -0.009497935 -0.06825391 -0.07734282 -0.0669049 -0.059462782 0.06282007 -0.05979906
-0.030425303 -0.012465344 0.0048007425 -0.0030603656 0.026894353 -0.04777433 0.053838823 0.07101973
-0.040499598 -0.01604469 -0.07231102 -0.055970106 -0.046875067 -0.039183497 0.016892487 0.035512798
0.020234363 0.028494215 -0.009293396 0.034116007 -0.01442719 0.051715884 -0.048624046 -0.005581647

conv3.bias f4 [32]
00000000: 017d 523e 805b 7ebd 4a0b 893e ee68 d1bd
00000010: bd01 8bbd fbb4 d83a 2342 cb3d 52c2 333b
00000020: ef29 94bc d55f 293d 199c e7bc 8274 e13e
00000030: a6a8 1e3e e86e c1bd a8be b93d 83cb 6d3e
00000040: c2af a8bb ceb6 a53d 6861 a33d 925c 083e
00000050: 5f61 1f3c 41c7 d9bc 59fa b73e 932f 9e3e
00000060: f7b5 a93c 67aa d13d 2aba a93d 51c8 03be
00000070: 406d 86bd 0bbf e73e 3296 03bd bf5a 693d
0.20555498 -0.06209898 0.26766425 -0.10225092 -0.06787441 0.0016533429 0.09924724 0.0027429056
-0.018086402 0.04135116 -0.028272675 0.440342 0.15494022 -0.09444982 0.09069568 0.23222165
-0.005147905 0.08091508 0.07977563 0.13316563 0.009727805 -0.02658427 0.35933188 0.3089567
0.02071665 0.1023758 0.08287461 -0.12869383 -0.065638065 0.45262942 -0.03212566 0.056971308

conv4_1.weight f4 [2, 32, 1, 1]
00000000: 9cf0 49be 8cbe c83d f08e f7bd 1ef6 24bf
00000010: 4a31 59be fff4 2bbe 9975 dabd 3f6d 183e
00000020: 3e79 aebd 3ee1 4fbe 4db6 6bbe d3d6 6ebf
00000030: a775 c7be eba8 8b3e 78d5 403f 44ce a23e
00000040: e390 b63e 736a b83e dfe8 a93e 9e85 9e3e
00000050: 5d51 1b3e 5859 fcbc f0b2 79be 315c 1e3e
00000060: b82f 073e 8042 c5bf abed 483f ec86 8dbd
00000070: 296e fb3d fb9c 6d3f a806 293c 42e2 8abe
00000080: 4c4e 993e 3eb6 8abd c49d e4bc d59c 413f
00000090: 9e52 653e 189b 533d 79bb 003e ef1d 79bd
000000a0: 2e73 393e 9543 4d3d babf e43d 4b85 6b3f
000000b0: 5a30 a83e 3c6d 70bd d807 4fbf 3cd7 dbbe
000000c0: 7a54 edbe 50ee 02bf 4671 18bf da89 cabe
000000d0: 3b69 cbbd 067b eb3d e00e 6c3e f9b6 85be
000000e0: 2b5c f6bd 08a0 c23f f8c4 52bf af2c 193e
000000f0: 7d5c e7bd 922c 66bf b417 bfbd 7d7c 093f
-0.19720691 0.09801969 -0.1208781 -0.64438045 -0.21210209 -0.16792677 -0.10666961 0.14885424
-0.08519219 -0.20300767 -0.23018761 -0.93296546 -0.3895695 0.27277312 0.7532573 0.31797993
0.35657415 0.36018714 0.3318548 0.30961317 0.15167756 -0.030804321 -0.24384665 0.15464856
0.13201797 -1.5410919 0.7848765 -0.069105 0.12276871 0.9281766 0.010316528 -0.27125746
0.29942548 -0.06773041 -0.02790726 0.7562993 0.22394797 0.05166158 0.12571515 -0.060819563
0.18110344 0.05011328 0.111693814 0.92000264 0.3284939 -0.058697924 -0.80871344 -0.42937648
-0.46353513 -0.51144886 -0.5954784 -0.39558297 -0.099321805 0.11498074 0.2305255 -0.2611616
-0.120292984 1.5205088 -0.823318 0.14958452 -0.112969376 -0.8991176 -0.09330693 0.5370558

conv4_1.bias f4 [2]
00000000: 6bb5 ebbd ece9 373e
-0.11509212 0.17960328

conv4_2.weight f4 [4, 32, 1, 1]
00000000: 9ad1 f83d 1210 80bc ae60 07be 873b c83d
00000010: 5287 103e ee14 8cbd e46d c43d 7b71 043d
00000020: 264a 293e 14e8 6b3e f732 a03c 7085 54bd
00000030: 1ceb a73d 2d68 8e3c 2686 a03b bef1 703c
00000040: c856 7a3e b331 a53e c77c 29bd cdff d5be
00000050: a361 3f3d 58ca 26be 50fd 35be 8b6b 56be
00000060: f25f a2bd de7a 8abc f1a4 5c3d 0d70 cf3d
00000070: aeb2 483d 3683 d1ba 5815 d6bd 7c7e f9bd
00000080: 55df 8dbc ec0e eebd 82f1 39bd 80f4 36bd
00000090: 747b 133b 6a7e 17be 6e32 50be cd30 e0bc
000000a0: dabf abbd 2899 80bd 0cb1 353d b69a 8dbb
000000b0: 90b3 fabd c37f 24be f85f 013e 4306 e53d
000000c0: fc24 a3bd 7f5e 803e 189a 313e d12d 333d
000000d0: 6e7b 01bc a69c 9cbd 3333 ea3d 1fcc 8abe
000000e0: bd13 923d 6b62 c23d 9397 10be c8a1 4ebe
000000f0: 9a9e 283e 3c26 45bd 17b8 263e b7e6 8cbe
00000100: e152 e2bc 3eff 01be da1c 6e3e e7b2 e8bd
00000110: c42f 703d 3c57 733d 928d 1cbd c661 bc3d
00000120: 82a1 c6bd 3964 c23d 3749 92bb 584e 4b3d
00000130: 7344 c03c 430b 90bb 69d3 223c 32b1 303e
00000140: c319 52bd 9fcb c63d 87a1 08be e846 cabd
00000150: bb81 1cbe fe48 9fbd aeb9 513e 97d1 b43d
00000160: 9302 d93c 1956 db3b 7391 86bd 8130 163d
00000170: 6004 82bd 9f72 2c3c 43c9 aabd adf4 523d
00000180: e2c8 da3d f07f 99bd cb57 063d 201d ceba
00000190: 9773 7dbc 0cea 27bc 789d 473e ab7e 543c
000001a0: 2b86 613d b4a8 e5bc 64c8 2bbd 88d5 963c
000001b0: a0c7 efbd c674 0bbe fa5f 98ba 4e6e 2b3c
000001c0: c1cd 17be 08b7 40be bd38 06be 32c6 7a3d
000001d0: 530a dd3c 3267 fa3d 3a98 bc3d 4ec4 2b3e
000001e0: 14da 673d d8f5 eebc 7487 a2bd f4e4 43be
000001f0: 3da8 b0bc cee7 513e 24cb fdbd b5c9 acbd
0.12149353 -0.015632663 -0.13220474 0.09776979 0.1411412 -0.068399295 0.095912725 0.032334786
0.16532192 0.2303775 0.019555552 -0.05188507 0.081991404 0.01738366 0.0048988042 0.014706073
0.24447167 0.3226448 -0.041378763 -0.41796723 0.046723973 -0.16288126 -0.17772412 -0.20939462
-0.07928456 -0.01690429 0.053868238 0.10128794 0.048998527 -0.0015984538 -0.1045329 -0.12182328
-0.017318407 -0.1162394 -0.045396335 -0.044666767 0.0022504004 -0.14794317 -0.20331737 -0.02736702
-0.08386202 -0.06279212 0.0443583 -0.0043214215 -0.1224128 -0.16064362 0.12634265 0.11182835
-0.079660386 0.25072095 0.17343938 0.043744866 -0.007902963 -0.07647066 0.11435547 -0.27108857
0.07132671 0.09491428 -0.14120321 -0.20178902 0.16466752 -0.048132166 0.16281162 -0.2751977
-0.02762741 -0.12695023 0.23253193 -0.11362248 0.058639303 0.059409365 -0.03822095 0.09198336
-0.09698774 0.09491772 -0.0044642943 0.04963526 0.02347014 -0.0043958738 0.009938099 0.17255095
-0.0512941 0.097068064 -0.13342868 -0.098768055 -0.15283863 -0.07777594 0.20480987 0.088290386
0.026490485 0.0066936132 -0.06570711 0.03666735 -0.06348491 0.010525375 -0.08339169 0.051502872
0.106828466 -0.07495105 0.03279857 -0.0015725233 -0.015469453 -0.010248672 0.19493663 0.012969653
0.055059593 -0.028034545 -0.041939154 0.018412367 -0.11707997 -0.13618764 -0.0011625283 0.01046331
-0.14824583 -0.18819821 -0.13107581 0.06122417 0.026982462 0.12226714 0.092087224 0.16774103
0.05660446 -0.029169962 -0.07935992 -0.19130307 -0.021564597 0.20498583 -0.123922616 -0.0843691

conv4_2.bias f4 [4]
00000000: a272 2f3d e8b4 843d e408 343f 9d1d 343f
0.04283393 0.06479818 0.70326066 0.70357686

conv4_3.weight f4 [10, 32, 1, 1]
00000000: 788b be3b 838a a63d 9b74 2d3e baf2 ac3d
00000010: ce24 0f3c ce84 333e 034e 0abe f93c 143e
00000020: c7e5 bfbd bd73 f43d b698 f73d 57f7 023d
00000030: e92a 2f3d 3a5f 70bd 7ea2 c1bc 3faa c8bd
00000040: 6c59 2c3c 5818 3a3d b11c 0d3b 5774 a6bd
00000050: 9145 f7bd 9a75 963d 9cb9 88bc 8d44 313d
00000060: 4367 ac3d caea 01bd 0ee4 883c 8a4e 07be
00000070: 7300 ef3b 7f97 bb3d 74ff 95bd daf1 323c
00000080: 0fe1 ea3d efdd b4bd c265 f5bd e595 d8bd
00000090: ec05 d1bd 58f4 2abe c626 b43c 8cd5 8d3d
000000a0: cae0 c9bd 3bdd ecbd 6196 a5bd 69d1 553d
000000b0: c514 793d 688e 9c3c 58f9 e8bd 2499 203e
000000c0: a409 c1bd d25f 093b e15b b3bd e294 61bd
000000d0: 31ec 67bc 60b0 293d c2b2 153e 3f2f 9f3d
000000e0: 2c10 a93d 9d16 9b3c 0cfd a13c a50e 0c3e
000000f0: d6e0 d3bd 09bf 9d3d 9420 263e 624e 933c
00000100: e1ea a1bd 88d2 273e 62d6 573d c183 a9bd
00000110: fec2 18be 99fc 2e3e d047 2b3e fdc9 0ebe
00000120: a2f3 373b 40f6 d13b 0d4e 0abe cb51 d83b
00000130: ca00 b3bd 770e 0c3d e5f4 46bd e4da d33c
00000140: 9769 aebd 58f4 8d3c f614 6f3d a4c0 99bd
00000150: 4ec3 37bd f6bb 1dbe 9f53 293e 2da5 03bd
00000160: 6579 d5bd aefe b63c 2e9f 4f3d ab50 0fbd
00000170: 4648 0d3e 2e79 64bd e4bb f23d 3c35 8abd
00000180: dc9c d33d e5cf 07bc 66c0 8f3d 5b83 05be
00000190: 53de 0d3d 53d1 333d 1a2b 133d 9f2b dfbc
000001a0: 231f d63d 6dfb 15bd 58da 023c 3253 093c
000001b0: 9494 103e 2208 64bd 324a a73d 5f1e 073e
000001c0: bf39 5c3d cbf4 0abe c507 e53d a259 bfbc
000001d0: 8fae bb3d 16d8 30bd 315c 253e cea9 81bd
000001e0: 421c 1d3e ea64 163c 49b9 0fbe 331f 54bd
000001f0: 8ab8 22be d5e4 4239 4f88 efbd 52f7 073e
00000200: bf3a ef3c 26ab 0bbd f632 cf3d 6c2e 7dbd
00000210: a1fb 04bd 3c9a 2ebe 1509 fa3d 2e7b 1d3e
00000220: 40fa d1bb de34 d83d 33bd 3e3d f84b 693d
00000230: 3822 1e3d 8098 10be c98a d53d 4df8 d2bd
00000240: 3d80 70bd ac81 14be 6e1d 1ebd 019c 7f3d
00000250: f694 943d a6f1 19be e52a f53d b8fe 28bc
00000260: 173b 1b3e e945 e6bc 4e2b 973c cf5e 24be
00000270: 555b 74bc be5b 0f3d a26f 373d ec2f 9f3d
00000280: 8919 b83c c3fc f4bd 1d1a 383d cfc0 853d
00000290: 77ea 4e3d f242 523c 1532 edbd 2883 1dbe
000002a0: 76e4 edbd d6a0 c6ba 8311 d0bc d59d 7bbd
000002b0: 62d5 493d b107 1dbd 4d61 93bd fc04 71bd
000002c0: 9853 053d 8c0e 6e3d ddc4 d13c cad8 39bc
000002d0: 531b 22be c2cc b6bd 86f3 123c be96 c13d
000002e0: 1a2b eb3d 0949 453c 5af7 323c 2d77 2fbe
000002f0: 01e7 9fbd be95 a53d e00b 233e 9b3e c33d
00000300: b00e babc 692b db3d e345 42bd 30b0 bbbc
00000310: 1db6 323d e260 f53b cdb0 f8bd 036e 7ebd
00000320: 1978 02be cbdb d33d 7123 0abe 5c9d 0e3c
00000330: 2d09 113e d31f f8bd 4763 b13d d1f5 d03d
00000340: 9fe6 193e 4c01 abbc 4bdb 36be 6c33 b73d
00000350: c220 35bc a838 23be 9e19 a63d 7a69 61bc
00000360: a12b c8bc 0ab6 02bd 2bf4 b13d 68e8 80bd
00000370: 268c d63d 5cbb bebd 4201 e4bd 821e 9d3d
00000380: 5eff 053c 1df9 14be 193e 0d3e a6dc 15bc
00000390: 7352 f33d d7f8 77bd 41fb 0e3e 6cb5 cdbd
000003a0: fda0 fdbd 43e7 133e 1342 0a3d a9a3 aa3d
000003b0: 3c4e acbd ebf4 09be aa96 2fbe 6894 293e
000003c0: a9da 1b3d 9538 8a3d 652f cd3d f401 b0bd
000003d0: cdea dbbc 5801 2c3d 7915 b93d ced6 043e
000003e0: 63d9 633d 9dd4 36bc d406 dfbd 9658 d23c
000003f0: c66f 82bd 7939 173e c5b1 173e f226 553b
0.005814966 0.08131888 0.16939013 0.08444734 0.008736802 0.1753113 -0.13506322 0.14476384
-0.093699984 0.11936138 0.12089674 0.031974163 0.04276553 -0.058684565 -0.023637053 -0.09798097
0.010519367 0.045433372 0.0021531994 -0.08127659 -0.120738156 0.073466495 -0.016690068 0.043278266
0.08418133 -0.031718053 0.016710307 -0.13213554 0.0072937547 0.09159755 -0.073241144 0.01092192
0.11468708 -0.08831393 -0.119822994 -0.10575465 -0.10206208 -0.16694772 0.021991145 0.069254965
-0.09857328 -0.11565634 -0.08085323 0.052201662 0.060810823 0.019110873 -0.113756835 0.15683419
-0.09425667 0.0020961654 -0.08757759 -0.055073626 -0.0141554335 0.04142797 0.14618972 0.07772683
0.08255038 0.018931681 0.019773982 0.13677461 -0.103456184 0.07702453 0.16223365 0.017981712
-0.07906128 0.16388905 0.052694686 -0.08277083 -0.14918134 0.17088546 0.16726613 -0.1394424
0.00280688 0.006407529 -0.13506337 0.0066015474 -0.08740385 0.034193482 -0.048573393 0.025861211
-0.085162334 0.017328426 0.0583696 -0.075074464 -0.04486399 -0.15403733 0.16535805 -0.032139946
-0.10423545 0.022338238 0.050688915 -0.03498904 0.13797101 -0.05577963 0.118522435 -0.06748435
0.10332653 -0.008289312 0.07019119 -0.1303839 0.034635853 0.0439008 0.035929777 -0.02724248
0.104551576 -0.03661673 0.0079866275 0.008381652 0.14119178 -0.05567182 0.081684485 0.1319518
0.05376601 -0.13569944 0.111831225 -0.02335817 0.09164154 -0.043174826 0.1614845 -0.06331216
0.15342811 0.009179333 -0.14035524 -0.051787566 -0.15890709 0.00018586528 -0.11695921 0.13277939
0.029202817 -0.034098767 0.10117142 -0.06181185 -0.032466535 -0.17051023 0.122087635 0.1537902
-0.006408006 0.105569586 0.046567153 0.056957215 0.038606852 -0.14120674 0.10426862 -0.10301266
-0.058716048 -0.14502591 -0.038602285 0.062404636 0.072549745 -0.15033588 0.11971072 -0.010314636
0.1515926 -0.028109508 0.018453266 -0.16051792 -0.014914353 0.0349996 0.044784196 0.07772812
0.022473114 -0.11962273 0.04494678 0.06530916 0.05051657 0.012833344 -0.11581818 -0.15382063
-0.11615841 -0.0015154134 -0.025398975 -0.061429817 0.049275763 -0.038337413 -0.07196293 -0.058842644
0.032550424 0.05811934 0.025606567 -0.01134319 -0.15830736 -0.08925773 0.008969193 0.0945258
0.1148283 0.012041339 0.010923231 -0.17135306 -0.078077324 0.08085202 0.15922499 0.095334254
-0.022712082 0.10701639 -0.04742993 -0.022911161 0.043630708 0.007488356 -0.12143097 -0.062116634
-0.12741126 0.103446566 -0.13490082 0.00870451 0.14163657 -0.12115445 0.08661514 0.10203136
0.15029381 -0.020874642 -0.17857091 0.08945355 -0.011055173 -0.15939581 0.08110355 -0.013758058
-0.024434866 -0.031911887 0.086891495 -0.06294328 0.1047595 -0.0931308 -0.111330524 0.076718345
0.00817856 -0.14548154 0.1379322 -0.009146845 0.1188096 -0.060540047 0.13963033 -0.10044369
-0.12384222 0.14443688 0.03375442 0.08331997 -0.084133595 -0.13472335 -0.17147318 0.16560519
0.038050327 0.067490734 0.100188054 -0.085941225 -0.02684536 0.04199347 0.09037299 0.12972566
0.055627238 -0.011159089 -0.10889974 0.025677007 -0.06368975 0.14768018 0.14813907 0.0032524434

conv4_3.bias f4 [10]
00000000: 1890 de3d 7a50 623e 090d e53e b41d 563e
00000010: 85c2 783e 8e19 e23e 6055 393e 70eb cf3e
00000020: 7949 cb3e 6c2d a33e
0.108673275 0.22101012 0.44736508 0.20909768 0.24292953 0.44160122 0.18098974 0.40609312
0.39704493 0.31870592

momentum_buffer f4 [10, 3, 3, 3]
00000000: 9995 103d eee1 4bbd a083 533c e8d9 153d
00000010: aae4 c13c 6ad5 303d ac2e de3b 60b6 1cbc
00000020: ca3a 2d3c e492 2c3c 5002 5bbd 463c 843c
00000030: 2651 2e3c 7c0a ac3b 16e2 f63c ee83 d4bc
00000040: 2ab3 1cbd c5c6 24bc baf1 06bd ca70 84bd
00000050: 02bc 2d3c c4d5 66bc 506e 323b 77db ad3c
00000060: ceba 23bd 9f8d 1fbd 861f b0bc 74b8 893e
00000070: 322d 443e 10a9 453e 5cb2 6a3e 5595 493e
00000080: 90f0 3f3e 9c6b 623e 7c6b 5a3e 7ce5 373e
00000090: b955 843e e66c 233e 4a63 223e 30f8 743e
000000a0: e865 433e 92f6 243e 56e4 7b3e f22b 643e
000000b0: 4905 393e fa48 4b3e 6892 c93d 063f c13d
000000c0: d0fd 3b3e eb23 0c3e 4957 de3d 70ad 473e
000000d0: 2671 3a3e 58c0 143e c228 ae3e b11e be3e
000000e0: 2217 b93e b90a b33e 8ccb c93e c2ef c23e
000000f0: 42b7 c03e 5c18 ca3e 4ec0 c03e aa7d 453e
00000100: ca3a 533e 69fd 603e 460c 3f3e b007 643e
00000110: 296a 6d3e ccce 573e a271 583e d828 553e
00000120: 4741 123e dd73 2a3e ceb5 443e 676f 0c3e
00000130: 740b 3b3e bc54 4e3e 6bb0 2c3e 3316 2a3e
00000140: 88ee 233e c68e a4be 2a91 9bbe d03b 8cbe
00000150: 6e6e a1be c81f 99be 02c2 94be bb0f a2be
00000160: 39c1 a6be 9177 9dbe 1c6d b4bd c2b4 81bd
00000170: 08d7 b0bc 8e9d b4bd 50d4 67bd fc7e 59bd
00000180: 2c1f bdbd 3265 b1bd 9e4a a9bd 2e20 90bd
00000190: 246f 35bd 00dd 37ba 4ce2 99bd b491 21bd
000001a0: 68d9 16bd 8693 c4bd 7674 a0bd 8cc9 7abd
000001b0: 706c cabc ba0f a1bc b5ad 01bd e87e 48bc
000001c0: 6474 09bc b860 c8bc 8013 04bc f048 11bb
000001d0: d6a0 9abc f64a a1bd e0ae 95bd 485a 9abd
000001e0: 13e9 68bd 06d7 55bd d917 52bd a88d 34bd
000001f0: 5917 36bd bf96 4dbd 3fcc 13bd 3e3d afbc
00000200: 645d 14bd 306f 62bc e053 58bb 0081 6cbb
00000210: 88b6 59bc 008c 5339 c0b0 a53b 8038 e73d
00000220: 6b74 b03d 46dd ce3d 2004 aa3c 8297 0a3d
00000230: 940b 8b3d 1ced 553d 96b8 6a3d b490 483d
00000240: 683b 3abd ac63 51bd 38a6 bdbc e156 01be
00000250: 9259 c9bd bd84 52bd 723f c0bd 4e76 a4bd
00000260: 3cb5 a9bd 2db5 72bd a5f4 a1bd 448a 75bd
00000270: 5f3c 10be b9be 0abe 6f49 cbbd c5c3 cdbd
00000280: 33ae d4bd 6898 00be 41da f73d 5ab4 833d
00000290: da58 973d 323c e83d 371b 853d e4e8 833d
000002a0: 74ac aa3d 1757 a73d b14b b13d 624c e03d
000002b0: 32bf 753d 26ec 913d 0c17 dd3d 4127 853d
000002c0: 70ce 8a3d 203c a43d a668 a93d 127a b83d
000002d0: 74ae f13d ea8b 933d ba2e a73d cc58 d43d
000002e0: e475 8d3d 0324 9d3d aa64 983d 12ce ad3d
000002f0: 7c7e d23d dedc 84be f9c7 86be 4b6b 8bbe
00000300: c9b9 6bbe 1281 77be 7aea 83be 4cbb 62be
00000310: e313 68be d15e 65be 94a1 0cbe c0e3 03be
00000320: 9e43 13be b2a8 d5bd 1a52 dbbd ac59 08be
00000330: dc57 c2bd e11c bcbd 56ee b6bd c5b3 f7bd
00000340: cede e4bd 8ad9 02be 248b 9abd 2038 a2bd
00000350: c6c8 dabd f88e 42bd 5cd8 4abd 5ecf 57bd
00000360: dfd1 c53e f42b ee3e 6846 e53e eabc c23e
00000370: bb9c e23e aaf2 da3e b89b c23e 3c3e e63e
00000380: 934d de3e 9ded a63e e369 d03e 482f d23e
00000390: f833 bb3e 1879 d53e b1d7 cb3e d258 b93e
000003a0: 8cc4 d43e 53a1 cc3e e473 903e 3a26 c73e
000003b0: 9873 cf3e a42d a93e f60b ce3e d677 c93e
000003c0: 9e87 a73e acb8 c53e 10b5 c23e a65a 4d3e
000003d0: fc1d 523e 4c87 333e 9221 383e 31e1 3f3e
000003e0: 4856 283e 6455 3d3e 20cb 603e 3233 233e
000003f0: 20ee 52bc 9861 8bbc b8aa 46bd 50ac febc
0.035298917 -0.04977601 0.0129098 0.036584765 0.023668606 0.043172278 0.006780466 -0.009564966
0.010573098 0.010533068 -0.053469002 0.016142022 0.0106394645 0.0052502733 0.030137103 -0.025941815
-0.0382568 -0.010057156 -0.032945372 -0.06466825 0.010603907 -0.014089052 0.0027226396 0.021222813
-0.039973073 -0.03895342 -0.021499407 0.2689854 0.19157866 0.19302773 0.22919601 0.19685872
0.18744111 0.22111362 0.21330065 0.17958635 0.2584665 0.1595951 0.15858188 0.23922801
0.19081843 0.16109684 0.24598822 0.22282389 0.18068422 0.19852057 0.09842378 0.09435849
0.1835854 0.13685577 0.10856492 0.19499755 0.18207225 0.14526498 0.3401547 0.3713279
0.3615046 0.34969118 0.39413106 0.38073546 0.37639815 0.3947171 0.37646717 0.19286218
0.20627895 0.21971668 0.18657026 0.22268558 0.23185028 0.2107498 0.21137097 0.20816362
0.14282714 0.16645761 0.19209978 0.13714372 0.18266088 0.20149511 0.16864173 0.16610031
0.16008961 -0.32140177 -0.3038419 -0.27389383 -0.31529564 -0.2990706 -0.29054266 -0.31652626
-0.32569292 -0.30755284 -0.088098735 -0.06333305 -0.02158691 -0.08819114 -0.05659896 -0.053099617
-0.09234461 -0.086618796 -0.08266185 -0.07037388 -0.044295445 -0.00070138276 -0.07513866 -0.039445594
-0.03682843 -0.0959845 -0.07834713 -0.061227366 -0.02470991 -0.01966082 -0.0316598 -0.012237288
-0.008389566 -0.024460182 -0.00806129 -0.0022168718 -0.01887552 -0.07875626 -0.073087454 -0.07536751
-0.056862902 -0.052207015 -0.051292274 -0.044080406 -0.04445586 -0.05019259 -0.036083456 -0.021391507
-0.036221877 -0.0138204545 -0.0033008978 -0.0036087632 -0.013288148 0.00020174682 0.0050564706 0.112900734
0.08615955 0.10100798 0.02075392 0.033835895 0.06789318 0.05222808 0.05730494 0.048966125
-0.04546681 -0.051120445 -0.023150548 -0.12630798 -0.09831537 -0.05139612 -0.09387101 -0.08030377
-0.08286521 -0.059254814 -0.0790799 -0.059946314 -0.1408553 -0.13549317 -0.09926116 -0.10047106
-0.10384788 -0.12558138 0.121021755 0.06430884 0.07389994 0.11339606 0.064993314 0.06440905
0.08333674 0.08170908 0.08657015 0.10952069 0.05999679 0.0712512 0.107954115 0.06501628
0.06777656 0.080192804 0.08271913 0.09007658 0.118008524 0.07204421 0.08163209 0.10368499
0.069072515 0.07672884 0.07441075 0.084865704 0.10278031 -0.25949758 -0.26324442 -0.27230296
-0.2302009 -0.2417033 -0.2576483 -0.2214176 -0.22663836 -0.22399451 -0.13733512 -0.12879848
-0.14381263 -0.10432567 -0.10709019 -0.13315457 -0.09489414 -0.09185196 -0.08932178 -0.12094835
-0.11175309 -0.12778297 -0.0754607 -0.07920861 -0.10682826 -0.047499627 -0.049522743 -0.052687995
0.3863668 0.4651791 0.44780278 0.38034755 0.442602 0.42763263 0.3800943 0.44969356
0.4341856 0.3260316 0.40705785 0.41051698 0.36563087 0.4169395 0.39812997 0.36200577
0.41556203 0.3996683 0.28213418 0.38896352 0.4051788 0.33042634 0.402435 0.3934924
0.32720655 0.38617456 0.38028765 0.20054111 0.2051925 0.1753208 0.17981556 0.18738247
0.16439164 0.18489605 0.21952486 0.15937498 -0.012874156 -0.01701431 -0.048502654 -0.031088024

momentum_buffer f4 [10]
00000000: 97df 2cbd d2f9 573f f9ea ac3e 80d3 20be
00000010: 4122 abbd 3bb8 9bbe 03fe 113f 30bd bebe
00000020: a1ba 0a3f 2f89 d7be
-0.04220542 0.8436557 0.3377302 -0.15705681 -0.08356143 -0.30413994 0.57028216 -0.37253714
0.54191023 -0.4209685

momentum_buffer f4 [16, 10, 3, 3]
00000000: 9781 1a3e 8ed6 2e3e 756d 1a3e 254d 143e
00000010: 835e 3a3e 2949 383e de92 dd3d 3668 173e
00000020: ca09 313e 8d0b f43d 3c70 103e 2e11 033e
00000030: 7f12 d53d 7fbe 023e b2f3 f63d c3e5 ae3d
00000040: 0258 c63d 9219 be3d b118 c03d 8573 403d
00000050: 8ebe 04bc 8e0b ad3d 8edd ba3d 0be8 6e3d
00000060: 9224 843d b12f fe3d 2836 153e 3c41 673d
00000070: 723d 503d 71ae 513d e88f cb3d 28f8 ba3d
00000080: 019c 5f3d 10dd e63d a8e6 ef3d ae6f a83d
00000090: 3e66 d03d d7f8 c53d 223d ab3d 6f5c bc3d
000000a0: 0014 b93d 2ab9 9f3d daff 9d3d 12f3 9f3d
000000b0: f6b0 8c3d 72cf b03c 1bfd 993d 65b9 0f3e
000000c0: 02b2 1a3d 9117 4f3d 8b13 b03d 8f02 9c3c
000000d0: e438 3e3d 78cb 9fb9 66aa 513d 6fc6 2b3d
000000e0: 3dfc 443d 5e9c 5f3d c126 293d 3a75 2f3d
000000f0: e7bf 713d e260 433d 4dcc 3a3d 804d 31bd
00000100: c52a 4abd 4a9b 35bd 4d17 09bd 17cd 32bd
00000110: 9a61 2cbd 1632 dcbc a3b0 f9bc 20eb d8bc
00000120: 9835 153e 08d8 2b3e e23c 4a3e cde9 f93d
00000130: ac62 383e af5c 693e 14ac 723d 5cba c63d
00000140: cdde ed3d ec25 433e 852b 5e3e c4d0 493e
00000150: ccda 3d3e c516 813e e25d 6d3e 1c90 323e
00000160: e564 7f3e 86c7 6d3e b23a dab9 8a47 43b9
00000170: 9ad2 d738 e4b8 8bb9 f0cf 58b8 7566 bfb9
00000180: 400e d0b7 ece9 0d39 7f9a 66ba 3ffc a1b9
00000190: b23b 21b9 6761 a138 fe3f 1039 7118 bdb9
000001a0: 7533 b3b9 60c5 ae38 a2f0 a9b9 5f14 93b9
000001b0: da1a ea39 faa2 0aba 7a3d 41ba 84db 5e39
000001c0: b615 0f3a c4e4 553a 288c 9338 f243 793a
000001d0: 6a5f 873a 9417 4a3a 69f4 e739 3888 d2b8
000001e0: 18bc c239 e721 7b39 b441 37b9 c527 0a3a
000001f0: 6a1f b439 1029 55ba 72df a934 ad7c f036
00000200: 7fd6 3fb5 c7db 1135 ff91 1336 3aaf 2836
00000210: cd65 12b5 8ff4 14b5 e021 a634 396b 643a
00000220: 00d2 3db9 e520 203a bdb7 a639 bc07 df39
00000230: 9c5a 733a a471 97b9 8dd3 3d3a 7efd 5a3a
00000240: c168 e339 bf43 0d39 e9a4 2639 850b e539
00000250: 375e 8e38 4468 c939 6204 fd39 57d6 0f3a
00000260: 204d 4a3a 2595 5e39 6cd3 0639 31aa aab9
00000270: f55b f2b7 8459 6637 5afe 4239 a407 53b9
00000280: 3195 69b9 73b5 0a39 e2ad 383a cd09 7f3a
00000290: 6eaf ab3a aa8e 263a 5fa3 79ba e289 8cba
000002a0: 4bae a339 d764 0fbb 0325 02bb 3292 e139
000002b0: fe27 eb3a cca2 8e39 0600 9b39 c72d 413b
000002c0: 588d 38b9 05a0 fc3a 9927 0d3b 8020 3037
000002d0: d606 3fbe 9061 2fbe ee25 0ebe 8e74 16be
000002e0: b43b 14be 884a 31be 983a cfbd 5234 0fbe
000002f0: da8f 2fbe 4361 c8bd 23c9 87bd 42ed 53bd
00000300: 1a3e c0bd 3af5 85bd 68e2 40bd 6b84 96bd
00000310: a2e0 96bd 6fec 25bd 130b 35be 6100 37be
00000320: 12cd 09be 604d 83be 50d8 2bbe b154 9abd
00000330: c46a 2bbe 0e4c 31be bd70 00be c23b 18be
00000340: 2449 25be c824 e4bd 0aef 43be 3caf 35be
00000350: 7e34 dfbd 10b0 31be ab05 2fbe 9e8b fcbd
00000360: 41b3 81bd 7bce 79bd 4684 82bd f619 49bd
00000370: 6aec 3bbd a9a8 53bd cf46 51bd 5109 43bd
00000380: 2ea5 4ebd da7e 67be 4a82 50be 61ea cfbd
00000390: 583c 85be d6b5 68be 7ce2 a8bd 0caa 14be
000003a0: 6a95 08be e8f5 0dbd 3ca9 6bbd 445e 37bd
000003b0: 7ee0 10bd 7b1e 8ebd 956a 63bd 5edc 6dbd
000003c0: ec62 aabd e0b2 91bd 0841 93bd feb6 d83c
000003d0: 76f5 083d 4c75 b23c 123e b63c f87e 163d
000003e0: 60ef ea3c 4fe5 ca3b a431 fb3c 209a f13c
000003f0: a319 99be 960a 92be 824e 70be dacf 94be
0.15088497 0.17074034 0.15080817 0.14482553 0.18200116 0.17996658 0.10819028 0.14785847
0.1728889 0.11916266 0.14105314 0.12799522 0.104039185 0.12767981 0.120582 0.08539917
0.09684755 0.09282221 0.093797095 0.046985168 -0.008102072 0.084494695 0.091242895 0.058326762
0.06452288 0.1241144 0.1457144 0.056458697 0.05083985 0.05119175 0.09939557 0.09129363
0.054592136 0.11272633 0.11713916 0.08224426 0.10175751 0.09666603 0.083612695 0.09197318
0.09037018 0.07798989 0.077148154 0.07810034 0.0686969 0.021583293 0.07518979 0.14035566
0.037767418 0.050559584 0.085974775 0.019044189 0.046440974 -0.0003047844 0.051187895 0.041937288
0.048092116 0.054592483 0.041296724 0.042836405 0.059020903 0.047699817 0.045604993 -0.0432868
-0.049357194 -0.04433755 -0.033469487 -0.04365262 -0.042085268 -0.026879352 -0.030479735 -0.026479304
0.14571226 0.16781628 0.19749787 0.12202797 0.1800639 0.22789262 0.059246138 0.09703514
0.116147615 0.19057435 0.21696289 0.19708544 0.18540496 0.25212684 0.23180345 0.17437786
0.24940832 0.23220643 -0.00041623932 -0.000186233 0.000102912265 -0.000266499 -5.169207e-05 -0.00036506695
-2.4802168e-05 0.0001353395 -0.00087968254 -0.0003089625 -0.00015376395 7.695221e-05 0.00013756749 -0.000360671
-0.0003417988 8.3337305e-05 -0.00032413477 -0.00028053203 0.00044651964 -0.00052885676 -0.00073715264 0.00021253346
0.0005458252 0.0008159394 7.035612e-05 0.0009508721 0.0010328118 0.0007709202 0.00044241853 -0.00010038953
0.00037142704 0.00023949855 -0.00017476716 0.00052702083 0.0003435568 -0.0008131424 3.164128e-07 7.1670715e-06
-7.146518e-07 5.433653e-07 2.1989688e-06 2.5135946e-06 -5.453738e-07 -5.5490176e-07 3.0944557e-07 0.0008713487
-0.00018102676 0.00061084173 0.00031798883 0.00042539637 0.0009283216 -0.00028885633 0.00072413014 0.00083538133
0.00043374862 0.00013472045 0.00015892427 0.00043686866 6.7886365e-05 0.00038415391 0.00048259186 0.0005486956
0.0007717181 0.0002122713 0.00012857997 -0.0003255173 -2.8891469e-05 1.372991e-05 0.00018596035 -0.00020125374
-0.0002227619 0.000132283 0.00070449535 0.00097289385 0.0013098547 0.0006353656 -0.00095229404 -0.0010722245
0.0003121964 -0.0021880174 -0.0019858486 0.00043024268 0.0017940996 0.00027205644 0.0002956392 0.0029476748
-0.00017600262 0.0019273764 0.0021538495 1.04979845e-05 -0.18654951 -0.17127061 -0.13881657 -0.146929
-0.144759 -0.17313588 -0.10118598 -0.13984802 -0.17144719 -0.09784176 -0.06630161 -0.05173994
-0.09386845 -0.06540914 -0.047090918 -0.073494755 -0.07367064 -0.040508684 -0.17680006 -0.17871238
-0.13457134 -0.2564497 -0.16781735 -0.07535685 -0.16739947 -0.17314169 -0.12543006 -0.14866546
-0.16141182 -0.11139828 -0.19134155 -0.17742628 -0.10898684 -0.17352319 -0.17092006 -0.12331317
-0.06333018 -0.06098793 -0.063728854 -0.049097024 -0.04587976 -0.05167452 -0.05109292 -0.047616307
-0.050450496 -0.22606984 -0.20362201 -0.10152126 -0.260226 -0.22725615 -0.082463235 -0.14517993
-0.13338247 -0.034658343 -0.05753444 -0.044767633 -0.035370342 -0.069394074 -0.055521566 -0.058071487
-0.08319649 -0.07114196 -0.07190138 0.026454445 0.033437215 0.021784447 0.022246394 0.03674218
0.028678596 0.0061918865 0.030663319 0.029492438 -0.29902372 -0.285237 -0.23467448 -0.29064828

momentum_buffer f4 [16]
00000000: 4efb 8a3e 96a6 e63a 75d0 18be 4c9f db3c
00000010: 5284 023c 6d61 04bd 6e84 573e 6931 98b6
00000020: 8eb5 ebbd 00ea 233a ee42 c53e 21ba b83c
00000030: fae6 a2be 7e4b 11be c3eb 9c3d 6ea8 343e
0.27144855 0.0017597254 -0.1492327 0.026809357 0.007966118 -0.032319475 0.21046612 -4.535705e-06
-0.11509238 0.0006252825 0.38527626 0.02254969 -0.31816846 -0.14188954 0.076621555 0.17642376
