Pytorch face detection - Test/MTCNN_train_process/1/checkpoint_100.pth (torch, 39395 bytes, 12 tensors)

conv1.weight f4 [10, 3, 3, 3]
000000 2a c9 3c bd d1 f4 c2 bd a8 bf 2a 3c c4 29 44 be
       -0.046090282 -0.09519351 0.010421671 -0.19156557
000010 69 51 8e bd 29 c1 8b bd d0 21 bc bd c8 6b 56 be
       -0.069491215 -0.06823952 -0.09186137 -0.20939553
000020 73 17 63 3d fb d0 43 3d 0f b6 a4 3e b5 b4 88 3e
       0.055442285 0.04780672 0.3217015 0.2670037
000030 50 71 e1 3d 20 cc bd 3e 89 62 62 3e d8 61 9f 3e
       0.11007941 0.37069798 0.221079 0.31129336
000040 db e6 b4 3e c6 38 3a 3e 38 73 64 bc e5 ee 96 3e
       0.3533238 0.1818572 -0.013943486 0.29479137
000050 88 e1 0e be c4 cf 6e bd c1 68 07 bd 5f 0f e0 3d
       -0.13953221 -0.05830361 -0.033058885 0.10940432
000060 37 bd c3 bc 5b 09 8b 3d 73 86 da 3c 08 c0 1f be
       -0.023893936 0.06788894 0.026675439 -0.15600598
000070 83 37 87 be a4 3e 50 be b1 77 a9 be ca 80 7c be
       -0.2640954 -0.20336396 -0.3309913 -0.24658504
000080 a8 64 26 bd 55 f4 1f bc 97 2f c2 bd de d2 25 be
       -0.040623337 -0.009762843 -0.09481733 -0.1619372
000090 7b 18 4a 3e 69 0b ab bd 6b b4 02 be f1 49 94 bc
       0.19735901 -0.08351786 -0.12764136 -0.018101664
0000a0 c7 c3 6e 3d 06 cd 14 be 09 21 53 3e e2 57 7b 3e
       0.058292177 -0.14531335 0.2061807 0.24545243
0000b0 4b 30 0e 3e 4f 8d 6a 3e 1d b7 e6 3d 15 e7 ab bd
       0.1388561 0.22905467 0.11265395 -0.08393685
0000c0 6a a3 d0 3d 58 fa 10 3e 13 fc e4 3d 7b d4 1a 3e
       0.10187419 0.14157999 0.11180892 0.15120117
0000d0 75 3c 5a 3e 4a 06 d2 3d 92 af 83 3d 5f 24 16 3e
       0.21312125 0.10255106 0.06429972 0.14662312
0000e0 09 fc d4 3d df 72 22 3e eb 1c a8 3d ad 85 26 3e
       0.103996344 0.15864132 0.08208641 0.16261931
0000f0 b8 41 f0 3c 8c 31 4f be b4 aa 6f bd a1 6e 65 3e
       0.029328212 -0.20233744 -0.058512405 0.22405483
000100 f6 54 72 3e ac 7c d8 3d 84 39 3d 3c 07 81 61 be
       0.23665223 0.10570654 0.011549357 -0.22021876
000110 13 f8 09 be d8 17 79 bd 6e 56 9b be 26 99 20 bc
       -0.13473539 -0.060813755 -0.30339378 -0.009802138
000120 06 1a 85 3d 01 66 89 3e 61 3e 80 3e 93 16 f2 3d
       0.06499104 0.26835635 0.2504759 0.11820712
000130 19 e5 ce 3d 83 a9 d8 bd 21 90 44 bd 63 10 f1 bd
       0.10102291 -0.10579207 -0.047989015 -0.11770704
000140 f7 f2 19 3e be 42 d3 bd 64 e3 9e be 28 2a 2a 3e
       0.1503409 -0.103154644 -0.3103286 0.16617644
000150 f1 c7 3f 3c 94 ec 67 be f3 a1 8b 3b 8a 98 7f 3d
       0.011705385 -0.22648841 0.004261249 0.062401332
000160 54 e1 4c be 8a fd 97 bd ea 9b 2c bd 80 83 3b be
       -0.20007831 -0.074214056 -0.04214088 -0.18311882
000170 14 bc 83 3e dc 08 9e bb eb 0e 1f 3d 92 54 13 3e
       0.2572943 -0.0048228335 0.038832586 0.1438773
000180 4d ea 08 be 2c 86 21 be 31 6f d1 bd b8 86 6b bd
       -0.13370629 -0.15773839 -0.10226286 -0.057501525
000190 c0 43 c6 bd a3 75 94 3d 59 82 41 be 5d ee 8f 3c
       -0.09680891 0.07249 -0.1889738 0.017569715
0001a0 d3 8e e4 3d 40 e5 88 3d c0 b4 8f 3d 26 35 fc 3d
       0.11160054 0.06684351 0.07016897 0.12314825
0001b0 46 1b 42 be 66 23 f3 3c 02 69 37 3e b8 61 0e be
       -0.18955716 0.029679965 0.17911151 -0.13904464
0001c0 1f a5 ae bd 26 f4 1d bc be 29 f4 bd 9b fc 12 bd
       -0.08527588 -0.009640729 -0.11922024 -0.035885435
0001d0 16 2d e6 bc b9 4a 31 3e 32 1d 2d bc 73 3a d8 3d
       -0.02809767 0.1731366 -0.010566043 0.10558023
0001e0 a1 09 12 3e 9b 80 b2 3d 88 43 2a be 49 73 15 3e
       0.14261486 0.08715936 -0.16627324 0.14594759
0001f0 5b 5d 03 3e b6 36 0c be fd e0 8b bd df aa 06 3e
       0.12828581 -0.13692746 -0.068300225 0.1315112
000200 e4 19 3f be 65 66 2c be 53 36 05 be 3b 4a 77 3d
       -0.1866222 -0.16835935 -0.13009004 0.060373526
000210 33 15 a0 bd d9 6f 2f be 88 4f 99 3d 55 4f 3b 3e
       -0.078165434 -0.1713251 0.074858725 0.18291982
000220 6e e3 9b 3d 25 dd a9 be 09 25 8d 3e 6e 68 1a bc
       0.07611738 -0.33176532 0.27567318 -0.009424312
000230 e6 b7 b6 be b9 35 97 3c b0 14 85 3d 76 db c5 bd
       -0.35687178 0.018458234 0.064980865 -0.096609995
000240 1e 56 97 3c a5 7e 35 3e 70 11 15 be 39 76 df 3d
       0.018473681 0.17724092 -0.14557433 0.10911221
000250 2a be 39 3e 6e d0 1e be 23 39 c6 bb 34 3d 94 bd
       0.18138948 -0.15509197 -0.0060492917 -0.07238236
000260 ca 73 4a be 49 3f f7 3c 95 61 d1 bb 5c dd d6 bd
       -0.19770733 0.030181544 -0.0063898065 -0.1049144
000270 fd be 0e be 71 02 81 3c ed fb 28 3e 20 d4 5b 3d
       -0.13940044 0.015748234 0.16502352 0.053669095
000280 f1 91 03 be 9d d4 17 3e 4a b2 0c 3c 85 71 49 be
       -0.12848641 0.148272 0.008587429 -0.1967221
000290 d7 f9 0f 3c 2b c0 f0 3d f5 21 f4 bd 84 c5 49 bc
       0.008787594 0.11755403 -0.11920539 -0.012315158
0002a0 33 c2 c0 bd 1e cc 14 be de 9b cb bd e9 03 45 3c
       -0.094120406 -0.1453099 -0.09941839 0.012024858
0002b0 ad c4 ec 3d 56 46 24 bd 0f 32 35 be 79 f1 da bb
       0.115609504 -0.04010614 -0.17694877 -0.006681618
0002c0 70 9f 32 be e5 24 79 3c d0 85 17 3e 95 19 b0 3d
       -0.17443633 0.01520655 0.14797139 0.085986294
0002d0 9a 06 f6 bd 75 ea 3e bd 35 03 9b 3d 03 89 5b 3d
       -0.12012978 -0.046610314 0.07568971 0.05359746
0002e0 96 60 39 be 05 69 ef bd 8b 1e 77 bd 58 35 9f 3d
       -0.18103251 -0.11689953 -0.060331862 0.077738464
0002f0 2c e5 32 3e a9 fb 78 3e 26 dd 5b 3e 36 87 3f be
       0.17470235 0.2431475 0.2147108 -0.18703923
000300 f9 36 84 3e f5 a7 37 3e 09 cd 2a bc cc c1 6e 3d
       0.2582319 0.17935164 -0.010424861 0.058290288
000310 1f 71 ea 3d c1 cf a0 bd e4 5c fb 3c 4e c4 d9 3d
       0.114473574 -0.07852126 0.030683942 0.10633145
000320 7c c8 a2 be be fb 70 be 70 d6 44 be 90 47 93 be
       -0.31793582 -0.23533532 -0.19222426 -0.28765535
000330 92 b1 d5 bd 30 2d 00 bc 9f 39 cf bc 31 13 5b 3d
       -0.104342595 -0.007823274 -0.02529603 0.0534851
000340 6b 7b e8 3d 14 da 8d bd ae 75 fd bd e3 af 95 bb
       0.11351665 -0.06926361 -0.12375961 -0.0045680865
000350 0e a0 94 3d fc 29 76 bd a1 c6 11 be 1e ce d5 3d
       0.072570905 -0.060098633 -0.14235927 0.10439704
000360 7a a9 b7 be 72 e3 e5 be 46 ae a9 be 9a ce 88 3e
       -0.35871488 -0.4490009 -0.33140773 0.26720124
000370 a5 24 a3 3d 30 46 e1 bd 0b c8 dc 3e ee 96 cc 3e
       0.07965974 -0.10999715 0.4312137 0.399589
000380 f3 f3 4f 3e df ab 7e be b9 51 85 be de c2 e8 3b
       0.20307903 -0.24870251 -0.26038912 0.007103308
000390 f1 25 f4 3d 40 25 df bd 1c 5e 34 3a 80 00 06 3d
       0.11921299 -0.10895777 0.00068804785 0.03271532
0003a0 de 18 01 3d 5c b2 3d 3c 9f 8c 12 be a5 ef b2 bd
       0.031517856 0.011578169 -0.14311455 -0.08737115
0003b0 42 35 92 bd 99 0d b3 3d d9 33 21 bc 47 63 f1 3c
       -0.07139064 0.08742828 -0.009839022 0.029466284
0003c0 f3 ca c2 3d 32 35 56 3e e5 8d ee 3c c5 a0 95 be
       0.09511366 0.2091873 0.029120395 -0.2922422
0003d0 28 2f 83 3e e5 86 2c 3e ea 1f 9d bc 88 4e 1c 3e
       0.25621915 0.16848333 -0.019180257 0.15264332
0003e0 83 04 de bc b5 8a 8d be a9 28 20 be db 65 e1 bb
       -0.02710176 -0.27644888 -0.1564051 -0.006878597
0003f0 20 26 46 bc ee 43 e0 bd 21 f2 e6 bd 19 74 39 3d
       -0.012094051 -0.109504566 -0.11276651 0.045276735

conv1.bias f4 [10]
000000 c4 89 1b 3e 4a c8 a5 3d 8b fb 84 3d 6c 27 14 3e
       0.15189272 0.08094843 0.064932905 0.14468163
000010 81 b5 2b be 8a be 33 3e 22 c2 38 3d a0 66 2e bd
       -0.16768457 0.17553154 0.045107014 -0.04257834
000020 c5 d3 a0 3d 66 9f 90 3e
       0.07852892 0.2824661

conv2.weight f4 [16, 10, 3, 3]
000000 23 37 88 3b 6d e8 0c bd aa 5b 76 bd 82 c4 d2 bd
       0.0041569634 -0.034401346 -0.06014601 -0.10291387
000010 14 1a 53 3d 6c c2 d7 bd 39 bb 92 bc 19 0b 78 bd
       0.051538542 -0.1053513 -0.01791154 -0.06055746
000020 2b 93 71 3b 0a f2 e1 bc 3a 14 b6 bc 78 ee 17 3d
       0.00368614 -0.027581234 -0.022226442 0.037092656
000030 12 28 db 3c 0c 40 b3 bc a5 33 d7 3d 15 bc db bd
       0.026752505 -0.021881126 0.10507897 -0.10729233
000040 5c a9 03 3d b9 61 81 ba 74 c3 e1 bc 42 33 2a 3d
       0.032143936 -0.0009871043 -0.02755902 0.04155279
000050 56 b0 fc 3c 4f 04 7b bd e6 67 d7 3d 8d 6c fe 3c
       0.030845802 -0.061283406 0.10517864 0.03105762
000060 f3 3f 32 3c 00 ab 13 3e ea f9 1f 3e 8b 46 82 bd
       0.0108795045 0.144207 0.15622678 -0.06361111
000070 dc 34 61 bc 08 90 55 3d 2a 28 a4 3d 03 a3 86 bd
       -0.013745513 0.052139312 0.08015473 -0.06574061
000080 dc 9b a9 bd 0c fb 5c 3d ad 40 86 bd a7 72 88 3d
       -0.08281681 0.053950354 -0.06555305 0.06662493
000090 e1 42 a5 bd 83 28 7d bd 53 50 28 3d f7 d1 6c 3d
       -0.08069397 -0.061806213 0.04109223 0.057817426
0000a0 1f d1 17 bd 50 e6 79 bd 16 7a 25 3d 31 29 0b 3d
       -0.037064668 -0.06101066 0.040399633 0.03397483
0000b0 c5 6c dd 3c 3f f1 c0 bd b5 be 5a bd ff 25 c3 bd
       0.027029404 -0.09421014 -0.05340453 -0.095287316
0000c0 c8 35 1f bc 02 56 96 3d 4a b5 f6 bd ed ff 09 bc
       -0.009717412 0.073406234 -0.12046297 -0.008422834
0000d0 66 e5 a9 3c 16 5f 96 3c 71 a1 cb bd 48 6f 01 3c
       0.020739269 0.018355887 -0.09942902 0.007900067
0000e0 ba 42 ab 3d 6e c4 85 bd 8e 6c 88 3d e8 68 88 bc
       0.083623365 -0.065316066 0.0666133 -0.016651586
0000f0 7c 3e c3 3d 2e 6d bc bd a8 38 79 3c fb 9c 06 3e
       0.09533402 -0.09200512 0.015211262 0.13145821
000100 2b 68 e3 3d 0b 8d 0e bd 11 7c 37 bd fd c7 02 3d
       0.11103853 -0.034802478 -0.044796053 0.031929005
000110 38 a4 06 bd ee f4 d3 3d 9b 7c e2 bc a5 1a f3 3c
       -0.032871455 0.10349451 -0.027647307 0.029675791
000120 5f 71 a3 bd fb 8e 33 3d 22 b9 11 3e 7b e7 c8 3d
       -0.07980608 0.04383753 0.14230779 0.098097764
000130 8b 82 da 3d b9 a8 46 3c cd 88 00 3e 9c f5 b2 bc
       0.1066943 0.012125188 0.12552185 -0.021845631
000140 b3 ef 09 3e 95 9f e0 bd a9 42 5b bd 1f 07 2b bd
       0.13470344 -0.10967938 -0.05353037 -0.041754838
000150 84 9a 30 3a b3 bc 65 3d 7f 4e 05 3c 16 45 76 bd
       0.0006736892 0.05608816 0.008136391 -0.06012448
000160 ad 14 b7 bd bd ce 44 bd 6e 52 48 bd 49 cc 7e bd
       -0.089394905 -0.048048723 -0.048906736 -0.06220654
000170 6b d1 89 3d 28 95 80 3c 1d 52 63 bd b6 b9 53 3d
       0.067293964 0.015696123 -0.05549823 0.05169078
000180 d6 4d 8f bd ce 91 79 bd c1 47 14 bc dd 01 8f 3d
       -0.06997268 -0.060930066 -0.009050311 0.06982777
000190 42 c0 5f 3d 6c 04 90 bd 09 aa 96 bd 30 b8 14 3d
       0.05462671 -0.070320934 -0.073566504 0.036308467
0001a0 6c cb e1 bb 9d 54 3c 3c fe dd 71 3b 5f 7d 99 bd
       -0.006890705 0.011494783 0.0036906 -0.07494616
0001b0 cf 57 8e bc e7 89 07 bd 1c 19 8e bc db 51 88 3d
       -0.017375855 -0.0330905 -0.017345957 0.06656238
0001c0 70 8e c9 bd 58 23 28 3c a4 70 d4 3d a8 1f c0 bd
       -0.09841621 0.010262333 0.10373047 -0.09381038
0001d0 df 06 1d 3d f0 3f d8 3d 82 9b 76 3d ef 50 6c 3d
       0.03833663 0.1055907 0.060206898 0.05769437
0001e0 f2 67 1e bd 04 c1 35 3d e6 e8 58 3c 81 f7 d2 3d
       -0.03867335 0.044373527 0.013239121 0.10301114
0001f0 84 e6 cd bd f7 86 62 3d 65 2d 84 bd 9f 7d c2 bd
       -0.10053733 0.055304494 -0.06453971 -0.094966166
000200 88 3b c9 3d ca a5 ae 3c 8e 15 6e bd 2e 9a ca bd
       0.09825808 0.021319289 -0.058126025 -0.09892689
000210 4d fb ac bc 46 a9 bc bc a6 39 04 bc 6f 2e fa bc
       -0.021115923 -0.023029935 -0.008070385 -0.03053972
000220 00 95 ef 3c bc b0 91 3d 50 57 ad bd 2e 81 22 bd
       0.029245853 0.071137875 -0.08463919 -0.039673977
000230 4a 68 b8 3d bc 48 cd bd 9c b9 ad 3d 5e c3 ab bc
       0.090042666 -0.100236386 0.08482668 -0.020967182
000240 7b c5 ef 3c 0c c5 5e bd eb 4e 4e 3d 49 4d 59 3c
       0.02926897 -0.054387137 0.05036823 0.013263055
000250 95 46 d2 bc 98 7d cc 3d e1 da c1 bd da 16 bb 3d
       -0.025668422 0.099848926 -0.09465576 0.09135218
000260 10 dd 91 3d 87 2d 83 bc 5b a7 05 bd 7a 37 ad 3d
       0.071222425 -0.01601292 -0.032630306 0.08457847
000270 54 10 2d 3d 1d 82 bf bd e3 83 a6 bd 7a fd d2 bd
       0.0422519 -0.09350989 -0.08130624 -0.10302253
000280 bc 57 35 bd bd 8d 8e bc 2f 5a 1f 3d 1f d2 7e 3d
       -0.044273123 -0.01740157 0.038904365 0.062212106
000290 d9 9a bf bd 19 d4 5e 3d b7 d7 18 3d 87 6e 10 3d
       -0.09355707 0.05440149 0.037315097 0.035261657
0002a0 1e 3a c5 bd 40 8e 8f bd ed cb 48 bc 4a e8 54 3d
       -0.096302256 -0.07009554 -0.012255651 0.05197934
0002b0 90 af c4 bc 20 02 02 bd b9 fe 2b 3c ce 0d 17 3c
       -0.024009496 -0.031740308 0.010497742 0.0092196
0002c0 3d 05 40 bc e9 e0 18 3c b7 ea 5c bd 73 d6 b7 3d
       -0.011719999 0.0093309665 -0.05393478 0.0897645
0002d0 b3 7c d9 3d ff 49 03 3d 80 12 07 bd b8 67 5a bd
       0.106194876 0.03205299 -0.032976627 -0.05332157
0002e0 f2 cf 30 be e9 1d e5 bd 6e 2a a6 3d a2 ce 38 be
       -0.17266825 -0.111873455 0.081135616 -0.18047574
0002f0 5b 79 3b 3d 14 f1 f2 bd 09 d5 95 be af 79 89 bd
       0.04577003 -0.11862388 -0.29264095 -0.067126624
000300 cc c5 39 bd 40 9e ae be 87 ff 36 be 84 73 b1 bc
       -0.04535465 -0.3410511 -0.17870913 -0.021661527
000310 49 21 8b be d8 0f f1 bd c9 01 11 3e 05 2b 2d 3e
       -0.27173832 -0.117706 0.14160837 0.16910942
000320 85 ef 30 bc be e8 5a 3d 5c b9 11 ba 59 e7 03 bd
       -0.010799293 0.053444616 -0.0005558932 -0.032203052
000330 8f 11 0f bd a5 4c b5 3d 15 7b cf 3d af 27 f1 3c
       -0.034928855 0.088525094 0.10130898 0.029437868
000340 94 49 b3 bd a4 f8 ee 3d 05 77 ca bd 7d a7 8c bd
       -0.08754268 0.11668518 -0.098859824 -0.06867883
000350 dd 4e 0c be 65 c8 df bd 06 8c 46 be 50 ef e6 bd
       -0.13701959 -0.10926894 -0.19389352 -0.11276114
000360 63 11 28 bd a8 35 bb bd 50 49 93 bd eb fd 59 bd
       -0.041032206 -0.091410935 -0.071917176 -0.05322067
000370 aa 73 48 3d da 62 c9 3d c0 0c 63 3d a1 32 39 bd
       0.04893843 0.098333076 0.05543208 -0.0452143
000380 64 ab 7d bd 0a cb 6c bd 0a 8e 15 bd 50 5e f1 3d
       -0.06193103 -0.05781082 -0.036512412 0.11785567
000390 98 f5 0a bd 23 b2 08 3e 14 f0 5c 3e 4f a4 ae bd
       -0.033925623 0.13349204 0.21575958 -0.08527433
0003a0 93 a4 d6 3d 33 56 82 3d 8f f3 88 bd be ca f2 bd
       0.10480609 0.063640974 -0.0668708 -0.11855076
0003b0 36 e2 a2 3d e1 cc 77 3d 40 db a3 3d 84 ee be 3c
       0.079533026 0.060498122 0.08000803 0.023307092
0003c0 80 20 61 bd 3d 3c 4a 3d c4 55 d8 bc f7 db 94 be
       -0.054962635 0.049373854 -0.026408084 -0.2907407
0003d0 ea 24 34 be 53 01 b6 bc a5 f7 60 be f8 dd 39 be
       -0.17592207 -0.022217428 -0.21969469 -0.1815108
0003e0 2d 0c ea 3c db 26 37 be 97 40 db bc 22 11 97 3d
       0.028570259 -0.17885916 -0.026764197 0.07376315
0003f0 65 72 ab 3d d2 08 60 3d e2 0d f3 3d 67 07 60 3e
       0.083714284 0.05469591 0.11867882 0.21877824

conv2.bias f4 [16]
000000 7a 20 f4 bc 2e 78 ab bc 80 59 bf 3d 05 20 9e 3d
       -0.029800642 -0.02093133 0.09343243 0.07720951
000010 9a ec 9d bd 3a b7 ea bc c1 ad 1d 3a 7a ea d5 bd
       -0.07711144 -0.028651822 0.0006014966 -0.104451135
000020 f3 03 87 bc 2b 50 ba bd aa 46 6e bd dd 9e 21 bd
       -0.016481375 -0.09097322 -0.05817286 -0.039458144
000030 78 f2 87 3e 0d 6c 8d 3e a3 43 54 3d 0f 2b d2 3c
       0.26552176 0.276215 0.051822316 0.025655298

conv3.weight f4 [32, 16, 3, 3]
000000 4a c7 11 bc 4a 5c 28 3d c3 8c 41 bd 50 ed 40 bd
       -0.008897612 0.04110364 -0.04725338 -0.04710132
000010 fd dc 9b bd 5b d8 06 bb f7 fe d0 bc c8 e4 b8 3b
       -0.076105095 -0.0020575735 -0.025512202 0.005642507
000020 48 5e 64 3d 14 e7 92 bd c7 cc a3 3d b5 99 5f bb
       0.055753976 -0.07172981 0.079980426 -0.0034118716
000030 10 97 2f 3b 30 cc ef 3b 78 f6 55 bd f1 5a 8d bd
       0.002679292 0.007318042 -0.052237004 -0.06902111
000040 e0 fe 8e bd 0f 31 83 3d b1 4f 41 3c 2f 96 82 3d
       -0.06982207 0.064058416 0.011798785 0.063763015
000050 9d 61 89 3c de c3 a9 3d 21 da f0 bc 0d 39 7a 3c
       0.016770178 0.08289312 -0.029400887 0.015272391
000060 68 79 8d 3d 5e c2 5e ba e6 47 be bc 69 fb 10 3d
       0.06907922 -0.0008497591 -0.023227643 0.035396013
000070 68 e8 84 bd 2a 29 9b bc 9a c6 46 bd 31 00 9d 3d
       -0.064896405 -0.018940527 -0.048529245 0.07666052
000080 78 94 33 bd 08 64 a3 bc dc 39 7d bd 5c 82 92 bb
       -0.043842763 -0.01994516 -0.061822757 -0.0044711065
000090 12 e9 b3 3c e4 87 73 bd 27 42 ac bc ae 2a 85 3d
       0.021961723 -0.059455767 -0.021027638 0.06502281
0000a0 e4 a9 a9 bc 61 91 f5 bc dd 4a f6 bc dd 8f 33 bd
       -0.020710893 -0.029976549 -0.030064994 -0.04383837
0000b0 1a 87 f5 3c 53 dc 05 bd 02 22 a8 bd 10 94 16 bc
       0.029971648 -0.03268082 -0.082096115 -0.009190574
0000c0 dd f1 1d bd 5f b4 87 bd 0b 0e a0 bd c4 3f 8a bd
       -0.038560737 -0.066262 -0.078151785 -0.067504436
0000d0 da ca a1 bd c6 87 1a bd d0 24 2a bd 04 b5 59 3d
       -0.07900019 -0.03772714 -0.041539013 0.053151146
0000e0 f2 8f 88 3d 28 d7 1b bd 5f e5 7c 3d ee 6f 0d ba
       0.066680804 -0.038046986 0.061742183 -0.0005395402
0000f0 69 c1 0a bc 5f d0 5f bd 7b 7c a6 bc d9 ba 82 bd
       -0.008468964 -0.054642078 -0.020323029 -0.063832946
000100 ce 34 7f 3d f6 21 56 bd 67 70 41 3d 4e 4e ac 3c
       0.062306218 -0.05227848 0.047226336 0.021033432
000110 1a d7 58 3d 24 f6 16 bd ae 0e 81 3d 33 50 1f 3c
       0.05293951 -0.03685583 0.06301628 0.009723711
000120 7d 84 84 3d fa e2 98 bd 47 d9 e8 bc 9a fb 05 bd
       0.06470583 -0.07465167 -0.028423918 -0.03271065
000130 3d e4 4f bd c1 4b 47 bc 38 a0 3e bd 3e 7f 23 bd
       -0.050754774 -0.012164057 -0.046539515 -0.03991627
000140 af 41 87 bc 89 bc 1d bd 1e df 9e 3c 1b 6d 6d bd
       -0.016510813 -0.03850988 0.0193935 -0.05796538
000150 c0 14 37 bd e0 bb b8 bd f6 84 19 3d fc 15 80 3d
       -0.044697523 -0.09020209 0.037480317 0.06254193
000160 56 19 81 bd 15 8c 20 3d 3d d3 96 3c 5c 01 81 3d
       -0.063036606 0.039196093 0.018411273 0.062990874
000170 84 74 13 b9 3f af 59 3d cf 14 6f 3d 48 7e 8a bd
       -0.00014062418 0.053145643 0.058369454 -0.067623675
000180 ca df 37 3c 4e e0 0d 3d a5 85 72 bd 89 e9 90 3d
       0.011222789 0.03463774 -0.059209485 0.07075793
000190 a9 4e a8 3d ab a3 0a bd 59 fc 2f 3d e6 9f ae bc
       0.08218128 -0.033847492 0.042965267 -0.02131648
0001a0 74 81 3c bd 58 42 0a bc 72 7b 12 3d 0d 8a a8 3d
       -0.046021894 -0.008438669 0.035762258 0.08229456
0001b0 67 9b 2a 3d 3b 10 43 bc 95 31 fe bc 64 fb 26 3d
       0.04165211 -0.011905725 -0.031029502 0.04076709
0001c0 77 d7 7b 3d 0b e5 01 bd bb 8d 69 3d ab 1e 38 bd
       0.06148478 -0.031712573 0.05701993 -0.044951122
0001d0 f4 78 5c bd 6a 55 b1 3d a3 42 6c 3d 76 f3 6f bd
       -0.053826287 0.086588696 0.057680737 -0.05858179
0001e0 51 ed 2b bd 8b dd 94 3d cc dd 62 3d 1d 6d 8d 3d
       -0.04197437 0.072688185 0.055387303 0.06905577
0001f0 8d e7 ff bc d1 32 a0 3d c4 d2 79 3b 0f 1e 0f bd
       -0.031238342 0.078221925 0.003812001 -0.034940775
000200 b6 20 a7 3d 5a 98 81 3d a6 b4 85 3d cb 6d 3d 3d
       0.08160536 0.06327887 0.065285966 0.046247285
000210 75 3f de bc a9 b8 80 3d f3 ef 5d 3d d0 ae d7 ba
       -0.027129868 0.06285221 0.05418391 -0.0016455296
000220 cf 10 15 bd 5d fa 86 bd 1d b3 c0 bc c1 65 8d bd
       -0.036392983 -0.06590722 -0.023522908 -0.06904174
000230 78 2d af 3c a9 d7 1b bb bf 86 a8 3c ff 1a 83 bc
       0.021383986 -0.0023779667 0.020572064 -0.016004084
000240 59 d4 83 3d f4 ce 7a bd 8b b1 5d 3d 70 3c f8 3c
       0.064369865 -0.061232522 0.054124396 0.030302256
000250 f7 5c ae bb 79 3a 95 3c b0 fb a2 3d 45 05 89 3d
       -0.005321141 0.018216358 0.07958162 0.06690458
000260 b0 46 88 38 e2 d8 cd 3c b2 53 9a bd 8f 8c 80 3d
       6.498152e-05 0.025127832 -0.07535495 0.062768094
000270 d4 d4 86 3c df 3a 25 bd 56 aa 92 bd f7 09 4d 3d
       0.016458906 -0.040339347 -0.07161395 0.05005833
000280 a8 99 9d bd 16 22 a3 bc 22 72 e0 3b d7 b7 65 3d
       -0.07695323 -0.019913714 0.006849543 0.056083526
000290 d7 29 3c bd 14 f6 18 bd 02 77 a4 bd c9 e9 c7 3c
       -0.04593834 -0.037344053 -0.080305114 0.02440347
0002a0 74 79 9d 3c 43 a5 4a 3d 02 9b 69 bd 1d b3 92 3d
       0.019222952 0.049474012 -0.057032593 0.071630694
0002b0 ff 3b bb 3b 3e f7 a5 3d 5c c1 0a 3d 63 c1 7a 3d
       0.005713939 0.08103798 0.033875808 0.061219584
0002c0 08 69 a9 bc 46 5f 11 3d 3d 3c 38 bd d6 67 1f ba
       -0.020679966 0.03549125 -0.044979323 -0.00060808414
0002d0 15 65 ca 3a d4 22 40 bd c5 75 57 bd 4f 5b 8f bd
       0.0015441502 -0.046908215 -0.05260255 -0.069998376
0002e0 25 51 61 3c 65 12 55 3d 1b 67 97 bd 93 8a 8a bd
       0.0137522565 0.052019496 -0.07392713 -0.06764712
0002f0 30 65 a3 bd d6 ce 76 bb 81 cb 71 3d 34 2c 87 3d
       -0.07978284 -0.0037659905 0.059031967 0.06600228
000300 20 f9 15 3d d7 4d 8c bd 35 bf 74 3d 9a b7 83 3d
       0.036614537 -0.06850784 0.05975266 0.064315036
000310 ca bc 02 3c 60 69 74 bd 5b 2e 91 bd ed 20 99 3d
       0.007979581 -0.059670806 -0.0708892 0.07476983
000320 81 79 8c 3b 1a 6a 88 bd 93 39 13 3d 63 80 c0 3a
       0.0042869453 -0.06660862 0.03594358 0.00146867
000330 e3 d7 99 bc 10 d5 ea 3c 2c e2 c9 3b d9 e5 79 3d
       -0.0187797 0.02866605 0.006160995 0.061010215
000340 04 6e b3 bb 74 63 96 bd 59 2b 61 bd 13 64 ba bb
       -0.0054757614 -0.07343188 -0.05497298 -0.0056881993
000350 d3 89 6d bd 62 c3 14 3c 9c ca 6d 3d 7e 0c 8f bc
       -0.057992768 0.009079786 0.05805455 -0.017462011
000360 d9 b8 82 bd ee 44 a1 3d ba 4e ae 3c 10 ea b1 3c
       -0.06382913 0.078744754 0.021277774 0.021718055
000370 40 e0 99 bc 53 79 a9 bd c8 dc 37 3d 76 db 55 bc
       -0.018783689 -0.08275094 0.044888288 -0.013052812
000380 76 48 55 bc 2e 6c 12 bc 77 07 8b bd 9b b2 9c bd
       -0.013017764 -0.008936925 -0.06788533 -0.07651254
000390 b5 73 88 bd fa 4d 73 bd 1a 0a 81 3d 28 b4 70 bd
       -0.06662694 -0.059400536 0.06300755 -0.05876556
0003a0 77 2a f7 bc 49 f8 44 bc 2a db 13 3c bf 7d fb 3a
       -0.030171616 -0.012022086 0.009024421 0.0019187256
0003b0 2f 4c 03 3d 8e a5 38 bd 53 94 6f 3d a6 b8 9b 3d
       0.032055076 -0.04507976 0.058491062 0.07603578
0003c0 8b 01 1c bd 9c 40 52 bc 11 f1 8d bd 50 c7 63 bd
       -0.03808741 -0.012832787 -0.069307454 -0.05561
0003d0 3d 77 3e bd bb 96 1c bd 17 b0 8f 3c 23 a4 14 3d
       -0.046500433 -0.038229685 0.01754002 0.036289345
0003e0 25 00 af 3c 90 3e ea 3c 86 6d 15 bc 9f 7b 0f 3d
       0.021362374 0.028594285 -0.009120351 0.035030004
0003f0 f1 f0 60 bc 38 66 57 3d d2 e4 42 bd c7 6d 72 bb
       -0.01372932 0.052587718 -0.0475815 -0.0036991702

conv3.bias f4 [32]
000000 4b 6d 16 3e 98 a9 54 bd 87 18 33 3e 6f 4f ed bc
       0.1469013 -0.05191955 0.17489825 -0.028968541
000010 32 50 c6 bd e6 53 d2 3a 0f db 93 3d 91 35 7c 3b
       -0.09683265 0.0016046732 0.072195165 0.0038484077
000020 fb a2 0a 3c 13 84 0c 3d 08 8d 6b bd 2e 59 be 3d
       0.008461709 0.034305643 -0.057507545 0.092943534
000030 b8 d9 b4 3c 9e a7 69 bd 74 9c 93 3c bd 98 28 3e
       0.022076473 -0.057044618 0.018018939 0.16464515
000040 2a 2a 29 bc 8b e1 7c 3d fe f2 ce 3c 34 12 b7 3c
       -0.010324994 0.061738532 0.025262352 0.022347547
000050 51 d8 e8 3c 39 9d bb bc 27 19 8b 3e 4e 7d 27 3e
       0.02842346 -0.022902118 0.27167627 0.16356394
000060 5b 97 e4 3b c1 2b f1 3b 1c 6d cc 3c b8 35 8e bd
       0.006976051 0.007359952 0.024954371 -0.0694384
000070 13 3c 7c bd 5d 90 6d 3e 77 c5 bf bc 28 37 a2 3d
       -0.06158073 0.23199601 -0.023409588 0.079206765

conv4_1.weight f4 [2, 32, 1, 1]
000000 fe e3 1a bd e5 97 cd 3d 78 9a 81 bd 43 d3 98 be
       -0.037815087 0.10038737 -0.06328291 -0.2984868
000010 21 65 8a bd c6 f2 2b be 94 59 0a bc 8b 84 18 3e
       -0.0675757 -0.1679183 -0.008444209 0.14894311
000020 f2 46 3c bb c4 f3 1b be e4 46 e8 bd 90 59 73 be
       -0.002872881 -0.15229708 -0.11341646 -0.23764634
000030 eb 3f 04 be 0f f7 76 3e 2d 2b d5 3e 2a 51 5a 3e
       -0.12915008 0.24117683 0.41634503 0.21320024
000040 fa 36 2a 3e 60 36 5c 3e be 08 12 3e 27 12 12 3e
       0.16622534 0.21505117 0.14261147 0.14264737
000050 23 64 27 3e fc 9b b6 bc cf 01 95 bd e7 cc 02 3d
       0.16346793 -0.022291176 -0.072757356 0.03193369
000060 7b e4 0a 3e 91 17 44 bf 01 ce f1 3e 9f 40 ac ba
       0.13563721 -0.7659846 0.4722748 -0.0013141817
000070 a0 d2 c9 3d 57 3a 13 3f 3b 06 ec 3b 33 9b 1c 3c
       0.09854627 0.57510895 0.007202891 0.009558487
000080 26 63 0f 3e 97 8f 8f bd 97 17 af bd bc 21 d2 3e
       0.14002666 -0.070098095 -0.08549421 0.41041362
000090 e7 a7 a2 3d 35 9b 53 3d ba 34 e1 3c 63 8f 79 bd
       0.07942181 0.05166169 0.027490962 -0.06092776
0000a0 a7 50 ca 3d 88 70 1d ba e8 80 a6 bb 36 14 66 3e
       0.098786645 -0.0006005843 -0.005081285 0.22468647
0000b0 31 6b 8b 3d 71 06 de bc 5f 8f f1 be 9d 30 a6 be
       0.068075545 -0.02710268 -0.47179696 -0.32458964
0000c0 f5 df 8b be dc 8a bb be 93 fc cf be 46 1c 6a be
       -0.27319303 -0.3662938 -0.40622386 -0.22862348
0000d0 ee 58 e3 bd 70 0a da 3d a5 77 73 3d f7 c3 0d be
       -0.11100946 0.10646522 0.059440274 -0.13844286
0000e0 2f c8 fd bd 0e d3 3e 3f 59 be 02 bf 2c 87 a7 3d
       -0.123916976 0.74540794 -0.510717 0.08180079
0000f0 f1 c0 b5 bd bb c9 0b bf f8 bb b8 bd ef 34 83 3e
       -0.08874691 -0.5460469 -0.09020227 0.25626323

conv4_1.bias f4 [2]
000000 8c ca ca bd 5d 75 27 3e
       -0.09901914 0.16353364

conv4_2.weight f4 [4, 32, 1, 1]
000000 52 ec 07 3e 86 a6 80 bc 98 2e 5c bb 20 d3 a5 3d
       0.13273743 -0.015704405 -0.0033597108 0.080969095
000010 2f 96 07 3e f0 14 8c bd 12 10 b9 3d bd 79 04 3d
       0.13240884 -0.06839931 0.09036268 0.03234266
000020 9c 68 01 3e 63 76 24 3e f6 1f 79 3c 7d 14 ef bd
       0.12637562 0.16060786 0.015205374 -0.1167383
000030 df 23 d2 3c a8 0a 88 3c f3 6a 77 bd 23 70 10 bc
       0.02565187 0.016606644 -0.06040473 -0.008815798
000040 7e 48 10 3e e2 3f 04 3e 33 3c 64 bd ca 84 42 be
       0.14090154 0.12914994 -0.055721473 -0.18995968
000050 14 71 63 3d 54 e1 28 be a7 1b ad bd 91 f8 86 bd
       0.05552776 -0.16492206 -0.0845254 -0.06590379
000060 14 0d 9a bd 21 2c 83 bd c6 ef b3 3c 5f 24 01 3e
       -0.07522026 -0.06404901 0.021964919 0.1261153
000070 5b ad 5b 3d 93 86 a5 3c 39 2c e7 bd 87 ae a6 bd
       0.05363212 0.020205772 -0.11287732 -0.08138757
000080 37 f2 c3 bd 66 01 ee bd 19 86 2c bb b1 c3 51 bd
       -0.09567683 -0.116213605 -0.0026325046 -0.051212016
000090 2a 75 50 3d 4f 7e 17 be f7 b0 2f be 40 2d e0 bc
       0.050892986 -0.14794277 -0.1715735 -0.027365327
0000a0 11 3f 32 bd 00 a8 dd bd de 8e a8 3d 69 62 ba 3d
       -0.043517176 -0.10823059 0.08230375 0.091008015
0000b0 a0 2c f6 bd 3b f2 e6 bc b2 64 4d 3d 97 3d 4b 3d
       -0.1202023 -0.028191676 0.05014486 0.049619284
0000c0 4d 0f d9 bd ca 9d c2 3d 5c 27 e8 3d aa 8e 68 3d
       -0.105986215 0.09502752 0.11335632 0.05677668
0000d0 d2 b6 c6 3a df aa 98 bd 80 d4 ca 3d 5b 90 b2 bd
       0.0015160686 -0.07454466 0.099038124 -0.0871894
0000e0 40 c3 9d 3d 71 73 c0 3d b7 f3 81 bd b6 3a 2e be
       0.077032566 0.09397019 -0.06345313 -0.17014584
0000f0 2d b9 0f 3e b0 f3 f5 3b 90 59 22 3e b1 f5 2d be
       0.14035483 0.0075058565 0.15854478 -0.16988255
000100 1d 87 1f bd 43 f6 01 be 7b db 7c 3e 5c 52 3a be
       -0.038947213 -0.12691598 0.246931 -0.1819548
000110 a3 83 95 3d 35 57 73 3d da 7a 27 bd c7 62 bc 3d
       0.07300498 0.05940934 -0.040888645 0.09198528
000120 e5 9b 04 be fa 46 d2 3d 2d a4 ed 3b 61 ab 8d 3d
       -0.12950094 0.10267444 0.0072522373 0.069174536
000130 a2 85 bb bb 7a 60 01 bc 56 55 84 3c 8d 1d 40 3e
       -0.0057227174 -0.007896537 0.016153973 0.18761273
000140 a8 e7 c1 bd eb 90 03 3e 51 d4 31 be cb 00 22 be
       -0.09468013 0.1284825 -0.17366149 -0.15820615
000150 b5 26 24 be 05 d5 a0 bd 58 b8 61 3e b0 1f 90 3d
       -0.1603039 -0.0785313 0.22042978 0.07037294
000160 03 46 a4 3c 84 1d 76 ba 5c ff 85 bd 18 f5 ab 3b
       0.020052915 -0.00093885534 -0.065428466 0.0052477233
000170 0d 56 7b bd f7 ef 32 bb 35 25 b7 bd b4 ce 6b 3d
       -0.06136136 -0.0027303675 -0.089426436 0.057570174
000180 06 42 26 3e 87 85 99 bd 32 55 b8 3c c9 1f f2 3c
       0.16236123 -0.074961714 0.022501562 0.029556172
000190 e8 b2 17 3d 2d f2 27 bc 4a a6 10 3e 46 31 54 3c
       0.037035853 -0.01025061 0.14125934 0.012951201
0001a0 20 34 8a 3d c6 6b 81 bd 92 34 fb bc f7 44 6f 3d
       0.06748223 -0.06319384 -0.030664716 0.05841538
0001b0 16 0d 27 be 19 9c d7 bd 4a 23 1b 3b 63 ea 07 bb
       -0.16313586 -0.1052782 0.0023672157 -0.002073907
0001c0 56 eb 1d be 10 35 1b be bf 63 bd bd 83 91 27 3c
       -0.15421805 -0.1515696 -0.09247541 0.010227564
0001d0 81 13 c5 3c 4d 73 ff 3d ca bb 40 3e a7 4a 16 3e
       0.024057152 0.12473164 0.18821636 0.14676915
0001e0 2a e6 57 3d 1b f8 3a bd 2f e6 9c bd 75 26 2a be
       0.052709736 -0.045646768 -0.076610915 -0.16616233
0001f0 c3 eb 11 bd 26 c0 77 3e 61 6b 00 be 2e 06 7c bd
       -0.03562523 0.24194393 -0.12540962 -0.06152933

conv4_2.bias f4 [4]
000000 0e cc b0 3d 05 ed 17 3d 1d 98 22 3f 4e 14 1d 3f
       0.0863267 0.037091274 0.63513356 0.6135911

conv4_3.weight f4 [10, 32, 1, 1]
000000 9f fb 9b 3c 34 9a a6 3d 7e 7d 3d 3e a4 e0 05 3e
       0.01904088 0.08134881 0.18504903 0.13073975
000010 7e ac 01 3c e0 84 33 3e 8d 59 21 be f9 3c 14 3e
       0.0079146605 0.17531157 -0.15756817 0.14476384
000020 79 a0 d8 bd 4d f8 12 3e a7 52 13 3e 4b 28 93 3c
       -0.10577483 0.14352532 0.14386998 0.01796355
000030 bb 71 35 3d 5e c3 81 bd f3 a4 29 bd 6f 73 ff bd
       0.044297915 -0.063360915 -0.041417073 -0.12473189
000040 8b 2a 09 3c bc e4 70 3d c4 2d 1d bc 8d 94 db bd
       0.008371959 0.058811888 -0.009593431 -0.10721693
000050 d9 cd fa bd 85 77 96 3d da ff 9f 3b 9c bd ad 3c
       -0.122462936 0.07347015 0.004882795 0.021208577
000060 db 28 ac 3d 24 f5 7d bd c2 3a 50 3c 70 cd 0e be
       0.0840623 -0.062001362 0.012709321 -0.13945556
000070 0d ba 09 3c a3 40 9a 3d f5 f5 95 bd 56 14 37 ba
       0.008406174 0.0753186 -0.07322303 -0.0006983926
000080 27 20 c5 3d 92 c8 b4 bd 1f 77 09 be e5 d8 ef bd
       0.09625273 -0.08827318 -0.13424347 -0.11711291
000090 e4 a8 f2 bd 3b f4 2a be 58 f8 1c 3d 8c d5 8d 3d
       -0.118486196 -0.16694729 0.038322777 0.069254965
0000a0 99 9f dc bd 7e 7f 2b be 71 bd c4 bd a8 b9 bc 3d
       -0.10772628 -0.16747853 -0.096064456 0.092150986
0000b0 9b 3f 87 3d 01 68 5c 3d 33 de ee bd cb e0 16 3e
       0.06603929 0.053810123 -0.11663475 0.14734189
0000c0 f3 f0 c3 bd cc 62 16 bd ac b4 c7 bd 48 0b 07 bd
       -0.09567442 -0.036715314 -0.09751257 -0.032969743
0000d0 78 1b aa bc eb 8e 29 3d 40 a6 f8 3d ed 6f f2 3d
       -0.020765051 0.041396063 0.12141085 0.118377544
0000e0 0b c1 a3 3d fc b8 c5 3d 17 94 62 3d 77 fa 24 3e
       0.079958044 0.096544236 0.05531701 0.1611117
0000f0 8e 87 e2 bd bf 46 ec 3d 81 20 26 3e 7e 99 1c 3d
       -0.11061011 0.11536931 0.16223337 0.03823232
000100 ec 75 b0 bd 7b be 27 3e f9 c3 57 3d 12 34 9d bd
       -0.08616242 0.16381256 0.05267713 -0.07675947
000110 01 e0 34 be 90 fc 2e 3e bf 78 1f 3e fd c9 0e be
       -0.17663576 0.17088532 0.15573405 -0.1394424
000120 1d 13 50 bc f8 49 8c 3b c3 90 05 be d4 98 dc bc
       -0.012699869 0.0042812787 -0.13043503 -0.026928343
000130 e8 14 11 be 35 3b a0 3c db f6 32 bd 15 3c 15 3d
       -0.14168131 0.019559482 -0.04369245 0.03643425
000140 b2 5c 12 be ad a5 d0 3c d8 aa f4 3d fa 85 68 bd
       -0.14293173 0.025469625 0.11946648 -0.056768395
000150 b5 27 33 bd 38 bc 1d be 75 12 69 3e a8 95 15 bd
       -0.04373904 -0.15403831 0.22760947 -0.036519676
000160 9a 2f d8 bd 96 ce 0d bd b1 97 78 3d 55 8b 22 bd
       -0.10555954 -0.034620844 0.06069154 -0.03968366
000170 56 94 19 3e 2c f9 bf bd b2 a5 f2 3d 16 a7 b6 bd
       0.14997992 -0.09373698 0.1184801 -0.08918588
000180 27 1f f8 3d b2 40 07 bc f2 1a 22 3d e7 98 12 be
       0.12115317 -0.008255171 0.03957648 -0.1431614
000190 2e 53 90 3d 8c d1 33 3d 98 cd fd 3c 9c 2b df bc
       0.07047115 0.04390101 0.030981824 -0.027242474
0001a0 bd f2 b7 3d 91 dd c7 bc e6 a8 e7 3b 97 c9 4e bd
       0.089818455 -0.024397643 0.007069695 -0.05048522
0001b0 83 70 1d 3e 9f da 8f bd 4d 3b f4 3d 3a 5e 19 3e
       0.15374951 -0.070241205 0.11925373 0.14977351
0001c0 e3 5d 98 3d 45 f6 03 be f1 88 2e 3e 5f 0f 39 bd
       0.074397825 -0.12886913 0.17044427 -0.045180675
0001d0 61 6a ca 3d 95 3e 2f bd 62 92 4c 3e 68 0f a7 bd
       0.098835714 -0.042784292 0.19977716 -0.081572354
0001e0 0f e3 20 3e c7 55 68 bd 5f 01 0d be 02 5a 14 bd
       0.15711616 -0.05672243 -0.13770054 -0.03621865
0001f0 5e 8d 2d be 79 b6 0f bd 02 28 f0 bd 04 92 0f 3e
       -0.16948459 -0.03508613 -0.11726381 0.14020544
000200 2a 5c f7 bc ae a2 0b bd f2 90 a2 3d f4 6d 82 bd
       -0.030195314 -0.03409069 0.079378024 -0.06368628
000210 7d 12 37 bd 28 9a 2e be a1 13 18 3e 2e 7b 1d 3e
       -0.044695366 -0.17050993 0.14851238 0.1537902
000220 8a b3 69 3c 61 9e dd 3d 2d 7c 2e 3d c2 fc bf 3d
       0.014263997 0.10821224 0.042598892 0.093743816
000230 ec 41 70 3d 3c 15 02 be ea b2 12 3e 30 e7 04 be
       0.058656618 -0.12703413 0.14326063 -0.12978816
000240 9b 00 9b bc 29 ae 1a be fb 70 a4 bd d3 cf 8f 3d
       -0.018921187 -0.151055 -0.08029362 0.07022061
000250 3f 47 85 3d 64 f1 19 be 31 c4 3a 3d 8e 5b 01 bd
       0.0650773 -0.1503349 0.04559726 -0.031581454
000260 a4 cf 19 3e 75 62 0b 3d d7 7c 9e 3d 6d d9 26 be
       0.15020615 0.034029443 0.07738655 -0.16293879
000270 77 16 55 bc 27 38 89 3d b5 53 3b 3d 02 50 a9 3d
       -0.013005844 0.06700163 0.045734126 0.082672134
000280 da 90 02 3c cc f7 f4 bd 70 d6 39 3c 4a 9e 09 3e
       0.007969106 -0.11961326 0.01134263 0.13439289
000290 f7 e5 81 3d 2d 42 52 3c 3d ee ea bd 28 83 1d be
       0.063426904 0.01283316 -0.114712216 -0.15382063
0002a0 de bf f9 bd fb d4 fb bc 81 4a cd bc f7 af ed bd
       -0.12194799 -0.030741205 -0.02505994 -0.11605828
0002b0 59 e6 2f 3d ee 23 40 bd 01 72 c5 bd 2f 27 bb bd
       0.042944286 -0.046909265 -0.09640885 -0.09138333
0002c0 8e 8a 82 3d ff a5 70 3d 50 bd 81 3c ab 52 33 bc
       0.063740835 0.058752056 0.015837342 -0.010945003
0002d0 21 4d 29 be 7f c7 b6 bd 3b d6 27 bd d1 8e c8 3d
       -0.16533329 -0.089247696 -0.04097579 0.09792865
0002e0 91 b8 e6 3d 87 54 be 3d 8c 67 eb 3c c7 dd 3f be
       0.11265672 0.09293466 0.028735898 -0.18736945
0002f0 46 d0 a6 bd f9 de 3c 3d 23 23 23 3e 83 de 04 3e
       -0.08145194 0.04611108 0.15931372 0.12975506
000300 52 b2 5e bc fa 23 db 3d 67 bc 0d bd 34 33 af bd
       -0.01359232 0.10700221 -0.034603503 -0.08554688
000310 7c 64 e7 3c 82 60 f5 3b 7e 39 1a be 03 6e 7e bd
       0.028246157 0.0074883113 -0.15060994 -0.062116634
000320 4a 10 17 be ab a9 d8 3d c2 10 10 be de f2 c1 3c
       -0.14752308 0.105792366 -0.14068893 0.023675378
000330 2b 84 23 3e 34 1a 21 be 77 ce 9e 3d 69 33 ff 3d
       0.15968387 -0.15732652 0.07754224 0.124609776
000340 8e 2f 0e 3e 75 0e 4c bd 78 c7 47 be 24 22 1a 3e
       0.13885328 -0.049818475 -0.19509685 0.15052086
000350 75 e5 2d bc 6c 39 23 be fc a2 c7 3d 18 84 b5 3b
       -0.010613789 -0.15939873 0.09747884 0.0055394284
000360 24 10 c4 bc 20 2b 39 bd 27 2f a4 3d 44 39 e7 bd
       -0.023933478 -0.045207143 0.08016806 -0.112902194
000370 4d 5d e4 3d 8b ac 92 bd c4 1a e4 bd 83 cb 83 3d
       0.11150608 -0.07161816 -0.11137918 0.06435301
000380 8f e0 a9 b7 a6 f5 14 be dd 18 c0 3d 3d 73 19 3d
       -2.0250938e-05 -0.14546832 0.09379742 0.037463415
000390 44 67 1a 3e 17 f9 77 bd ea ee 1a 3e 6c b5 cd bd
       0.15078455 -0.060540285 0.15130201 -0.10044369
0003a0 41 64 03 be 86 0a 2f 3e 56 20 55 3d 6d 08 cf 3d
       -0.12831213 0.17093858 0.05203279 0.10109029
0003b0 7a 63 c9 bd 46 96 07 be 18 eb 34 be 5f a8 3c 3e
       -0.09833427 -0.13240919 -0.17667806 0.18423603
0003c0 e7 2c 9d 3d a4 a3 c6 3d e2 8c 0d 3e 4d 11 b5 bd
       0.0767458 0.09699181 0.13823274 -0.088411905
0003d0 7b c3 fa bc c9 45 2c 3d a8 4a 63 3d 7d ef e7 3d
       -0.03061079 0.04205874 0.05549112 0.11324976
0003e0 9c 5f 5e 3d bf 70 3c 3d e7 61 ea bd 9b f8 43 3d
       0.0542904 0.04600596 -0.11444455 0.04784451
0003f0 8b 9a 85 bd 8b 8c 19 3e 11 d8 17 3e 73 79 fb bc
       -0.06523617 0.14995019 0.14828517 -0.03069756

conv4_3.bias f4 [10]
000000 53 86 90 3d 62 1a 05 3e c0 bb d9 3e 49 87 28 3e
       0.0705687 0.12998345 0.42526054 0.16457857
000010 98 a0 01 3e 2e e0 9b 3e 8e 49 79 3e b1 c6 87 3e
       0.12658918 0.30444473 0.24344465 0.26518777
000020 ef 75 c1 3e e3 cf 0f 3e
       0.3778529 0.14044146
