Pytorch face detection - Test/MTCNN_train_process/1/checkpoint_1400.pth (torch, 163949 bytes, 24 tensors)

conv1.weight f4 [10, 3, 3, 3]
000000 c8 9f b1 bd c3 70 03 be 16 98 21 be 91 31 3b 3e
       -0.08673054 -0.12835984 -0.15780672 0.18280627
000010 a4 79 54 bd c2 f2 de 3d 98 85 f4 3d fe 10 67 3d
       -0.051873818 0.10886146 0.119395435 0.05641269
000020 06 c5 7b 3d 07 b7 b5 bc 9c a6 e1 bd ee 61 ca 3c
       0.061467193 -0.022182 -0.11018106 0.0247049
000030 92 9e 8f bc 99 bc 4a bd 28 bd d0 bd b2 f7 18 bd
       -0.017531667 -0.049496267 -0.10192329 -0.037345596
000040 f1 0f 3e be fb f8 67 bd 4e bf 19 be 77 0d 75 bd
       -0.18560769 -0.05663393 -0.15014383 -0.059827294
000050 8e 2b 01 be 97 a7 c0 bc a8 1d 2a be 90 24 ab 3d
       -0.12614271 -0.023517413 -0.16612875 0.08356583
000060 8f cc c1 3c 80 d7 6d bd f0 e7 0d 3e c1 18 da 3c
       0.023657111 -0.058066845 0.13858008 0.026623132
000070 2d 0f 32 3d 35 80 84 3d f4 35 b9 bd 6b d3 a4 bd
       0.043471504 0.06469766 -0.09043494 -0.08048137
000080 2c e7 5c bd ea 45 0e be 40 9c 37 3d 12 e1 2f be
       -0.0539314 -0.13893858 0.044826746 -0.17175701
000090 ba 45 98 bb 44 cb 18 be 4d ab bb bd 8d 32 44 be
       -0.004646984 -0.1492129 -0.091635324 -0.19159909
0000a0 82 6e 18 be 3f d5 df bd 1c bf 28 be d5 3f 16 be
       -0.14885905 -0.10929345 -0.16479152 -0.14672787
0000b0 07 d7 4a 3d a7 70 bd bb de ae 24 3e 3c ff bb bd
       0.049521472 -0.0057812515 0.16082332 -0.091795415
0000c0 a1 ff d4 bd 09 a0 22 3e 67 7b fb 3d 1e 54 05 be
       -0.1040032 0.15881361 0.122793965 -0.1302037
0000d0 73 b0 a2 bd d1 a2 44 be 0e 45 82 bf ee 25 5e bf
       -0.07943811 -0.19202735 -1.0177324 -0.86776626
0000e0 d7 34 41 bf 4a b9 a3 bd 61 de ef 3e 32 66 68 3e
       -0.7547125 -0.079943255 0.4684935 0.22695234
0000f0 28 89 0c 3f c0 dc 30 3f 94 8e 05 3f 09 62 af bd
       0.54896784 0.6908684 0.5217068 -0.085636206
000100 28 c5 15 be 34 5a 2c 3e 55 ab 94 3d f7 a6 cc b9
       -0.1462599 0.16831285 0.072592415 -0.0003903431
000110 35 ba cf 3d 48 07 d1 3d f7 f1 10 be 4c 6e cc bd
       0.10142938 0.10206467 -0.14154802 -0.09981975
000120 51 0e 22 be 0d 95 f5 bd d7 1b 0d 3e 68 99 09 be
       -0.15825774 -0.1199132 0.13780151 -0.13437426
000130 5a 52 5d 3d 70 f8 9c 3d ce 06 7c 3e 51 98 2d 3d
       0.054033615 0.07664573 0.24611971 0.04238159
000140 e4 83 58 be 8b 3c c7 3d ad 39 d4 3e ff 6a b7 3e
       -0.21144062 0.097283445 0.41450253 0.3582382
000150 90 0f a2 3d fe 3e d1 3e 55 6b 9c 3e 6c 15 4b bd
       0.079131246 0.40868372 0.30550638 -0.049580976
000160 1f 26 94 3e 33 62 18 3d e8 7d 0b be ce a6 a0 be
       0.28935334 0.037203025 -0.13622248 -0.31377262
000170 e5 d6 1f be 70 e5 7b be 89 a3 23 be 81 1d 6d be
       -0.1560932 -0.24599242 -0.15980352 -0.23155786
000180 35 17 3f be 17 65 d0 bd 62 36 32 be e2 6e a2 3d
       -0.18661197 -0.10175531 -0.17403558 0.079313055
000190 90 ad 23 be 0c de 6b be 26 2e c0 3d 15 eb 91 be
       -0.15984178 -0.23033923 0.09383802 -0.28499666
0001a0 f3 0c 3e bd 81 6a 3f 3e d0 e2 50 be 79 ee a1 3d
       -0.046399068 0.18692972 -0.20399022 0.07906813
0001b0 fd 93 81 bd 6f a5 d7 3e 2e 2e 8d 3e ae ed 28 3e
       -0.06327055 0.42118403 0.27574295 0.16496918
0001c0 9e c7 0c 3e 33 c5 0e 3e e2 f4 1d 3e 5e 53 92 3d
       0.13748023 0.13942413 0.15425447 0.07144807
0001d0 83 e7 04 3e 13 cd 83 3e 58 fd b1 3d db 3f 93 3e
       0.1297894 0.25742397 0.086908996 0.28759655
0001e0 70 2d a6 3d 26 c1 16 be ed 6f c1 3d f8 0b 4e bd
       0.08114135 -0.14722118 0.09445176 -0.050304383
0001f0 f9 50 3c be 0d 34 0c be 5d 42 41 3e c3 08 e5 3d
       -0.18390264 -0.13691731 0.18872972 0.11183312
000200 04 49 b5 bc bc b3 7a 3d fa a5 95 bc 0c 0a e7 bd
       -0.022129543 0.061206564 -0.01826762 -0.11281213
000210 12 d0 46 3d 15 60 86 bd 16 5c 0c 3e 3d 87 17 bf
       0.048538275 -0.06561295 0.13707003 -0.5919073
000220 e7 77 78 3d f4 28 eb 3e 1a bf 20 be 5f 4e a8 be
       0.060661223 0.45929682 -0.156979 -0.32872292
000230 e1 e1 d9 3e 67 45 dd bb d9 a3 c7 bd 7e c8 6e 3e
       0.42555144 -0.006752658 -0.09748048 0.23318669
000240 af 1c ed be ad ca d7 3d f6 9d f8 3e 1e 8f 8c be
       -0.46310946 0.10536704 0.48558015 -0.2745294
000250 1a 80 ec be 30 d1 34 3f 6f f6 fb 3d b8 81 d6 be
       -0.46191484 0.70631695 0.12302863 -0.41895843
000260 81 21 23 3e b9 5c 49 be 7d 9b 9c bc 79 ea 55 3e
       0.1593075 -0.19664277 -0.019117111 0.20890225
000270 d1 60 50 3e cb 7e b0 be 5e 1c d4 3d ab 68 54 3e
       0.20349433 -0.34471735 0.10356973 0.20743053
000280 37 47 2a be ef b4 f0 bc 91 24 16 bf 9d 41 f9 be
       -0.16628729 -0.02938315 -0.58649546 -0.4868287
000290 90 fb 4b be 42 17 ba be 92 c0 37 3e d4 f5 7f be
       -0.19920182 -0.3634587 0.17944553 -0.2499612
0002a0 ec 7b a2 be 2e 34 9e be 51 8e 02 bc 7b 2b 2a 3f
       -0.3173517 -0.30899185 -0.007968501 0.66472596
0002b0 dd 43 40 3e 63 83 89 3e 8a 86 d4 3e a6 e2 09 3f
       0.18775888 0.26858053 0.41508895 0.53861463
0002c0 bf 2d 67 3e b3 61 55 3f da c7 1d 3f a3 13 07 3f
       0.22576044 0.833522 0.61633074 0.5276434
0002d0 b4 a8 42 3e 3a c0 34 3d 74 a2 bb 3d b8 68 f7 bd
       0.19009668 0.044128634 0.09161845 -0.120805204
0002e0 77 19 50 be 02 6a 86 be 6a 0b 73 be 80 8f c2 be
       -0.20322214 -0.26252753 -0.23734823 -0.38000107
0002f0 a4 6b 8c be 57 eb ac bd ab 38 0a 3e 0b 1b 09 be
       -0.27425873 -0.08443325 0.1349818 -0.13389222
000300 70 eb 36 be 38 24 8e bd da 6f d5 3c 88 bd 8b 3c
       -0.1786325 -0.06940502 0.026054312 0.017058149
000310 21 ad 16 3d ae d0 d7 3d 51 dc 9a bd c2 f9 0b be
       0.036786202 0.10537849 -0.07561553 -0.13669494
000320 0b 93 16 be 34 a5 3d 3e 59 93 de 3d cd 43 31 3e
       -0.1470453 0.18520051 0.10867948 0.1731102
000330 c4 6d 75 bd 4b b7 55 bd 53 63 38 bd f0 a4 44 be
       -0.059919134 -0.052176755 -0.045016598 -0.19203544
000340 ce 92 8a bd 8c aa 35 be 9f 06 41 3c 7e c9 29 bd
       -0.06766282 -0.1774084 0.011781364 -0.041451924
000350 b2 c4 1a be db e1 35 be 16 21 90 bd fb d6 a5 3b
       -0.15114096 -0.17761938 -0.07037561 0.005061028
000360 b5 b0 be 3e a4 5b 6f 3e 31 b8 ca be 89 be 9f 3e
       0.37244192 0.23374802 -0.39593652 0.31200054
000370 08 42 87 be c2 66 4f be 83 cd 36 3d 9d 60 2b be
       -0.26417565 -0.20254043 0.044629585 -0.16736074
000380 8d 11 c6 be 15 c1 93 3d 3e 92 33 3e 68 88 7f be
       -0.38685265 0.07214562 0.17536256 -0.24954379
000390 8b f0 b6 3e 95 94 9e be 3f 89 15 bd 37 df 6f be
       0.35730395 -0.30972734 -0.03650784 -0.23424993
0003a0 a5 f1 81 be 38 b4 73 3d 15 96 35 be 18 da 8f 3e
       -0.25379673 0.059498042 -0.17733033 0.2809608
0003b0 54 6c d2 be fb 4b f8 bd fe 29 28 bd 33 9a 7b 3e
       -0.41098273 -0.12123867 -0.041055672 0.24570541
0003c0 25 d7 57 bd 73 68 9e bd 9c 95 50 3f f5 2e 3d bc
       -0.052695412 -0.07734766 0.81478286 -0.01154684
0003d0 80 ba ad bd 82 24 53 3e eb 7e 80 bd ee 07 cc be
       -0.08482838 0.20619395 -0.06274208 -0.398498
0003e0 39 12 b7 be 24 b4 b7 3e 6d 28 1b 3e 1d ca 2b 3e
       -0.3575609 0.35879624 0.1515214 0.16776319
0003f0 b0 9a b8 be bc a1 1e bf 92 9c 65 be f8 ef 79 3d
       -0.36055517 -0.6196554 -0.22423008 0.061019868

conv1.bias f4 [10]
000000 bb 36 22 be 94 4e 1b be c4 e9 95 3e 47 cd 34 be
       -0.1584119 -0.15166694 0.29279912 -0.17656432
000010 b3 bb 94 bd 9f e6 99 3b 86 28 43 3d f6 c2 83 bd
       -0.07262363 0.0046966816 0.047646068 -0.0643367
000020 f6 e6 c9 3e 73 31 b3 3d
       0.39434022 0.08749666

conv2.weight f4 [16, 10, 3, 3]
000000 d6 fa 5a 3d c0 c2 33 bd fa 9b 83 bb 60 cc a6 bd
       0.053461872 -0.0438869 -0.0040163966 -0.0814445
000010 17 6c bb 3d 43 cb 98 3d 4e bd 49 bd 77 76 7b bd
       0.09151476 0.07460644 -0.0492528 -0.061392274
000020 89 0b 84 bd 85 f8 0e bc 4b 6b 15 bd 37 72 ac bd
       -0.06447513 -0.008726244 -0.036479276 -0.08420222
000030 e1 af 49 3d 51 0f ce bd 60 3a 8d bd 43 da a7 bd
       0.049239997 -0.10061515 -0.068959 -0.08195927
000040 4a b8 3f bc 7b 29 10 3d dc 2d 95 3e 97 24 5f 3e
       -0.011701653 0.03519581 0.2913655 0.21791302
000050 8e 66 48 3d 97 19 9c 3d 64 35 d2 3b b6 ca b4 3d
       0.04892593 0.076220684 0.006415056 0.088277265
000060 b1 95 33 3d 75 5a 2d bc 77 8c e3 3d 6a 2f bf 3c
       0.04384393 -0.010580649 0.11110776 0.023338038
000070 80 e4 ed 3d b6 cb 05 bd a9 f7 b0 bc ec 86 74 3c
       0.116158485 -0.032664977 -0.021602469 0.014924746
000080 15 8b c9 bd 8f 90 8c bb 30 12 f8 bd 57 86 94 bd
       -0.09840981 -0.0042896937 -0.12112844 -0.07252186
000090 bc a1 1c 3e 42 ae df 3d a5 7b 90 3e 68 a2 8f be
       0.15296072 0.10921909 0.28219333 -0.28053594
0000a0 b4 f6 66 be 09 b9 5a 3e ad 84 7c be 9f e0 05 3d
       -0.22555047 0.21359648 -0.24659987 0.03268492
0000b0 b3 e4 66 3d 9e e4 69 be ec c9 57 bd 92 47 87 bd
       0.05637045 -0.22841117 -0.052682802 -0.06605448
0000c0 1b b0 f6 be 17 d6 d9 be cc 99 67 be de 94 d0 be
       -0.48181233 -0.4254615 -0.22617263 -0.40738577
0000d0 a0 8f 90 be ac c7 99 be 9f 2f 9d bd ea 57 ca 3c
       -0.28234577 -0.3003515 -0.07675099 0.024700124
0000e0 94 f4 c0 bd 7b 0d 3d be 7b 9b 4b 3d 3b 44 0d bb
       -0.094216496 -0.18462174 0.049708825 -0.002155556
0000f0 d8 3f 2c be 36 09 53 3e aa 2c 34 bd 37 09 67 3c
       -0.1682123 0.20608982 -0.043987907 0.014101318
000100 ae e1 16 3b b1 ba 56 3b f6 1d d2 bd 60 d1 cf bc
       0.00230227 0.0032765085 -0.10259621 -0.025368392
000110 c3 36 9d bc 0f e8 4e 3d 52 18 3d 3c 48 8c 58 bd
       -0.019191151 0.050514277 0.011541443 -0.052868158
000120 ca 87 09 3d a4 f4 3d bd ba c5 4d be b7 7b a7 bd
       0.033576764 -0.046375886 -0.20094958 -0.081778936
000130 5e ef f6 bd 20 01 62 be d3 b7 b3 bd 85 c7 8e 3d
       -0.120573744 -0.22070742 -0.08775296 0.06971649
000140 f7 6b a6 bd e7 9f e2 bd 53 cc 5e bd 9d db 4e bb
       -0.081260614 -0.11065655 -0.054394078 -0.0031564005
000150 90 fe be 3d 1b a1 e3 bb a1 e8 bc bd 98 a9 64 bd
       0.09325898 -0.0069466955 -0.09224058 -0.0558258
000160 a7 95 d0 3d f5 05 fe bb 49 f3 29 3d a2 94 29 bd
       0.10184794 -0.007752175 0.04149178 -0.041401513
000170 7e c4 8f bd c2 d0 63 bb ab 1f d4 3d fe 15 ec 3b
       -0.070199 -0.003476188 0.10357603 0.00720477
000180 88 29 d3 3c 98 fc 84 bc 32 b3 33 3b b3 43 a3 3d
       0.02577664 -0.016233727 0.002742004 0.07971897
000190 10 89 8e 3d 8e bd 0d 3c ba 8f a1 bd 9e 67 b7 bd
       0.06959736 0.00865115 -0.07888742 -0.0895531
0001a0 bc bf 9f 3d 08 48 71 3d ac f1 be bc db 04 b6 bd
       0.07800242 0.058906585 -0.023308598 -0.08887645
0001b0 e5 1e cc bd 34 09 31 3e 72 b5 b3 3d f7 a2 2c 3e
       -0.0996683 0.17288667 0.08774842 0.16859041
0001c0 a1 ca 84 3e 81 8a 2e be 92 7d e3 3d 49 70 48 bd
       0.25935844 -0.17045023 0.11107935 -0.04893521
0001d0 27 2b 9b bd e7 94 12 be b0 7f 51 3c 21 e7 b2 3c
       -0.0757659 -0.14314614 0.012786791 0.021838726
0001e0 c6 c2 01 3e e7 42 00 3b 9f bb 85 3c 64 7e 45 3d
       0.12671956 0.0019571127 0.016324816 0.04821624
0001f0 83 19 f5 b9 02 83 b2 bc 6b ee d6 bd f7 63 1f be
       -0.0004674905 -0.021790985 -0.10494693 -0.15565477
000200 df aa 2c 3e 92 d8 65 bd dc c4 58 3e b0 00 7c 3e
       0.16862057 -0.05611474 0.21168846 0.24609637
000210 bd 27 3f bd 93 57 1f be ce 62 c3 bd 84 a3 4a bd
       -0.046668757 -0.1556075 -0.0954033 -0.049472347
000220 17 bb 3d be 34 07 de bd 5e f0 e5 bc 73 60 72 3d
       -0.185284 -0.10841218 -0.028068718 0.059174012
000230 b7 6b ef 3d 25 d4 f8 3a 60 06 e0 bc c0 1a 27 3b
       0.11690467 0.0018984122 -0.02734679 0.0025498122
000240 0e fd 7d bd ac f0 a9 3d 39 75 a0 bd 8c b9 00 be
       -0.06200891 0.08297858 -0.078348584 -0.1257078
000250 ab 47 5f 3d 8f 8d f4 3c 73 40 51 bd d9 9c e8 3d
       0.054511707 0.029852657 -0.051086854 0.11358041
000260 cf 95 0a 3d 7d da f8 3c 7e 23 ac bd cd 66 cf 3c
       0.033834275 0.03037762 -0.08405207 0.025317574
000270 33 0f cd 3c 12 4e 9f bd 94 48 d1 bd a2 6b 78 bd
       0.025031662 -0.077785626 -0.10218921 -0.06064952
000280 84 52 a7 bb 7a 43 aa bd d6 a1 2a 3e 7f 1a cd bd
       -0.005106272 -0.083136514 0.16663298 -0.10014819
000290 fd 28 8f be ea f1 2b 3e 8b ce 29 be b7 7f 36 be
       -0.2796096 0.16791502 -0.16582696 -0.17822157
0002a0 b7 68 39 3e 5e e8 05 3e d8 ca 66 3e 22 57 b4 bd
       0.18106352 0.13076922 0.22538316 -0.08805682
0002b0 a6 ae 86 3d 53 19 0e be a8 5e 12 be 22 81 72 3c
       0.0657628 -0.13876848 -0.14293921 0.0148012955
0002c0 47 2d 93 3d be 07 ec 3b c4 10 76 3b 89 32 8e 3c
       0.0718637 0.0072030714 0.0037546614 0.017358081
0002d0 35 ae 05 3d 77 1b c3 bd 6e ec ad 3d 4f ee 78 3d
       0.03263684 -0.09526723 0.08492361 0.060774144
0002e0 80 66 20 bd 74 b7 26 bd bc 03 87 3d f0 f6 8e bd
       -0.03916025 -0.0407023 0.06592509 -0.06980693
0002f0 aa b4 74 3c 87 59 3e 3d 03 0d cc bd 5b d9 bc bd
       0.014935652 0.0464721 -0.09963419 -0.09221145
000300 75 e0 6f bd 65 4b ea bc 1e a2 3a bd ba e9 f9 bb
       -0.05856367 -0.028600404 -0.045564763 -0.0076267393
000310 7a 8a 24 bd a2 23 28 3d 28 b8 28 bf c7 c3 ea be
       -0.040171124 0.041049607 -0.65906 -0.4585249
000320 16 e0 fa bb 7b 9d ee be c4 b0 0a be d6 ff c3 bd
       -0.0076561077 -0.46604523 -0.13543993 -0.09570281
000330 6b c1 aa bd 57 58 06 3e 13 cd 39 3c 09 ce 62 be
       -0.08337673 0.13119636 0.011340397 -0.22148909
000340 db d6 a5 bd 49 6f 01 3d 42 af 19 3d d4 2c 7d 3d
       -0.08097621 0.03160027 0.037520654 0.06181033
000350 c8 dc 15 bd 04 2a bb bd ec fc f7 3b 30 f0 a5 3d
       -0.036587507 -0.09138873 0.0075679924 0.08102453
000360 53 05 c3 be 7d ae 32 bf 0a 85 e3 bd 7b 50 cd 3d
       -0.3809 -0.697975 -0.111093596 0.10025116
000370 28 50 fd 3d 05 2b 0f 3d d5 0a e8 3e 95 1c b7 3e
       0.12368804 0.034953136 0.45320764 0.35763994
000380 f4 a9 93 3d 4d 71 91 3d eb d9 87 3e d1 4c 21 3e
       0.0721015 0.071016885 0.26533446 0.1575196
000390 ab c0 b2 3d 61 96 32 3c 91 c1 3a bd 01 83 29 3e
       0.08728155 0.010900111 -0.045594756 0.1655388
0003a0 e7 89 b8 bc 91 c2 cf bc 39 8f 3a be 7d 0d 2c be
       -0.022526694 -0.025361331 -0.18218698 -0.1680202
0003b0 30 48 9f bd 9a c8 78 3d 1e 2c d5 bc ae 47 4a bd
       -0.077774405 0.060738184 -0.026022013 -0.049384765
0003c0 d6 b9 55 bd 6d ee 9a 3d 12 da 48 3d 69 cd 2b 3d
       -0.05217918 0.07565007 0.049036093 0.04194394
0003d0 47 e2 e6 3c 74 ab 67 bd 15 30 7c bd a1 5f 8a bd
       0.02818407 -0.056559995 -0.061569292 -0.06756521
0003e0 5a 5d 83 bd 32 d1 66 3c cd e8 9c bc a0 5b a4 bb
       -0.0641429 0.014087962 -0.019153977 -0.0050158054
0003f0 6f 61 34 3d 41 cb 17 3a 0e 36 ad 3d 01 97 2b 3e
       0.044038232 0.000579048 0.08457576 0.16756822

conv2.bias f4 [16]
000000 79 1d 01 3e 2f d2 ae bd f8 5a f4 3e fe e2 62 bd
       0.12608899 -0.08536183 0.47725654 -0.055392258
000010 11 62 a9 3e 3e 43 f0 bd d4 92 db 3e e3 89 0d be
       0.3308263 -0.117315754 0.42885458 -0.13822131
000020 a1 bf cf be e5 de 91 3c 1b 51 fc 3c af c5 f4 3e
       -0.4057589 0.01780648 0.030800393 0.4780707
000030 51 0a 03 3e 41 e5 79 bd e0 45 7c 3e 2f e5 ee bd
       0.12796904 -0.06100965 0.2463603 -0.11664807

conv3.weight f4 [32, 16, 3, 3]
000000 79 82 ad bc 23 04 54 bd ff 00 00 3e 65 e5 25 bd
       -0.021180378 -0.051761758 0.1250038 -0.04050197
000010 ff a1 81 3d 05 b5 91 3d 49 6c 9d 3c a4 99 01 3d
       0.063297264 0.07114605 0.019216673 0.031640664
000020 ea 1e 78 3d 0c f8 c9 bb cb 8a 2c 3d 1e b4 f9 3d
       0.060576357 -0.0061636027 0.04212455 0.12192558
000030 a4 4d 68 3b 7e 65 b7 3d 6f ea 26 bd 7e 41 b6 3c
       0.0035446668 0.08954905 -0.040750917 0.022248026
000040 30 ac 0c bd 20 bb 94 bc ea 3d 20 bc 8a 82 66 bd
       -0.0343439 -0.018155634 -0.009780386 -0.056276836
000050 ae 35 c8 bc 00 76 02 bc d3 de 85 bd e0 e0 b6 3b
       -0.024439659 -0.007962704 -0.06536641 0.0055810064
000060 be 05 ea 3b 13 1e 4a bd 1d e9 be 3d 5c c6 06 bd
       0.007141798 -0.049345087 0.093218066 -0.032904014
000070 3f 5c 0e bd 98 42 98 3a d6 ee 35 bd 25 2b bc 3c
       -0.03475594 0.0011616526 -0.044417225 0.022969792
000080 5e 7e 33 3d 67 1d f6 bc 04 2f e1 3d 94 7e 61 3c
       0.043821685 -0.030043317 0.10995296 0.013763089
000090 b4 21 1e be 23 92 04 bc bf b7 20 bc 6b 01 8c bb
       -0.15442544 -0.008091482 -0.0098094335 -0.00427263
0000a0 27 3b 03 3d b7 94 a6 3b c6 f8 ca 3b f8 de 6d 3d
       0.032038834 0.005083646 0.006194207 0.058073968
0000b0 d0 fa ed bd b4 a7 85 bd 9b 53 ac bb 05 d4 8c 3d
       -0.11620104 -0.065261275 -0.00525899 0.06876377
0000c0 f8 b3 d2 bc 7a 36 88 bd c7 8f 3e bd ff f5 a2 bd
       -0.025720581 -0.066510156 -0.046523836 -0.07957076
0000d0 dc c7 1a 3d d8 18 b9 3b 02 5f b7 bd 58 8f 08 3c
       0.037788257 0.0056487136 -0.08953668 0.008334957
0000e0 a5 a4 85 3d a0 ce 5d 3d 63 18 38 3d d4 42 d5 3d
       0.06525544 0.05415213 0.044945132 0.10413137
0000f0 0f 08 a6 3b 25 f0 9b bd 19 38 83 3c a0 57 90 3d
       0.0050668786 -0.07614163 0.01601796 0.07047963
000100 16 2c 36 bc 7c 09 ba bc 7c 2a 06 3c 26 b3 99 3d
       -0.011118909 -0.0227096 0.00818884 0.07504873
000110 85 d2 2c bd 78 19 3f 3c c5 99 5a bd 22 14 87 3d
       -0.042192955 0.011663787 -0.053369302 0.06595637
000120 5c b8 e1 bc 2d be 00 bc aa 2e 42 3b df 52 4b 3d
       -0.02755373 -0.007857841 0.0029629865 0.04963958
000130 35 07 44 3d 05 a2 71 bd dc 91 51 3c 55 57 e7 bd
       0.047858436 -0.058992404 0.012791123 -0.11295954
000140 1e 87 f6 3c 8a 07 95 3c 07 74 d4 bc fd d2 a3 bb
       0.030093726 0.018192071 -0.025934232 -0.004999517
000150 0d 74 0d bc 67 b9 bb 3c 0c 9d 37 3d bd e5 27 bd
       -0.008633626 0.022915555 0.044827506 -0.04099058
000160 58 f7 93 bd 95 9b 9b bd 9e cf a9 bd 79 3c f5 bc
       -0.072249115 -0.07598034 -0.08291553 -0.029936062
000170 2e 76 9a bd 12 07 6d 3d 01 12 75 3d ba 9c 63 bd
       -0.07542072 0.05786807 0.059831623 -0.055569388
000180 ec f2 90 bd 42 73 b1 bc 46 9c dc 3c b7 87 86 3d
       -0.07077584 -0.021661405 0.026929986 0.06568854
000190 36 34 04 3e 5a ee 1b 3c 65 80 b9 3d 2e b8 d3 3d
       0.12910542 0.009517277 0.090576924 0.10337864
0001a0 bd d1 64 3d e4 4f 6b bd 9a a2 b8 3d 02 32 8f bd
       0.055864085 -0.057449237 0.09015389 -0.0699196
0001b0 af f5 64 bd a7 6f 2f 3d 3d ef 85 3d 5b ec 9f 3c
       -0.055898365 0.04283109 0.06539772 0.019521883
0001c0 d5 d3 8e bc b7 49 0c bd 25 50 30 3d b3 55 5a bd
       -0.017434994 -0.034249987 0.04304518 -0.053304385
0001d0 03 71 b0 3c 64 57 90 3c 27 23 83 3b d8 23 5f bd
       0.021538263 0.017619796 0.004001993 -0.054477543
0001e0 bd 20 a8 bd 09 c8 9e bd 31 ae 4f 3d 99 15 06 bd
       -0.08209369 -0.077529974 0.05070323 -0.03273544
0001f0 6a 67 e9 bc b4 c9 13 3c 85 01 d1 3d 0e 9a 99 3d
       -0.028491694 0.009020258 0.10205368 0.07500087
000200 89 fc 9e 3b cd d9 31 bd f6 6d 99 3b c0 55 90 bd
       0.004851882 -0.0434206 0.004682298 -0.070476055
000210 88 74 b3 3c c5 ba 23 bd ca cc 3c bd a0 64 c7 bc
       0.021906152 -0.03997304 -0.04609374 -0.024339974
000220 f8 ce 44 bd 93 0a bc 3d 9f 69 94 3d 7f ae 29 3c
       -0.048048943 0.09181704 0.07246708 0.0103565445
000230 97 fe c3 3d 6e 2f 3a bd 9c 1a 17 3d 06 b6 64 3d
       0.095700435 -0.04545539 0.03689061 0.055837654
000240 20 e5 70 bd ef fc 0c bd 13 dd bc 3b ca 35 67 bd
       -0.05881226 -0.034420904 0.005763659 -0.05644778
000250 91 62 4f bd 35 bf 70 bd bc e5 a3 bd 02 d1 41 bc
       -0.05063111 -0.0587761 -0.08002803 -0.0118296165
000260 eb 74 85 3d 4c 8e d1 3d a7 76 13 3d 40 32 ac 3d
       0.06516441 0.10232219 0.036001828 0.08408022
000270 a8 09 8f bc bc 63 bc bc c2 8a bb bc 6e d4 09 bd
       -0.01746066 -0.022996776 -0.022893313 -0.033649854
000280 0d ef bd bb 87 f8 1c bd 64 fe ef 3b 5c 97 e3 3b
       -0.0057963193 -0.03832295 0.007324027 0.0069455337
000290 08 56 5c 3d 7f 18 7f 3d f9 e3 d0 bd 80 c7 44 3c
       0.053792983 0.06227922 -0.10199732 0.012010455
0002a0 cf bd a1 bd a9 03 93 bc 25 d0 82 bd 03 8e f7 3c
       -0.07897531 -0.017946081 -0.06387357 0.030219084
0002b0 0c 87 24 3c 34 48 2f bc 9c f1 1b bd 19 92 3e 3d
       0.010041963 -0.010698367 -0.038072214 0.04652605
0002c0 8f d4 0e bd 6c c5 8d 3d 14 6e 1e bd 1e 18 01 bc
       -0.03487068 0.06922421 -0.038679197 -0.007879285
0002d0 e0 84 d2 bc 76 7a e8 3c 31 fa 23 bd 8e b3 48 3d
       -0.025698125 0.028378706 -0.040033523 0.04899936
0002e0 5f 6f 99 3d a5 6b 68 3d ad 56 f6 3c ff bd 55 3d
       0.074919455 0.056743283 0.030070627 0.052183148
0002f0 67 3d e4 3d b6 e2 ec 3c cf fe 67 3c 30 a3 a3 bd
       0.11144524 0.028916698 0.014159872 -0.0799011
000300 2d 45 aa bd 89 40 a8 3d 65 e9 c0 bc 7d 3b 95 3d
       -0.083139755 0.08215434 -0.023548791 0.07286737
000310 22 6b 38 3d 40 22 77 3d 78 50 55 bd f7 7b 76 3c
       0.045024045 0.060335398 -0.052078694 0.015044204
000320 4c 3b 3f bd e9 6e fd 3c d4 16 b9 3d 67 f4 00 bd
       -0.04668741 0.030936675 0.09037557 -0.03148308
000330 59 96 81 bd f9 02 89 3d fc 3d 75 3d 67 fb 94 3c
       -0.06327505 0.0669002 0.059873566 0.018186284
000340 c7 2c 95 3d 28 5a 57 3d 68 f5 66 3d 92 dc 79 bd
       0.07283931 0.052576214 0.05638638 -0.061001368
000350 a0 d5 9d bd 0d eb b1 bd 31 3b f4 bc 8a a5 b8 bc
       -0.07706761 -0.086874105 -0.02981338 -0.022539873
000360 76 4d cb 3b 81 78 9b 3c 33 fd 7f bc 49 46 be 3b
       0.0062043024 0.01897836 -0.015624332 0.0058067185
000370 ff 8c fa bc b7 e7 1c 3d ed b9 da bb 59 85 a4 bd
       -0.03058481 0.038306918 -0.006674996 -0.080332465
000380 db 2d 89 bd 6f 32 4c bd 4c c0 8a 3d 4f 13 0b bd
       -0.06698199 -0.049852785 0.06774959 -0.03395396
000390 25 22 ab bd 25 2d f5 bc d9 29 4f bd d7 bf 4d bd
       -0.08356122 -0.029928753 -0.05057702 -0.05023178
0003a0 ee 87 be 3b 94 4e 39 bd f7 3c a7 bb 82 88 58 3d
       0.005814544 -0.045240954 -0.005103703 0.05286456
0003b0 b1 1c 63 3c 7d e1 d2 3c 5e a5 65 bd 73 74 ec bc
       0.013861821 0.025742287 -0.05606591 -0.028864121
0003c0 7c 66 6b bd 20 38 a0 3c 76 3e 74 bd 38 0d b3 3d
       -0.057470784 0.019558012 -0.05962988 0.08742756
0003d0 12 1c a8 3d db 18 fc 3c d4 33 4c bd 40 a7 d9 bb
       0.08208479 0.03077357 -0.049854115 -0.006642252
0003e0 12 70 19 bd 5f f7 2c 3d fb 11 d6 3c c7 82 ea bb
       -0.037460394 0.0422281 0.02613162 -0.007156703
0003f0 5c 4e 88 bb d4 b8 8a bd 43 7d 1d bc 63 b4 20 bd
       -0.004159732 -0.067735344 -0.009612384 -0.03923453

conv3.bias f4 [32]
000000 53 b0 8c bd 3a bb 29 3d 7a 2b b0 3b 70 65 cb ba
       -0.06869569 0.04143832 0.0053762766 -0.0015517902
000010 2f 1c 8b bd a4 69 26 3e 5d 39 4c 3d 7b 27 e1 3e
       -0.06792485 0.16251236 0.049859393 0.43975434
000020 d3 2b 2d bd 68 af 44 3b 06 7e 94 bd e7 c4 29 bb
       -0.042278122 0.0030011777 -0.072505996 -0.0025904716
000030 4a 3b 87 bb 0b 56 13 bc d0 da 61 3d 32 94 24 3e
       -0.004126941 -0.008992682 0.055140316 0.16072157
000040 b5 ae 78 bd 23 15 31 bd 5e 00 e4 3e cc 7f 16 3e
       -0.06071349 -0.04323305 0.4453153 0.14697188
000050 b5 64 a8 3d a1 54 77 bd 29 7c 95 3e d3 25 08 bd
       0.08222333 -0.060383443 0.2919629 -0.033239197
000060 6f e2 be bd 54 74 03 3e 57 a8 8b bd de a7 11 bd
       -0.093205325 0.12837344 -0.06819218 -0.03556048
000070 6c 39 36 3e 0f 1e 39 bd d7 c7 23 bc 41 6e b7 3d
       0.17795342 -0.04519468 -0.009996376 0.08956576

conv4_1.weight f4 [2, 32, 1, 1]
000000 61 e3 8d 3e 94 d7 8a 3d ae d0 df be ea 52 0f be
       0.2771254 0.067793995 -0.43713897 -0.13996473
000010 e0 bd d3 bd 71 14 47 be 32 5f a3 3e b4 c0 fc be
       -0.1033895 -0.19441392 0.31908566 -0.4936577
000020 8b 7d 1e 3e 4b c1 33 be 83 6b 2f bd 2d 9e 64 be
       0.15477578 -0.17554204 -0.04282714 -0.22325964
000030 fc 0f 08 3f a5 51 5c be 09 9f 8c 3d e2 46 34 be
       0.5314939 -0.2151552 0.06866271 -0.17605165
000040 9b fc 78 be 3e 52 f1 bd b7 48 d5 bf 3b 9a 47 3f
       -0.24315111 -0.117832646 -1.6662816 0.7796971
000050 d6 e7 88 3f 80 8e 74 bd 21 95 4f 3f 5f a3 a6 3d
       1.0695751 -0.05970621 0.8108693 0.08136629
000060 f8 5c 1d 3c ec e9 e2 3e 3f a8 0d be 47 08 21 be
       0.009604685 0.44319093 -0.13833712 -0.15725814
000070 52 49 39 3e a8 a3 3c bd 28 de 71 bd 0f 6f eb 3e
       0.18094376 -0.046054512 -0.059049755 0.45983168
000080 36 31 6e be 34 0a cd 3c 01 78 d2 3e 22 7e 12 3e
       -0.2326096 0.02502928 0.4110718 0.14305928
000090 c7 6e 13 3d 85 d5 94 3e 3c ea a9 be 61 1b 18 3f
       0.035994317 0.29069152 -0.3318652 0.59416777
0000a0 12 cb 1f 3e f2 3c 9d 3c 2d bf 30 3d bc cd de bc
       0.15604809 0.0191941 0.04315107 -0.027197711
0000b0 ef c3 17 bf 96 99 9a 3e f4 1e a9 3d 64 46 82 3d
       -0.59283346 0.30195302 0.08257857 0.06361082
0000c0 26 f5 b4 3e c5 ac da bd b2 ba c2 3f c4 aa 4c bf
       0.35343283 -0.106774844 1.5213225 -0.7994807
0000d0 63 c2 76 bf b4 72 23 3e 19 4a 5b bf e0 2a 39 be
       -0.9639036 0.15961725 -0.8565994 -0.18082762
0000e0 8d e8 00 bd e9 43 25 bf 0c 0f 87 3d 2e a9 71 3e
       -0.031471778 -0.6455675 0.06594667 0.23599693
0000f0 61 7f 18 3e c7 3d 26 bd 90 23 82 be 24 30 f5 be
       0.14892341 -0.04058626 -0.25417757 -0.4788829

conv4_1.bias f4 [2]
000000 9c 68 c8 be 95 c2 b4 3e
       -0.3914231 0.35304704

conv4_2.weight f4 [4, 32, 1, 1]
000000 b5 19 99 bc 63 25 ac 3d 16 41 51 be 36 aa 11 3d
       -0.018689016 0.084055685 -0.20434985 0.035562716
000010 9c ae 35 3d 89 3a 59 bd 73 db ce 3d f0 96 96 3b
       0.044355974 -0.05303434 0.1010045 0.00459563
000020 9e d9 1e be e8 23 28 3e 48 61 5b bd 64 97 76 3e
       -0.15512702 0.16419947 -0.05355957 0.24081188
000030 b0 04 83 be 72 41 6c be 74 eb 73 3c 2c 08 d2 3d
       -0.25589514 -0.2307184 0.014887679 0.10255465
000040 f0 2b 85 3d 96 7b 81 3d 21 5e 02 3e 2b 18 ba 3e
       0.06502521 0.063224 0.1273122 0.36346564
000050 00 d1 65 bd 69 81 10 be 77 80 2e 3d d8 65 15 bd
       -0.05610752 -0.14111866 0.042602982 -0.03647408
000060 fb 7c 61 bd d9 8b 6f bd 40 f6 eb 3d 72 c0 21 bd
       -0.05505083 -0.05848298 0.11521578 -0.03949017
000070 9a ff 25 bd 7c a2 89 3d e5 5d 1f 3d bd cd 30 3d
       -0.040526964 0.067204446 0.038907904 0.043164957
000080 61 60 d3 3d b2 b2 79 3e ff 5d 03 bb 0a bb 00 be
       0.10321117 0.24384573 -0.002004504 -0.1257135
000090 8f 55 d7 bc 72 98 49 be db 40 4f 3e 46 1a ad bd
       -0.026285915 -0.1968706 0.20239584 -0.08452277
0000a0 00 01 ab 3a fd 5f 26 3e 50 7d 01 be a1 e4 22 be
       0.0013046563 0.16247554 -0.12645459 -0.15907528
0000b0 da 69 68 be 7f 71 4d 3e fc 40 4e be ca 59 6b be
       -0.22696629 0.20062827 -0.20141977 -0.2298347
0000c0 0c 1e 04 3e 1e 3a 33 be 16 5d 59 bb a6 26 1b 3c
       0.12902087 -0.17502639 -0.0033167056 0.009469664
0000d0 e1 84 d6 3c 59 f9 ec 3c 4d cd 16 bc 8a c7 04 be
       0.026186408 0.028927492 -0.009204221 -0.12966743
0000e0 4b c1 81 3d ff 6a c0 3d 50 7b 10 be a1 a9 00 3e
       0.06335696 0.09395408 -0.1410954 0.12564708
0000f0 21 ef 87 3e 77 28 08 3e fc 98 54 3e dd 68 a5 bd
       0.26549628 0.13296686 0.20761484 -0.08076642
000100 96 ac 07 be 89 d8 61 3c 19 22 ce 3d e2 eb 16 3d
       -0.1324943 0.013784536 0.10065097 0.03684605
000110 32 f5 23 3b 1b 1f 8f 3d de 68 45 bd 08 45 a1 3d
       0.0025017974 0.06988355 -0.048195712 0.07874495
000120 bb bc 21 be 22 89 cc bc ff 39 87 bd 8b aa c9 ba
       -0.15794651 -0.024967734 -0.06602859 -0.0015385909
000130 6e 39 eb bd 37 a5 5c 3d ab 11 62 3c 19 a4 bc 3d
       -0.11485563 0.0538685 0.013798158 0.09210987
000140 3c fe 6a 3d 59 74 8c bd 57 18 0d 3c 1a 4c ec bc
       0.057371363 -0.06858129 0.00861176 -0.028844882
000150 9c 6e 9f 39 8c d3 0e be e0 4c 0c 3e ed ef a0 bd
       0.00030409254 -0.13947886 0.137012 -0.07858262
000160 7e 5e d0 3b a6 09 c5 3c a6 66 c0 bd b2 1c c4 3c
       0.0063589206 0.024052452 -0.09394579 0.023939464
000170 3b ee fc 3a 1d cd 28 3e c6 67 df 3d 13 4a a7 3d
       0.0019297072 0.16484495 0.10908465 0.081684254
000180 3e a5 7e bb 26 a7 87 3d 57 52 a8 bd ac a9 4b bd
       -0.0038855816 0.06623678 -0.0821883 -0.04972236
000190 64 c1 73 3d 7f 60 e6 bd 95 8a 2e bd 64 32 2a 3e
       0.059510604 -0.11248874 -0.04261263 0.16620785
0001a0 96 a3 c7 bd f4 9a 23 be 09 d8 e7 bd c1 11 b6 bd
       -0.097479984 -0.15977079 -0.11320502 -0.08890105
0001b0 0d 40 77 3d 54 be c6 bd 17 fe a2 bd b3 11 34 3c
       0.060363818 -0.09704271 -0.0795862 0.010990548
0001c0 3c f4 c0 bc f7 4f 4b bd a4 84 2a bd bc db fa bd
       -0.02355396 -0.049636807 -0.041630402 -0.12248942
0001d0 f3 bf 52 bd 70 9c fd 3d c2 a8 d8 3d a8 4e 73 3b
       -0.05145259 0.12383354 0.10579063 0.003712574
0001e0 76 82 b8 3d d2 ee 5c 3d bf 2c f1 3c 00 8b 53 bd
       0.090092584 0.053938694 0.029440282 -0.051646233
0001f0 79 12 20 3d 98 ba 10 3e 6f f4 46 3c c1 49 95 3c
       0.039080117 0.1413368 0.012143238 0.018223645

conv4_2.bias f4 [4]
000000 bb a4 96 bd 80 5f 2e 3d 93 ed 3a 3f e3 44 49 3f
       -0.073556386 0.042571545 0.7301876 0.7862074

conv4_3.weight f4 [10, 32, 1, 1]
000000 82 33 05 3e 95 be 46 3d 75 e0 af 3d 42 8d 8d bc
       0.1300793 0.048521597 0.08587734 -0.017279271
000010 a9 07 ea 3d 59 37 1b bd 14 ce ac bd 51 2e 27 3e
       0.11427242 -0.03789458 -0.08437744 0.16326262
000020 6b f6 04 3e 71 ed 66 bc 5e ff 82 3d 2b df 4e 3d
       0.12984626 -0.014094696 0.06396364 0.0505058
000030 11 66 97 3d ac 89 b9 3c 60 d1 bd 3d 60 40 9a bd
       0.073925145 0.022648655 0.09268451 -0.0753181
000040 15 c5 22 be 56 36 72 bd ee bd 15 3c ea 3a e4 3d
       -0.15895493 -0.05913385 0.009139521 0.111440495
000050 a6 68 e0 3c bf 60 ff bd aa 89 19 bd d8 cd 11 be
       0.02739365 -0.12469625 -0.037484802 -0.1423868
000060 d6 58 69 3d 49 ab 1e bc b4 78 05 3c 17 a5 bd bd
       0.056969486 -0.009684392 0.008146454 -0.09260004
000070 44 3a e4 bd 07 b1 cb bd a2 9e 97 bd 42 33 b1 3b
       -0.11143926 -0.09945875 -0.07403304 0.0054077217
000080 dd 39 b7 3b 49 03 e9 bd 80 b7 ca 3d f4 83 82 bd
       0.0055916146 -0.1137758 0.09898281 -0.06372824
000090 31 95 d0 3b d4 80 ab ba d8 d1 63 bc e2 bb ac 3d
       0.0063654413 -0.0013084658 -0.013905011 0.08434273
0000a0 6b 62 25 3d 29 8c 95 bd f1 61 2a 3e 6d d0 58 3d
       0.04037706 -0.07302124 0.16638924 0.052933145
0000b0 b9 30 53 bd 27 ed 8b 3d 83 8c 3c 3d c7 5d ad 3d
       -0.051560137 0.068323426 0.04603244 0.08465152
0000c0 bb 05 7b 3d 84 fb d9 3d 39 c8 0e 3d 1c 4f 94 bd
       0.061284762 0.10643676 0.034858916 -0.072416514
0000d0 be ea 3e bc c8 c6 12 be 71 4f f0 3d d3 85 b2 bd
       -0.011652647 -0.14333642 0.11733902 -0.08716931
0000e0 bd 8d 1d 3e 68 8c 30 3e da d7 3f bd 9a 8b f8 bb
       0.153861 0.1724106 -0.04683671 -0.007585001
0000f0 67 12 24 3e 06 a4 6c bd c4 a2 18 3c d9 ca 97 bd
       0.16022645 -0.057773612 0.00931615 -0.07411737
000100 60 b0 2e 3e ca 06 fa bd 3d 97 62 3d 22 75 07 3e
       0.17059469 -0.12208326 0.055320013 0.13228276
000110 fd 0c a0 bd 25 05 35 3e 52 8a e9 bd 86 14 a5 3c
       -0.07814977 0.17677744 -0.11403336 0.020151388
000120 07 f0 e9 bd 4f af c0 bd 61 26 15 3e c2 94 b1 bd
       -0.11422735 -0.094084375 0.14565422 -0.086709514
000130 92 78 a3 bd 00 cb 05 be fb 87 1d 3d 1a 6a 62 3c
       -0.07981981 -0.1306572 0.03845976 0.013819242
000140 43 85 e7 bd 9b f5 81 bd 3e 1d b9 3c 7a d6 89 3d
       -0.113047145 -0.06345674 0.022596952 0.06730361
000150 6b 95 74 bd 4f 7e 40 3d 8a 14 31 3d 28 3a 9c 3d
       -0.05971281 0.046995457 0.04323248 0.0762828
000160 13 6c 1f be b0 0e be bb c9 e4 a4 3c dd 80 d7 3d
       -0.15568571 -0.0058000907 0.020128625 0.105226256
000170 88 bc 05 3d b4 45 c3 bd b1 ab de bd ce 98 07 3e
       0.0326505 -0.09534779 -0.10872591 0.13241884
000180 cc 58 f6 bd 8a 67 0d bd 6b 99 a4 3d 9c e8 a1 bb
       -0.120286554 -0.03452257 0.08037075 -0.0049410593
000190 52 64 8b 3d ad 9c 21 bd 96 c1 9a bd 64 97 e7 3c
       0.06806244 -0.03945606 -0.07556455 0.02827043
0001a0 a5 eb fd 3d 94 70 c5 3d c4 94 2c be ed 55 4b 3b
       0.12398461 0.09640613 -0.16853625 0.0031026558
0001b0 1e 9d 59 3d c1 62 a5 bc 14 76 29 bd 92 20 d8 bc
       0.053128354 -0.020188691 -0.041372374 -0.026382718
0001c0 35 e0 33 bd a5 02 91 bc e9 f1 4a 3d 25 8d 24 be
       -0.043914992 -0.017701456 0.04954711 -0.16069467
0001d0 72 10 df 3c 24 96 d6 3c 3b 69 df 3d d5 7b 26 be
       0.027229521 0.02619464 0.10908743 -0.16258176
0001e0 91 a6 1d 3d 45 0b e0 3d 1a d4 87 3c b9 f2 03 3c
       0.03848893 0.109396495 0.01658063 0.008053475
0001f0 9c 57 b6 3d 07 36 17 be fc 55 c8 3c e5 c4 3f 3d
       0.08903429 -0.14766704 0.024455063 0.046818633
000200 c6 56 c5 3d ef b6 f4 bd f4 3a 66 3d 6f 2f 8e 3d
       0.09635691 -0.11948954 0.056208566 0.06942641
000210 84 df d3 3d 1a b7 cd bd a6 21 00 3e 01 95 2a 3e
       0.103453666 -0.100446895 0.12512836 0.16658403
000220 8c 6f f5 bd 6c 37 94 3d b8 a6 32 be 3f 97 b7 3b
       -0.119841665 0.072371334 -0.1744641 0.0056027467
000230 44 03 00 bd 58 2e 69 bd 62 a3 25 be 85 34 2d 3c
       -0.031253114 -0.056928962 -0.16175607 0.010571604
000240 20 3e d7 bd 75 c9 30 be c0 d6 78 bc 48 0c b6 3c
       -0.10509896 -0.1726435 -0.015187919 0.022222653
000250 05 7f 0d bd a1 45 ad 3c a1 54 91 3d 88 53 bc bd
       -0.034544963 0.021151366 0.0709622 -0.0919562
000260 2c 1f 02 3e 0e 71 a2 3b ef 57 c1 3c 54 9c 1c be
       0.12707204 0.004957325 0.0236015 -0.1529401
000270 fe ad 1f 3e c0 1f f3 bb f6 af 87 bd e4 8b 01 3e
       0.15593717 -0.0074195564 -0.06625359 0.1265102
000280 ec bb 0e 3e 30 3e 52 bd 7e e6 49 3d 6a 31 ee 3d
       0.13938874 -0.051328838 0.04929208 0.11630519
000290 51 50 01 3e 6b 78 08 3e 86 fb 1c be 78 57 0d 3e
       0.12628295 0.13327186 -0.15330324 0.13802898
0002a0 67 0e 03 3d 40 69 84 bd 0f eb 64 bd 5b 46 87 3b
       0.031996157 -0.06465387 -0.05588823 0.00412826
0002b0 f3 1c 84 bd 3c 5d 19 be f1 73 2d 3d 7d aa cf bd
       -0.06450834 -0.14976972 0.0423469 -0.1013994
0002c0 8f 38 db bd a1 55 04 bd 5b 20 8f bc 2e 56 91 bc
       -0.10704147 -0.032308225 -0.017471483 -0.017741289
0002d0 6d ce 61 3b 45 9f 5d bd af c3 71 3d 2b a4 d3 3c
       0.0034455315 -0.05410697 0.05902451 0.025835117
0002e0 61 c0 88 3d 4f 6e 64 bd 55 72 90 bd 5f 5c d1 bd
       0.06677318 -0.05576926 -0.07053057 -0.102226965
0002f0 08 ab 18 3e ad 94 fb bd 43 e8 ee bd f3 c9 19 3e
       0.14908993 -0.12284217 -0.11665394 0.15018444
000300 25 8f 83 3d 93 52 f3 bd eb aa 8b 3d e2 00 0f be
       0.06423787 -0.11880984 0.068197094 -0.1396518
000310 bb 82 28 bd bd 7c 13 be c6 18 0d 3e 33 1a 0d 3e
       -0.0411403 -0.14403053 0.13778982 0.13779525
000320 3e d3 b5 3d 90 b2 74 3d 99 d1 aa 3d 44 42 a2 bc
       0.08878182 0.059740603 0.08340759 -0.019806989
000330 fb d6 06 be 4d 6a d8 3c 6f d8 9b 3d fb b4 07 3e
       -0.13167946 0.026417876 0.07609641 0.13252632
000340 b4 38 18 3e 0e ce ba 3d 30 e6 95 bb 33 d1 d0 3d
       0.1486538 0.09121333 -0.0045745596 0.101961516
000350 15 ea e8 3d 18 5a 3e 3d 54 7d 94 bc 3d 14 c1 3d
       0.113727726 0.04647264 -0.018126167 0.09427688
000360 4a b9 1c be 71 ac 6f 3c 4e 18 04 be 3a 1f a4 bd
       -0.15305057 0.014628516 -0.12899897 -0.080137685
000370 60 25 e6 3d 8a 8d c1 bc 27 36 92 bb 0e 8d 02 be
       0.112375975 -0.023627061 -0.004462022 -0.1274912
000380 1b 26 d9 3d 47 a5 23 3d 99 d9 c9 3d 28 3f ed 3d
       0.10602971 0.039952543 0.098559566 0.11584312
000390 cc 19 08 3d 45 76 6b 3d 36 ac 0a be 64 c5 2e 3e
       0.033227727 0.057485837 -0.13542256 0.17067486
0003a0 7a 61 23 3e 34 e6 9a 3d 38 c6 14 3e 9c ec 8b bd
       0.15955153 0.07563439 0.1452874 -0.06832239
0003b0 1d 2a 05 be 66 f3 89 bd 0d de 3c bd df 34 e4 bb
       -0.13004346 -0.06735878 -0.0461102 -0.0069643105
0003c0 72 15 b4 3d 9c 9b c1 3b 35 c7 34 bd 5b 2a 19 3c
       0.08793153 0.0059084427 -0.04413529 0.009348477
0003d0 c4 71 42 3d 33 e2 36 bd 05 ac 19 3c bb 5e 47 bd
       0.047471777 -0.044649314 0.009379392 -0.048674326
0003e0 58 ee c2 bd 72 d0 1e 3d 6e 52 b5 bd b6 9d 1d be
       -0.09518117 0.038773008 -0.08853613 -0.15392193
0003f0 f0 30 93 3d e9 8d f1 bd 1d 8f d1 bd ed 73 2a 3e
       0.071870685 -0.11794645 -0.10232375 0.16645785

conv4_3.bias f4 [10]
000000 d7 88 b5 3d 96 43 0c 3e b3 90 a4 3e 5e 20 5d 3e
       0.08863991 0.13697657 0.32141647 0.21594378
000010 d6 05 21 3e e2 29 a2 3e 16 bc 52 3d 7b 6d d7 3e
       0.15724882 0.3167258 0.051448904 0.42075714
000020 7b ab 9d 3e d1 51 d9 3e
       0.30794892 0.42445233

momentum_buffer f4 [10, 3, 3, 3]
000000 a2 a2 42 39 c2 e9 d5 38 ba 3a 28 39 64 52 4c 3a
       0.00018561867 0.00010200172 0.00016043606 0.00077942596
000010 0d d2 0d 3a 55 a7 27 3a 82 a1 82 3a 47 1d 33 3a
       0.0005410023 0.0006395479 0.0009966346 0.0006832671
000020 46 65 57 3a fc c3 b4 38 b0 7f 0c 38 32 d7 ef 38
       0.000821669 8.619574e-05 3.349752e-05 0.00011436491
000030 e7 74 ce 39 ee 12 14 39 21 2c 89 39 ad 39 fe 39
       0.0003937848 0.00014121432 0.00026163555 0.00048489627
000040 09 03 37 39 48 5a bb 39 a8 b9 b7 38 ac 70 ca 37
       0.0001745337 0.00035734684 8.760701e-05 2.4132743e-05
000050 86 0e c2 38 b0 0a e2 39 54 9c da 38 ee 56 69 39
       9.253346e-05 0.00043114042 0.000104241684 0.00022252995
000060 0c ae 09 3a 90 67 18 39 b2 74 a9 39 00 00 00 00
       0.000525207 0.0001453443 0.00032321137 0.0
000070 00 00 00 00 00 00 00 00 00 00 00 00 00 00 00 00
       0.0 0.0 0.0 0.0
000080 00 00 00 00 00 00 00 00 00 00 00 00 00 00 00 00
       0.0 0.0 0.0 0.0
000090 00 00 00 00 00 00 00 00 00 00 00 00 00 00 00 00
       0.0 0.0 0.0 0.0
0000a0 00 00 00 00 00 00 00 00 00 00 00 00 00 00 00 00
       0.0 0.0 0.0 0.0
0000b0 00 00 00 00 00 00 00 00 00 00 00 00 00 00 00 00
       0.0 0.0 0.0 0.0
0000c0 00 00 00 00 00 00 00 00 00 00 00 00 00 00 00 00
       0.0 0.0 0.0 0.0
0000d0 00 00 00 00 00 00 00 00 3a 85 de be ec 34 cc be
       0.0 0.0 -0.4346102 -0.39884126
0000e0 84 cd b4 be e7 cb f4 be af ce e5 be a3 0a cf be
       -0.35313046 -0.47811815 -0.4488425 -0.40437803
0000f0 00 10 09 bf be ab fc be 4f b7 e7 be 22 da c1 be
       -0.5354004 -0.4934978 -0.4525704 -0.37861735
000100 bd 96 ad be 74 c6 97 be 04 14 d7 be 9c de bf be
       -0.33904067 -0.29643595 -0.42007458 -0.37474525
000110 a4 f6 9a be a2 e3 e7 be a2 3f c8 be f7 e3 a0 be
       -0.30266297 -0.45290858 -0.39111048 -0.31423923
000120 b5 88 b6 be 3a 99 a5 be 8a 51 8d be 43 5a ce be
       -0.35651174 -0.32343465 -0.27601272 -0.4030324
000130 a8 34 b6 be d4 21 8e be 50 87 d1 be dd ae ba be
       -0.3558705 -0.27760184 -0.40923548 -0.36461535
000140 20 aa 92 be d0 95 db 3c 7e 50 32 3d 64 24 d0 3c
       -0.2864542 0.026804835 0.043533795 0.025407977
000150 04 14 8e 3d ba ab cb 3d 76 ae c1 3d 10 9e 62 3d
       0.069374114 0.099448636 0.09457104 0.05532652
000160 f3 bc de 3d 13 cb e1 3d 00 e0 7b ba 34 d5 69 3c
       0.10875883 0.110250615 -0.0009608269 0.014272023
000170 b8 f5 d6 3b 48 d3 26 3d e0 07 8a 3d f2 83 83 3d
       0.0065600537 0.040728837 0.06739783 0.06421651
000180 b2 23 1f 3d 47 ac a7 3d 89 69 af 3d ae 19 87 3c
       0.0388524 0.08187156 0.08565051 0.016491737
000190 d3 a9 42 3d ee a4 2d 3d ba aa 2a 3d d9 ed b5 3d
       0.04752524 0.042393617 0.041666724 0.088832565
0001a0 d6 36 b3 3d d8 bc 0a 3d dc 1c bc 3d d3 c8 be 3d
       0.087506935 0.0338715 0.09185192 0.09315648
0001b0 5c 97 e9 bb dc ef 72 bd 14 37 c0 bd 89 dd a8 bc
       -0.007128639 -0.05931078 -0.09385505 -0.020613449
0001c0 80 81 2f bd d0 ae 67 bd 12 10 63 bd 1a b1 8b bc
       -0.04284811 -0.0565632 -0.055435248 -0.017052222
0001d0 42 90 93 bc a8 a2 8a bd 7f 0c 13 be ae 1f 29 be
       -0.018013123 -0.067693055 -0.14360236 -0.16515991
0001e0 7f 6b b6 bd af ef f7 bd 3d 46 00 be c0 9f 12 be
       -0.08907222 -0.12106263 -0.12526794 -0.14318752
0001f0 2c e9 e4 bd a4 66 e5 bd 57 38 89 bd 9d 3d 11 be
       -0.111772865 -0.11201218 -0.06700199 -0.1418366
000200 42 64 26 be 4b d4 a9 bd 5b 90 fd bd 52 fa 04 be
       -0.16249183 -0.08292445 -0.12381049 -0.12986115
000210 b0 7b 09 be 6e fd f0 bd 58 ad 13 be 2c e7 4e be
       -0.1342609 -0.11767088 -0.14421594 -0.20205373
000220 40 14 77 be 2d 02 9c be 90 65 92 be e3 3a a9 be
       -0.24128819 -0.3047041 -0.2859311 -0.3305274
000230 02 4e b5 be 3a a4 95 be d8 75 a8 be be 8a bc be
       -0.35411078 -0.29226857 -0.32902408 -0.36824602
000240 f1 1d fa bd 92 68 11 be af b6 3d be 42 1b 4b be
       -0.12212742 -0.14200047 -0.1852672 -0.19834617
000250 e2 9f 6e be 47 65 88 be 2b f3 50 be 51 6d 6c be
       -0.23303178 -0.26639768 -0.20405261 -0.23088576
000260 1e 04 92 be 60 b2 cd bd da 92 f8 bd 27 37 31 be
       -0.28518766 -0.10043788 -0.12137385 -0.17306195
000270 f2 b7 17 be 49 ea 3f be 3e 64 6d be fe cf 15 be
       -0.14816263 -0.18741716 -0.2318277 -0.14630124
000280 7d 57 33 be d8 be 72 be 2c cf 10 3e 8d 04 07 3e
       -0.17513843 -0.23705614 0.1414153 0.1318533
000290 00 40 fc 3d 9f 3c 07 3e d9 7f d8 3d 96 91 96 3d
       0.123168945 0.13206719 0.1057126 0.07351987
0002a0 bd 7f d8 3d 8a 30 3b 3d 60 e4 c4 bb e6 2e 0e 3e
       0.10571239 0.045700587 -0.0060086697 0.13885078
0002b0 b6 06 15 3e af 71 eb 3d 2c 9b 06 3e ce b9 fb 3d
       0.14553341 0.11496293 0.13145131 0.12291299
0002c0 73 1c 96 3d 66 56 85 3d 89 45 ef 3c b5 01 2b bc
       0.07329645 0.0651062 0.029207962 -0.010437419
0002d0 11 b5 2b 3e c5 a1 3c 3e 62 8a 2d 3e 7c 9d 1c 3e
       0.1676829 0.18421085 0.1694732 0.1529445
0002e0 08 1d 11 3e ca ee e1 3d 1f 29 ba 3d 37 b2 37 3d
       0.14171231 0.110318735 0.090898745 0.044847693
0002f0 58 b8 87 3c da 28 9f 37 61 37 91 36 91 f9 21 38
       0.016567394 1.89733e-05 4.3277837e-06 3.8617818e-05
000300 60 3f 10 37 f0 2d 09 39 34 fd cb 39 dd c9 60 39
       8.5978245e-06 0.00013082451 0.00038907828 0.00021437505
000310 08 97 c3 39 52 3b 27 3a e4 12 e8 37 ce d0 08 38
       0.00037305825 0.0006379384 2.7665352e-05 3.261939e-05
000320 44 e2 0f 37 39 1c 37 37 bc a4 30 38 7a 3b fb 38
       8.576146e-06 1.0914221e-05 4.211509e-05 0.00011979691
000330 8e 67 2d 38 f9 33 8f 38 dd 86 3a 39 3d 2d 2e 38
       4.1342857e-05 6.828452e-05 0.00017788583 4.1526964e-05
000340 18 d2 74 37 d9 6a 0a 37 c7 40 74 38 2e 76 04 38
       1.459245e-05 8.250318e-06 5.8234462e-05 3.1581316e-05
000350 2b 67 38 38 d4 a6 80 38 b7 a0 1e 38 69 20 89 38
       4.39651e-05 6.13459e-05 3.7819813e-05 6.538706e-05
000360 16 98 8e bd be c3 9c bd 60 f6 1d be be 94 04 be
       -0.06962602 -0.07654522 -0.15426016 -0.12947366
000370 6e 88 de bd e9 8a 1c be 2f 27 93 bd 14 a2 dc bd
       -0.10865866 -0.15287365 -0.07185208 -0.107731014
000380 eb 9e 0f be d6 d9 d2 bc 8e 37 47 bd 77 94 0a be
       -0.14025466 -0.025738638 -0.048636965 -0.13533197
000390 ee a0 c6 bd 25 7a b7 bd 5f 9e 00 be 4d 63 82 bd
       -0.09698664 -0.08958844 -0.12560414 -0.06366596
0003a0 90 d9 de bd 07 bf f5 bd 77 04 e3 3c 87 12 97 3c
       -0.108813405 -0.11999326 0.02771209 0.018441452
0003b0 35 1f 97 bd 53 4e 02 bd 48 0f f4 bb 57 38 67 bd
       -0.07378999 -0.031812977 -0.0074481107 -0.056450214
0003c0 7c 46 c0 3b 7c 32 c7 bc 93 ee 36 bd a9 1d 0c 3c
       0.0058677774 -0.024316065 -0.044661116 0.008551993
0003d0 12 ef 93 3c bc e2 a5 3c 9a d2 33 3d 40 27 73 3d
       0.018058334 0.020249717 0.043902017 0.059363604
0003e0 58 b0 c0 3d b9 d5 82 3d ad 3e 04 3d 33 7f be 3d
       0.09408635 0.063884206 0.032286335 0.09301605
0003f0 12 8b 94 3a 47 41 e9 3c 56 cd 11 3d 50 7d d4 3c
       0.001133295 0.02847351 0.035596214 0.02593866

momentum_buffer f4 [10]
000000 08 6e b6 3a 00 00 00 00 0f d6 c6 bf 98 b7 09 3e
       0.001391829 0.0 -1.5534075 0.13448942
000010 ab 94 b1 be ea 6e 58 bf 52 48 06 3f a5 8a 36 3a
       -0.34683737 -0.8454424 0.524541 0.00069634087
000020 72 84 e4 3d fb 65 85 3e
       0.111580744 0.26054367

momentum_buffer f4 [16, 10, 3, 3]
000000 46 1d 23 b2 e0 c7 8c 36 35 4d 24 36 3b 6d ec b1
       -9.494505e-09 4.1955936e-06 2.4482845e-06 -6.880922e-09
000010 e0 2e fb 36 80 25 91 36 08 1b d1 2c 6a d8 fd 36
       7.48584e-06 4.3257023e-06 5.9431383e-12 7.5651815e-06
000020 c0 64 9f 36 00 00 00 00 00 00 00 00 00 00 00 00
       4.750298e-06 0.0 0.0 0.0
000030 00 00 00 00 00 00 00 00 00 00 00 00 00 00 00 00
       0.0 0.0 0.0 0.0
000040 00 00 00 00 00 00 00 00 fd 56 4f 3e d8 a9 61 3e
       0.0 0.0 0.20248027 0.22037446
000050 82 b8 69 3e 84 93 11 3e 18 6e 11 3e 38 9c 16 3e
       0.2282429 0.14216429 0.14202154 0.1470803
000060 4d 13 9e 3d 90 13 7b 3d ac 40 af 3d ad d2 b0 3c
       0.07718525 0.061297953 0.08557257 0.021584833
000070 4e 83 5e 3c a4 d6 12 3c a6 22 85 3c e8 f5 4f 3c
       0.01358111 0.008962307 0.016251873 0.012692906
000080 a6 2f 34 3c 81 bd a0 3c 44 65 a3 3c a5 83 b0 3c
       0.010997688 0.019621613 0.019945748 0.021547148
000090 20 49 f2 3e 26 f2 ed 3e d0 be e2 3e b6 8b f4 3e
       0.47321415 0.46473807 0.44286203 0.4776284
0000a0 be 54 f2 3e 5a 3d ee 3e 91 de f2 3e ac b0 f0 3e
       0.47330278 0.46531183 0.4743543 0.4700979
0000b0 22 af f2 3e 21 ee 39 3d e0 27 32 3d 71 bc ee 3c
       0.4739924 0.045393113 0.04349506 0.02914259
0000c0 a7 74 20 3d 1d a2 0f 3d 4a b6 b2 3c 32 0f a5 3c
       0.03917375 0.035066713 0.021815438 0.020148847
0000d0 b5 e5 b6 3c 15 b8 0a 3d 75 fb 35 3e 9d 20 28 3e
       0.02232633 0.03386696 0.17771704 0.16418691
0000e0 4f 73 25 3e a8 7e 2c 3e 31 04 1f 3e 4f ae 1e 3e
       0.16157268 0.1684519 0.15528943 0.15496181
0000f0 da c3 2a 3e a4 4a 13 3e e3 1e 15 3e e7 7d a1 a9
       0.16676274 0.14383942 0.14562564 -7.171677e-14
000100 ba 72 04 1c ed fc 97 06 68 0e 3b 96 54 88 00 80
       4.3823417e-22 5.717153e-35 -1.5110286e-25 -4.8905e-41
000110 1b dc 97 06 d7 cc 7c 1b 47 46 35 1b 9f 99 cc 91
       5.7123303e-35 2.0911139e-22 1.4994677e-22 -3.2280201e-28
000120 17 a1 0e 3e 1c 23 11 3e 4e 5b 02 3e 63 ba 04 3e
       0.13928638 0.1417355 0.12730142 0.12961726
000130 e1 1c e9 3d 8c e0 b8 3d f6 50 e1 3d 44 2a ce 3d
       0.11382461 0.09027204 0.1100177 0.10066655
000140 cc 1f b4 3d 09 a2 98 3d 78 71 be 3d de 91 bc 3d
       0.08795127 0.07452781 0.09298986 0.092075095
000150 b2 d3 0a 3d 9f 76 14 3d 94 7e f1 3c 18 05 f7 3c
       0.033893295 0.03624594 0.029479302 0.030153796
000160 b8 cb a9 3c 64 fc cf 3c 70 15 cd 35 31 72 ce 35
       0.020727023 0.025388904 1.5279929e-06 1.538143e-06
000170 32 6b b7 35 9f ed d9 35 fd 40 11 36 d9 99 8c b9
       1.366576e-06 1.6236917e-06 2.1644512e-06 -0.00026817506
000180 21 55 b2 34 4b ec ce 35 7a fe 8c b9 00 00 00 00
       3.3217023e-07 1.5416966e-06 -0.0002689248 0.0
000190 00 00 00 00 00 00 00 00 00 00 00 00 00 00 00 00
       0.0 0.0 0.0 0.0
0001a0 00 00 00 00 00 00 00 00 00 00 00 00 00 00 00 00
       0.0 0.0 0.0 0.0
0001b0 d4 f7 58 3d a1 dc 0a 3e 29 75 50 3e 50 d3 a1 3c
       0.052970722 0.13560726 0.20357193 0.019754082
0001c0 bc 9d c6 3d f0 fb 2d 3e 46 14 10 3e 34 14 00 3e
       0.09698054 0.16990638 0.14070234 0.12507707
0001d0 40 f8 07 3e 9f a7 d1 bc bc 18 08 bd 11 83 f8 bc
       0.13278294 -0.025592623 -0.033226714 -0.030335935
0001e0 4d 05 86 bc 6e 1f 74 bc 77 23 7a bc 94 3e bf bc
       -0.01635995 -0.014900072 -0.015267245 -0.02334527
0001f0 2c 49 c2 bb 0a 0f 66 bb bc d3 41 3d a8 70 07 3d
       -0.005929133 -0.0035104179 0.047321066 0.03306642
000200 e0 ea ca 3c 10 41 b5 3c 80 31 11 3c 30 17 e2 3c
       0.0247702 0.02212575 0.008861899 0.027598947
000210 50 c5 a4 3d 14 c3 9a 3d 78 05 ac 3d 3a 14 a7 bd
       0.08045447 0.075567394 0.083994806 -0.08158155
000220 bf 30 84 bd d8 cf 45 bd f5 86 94 bd 84 c9 63 bd
       -0.0645461 -0.04829392 -0.072523035 -0.055612102
000230 42 07 20 bd 74 4f d8 bc 04 af 81 bc 90 6a 4f bd
       -0.03906942 -0.026405074 -0.015830524 -0.050638735
000240 df 09 6c 3d 6f b9 7f 3d 4a ca 2d 3d cd b5 24 3d
       0.0576266 0.062432703 0.042429246 0.04021244
000250 c6 82 09 3d 32 41 19 3d 1c bc e9 3c 84 a6 df 3c
       0.03357198 0.03741569 0.02853208 0.02730108
000260 46 a0 1d 3d 83 b4 0c b7 f4 59 8a b7 15 35 8f b7
       0.038482927 -8.386679e-06 -1.649277e-05 -1.7071647e-05
000270 06 bf b5 b4 5b 77 38 b5 bc f5 55 b1 30 00 12 33
       -3.3852865e-07 -6.8719027e-07 -3.1135263e-09 3.3993445e-08
000280 e8 ee 22 33 a2 ab 75 a5 da 2b 29 3e e8 76 3c 3e
       3.793585e-08 -2.1308514e-16 0.16520634 0.18404734
000290 18 10 28 3e bd 4e 0d 3e ef dd 08 3e 00 3d e2 3d
       0.1641239 0.13799568 0.13365911 0.11046791
0002a0 57 25 f9 3d 34 84 d3 3d a0 2f 8f 3d 34 bb 30 bd
       0.12165325 0.1032795 0.069915056 -0.04314728
0002b0 00 e0 38 b8 8e 78 2c 3d 08 e1 78 bd 04 85 b6 bc
       -4.4077635e-05 0.042107157 -0.06076148 -0.022280224
0002c0 c0 aa 80 bc 70 16 71 3c ec fe e5 3c 00 60 f3 37
       -0.01570642 0.014714822 0.028075658 2.901256e-05
0002d0 04 00 00 00 22 77 8c 22 af 72 54 a9 ac 33 0c 30
       6e-45 3.8073213e-18 -4.717293e-14 5.1005133e-10
0002e0 e3 0f 94 ad 3c 19 f5 31 48 c4 9b 36 7f d3 e7 b6
       -1.6832707e-11 7.1333073e-09 4.64221e-06 -6.908958e-06
0002f0 45 2d 42 b7 00 00 00 00 00 00 00 00 00 00 00 00
       -1.1573841e-05 0.0 0.0 0.0
000300 00 00 00 00 00 00 00 00 00 00 00 00 00 00 00 00
       0.0 0.0 0.0 0.0
000310 00 00 00 00 00 00 00 00 86 f4 58 3e d0 6b 4c 3e
       0.0 0.0 0.21187028 0.19963002
000320 5c 17 45 3e b0 34 1b 3e f5 54 ca 3d 06 97 05 3e
       0.19247192 0.15156817 0.098794855 0.13045892
000330 9c 5a 45 3d 74 6d d0 3c b5 18 b0 3d 74 ac 17 3d
       0.048182115 0.025442816 0.085984625 0.0370297
000340 af f1 27 3d 1f ea 37 3d c3 89 3c 3d de 3b 81 3d
       0.04100197 0.04490101 0.046029817 0.06310247
000350 5d 2f a7 3d f1 8e 5f 3d d0 7b 9f 3d 75 ee bb 3d
       0.08163331 0.05457968 0.07787287 0.091763414
000360 61 ef 12 3f e5 58 06 3f 22 c8 e3 3e 1a 1f 16 3f
       0.57396513 0.5247939 0.44488627 0.5864121
000370 bd 8a 02 3f 94 1c e5 3e 4d f7 17 3f d5 31 fb 3e
       0.5099295 0.44748366 0.59361726 0.49061456
000380 e6 fd c7 3e 56 d7 f8 bc 42 1d c7 bd ec 4b a6 bd
       0.39060897 -0.030376118 -0.09722377 -0.0811995
000390 cc 8b a0 bd 65 4d d2 bd 0e 8c 4f bd 14 1c 0c be
       -0.07839164 -0.10268668 -0.050670676 -0.13682586
0003a0 56 7b 1b be d6 7b a6 bc 23 d8 11 3e c6 f0 06 3e
       -0.15183768 -0.020322721 0.14242606 0.13177785
0003b0 4d b1 bd 3d 90 1c f2 3d 49 93 99 3d e6 06 bc 3c
       0.09262333 0.11821854 0.074987955 0.022952508
0003c0 10 fc 92 3d 04 d1 06 3b 0f bc 77 bd 04 00 00 80
       0.07176983 0.002057136 -0.06048208 -6e-45
0003d0 03 40 12 9e 37 eb 23 31 0f 51 47 95 e2 d1 86 b5
       -7.742413e-21 2.3853326e-09 -4.0251674e-26 -1.0044862e-06
0003e0 be dd 09 31 55 f9 b7 b5 9d 17 08 b6 66 af c0 30
       2.006217e-09 -1.3707128e-06 -2.0279324e-06 1.401969e-09
0003f0 df 67 36 3e c0 2b 46 3e 2d a9 68 3e ad ee 15 3e
       0.17813061 0.19352627 0.22720785 0.14641829

momentum_buffer f4 [16]
000000 72 4e 12 3f f2 6c dc 3e 9c 1f 58 3f 27 44 03 3f
       0.5715095 0.4305187 0.8442323 0.5127587
000010 e3 05 3f bf d1 9b 7d 3a fa 12 57 3f 61 3f 0b 3f
       -0.7461836 0.00096744025 0.8401333 0.54393584
000020 89 5f 1d be 86 8a 41 bf 10 b8 fc bd 76 8e 50 3d
       -0.15368475 -0.75601995 -0.12339795 0.05091711
000030 50 89 90 be 61 0f 33 3f 96 bd 64 3f c8 d2 a6 3e
       -0.2822976 0.6994534 0.89351785 0.32582688
