Pytorch face detection - Test/MTCNN_train_process/1/checkpoint_2500.pth (torch, 277413 bytes, 36 tensors)

conv1.weight f4 [10, 3, 3, 3]
000000 c0 d5 5a 3e f9 cc 5a 3d ed 34 98 be 45 cb 95 3e
       0.21370602 0.053418133 -0.2972788 0.29256645
000010 0a 15 36 bd e4 85 78 bd 64 27 6a 3e 87 63 da bd
       -0.04445366 -0.060674563 0.22866589 -0.106635146
000020 f8 5a b9 bd a8 65 fc 3d 59 e1 31 be b4 8f 9f 3a
       -0.09050554 0.12324077 -0.1737112 0.0012173564
000030 d7 ad 37 bc 9e 74 17 3d 90 25 49 be 49 0b 08 3e
       -0.01121088 0.03697645 -0.19643235 0.13285555
000040 51 87 7b bb 84 35 52 be 49 47 f1 3d 42 72 f8 bc
       -0.0038380215 -0.20528227 0.11781175 -0.03032792
000050 dc a0 97 be e1 15 86 3e e3 86 06 be 9f f1 80 bd
       -0.29614913 0.26188567 -0.13137393 -0.062960856
000060 eb 2e 37 3e 7f 77 b3 3d 5d d5 5f be 51 ed 11 bc
       0.17888992 0.087630264 -0.21858735 -0.008906678
000070 98 f5 63 be 20 ac 21 3e 14 30 24 3e 22 d3 c1 3d
       -0.22261655 0.15788317 0.16033965 0.094640985
000080 85 e2 48 be a6 57 d7 3d d7 0f 18 bd 81 0d 5c be
       -0.1961766 0.105147645 -0.03712448 -0.21489526
000090 88 d5 16 bd f3 0c 07 3d b6 4c 80 3e b9 33 bb 3d
       -0.036824733 0.032971334 0.25058526 0.09140725
0000a0 bc 6c f1 bd 4c 4e 9b 3e 5c 92 8b bd 1a 98 53 3d
       -0.117883176 0.30333173 -0.06815025 0.051658727
0000b0 0d 3a 6f 3e 27 1c ba 3c 85 66 73 3d 2e 61 10 3e
       0.23361988 0.022718502 0.059423942 0.14099571
0000c0 83 83 02 3e 71 11 85 be 1c e0 f9 bc dd 60 35 be
       0.1274548 -0.2598987 -0.030502371 -0.17712732
0000d0 e3 36 53 be 33 00 c2 3d 6e 02 94 3e b2 8b a6 3e
       -0.20626406 0.09472694 0.28908104 0.32528454
0000e0 4e fe a7 3e c7 25 84 3e 9d 6d 04 be 4d 0a 2e 3e
       0.32811207 0.25810072 -0.12932439 0.16996117
0000f0 51 2e 02 be 1c fb 3c be af b7 13 3e 72 ba fd 3d
       -0.12712981 -0.18455166 0.14425538 0.12389077
000100 a5 c9 d1 bd c4 d8 ca 3d 2a 70 71 bc 37 d8 82 3d
       -0.10243539 0.09904626 -0.014736215 0.06388896
000110 27 41 12 be bb 68 a4 bc ae 76 2e bd 25 b8 0e bd
       -0.14282666 -0.02006947 -0.04259365 -0.034843583
000120 ed 3e aa 3d b0 45 15 3e 18 8f e5 3d 68 49 90 bc
       0.083127834 0.14577365 0.112089336 -0.017613128
000130 61 24 49 bc 1b 3f e4 bd f7 d8 c2 3d 64 e2 b1 3d
       -0.01227674 -0.11144849 0.09514039 0.08685759
000140 c6 c3 2b 3d 74 e2 2b 3e 58 48 90 3e c5 48 04 3e
       0.04193475 0.16785604 0.28180194 0.12918384
000150 42 b3 d9 bc 06 12 72 3e f7 3a 60 3d 87 76 30 3e
       -0.026574735 0.23639688 0.054743733 0.17232715
000160 19 f3 1d 3e 39 5b 09 bd 40 cd 1a be ec 35 ba bd
       0.15424766 -0.033534262 -0.15117359 -0.09092316
000170 89 43 5e be 31 d7 b5 bd 6d 10 54 be c5 fd a8 3d
       -0.2170545 -0.08878935 -0.20709391 0.08251528
000180 a1 6f a0 3c 4d 75 78 bd 26 6c 19 be 71 a7 a1 bd
       0.019584479 -0.06065874 -0.14982662 -0.07893265
000190 26 5c 56 be 57 d6 8b 3d 7d a6 06 3c 0d 6b 32 be
       -0.2093359 0.068279915 0.008218405 -0.17423649
0001a0 b8 44 36 3d 60 8f c3 3d 31 e2 93 3d 56 c7 a2 bb
       0.04449913 0.09548831 0.07220877 -0.0049676104
0001b0 02 c2 49 be ab 04 23 be 29 d4 9f be 2b 83 41 3e
       -0.19702914 -0.1591975 -0.31216553 0.18897693
0001c0 9d 16 10 3e 56 4d 79 bd a1 c4 5d 3c cf c3 3e 3e
       0.14071126 -0.06086477 0.0135356495 0.18629383
0001d0 30 8c 32 3e a2 b9 4b bd c0 88 4d be 8c 12 29 be
       0.1743629 -0.04973758 -0.20071697 -0.16510981
0001e0 84 18 01 3e 3d 3d 79 3d 8e 33 8f 3d 17 b2 02 3e
       0.12607008 0.060849417 0.06992255 0.12763248
0001f0 37 0e 98 bb de 84 9e 3b 78 47 92 bd cd 47 49 be
       -0.0046403664 0.0048376163 -0.07142538 -0.19656296
000200 3f 56 03 be 43 df 4b 3e e4 94 db 3d c8 4f c2 bc
       -0.12825869 0.19909386 0.10721758 -0.023719683
000210 a2 1e f6 3c e8 bc d8 3d 28 a3 85 bd a0 14 5b be
       0.030043904 0.10582906 -0.0652526 -0.21394587
000220 b1 21 9d bb e0 be 42 3e 81 d1 53 bc d5 e4 bc 3d
       -0.004795276 0.19018126 -0.012928368 0.09223334
000230 30 95 12 3c 46 80 26 3e 13 33 1b 3e d3 cf 57 3e
       0.008946702 0.1625987 0.15156202 0.21075372
000240 ca c2 50 be 5d b4 2e be 00 51 db bd 26 9d af bd
       -0.20386806 -0.1706099 -0.10708809 -0.085748956
000250 2e 39 f6 bd 2d f7 18 3e 88 8f d5 bd a0 9f 32 3c
       -0.12022625 0.1493804 -0.10427767 0.010902315
000260 eb 86 c8 bd bf 89 1a bd 22 a7 90 bd 43 e8 8b bd
       -0.097913586 -0.03772902 -0.07063128 -0.0683141
000270 7e ea d2 bd 65 fe e6 3d 02 34 5c 3e e9 a1 28 3d
       -0.10298632 0.11278991 0.21504214 0.041170035
000280 99 6d 62 3e 99 06 22 bd f5 e1 58 be d7 35 50 3d
       0.2211212 -0.039557073 -0.21179946 0.050832596
000290 ed 04 c5 3d 07 86 ba be 6a 91 66 3e 2e 9d 2e 3d
       0.0962008 -0.3643038 0.22516409 0.042630367
0002a0 c1 73 8c be 03 0d e0 bd e2 ce ab 3d d1 17 25 bd
       -0.27432063 -0.10939982 0.08389069 -0.040305916
0002b0 02 d6 03 bd fe e8 3c 3e c0 c9 27 3e c5 44 89 3d
       -0.032186516 0.18448254 0.16385555 0.0670257
0002c0 64 0d 07 3d 8b ce 42 3d 6f 63 a3 3d 50 9a 0e 3a
       0.032971755 0.047560256 0.0797795 0.00054398645
0002d0 d6 c1 07 bd 05 37 c6 bd 9c 65 16 bc 30 3e 34 be
       -0.03314384 -0.09678463 -0.009179499 -0.17601848
0002e0 33 f3 b6 bc 84 a2 6f 3d ce ef 03 3d fd 4b 51 3d
       -0.022332763 0.058504596 0.032211117 0.05109786
0002f0 7c 4a 70 bd d0 0d 97 3d 9c 53 e1 bd da b5 68 3e
       -0.058664784 0.073756814 -0.11002275 0.22725621
000300 ed 88 2d 3e fe 31 04 be 1e 55 d0 3d 7e d3 a4 3d
       0.16946764 -0.12909696 0.10172485 0.080481514
000310 70 ec 14 be 6d 8c 13 3e 2f 8f 56 ba 34 3f 90 be
       -0.14543319 0.14409037 -0.0008184788 -0.2817322
000320 7f 86 1a 3d ae 02 b2 3d 91 fe 11 be 87 9e c5 3b
       0.03772592 0.08691917 -0.14257266 0.006030861
000330 db 50 e7 ba f5 39 d3 bd 35 28 dc 3d 87 be 7c 3d
       -0.0017647998 -0.10313789 0.107498564 0.06170514
000340 b3 9d 9a be a2 c7 12 3d 6e c3 8c 3d 2e 11 a5 bb
       -0.3019844 0.035834916 0.06873213 -0.0050374484
000350 5b c9 3f 3e 19 36 62 3e 9b 32 3e bd 2c e1 12 bd
       0.18729155 0.22090949 -0.04643498 -0.035859272
000360 d2 90 b7 bc 5f 45 e8 3d 9f 87 28 3e 70 a9 8f 3d
       -0.022407923 0.113413565 0.16457985 0.070147395
000370 b5 8e 2e bd 8b 26 ad 3c af b8 c5 3d db f3 07 be
       -0.042616565 0.021136543 0.09654366 -0.13276617
000380 11 72 96 bb 66 85 bd bd ef 29 9c be 43 19 40 be
       -0.0045912345 -0.09253959 -0.30500743 -0.18759637
000390 ae bd 37 be 17 3e d5 bd b6 7f 36 be 8c e8 3e 3d
       -0.17943451 -0.10412233 -0.17822155 0.046608493
0003a0 8e d4 12 3e 51 ce c7 bd ea 74 0e 3e d3 9f bb bd
       0.14338896 -0.097561486 0.13911787 -0.091613434
0003b0 d0 8c ba 3d b6 f7 02 bc ff a8 85 3e fa 75 e0 3d
       0.09108889 -0.007993629 0.26105496 0.10960002
0003c0 07 b0 9f bd 94 e1 1c 3d b9 66 dc 3d b6 d6 8b be
       -0.077972464 0.038301066 0.1076178 -0.2731225
0003d0 4e 46 f4 bc 89 b9 14 be 46 b1 c9 3c bd ba bd bd
       -0.02981868 -0.14523901 0.024620663 -0.09264133
0003e0 c8 45 1a 3d 39 34 98 bd a9 ec 16 be 35 ed 00 be
       0.037664205 -0.07431836 -0.14738716 -0.12590487
0003f0 eb c6 97 ba 75 a5 2d 3e 80 f3 81 3e 2f da 3b 3e
       -0.0011579668 0.16957648 0.25381088 0.18344949

conv1.bias f4 [10]
000000 6e 9f 1f 3e b7 60 bc 3d 6d e1 50 3e 2d 91 83 bc
       0.15588161 0.091981344 0.20398493 -0.016060436
000010 c7 57 7f 3d c4 7c 35 bc fc 7a 41 3e 23 e2 d3 3d
       0.06233957 -0.01107711 0.18894571 0.103458665
000020 8a 89 2f bb 6a 02 48 3b
       -0.002678486 0.0030519017

conv2.weight f4 [16, 10, 3, 3]
000000 5e 5d 23 3c 3e 5c 0d 3e 6c 51 cc 3c 2a ce 79 bb
       0.009970991 0.13804719 0.024941169 -0.0038117268
000010 75 28 7c 3a ae 61 bb bd 12 d8 8b 3d 14 33 06 3d
       0.00096190657 -0.0914949 0.068283215 0.032763556
000020 97 6b fb 3c ec 9a c6 3d c1 ea 7a 3d 4e bb 0c be
       0.030690951 0.09697518 0.061259035 -0.13743326
000030 98 08 08 3e 05 f2 19 3d f3 02 29 bc ce ae e1 3d
       0.13284528 0.037584323 -0.010315645 0.110196695
000040 88 79 13 bd 03 ba f1 bd 0e 8f e4 bc 69 29 6b bd
       -0.036004573 -0.11803057 -0.027900245 -0.05741254
000050 d8 51 37 3d 99 1c d4 bd 98 02 9e 3d c0 0c b4 3c
       0.044755787 -0.10357017 0.077153385 0.021978736
000060 a0 aa 3e bd ae 68 c0 3d 3d e5 88 bd 9e 49 42 3e
       -0.04654944 0.09394966 -0.06684349 0.18973395
000070 d1 6b 1b 3e 57 6e 7b 3e bc ed 65 bc 45 10 6f bc
       0.15177847 0.2455381 -0.014033731 -0.014591281
000080 91 4e bb 3a 5f e2 14 be bd dd 12 be 76 17 d6 bb
       0.0014290382 -0.14539479 -0.14342399 -0.0065335585
000090 1b b9 1c 3e 51 c5 75 3c ab 4e 7d 3d 37 93 53 3d
       0.15304987 0.015000657 0.0618426 0.051654067
0000a0 51 9d d1 3d fb 5b 39 3d e2 f0 79 bc ae a8 e4 3c
       0.10235084 0.045253735 -0.015255185 0.027912464
0000b0 ee 29 df 3d 40 ed 45 be e3 39 bd bd e7 76 41 bd
       0.10896669 -0.19328785 -0.09239557 -0.047232535
0000c0 df 42 04 bd 98 af ca bc a0 e8 03 be d8 8c 0d be
       -0.032290336 -0.024741933 -0.12881708 -0.13823259
0000d0 46 e9 69 bd 5c aa 0e bd 0d 88 28 bd 72 70 27 3e
       -0.057107233 -0.034830436 -0.041145373 0.16351488
0000e0 f7 e9 17 bd 57 57 13 3e 22 94 03 3e 39 87 03 3e
       -0.03708836 0.14388786 0.12849477 0.12844552
0000f0 7f 32 58 3c 11 f3 3b 3e 45 b0 91 3d 8f cf 54 3d
       0.013195633 0.18354441 0.07113699 0.051955756
000100 54 bd 7c bd 48 57 47 3d 43 e6 47 be 25 44 22 be
       -0.061703995 0.048667222 -0.19521432 -0.15846308
000110 45 b7 00 be 5d 04 c5 bd 20 16 fa bd a8 69 b2 3d
       -0.12569912 -0.09619973 -0.12211251 0.087115586
000120 2c c2 68 3e 4b e4 90 bc 8a 39 df 3d ed c4 43 3e
       0.2273032 -0.017686984 0.108996466 0.1911809
000130 09 13 ad 3d 6b 9b bb 3d 7b fa 95 bd 14 61 13 be
       0.08450896 0.09160503 -0.07323166 -0.14392501
000140 51 2f 8e bd eb 8e 03 3c 0b d4 2e 3d 0e 06 e2 3c
       -0.06942619 0.00802968 0.04268269 0.027590778
000150 f9 03 2a 3d 8b 53 ad 3d 39 8c 54 bc 85 78 be 3d
       0.041507695 0.084632 -0.012972885 0.09300331
000160 88 a1 f6 3d 50 61 b6 bd 2b bc 42 be 98 8a d8 bd
       0.120425284 -0.0890528 -0.19017093 -0.1057331
000170 64 5e c1 bd c3 b7 35 3d e7 19 be bc f6 68 a1 bd
       -0.09441832 0.044364702 -0.02320571 -0.07881348
000180 b5 bb c7 bd f5 3b 59 3c 7e 1d 8b bd 25 4d aa 3d
       -0.09752599 0.013258924 -0.067927346 0.083154954
000190 b0 a7 5f 3d 11 8f c6 3d b3 ab 9b bc e6 fc 24 bd
       0.05460328 0.096952565 -0.019002771 -0.040280245
0001a0 05 1c 3b 3b 3f 26 52 3e d8 54 69 bb f8 62 b3 3d
       0.0028550636 0.20522402 -0.003560355 0.08759111
0001b0 e8 03 2f 3e 03 d3 f8 3d d8 ae d7 3d c9 dd a7 bc
       0.17091334 0.12149622 0.10531396 -0.020491498
0001c0 d6 4d 88 3d bf d4 13 bd d7 39 51 3c 16 16 09 3d
       0.06655471 -0.036091562 0.012770138 0.03346833
0001d0 e6 94 72 bd 57 68 07 3e 1d ec 3f 3d 3f 3e c0 3d
       -0.059224032 0.13223396 0.046856035 0.093868725
0001e0 ef 64 5d 3d 83 68 09 3e 3a 3a ca 3d 9e 19 bb be
       0.054051336 0.13418774 0.09874387 -0.36542982
0001f0 8c 71 47 bd aa 29 e1 3c 0c 74 64 bd 08 f7 9c 3d
       -0.04869227 0.027485687 -0.055774733 0.07664305
000200 90 b9 60 bc 3e 80 4d 3d d5 10 b6 bd df 4c 8c bd
       -0.013716117 0.05017113 -0.08889929 -0.068505995
000210 3b d9 05 be bf 19 ab 3d 11 e4 88 bc c6 d5 0b 3e
       -0.13071148 0.0835452 -0.016710313 0.13655767
000220 7e 2b ff bd 51 20 c8 bd 88 8f 6c 3e 6f 44 63 3c
       -0.12459467 -0.09771789 0.23101628 0.013871296
000230 ae cd 8f bd 16 2b 59 3e a1 89 03 3e c0 02 0f 3b
       -0.07021652 0.21207842 0.1284547 0.0021821707
000240 66 83 00 3d d5 c8 0b be 1e a7 d2 bd 3b 39 f0 3c
       0.03137531 -0.1365083 -0.10285781 0.029324165
000250 ac 98 28 3e 53 27 88 3c 87 e1 9d be cd ef fb bd
       0.1646449 0.016620314 -0.30836126 -0.12301598
000260 2c ec 8d bd 83 58 54 be 1e f7 38 be 68 24 d5 bd
       -0.06929812 -0.2073689 -0.18063018 -0.104073346
000270 be cc f9 3b b5 f7 7f 3d 47 63 30 bc bb 3d 10 3e
       0.007623284 0.06249209 -0.010765857 0.14086048
000280 4f 3f 5a 3e fc 6f e8 3d 74 54 91 3e 55 3e 84 3e
       0.21313213 0.11349484 0.28384745 0.25828806
000290 45 b0 76 3e 79 31 12 be 0d 74 15 3d 9f f1 db 3c
       0.24090679 -0.14276685 0.036487628 0.026848612
0002a0 f7 cf f0 be 8f 6b 49 3d 12 af 9f 3c df 56 8c 3d
       -0.47033665 0.04917484 0.01949266 0.06852507
0002b0 29 bf a5 bc 77 98 39 3d 7c 32 02 bd 5f cb 2a bc
       -0.020232754 0.045311417 -0.031786427 -0.010424464
0002c0 75 94 38 bd e3 6c 1f be 0c be 92 bc 19 e6 13 be
       -0.045063455 -0.1556888 -0.017912887 -0.14443244
0002d0 97 d1 92 3d b8 a0 02 bc 4a 19 42 3d 4a 56 0c 3e
       0.07168882 -0.007972889 0.0473874 0.13704792
0002e0 ac ac b4 bd af 1f 41 3d 4c 52 90 bc c6 33 89 bd
       -0.08821997 0.047149356 -0.017617367 -0.06699328
0002f0 aa 66 11 3e da 78 97 bd 7a 8f a5 bd 83 c0 ad 3d
       0.1419932 -0.073960975 -0.080840066 0.08483984
000300 28 7b ca bc 64 c8 60 bd c2 ab 12 3d 28 63 e3 bd
       -0.024716929 -0.054878607 0.035808332 -0.11102897
000310 e8 35 31 3d 04 ec 44 3d 09 77 b3 3d dc 84 07 3e
       0.0432643 0.048076645 0.087629385 0.13234276
000320 79 a3 6c 3d b1 d7 5f 3a a0 91 56 3d f1 e0 d2 3d
       0.057773087 0.00085389154 0.052384973 0.102968104
000330 10 cc df 3d ec d6 34 bd c6 b7 99 bc 78 14 93 bd
       0.10927594 -0.044150278 -0.018764388 -0.071816385
000340 18 4a 04 bd 25 bd 09 be d6 3e 15 be fe fe 0e be
       -0.032297224 -0.13451059 -0.14574751 -0.1396446
000350 d8 c4 cd 3b 73 ff 09 3c ad f8 f8 bd 13 d5 27 be
       0.006279569 0.00842272 -0.12156806 -0.16389875
000360 22 4d b7 3c 6d dc 51 3d 86 04 a1 3d 43 c5 1b 3e
       0.022375647 0.051235605 0.07862191 0.15211968
000370 55 1b 2d 3e 31 52 24 bd 7e 59 3b 3d 26 57 79 be
       0.16904958 -0.040117446 0.045739643 -0.2434965
000380 6d c1 cd be d5 34 33 3d 26 b3 0e bd 83 2c 06 be
       -0.40186635 0.043751556 -0.034838818 -0.13102917
000390 69 85 dd 3d dc b4 98 3d 50 46 4c 3e 83 ef 2d be
       0.108164616 0.07456371 0.19948697 -0.16985898
0003a0 32 28 99 3d b5 11 a1 3d 45 a0 6b 3d 66 82 18 be
       0.0747837 0.078647055 0.05752589 -0.14893493
0003b0 aa 44 36 bd fc 40 78 bc ca 35 f5 bd 1f 84 4e be
       -0.044499077 -0.015152212 -0.1197315 -0.20167588
0003c0 c5 db f6 3d ff 33 80 bd 06 c1 dd bb f6 e8 ba 3c
       0.120536365 -0.062599175 -0.006767395 0.022816163
0003d0 f5 f2 19 3d 60 c4 15 bd d0 ab c8 3c bb b5 2a 3e
       0.037585218 -0.03656423 0.02449599 0.16670887
0003e0 c9 77 3d 3c 58 fe 19 bc 36 f4 16 3c eb 0c 1e 3d
       0.011564204 -0.009399019 0.009213498 0.03858654
0003f0 1b f7 d3 bd 39 10 39 bd 11 ef f9 3d 1b da 64 be
       -0.10349866 -0.045181487 0.122038014 -0.22348826

conv2.bias f4 [16]
000000 ad 2a 2b 3d b7 41 96 3b f8 4a f7 bc 5b 8b 7e 3e
       0.041788746 0.0045854705 -0.030187115 0.24857847
000010 db 91 3d bd 50 19 25 3e 86 75 8f bd cc 15 2c 3d
       -0.046281677 0.16122937 -0.07004838 0.042012975
000020 1c 0e 2e 3e 77 7e fd bd 98 46 38 3e 32 3b 12 3e
       0.1699757 -0.12377637 0.1799568 0.14280394
000030 61 ad b2 3d 74 95 a2 bd 76 6b 37 bb 6e 93 2d 3e
       0.08724476 -0.07938662 -0.0027987636 0.16950771

conv3.weight f4 [32, 16, 3, 3]
000000 20 42 36 bd 7b 44 89 3c 48 60 37 bd a6 ce 9c bc
       -0.044496655 0.016756287 -0.044769555 -0.019141506
000010 a4 f8 84 bd fb af c1 bc c3 c6 87 3d 96 54 84 3b
       -0.06492737 -0.023643484 0.06629708 0.0040384037
000020 f0 f6 09 bd 10 f6 ae bd 5f e3 1e 3d e4 b1 88 3d
       -0.033682764 -0.085430264 0.038791057 0.06674555
000030 4c 48 1f 3d fe 35 ac 3b 38 a3 9f bd 5b ae 8d bd
       0.038887307 0.00525546 -0.077948034 -0.06918021
000040 20 c3 6b 3d 7c 9f 8e 3d b6 0d 39 3d b0 b7 ce bc
       0.057559133 0.06964013 0.04517909 -0.025234073
000050 1f 89 37 3d 5e 30 89 bd 53 5f 99 bd 79 d7 aa bd
       0.044808503 -0.066986784 -0.07488885 -0.083418794
000060 81 94 27 bc 6f 1e 86 3d a3 c1 6c 3d 6e dc 04 3c
       -0.010228277 0.065487735 0.057801854 0.008109195
000070 47 6d 55 bd 02 9a 7d 3d 21 7c a3 bd 28 fc 19 bd
       -0.052106168 0.06191445 -0.0798266 -0.03759399
000080 d2 d8 c8 bc ac c8 a1 bd 71 fd 97 3d f6 1f 6f 3d
       -0.02451745 -0.07899603 0.07421387 0.05838009
000090 c4 4c 97 3d 46 7f 79 bd c6 5a bc bc d6 0c ad bc
       0.07387689 -0.060912393 -0.022992503 -0.021124285
0000a0 f3 30 42 bd 58 04 88 3d f0 e5 e8 3c db 18 83 3c
       -0.047409963 0.066414535 0.028429955 0.016003063
0000b0 70 f8 7c bd d3 6f 36 bd 27 ea 9c 3d 00 bc 4f 3d
       -0.061760366 -0.044540238 0.076618485 0.0507164
0000c0 16 3c 9e bb 80 f5 73 3b e0 91 d8 3c 03 be 37 bd
       -0.00482894 0.0037225187 0.026436746 -0.044858944
0000d0 a0 ec f2 3c 70 5f 6f bd 69 18 82 bd 43 9b 69 bc
       0.029653847 -0.058440626 -0.06352312 -0.014258209
0000e0 af b1 d6 3c cb 19 7c 3d f5 b5 68 bd 4c f9 a6 bd
       0.026207773 0.061548036 -0.056814153 -0.08153018
0000f0 92 aa 4d 3c 35 79 95 bd d3 80 00 3c 55 e9 7e bd
       0.012552874 -0.07298509 0.007843214 -0.06223424
000100 a0 bf 3c bc 6e 08 0f 3d 63 1c 63 3d 68 88 42 bc
       -0.011520296 0.03492015 0.055446994 -0.011873342
000110 e8 9d 8e bc c4 f3 8f 3d 0b 31 72 bb 2b 2b 57 bd
       -0.01740928 0.070289165 -0.0036955501 -0.052531403
000120 e2 44 ae bd 61 00 94 bd 93 ba 96 3d e8 8f 7f bc
       -0.08509232 -0.07226635 0.07359805 -0.015598275
000130 ed 0d a2 bd 48 07 8b 3d f9 66 86 3d af 17 44 bd
       -0.079128124 0.06788498 0.06562609 -0.04787415
000140 30 e4 99 bd 47 c5 41 3c 37 e5 df 3b 7a a0 52 bc
       -0.075142264 0.01182682 0.0068327445 -0.012855643
000150 37 ee 7d bd 08 bd ad 3c dc 3c 0b bc 38 92 c0 bb
       -0.061994758 0.021208301 -0.008498397 -0.0058768056
000160 d1 ad b3 bd 59 93 9a bd 16 9d 97 3c 3b 9b ee 3c
       -0.08773387 -0.075476356 0.018507522 0.029126754
000170 8d 9b a9 bd 7d c6 b3 bc 5d b1 9b 3d 5d 27 40 bd
       -0.08281622 -0.021945233 0.07602189 -0.04691254
000180 b1 01 8e bd ff 5e 2d 3b 62 92 c4 bc 7e 54 1c 3d
       -0.06933916 0.0026454327 -0.023995582 0.038166516
000190 d2 3b ae 3c 81 0d 32 3c 0d c3 9e bd 82 6d 68 3d
       0.021268759 0.010867477 -0.07752047 0.05674506
0001a0 4e 4e c8 3c 5f 93 1b 3d 68 d6 05 bd 15 c5 2c bd
       0.024451401 0.03798234 -0.032675177 -0.04218014
0001b0 04 dc e4 bb bc 33 ac bd ad 0f a1 bd 54 2a 86 3d
       -0.0069842357 -0.08408305 -0.07864318 0.06551042
0001c0 c8 7a 5f 3d 72 36 87 3d f8 98 b3 ba e1 6d 89 3d
       0.054560453 0.066021815 -0.0013702204 0.06710411
0001d0 41 52 14 3d 12 7d 71 3d f5 da 2a bd fe 57 94 3d
       0.036211256 0.058957167 -0.04171272 0.07243346
0001e0 a8 3a 8a 3d 77 7c 89 3d 6a 62 4b 3d 3c dc 8a bb
       0.06749469 0.06713193 0.0496544 -0.0042376798
0001f0 b1 03 42 ba e2 b8 f5 bb ac 29 45 bd 18 d8 70 bb
       -0.0007401063 -0.0074988464 -0.048135445 -0.0036749896
000200 79 e6 6d 3d 98 92 64 bd a6 23 28 bd 8b 78 3d 3c
       0.058081124 -0.055803865 -0.041049622 0.011564384
000210 9d a8 af bd 38 00 9e bd a5 ef 15 bd d3 bf 02 3d
       -0.08577082 -0.077148855 -0.036605496 0.03192122
000220 06 37 b0 bd bd ac 48 3d d9 52 5a bd fa 84 e3 bc
       -0.08604245 0.04899286 -0.053301666 -0.02777337
000230 30 d8 89 bd 1c d2 36 3d 1e 90 ba bb 9d 42 a7 bd
       -0.067306876 0.04463397 -0.0056934496 -0.08167002
000240 af 51 99 3d 98 9c 0a be a3 7e af bc 87 9c 29 be
       0.07486283 -0.13536298 -0.02142269 -0.16563617
000250 e6 0e b9 bd 9f 51 d4 bb 1d 4a 84 bd f6 05 4c bd
       -0.09036045 -0.0064794566 -0.064594485 -0.049810372
000260 c9 1f 96 bc 9b d8 1c be 75 45 4c bc a3 cb 81 bc
       -0.018325703 -0.15317003 -0.012467732 -0.015844172
000270 56 ff a8 3d f1 3d 84 3d 1b b1 23 bd 46 bd 7d 3e
       0.082518265 0.06457127 -0.039963823 0.24779233
000280 f2 2d bb 3d e2 93 0a 3d cc 7b 0d be 90 b5 34 be
       0.09139623 0.03383244 -0.13816756 -0.17647386
000290 83 dc a9 be 07 88 1d bd c8 2e c4 3d 04 4d b0 be
       -0.3317605 -0.038459804 0.09579235 -0.34433758
0002a0 3a c1 dc 3b e1 27 82 bd d1 ae 43 be 44 1d 29 3d
       0.0067369016 -0.063552625 -0.19109656 0.041287675
0002b0 20 bb b5 3d af be c8 3d 5d f7 0d bd 71 57 19 3d
       0.08873582 0.09801995 -0.034659732 0.037436906
0002c0 ff d4 06 bd a4 26 8e 3d c0 22 6e 3b 56 1c 7a 3d
       -0.032917973 0.06940964 0.003633663 0.06106218
0002d0 83 f5 64 3d e0 9e 5f bd 7a 10 a8 bd 95 f9 a5 bd
       0.0558982 -0.054594874 -0.08206268 -0.081042446
0002e0 13 50 77 3c 44 dd 23 3d f4 8e 26 be ac a5 c4 bd
       0.015094775 0.040005937 -0.1626547 -0.09601912
0002f0 57 aa 01 3d 0f 90 09 3f 1e 89 e2 3c a6 b0 51 3c
       0.03165659 0.5373544 0.027653273 0.012798464
000300 a8 a6 97 3e 0b 2d 20 3c a6 ac 3d be 47 00 ae 3e
       0.29619336 0.009776364 -0.18522891 0.33984587
000310 c6 a5 f0 bd 21 1b b3 3d 74 d2 75 bd f9 56 8a 3d
       -0.11750369 0.08745409 -0.060015157 0.0675487
000320 91 db 8b bd 71 cf c8 3d 77 ac b9 3d 5b 31 60 3d
       -0.06828988 0.09805191 0.09066098 0.05473457
000330 ab 05 3e bd 8d dc f9 3d 2f be b7 3d 83 aa 65 3e
       -0.046392124 0.1220027 0.089718215 0.22428326
000340 8d c2 14 3f 5b b9 0a 3f 11 98 c6 3c e1 c5 22 be
       0.5810936 0.5418908 0.024242433 -0.15895797
000350 74 6f a9 3e 39 56 36 3e d8 b1 46 bd 92 6e 0f 3e
       0.33092844 0.17806329 -0.04850945 0.14007023
000360 42 ca 79 3d f3 84 0f bd e6 57 11 3d 1b af 9e 3c
       0.060983904 -0.0350389 0.035484217 0.019370606
000370 bc cf a8 3d 27 70 57 ba 59 1a 95 3a be ac 12 bd
       0.08242747 -0.0008218311 0.001137565 -0.03580927
000380 de 62 47 bc 4c 09 4d bd 30 8f b8 bd b7 ec 24 be
       -0.012169568 -0.050057694 -0.09011686 -0.16105925
000390 60 3e c8 bd c7 66 e0 bd 2a 8a 58 bd 29 3d 38 bd
       -0.09777522 -0.10957103 -0.05286614 -0.044980202
0003a0 14 49 1c 3d 98 9b 97 bd bb b3 ef 3a c0 5d 07 3c
       0.03815563 -0.07402724 0.0018287817 0.008262098
0003b0 93 f7 d1 bc c2 91 fa 3b 93 12 ac ba c5 dd 9e bd
       -0.025630748 0.00764677 -0.0013128094 -0.07757143
0003c0 f4 f3 a9 3d 44 f0 c2 3d ee b0 01 bd d9 76 40 be
       0.082984835 0.09518483 -0.031662874 -0.18795337
0003d0 78 b0 30 be 5c b3 98 be 1f fe c3 bd e0 0f 54 bc
       -0.17254817 -0.2982434 -0.09569954 -0.012943238
0003e0 ff 78 f8 bd 92 7d 3c be 6a ef 0c 3d 85 0b 26 be
       -0.12132453 -0.18407276 0.03440801 -0.16215332
0003f0 28 aa 49 3e 62 35 ef 3c e5 6f e4 3c 71 2c ce 3d
       0.19693816 0.02920026 0.027885387 0.1006707

conv3.bias f4 [32]
000000 54 87 a9 bd c2 d4 e0 3d eb 2f f7 3d c4 85 02 3d
       -0.08277765 0.1097808 0.120696865 0.03186585
000010 51 50 81 3d 5e c5 93 3d 2e 5f 06 bc 73 b9 87 bd
       0.06314147 0.07215379 -0.008201404 -0.066271685
000020 d8 3b 75 bd 09 e2 11 3a 22 c2 56 3e 01 d3 1a 3d
       -0.059871525 0.0005564993 0.20972493 0.037798885
000030 bd 38 1c 3e 89 06 a4 bd 0f 25 b1 bc 07 a3 86 39
       0.15256019 -0.08009059 -0.021624116 0.00025679937
000040 9c 14 4f 3d 35 fc 92 3d c7 81 c0 3d 5a e9 15 3d
       0.050556764 0.07177011 0.09399753 0.036599495
000050 dc 16 db bd 7a ae 7b bd e7 23 41 3e 04 b9 82 3d
       -0.106977195 -0.06144569 0.18861352 0.06382945
000060 e4 4a b6 bd b0 c4 9e bd ac 5e ee bc 5a c6 0e bd
       -0.08901003 -0.07752359 -0.029097877 -0.03485713
000070 84 28 67 3d 32 e0 ff bb 1a b0 a6 3c 07 04 3a 3c
       0.056435123 -0.0078087086 0.020347644 0.011353499

conv4_1.weight f4 [2, 32, 1, 1]
000000 df b7 c7 3d 5f 8d e4 3e 85 40 9b 3e 99 9a 3b 3f
       0.097518675 0.44639108 0.30322662 0.7328277
000010 ed 68 ce 3e 1e 3f 1f 3f ea 81 35 bf d6 03 21 bf
       0.40314427 0.62205684 -0.7090136 -0.6289648
000020 57 4a 2a 3f d1 2a 90 3f 0f 7b 13 3f 27 4b 23 be
       0.66519684 1.1263067 0.5760965 -0.15946637
000030 8e e6 5d 3e 42 61 b1 3c 1e 94 e8 bd d3 34 25 be
       0.21669981 0.021652821 -0.11356376 -0.16133432
000040 dd 67 03 c0 33 f3 04 3f 51 22 59 be 6f 95 c1 bf
       -2.0532143 0.5193359 -0.21204497 -1.5123729
000050 a9 73 a4 3f e1 1f e6 3b 7e e8 10 3d b5 0b 81 bf
       1.2847797 0.007022843 0.03537797 -1.0081698
000060 bd 74 d8 bc b5 bd c6 3d d7 c5 c1 3e b0 2e 32 3f
       -0.026422853 0.097041525 0.37846252 0.6960249
000070 cc 65 ea 3e 5a 09 82 3f eb ba 77 3f 8a 45 83 bf
       0.4578079 1.0159104 0.9676959 -1.0255597
000080 c0 aa 29 3e e0 c1 bd be 88 24 ae be e2 d4 64 bf
       0.16569042 -0.37061977 -0.34012246 -0.89387333
000090 dc ad 7b be 97 ef d1 be db f3 22 3f 7a cc 21 3f
       -0.24578041 -0.41003105 0.63653344 0.6320263
0000a0 3c 3b 46 bf 3d 85 8e bf 6c 31 f4 be 8d 5c db bd
       -0.77434134 -1.1134411 -0.47693956 -0.10711012
0000b0 64 43 28 be f0 19 d7 3d 0d a1 24 bc 61 bf 04 3e
       -0.16431957 0.10502994 -0.010048163 0.1296363
0000c0 49 90 e1 3f db fa 09 bf 5a 44 59 3e b7 e1 e9 3f
       1.7622157 -0.538984 0.2121748 1.8272008
0000d0 32 ca aa bf b7 33 a7 3d 26 dc 14 be 49 11 8a 3f
       -1.3342955 0.08164161 -0.14537105 1.0786525
0000e0 f2 dc 3c 3e c2 26 07 3e 56 de c4 be 84 2d 27 bf
       0.18443659 0.13198379 -0.3845088 -0.65303826
0000f0 6e 06 e9 be 70 88 7e bf 6a ce 89 bf fc 4e 95 3f
       -0.45512718 -0.9942694 -1.0766118 1.1664729

conv4_1.bias f4 [2]
000000 82 0d 4b 3d ba 37 b4 bd
       0.04957343 -0.087996915

conv4_2.weight f4 [4, 32, 1, 1]
000000 e2 e5 d1 3d 3a 97 94 be bb d4 9d 3e 2b 1b 09 3f
       0.10248925 -0.29021627 0.30826363 0.5355708
000010 a3 5d 85 bd 39 15 e1 3d 7a 67 3d bc e5 d6 20 3d
       -0.065120004 0.10990376 -0.011560315 0.03926744
000020 85 2d ae bc d5 75 5a bd 54 83 b7 bd 2a b4 1c 3e
       -0.02126194 -0.05333503 -0.08960596 0.15303102
000030 7c 01 f3 be 4b 67 64 3d 14 12 e0 bd 6b 55 94 bd
       -0.4746207 0.05576257 -0.10940948 -0.07242855
000040 74 97 dc 3c ba 66 75 3e 94 65 07 be 15 f6 03 bd
       0.026927687 0.23964968 -0.13222343 -0.032217104
000050 5f e6 c4 bb ab 75 39 3d e4 70 4d bb 12 d7 38 bc
       -0.0060089077 0.045278233 -0.0031347806 -0.0112817455
000060 ee 6c 81 3e 0b 36 f5 bd 76 de 87 bc 19 82 38 bc
       0.2527842 -0.119731985 -0.01658557 -0.011261486
000070 5e af 06 3b c9 51 4a 3d 14 b9 f9 bd 80 b3 b6 38
       0.0020551304 0.049394403 -0.12193504 8.711871e-05
000080 f1 a2 09 3e ed 98 00 3e 76 97 86 3e 6c 4c 7a 3e
       0.13441063 0.12558337 0.2628743 0.24443215
000090 52 f5 ad bc 28 6c 49 bd 0a 07 04 3e b2 0b cb bd
       -0.021235142 -0.04917541 0.1289331 -0.0991434
0000a0 2a 5a 0c 3c 49 0c a8 3d 32 44 87 bd ee f6 59 bd
       0.008566419 0.08205468 -0.06604804 -0.053214006
0000b0 ad 85 0b 3e 5b f1 4b 3d 9a 90 1f be a9 fa 04 3e
       0.13625212 0.04979072 -0.15582505 0.12986244
0000c0 32 81 14 bd da 86 49 3c 26 c5 33 3e 10 76 ae 3d
       -0.036256023 0.0123002175 0.17555675 0.085186124
0000d0 fb ba ea 3d 88 66 27 be 30 fd 16 bf 8c 40 4d 3d
       0.11461445 -0.16347706 -0.58980083 0.050110385
0000e0 21 88 95 be ba c4 be bc 75 a2 f2 3d 68 1d e2 3d
       -0.2920542 -0.023287166 0.118473925 0.11040765
0000f0 22 84 af bc 19 5a be bc ac 17 c3 bb 9a 9c a3 3a
       -0.02142531 -0.023236321 -0.0059537496 0.0012482584
000100 93 42 10 3e 17 34 db bb 73 90 6e 3b ab 15 2f 3d
       0.14087896 -0.006689559 0.0036402016 0.042745274
000110 42 fe 02 bc 6d 1d bc 3c 81 b5 92 bc 00 5a e1 3c
       -0.00799519 0.02296325 -0.017908813 0.027508736
000120 5b ab a2 bc 53 0f 8d bc 5d b2 0b 3d f1 3b d3 bd
       -0.0198571 -0.017219221 0.034105647 -0.10314167
000130 02 77 56 3d a1 87 95 bd 20 16 e1 3d af c5 b7 bd
       0.05235959 -0.0730126 0.10990548 -0.08973252
000140 30 ed ab 3c eb 67 05 3d c2 72 40 3c 11 b2 72 bd
       0.020987123 0.032569807 0.01174611 -0.05925185
000150 a0 43 18 bd 67 75 0c 3e 41 0a 57 3d 9d 2d 07 3c
       -0.037173867 0.1371666 0.052500013 0.008250621
000160 78 f1 eb 3d de 5f 01 be 19 6d ab bd 34 d0 b1 bc
       0.11520666 -0.12634227 -0.08370418 -0.021705724
000170 89 c4 dd 3b e0 43 af 3b 49 54 86 3c 42 db 79 3c
       0.0067678136 0.0053486675 0.016397612 0.015250029
000180 9b 5a cd 3c bf ea 7c 3c a5 89 2e be a1 ff 92 be
       0.025067618 0.015436827 -0.17044695 -0.28710654
000190 c8 6b ee bc 45 41 28 bd 33 16 0b 3d 9d 37 36 bd
       -0.029104128 -0.04107787 0.033956718 -0.04448663
0001a0 79 9c 2b 3d 3f b6 65 3c d6 b0 63 3d 2c 9f 0c bd
       0.04189727 0.014020502 0.055588566 -0.034331486
0001b0 21 a3 b0 3d f9 8c 13 3d 93 1e 4f 3d ea 69 be 3d
       0.08624864 0.036023114 0.050566267 0.09297545
0001c0 70 fc 63 bd fb a3 33 3d 32 d2 0c 3e 46 0b 52 3d
       -0.055660665 0.043857556 0.13752058 0.051280282
0001d0 f5 e0 8a 3c 84 4d 6c bc 1b 26 f6 3c f4 07 72 bd
       0.016952971 -0.014422778 0.030047467 -0.059089616
0001e0 e1 65 97 be ce 32 44 bb 4f 8e 19 bb d0 1c 15 3c
       -0.29569915 -0.0029937509 -0.002343077 0.009101108
0001f0 67 7d b1 3c b2 66 f3 bc 97 02 a3 3d ab da 78 bd
       0.021666242 -0.029712055 0.07959478 -0.060755413

conv4_2.bias f4 [4]
000000 55 df fb 3d ac fc f6 3c 45 06 5c 3f 34 44 68 3f
       0.122984566 0.03014978 0.85947067 0.9072907

conv4_3.weight f4 [10, 32, 1, 1]
000000 85 9a 4f 3d 35 86 27 ba 19 75 0e 39 b1 43 10 3b
       0.05068447 -0.0006390543 0.00013585798 0.0022013003
000010 f6 4e ff b9 cd c1 05 39 ec 16 a8 ba 89 2f 4e 3a
       -0.0004869622 0.00012756065 -0.0012824214 0.00078653597
000020 13 34 c3 3a fc 28 0a 3a 6f 5b 42 b9 cc db 31 be
       0.0014892839 0.00052703894 -0.00018535343 -0.17369002
000030 36 33 11 bb 10 6c 09 be 4b 41 c5 bd c7 67 97 3a
       -0.0022155768 -0.13420129 -0.09631594 0.0011551314
000040 57 22 0b 3a 90 d6 9c 3a 1e 58 a4 b9 44 f9 2f ba
       0.0005307546 0.00119658 -0.0003134617 -0.00067128637
000050 45 bf 02 bb 48 f1 29 be 1e 8b 76 3a 2f f4 84 b7
       -0.0019950431 -0.16595948 0.00094048853 -1.5849333e-05
000060 fd 6a 5c ba ad d2 36 bd 52 21 0e 39 e3 ac 93 ba
       -0.00084082765 -0.04463451 0.00013554588 -0.0011266734
000070 e0 4c 8d b9 73 9c ec b9 b6 55 fe ba 39 bc 84 b7
       -0.00026950892 -0.00045129991 -0.0019404206 -1.5823274e-05
000080 e7 ab ee 3c 0b 7a dd b9 99 7d 49 39 bf 04 49 3b
       0.029134704 -0.00042243334 0.00019215643 0.0030672995
000090 d2 93 30 ba f4 ad c1 38 8f b6 94 ba 57 20 c5 3a
       -0.0006735894 9.2353584e-05 -0.0011345911 0.0015039545
0000a0 72 d0 e3 ba 13 dc ab 3a 80 47 55 ba d3 c9 5f bc
       -0.0017380847 0.0013111852 -0.00081359595 -0.0136589585
0000b0 0c e4 34 bb 62 0f 29 be 51 80 07 be b7 5a a4 3a
       -0.0027601747 -0.16509774 -0.13232543 0.0012539242
0000c0 06 b2 3c 39 99 b5 19 ba e3 91 c5 ba 65 a0 34 b9
       0.00017995396 -0.0005863547 -0.0015073385 -0.0001722589
0000d0 1a c8 e9 39 d0 c3 5d 3d 1d 57 e7 b9 bc 2a ad 39
       0.0004459031 0.05414182 -0.00044124658 0.0003302897
0000e0 83 11 7f b8 23 9d 89 bd 7c f4 18 3b 43 af b2 ba
       -6.0813047e-05 -0.067194246 0.0023339083 -0.0013632554
0000f0 5e 4f 00 39 0d b8 94 39 5a da 3a ba e8 a7 43 3a
       0.00012236598 0.00028365888 -0.0007127874 0.00074636796
000100 80 c3 66 3c af 15 8d 3b a9 ef 88 ba af 7a 77 bd
       0.014084697 0.0043055634 -0.0010447401 -0.060419735
000110 2a 15 4e 3d ea b0 32 bd 56 85 67 bb 10 77 22 3d
       0.050313152 -0.04362575 -0.0035327277 0.039664328
000120 04 81 3b bc 0a c9 30 bd da a3 f3 3b 0f fd 14 be
       -0.011444334 -0.043160476 0.007435304 -0.14549659
000130 88 81 9d bc 03 4e 10 3e 23 80 d9 bd 66 0a e5 3c
       -0.019226804 0.14092259 -0.10620143 0.02795906
000140 1e a1 4d 3c 17 f3 b4 bd f0 80 6b bc 70 00 72 bb
       0.01255062 -0.08835428 -0.014374003 -0.003692653
000150 73 c4 cb bc 5d 5c 68 bd b5 db 25 ba 2b 1a 6c 3a
       -0.024873948 -0.05672871 -0.00063269894 0.0009006585
000160 6f 0d fb bc 55 6c 0c 3e 8b f0 59 3d cf 48 18 3c
       -0.030646054 0.137132 0.053207915 0.009294703
000170 a4 40 b1 bc 7c 2f 31 bd 70 ec 50 bc 01 a8 65 bb
       -0.021637268 -0.043258175 -0.012751684 -0.0035042765
000180 56 7d 15 3e 74 0e b1 3d 00 77 ad 3d cd 48 48 3e
       0.14598593 0.08645335 0.08469963 0.19559021
000190 8c 99 b5 bd 04 4a 4a bd 86 d1 58 3b de 0d 7a bd
       -0.08867177 -0.049386993 0.003308387 -0.06104838
0001a0 83 9f 6e 3c ef 75 63 3d b0 8e a6 bc 16 f6 1c be
       0.014564398 0.055532392 -0.02033171 -0.1532825
0001b0 fa 2c e1 bb 54 4d 75 bd d2 b4 17 bd a8 08 97 bd
       -0.0068718167 -0.0598882 -0.037037678 -0.07374698
0001c0 a7 5b a8 3b 0b bc 9b bd 74 2f 12 3e b2 29 e4 bc
       0.005137879 -0.07604226 0.14275914 -0.027851913
0001d0 a2 cf 85 3e 8e 9f 84 bb b5 f0 ec 3d 00 b3 fe 3c
       0.26134974 -0.0040473407 0.11569349 0.031091213
0001e0 2a 66 05 bd 33 3a ce 3d ba b1 ad bd 10 54 c1 bb
       -0.032568134 0.10069694 -0.08481164 -0.0058999136
0001f0 1a 1e 1b bd c9 02 06 be 89 30 76 3d 14 7a 8c bc
       -0.037870504 -0.13087 0.06010488 -0.017148055
000200 d4 cd 30 3e df 82 d7 bc d0 44 8d bd 9a 57 14 be
       0.17266017 -0.026307521 -0.068978906 -0.14486542
000210 19 64 0c 3e 3b 91 ad bb d1 bc 75 3c 87 e2 06 3d
       0.13710059 -0.005296854 0.014998631 0.032930877
000220 b0 c9 65 bb 5f ec 8b 3d f0 00 a6 3c 71 a9 dd 3c
       -0.0035062842 0.068321936 0.020264119 0.027058335
000230 62 f4 1a bd 35 d7 14 be 05 d4 37 3d 6d 9d 11 3e
       -0.037830718 -0.1453522 0.044879932 0.1422021
000240 15 85 05 3b ff fe 0a be fa 22 f3 bd 1d b4 a6 ba
       0.0020373513 -0.13573836 -0.118719056 -0.0012718473
000250 c9 3b 3d bd a5 e8 2b bc ee 82 16 3c fe cb dd bc
       -0.046199594 -0.0104924785 0.0091864895 -0.02707481
000260 b6 ee 9f bd 96 fe ea 3d dd d6 bd 3d de 87 3c 3c
       -0.078092024 0.1147434 0.092694975 0.011507003
000270 cb 0c 7e bb 8a 79 91 3d 17 ca 9e bb 94 bd b5 3b
       -0.003876495 0.0710326 -0.0048458683 0.005546281
000280 9f cc 04 3e b6 26 56 3d 75 91 40 3d f5 66 bc 3d
       0.12968682 0.05228301 0.04701372 0.09199325
000290 ab 5a 1a bd ee e5 12 bd 0f b4 b2 bb 20 87 6a bc
       -0.037684124 -0.03586381 -0.0054535936 -0.014314443
0002a0 5b a5 39 3c 14 0e 21 3d f1 25 0d ba ca 7d 26 3c
       0.011330928 0.039320067 -0.0005384377 0.010161826
0002b0 09 56 f4 bc 2c 7d ab bd a3 e4 27 3e 92 1f 68 3a
       -0.029826181 -0.08373484 0.16395812 0.0008854802
0002c0 df 5b 28 3c 91 cb 65 bd 23 fa 4d 3d a7 66 35 bb
       0.01027581 -0.05610234 0.050287377 -0.0027679594
0002d0 c0 a5 ea 3d b1 d3 a2 3d 16 c1 92 3d e8 fc 32 3c
       0.114573956 0.07950533 0.071657345 0.010924555
0002e0 49 e1 e7 bc 63 02 0c be 98 3a 6c bc de b9 27 bc
       -0.028305667 -0.13672785 -0.014418267 -0.010237185
0002f0 cf 0a 15 bd 2c 49 aa bd 1e cc 7a 3c 4f 95 81 bc
       -0.03638726 -0.08314738 0.015307454 -0.015818266
000300 e7 4a c9 bd 57 27 af bd cb 95 6b bd 19 35 45 be
       -0.098287396 -0.08552425 -0.0575159 -0.19258536
000310 27 b6 86 3d 24 f5 7c 3d c9 2b 71 bb 61 85 3d 3d
       0.065777116 0.06175722 -0.003679978 0.04626978
000320 97 b7 03 bc 99 8c be bd 24 70 7a 3c 8a 28 0d 3e
       -0.008039377 -0.093041606 0.0152855255 0.13784996
000330 4e e9 6a 3a 71 68 1e 3e 1e e0 ac bb 66 e5 a7 3d
       0.0008961157 0.15469529 -0.0052757403 0.08198051
000340 3f 7f 2f bc 34 5c e9 3d a8 86 0c be 58 dd d5 3c
       -0.01071149 0.113945395 -0.13723242 0.026106521
000350 26 fe 9c be 3c 42 04 3e 52 aa e6 bd 41 c2 fb bc
       -0.3066265 0.12915891 -0.11262955 -0.030732276
000360 2a ab 1a 3d c4 53 87 3d 74 7b 53 3d e8 6b 1c 3b
       0.03776089 0.06607774 0.051631406 0.0023868028
000370 59 b2 1f 3d 2f 1e 00 3e 7b 87 48 bd 43 7e 67 3c
       0.038988445 0.12511514 -0.04895733 0.014129224
000380 2c 42 10 be de 55 0f 3c 1c 7b 88 3b 84 9e d9 bc
       -0.14087743 0.0087485 0.0041650664 -0.026564844
000390 09 7e a7 ba 61 c1 0d bc e7 22 7c ba 5c ac 8c 3a
       -0.001277865 -0.008652062 -0.0009618238 0.001073252
0003a0 e2 6a ea ba 9b e1 03 3c 63 c0 0b bb d8 f7 22 3d
       -0.0017884637 0.008049394 -0.0021324388 0.039787143
0003b0 7b c1 90 bb 18 73 30 be 45 b7 1d be c5 cd 2e 3a
       -0.004417596 -0.17231405 -0.15401943 0.00066682353
0003c0 df 02 23 bb b0 2f 9d bc a2 d5 b1 3b 34 55 ec 39
       -0.0024873537 -0.019187778 0.0054270783 0.0004507691
0003d0 8d 77 ad 3c ab 1d 82 bd 3a 84 e1 3b c6 84 87 3b
       0.02117517 -0.06353315 0.0068822177 0.004135701
0003e0 1d 11 e5 bb 25 26 93 3b 9e 9b 7e 3b 37 55 ad ba
       -0.0069905655 0.004490631 0.003885008 -0.0013224249
0003f0 71 70 56 ba 5d 60 32 bc 4a 75 8a 3b fa 7b 95 ba
       -0.0008180207 -0.010887233 0.0042254077 -0.0011404746

conv4_3.bias f4 [10]
000000 8a bf 63 3e 83 d5 b8 3e 26 4f e7 3e 14 c5 ab 3e
       0.22241035 0.36100397 0.45177573 0.33548796
000010 31 bd ad 3e dc af ee 3e a1 74 78 3e f5 3f 21 3f
       0.33933404 0.46618545 0.2426324 0.62988216
000020 06 e7 e7 3e e5 e6 1a 3f
       0.45293444 0.6050857

exp_avg f4 [10, 3, 3, 3]
000000 c3 9f 41 3d aa fe 46 3d 06 61 54 3d aa 60 70 3d
       0.0472715 0.04858271 0.05185034 0.058685936
000010 db bd 70 3d 34 5f 73 3d f7 3a 88 3d 32 71 89 3d
       0.05877481 0.059416965 0.06651872 0.067110434
000020 6f 22 79 3d a0 70 0e 3d fe 04 20 3d 6b c9 2d 3d
       0.060823854 0.034775376 0.03906726 0.042428415
000030 89 fc 33 3d b7 0b 42 3d 01 dc 4a 3d 07 98 4b 3d
       0.04394201 0.047374453 0.04952622 0.04970553
000040 72 6a 58 3d d2 29 49 3d dc c9 d9 3c 55 96 05 3d
       0.05283589 0.04911215 0.026585512 0.03261407
000050 26 0c 16 3d ef 19 0e 3d ce 9f 1e 3d e5 c7 2a 3d
       0.03663268 0.0346927 0.03872662 0.04169454
000060 d1 6c 2a 3d c0 b2 36 3d 93 af 26 3d 77 94 f9 3a
       0.04160768 0.044604063 0.040694784 0.0019041438
000070 f0 52 06 3c cd 12 07 3c 09 a4 76 bb dd 94 b5 3a
       0.008198485 0.008244229 -0.0037634394 0.0013853569
000080 72 1d f7 ba 48 d5 be bb da d8 8e bb 77 a9 2d bb
       -0.001885338 -0.005823765 -0.004359347 -0.0026498714
000090 9a c8 9f 3b f9 f5 30 3c 2c c3 2d 3c 07 35 b9 ba
       0.0048762085 0.010800832 0.010605615 -0.0014130183
0000a0 dc 6e 85 3b 6e 20 d6 3a fc b4 b1 bb fc ca 5a bb
       0.0040720534 0.0016336569 -0.0054231863 -0.0033385148
0000b0 fb 56 52 b8 01 07 14 3b 21 76 1f 3c 07 19 20 3c
       -5.014891e-05 0.0022587182 0.009732754 0.009771592
0000c0 a8 be b5 bb ce 02 11 3a 7a 07 c9 b9 66 58 11 bc
       -0.0055464096 0.0005531729 -0.00038343278 -0.0088711735
0000d0 9b c8 f7 bb c6 30 6e bb 3c 21 f4 3b 34 b5 e8 3b
       -0.007561756 -0.003634499 0.007450251 0.007101679
0000e0 70 17 04 3c 28 16 07 3c 40 e2 a3 3b d7 5b e2 3b
       0.008062229 0.008245029 0.0050013363 0.006907921
0000f0 94 80 a3 3b e0 10 7a 3b d4 6f ae 3b 03 8d 22 3c
       0.004989693 0.003815703 0.0053233895 0.009921315
000100 75 a0 ed 3b 46 6a dc 3b f0 60 29 3c 4f 3f a8 3b
       0.007251794 0.006726536 0.010338053 0.0051345
000110 0a 43 92 3b 0d 0e be 3b 21 ea 31 3b 8c 04 18 3b
       0.004463558 0.005800015 0.0027147608 0.002319607
000120 a2 1a 6e 3c 9f 6e 2e 3c 36 57 1e 3c eb d6 71 3c
       0.014532717 0.010646491 0.009664347 0.014760713
000130 3c f3 13 3c f5 bf d5 3b c6 6f 0f 3c 2e ea 9b 3b
       0.00903016 0.006523127 0.008754676 0.004758141
000140 c5 60 47 3b ac e7 88 bc b5 e4 c7 bc 20 53 23 bd
       0.003042267 -0.016712032 -0.024401048 -0.039874196
000150 ab 85 71 bc 7e 85 6a bc 7f 7a c3 bc 56 22 9c bc
       -0.014741342 -0.014314054 -0.023862122 -0.019059341
000160 e0 8a 68 bc 12 d6 6b bc 3f 31 33 bc ed eb 82 bc
       -0.014193267 -0.0143943 -0.010937034 -0.015981639
000170 70 c6 02 bd f4 95 65 bc 5c c6 27 bc 37 b9 8c bc
       -0.031927526 -0.014012802 -0.010240164 -0.017178161
000180 91 ad 99 bc 18 14 30 bc a0 1a cf bb 9f 95 0d bc
       -0.01875952 -0.010746978 -0.0063203126 -0.0086416295
000190 c2 41 60 bc 33 bf fd bc 1e 0d 62 bc cf 9d 29 bc
       -0.013687553 -0.03097496 -0.013797073 -0.010352566
0001a0 be 30 93 bc 2c 8d ab bc 37 92 54 bc 05 3e f3 bb
       -0.017967578 -0.02094134 -0.012974313 -0.007423165
0001b0 57 0c 39 bd 30 0f 22 bd f9 c4 12 bd 13 ae 5b bd
       -0.045177784 -0.039565265 -0.03583238 -0.053632807
0001c0 11 5d 4b bd d6 a3 27 bd ab 92 77 bd 9f 85 6e bd
       -0.049649302 -0.04092773 -0.060442608 -0.0582329
0001d0 01 34 35 bd e6 8f da bc 33 99 ef bc 19 44 f5 bc
       -0.044239048 -0.026679944 -0.029247856 -0.029939698
0001e0 53 20 08 bd bc ec 16 bd 59 c2 03 bd 1d 20 26 bd
       -0.03323395 -0.03684686 -0.032167766 -0.04055797
0001f0 27 97 36 bd 63 a3 0a bd 1d 2f 8e bc 81 f5 c7 bc
       -0.044577744 -0.033847224 -0.01735645 -0.024409058
000200 6b 03 cc bc 07 43 c7 bc 9b 1b e8 bc 81 74 bc bc
       -0.024903974 -0.024323953 -0.028333476 -0.023004772
000210 56 94 f2 bc 50 ea 08 bd f2 4c b0 bc 00 f0 22 3d
       -0.029611748 -0.033426583 -0.021521065 0.039779663
000220 73 49 3d 3d 5f f5 48 3d 40 af 2c 3d 4e 51 31 3d
       0.046212625 0.04906213 0.04215932 0.04329043
000230 59 fa 5a 3d 6b e4 42 3d a0 64 32 3d 3d a5 57 3d
       0.053461406 0.047581118 0.043552995 0.052647818
000240 a2 a6 16 3d e6 9a 23 3d 5b 4c 2c 3d 74 72 29 3d
       0.036780007 0.039942645 0.042065006 0.041368917
000250 db 6b 25 3d 8a 98 4b 3d 73 a4 3d 3d db 41 28 3d
       0.040386062 0.04970602 0.04629941 0.04107843
000260 72 93 48 3d ed 9c 37 3d d2 d8 38 3d 17 48 38 3d
       0.04896874 0.04482739 0.04512865 0.044990625
000270 39 74 4f 3d 29 d5 41 3d 23 b1 62 3d df 85 64 3d
       0.050647948 0.047322426 0.055344712 0.055791732
000280 1b f0 46 3d b2 eb 65 3d 35 77 05 bd b5 43 17 bd
       0.048568826 0.05613298 -0.032584388 -0.036929805
000290 09 92 fb bc 6c b8 b8 bc b1 07 00 bd 33 4e f3 bc
       -0.030709283 -0.022548877 -0.031257335 -0.029700374
0002a0 d8 d1 b5 bc 44 b1 c9 bc 9a 70 bc bc 35 27 ff bb
       -0.022194788 -0.02462066 -0.023002911 -0.0077866563
0002b0 dc d4 4b bc 17 a9 3d bc 1d ca 18 bb bd 29 04 bc
       -0.012440886 -0.011575959 -0.0023313828 -0.008066592
0002c0 74 00 0b bc 93 14 9f bb 7d 0c 83 bb 2d b9 e2 ba
       -0.008483995 -0.0048547476 -0.0039992915 -0.0017297618
0002d0 b6 39 73 bb 52 bb b7 bb e0 b2 19 bb e9 1f 88 b8
       -0.0037113256 -0.005607047 -0.0023452565 -6.490929e-05
0002e0 64 5b c8 ba 77 3a b9 39 ce bc 0f bb 0f 90 29 3b
       -0.0015286026 0.0003532951 -0.0021932605 0.002587322
0002f0 55 a0 d5 3b 57 55 2d 3c c1 86 bf 3b a5 f8 04 bc
       0.006519357 0.010579429 0.0058449213 -0.008115922
000300 5b 90 08 3c a2 8a ca 3b ec bd 53 bb 47 a6 ef b9
       0.008335198 0.006181077 -0.0032309247 -0.0004570952
000310 61 8d 40 3b a9 6a f9 3a 41 80 2d 3c 2a b6 11 3c
       0.0029381143 0.001902898 0.01058966 0.008893529
000320 50 09 7b bb ea a0 fe 3b cf a8 ad 3b e7 2b 0d 39
       -0.0038305111 0.0077706473 0.0052996646 0.00013463163
000330 8b f4 a5 ba 3a 95 9e b8 34 8d 9a ba 8c 51 c6 3b
       -0.001266138 -7.561823e-05 -0.0011791349 0.0060522016
000340 9f 62 7f 3b 4d ee 24 bc d3 06 4a 3b cc 25 0c ba
       0.0038968695 -0.010066581 0.0030826821 -0.00053462083
000350 04 e4 0a bc 52 d1 d8 bb b4 d5 e4 bb 04 22 23 bc
       -0.008477215 -0.00661675 -0.006983483 -0.00995684
000360 d4 3d 93 bc 5e 27 a2 bc 9b 05 a0 bc a9 36 39 bc
       -0.017973818 -0.019794162 -0.019533923 -0.011304536
000370 7b 09 4a bc 53 0f 05 bc 10 11 8d bc 0b 43 75 bc
       -0.012331362 -0.008121329 -0.01722005 -0.014969598
000380 a2 4d 24 bc 0b 5a 56 bc 8a 6d 35 bc 08 4c ca bb
       -0.010028275 -0.013082991 -0.011073479 -0.0061736144
000390 a1 0a 30 bc 2b 86 14 bc 3e 19 ba 39 d4 4e 9c bc
       -0.010744722 -0.009065191 0.00035495491 -0.019080557
0003a0 76 70 5e bc 99 9b 7b bb be 6c 5a bc 93 39 50 bc
       -0.013576617 -0.0038392304 -0.01333159 -0.012709039
0003b0 2e a3 08 bc e6 2a 81 bc d9 00 59 bc 56 6b 34 bb
       -0.008339686 -0.015767526 -0.013244831 -0.0027529798
0003c0 f9 98 d6 bc 36 6e a7 bc 83 56 1d bc a3 ae 6d 3b
       -0.02619599 -0.020438295 -0.0096031455 0.0036267422
0003d0 3d ad e4 3b 1d a1 5d 3b ec 67 77 3b 69 df dc 3b
       0.0069786594 0.0033817955 0.0037751151 0.0067404998
0003e0 7d 95 1a 3b d7 fe c0 3b c5 0c 2e 3b 7e ad 9c 3a
       0.0023587637 0.0058897543 0.0026557904 0.001195356
0003f0 9b 77 f6 3a c4 c5 9d 3b 10 06 cf 3a a8 0f d4 3a
       0.0018803956 0.0048148353 0.0015794653 0.0016178982

exp_avg_sq f4 [10, 3, 3, 3]
000000 f2 0e 95 3d 3b 2e 86 3d 96 ba 74 3d cf 70 a3 3d
       0.07278241 0.065517865 0.059748255 0.07980501
000010 66 17 93 3d 5f 8a 84 3d 48 f1 a5 3d 3d 5e 9a 3d
       0.07182197 0.06471705 0.08102661 0.07537506
000020 a6 af 8d 3d 9d c5 43 3d 69 f5 2c 3d 86 aa 1c 3d
       0.06918268 0.04779588 0.04222623 0.03824856
000030 2d d6 57 3d f1 0c 3f 3d ef 0b 2a 3d 1c 6d 5c 3d
       0.05269449 0.0466432 0.041515287 0.053814992
000040 6f d8 4a 3d 11 fe 37 3d 2a 48 23 3d 6a 6f 0f 3d
       0.049522813 0.04492003 0.039863743 0.035018362
000050 a8 45 01 3d a5 66 34 3d 56 c8 1e 3d 07 63 0c 3d
       0.03156057 0.044043202 0.038765274 0.034274127
000060 83 cb 38 3d f7 62 29 3d 81 d0 18 3d c9 c7 fd 3c
       0.04511596 0.041354146 0.03730822 0.030979054
000070 a9 b1 07 3d 81 5b 20 3d 6c 6e 05 3d 91 03 f7 3c
       0.033128414 0.039149765 0.03257601 0.030153068
000080 a6 fb 09 3d f4 81 e4 3c e1 9a d8 3c 85 15 f1 3c
       0.033687256 0.027893998 0.02644104 0.029429207
000090 03 08 c1 3c 96 73 ce 3c 53 9b f6 3c 59 60 c6 3c
       0.02356339 0.0252016 0.030103361 0.024215864
0000a0 0f 40 b4 3c 95 ef cd 3c 17 22 a3 3c 21 44 98 3c
       0.022003202 0.025138656 0.019913716 0.018587174
0000b0 96 a5 ae 3c 5b 4c a9 3c 93 a6 b4 3c 4f 8d d8 3c
       0.021319192 0.020666292 0.022052085 0.026434569
0000c0 74 83 ab 3c fe 0a 9a 3c 10 fa b0 3c f8 bf 8a 3c
       0.020936705 0.01880407 0.021603614 0.016937241
0000d0 ca 6f 80 3c 44 be 94 3c 7f c0 d7 3c aa 03 d6 3c
       0.015678305 0.018157132 0.026336906 0.026124794
0000e0 f7 f3 c7 3c f5 ff c7 3c 0f ff bd 3c 72 da b4 3c
       0.024408324 0.024414042 0.02319291 0.02207682
0000f0 ea 9a ae 3c cb ec a7 3c af bc a9 3c 25 10 97 3c
       0.021314103 0.020498654 0.020719854 0.018440315
000100 56 18 94 3c ac bb 88 3c 02 4e 89 3c af 05 7f 3c
       0.01807801 0.016691051 0.01676083 0.01556532
000110 5f 82 6e 3c c6 b7 69 3c d3 dd 5b 3c 67 09 5d 3c
       0.01455745 0.014265006 0.013419586 0.013491011
000120 ed 7b 83 3c 9d e9 80 3c c5 7c 6d 3c 22 63 6e 3c
       0.016050303 0.015736395 0.014495079 0.014550002
000130 a5 7a 5c 3c 40 36 4d 3c 94 2c 4a 3c 07 5e 3d 3c
       0.013456975 0.012525141 0.01233973 0.011558062
000140 26 46 3e 3c 95 b8 49 3d f8 d5 50 3d 5a c8 55 3d
       0.011613404 0.049248297 0.050985307 0.052193023
000150 44 4d 5f 3d 2f 5a 63 3d b0 21 60 3d aa 68 82 3d
       0.054517046 0.055505928 0.054719627 0.06367619
000160 5e cd 76 3d 0a 1b 50 3d e3 b0 d5 3c 89 08 dc 3c
       0.060254447 0.050807036 0.026085323 0.026859539
000170 b9 35 f0 3c 6e a9 f1 3c ce 6f f3 3c 14 98 fd 3c
       0.029322492 0.029499736 0.029716399 0.030956306
000180 d9 ce 18 3d ac c1 0c 3d b7 0a eb 3c 7d e4 a1 3c
       0.03730664 0.034364387 0.028691633 0.019762272
000190 38 2b a6 3c a2 a3 bc 3c 57 d8 b9 3c 4b 40 ba 3c
       0.02028428 0.023027245 0.022686167 0.022735735
0001a0 c2 0f c8 3c 4b bb f3 3c 1e d6 de 3c af 96 ba 3c
       0.024421576 0.029752394 0.027201708 0.02277693
0001b0 56 a2 fe 3d 1a 31 de 3d de 08 cb 3d 6c 11 16 3e
       0.12433307 0.10849209 0.09913801 0.14655083
0001c0 b2 ba 08 3e d8 78 ee 3d 57 4d 1c 3e 12 26 16 3e
       0.13352469 0.11644143 0.15263878 0.1466296
0001d0 4f 8a 05 3e 29 15 a3 3d 5d 99 88 3d a7 1e 76 3d
       0.13041042 0.0796302 0.06669877 0.060087826
0001e0 d7 a9 c5 3d ca a9 ae 3d 7e 51 94 3d b1 26 ce 3d
       0.09651535 0.085284784 0.07242106 0.100659736
0001f0 c4 58 c2 3d 26 ef a8 3d 96 31 8c 3d ce 72 6a 3d
       0.09489587 0.08248739 0.06845395 0.057238393
000200 97 5d 53 3d 81 c5 ab 3d c3 5c 97 3d 70 b4 7f 3d
       0.051602926 0.0838728 0.0739074 0.062427938
000210 c8 92 b3 3d 23 8f a9 3d 0d 69 92 3d 7c ad d9 3d
       0.08768231 0.08279254 0.07148943 0.10628793
000220 8a e0 e3 3d 11 5f fa 3d e7 24 fa 3d 2c fb 07 3e
       0.11126812 0.12225164 0.1221407 0.13279408
000230 b9 0a 11 3e 66 ae 0d 3e 70 2a 17 3e ee b3 15 3e
       0.14164247 0.13836059 0.14762282 0.14619419
000240 a9 91 8e 3d 8b 19 97 3d 5b a0 ab 3d 73 da a5 3d
       0.06961376 0.07377919 0.08380195 0.080983065
000250 d0 5b b8 3d 75 77 ca 3d 24 30 c0 3d 09 83 d0 3d
       0.09001887 0.09886066 0.09384182 0.10181243
000260 e2 71 d0 3d a3 9a 74 3d 59 53 82 3d 5e 82 95 3d
       0.101779714 0.059717786 0.063635536 0.07300256
000270 11 e1 8e 3d db 24 a0 3d 48 31 b1 3d 60 4a a6 3d
       0.06976522 0.078195296 0.08651978 0.08119655
000280 45 96 b5 3d ed 0a b6 3d 6f 8b 0b 3d 75 3c 29 3d
       0.08866552 0.08888803 0.03406852 0.041317422
000290 5f 62 4a 3d 63 76 08 3d d0 ab 2f 3d bf fb 4d 3d
       0.04941022 0.033316027 0.042888463 0.050288912
0002a0 ae 4d 0f 3d 19 b1 26 3d 31 13 39 3d b7 63 bb 3c
       0.03498619 0.040696237 0.045184318 0.022874696
0002b0 90 88 e6 3c a3 e9 0e 3d 3d 4b b8 3c f7 4a f0 3c
       0.02814129 0.034890782 0.022496814 0.029332621
0002c0 14 53 10 3d 60 f4 c3 3c d0 73 e3 3c a9 9e fe 3c
       0.03523548 0.023920238 0.027765185 0.031081514
0002d0 df 0d 9e 3c 83 38 c4 3c 3f 80 f5 3c a0 c0 9b 3c
       0.019293724 0.023952728 0.029968379 0.01901275
0002e0 f5 60 cd 3c 1f 1a f8 3c 68 41 a8 3c 5d 9e c3 3c
       0.025070647 0.030285893 0.020539 0.023879224
0002f0 f4 d2 da 3c a2 e5 95 3d 1c af 88 3d 05 fd 97 3d
       0.026711918 0.073191896 0.066740245 0.074213065
000300 20 d2 9f 3d 72 5d 92 3d 99 00 a0 3d 9a 0c a2 3d
       0.0780375 0.071467295 0.07812614 0.0791256
000310 d9 19 97 3d 37 07 9f 3d c9 9b 4e 3d e8 08 3a 3d
       0.07377977 0.07765048 0.050441537 0.04541865
000320 03 11 54 3d d0 84 5f 3d 53 a1 4a 3d a5 7e 62 3d
       0.051774036 0.05457002 0.049470257 0.05529656
000330 f5 50 65 3d 91 9c 54 3d e4 9c 63 3d 6d a0 39 3d
       0.05598541 0.051907126 0.055569544 0.04531901
000340 89 ce 26 3d 20 04 3f 3d db 9c 4a 3d 4a 96 37 3d
       0.04072431 0.046634793 0.049465995 0.04482106
000350 83 e1 4d 3d 8e 80 51 3d 36 b9 41 3d 2c 9e 4f 3d
       0.050263893 0.05114799 0.04729577 0.050687954
000360 ee 0f c7 3c 7d 74 b4 3c 65 da f9 3c 80 c5 f5 3c
       0.024299588 0.022028202 0.030499646 0.030001402
000370 ab e3 03 3d db 6b 0e 3d ae 25 2e 3d 1e 0a 2f 3d
       0.032199543 0.034770828 0.042516403 0.042734258
000380 b1 bc 1f 3d 6b ee 2c 3c 24 82 07 3c 36 b1 61 3c
       0.03899831 0.01055489 0.008270774 0.013775161
000390 5e d4 6d 3c 41 6c 86 3c a2 c4 94 3c 51 01 ca 3c
       0.014515964 0.016409041 0.018160168 0.02465883
0003a0 c8 be d5 3c 4a dc bb 3c aa 67 4d 3c 9b 0b 2c 3c
       0.026091948 0.02293219 0.0125369225 0.010500814
0003b0 76 1f 82 3c 9d 70 86 3c e9 a0 9a 3c 0b c4 a8 3c
       0.015884142 0.01641112 0.018875556 0.020601293
0003c0 29 34 d1 3c 43 b9 e3 3c f5 28 cc 3c 45 02 ad 3c
       0.025537567 0.0277983 0.024921874 0.021119246
0003d0 f6 f3 c0 3c 98 e4 be 3c b4 ab cd 3c 80 d5 cd 3c
       0.02355383 0.023302361 0.025106288 0.025126219
0003e0 a0 b7 c6 3c c1 34 cf 3c 0d c0 cb 3c d8 85 c5 3c
       0.024257481 0.02529371 0.02487185 0.024111673
0003f0 50 37 80 3c a8 a0 8f 3c dc 82 8d 3c 85 c1 98 3c
       0.015651375 0.017532662 0.017274313 0.018646965

exp_avg f4 [10]
000000 41 94 27 3e eb 2e 7b bc 1a 85 77 3c 8e 7d 28 3b
       0.16365148 -0.01533101 0.0151074175 0.0025709602
000010 5b bd 45 be 81 50 17 3e 3d 40 78 3a dd 80 43 bc
       -0.19310515 0.14776804 0.00094700215 -0.011932579
000020 6d 8f 80 bd 20 91 0a bb
       -0.06277356 -0.002114363
