Pytorch face detection - Test/MTCNN_models/pnet_5.pt (torch, 30963 bytes, 12 tensors)

conv1.weight f4 [10, 3, 3, 3]
0	0x3d9366e5	0.0719736
1	0x3deb1e8b	0.11480435
2	0xbe54dc0d	-0.20787068
3	0x3d99d94c	0.07512149
4	0x3d7382d1	0.059450928
5	0xbe31edd2	-0.17375877
6	0xbe1d45de	-0.15358683
7	0xbbef32dc	-0.007299764
8	0xbca91207	-0.020638479
9	0x3df7bf35	0.12097017
10	0x3cc7f972	0.024410937
11	0x3c812864	0.01576633
12	0x3e11ee2b	0.1425101
13	0xbdfcfdae	-0.12353073
14	0x3d9b1848	0.07572991
15	0xbe3a3375	-0.18183692
16	0x3d59fcfc	0.05321978
17	0x3e07ae64	0.13250118
18	0x3d91ee38	0.07125515
19	0xbd24b679	-0.040213082
20	0xbe375132	-0.17902067
21	0x3d50d348	0.050982744
22	0x3d864351	0.06555808
23	0xbe0b314d	-0.13593026
24	0x3c4212d6	0.011845311
25	0xbe5aa75d	-0.21352907
26	0x3dea261d	0.11433051
27	0x3ea84ab2	0.32869488
28	0x3e886505	0.26639572
29	0x3e368ee0	0.1782794
30	0x3ec0a292	0.3762403
31	0x3e715d57	0.23570763
32	0x3cef87b7	0.029239519
33	0xbe7dbafc	-0.2477836
34	0xbe8e98e0	-0.2785101
35	0xbdab82f8	-0.0837459
36	0xbd330efe	-0.04371547
37	0x3e66fb4a	0.22556797
38	0x3d8fbf89	0.07018954
39	0x3e3d4c82	0.18486217
40	0xbdcfdc3d	-0.10149429
41	0xbd2c974e	-0.042136483
42	0xbdc1517f	-0.09439372
43	0xbeb98bcc	-0.3623947
44	0xbd8801fc	-0.066410035
45	0x3dedc3ca	0.116096094
46	0xbd9c1dd2	-0.07622875
47	0xbe0296d1	-0.12752844
48	0x3df33fe6	0.11877422
49	0x3e1ab2a7	0.15107213
50	0x3de6e984	0.11275008
51	0xbe03778d	-0.12838574
52	0xbdfa8b72	-0.12233628
53	0xbea2093c	-0.3164767
54	0xbea34d02	-0.3189469
55	0xbb505953	-0.0031791523
56	0xbda0e0fc	-0.07855412
57	0xbe575f37	-0.21032415
58	0x3c044093	0.008072036
59	0x3d840d7d	0.06447885
60	0xbde22669	-0.110424824
61	0xbdc5b82b	-0.09654268
62	0xbcfddefd	-0.030990118
63	0xbd9efbcb	-0.077628694
64	0x3d7241f9	0.059144948
65	0xbbafd0a2	-0.005365447
66	0x3e46b506	0.19404992
67	0x3d2b2282	0.041780956
68	0x3c051aef	0.008124097
69	0x3db5f4ae	0.088845596
70	0x3d004ae8	0.031321436
71	0x3d404350	0.046939194
72	0x3d97f3bb	0.07419535
73	0xbdd2e4f0	-0.102975726
74	0x3d96470e	0.07337771
75	0xbd185c79	-0.037197564
76	0xbdfd68e2	-0.123735204
77	0xbcea1813	-0.028575933
78	0x3d50e824	0.051002637
79	0x3c544cd8	0.012957774
80	0xbd46c41c	-0.04852687
81	0x3eaedb86	0.34151858
82	0x3e562349	0.20911898
83	0xbe6305e5	-0.22170217
84	0x3e51aea5	0.20476778
85	0x3e1ce758	0.15322626
86	0xbc48b4a1	-0.012250097
87	0x3d2b456e	0.04181426
88	0x3dbabfd2	0.09118618
89	0x3e3d60b1	0.18493916
90	0x3d8ba361	0.068182714
91	0xbc195f14	-0.009361047
92	0xbecbe485	-0.39822784
93	0x3c54659a	0.012963677
94	0x3e5f2c07	0.21794139
95	0xbe859eee	-0.26097816
96	0xbe023b32	-0.12717894
97	0x3e04e497	0.12977825
98	0xbde4044c	-0.11133632
99	0xbac007c4	-0.0014650752
100	0xbe27dc01	-0.16392519
101	0xbe7512d3	-0.23932962
102	0xbdcfdf44	-0.101500064
103	0x3e5e43df	0.21705578
104	0xbcca5e7b	-0.024703255
105	0xbe195927	-0.14975415
106	0xbb8dd3be	-0.00432822
107	0x3a872047	0.0010309302
108	0x3de6cc78	0.11269468
109	0xbe4773e2	-0.194778
110	0xbe02c359	-0.12769832
111	0x3d97fdbb	0.07421442
112	0xbdc5f720	-0.09666276
113	0xbdc5ce43	-0.09658482
114	0x3d52b112	0.0514384
115	0x3db76b6d	0.08956037
116	0xbe505ced	-0.20347948
117	0x3e66b235	0.22528918
118	0x3e5cbcc8	0.2155639
119	0x3e29b580	0.16573143
120	0x3e4be2d1	0.19910742
121	0x3d1a1e61	0.037626628
122	0xbc74d521	-0.014943392
123	0xbc9920e5	-0.018692443
124	0xbddf2804	-0.10896304
125	0x3e3254ea	0.17415205
126	0xbe793e02	-0.2434006
127	0x3c86979a	0.016429711
128	0xbce3f13b	-0.027824989
129	0xbe61482f	-0.22000192
130	0xbd949c2e	-0.072563514
131	0x3e67d2b7	0.22638975
132	0xbd339498	-0.043842882
133	0x3e27a704	0.16372305
134	0xbc29fb8e	-0.010374917
135	0x3cbff2e9	0.023431258
136	0xbcfce2c2	-0.030869845
137	0x3ca74884	0.02042032
138	0x3cbaf2c1	0.022820832
139	0x3e1b4dae	0.15166351
140	0x3e963680	0.29338455
141	0x3deef3f9	0.11667628
142	0x3dc6ffd7	0.09716766
143	0xbc1bc6ad	-0.009507817
144	0xbc1cc535	-0.009568502
145	0x3e3d6aad	0.18497725
146	0xbe4d8976	-0.20071968
147	0xbe40a009	-0.18811049
148	0xbdab3f4a	-0.08361681
149	0xbee250d9	-0.44202307
150	0x3da6dbb1	0.081473716
151	0x3c77119c	0.015079882
152	0xbe6bccc0	-0.23027325
153	0x3e210fad	0.15728636
154	0x3e373d04	0.1789437
155	0xbe3185a7	-0.1733614
156	0x3e385324	0.18000466
157	0xbd7cb342	-0.06169439
158	0xbd22645c	-0.03964649
159	0xbca2885a	-0.019840408
160	0xbc694830	-0.014238402
161	0xbd965273	-0.07339945
162	0x3d1725f4	0.03690143
163	0x3db713a1	0.08939291
164	0xbda0de8a	-0.07854946
165	0x3d6f9f29	0.058501396
166	0x3c5fbfa5	0.013656531
167	0x3e1e1a1b	0.15439646
168	0x3d5ee004	0.054412857
169	0x3e41ca79	0.18924893
170	0x3d0e415f	0.03473031
171	0xbe171b64	-0.14756542
172	0x3de96d52	0.11397804
173	0x3d62c923	0.0553676
174	0x3dcf9db7	0.101375036
175	0x3d0c6e65	0.034284968
176	0xbe3f7eb8	-0.18700683
177	0xbe3557bd	-0.17709251
178	0xbddff767	-0.1093586
179	0x3d8b453c	0.06800315
180	0x3d776989	0.06040338
181	0x3e448035	0.19189532
182	0x3e2c71a6	0.16840228
183	0x3b4b1cc8	0.0030992497
184	0x3e4799a1	0.19492199
185	0x3e39c62f	0.18142007
186	0x3e331b96	0.17490992
187	0xbdbebdd9	-0.09313554
188	0xbd3aaee0	-0.04557693
189	0x3cd0922d	0.025460327
190	0x3d6ed2a4	0.05830635
191	0x3d378b1e	0.044810407
192	0x3d7e464b	0.062078755
193	0xbdb49809	-0.08818061
194	0xbe0f7fcb	-0.14013593
195	0xbe76de4b	-0.24108236
196	0xbd96580d	-0.07341013
197	0x3db30e9a	0.087430194
198	0x3e30ae9f	0.17254113
199	0x3ca1d561	0.019755067
200	0x3a8eb46b	0.0010887509
201	0xbdbd5fca	-0.09246786
202	0xbe39b0c4	-0.18133837
203	0x3d16782d	0.036735702
204	0x3e530e42	0.20610908
205	0x3e873b48	0.26412416
206	0xbc231c42	-0.009955468
207	0x3e6ffeee	0.23437092
208	0xbe2cabd2	-0.16862419
209	0xbbc1779e	-0.005904152
210	0x3db5a872	0.08870019
211	0xbcc14bdf	-0.023595748
212	0xbe0b2c05	-0.13591011
213	0x3e58b579	0.21162976
214	0x3e5eaf46	0.21746549
215	0x3d5eb8ff	0.054375645
216	0x3e6de6b6	0.2323254
217	0x3df892a3	0.12137344
218	0x3e0018b1	0.12509419
219	0xbe7f96de	-0.24959895
220	0xbe38e962	-0.18057778
221	0xbc20c6ba	-0.009813005
222	0xbcda6215	-0.026658097
223	0xbc3b377e	-0.011426805
224	0xbd18e898	-0.037331194
225	0x3dcd5379	0.10025687
226	0x3e2753b8	0.1634053
227	0x3dba2d72	0.09090699
228	0xbe0e43ca	-0.13893047
229	0xbe1f770f	-0.15572761
230	0x3bd460fc	0.006481288
231	0xbdeaf9b2	-0.11473407
232	0x3d9f1065	0.07766799
233	0x3c546a47	0.012964792
234	0x3e03dc97	0.12877117
235	0x3dcc61d1	0.099795945
236	0x3e0d630c	0.13807315
237	0xbe1bd9e7	-0.15219842
238	0xbe017fa1	-0.12646343
239	0xbdd0a173	-0.10187044
240	0xbd6fc083	-0.058533203
241	0xbe0241c8	-0.12720406
242	0x3e6fb230	0.23407817
243	0xbe973761	-0.29534438
244	0x3e7db855	0.24777348
245	0x3df93571	0.12168396
246	0xbe8b2158	-0.27173877
247	0x3eb49918	0.3527305
248	0xbe5e2229	-0.21692719
249	0xbe15d6af	-0.14632677
250	0x3df57cb9	0.119866796
251	0xbd2fe0f6	-0.04293915
252	0xbd8c4c85	-0.068505324
253	0x3e80a7dd	0.2512807
254	0x3e09aa5d	0.13443895
255	0xbe1105e0	-0.14162397

conv1.bias f4 [10]
0	0x3e5209c1	0.20511533
1	0x3da77b65	0.081778325
2	0x3efacb69	0.48983315
3	0x3d84ab7a	0.06478019
4	0xbc9bad78	-0.019003615
5	0x39ba9983	0.0003559106
6	0xbd5b02e2	-0.053469546
7	0x3e4b98df	0.19882534
8	0xbbb18bf3	-0.0054182946
9	0xbcabf9d6	-0.020993154

conv2.weight f4 [16, 10, 3, 3]
0	0x3d7f0ee7	0.06227007
1	0x3d8f0cd6	0.0698487
2	0x3d06f1e2	0.03294552
3	0xbcdd6bfa	-0.027029026
4	0xbdb6bfc2	-0.08923294
5	0x3e01fc3d	0.12693878
6	0x3dbb9758	0.09159726
7	0x3dfbc9cc	0.12294349
8	0x3e1c9e4e	0.15294763
9	0x3cec63ab	0.02885612
10	0x3d6cd3f5	0.057819325
11	0xbb0ba782	-0.002130956
12	0xbe105153	-0.14093523
13	0xbdaf8181	-0.08569623
14	0xbaada3f7	-0.0013247718
15	0xbd6e9f59	-0.058257435
16	0x3d407e7e	0.046995632
17	0xbd004a6f	-0.031320985
18	0x3ca2a894	0.019855775
19	0xbe6715ac	-0.22566861
20	0xbd8224ac	-0.06354651
21	0x3e364518	0.17799795
22	0xbd48d0f0	-0.049027383
23	0xbd9c9c1f	-0.07646965
24	0x3efcdff1	0.49389604
25	0x3da4696a	0.08027919
26	0x3d960389	0.07324893
27	0x3d39a055	0.04531892
28	0x3ca05447	0.019571437
29	0xbe0ebd54	-0.1393941
30	0x3d01989c	0.03163968
31	0x3cb49693	0.022044456
32	0xbe0fae49	-0.14031328
33	0x3d297d45	0.041379232
34	0xbcc73c0f	-0.02432063
35	0xbd0f829a	-0.03503666
36	0x3e355843	0.1770945
37	0x3ca7801b	0.020446828
38	0xbda4f8d3	-0.08055272
39	0x3e815bad	0.25265256
40	0x3d9aa48d	0.07550917
41	0x3db8d6e3	0.090253614
42	0x3d9afa2a	0.07567246
43	0x3b8b17dd	0.004244788
44	0xbd48b7d8	-0.049003452
45	0xbc37fd9c	-0.011229899
46	0xbd375ef6	-0.044768296
47	0x3d6ee669	0.058325205
48	0x3b904994	0.0044033024
49	0x3c521b1a	0.012823844
50	0x3dd01431	0.10160101
51	0xbd5a0a6b	-0.05323259
52	0x3d8a7f9b	0.0676262
53	0xbe17b15f	-0.14813755
54	0x3d1591c7	0.036515977
55	0x3d88c80c	0.06678781
56	0xbda398e7	-0.07988148
57	0xbe0238d8	-0.12716997
58	0xbd376e31	-0.04478282
59	0xbdc51741	-0.09623576
60	0xbdc603e4	-0.09668711
61	0xbd4ed7cc	-0.05049877
62	0x3c42c426	0.011887586
63	0x3e68a3b9	0.22718705
64	0x3d6b8ab0	0.05750531
65	0x3e0fae02	0.14031222
66	0x3e7bb012	0.24578884
67	0x3e0455c7	0.12923346
68	0x3dc86bfd	0.09786222
69	0x3e98c13e	0.29834932
70	0x3dc40ab3	0.09572353
71	0x3d35366f	0.044241365
72	0xbe99fba5	-0.30074802
73	0xbe26738c	-0.16255015
74	0x3db7e306	0.08978848
75	0xbddbaa33	-0.10725822
76	0xbd434bc3	-0.047679674
77	0x3d59919c	0.05311738
78	0x3daba5aa	0.08381207
79	0x3c8ccd3b	0.017187705
80	0x3d5a00b2	0.05322332
81	0x3e02865f	0.12746571
82	0x3e0cf883	0.13766675
83	0x3db7a5bf	0.089671604
84	0x3d012cc6	0.03153684
85	0x3d8d59d7	0.06901901
86	0x3dd9e088	0.10638529
87	0x3d50e972	0.05100388
88	0x3d8aa7c6	0.067702815
89	0x3d571836	0.052513324
90	0x3dfea78d	0.124343015
91	0xbe432a8a	-0.19059196
92	0xbe73f7f5	-0.23825057
93	0x3d0483fc	0.032352433
94	0xbe21128d	-0.15729733
95	0xbe9c3e1b	-0.30516133
96	0xbbfa4632	-0.0076377625
97	0xbe1e3846	-0.15451154
98	0xbead1b6f	-0.33809993
99	0xbd76dc5f	-0.060268756
100	0xbca88b4f	-0.02057424
101	0x3e49b152	0.19696549
102	0xbd1f76ee	-0.03893178
103	0x3d936bee	0.0719832
104	0xbd3884f1	-0.045048658
105	0x3e1e87e3	0.15481524
106	0xbd11292f	-0.035439666
107	0x3e1ccc10	0.15312219
108	0x3ea1c030	0.3159194
109	0x3bd49c9c	0.006488396
110	0xbe24b88b	-0.16086023
111	0x3e908bdf	0.28231713
112	0x3d41ce5d	0.047315944
113	0x3c953854	0.018215336
114	0x3e5c9965	0.2154289
115	0x3dada6dc	0.084790915
116	0x3cdbba79	0.026822316
117	0xbe066e55	-0.13128026
118	0xbb8e215b	-0.0043374724
119	0xbcec2f96	-0.028831284
120	0x3dadcad5	0.08485953
121	0x3e00adde	0.12566325
122	0x3daf8f82	0.08572294
123	0x3e6e9ef5	0.23302825
124	0x3e28bb47	0.1647769
125	0x3dea0496	0.11426656
126	0x3c9c38fb	0.01907014
127	0xbe11c656	-0.14235815
128	0xbeac0de4	-0.33604348
129	0xbcb4e929	-0.022083836
130	0xbe33ec10	-0.1757052
131	0xbee5c7c5	-0.44878975
132	0xbe19205c	-0.1495375
133	0xbe7785bc	-0.2417211
134	0xbeacd5b5	-0.33756796
135	0xbe098da1	-0.13432933
136	0xbdf43b49	-0.1192537
137	0xbebe3f08	-0.37157464
138	0xbdc29604	-0.095012695
139	0xbe77ee64	-0.24212033
140	0xbea29e84	-0.31761563
141	0xbd0e8886	-0.034798168
142	0xbc75fc30	-0.0150137395
143	0xbdb3728b	-0.08762082
144	0xbdc4fa9a	-0.09618111
145	0xbd34b70d	-0.044119883
146	0xbc608690	-0.013703957
147	0xbd419551	-0.04726154
148	0xbd075d77	-0.03304812
149	0xbdca21f7	-0.098697595
150	0x3d16a8d4	0.0367821
151	0xbcb4970b	-0.02204468
152	0xbda53833	-0.0806736
153	0x3dd56d9a	0.104212955
154	0x3e2fdc02	0.1717377
155	0x3ddc6e15	0.10763184
156	0x3da22dae	0.07918869
157	0xbd1464df	-0.03622901
158	0x3d45bb9e	0.04827463
159	0x3d9cd326	0.07657461
160	0x3c98677d	0.018604035
161	0x3d062ccf	0.032757577
162	0xbe455046	-0.19268903
163	0xbdc44ea0	-0.09585309
164	0x3d9e2cc6	0.077233836
165	0xbe2bc4ed	-0.1677434
166	0xbd935f3b	-0.07195898
167	0x3d1d35eb	0.0383815
168	0x3dddb602	0.10825731
169	0xbdc2e02c	-0.09515414
170	0xbda5a9a5	-0.08088998
171	0x3dd34f09	0.10317809
172	0x3d2ab9cc	0.041681096
173	0x3da68b57	0.08132046
174	0xbda76cc0	-0.08175039
175	0x3d431b5a	0.047633506
176	0x3d283fc7	0.041076448
177	0x3dbf93a2	0.093543306
178	0xbd99bbec	-0.075065464
179	0xbe332ea9	-0.17498268
180	0x3e3e6c18	0.18595922
181	0x3cc5d8a3	0.024151152
182	0x3e542508	0.20717251
183	0xbdca4924	-0.09877232
184	0xbd28beb6	-0.0411975
185	0x3dab96e4	0.083783895
186	0xbdf4a2a7	-0.11945086
187	0xbe48ddcf	-0.19615863
188	0xbdeb4a71	-0.11488808
189	0xbc11148a	-0.008854995
190	0x3d786803	0.06064607
191	0xbd7333c8	-0.059375554
192	0x3deb83bd	0.114997365
193	0x3e07df2b	0.13268726
194	0x3dcc093f	0.09962701
195	0x3d5c7c06	0.053829215
196	0x3d7d4a00	0.06183815
197	0x3dd550d0	0.104158044
198	0x3f065b4b	0.5248305
199	0x3ea2e361	0.318141
200	0x3f0fb801	0.5614014
201	0x3d9ffe0d	0.07812128
202	0xbdbb56d6	-0.09147422
203	0xbd6e0b14	-0.058116034
204	0xbddb1f6a	-0.10699351
205	0xbe83fc40	-0.2577839
206	0xbe0a982a	-0.13534608
207	0xbebdc1ed	-0.37062016
208	0xbe5d8fb3	-0.21636848
209	0xbd3b9225	-0.04579367
210	0x3d725e77	0.05917212
211	0x3d31de0b	0.043424647
212	0xbd45cbaa	-0.048289932
213	0x3dd0ed91	0.10201562
214	0x3d673c1e	0.056453817
215	0x3de5a87a	0.11213775
216	0x3defa708	0.117017806
217	0x3ce2909c	0.027656846
218	0x3e43be40	0.19115543
219	0xbd2d63b6	-0.04233142
220	0xbe7cdfe1	-0.24694778
221	0xbe4ae5f7	-0.19814287
222	0xbde83db6	-0.113398954
223	0xbe9451fb	-0.28968796
224	0xbd86f778	-0.0659017
225	0xbdc3e55a	-0.0956523
226	0xbe9b2d82	-0.30308157
227	0xbd98878b	-0.07447728
228	0xbd014bf4	-0.031566575
229	0x3d1b31ba	0.03788922
230	0x3d2979fe	0.041376106
231	0xbba25088	-0.0049534477
232	0x3e246244	0.1605311
233	0xbb050fe7	-0.0020303668
234	0xbbec9de9	-0.007220973
235	0x3b215ba1	0.0024621265
236	0xbdbb921f	-0.0915873
237	0x3cb0f864	0.021602817
238	0x3cec0147	0.028809203
239	0xbce68a3f	-0.028142093
240	0x3c9f8362	0.019471828
241	0x3df54ff6	0.11978142
242	0x3dc8699c	0.097857684
243	0xbd0795ad	-0.033101726
244	0xbd958c34	-0.07302132
245	0xbdad5bbe	-0.08464764
246	0x3d8e7cfc	0.06957433
247	0xbc7dd1ea	-0.015491942
248	0xbc38908f	-0.011264934
249	0xbcae7255	-0.021294752
250	0xbcf68e19	-0.030097054
251	0xbb9861fd	-0.004650353
252	0x3da31738	0.07963413
253	0x3e995b35	0.29952398
254	0x3e1ea23c	0.15491575
255	0xbd720a04	-0.059091583

conv2.bias f4 [16]
0	0xbaa210c6	-0.0012364618
1	0x3e6d58d0	0.2317841
2	0xbe1abee1	-0.15111877
3	0xbdb2e8c0	-0.087358
4	0x3e3a689a	0.18203965
5	0xbd51afe1	-0.05119312
6	0xbca09dd1	-0.019606503
7	0x3ce03e95	0.027373591
8	0x3e0ee71a	0.13955346
9	0x3e020f30	0.12701106
10	0x3e63d906	0.22250757
11	0xbd8a10c4	-0.06741479
12	0xbd390800	-0.045173645
13	0xbe65e510	-0.22450662
14	0xbd7b0587	-0.06128457
15	0xbe2fbe2d	-0.1716239

conv3.weight f4 [32, 16, 3, 3]
0	0x3c9cd364	0.019143768
1	0x3d909ee7	0.07061558
2	0x3d097ec2	0.03356815
3	0x3cea741d	0.02861982
4	0x3d1b6f35	0.037947852
5	0x3e26aa76	0.16275963
6	0x3d84bf5a	0.0648181
7	0x3d8d546e	0.06900869
8	0x3e15c5f4	0.14626294
9	0xbe12074f	-0.142606
10	0xbec48220	-0.38380527
11	0xbeac3375	-0.3363301
12	0xbeae7b1e	-0.34078306
13	0xbe04e959	-0.1297964
14	0xbe0982b7	-0.1342877
15	0xbe71d934	-0.23618013
16	0xbe8c31f4	-0.2738186
17	0xbe2cd52e	-0.16878197
18	0xbcd83379	-0.026391732
19	0xbc2a4310	-0.0103919655
20	0x3d01bbec	0.031673357
21	0xbddc290d	-0.10750017
22	0xbdc93b62	-0.098257795
23	0xbd72b32d	-0.059252907
24	0xbcc537c5	-0.024074445
25	0xbe102f46	-0.14080533
26	0x3c5b8493	0.013398307
27	0xbcc96678	-0.024584994
28	0xbd17033e	-0.036868326
29	0xbe1e9865	-0.15487821
30	0xbdb9cd64	-0.09072378
31	0xbe0b5795	-0.13607629
32	0xbe03abc7	-0.12858497
33	0xbe0ba7a3	-0.13638167
34	0xbe8ca404	-0.27468884
35	0xbded5dd3	-0.11590161
36	0xbdd05e1f	-0.10174202
37	0xbdab61e8	-0.083682835
38	0xbd5b49a5	-0.05353703
39	0x3cd4e914	0.025990047
40	0x3d8eb06a	0.06967242
41	0x3dbf5cfe	0.09343909
42	0xbc3320a0	-0.010933071
43	0x3d9ca38b	0.07648381
44	0x3da69936	0.081346914
45	0xbdc203e1	-0.09473396
46	0x3dd4c12a	0.103884056
47	0x3d2a7396	0.041614138
48	0xbd185ab4	-0.037195876
49	0x3dc3a153	0.095522545
50	0x3c6c3128	0.014416017
51	0x3d316420	0.043308377
52	0x3dbdc329	0.092657395
53	0x3da859b6	0.08220236
54	0xbf025572	-0.5091163
55	0xbea132a9	-0.31483963
56	0xbe90a55a	-0.28251153
57	0xbe0d3f74	-0.13793737
58	0xbe0648ae	-0.13113663
59	0xbe016c7b	-0.12639038
60	0xbe3a4ab4	-0.1819256
61	0x3d86ac43	0.06575825
62	0xbd7eaa3a	-0.06217406
63	0xbe5ccc28	-0.21562254
64	0x3e6f8f88	0.23394597
65	0x3e01b812	0.12667874
66	0x3da7fd80	0.08202648
67	0x3e1ed0c1	0.15509321
68	0x3d58fd1f	0.05297577
69	0x3e6ba4f6	0.23012146
70	0x3d6ff3f5	0.058582265
71	0x3e1ec206	0.15503702
72	0x3de2fe70	0.11083686
73	0x3c2d538a	0.010578999
74	0x3e354c10	0.17704797
75	0x3dda9d1c	0.106744975
76	0x3e0460f3	0.12927608
77	0x3e890d69	0.26768044
78	0x3ddadf26	0.106870934
79	0x3e889d03	0.2668229
80	0x3e8c9c2e	0.27462906
81	0xbdf7d48c	-0.12101087
82	0xbda62de3	-0.08114221
83	0xbb64060b	-0.003479364
84	0xbe3e6a42	-0.18595222
85	0xbdb30b1f	-0.087423556
86	0x3cb08b79	0.02155088
87	0xbe30d0c3	-0.17267136
88	0xbe514c07	-0.20439158
89	0x3c5e6a06	0.013575083
90	0xbded1e3f	-0.115780346
91	0xbe8124cc	-0.25223386
92	0x3dae8ccf	0.08522951
93	0xbe88867b	-0.266651
94	0xbe8605ea	-0.26176387
95	0xbe3964c6	-0.18104848
96	0xbd2bccf8	-0.04194352
97	0xbed5f19a	-0.4178589
98	0xbf299be0	-0.6625347
99	0xbdea21a2	-0.11432196
100	0xbdf0eaf7	-0.11763566
101	0x3dd9034a	0.105963305
102	0xbd5761ab	-0.052583378
103	0xbe1eef23	-0.15520911
104	0xbd8701d9	-0.06592149
105	0xbe1ae0be	-0.15124795
106	0xbe0b3631	-0.13594891
107	0xbe057f25	-0.13036783
108	0x3d6e1173	0.05812211
109	0x3dd84f51	0.105620034
110	0x3e1aa9bc	0.15103811
111	0x3e2d3474	0.1691454
112	0x3e8582f3	0.2607647
113	0x3dc803b4	0.09766331
114	0x3e1f0713	0.15530042
115	0x3e738b36	0.23783574
116	0x3e802fe2	0.25036532
117	0xbc7e5cc2	-0.015525045
118	0x3da06a4d	0.07832775
119	0x3ceced4a	0.028921742
120	0xbd275d5f	-0.04086053
121	0x3dae8754	0.085219055
122	0x3dd397be	0.10331677
123	0x3df3fe9f	0.119137995
124	0x3e5a1194	0.21295768
125	0x3d30e132	0.043183513
126	0xbd93c36b	-0.072150074
127	0xbd811c7d	-0.06304262
128	0xbe1dcbe8	-0.15409815
129	0xbe5fdd47	-0.21861754
130	0xbdc8fb60	-0.09813571
131	0x3cb3b524	0.02193696
132	0x3e310449	0.17286791
133	0xbdfc4084	-0.12316993
134	0xbe8eac85	-0.27865997
135	0x3e9fd0cf	0.31213996
136	0x3deaddf5	0.11468116
137	0x3df7973c	0.120893925
138	0x3e705f83	0.23473935
139	0x3e000997	0.12503658
140	0x3ebc265a	0.3674801
141	0x3e74cced	0.23906298
142	0x3e75f911	0.24020793
143	0x3e81ddec	0.25364625
144	0xbca8409d	-0.020538623
145	0xbda997c1	-0.08280898
146	0xbd673ec9	-0.05645636
147	0x3cde1a91	0.027112277
148	0x3ab7c82d	0.0014021449
149	0xbd68610e	-0.056733184
150	0xbc38f7e9	-0.011289575
151	0xbdc9ff42	-0.0986314
152	0xbd1ee4cc	-0.038792416
153	0x3e8b6564	0.27225792
154	0xbd51315d	-0.051072467
155	0xbcb61aaa	-0.022229511
156	0xbcc06290	-0.023484498
157	0xbd9400e6	-0.07226734
158	0xbc0ed7aa	-0.0087184105
159	0x3be084f7	0.006851788
160	0xbdc8223d	-0.097721554
161	0x3dc97ae1	0.098378904
162	0x3e2703ac	0.16309994
163	0xbdfe7f42	-0.12426616
164	0xbdba96ef	-0.091108195
165	0x3cfcc184	0.030853994
166	0xbd909065	-0.07058791
167	0x3da789ef	0.081806056
168	0xbe4b694a	-0.19864383
169	0xbe793317	-0.24335895
170	0xbe10da73	-0.14145832
171	0x3e19dc46	0.15025434
172	0x3d97eefe	0.07418631
173	0xbdb60c50	-0.08889067
174	0xbccf31f0	-0.025292367
175	0xbc857ef0	-0.01629588
176	0xbba78816	-0.0051126583
177	0x3cb95e34	0.022627927
178	0xbd76dac9	-0.060267244
179	0xbdbe581d	-0.0929415
180	0xbe798774	-0.24368078
181	0xbcff0de0	-0.031134546
182	0x3d626e4d	0.055280972
183	0x3da5d1c6	0.08096652
184	0x3dc7b9b6	0.097522184
185	0xbba08fab	-0.004899939
186	0x3e1af504	0.15132529
187	0x3dfd6763	0.12373235
188	0xbcffb8bb	-0.031216016
189	0xbe662f5a	-0.22479
190	0x3b8d140f	0.0043053697
191	0x3ca1e1e0	0.019761026
192	0xbe179727	-0.14803754
193	0x3d95ab9a	0.07308121
194	0x3d171531	0.036885444
195	0x3df6260f	0.12018978
196	0x3e2a5506	0.16633996
197	0x3db4cb0e	0.08827792
198	0xbdfa8aca	-0.12233503
199	0xbd0b6c7a	-0.034039
200	0x3d1d1c0b	0.038356822
201	0xbe102257	-0.140756
202	0x3d06b802	0.032890327
203	0x3e2cfb9c	0.16892856
204	0xbda7ffe4	-0.08203104
205	0x3dddfee8	0.10839635
206	0x3e0e7218	0.13910711
207	0xbedec39e	-0.4350862
208	0xbe73102e	-0.23736641
209	0xbdce1e1e	-0.10064338
210	0xbedb12d4	-0.42787802
211	0x3d1a8d1d	0.037732232
212	0x3d9e4de5	0.07729701
213	0xbe2a3a33	-0.16623764
214	0x3cb4088f	0.021976737
215	0x3ea55307	0.32289907
216	0xbe9f25ed	-0.31083623
217	0xbe8eb76a	-0.2787431
218	0x3b103d8c	0.002200934
219	0xbd2470fd	-0.040146817
220	0x3e3e1f5f	0.18566655
221	0x3dbce8d7	0.09224098
222	0xbd4144cf	-0.04718476
223	0x3d30a4ab	0.04312579
224	0x3eb23da2	0.34812647
225	0xbca7a81d	-0.020465905
226	0xbba72f43	-0.0051020696
227	0x3de34020	0.11096215
228	0x3c8d4952	0.017246876
229	0xbcb9074a	-0.022586484
230	0xbd4ea86d	-0.050453592
231	0xbda18523	-0.07886722
232	0xbde8054e	-0.11329137
233	0xbd268c1a	-0.040660955
234	0xbf0a6fef	-0.5407705
235	0x3d08e0d2	0.03341753
236	0x3d3898ba	0.045067526
237	0xbdc69c60	-0.09697795
238	0x3e056d91	0.13030078
239	0xbd47aee6	-0.04875078
240	0x3d0050e0	0.03132713
241	0x3ea85f70	0.32885313
242	0xbd85734c	-0.06516132
243	0x3b74f282	0.0037375991
244	0x3dc759a4	0.097338945
245	0xbd3d8dcf	-0.046277817
246	0x3d139cad	0.03603809
247	0x3d970bf1	0.073753245
248	0x3d5066f4	0.050879434
249	0x3d01d144	0.031693712
250	0xbd59143d	-0.052997816
251	0xbc70da0b	-0.014700423
252	0xbd8d3a98	-0.068959415
253	0xbe103f3f	-0.14086626
254	0x3d3f63e8	0.046726137
255	0x3cfc4012	0.03079227

conv3.bias f4 [32]
0	0xbe02e3f4	-0.1278227
1	0x3d1a91da	0.03773675
2	0x3e29b69c	0.16573566
3	0x3d956b70	0.07295883
4	0xbc5d01c1	-0.013489188
5	0x3e3f5e16	0.18688235
6	0xbd6ecbd7	-0.058299866
7	0x3d0dff53	0.034667324
8	0xbbb63ef8	-0.0055617057
9	0x3dcf756e	0.1012982
10	0x3e5e9160	0.21735144
11	0x3ca08d59	0.01959865
12	0x3b4697ea	0.003030295
13	0xba7e195e	-0.0009693111
14	0xbdee694d	-0.11641178
15	0x3c82534c	0.01590886
16	0x3d8fa36f	0.07013594
17	0xbd559403	-0.052143108
18	0x3e1628ad	0.14663954
19	0xbcc32d2a	-0.023825247
20	0x3e4d1849	0.20028795
21	0x3d40f97a	0.04711292
22	0xbdac28db	-0.0840623
23	0x3de8f41a	0.11374684
24	0xbd6ae67f	-0.057348724
25	0x3d75cabb	0.060007792
26	0x3e247564	0.16060406
27	0x3cf43ce3	0.02981419
28	0x3e430c1e	0.19047591
29	0xbd3e0550	-0.046391785
30	0x3e578fdf	0.21050976
31	0xbab943df	-0.0014134607

conv4_1.weight f4 [2, 32, 1, 1]
0	0xbf49ed2f	-0.7887754
1	0xbf9adf95	-1.2099482
2	0x3ea96bd3	0.33090076
3	0xbe4c7e8b	-0.19970147
4	0xbdb354a9	-0.08756382
5	0x3eb20173	0.3476673
6	0xbfa91d83	-1.3212131
7	0xbd9b3141	-0.07577754
8	0x3fbe7c72	1.4881728
9	0x3fec28c5	1.8449942
10	0xbe9ea7bf	-0.30987355
11	0xbf30cbfb	-0.6906125
12	0xbdcc936f	-0.09989058
13	0xbf060c1c	-0.5236223
14	0xbf7734b9	-0.96564823
15	0x3e4fd2d4	0.20295268
16	0xbfaf84ea	-1.3712437
17	0xbcf8db32	-0.030377958
18	0x3ee81612	0.45329338
19	0xbfc4272d	-1.5324455
20	0x3fcbe6f2	1.5929854
21	0x3dbeeb3f	0.093222134
22	0xbda9eaa8	-0.0829671
23	0x3ecec751	0.4038644
24	0xbd48b797	-0.04900321
25	0x3e8694dc	0.26285446
26	0x3eb6f571	0.35734132
27	0x3fc81509	1.563142
28	0x3ec465eb	0.38359007
29	0xbf15472f	-0.5831174
30	0x3e2daa17	0.16959415
31	0xbe0f86d1	-0.14016272
32	0x3f4beacb	0.7965514
33	0x3f83ac21	1.0286905
34	0xbf0e5d63	-0.55611247
35	0x3cd69fe2	0.026199285
36	0x3c5e6f80	0.013576388
37	0xbf0a67ab	-0.54064435
38	0x3fc0fb39	1.5076667
39	0x3de9ddaa	0.11419232
40	0xbfbf04b8	-1.4923315
41	0xbfe4eadd	-1.7884175
42	0xbc40726d	-0.011746031
43	0x3f4698c9	0.7757688
44	0x3c168124	0.009186063
45	0x3f0caefb	0.549545
46	0x3f5e5767	0.86852115
47	0xbeb07a1c	-0.34468162
48	0x3fa97b8d	1.324083
49	0x3e2f19a4	0.17099625
50	0xbf08a0f4	-0.53370595
51	0x3faeae15	1.3646876
52	0xbfd37f84	-1.652329
53	0x3e02fb52	0.12791184
54	0x3e2804fa	0.16408148
55	0xbee43269	-0.4456971
56	0x3e108023	0.1411138
57	0xbeb66897	-0.3562667
58	0xbee42ad5	-0.44563928
59	0xbfa30581	-1.2736055
60	0xbe7c90bf	-0.24664591
61	0x3f04c053	0.51855963
62	0xbed3de5e	-0.4138059
63	0x3e48b2d6	0.1959947

conv4_1.bias f4 [2]
0	0xbd9523ef	-0.072822444
1	0xbda14907	-0.07875257

conv4_2.weight f4 [4, 32, 1, 1]
0	0xbc4b89b4	-0.012422968
1	0x3ed0eac1	0.40804103
2	0x3dc6b342	0.097021595
3	0xbcf830f2	-0.030296776
4	0xbe10f78f	-0.14156936
5	0xbe1ff534	-0.15620881
6	0xbd17575d	-0.03694855
7	0x3e0cf1ac	0.13764066
8	0x3ab915b2	0.0014120846
9	0x3dbedc1f	0.093193285
10	0xbeff945c	-0.49917877
11	0x3d01d07b	0.031692963
12	0xbe104398	-0.14088285
13	0xbd4586eb	-0.04822437
14	0x3d23bd83	0.039975654
15	0x3d378145	0.044801015
16	0x3cae1c25	0.021253655
17	0x3db658ce	0.08903657
18	0x393b4f10	0.00017863163
19	0xbcc2e1e6	-0.023789357
20	0xbd9be208	-0.076114714
21	0xbe258d84	-0.16167265
22	0x3d1838e4	0.03716363
23	0x3e5ed75b	0.21761839
24	0xbe14271c	-0.14468044
25	0x3db12b88	0.08650881
26	0x3e73cd29	0.23808731
27	0xbb861133	-0.004091406
28	0xbe43c15f	-0.19116734
29	0x3d6f5c30	0.058437526
30	0xbea42012	-0.32055718
31	0x3dce719b	0.10080262
32	0x3d0afbe2	0.03393162
33	0x3e5faa91	0.2184241
34	0xbdd4eefb	-0.103971444
35	0xbc5401f1	-0.012939916
36	0x3d9ba7db	0.07600375
37	0x3d6eb99b	0.058282476
38	0xbd354273	-0.044252824
39	0xbce40d17	-0.027838273
40	0x39f2325f	0.00046195366
41	0x3d06c001	0.032897953
42	0xbe1435c1	-0.1447363
43	0x3df275d6	0.11838882
44	0xbde604b3	-0.11231365
45	0xbec23498	-0.3793075
46	0xbc84a2fa	-0.016190995
47	0xbdb051ee	-0.08609377
48	0xbc23aa10	-0.0099892765
49	0x3cb8f3e2	0.02257723
50	0xbe828e29	-0.25499085
51	0xbbe1a0bb	-0.0068856156
52	0xbd4c2a60	-0.0498451
53	0xbd9b0ea6	-0.07571153
54	0xbd77a5a4	-0.0604607
55	0x3c2b5148	0.010456391
56	0xbd8689c2	-0.06569244
57	0x3e6b911e	0.23004577
58	0xbebc221e	-0.3674478
59	0x3c37f37c	0.011227485
60	0x3e2779bc	0.16355032
61	0x3e04fbb6	0.12986645
62	0x3e4253ff	0.18977354
63	0x3e37ea6e	0.17960522
64	0x3b8407e8	0.004029263
65	0x3d1e788c	0.03868918
66	0x3b9ba5f5	0.004750008
67	0x3d42bb0f	0.047541674
68	0x3cffb8ee	0.031216111
69	0xbc055795	-0.008138557
70	0x3bcb75d0	0.0062091127
71	0xbdef9743	-0.11698773
72	0xbd09425c	-0.03351055
73	0xbc407173	-0.011745798
74	0xbd2056cc	-0.039145276
75	0xbce38ac1	-0.027776124
76	0xbd1cd0c8	-0.038285047
77	0x3c729e92	0.014808314
78	0xbc813fc7	-0.015777482
79	0xbc893ec3	-0.01675356
80	0xbba3e4cc	-0.00500164
81	0xbe107747	-0.14108
82	0x3d4eb0e1	0.050461654
83	0x3c9cf1c5	0.019158253
84	0x3cb70ac7	0.022344006
85	0xbe2dfc89	-0.16990866
86	0x3cecd54c	0.028910302
87	0x3d0c350c	0.034230277
88	0x3cbedd74	0.023298956
89	0xbe0c5ee9	-0.1370808
90	0x3d6b6257	0.05746683
91	0xbd1eb6ad	-0.038748432
92	0x3d912c45	0.07088522
93	0xbc0fc546	-0.008775061
94	0x3cc750c5	0.024330506
95	0x3c8ffb93	0.017576015
96	0x3ce928b1	0.028461786
97	0xbeb6e51e	-0.35721678
98	0xbc9bbb7b	-0.019010296
99	0xbd96b177	-0.073580675
100	0x3dd01e29	0.101620026
101	0x3dd983ed	0.10620866
102	0xbcc62313	-0.024186647
103	0x3d9ea465	0.077461995
104	0x3c360a2f	0.011110826
105	0xbcf14068	-0.029449657
106	0x3e9c0fc4	0.30480778
107	0x3d4237f5	0.047416646
108	0xbe09d618	-0.13460577
109	0xbd908871	-0.07057274
110	0x3cbffc23	0.023435658
111	0xbd399c98	-0.045315355
112	0xbc02ddf2	-0.007987486
113	0x3e0eecc4	0.13957506
114	0x3cdec6d9	0.027194427
115	0xbd27470a	-0.040839233
116	0x3bd5e685	0.006527724
117	0xbd63fabc	-0.05565904
118	0x3e14a81b	0.14517252
119	0xbe224f0c	-0.15850466
120	0xbd7881e0	-0.060670733
121	0xbd4f9d4e	-0.050687127
122	0xbd0065e3	-0.031347167
123	0x3d6a63c9	0.05722407
124	0x3e269548	0.16267884
125	0x3c1201af	0.008911534
126	0x3d3b151e	0.045674436
127	0x3dfa1b5b	0.12212249

conv4_2.bias f4 [4]
0	0x3e1a7841	0.15084936
1	0x3d864e48	0.065579
2	0x3f5d4e62	0.8644773
3	0x3f3b49aa	0.7315928

conv4_3.weight f4 [10, 32, 1, 1]
0	0x3ac18722	0.0014765004
1	0x3968fc02	0.00022219124
2	0xb9bd6930	-0.0003612726
3	0x39698a69	0.00022272173
4	0x3d98f2de	0.07468198
5	0x3919a0f6	0.0001465118
6	0x3813adcd	3.5209396e-05
7	0xbc0e1404	-0.008671764
8	0x3a332c41	0.00068349025
9	0xbaa7ff05	-0.0012817091
10	0xb8d5f05a	-0.000102014004
11	0xba3b6e8b	-0.0007149956
12	0x3d9e130f	0.07718479
13	0xb9c210e2	-0.00037015142
14	0x3a801c72	0.0009774102
15	0xba9f03a8	-0.0012131827
16	0x399680b0	0.0002870611
17	0x3dd93da8	0.10607463
18	0x3ab71417	0.0013967779
19	0x3a0fcc45	0.00054854556
20	0xba7328d2	-0.0009275797
21	0x3d9477df	0.07249426
22	0xbdba3e41	-0.09093905
23	0xb838ee23	-4.40908e-05
24	0xbe287030	-0.16449046
25	0xbaeea841	-0.0018208103
26	0x3b015dac	0.001973967
27	0x3a347752	0.0006884235
28	0x3aa0f541	0.0012280123
29	0x39a543cf	0.00031521774
30	0xba4d23b1	-0.0007825448
31	0x3ac8970a	0.0015303802
32	0xb9176c73	-0.00014440883
33	0x3a95f7ba	0.0011441626
34	0xb9763592	-0.00023480345
35	0x38ec4221	0.000112656744
36	0x3a0bafce	0.0005328626
37	0xbb3af5e9	-0.0028527922
38	0x3a6bf192	0.00090005354
39	0xbe243258	-0.1603483
40	0x3a195124	0.0005848578
41	0x3af5482e	0.0018713528
42	0xb724893b	-9.807113e-06
43	0x39e07a02	0.00042815512
44	0xbe14f3c0	-0.14546108
45	0xb89b46da	-7.404173e-05
46	0x39fc59cc	0.0004813209
47	0xb96789b3	-0.00022081174
48	0xb97b9567	-0.00023992882
49	0x3d80ba1c	0.062854975
50	0xb9acf403	-0.000329882
51	0x3a8792a0	0.001034338
52	0xb92f4558	-0.00016715133
53	0x3c013e4e	0.00788839
54	0x3d69110d	0.056901027
55	0x38930108	7.009698e-05
56	0xbc877ae1	-0.016538085
57	0x39e88725	0.0004435118
58	0x3ab0fd2d	0.0013503187
59	0x3a6cef13	0.00090383104
60	0x39865e57	0.0002562876
61	0x3a0dbeff	0.0005407184
62	0xbaca5ae4	-0.0015438464
63	0xba758d06	-0.00093670224
64	0x3ac3c609	0.0014936338
65	0x3c28c956	0.0103019085
66	0xbcfb1c53	-0.030653154
67	0x3c789d66	0.015174245
68	0x3ddff21e	0.10934852
69	0xbcd00bd3	-0.025396263
70	0x3b126727	0.0022339316
71	0xbe0eb862	-0.13937524
72	0xbd0e1300	-0.03468609
73	0xbd900db0	-0.07033861
74	0x3c30b36d	0.010784966
75	0x3ca7d20d	0.020485902
76	0xbdda9b4c	-0.10674152
77	0x3bcd518a	0.0062658237
78	0x3bd41184	0.0064718146
79	0xbd559334	-0.052142337
80	0xbaa10af9	-0.0012286595
81	0x3d760154	0.06005986
82	0x3c9ce7ba	0.019153465
83	0x3b0df143	0.0021658696
84	0xbb820661	-0.0039680456
85	0xbd95a83c	-0.07307479
86	0x3e29afd2	0.16570976
87	0xbc015ce9	-0.007895687
88	0x3e2c9590	0.16853929
89	0xbdb9e45b	-0.090767585
90	0x3b900e4f	0.004396237
91	0xbcdbd6d8	-0.026835844
92	0x3db5477c	0.08851525
93	0xbb0441df	-0.0020180864
94	0x3d927d66	0.07152824
95	0x3cabb2f3	0.020959353
96	0xbbdfe4c3	-0.0068326904
97	0x3d054b97	0.03254279
98	0xbd25f3cb	-0.040515702
99	0x3c4bc556	0.012437185
100	0x3d1994af	0.03749531
101	0xbd6e0943	-0.0581143
102	0xbb912085	-0.0044289255
103	0xbe2d6fe2	-0.16937211
104	0x3cdd1a6f	0.026990144
105	0x3ac3ca85	0.0014937675
106	0x3cc26d9b	0.023733905
107	0xbc2cbd49	-0.010543176
108	0xbdf73437	-0.12070506
109	0xbdbb8c73	-0.09157648
110	0x3ac9cc66	0.0015395998
111	0xbc2672a6	-0.01015917
112	0x3ba5b212	0.005056628
113	0x3d361a11	0.044458453
114	0xbb82f9bd	-0.0039970563
115	0xbb888353	-0.0041660457
116	0xba79d8fc	-0.00095309294
117	0xbd027103	-0.031846058
118	0xbc26aede	-0.0101735275
119	0x3db15a16	0.08659761
120	0xbdb7827c	-0.08960435
121	0xbc51f761	-0.012815327
122	0x3d73013f	0.05932736
123	0xbcc70474	-0.024294116
124	0xbe312412	-0.17298916
125	0x3c3159dd	0.010824648
126	0x3ddd0005	0.10791019
127	0x3d820314	0.06348243
128	0xbc23d31e	-0.009999065
129	0xbd3403bd	-0.043948878
130	0xbbe28667	-0.0069129947
131	0xbc9d8344	-0.019227631
132	0x3d9535c1	0.07285643
133	0x3cd78ccb	0.026312253
134	0xbc439113	-0.011936444
135	0xbdaf3750	-0.08555472
136	0xbd7c94a3	-0.06166519
137	0x3d524b70	0.051341474
138	0x3da9447b	0.08265015
139	0x3c83cdc7	0.016089333
140	0x3e1f5a81	0.15561868
141	0xbbb53381	-0.0055298214
142	0x3b93a983	0.0045062914
143	0xbc0f1763	-0.008733603
144	0x3c2ce58c	0.010552775
145	0x3cb6dca5	0.022322008
146	0x3cb156c5	0.02164782
147	0x3bf45bd9	0.007457238
148	0xbbf58299	-0.007492375
149	0x3e1c4805	0.15261848
150	0x3da99dad	0.082820274
151	0x3c628da7	0.013827718
152	0xbe1768fc	-0.14786142
153	0xbde37aa6	-0.11107378
154	0xbd8ec423	-0.06971004
155	0xbc45041d	-0.012024906
156	0x3e234626	0.15944728
157	0xbd16d123	-0.036820542
158	0x3d20f556	0.03929647
159	0x3d3075b1	0.04308099
160	0xbc1a56d5	-0.009420116
161	0x3cb31fd3	0.02186576
162	0xbc9fc87f	-0.019504784
163	0x3c4cb1ad	0.012493533
164	0x3ddc3c16	0.10753648
165	0xbc82538d	-0.01590898
166	0x3c08c147	0.008346862
167	0x3e117f60	0.14208746
168	0xbb14c018	-0.0022697505
169	0xbcf52ff9	-0.029930102
170	0x3cd57e73	0.026061272
171	0x3ac69f2b	0.0015153637
172	0x3d6927f7	0.05692288
173	0xbce46cb8	-0.027883872
174	0x3c193b7f	0.009352564
175	0xbca9ffd2	-0.020751867
176	0xbbdb6c71	-0.006696277
177	0xbe2710c8	-0.16314995
178	0x3ba28032	0.0049591297
179	0xbbc9d21b	-0.0061590797
180	0xbb52e289	-0.0032178483
181	0x3e1d2c64	0.15348965
182	0xbe306a63	-0.17228083
183	0x3d10aab8	0.03531906
184	0xbdbcad61	-0.09212757
185	0xbcec88d2	-0.028873835
186	0x3d3fe2e4	0.04684724
187	0xbcface06	-0.030615818
188	0xbd9da6ae	-0.07697807
189	0x3c345935	0.011007597
190	0x3da0a7f9	0.07844538
191	0x3cd93d0a	0.026518364
192	0x3c46a373	0.01212393
193	0xbd030683	-0.031988632
194	0x3d6aa475	0.057285745
195	0xba5530aa	-0.00081325567
196	0x3e33f4de	0.17573878
197	0x3d7faf34	0.062422946
198	0x3bb5a7b6	0.0055436743
199	0x3de0ed6c	0.10982785
200	0xbcf5ad30	-0.029989809
201	0xbc83615d	-0.016037637
202	0xbd061d08	-0.03274253
203	0x3b25dcc7	0.0025308596
204	0x3d755236	0.059892856
205	0x3dc4e93a	0.09614797
206	0xbc03d96f	-0.008047446
207	0x3c7677ed	0.015043241
208	0xbba6b7ab	-0.005087813
209	0xbcb895e3	-0.022532409
210	0xbb06f221	-0.0020591097
211	0xbb40f068	-0.0029440168
212	0xbb8e696b	-0.004346063
213	0xbde96ac0	-0.11397314
214	0x3e23bb01	0.15989305
215	0xbdd0d444	-0.101967365
216	0x3d9b062b	0.07569536
217	0x3c582a78	0.013193719
218	0xbd518007	-0.051147487
219	0x3d0b8d9a	0.03407059
220	0x3e43a13d	0.19104476
221	0xbc6f1ec8	-0.014594741
222	0xbdf6ce68	-0.120510876
223	0xbd658c9b	-0.056042295
224	0xbb223baa	-0.00247548
225	0x39d8fc77	0.0004138683
226	0xbb8cf786	-0.004301968
227	0xbae7fabb	-0.0017698625
228	0xbe02bfc6	-0.12768468
229	0xbc786b1d	-0.015162257
230	0x3b381777	0.0028090158
231	0x3e1351e6	0.1438671
232	0xbb1dc67b	-0.0024074602
233	0xbc742962	-0.014902445
234	0x3bd15377	0.0063881236
235	0x3ba4e516	0.005032192
236	0xbcd0c883	-0.025486236
237	0xbbb27762	-0.0054463604
238	0x38a1953a	7.704874e-05
239	0x3ae0dba5	0.0017155303
240	0x3adaf4e2	0.0016705061
241	0xbe27ee07	-0.16399394
242	0xbb899749	-0.004198943
243	0x3a26e440	0.00063664094
244	0x3b5c0940	0.003357485
245	0xbca7742c	-0.020441137
246	0xbe1a2f73	-0.15057163
247	0x3c13526c	0.008991819
248	0x3db8e2a2	0.09027602
249	0xbbe19edc	-0.0068853926
250	0xba645716	-0.00087104866
251	0xbaea3561	-0.0017868691
252	0xbbe08422	-0.006851689
253	0xbb5635c7	-0.0032685862
254	0x3c5154e4	0.012776587
255	0x3b932314	0.0044902656

conv4_3.bias f4 [10]
0	0x3e626a9c	0.22110981
1	0x3eb8bf16	0.36083287
2	0x3eded8d6	0.43524808
3	0x3eb6bca4	0.35690796
4	0x3ea30980	0.31843185
5	0x3ef8233a	0.48464376
6	0x3e4f26e2	0.20229676
7	0x3f221bd3	0.63323706
8	0x3ec31bc9	0.38107136
9	0x3f1fb2a6	0.6238197
