Pytorch face detection - Test/MTCNN_models/pnet_8.pt (torch, 30835 bytes, 12 tensors)

conv1.weight f4 [10, 3, 3, 3]
000000 db 5c 66 bf c3 dc 6a bf d8 2c 08 bf a3 c4 cf bd
       -0.89985436 -0.91743106 -0.53193426 -0.10144927
000010 f3 e1 5d 3e de 44 13 3f fb 3c 94 3e a1 45 2b 3f
       0.21668224 0.5752696 0.28952774 0.6690312
000020 c9 3c cd 3e 9d b5 21 3e ed 18 4e be 25 2e ac 3d
       0.40085438 0.15791936 -0.20126696 0.08407239
000030 6e e9 2d be 23 f6 a4 3d 21 f6 9c 3e 05 3f 70 3d
       -0.16983578 0.08054759 0.3065653 0.05865385
000040 cb 76 59 3d 90 95 4a 3d 44 63 a9 bc 7c e8 3f be
       0.053091805 0.04945904 -0.020677216 -0.1874103
000050 82 6c 56 3d 7f 13 a8 bc f8 6f 16 be aa 23 04 3e
       0.052349575 -0.020517109 -0.1469115 0.1290423
000060 aa 47 84 bd be 2c a6 bd f7 8e c4 bd b3 a8 a6 3e
       -0.06458981 -0.08114003 -0.09597581 0.32550582
000070 1f 9c 07 3e 27 6d f2 3d dc 2c e6 3e cb b6 b8 3e
       0.13243149 0.118372254 0.449561 0.3607696
000080 3f b7 29 bd 7c a1 38 3e 86 a0 3c 3e 34 dd 15 3e
       -0.041434523 0.18030351 0.1842061 0.14635164
000090 8f 12 85 be e1 b6 76 be 65 95 00 bd 18 ee d7 be
       -0.25990722 -0.240932 -0.031392474 -0.4217384
0000a0 2a 65 f4 bd 42 76 4f 3e 2c 06 e8 bd 6d da b8 be
       -0.11933358 0.20259956 -0.11329302 -0.36104146
0000b0 52 8f 11 be 4b 3f 04 bd 5b cf 3d 3c 85 c4 f6 3b
       -0.14214829 -0.032286923 0.011585082 0.007530751
0000c0 5c 4a 3e be f0 c6 84 be 4f a0 18 be 5f 9f c8 bd
       -0.18583053 -0.25933027 -0.14904903 -0.097960226
0000d0 f0 df eb 3d 92 1f 96 bd 68 35 d8 bd be ba 09 3e
       0.11517322 -0.0733024 -0.105570614 0.13450143
0000e0 d5 37 1d be 8d de 40 3c 12 71 6f bb a6 f3 3d be
       -0.1535333 0.01177181 -0.00365359 -0.18549976
0000f0 22 2d 01 be bc 3f 3d 3e 8d b8 a6 bd 1f 8c bd bd
       -0.12614873 0.18481344 -0.08140669 -0.092552416
000100 96 34 49 be 4e 19 02 3e 11 e3 ce bd fe 7a 31 3d
       -0.19648966 0.12704965 -0.10101903 0.043330185
000110 64 36 4a be 08 8a 1c be 13 15 62 bd c6 90 24 3e
       -0.19747311 -0.1528703 -0.05519588 0.16070852
000120 9f b5 9b 3d 3b 64 a9 3b 90 0d 95 3d bc 78 e3 3b
       0.07603001 0.005169419 0.072779775 0.006941883
000130 fd 79 9f bd a5 c8 20 3e e2 30 4a be ee 00 1f 3e
       -0.07786939 0.1570154 -0.1974521 0.15527698
000140 53 b0 10 3d 59 9d 13 bf f9 77 d0 be 08 39 02 bf
       0.035324406 -0.5766197 -0.40716532 -0.5086827
000150 bb 62 7a be 90 26 e0 3d 8e c0 05 3e 62 59 ce be
       -0.24451725 0.10944855 0.13061735 -0.4030257
000160 01 1d 21 be 8b a5 e7 3c 35 1c 1f 3f 46 2b 0c 3f
       -0.1573372 0.02827718 0.62152416 0.5475353
000170 fd ba 82 3e 2b 9e fc 3e 80 67 dc 3e 53 a4 36 3e
       0.25533286 0.49339423 0.43047714 0.17836122
000180 e6 6e fb 3e 04 74 96 3e a9 9e 33 3e 53 0b 21 3e
       0.49108046 0.29385388 0.17540993 0.15726976
000190 61 70 1b 3e f9 75 23 3e ac cb 93 be 65 48 d8 be
       0.15179588 0.15962972 -0.28866327 -0.42242733
0001a0 de 06 ae 3c 82 4b 2c 3e ac d8 6c bc ff 34 a7 be
       0.021243509 0.16825679 -0.0144559555 -0.3265762
0001b0 00 48 87 3c c6 3f 31 be ce e0 83 bc b7 68 e9 bd
       0.016513824 -0.17309484 -0.016098406 -0.11396926
0001c0 9c 77 b8 bd 07 fc c6 bd 82 a0 f1 3d 4e 36 f0 bc
       -0.09007189 -0.09716039 0.117981926 -0.02932277
0001d0 6f 79 1b 3e 3f aa a4 bd 31 ed 35 3e 40 3c 07 be
       0.15183042 -0.08040284 0.17766263 -0.13206577
0001e0 a2 6b 19 be c3 f8 ad bc 41 03 46 3d 57 6e 03 be
       -0.14982465 -0.021236783 0.048342947 -0.1283506
0001f0 4e 9f 11 3e e8 21 17 be 00 a6 1d 3e 1a e0 06 bd
       0.14220926 -0.14759028 0.15395355 -0.032928564
000200 d6 4d 11 be 45 3d de bc fc ee e3 bd bf 82 00 bd
       -0.14189848 -0.027128825 -0.11129567 -0.03137469
000210 58 aa de bd a2 c9 0d 3e 18 76 90 3d 8e 0c 4d 3e
       -0.10872334 0.13846448 0.070537746 0.2002432
000220 b2 e5 a8 3e dc 17 4d be 7c 03 95 3e 9e 34 2c 3e
       0.32987744 -0.20028633 0.2910422 0.16816947
000230 c0 a9 24 bf 5d 49 d0 bd d5 55 13 bf 35 b3 78 be
       -0.6432152 -0.10170243 -0.57552844 -0.24287112
000240 bb 0a 18 be 5f 02 d4 3e 16 25 95 bd 09 2c 41 3e
       -0.14847843 0.4140806 -0.07282464 0.18864454
000250 be e2 e3 3e cc 60 c1 be 42 07 45 be d1 8c 37 be
       0.44508928 -0.37769163 -0.1924105 -0.17924811
000260 f2 05 58 bd 77 85 c9 be db 07 04 3e 66 c2 ae bd
       -0.052740045 -0.39359638 0.12893622 -0.08533172
000270 bf f5 41 3e 31 a2 bf 3d 2f b0 bd 3d 83 bc 12 be
       0.18941401 0.093571074 0.0926212 -0.14329724
000280 2b 99 44 be 0c 49 db 3e e2 5b 0b 3f 49 3c 14 3f
       -0.19199054 0.42829168 0.5443708 0.5790449
000290 88 76 f8 3e 7b 16 3b 3e ae 58 bc 3e 3c a6 e1 3e
       0.48527932 0.18270294 0.36786407 0.4407214
0002a0 e2 8d 21 bf 10 5e 3e bf e2 d6 b2 be a6 d5 35 bc
       -0.6310712 -0.7436228 -0.34929568 -0.011098301
0002b0 ae e7 78 3d fb 8e 0e be 1c 43 b2 3d a4 98 56 3e
       0.060767822 -0.1392173 0.08704206 0.20956665
0002c0 fd 67 5b 3c 91 b8 a7 be 50 7e f3 be 31 c1 d9 bd
       0.013391492 -0.32758 -0.47557306 -0.106325515
0002d0 8f 2d 4b 3e 5c 99 78 3e c5 36 79 3d 83 f9 2f bd
       0.19841598 0.24277252 0.060843248 -0.042962562
0002e0 5c 1f 68 3d 15 1d c9 3d 48 9f d6 bd 6d 58 aa be
       0.05667053 0.0982 -0.10479599 -0.3327059
0002f0 96 f0 95 bd c9 ec 22 be 65 94 cf be b5 59 24 bb
       -0.07321279 -0.15910639 -0.40542904 -0.0025077884
000300 c1 81 2f 3e 83 4a 85 be ba 0c 25 bf 94 2e 57 3d
       0.17139341 -0.2603341 -0.64472544 0.052534655
000310 70 1c e7 3d 80 22 b4 be 48 32 fd bd c6 ec 6a be
       0.11284721 -0.3518257 -0.12363106 -0.22941884
000320 e0 65 a9 3d 30 01 01 bc 69 03 bd 3d 84 58 e8 bd
       0.08271384 -0.007873818 0.09229166 -0.11345008
000330 79 04 0d 3e cd 29 fd 3d 2d fa e2 bc ae 87 04 be
       0.13771237 0.123614885 -0.027707184 -0.12942383
000340 5c 22 f9 bd d8 a7 5b 3e 8f 97 76 3e 3f 3b 80 bc
       -0.12164757 0.21450746 0.24081253 -0.01565325
000350 69 4f 17 3e 47 90 82 3a c5 ab 8d 3e aa 08 cc 3c
       0.14776386 0.0009961211 0.27670112 0.024906475
000360 12 e2 23 bd fe 94 08 be 21 90 30 be c9 fb 91 bc
       -0.04001052 -0.13338086 -0.17242481 -0.017820256
000370 f5 37 32 be 9d ba cd bc f6 00 fa bd 35 6b ba bd
       -0.17404158 -0.025113398 -0.122072145 -0.09102479
000380 ce d8 d8 3b a2 98 0e bd f6 07 25 be 65 be a1 bd
       0.006617642 -0.03481353 -0.16116318 -0.07897643
000390 63 92 32 bc 4c 1c 01 be 70 09 a2 3d 1f c3 59 bc
       -0.010899159 -0.1260845 0.07911956 -0.013291149
0003a0 97 87 bd bd 47 0b f2 bd 5d 17 06 be b1 7a 94 3a
       -0.09254377 -0.11818557 -0.1309485 0.0011328069
0003b0 1b 34 f1 3c 1b eb 98 3d 08 1f 34 bd e1 b1 ab 3c
       0.029443791 0.07466718 -0.043974906 0.020958843
0003c0 f4 af 28 3e 06 a0 a1 3d 8c 77 13 be 13 a5 f1 bd
       0.16473371 0.0789185 -0.14401072 -0.117990635
0003d0 84 78 12 bf fe a9 31 3f 84 db 03 3d 39 0d e1 be
       -0.5721514 0.6940001 0.03219177 -0.439554
0003e0 48 55 df 3e 11 80 04 be 4c 55 11 bd 29 f4 59 3e
       0.43619752 -0.12939478 -0.035481736 0.21284546
0003f0 eb 30 27 3d d4 e3 07 bf 8e 91 05 3f 64 9e fa 3c
       0.040818136 -0.53082013 0.52175224 0.030593105

conv1.bias f4 [10]
000000 16 ed 7e 3e 08 09 28 be cb 3d 92 bd 73 28 74 3d
       0.24895129 -0.16409695 -0.07140692 0.059608888
000010 ca c7 fa bd 90 a4 06 3f 42 a4 a8 bc b4 51 66 3f
       -0.12245138 0.5259485 -0.020586137 0.8996842
000020 e7 73 1d be 2d ae a4 ba
       -0.15376244 -0.0012564115

conv2.weight f4 [16, 10, 3, 3]
000000 9e 19 3c 3e db 73 fa 3d b0 c3 17 be 65 14 07 3e
       0.18369147 0.12229129 -0.14820743 0.13191374
000010 d2 d4 03 3e e1 0c 57 3d 4f d3 aa 3c d1 36 2f bc
       0.12874153 0.052502517 0.020852713 -0.010694222
000020 97 1f 18 3e f9 d1 f4 bd bf 7a b4 3c ca 7c 0a bd
       0.148558 -0.119541116 0.022031186 -0.033810414
000030 32 bd d8 bd 4c e3 ed bc dd 50 07 be 6a 44 1f be
       -0.10582961 -0.029039048 -0.1321444 -0.15553442
000040 01 6d 07 bd d7 c6 e1 bc 71 e8 7d 3d 0e 7d 77 3d
       -0.03306294 -0.027560635 0.06198925 0.060421996
000050 58 d7 9f 3d 6f cd f5 3b 8e 72 50 3d ed 4c 9a 3c
       0.078047454 0.0075012962 0.050890498 0.01883551
000060 01 7d c1 bc 0a 47 b1 bd 7e cd bc 3d 91 8c c6 ba
       -0.023619177 -0.08656128 0.09218882 -0.0015148093
000070 95 6d 79 bd a0 13 2e 3e fe 5a 87 bd a2 ef 4b be
       -0.06089552 0.16999674 -0.06609152 -0.19915631
000080 dd 72 59 bd 93 e6 6e 3c 7c 61 ac bd e1 8d 40 3c
       -0.053088058 0.01458134 -0.08417031 0.011752577
000090 df dc 98 3d d9 ba a6 bd 24 f0 b3 bd c7 ca d4 3c
       0.07464003 -0.08141107 -0.087860376 0.025975598
0000a0 52 c3 b2 3d 30 1d 40 3c c2 b5 da bd 50 ec 0e 3d
       0.08728661 0.011725709 -0.10679199 0.034893334
0000b0 b7 e2 c9 bd e3 95 28 be dc d4 67 be cc c6 a2 bd
       -0.098576955 -0.16463427 -0.22639793 -0.07948074
0000c0 70 28 23 be 34 e5 2d 3d ca 98 9f 3d d1 08 6c bd
       -0.15933394 0.042454913 0.07792814 -0.057625595
0000d0 8b eb 91 3c a8 c6 49 bd 54 24 7c 3a 86 2d 67 3e
       0.017812511 -0.04926172 0.00096184504 0.2257596
0000e0 d8 66 90 bd 6a c9 f6 bd db c6 15 3e d9 9b e1 bd
       -0.07050866 -0.120501354 0.14626639 -0.11016054
0000f0 ed 37 d1 3c bd ff 06 bd aa 93 8b bd c3 6e 07 3c
       0.025539363 -0.032958735 -0.06815274 0.008266154
000100 e3 c5 8b bc fb f0 88 3e f7 b2 bf 3c d1 49 ac 3c
       -0.017062133 0.26746354 0.023400767 0.021031292
000110 28 4d ea bd 5d 30 8d be 2f 6e a5 bd 75 43 02 3d
       -0.11440498 -0.2757596 -0.080776565 0.031802613
000120 80 e2 c8 3d a9 22 a6 bc 04 75 a6 bd c6 2d b8 3c
       0.098088264 -0.0202802 -0.08127788 0.022482764
000130 d7 05 2c bd 41 de a6 bd cc b8 b3 bd 9e 41 c8 bb
       -0.041997757 -0.0814786 -0.087754816 -0.006111338
000140 d9 55 61 bd d4 c5 87 be cf de 6c be 66 0f f7 3c
       -0.05501351 -0.26518118 -0.2313187 0.03015871
000150 65 20 42 bd a0 81 cd 3b c2 71 3e bd 0a 8d 2f bb
       -0.047394175 0.006271556 -0.046495207 -0.0026786947
000160 62 c6 15 bb 34 70 96 3b 07 58 22 be 43 f9 5e 3d
       -0.002285384 0.0045910124 -0.15853892 0.054436933
000170 3f b0 28 3d 88 7f 41 3e 48 0c 9b 3a 2e 64 d5 3d
       0.041183706 0.18896306 0.0011829222 0.104194984
000180 0e 7a 31 3e 9e 25 bf 3c a5 68 56 bd 9b 4f c7 bd
       0.17331716 0.023333367 -0.05234589 -0.097319804
000190 0a f8 06 bd 7f e9 08 3e 98 eb cc bd 47 de f9 3d
       -0.032951392 0.13370322 -0.100058734 0.12200599
0001a0 21 68 bb 3d 14 6d 4e be 64 14 e7 3b c6 4e 88 ba
       0.091507204 -0.20158798 0.0070519913 -0.0010399453
0001b0 9d f5 8b bc e6 54 a8 3d db 2b d3 3d aa d5 4e 3d
       -0.017084891 0.08219318 0.10311099 0.050496735
0001c0 4c 26 f9 3c be 30 e2 bc 56 e8 5e bd 15 b0 1f 3d
       0.03041377 -0.027611133 -0.05442079 0.038986284
0001d0 56 c5 be bd c5 3a de be b2 d5 34 3e 01 a8 80 3d
       -0.093149826 -0.43404213 0.17659643 0.06282044
0001e0 99 ac e1 bc 57 bd b4 3e 91 31 72 bc c5 6b 8a be
       -0.027548121 0.35300705 -0.014782325 -0.27035347
0001f0 81 01 92 3e d1 a6 c1 bd 69 0f 38 3b f9 24 4e 3d
       0.28516772 -0.09455646 0.0028085357 0.05032823
000200 44 ce 78 3d 38 c0 9b bd c5 e4 a6 bd 2f 40 8a 3d
       0.060743585 -0.07605022 -0.08149103 0.06750523
000210 58 b8 24 3c 7c 5e 92 3d a1 77 10 bd 03 5f 67 3c
       0.010053717 0.07146928 -0.035270337 0.014121774
000220 02 e5 d6 3d cc 84 c9 3d 7b 76 bc 3d 2f de 36 bd
       0.104928985 0.09839782 0.09202286 -0.044645485
000230 8c 0d 03 be 20 f9 f6 3d c5 f7 bb 3d fc 89 35 bd
       -0.12798136 0.120592356 0.09178118 -0.044321045
000240 28 fd da 3d 51 2e c1 3d 10 40 d7 bd b5 b8 22 3e
       0.10692817 0.09432662 -0.10510266 0.15890773
000250 40 f2 09 3e b0 af ea bd cc 5d a3 3d 1c 01 df 3d
       0.13471317 -0.11459291 0.07976875 0.108888835
000260 27 75 5f 3d 25 75 f4 bd 75 0b bd 3d e8 ad 2a 3e
       0.054555085 -0.11936406 0.09230701 0.16667902
000270 dc c0 e0 bd 4d b1 53 3c 01 4d 3d bd 86 c0 73 be
       -0.10974285 0.01292069 -0.046216015 -0.2380391
000280 a0 6e bb 3c 5e a9 a8 3c d9 ce 1d 3d 29 35 77 3d
       0.022879899 0.020588573 0.038527343 0.06035343
000290 86 a4 d2 3d 2b 8c 31 bd 80 fa 80 3c 9e a6 a4 bd
       0.102852866 -0.043346565 0.015744448 -0.08039592
0002a0 5e 83 93 bc 64 7c 93 3d e3 ea a0 3c 25 6e e5 be
       -0.018006977 0.0720146 0.019643253 -0.44810596
0002b0 28 70 b1 b9 8c a6 01 3e 70 20 a1 be 1e f1 54 be
       -0.00033843634 0.12661189 -0.3147006 -0.20795104
0002c0 f3 dc bd 3c 77 04 b6 be 96 a4 03 3e c7 d6 21 3d
       0.023176646 -0.3555028 0.12855753 0.03951147
0002d0 98 be 05 3e 63 98 d8 bd 42 11 9f 3b 63 78 74 3e
       0.13060987 -0.105759405 0.004854352 0.23874049
0002e0 1a 76 99 3d 0e ef 55 3c 29 e0 af 3d 5d 1f 84 3d
       0.07493229 0.013057483 0.08587677 0.064512946
0002f0 2d 7c a2 3d 0f 17 4c bd e4 f7 b1 bd a7 83 87 bd
       0.07933841 -0.049826678 -0.086898595 -0.066169076
000300 58 dc 66 3d 71 1e f8 3c 23 97 ed 3b be 13 a2 bd
       0.05636248 0.030287953 0.007250683 -0.07913922
000310 b2 0a b0 bd 32 41 e1 bd c7 23 f3 3b 63 05 3e bc
       -0.0859579 -0.10998763 0.0074200365 -0.011597964
000320 12 52 3f bd 8b 69 02 3d 50 5f 70 3c bd c4 29 bd
       -0.046709128 0.031838935 0.014671162 -0.04144739
000330 cf 2a b4 3d f8 30 02 bc 50 7b 09 3d 71 26 17 be
       0.087972276 -0.007946245 0.033564866 -0.14760758
000340 ae d3 94 bc 34 5d 38 be 21 44 1c 3e e5 8b 4b 3e
       -0.018167343 -0.18004304 0.15260364 0.19877584
000350 f6 e3 18 3e 16 62 fa 3d e2 88 1b 3e 21 5e 9d bd
       0.1493071 0.1222574 0.15188935 -0.07683969
000360 98 76 4d 3c 00 50 fe bc 41 e6 89 bd ad bb f1 bc
       0.012540482 -0.031044006 -0.067333706 -0.029508436
000370 93 75 1b bd de ee 8e bd f9 d3 be bd b8 6c be bd
       -0.037953924 -0.06979154 -0.09317774 -0.0929808
000380 cd 19 9b 3d 28 9d 9b bd 6e f0 ed 3d f4 b7 d2 3c
       0.075732805 -0.075983346 0.11618124 0.025722481
000390 8e e0 ff ba 47 bd fe 3d 0a 0d 64 3d 5a 1b 25 3d
       -0.0019521879 0.124384455 0.055676498 0.040309288
0003a0 c5 08 66 3d b2 fe db ba 28 d2 27 bc 41 c9 0c be
       0.056160707 -0.0016784279 -0.010242976 -0.13748647
0003b0 48 02 90 3d a7 fa a0 3d 4a 37 ac bd a5 ba 0e bb
       0.07031685 0.07860308 -0.08408983 -0.002177873
0003c0 50 56 73 3e 3c c2 65 3e 7e fe 43 3e ef 58 c3 ba
       0.23763394 0.22437376 0.1914005 -0.0014903824
0003d0 60 be 14 be 34 06 80 be a6 6b 11 be ab 44 c8 3d
       -0.14525747 -0.25004733 -0.14201221 0.097787224
0003e0 5e 4d e8 3d 49 cd fb bd de 2b 31 be 81 58 50 bb
       0.113428816 -0.122950144 -0.1730189 -0.0031791034
0003f0 b5 e6 29 bc 1b b3 90 3c d0 c1 49 3d 38 ef a8 3d
       -0.010369946 0.01766353 0.0492571 0.08248752

conv2.bias f4 [16]
000000 87 20 39 3f a3 bf e8 bc be 8d 0a 3d 42 af 4a bd
       0.7231526 -0.028411692 0.033826582 -0.049483545
000010 a3 5e d6 3d 8f f2 6b bd fb 7e 8a bd b9 a5 27 3f
       0.10467269 -0.05760437 -0.06762501 0.6548725
000020 36 c7 93 3d c4 b3 c3 3e 89 fa 0a 3f a4 5f 41 3e
       0.07215731 0.38223088 0.54288536 0.1888414
000030 03 3f ff 3e c2 26 d2 3d 47 fb b6 3d 63 22 7e bc
       0.49852762 0.10261299 0.08934646 -0.015511128

conv3.weight f4 [32, 16, 3, 3]
000000 7d ea eb 3c cc 25 03 bc 60 e5 9c 3d b2 e1 89 bd
       0.028798336 -0.008004617 0.07660937 -0.06732501
000010 9c d2 64 3d 73 52 72 bc 7d ad 74 bd 22 a4 0b 3b
       0.055864915 -0.014790165 -0.059735764 0.0021307548
000020 16 47 70 bd cf e4 25 bd 00 5b 62 bd 12 45 a4 3d
       -0.058661543 -0.040501412 -0.055262566 0.080209866
000030 4a 70 69 3d 0c ed 8a bd 81 38 c6 3c 0e 6c 0c bd
       0.056991853 -0.06783494 0.024196865 -0.034282736
000040 22 b7 97 3d 82 6e ec bc ac 6e 83 3d 21 16 84 bd
       0.07407977 -0.028861288 0.06417593 -0.06449533
000050 4e ed d7 bc 3a 15 94 bd 8c ff 83 bc 78 eb 47 bb
       -0.026358273 -0.07230611 -0.016113065 -0.003050534
000060 f4 bd 4a 3d 15 86 18 3d 0b 99 8a bb 65 b7 98 3d
       0.04949756 0.037237246 -0.00422967 0.07456855
000070 4b bf 5b bc 46 4b a1 bd 4c 97 93 3d ac d6 89 bd
       -0.013412307 -0.078756854 0.07206592 -0.067303985
000080 73 a8 94 ba 46 b5 4e 3b a1 23 92 39 75 60 de 3c
       -0.0011341706 0.0031541153 0.00027873836 0.027145604
000090 47 6d a7 3c bf 9e 3c bd f8 c5 3f bd dc 8f 92 3d
       0.02043785 -0.04604983 -0.046819657 0.07156345
0000a0 95 61 e2 3b c7 73 a4 3d 10 3b 62 bd 8a e7 c5 3c
       0.0069086053 0.08029895 -0.055232108 0.024158258
0000b0 aa a3 86 3d 37 5c 5b 3c 8d 6e ba bc f0 9f 66 3d
       0.06574185 0.013388685 -0.022757793 0.056304872
0000c0 d4 55 84 3c fb 63 9f bd d9 01 8d 3d 0e 5e 33 bd
       0.016154207 -0.07782742 0.06885118 -0.04379087
0000d0 72 4f 82 bd ad b3 38 3c d0 aa 32 3d 92 d8 1c 3d
       -0.06362809 0.011273307 0.04361993 0.038292475
0000e0 29 7f 53 bb bc 8b 98 bd 38 78 87 3d 8c 28 69 bd
       -0.0032271838 -0.07448527 0.06614727 -0.056923434
0000f0 60 6c 39 bd 1c 6d e6 bc 2d 9b 15 3d 9b 61 98 bd
       -0.04526937 -0.0281282 0.03652494 -0.07440492
000100 68 20 32 3d 9a ff 66 bd d9 fd 4d 3c 8b be 3f 3d
       0.043487936 -0.056396104 0.012572729 0.046812575
000110 ae 18 40 bd 8a f1 1a 3d ae 42 84 3b af 33 59 3d
       -0.046898536 0.037828006 0.004036269 0.053027805
000120 13 da 55 3d 7f 84 4e bc 5a ea 4f bd 08 7e 86 bd
       0.052209925 -0.012604832 -0.050760604 -0.06567007
000130 14 91 c3 3c 35 58 d7 bc ae de 77 3d b6 1b 98 bc
       0.02387289 -0.026287178 0.0605151 -0.018567901
000140 2f a9 7a bc d1 ab 45 3d 40 e8 a5 bd c6 5b 5c bd
       -0.015299126 0.04825956 -0.08100939 -0.05379846
000150 49 cf 70 3d a0 3c 28 ba 2d b3 ca 3c 05 15 af bb
       0.058791433 -0.0006417725 0.02474364 -0.005343082
000160 38 ae 08 bd 9c 92 a6 bd ee c5 6c bd bb 71 41 3b
       -0.033369273 -0.08133432 -0.057805948 0.0029517252
000170 20 ae 86 3d da 66 d7 3c e8 e8 98 3d 31 a0 37 bd
       0.065761805 0.02629416 0.07466298 -0.044830505
000180 f8 54 ad bd 41 73 b9 bc 42 f7 eb ba a6 86 a7 bc
       -0.08463472 -0.022637965 -0.0018002766 -0.020449948
000190 d3 3c 22 bd 0c ab 64 3d ff 24 1e 3c 93 4d 79 bd
       -0.039608788 0.055827186 0.009652375 -0.060864996
0001a0 08 f3 ae bb 3a b3 b0 3c 75 44 16 bd ea 61 8d bb
       -0.00533903 0.021569837 -0.03668638 -0.004314651
0001b0 6f fc 8d 3d c3 da 7d bd e5 0b 8a 3c 38 20 4c 3d
       0.069329135 -0.061976206 0.016851375 0.049835414
0001c0 17 67 4b bd 68 3e 83 bd 15 c2 d9 bc a1 e5 92 bc
       -0.04965886 -0.064083874 -0.026581803 -0.017931761
0001d0 c8 93 eb bb bd 21 77 bd 71 2a fd 3c 4f 46 7f bd
       -0.0071892478 -0.06033491 0.030904027 -0.06232291
0001e0 ed 6e 14 bd 74 ad a8 bb 3a 99 53 bc d8 16 bd bc
       -0.0362386 -0.0051476303 -0.01291495 -0.023082182
0001f0 f4 17 a6 3d f6 e1 12 3d 2f 1c 90 bd 58 cc 56 bd
       0.081100374 0.035860024 -0.070366256 -0.05244097
000200 fe d3 18 3d a4 ef ab 3c 23 cf 0e 3d 3f 7e 9c bd
       0.037311547 0.020988293 0.03486551 -0.07641267
000210 f1 93 87 3d 15 e4 13 3d 44 d2 cf bb 03 c9 a0 bd
       0.066200145 0.036106188 -0.0063422043 -0.0785084
000220 fc ab 47 3d e7 7e 8e 3d 7a 70 bf bc a7 62 91 bc
       0.048748 0.069577985 -0.023369063 -0.017747236
000230 6a 16 d7 3c ef 76 78 bd 52 5f 98 3d 58 46 1a bd
       0.026255805 -0.0606603 0.07440056 -0.03766474
000240 66 9a 81 3d b5 17 a8 bc e5 76 77 3d d0 77 65 bc
       0.06328277 -0.020519117 0.06041612 -0.014005616
000250 af 6d 3e bd e1 3b 8e 3b a3 3e 68 3d b4 1a 1b 3c
       -0.04649132 0.004340634 0.05670036 0.009466816
000260 a1 23 22 bd de 0f 93 bc 1b 53 39 3c 97 70 e9 bb
       -0.03958476 -0.017951902 0.011311318 -0.0071240175
000270 a8 5d ab 3c 0f 82 8c 3c 6e f3 c7 3d f3 0a 07 ba
       0.020918682 0.01715186 0.097632274 -0.0005151473
000280 52 11 28 3d db 9f c8 3d 01 61 9a 3c b9 44 58 bd
       0.041032143 0.09796115 0.018845083 -0.052799914
000290 28 7e 3f bd 81 b8 43 bd a0 4c 5e 3d b1 36 22 3d
       -0.04675117 -0.04778338 0.054272294 0.03960294
0002a0 f9 49 68 3b f7 17 52 3d a4 08 f2 bb ed b4 94 bd
       0.0035444482 0.051292386 -0.007386284 -0.07261071
0002b0 76 b1 44 3d cd ce bd 3c e7 46 50 bd af 2a 60 bd
       0.048020802 0.0231699 -0.050848868 -0.054728206
0002c0 0c 5c 4a 3d 54 ab c8 ba 46 60 81 3d df 48 9f 3c
       0.04940419 -0.0015309849 0.06317191 0.019443927
0002d0 27 e0 2e bd 56 2f d2 3d a3 78 87 3d f4 9c cc bc
       -0.042694237 0.10262935 0.066148065 -0.024977185
0002e0 2b c1 d6 3c f6 54 30 3d 62 f5 c0 bc 8a ba 89 3d
       0.026215157 0.043049775 -0.023554508 0.06725033
0002f0 fd b0 ad 3c 7f e4 bc bc 5f d2 81 3b 89 d4 30 3d
       0.021202559 -0.023058174 0.0039618458 0.04317144
000300 f8 26 34 3b ca c0 89 bd ea 1d 99 3d 63 87 20 3c
       0.0027489047 -0.06726225 0.07476409 0.009797904
000310 45 10 1a bc 07 8c 50 bd 83 f9 88 bd 95 e8 52 bd
       -0.009403293 -0.05091479 -0.066882156 -0.05149134
000320 40 00 b4 bb 24 c8 df 3c 20 e9 82 bb ea 2c 9e 3c
       -0.005493194 0.027317114 -0.003995076 0.019308526
000330 d0 8a cb bc 76 39 49 3d d4 aa bc bc 88 f4 b4 3d
       -0.024846464 0.049127065 -0.023030676 0.08835703
000340 43 82 21 3d f7 79 8e 3d 41 53 48 bd 81 fe d4 3d
       0.039430868 0.06956857 -0.048907522 0.10400105
000350 16 e0 be 3d 00 41 2a 3d 52 ce 31 3d fc eb b1 3d
       0.09320085 0.041565895 0.043409653 0.086875886
000360 01 08 15 bd d7 ab e4 bc d2 47 1b bb 1d bf 68 bd
       -0.036384586 -0.02791397 -0.0023693931 -0.056822885
000370 2e f9 3a bc 21 09 06 bc 78 e7 3e 3d 62 3e 43 3d
       -0.011411948 -0.008180887 0.046607465 0.047666915
000380 34 0e b1 bc af c4 10 3d da 06 12 3d 16 a0 6b 3b
       -0.021613218 0.035343822 0.035651065 0.0035953573
000390 9d 12 96 3d a2 2a 57 bd d9 b2 e8 3c 68 3b 5c 3d
       0.07327769 -0.052530892 0.028405594 0.05376759
0003a0 f6 a6 00 bc 02 45 46 3d de 1c 4d 3b b0 dc d0 3b
       -0.007852307 0.048405655 0.0031297724 0.0063739643
0003b0 e1 30 4c 3d 95 bb 8c 3d a8 79 eb 3c 75 a7 b4 3c
       0.049851302 0.06871716 0.028744534 0.022052506
0003c0 aa 6e a1 bc 65 34 c7 bc a9 49 36 3c 94 0a ca 3d
       -0.019706089 -0.024316976 0.01112596 0.09865299
0003d0 fa 3c b2 3d 45 a8 5d 3c 32 6b e9 3c df 89 00 bd
       0.087030366 0.013528888 0.028493498 -0.031381484
0003e0 64 03 ae bc 54 25 8e 3c 8e 4a ad 3c 7e eb 0c 3d
       -0.021241851 0.017351784 0.021153715 0.03440427
0003f0 b9 06 8a bc 46 3d db 3c d7 02 a0 3d 17 27 c6 3c
       -0.016848909 0.026762616 0.07813042 0.024188561

conv3.bias f4 [32]
000000 f7 ff 22 bd e8 ef 40 3e 6f 55 06 3e 55 08 8e 3c
       -0.03979489 0.18841517 0.13118528 0.017337957
000010 29 51 4c bd 2d b7 6d bd 7a 9c f5 3d c4 18 77 3e
       -0.049882088 -0.05803602 0.11992736 0.24130541
000020 f1 d6 5d 3e 7b 8b 98 bc d7 5e 98 bd c6 9b 82 bd
       0.21664025 -0.018621197 -0.07439964 -0.06377368
000030 14 e1 46 3e 01 37 e4 bd 53 7d 92 bd 62 6f b5 3d
       0.19421798 -0.11143304 -0.0715281 0.08859135
000040 13 35 aa 3c 6d eb a2 bc e0 62 17 3e b8 3b 46 bb
       0.02077726 -0.01988765 0.14783812 -0.0030247997
000050 fe 41 51 3d f1 b8 b6 3d 76 c5 c8 3e b6 20 61 bd
       0.051088326 0.089219935 0.3921315 -0.054962836
000060 7b c0 ba bd 61 48 30 3d e6 20 1c 3e 6d eb 5b bc
       -0.09118744 0.043037776 0.15246925 -0.013422829
000070 18 4f b6 3d 6f 13 8a 3c 1d 7e 2a bd 15 c2 16 bd
       0.08901805 0.01685497 -0.041624177 -0.036806185

conv4_1.weight f4 [2, 32, 1, 1]
000000 67 44 2d 3d 1b 07 ec 3c 02 b0 89 3e 76 b6 17 bf
       0.04230156 0.028811982 0.26892096 -0.5926279
000010 37 13 d0 bb b5 ff bb bd ca a8 81 3e 43 65 bf 3e
       -0.006349947 -0.091796316 0.25324088 0.37381944
000020 f4 15 a8 bf 30 be 03 bf d5 2f bb bd c5 b2 f6 be
       -1.31317 -0.5146208 -0.091399826 -0.48183265
000030 36 ed 41 be 8b 3c 80 be 50 a7 4e be d8 38 89 bf
       -0.18938145 -0.2504619 -0.20181012 -1.0720472
000040 1c 36 87 3d 7a 71 0c 3e ea dd c2 3e c5 34 52 be
       0.066021174 0.13715163 0.38059932 -0.20527942
000050 26 6a 83 3e 8a a3 e3 3b 4f e1 79 3f 2e 0e 0c be
       0.25666922 0.0069469856 0.9760942 -0.13677284
000060 d3 16 9e bc d7 b3 9f 3d 24 19 ab 3e 6e 0e 19 3f
       -0.019297993 0.077979736 0.33417618 0.5978764
000070 9e 72 8d bf 85 87 ce 3e db 81 18 bd f2 42 1a bf
       -1.1050603 0.40337768 -0.037233215 -0.602584
000080 95 43 aa 3c eb e6 76 bd ef fa fc bc c0 89 17 3f
       0.020784179 -0.060278814 -0.030881373 0.59194565
000090 a7 0c 38 3d 42 60 4e be ca aa f6 be 51 99 77 be
       0.04493394 -0.20153907 -0.48177177 -0.2417958
0000a0 a9 79 a6 3f dd 8e d4 3e be f4 54 bb d0 89 2c 3f
       1.3005878 0.41515246 -0.003249451 0.67397785
0000b0 ab 28 50 3d 57 40 62 3e f8 32 61 3e 1e ba 80 3f
       0.050820034 0.22094856 0.219921 1.0056798
0000c0 ef ba bb 3d e5 f6 f0 3d 5b 83 42 be f5 d3 8f 3e
       0.09166514 0.117658414 -0.1899542 0.28091398
0000d0 93 49 7e be 6f ba 1c bd 93 1b 82 bf 2f fc 0c 3e
       -0.24832754 -0.038263734 -1.0164665 0.13768075
0000e0 13 24 81 3d 89 a2 9d be a3 f2 f9 bd 19 b8 37 bf
       0.06305709 -0.30788067 -0.122044824 -0.71765286
0000f0 97 c4 8c 3f bd e2 10 bf bb 4b 15 be e2 7f 38 3f
       1.0997494 -0.56595975 -0.1457967 0.72070134

conv4_1.bias f4 [2]
000000 e0 10 c8 3c a8 96 04 3e
       0.02442211 0.12948096

conv4_2.weight f4 [4, 32, 1, 1]
000000 5d d9 c0 bd 3a f6 f5 bd 88 6c 50 be ab 4a 12 3c
       -0.09416459 -0.120098546 -0.20353901 0.008928935
000010 52 1d f8 bc 46 eb 11 be b0 1c 49 be 97 c1 ae 3c
       -0.030287419 -0.14249906 -0.1963985 0.021332545
000020 c6 36 a5 3a c6 16 12 3e 3b 84 18 be 0c fd b9 3d
       0.0012604825 0.142665 -0.14894192 0.09081468
000030 83 25 5b 3d 9c 50 bb 3d f7 c1 21 3e 30 2a 64 bc
       0.05350257 0.091462344 0.15796648 -0.013926074
000040 84 09 29 3e 14 51 1b 3e 06 20 eb bd 81 8b ad bd
       0.16507536 0.15167648 -0.11480717 -0.08473874
000050 57 09 53 3e 6d ba a3 3e 94 7b 60 bd 87 a6 c8 3d
       0.20609032 0.3197817 -0.054805353 0.097973876
000060 4a 34 1e be ef 25 a3 be 5b 9e 42 3e a2 97 e7 3d
       -0.15449634 -0.3186488 0.1900572 0.113082185
000070 9a 2a b7 bd 0e aa 61 3e 98 44 ca bd 68 5d 16 3d
       -0.089436725 0.22037527 -0.098763645 0.036710173
000080 87 56 2a 3d 6c 86 ce bd 5f 04 8b be 39 e7 f9 3d
       0.041586425 -0.10084233 -0.27151772 0.12202305
000090 4b b2 ff bd 37 c1 e2 3c b8 e3 85 bd ff 60 b5 bc
       -0.124851786 0.027680023 -0.065375745 -0.022140978
0000a0 f6 b1 6e bd 38 5d 9a 3d 76 7a 90 3d 4b f6 0c be
       -0.058275186 0.07537311 0.070546076 -0.13765828
0000b0 c7 9d 38 3e 93 fa 0f be 8d 87 fc 3d 6f 50 ab bc
       0.18028937 -0.1406043 0.12330542 -0.020912377
0000c0 ab ec 1d 3e 57 70 3f bc e5 85 6d bd 8f 99 dc bd
       0.15422313 -0.011684499 -0.05798902 -0.107714765
0000d0 26 62 bf 3d 7d fa f3 3d 1f 20 37 3d d8 cb cf 3d
       0.09344892 0.11913011 0.044708367 0.10146302
0000e0 97 b7 9c 3d 99 70 74 3e 27 8a e0 bd 70 d0 8c 3e
       0.076522045 0.23871078 -0.109638505 0.27502775
0000f0 4a 5a 02 3c 41 2d 4e be 5c 90 cf bd 6d 5a 06 3d
       0.007956097 -0.2013445 -0.10134956 0.03280108
000100 84 76 32 3e a5 12 02 3e 99 d6 64 3c ba 54 3b bd
       0.17428023 0.12702425 0.01396718 -0.0457351
000110 99 91 11 3e 2c 5e 08 be 13 f1 b2 bd f4 45 81 3d
       0.14215697 -0.13317174 -0.087373875 0.063121706
000120 1a 9a 62 3d 62 15 6c 3c 24 f3 c4 bd ca 3f ae bd
       0.055322744 0.014409395 -0.09616688 -0.085082605
000130 e5 92 9e 3d cd 4c f1 3d 10 14 89 3d e8 30 16 3d
       0.07742862 0.11782227 0.0669328 0.036667734
000140 57 43 b1 bc 8c 63 23 be 89 5d 28 3e 0d 46 1b 3e
       -0.021638555 -0.15955943 0.16441931 0.15163441
000150 7e 8e b8 3d 99 a6 b7 3d 06 ad 91 3d 4b 6f b0 bd
       0.09011553 0.08967323 0.0711308 -0.086149774
000160 c1 0e a2 bd c6 3e e7 3b 70 6c 90 3d 0e 46 d1 bd
       -0.0791297 0.0070570437 0.07051933 -0.1021844
000170 38 02 72 3b ef 1c b4 bd 6c ad fa 3d 81 9a fc 3c
       0.0036927592 -0.08794581 0.12240109 0.030835392
000180 88 58 05 3e d8 49 39 3b 0e fb 61 3b f1 c6 c8 bc
       0.13022053 0.0028272774 0.0034481916 -0.024508925
000190 3c c4 05 3e f2 32 9a bd 4f ff ad 3d 2d 82 2f 3e
       0.13063139 -0.07529248 0.08495962 0.17139502
0001a0 48 8a 9b 3c 59 6b c6 bd 6d 48 04 bc 1a 44 dc 3d
       0.018986836 -0.09688444 -0.008073908 0.10755177
0001b0 07 18 ed 3d 34 74 a6 bd 3b dd 0e be 82 ed 90 bd
       0.115768485 -0.08127633 -0.1395158 -0.07076551
0001c0 ce a0 90 3c 84 dd eb 3d 11 d7 3a bc 41 a2 be bd
       0.017654803 0.1151686 -0.011403815 -0.09308291
0001d0 6c 90 e1 3c d3 09 6e be 37 55 0b 3e 7c fe 8d 3d
       0.027534686 -0.23245935 0.13606726 0.06933305
0001e0 e8 50 f0 bd be 4a 42 3c 85 da 72 3d 85 aa 3a bd
       -0.11734182 0.01185864 0.059290428 -0.045572776
0001f0 32 f8 38 3d ff 69 62 be fb 10 1b 3d db 97 fb bc
       0.045158572 -0.22110747 0.03785799 -0.030712059

conv4_2.bias f4 [4]
000000 84 b5 e1 3d d0 68 cd bd b0 0e 24 3f 9f 1b 0d 3f
       0.110209495 -0.10029757 0.6408491 0.5512027

conv4_3.weight f4 [10, 32, 1, 1]
000000 ca 75 1e 3e ba 70 c0 3d f2 4e b1 bd ec 8d 04 bd
       0.1547462 0.09396501 -0.08657636 -0.03236191
000010 45 e3 03 be 71 27 5c 3c 37 35 bd bc 15 56 87 bd
       -0.12879665 0.013437138 -0.023096664 -0.06608216
000020 12 87 bf bb 39 e6 9b 3d 4e 7e 21 3d bf 99 19 bd
       -0.005844959 0.07612271 0.039427094 -0.03750014
000030 88 fd 8d 3d 22 b8 fe 3d 56 6b 7f 3d 80 fd c9 3d
       0.06933123 0.12437464 0.062358223 0.098628044
000040 e4 5d bf bc a0 93 0d be 58 26 a8 bc 18 bf 50 3d
       -0.0233602 -0.13825846 -0.020526096 0.05096349
000050 76 c5 09 3e 30 2a 2a 3d 1e eb 3f 3d b4 d8 4f bd
       0.13454232 0.04154414 0.046855085 -0.050743774
000060 12 f5 0a 3e f2 4d 28 3d e7 48 1b 3e 8c ec 02 bd
       0.1357005 0.04108996 0.15164529 -0.03196387
000070 19 bc e7 bc 3c d8 0a be b4 43 fa bc 4f 98 e2 bd
       -0.028287934 -0.1355905 -0.030549861 -0.11064207
000080 d1 e6 88 3d 18 72 de 3c ce 7c 88 3d f7 34 53 bd
       0.0668465 0.027154014 0.066644296 -0.051564183
000090 13 d4 cd bd 81 05 16 3e b8 88 13 3d 02 11 c2 3d
       -0.100502156 0.14650537 0.036019057 0.094759
0000a0 90 a5 3b 3d 54 d3 0a 3e 4a 58 9c 3d 17 4d 51 3d
       0.04581219 0.13557178 0.07634027 0.05109891
0000b0 ec 0d 7a 3d 84 b7 0b be 15 67 8c bc 02 0b 71 bd
       0.061048433 -0.13644224 -0.017138997 -0.05884839
0000c0 60 77 b1 3b 1f d8 e7 3c b6 d3 f6 bd 19 6a 7b 3d
       0.005415842 0.028301297 -0.120520994 0.06138048
0000d0 21 0d bd bd 25 60 b1 3c e4 33 0a 3d b0 5e 07 3d
       -0.0923102 0.02165229 0.033740893 0.033049285
0000e0 a8 12 fc 3a ba a8 40 3c eb 9a 3c bd 30 ec 0f be
       0.0019231634 0.011758978 -0.04604618 -0.14054942
0000f0 1b 1f 51 bc 61 f6 6a 3d 7a 4f 20 be 67 3a 8f 3a
       -0.012763764 0.05736387 -0.15655318 0.001092744
000100 f1 cd 45 bd 42 d7 46 3d 12 12 24 3d c7 37 ee 3c
       -0.048292104 0.04854513 0.040056296 0.029079331
000110 8e 38 1f 3e b0 d5 6b bc 8d b1 28 3d 14 54 da 3d
       0.15548918 -0.014394209 0.04118495 0.10660568
000120 83 52 ad 3c 1d 20 14 3e ed ae bb 3d 53 0a 6b 3d
       0.021157509 0.14465375 0.09164224 0.057382893
000130 ed bd 05 3d aa 85 28 3e ca 92 0d be 6a 8f 5e bd
       0.03265183 0.16457239 -0.13825527 -0.05433599
000140 31 18 29 be 93 f5 0f 3e e4 9b d5 bc d7 97 97 bd
       -0.16513135 0.14058523 -0.026075311 -0.07402008
000150 77 3f a2 bd a4 a9 13 bd 5d f0 bf 3d bf 5f cc bd
       -0.07922261 -0.036050454 0.093720175 -0.099791996
000160 0b ba 51 bd 53 44 ff bd c9 63 66 3c 12 9d 9b bd
       -0.051202815 -0.12464204 0.014061877 -0.07598318
000170 29 28 bf bc 02 76 bb bd 89 ca 00 be 36 81 bb bc
       -0.02333458 -0.091533676 -0.12577261 -0.022888761
000180 a5 61 1f 3e db 61 9f 3d ec b6 18 bd 62 11 bb bd
       0.15564592 0.07782336 -0.037283823 -0.09134175
000190 95 44 d5 3d 40 3c 04 bd ba 66 e1 bd ac 56 89 3d
       0.104134716 -0.03228402 -0.11005922 0.067059845
0001a0 32 4f 2e 3d 30 f7 6a bc 9b 39 1e be c0 89 bf bc
       0.042555995 -0.014341161 -0.15451662 -0.023381114
0001b0 97 ee a3 3c 83 f5 24 be 59 da 02 3e a0 d8 f5 ba
       0.02001123 -0.1610928 0.12778606 -0.0018756576
0001c0 28 76 fb 3d 6d 7a 32 3e 82 37 01 be f6 34 06 bb
       0.12278396 0.17429514 -0.12618831 -0.0020478345
0001d0 62 77 88 bd 79 7c 0c bd 41 c9 46 3c aa b3 eb 3b
       -0.066633955 -0.034298394 0.012132944 0.0071930485
0001e0 df fa 5f 3d fa c8 4e 3e 28 03 d3 3d 22 b4 c3 bd
       0.05468261 0.20193854 0.103033364 -0.09555842
0001f0 b3 91 72 3d 97 80 99 bd 8d 18 5d 3d 0d b7 99 3d
       0.05922098 -0.0749523 0.05397849 0.07505617
000200 55 e3 0b be 9b e5 77 bd 56 1d fa 3d 21 36 a7 3c
       -0.13660939 -0.060521703 0.12212627 0.020411553
000210 ad 90 70 3c 2a d1 a3 3d 57 13 a4 3c 46 d9 ff 3d
       0.014682931 0.07998879 0.020028753 0.124926135
000220 5c 80 3d 3c 0d 39 88 3d 33 eb 03 be 0d dd 87 3d
       0.011566248 0.066515066 -0.1288269 0.06633959
000230 82 e9 a3 3d ec dd 8f 3d 14 42 17 be 39 0e 8f bc
       0.080035225 0.0702475 -0.147713 -0.017462837
000240 ea 33 b2 bd dd e6 c8 3c 2f 68 fa bd 85 d0 8e 3d
       -0.08701308 0.024524147 -0.12226903 0.06973366
000250 74 1e 02 be e7 3f 08 be c5 f9 fd 3d 8c b4 09 be
       -0.1270693 -0.13305627 0.124011554 -0.1344778
000260 45 e5 eb bc cf 0b cd bd 64 32 25 be ee 3c 24 be
       -0.028795848 -0.10012018 -0.16132504 -0.16038868
000270 6d 93 b5 bc 1e e3 99 3d 26 9d df 3b ea 70 89 bd
       -0.022165025 0.07514022 0.0068241535 -0.0671099
000280 c8 d9 b1 bd 98 ff 2a 3e 7d 9b 37 3d fa 8d a6 bc
       -0.086841166 0.16699064 0.04482602 -0.020331372
000290 c5 5e b2 bd 06 b3 e6 bd aa 0a b2 bd bf ab 65 3d
       -0.08709482 -0.11264615 -0.0869344 0.056071993
0002a0 e0 fc 11 3d 5c 38 1b bd 4b 23 1d be 63 86 7d bc
       0.03564155 -0.037895545 -0.15345494 -0.015473935
0002b0 12 f5 04 3e a2 e7 9c 3d 3d f5 8f bd 62 12 c5 3d
       0.12984112 0.07661368 -0.07029197 0.09622647
0002c0 29 f3 e4 3d fb a3 05 3e 46 44 af 3d 1e 55 a5 bd
       0.111791916 0.13050835 0.08557944 -0.080728754
0002d0 c4 d1 b5 bd 8f f2 f6 3d 55 f8 c2 3d d4 c4 ac 3c
       -0.088779 0.12057983 0.09520022 0.021089949
0002e0 8c 5c 01 3e 42 ba bf bd fd 95 b5 3a db 95 f0 bd
       0.1263296 -0.09361698 0.0013853904 -0.11747333
0002f0 80 6c 7f bc e0 5a 2d bd 31 fe 9a bd 5c 62 2e bd
       -0.015589833 -0.042322993 -0.075680144 -0.04257427
000300 6c 97 1c 3d 08 23 6e bc 4b 0f 97 3d 26 ab 1a bd
       0.038230345 -0.014534719 0.07375964 -0.037760876
000310 b0 d6 ce 3d f4 ff 16 3e d3 32 e8 bd 40 21 8b bc
       0.10099542 0.14746076 -0.11337819 -0.016983628
000320 56 fe 51 3d e8 73 09 be 0f 93 d6 bd 77 fc cf bc
       0.051267944 -0.13423121 -0.10477268 -0.02538894
000330 1d 4a 7b bb 57 c6 f7 3d 45 02 21 3d 32 35 17 bd
       -0.0038343736 0.12098377 0.039308805 -0.036915965
000340 d6 02 11 be 25 99 29 3e 89 d9 10 be 5f a1 12 3e
       -0.14161238 0.16562326 -0.14145483 0.1431937
000350 a4 d2 04 3e e3 c6 34 3e ff 1d 41 bd d8 c5 0c 3e
       0.12970978 0.17653994 -0.047147747 0.13747346
000360 93 a1 04 3d 18 a1 ca 3d a7 fa a8 bc 93 4b d0 3d
       0.03238065 0.098940074 -0.020627333 0.10170665
000370 cb ea 49 3d 43 53 65 3d 52 c2 ef 3d 04 4a 80 3d
       0.04929618 0.055987608 0.117069855 0.06264117
000380 71 87 0f 3e c3 13 e8 3d 8e 74 29 3d a8 57 c9 ba
       0.1401651 0.11331894 0.04137092 -0.0015361207
000390 36 dd 30 3e 2e 06 a1 3c 8c c9 1f 3e 61 2b 85 bc
       0.17271885 0.019656267 0.15604228 -0.016256036
0003a0 af 2c 4a 3d 2b cb bc bc 1e ff 16 3e 98 6f b1 bd
       0.04935902 -0.023046097 0.14745757 -0.08663863
0003b0 36 82 09 3e 01 e1 06 be 0c 39 aa 3d 84 ae 97 bd
       0.13428578 -0.1317177 0.08311662 -0.07406333
0003c0 6c 17 32 be 6c d9 d6 bd 69 05 48 bd 24 67 c4 3d
       -0.17391747 -0.10490689 -0.048833285 0.09589985
0003d0 31 09 8e bd 89 07 ed 3d 80 db 14 3c 10 d9 5b 3d
       -0.06935347 0.11573703 0.009085536 0.053673804
0003e0 af c9 ba bd 65 b7 03 3e 33 14 3a 3e 3e ef dd 3b
       -0.09120499 0.12862928 0.18171768 0.0067729047
0003f0 40 28 49 3d f6 80 d2 bd b6 a1 06 be 91 96 02 3e
       0.04911065 -0.102785036 -0.13147625 0.12752749

conv4_3.bias f4 [10]
000000 62 c2 d3 3d ee ed 54 3e 91 03 8c 3e 1e 5e 4b 3e
       0.1033981 0.20793888 0.2734647 0.19860122
000010 60 04 43 3e 7c c2 54 3e 2f 61 7e 3e f4 ec 9b 3e
       0.19044638 0.20777315 0.2484176 0.30454218
000020 93 09 33 3e 4b fe be 3e
       0.17484121 0.37303385
