Pytorch face detection - Test/MTCNN_models/rnet_1.pt (torch, 408619 bytes, 14 tensors)

conv1.weight f4 [28, 3, 3, 3]
000000 54 6d f9 bb 87 c0 0f bd da cb a1 3d 4a fd 96 bd
       -0.00761191 -0.035095718 0.0790021 -0.0737253
000010 3f ed aa 3d 46 60 80 3d 6d 6f 9c bd 71 d7 27 be
       0.08346032 0.06268363 -0.0763844 -0.16390778
000020 61 38 51 3d 7e 54 4f be f7 c9 89 3d ce 91 9c 3d
       0.051079158 -0.20247075 0.06727975 0.076449975
000030 02 e7 bd bd 2e d3 3b 3e 6d aa 75 3d ff a5 0f 3d
       -0.09272577 0.18342277 0.059976984 0.035070416
000040 f5 10 bc 3d a2 72 a5 bd 94 8c f3 bd c7 92 61 3e
       0.09182922 -0.08078505 -0.118920475 0.22028647
000050 b1 e4 01 be 0d 92 a2 bd 39 a5 3b 3a 04 cc 35 3e
       -0.12684895 -0.07938013 0.0007158104 0.17753607
000060 0b 96 a7 bd 03 31 48 3d 4a ab 8f 3c c0 16 d6 bd
       -0.08182915 0.048874866 0.017537732 -0.10453558
000070 26 a0 f5 bd 6f c7 c4 bd d6 b0 39 be 37 e6 0c be
       -0.119934365 -0.096083514 -0.18133864 -0.13759695
000080 b3 cf 69 3d 89 8d 1b 3e fa 97 43 3d ef ee c5 bc
       0.057082843 0.1519071 0.047752358 -0.024161784
000090 cb a3 c3 3d 9a b8 90 bd ab 32 22 bd e9 54 e8 bd
       0.095527254 -0.0706646 -0.039599102 -0.1134432
0000a0 88 2d 83 bd 18 91 21 be d4 e7 dc 3d 98 54 f3 3d
       -0.06405169 -0.15778005 0.10786405 0.11881369
0000b0 fb 4a e4 3d 75 5d ae 3d 84 e0 8c 3d e8 86 e7 bb
       0.11147114 0.08513919 0.068787605 -0.0070656426
0000c0 08 e8 fb bb cc b6 bb bb a3 f0 d1 3d 67 63 0a 3e
       -0.0076875724 -0.005728578 0.10250976 0.13514481
0000d0 09 31 28 3e 76 f5 28 3e 9e b6 09 bc ea 72 d7 3c
       0.16424955 0.16499886 -0.008405356 0.026299912
0000e0 61 cc be bb d0 d7 10 3e 92 9d 3f 3d 18 7d 51 3e
       -0.0058227037 0.14144826 0.04678113 0.20457876
0000f0 3d 82 e9 3d c0 32 23 be 29 7a 83 3d d1 f0 3a 3e
       0.11401794 -0.15937328 0.064197846 0.18255927
000100 7c e3 2d 3e fc ad 2f ba 13 17 4e 3d 9a 06 44 be
       0.1698131 -0.0006701646 0.050314974 -0.19143143
000110 29 5b 84 bd 74 a6 93 3d b9 3a 51 be 36 a0 17 3e
       -0.064627 0.07209483 -0.20432557 0.1480721
000120 63 99 e9 bd 7f 35 99 3d ee 05 40 3c 03 2b 04 3d
       -0.11406209 0.07480907 0.011720164 0.03226758
000130 4e 27 bf 3c 3b 86 2b be e2 49 55 bd 0a 57 0a be
       0.023334172 -0.16750424 -0.052072413 -0.13509765
000140 f8 57 22 3e 54 43 12 bb 9c 05 4c be 56 c0 8d 3d
       0.1585387 -0.0022317963 -0.19924015 0.06921451
000150 1c 67 83 3d ff 1e 11 be 85 c3 09 bd f2 46 ac 3d
       0.06416151 -0.1417198 -0.033633728 0.08411969
000160 3d 47 01 be 30 c0 9f bd 23 1d b6 3c c3 75 ec bd
       -0.12624831 -0.07800329 0.02223069 -0.11545899
000170 2d 05 27 3e 4b f4 2c 3c 7d 36 a8 3d db ea d9 3d
       0.16310568 0.010556291 0.08213518 0.10640498
000180 98 45 02 be 3c fb c0 bd c2 33 9d bd 42 95 9f bc
       -0.1272186 -0.09422919 -0.07675888 -0.019480351
000190 c4 82 40 bd f2 47 2e 3c d6 f3 3d be fa e4 6e 3d
       -0.046999708 0.01063727 -0.18550047 0.058323838
0001a0 57 cd e9 3d 4e 11 b6 3d d2 53 21 3e ca 02 4f 3e
       0.114161186 0.08890019 0.15754631 0.20215908
0001b0 b9 22 54 be 02 d1 d1 3c ab cb 3b 3e d4 f8 0f be
       -0.2071637 0.025612358 0.18339412 -0.14059764
0001c0 49 6a 8c bd d2 c5 f2 3b 7c 4a 04 be 65 c9 06 bd
       -0.0685621 0.007408836 -0.12919039 -0.03290691
0001d0 3e fa d6 bc 85 6b 35 3e 1f cc c6 39 a4 28 f4 3d
       -0.026242372 0.17716797 0.00037917585 0.11921814
0001e0 59 45 2e 3e 74 6e 03 3e 1d a2 07 be 76 ea 25 3e
       0.17018642 0.12835103 -0.13245435 0.16202721
0001f0 7f 2b 1f 3e cc 8d f3 bd 2e f6 7f bd a6 6c 11 3e
       0.15543936 -0.1189228 -0.062490635 0.14201602
000200 ca 86 31 be f5 6d 0d be b2 9b ad bd 9b 83 ca 3d
       -0.17336574 -0.13811477 -0.08476962 0.09888383
000210 89 08 7d bd 88 88 10 be bd e7 c7 3d 60 6e ce 3d
       -0.061775718 -0.14114583 0.097609974 0.10079646
000220 74 46 1a 3d 6e 2e 6b be 9e 6e 3a 3e 20 94 29 bd
       0.037664846 -0.2296693 0.1820626 -0.04140103
000230 62 e7 71 be 52 54 99 bc 1e ca fd 3d 1d 44 7f 3d
       -0.23623422 -0.018716965 0.123920664 0.062320817
000240 1d 29 83 3c 3f cb f2 3d ef 1f 4e be 84 e7 0a 3e
       0.016010815 0.11855172 -0.20129369 0.13564879
000250 e8 0b 37 3e 40 98 0a be eb be 88 3d 38 7d b2 bb
       0.17875636 -0.13534641 0.0667704 -0.005447056
000260 d1 c4 1c be 08 3f 47 3c 36 d4 aa bd 0c 4b 39 be
       -0.15309455 0.012161024 -0.08341257 -0.18095034
000270 87 41 0f be bc a9 ae bb 9b 6c 30 3e 46 25 cb 3d
       -0.1398984 -0.0053302925 0.1722893 0.09919219
000280 c5 75 c1 bd b5 5e 1e 3e a0 19 40 3d bf 04 34 be
       -0.09446291 0.15465815 0.046899438 -0.17579935
000290 a3 81 4e 3c 59 7b 2a 3e 9e 69 95 bd 37 b9 b3 3c
       0.01260415 0.16648616 -0.072955355 0.021938903
0002a0 a1 ea 0d bd d3 bc c3 bd 1b f3 73 bd f7 c1 f1 3c
       -0.034647588 -0.095575 -0.059558015 0.029511435
0002b0 71 f7 e7 3d 76 f8 83 bd 65 c1 0f be b4 41 04 3d
       0.113264926 -0.064438745 -0.14038618 0.032289222
0002c0 82 d5 18 be 7c ed 8a 3d c4 54 48 3e fd 95 fe 3d
       -0.14925197 0.06783578 0.19563586 0.12430952
0002d0 c2 e8 e8 bd 36 75 82 bd 97 0f 1c 3d 8c 60 a3 3d
       -0.1137252 -0.063700125 0.038100805 0.07977399
0002e0 a3 33 1f be 52 a8 d8 bd 7e 62 6f bc 17 31 f3 3d
       -0.15547042 -0.105789796 -0.014610885 0.118745975
0002f0 70 7f 54 3e 59 04 f1 3d f4 fa b4 3d 09 96 33 be
       0.20751739 0.117684074 0.08836928 -0.17537703
000300 50 6e 30 3e 0e f7 c6 3d 38 40 81 bd f5 c4 55 bd
       0.17229581 0.09715091 -0.06311077 -0.052189786
000310 d4 ef 91 3d e1 8a e1 bd fa 77 b0 3d 44 01 12 3e
       0.07125822 -0.11012817 0.08616634 0.14258295
000320 3a a5 1d be b3 ec af bd cc 93 75 bd 14 fa 28 be
       -0.1539506 -0.08590069 -0.059955403 -0.16501647
000330 3e f1 3b 3b 22 3d 02 3e 87 20 8d 3d 23 9a 82 bd
       0.0028677727 0.12718633 0.0689097 -0.063770555
000340 e8 38 14 bd 23 f7 f0 bd 96 41 04 be 10 58 1e bd
       -0.036187083 -0.117658876 -0.12915644 -0.0386582
000350 0e 9a 28 3c ee 40 ab bd 30 dc 17 be df c5 41 3d
       0.010290636 -0.08361994 -0.14830089 0.047307845
000360 69 46 6b 3d 2f ce 59 bd eb ab 32 3d bf b0 48 3e
       0.057440195 -0.053175148 0.043620985 0.19598673
000370 a3 06 f8 3a a8 56 2b be 06 b8 3c 3e 27 0b 0d 3e
       0.0018922876 -0.16732275 0.18429574 0.13773786
000380 de e3 14 bd a4 7f a5 bd d1 de ca bd 34 e6 17 3e
       -0.036350124 -0.08080986 -0.0990578 0.1483391
000390 ee f8 ce 3d 29 f9 02 be 46 ef 1f bd f8 54 f2 3c
       0.10106073 -0.1279036 -0.03904655 0.029581532
0003a0 f8 4a 17 3d ec 4f 1f bd fb d1 c4 bd d8 ed b8 bc
       0.03693673 -0.03889458 -0.09610363 -0.02257435
0003b0 96 84 7b bd ef df 7b bd 33 8b f7 bd 86 ec 04 be
       -0.06140574 -0.061492857 -0.12087097 -0.12980852
0003c0 2e 88 bf bd fe e4 8c 3d c9 d8 3c be 0b c0 26 be
       -0.09352146 0.06879614 -0.18442072 -0.16284196
0003d0 2b d8 3b 3e 68 b7 a4 3d 86 d1 ed 3d 81 a3 c6 3d
       0.1834418 0.080427945 0.11612229 0.09699155
0003e0 9b 56 79 bd f6 a3 d3 bd 54 ae e9 bd 62 de d8 3a
       -0.06087361 -0.103340074 -0.114102036 0.0016545767
0003f0 c5 cf 8a 3d 10 08 27 be df 8d 0f be f4 ac ee 3d
       0.0677791 -0.1631167 -0.14018963 0.11654082

conv1.bias f4 [28]
000000 4b 66 fe 3b e5 da cc 3c 09 2e 10 be e2 38 66 3d
       0.007763659 0.02500672 -0.14080061 0.05620659
000010 56 47 2f 3d 22 e8 10 3e a5 fa 3d 3c 82 6c 4f 3e
       0.04279264 0.14151052 0.011595403 0.20256236
000020 a7 a6 fb 3d 79 fb 96 bd dd 60 2a 3e 57 9d 9e bd
       0.12287646 -0.07372183 0.16638513 -0.07744854
000030 44 01 e9 3c 22 99 2d 3d b9 45 b6 3b 33 11 8f 3d
       0.028442986 0.042382367 0.005562511 0.06985702
000040 5d 0a d3 3d 28 78 09 be 90 54 de 3d 1f 3c 69 3d
       0.10304711 -0.13424742 0.10855973 0.0569421
000050 d5 08 bf bd ca 09 1d 3e 68 4b 1d 3d da 89 ea bd
       -0.093278565 0.15335765 0.03840199 -0.11452074
000060 a4 9a 46 3e 62 11 83 3d d6 13 17 3e 49 dc b3 3d
       0.19394928 0.063998 0.1475366 0.087822504

conv2.weight f4 [48, 28, 3, 3]
000000 88 1f dc 3c b3 9e d8 3c e9 bf 9a 3d 23 00 84 3d
       0.026870504 0.026442861 0.07556135 0.064453386
000010 f0 e3 e8 3c 80 af 46 b9 86 97 5d bd b1 a9 3f 3c
       0.028429002 -0.0001894813 -0.054099582 0.011698172
000020 b7 97 57 bd ca 26 77 3d 2b d1 ce 3d c7 c3 fa 3c
       -0.05263492 0.060339727 0.100984894 0.030610932
000030 ff c2 9f bc 72 b0 94 bd 49 4a e6 bc ff ac d3 bd
       -0.019502161 -0.07260217 -0.028111594 -0.10335731
000040 70 2f 9c bd 6e ff cd 3c f2 8b 9e bc 90 de d1 bb
       -0.076262355 0.025146212 -0.01935384 -0.0064047053
000050 06 c5 b4 bc f8 16 b6 bb 1f b3 6d 3d 16 a2 6c 3d
       -0.022066604 -0.0055569373 0.05803215 0.057771765
000060 8d dd 92 3d a9 10 e4 3c 47 c3 5c 3d 56 82 a0 bd
       0.07171164 0.027839975 0.05389717 -0.078373596
000070 3f 7b 80 bc 0d 44 29 bc 56 b0 ab bd f4 37 73 3c
       -0.015683768 -0.010331166 -0.08383243 0.014844883
000080 b2 81 2f bc 3e 49 8d bd b4 13 1f bd f7 c2 b5 bd
       -0.010712074 -0.068987355 -0.03883715 -0.08875077
000090 f1 19 67 3d ac 5c 77 3d e2 ee 3f 3d b9 bb ba 3a
       0.056421224 0.060391113 0.046858676 0.001424662
0000a0 29 66 81 bc dc eb 92 bb 58 4d c5 3b dd 1c df bc
       -0.015795784 -0.004483683 0.006021183 -0.027235443
0000b0 e3 76 ce 3a a0 16 0f 3d d2 c9 ab 3a d6 1b 2b 3d
       0.0015751984 0.034933686 0.0013106412 0.041774593
0000c0 49 d1 9f bc 99 c3 81 3d d8 16 4a 3d 02 45 57 bd
       -0.019508975 0.063361354 0.04933819 -0.052556045
0000d0 8e d3 74 bd dc 96 d5 3c 15 1e a4 3c e4 9d 01 3e
       -0.059772067 0.026072912 0.020033875 0.12657887
0000e0 f5 6a ba 37 f0 21 0b 3d 4c 91 9c bc 52 ce 2a 3d
       2.2222734e-05 0.033967912 -0.019112252 0.04170067
0000f0 d9 3f a0 3c 5c aa d6 3a f8 77 e9 bc 39 69 2b bd
       0.019561695 0.0016377675 -0.028499588 -0.041848395
000100 81 30 61 3c 19 bc 8c 3a b9 a3 8f bd df 0d 88 bd
       0.013744474 0.001073721 -0.070136495 -0.06643271
000110 4b 22 d2 bc 6d 4d 40 3d 06 1d 4d 3c 60 7b 0a 3d
       -0.025651118 0.04694884 0.012519127 0.033809066
000120 4e 3d 0d bd 57 29 e0 bc 2c b0 c3 3c 46 9d 38 3d
       -0.034482293 -0.027363462 0.023887716 0.045071863
000130 a1 ad 20 bd 4a 31 1b bd a0 f2 3a 3c 8a c4 59 3a
       -0.039228085 -0.037888803 0.011410385 0.00083071797
000140 2f 48 8a bc a9 f8 3f bd a4 5b 95 3d d5 94 03 3c
       -0.016880123 -0.046868 0.0729287 0.00803109
000150 74 06 10 3d 1d 57 3a bd 14 45 42 bd c6 ad 04 3d
       0.035162404 -0.045493234 -0.04742916 0.032392286
000160 55 c7 95 bd 11 60 a7 bc 51 2e 92 3c 56 59 e9 3c
       -0.0731341 -0.02043155 0.017844351 0.028484982
000170 1b a7 cf bc ec 3e 21 3c e8 d7 15 bc 4e d2 52 3d
       -0.025348237 0.009841662 -0.009145714 0.051470093
000180 07 24 05 3d 4c 97 4d bd 61 72 7f 3c a3 84 8c 3d
       0.03250506 -0.050193116 0.015591235 0.06861236
000190 14 09 2d 3c d3 77 88 3d 91 3a 89 3d b5 1c db bc
       0.010561246 0.0666348 0.06700624 -0.026747087
0001a0 65 53 88 3b d4 ad d7 ba dd 9d 31 bd 58 bb 8a bd
       0.004160332 -0.0016455003 -0.04336344 -0.06774014
0001b0 ab 18 a8 3d 32 10 87 3c 8f c2 81 3d 01 db 2e 3d
       0.0820783 0.016487215 0.06335937 0.042689327
0001c0 35 f0 ed 3b 04 00 f2 bc 86 ca 20 3c 05 a1 27 bd
       0.007261301 -0.029541023 0.00981391 -0.040925045
0001d0 3a df 86 3c 70 26 83 bc 5e 76 15 3c 07 82 16 3d
       0.016463865 -0.01600954 0.009122459 0.036745097
0001e0 0d ee c7 bc 87 3b de bc 97 c8 54 3d ff 1d 24 bd
       -0.024405504 -0.027127994 0.05194911 -0.04006767
0001f0 b7 67 44 3d 0e a8 97 3d 49 25 ab bc 09 81 90 3a
       0.047950473 0.07405101 -0.020891802 0.0011024784
000200 ba e5 94 3d a9 db 2b bd da 73 f2 ba 7a 55 94 3c
       0.07270379 -0.04195753 -0.0018497661 0.018107165
000210 cf 45 67 bd 48 f0 93 bd ac 25 e6 3b 3a 01 17 bb
       -0.05646306 -0.072235644 0.007023534 -0.0023041503
000220 24 d4 ba 3d 15 46 a6 3d 5f d2 11 3d bb 02 0f bd
       0.09122494 0.08118836 0.035601016 -0.034914713
000230 ff 0f 6d 3c d4 63 da 3b 7d 30 6c bd 2f 64 50 3c
       0.014469146 0.0066647325 -0.05766343 0.012719198
000240 6a 2e 56 3d 0f cc bb 3c 94 2d 80 3d f1 bb 29 bd
       0.052290358 0.022924451 0.06258693 -0.041439
000250 c6 9b 81 3b 6a 58 87 bc a3 65 55 3c 8e 50 27 bb
       0.003955337 -0.016521651 0.01302472 -0.0025530192
000260 34 eb f1 3c 67 1f 5b bc 3e 9b 24 bd 5b 26 68 3d
       0.029531099 -0.013374186 -0.040187113 0.056677204
000270 06 00 12 3d 16 a0 b7 3c 56 ae 71 bc 83 4d 0e bc
       0.035644554 0.022415202 -0.014751038 -0.008685472
000280 f8 95 bb bc 00 85 92 bd 4a 30 22 3c ce 64 05 3d
       -0.02289866 -0.07154274 0.009899208 0.032566838
000290 56 12 62 3d c8 05 3e bd b6 38 aa bd 2b 5f 85 bd
       0.055193268 -0.046392232 -0.08311598 -0.065122925
0002a0 7d 13 cd bc e4 fb 22 3d 23 fb 40 bc 69 69 93 3d
       -0.025033707 0.039791003 -0.011778626 0.0719784
0002b0 44 3d b9 3b 32 9a c5 bc de 3d dd 3c 99 ee 95 bc
       0.0056530554 -0.024121378 0.02700704 -0.018302249
0002c0 f7 44 ef bb e7 98 40 3d 99 2e 49 bd 24 20 27 bd
       -0.0073019224 0.04702082 -0.049116705 -0.040802136
0002d0 13 9e a2 3d bc f2 f8 3b 7f b2 b5 3b 47 70 8b bc
       0.079403065 0.0075972956 0.00554496 -0.017021311
0002e0 66 25 d6 bc 92 79 19 bd eb 15 23 bc b3 ee 12 bd
       -0.02614088 -0.037469454 -0.009953956 -0.035872173
0002f0 b7 88 61 3d 34 de 8c bb ea 7e b7 3c 1a 37 0d bd
       0.055062022 -0.0042989496 0.022399385 -0.034476377
000300 c3 f8 a2 3a 11 ef a6 bc ba b2 b1 bb a1 34 3c bd
       0.0012433756 -0.020377668 -0.005422917 -0.04594863
000310 1b ac fa bc fb 48 28 bc 79 f7 7a 3d 5b 16 04 3c
       -0.030599644 -0.010271306 0.061271165 0.008061971
000320 b2 d6 90 3d 92 68 8a 3d 30 a3 06 bd bb 19 f3 3c
       0.070722 0.067582265 -0.03287047 0.029675355
000330 c8 27 c6 ba 76 ea 93 3d c7 e4 54 bc 57 be 55 3d
       -0.0015118057 0.07222454 -0.012993998 0.052183475
000340 4a fc 02 bd f3 25 f7 bc a1 c3 44 3d f3 a8 8a bd
       -0.031978883 -0.030169463 0.04803813 -0.06770506
000350 6f 9c d0 3c 2b 4c ed bb b3 b8 af bc 8a 6a 4d bd
       0.025465218 -0.007241746 -0.021450376 -0.05015043
000360 f4 fb b9 bc 3f b3 2f bd b5 20 f6 bc 11 6a 12 bc
       -0.022703148 -0.04289555 -0.030044893 -0.008936421
000370 c3 8a 32 3d 26 ee ae bc a0 40 98 39 74 e4 dc bc
       0.043589365 -0.021353792 0.0002903985 -0.026964404
000380 ed eb 15 bb c3 47 93 3d cb 15 09 3c 1b 66 ff bc
       -0.0022876218 0.07191422 0.008367012 -0.031176617
000390 67 d7 37 bd f0 bc c3 bc e0 56 6e 3d 6c 74 03 bd
       -0.044883158 -0.023893803 0.05818832 -0.03209345
0003a0 3b 8b 8e bd 25 50 b1 bc 09 c5 d9 3b d2 ee b0 3d
       -0.0696015 -0.021644661 0.006645803 0.08639301
0003b0 ec ec 57 3d 69 b6 87 bc 82 d0 37 bd 35 78 2c 3c
       0.05271618 -0.016566472 -0.044876583 0.010526706
0003c0 57 58 b2 bc a9 ed a2 bb 39 df 64 3c 0c 6c ec bc
       -0.02177064 -0.004972179 0.013969236 -0.028860115
0003d0 c8 cc a5 3a 5b 2c 22 3d 9b 31 98 bd e6 32 d0 3b
       0.001264953 0.039593082 -0.074313365 0.006353724
0003e0 7b 55 61 3c 80 31 a3 3b ca bf a7 bd 6b 20 e5 3c
       0.01375329 0.004980266 -0.08190878 0.02796956
0003f0 5a 6f ae 3b 18 57 65 bc 03 0f 32 3d cd 3c 47 3d
       0.0053233327 -0.013997816 0.043471348 0.04864197

conv2.bias f4 [48]
000000 e8 96 b9 3b b1 59 4a bc 53 b6 b2 3c f3 33 4f 3d
       0.0056637414 -0.012350486 0.021815455 0.050586652
000010 0a 9a 7d 3d b2 dd 1c 3d b1 e5 53 3d 07 5e 5c 3d
       0.06191448 0.038297363 0.051732723 0.05380061
000020 54 c4 2a 3d 7e d6 57 bd ec 0c c0 bc d3 69 a2 bc
       0.04169114 -0.05269479 -0.023443662 -0.019825852
000030 c0 27 77 3d 22 40 8b 3d ad e9 cc 3c 56 d7 47 3d
       0.060340643 0.06799342 0.025013769 0.048789345
000040 b0 5e 92 3d 3c 77 0d 3d a9 2c 99 3d bf 7c f2 b9
       0.071469665 0.03453754 0.074792214 -0.0004625078
000050 67 ee 06 3d 24 0a 45 bd 85 91 34 bd 1e 65 0b bb
       0.032942202 -0.048105374 -0.04408409 -0.0021269987
000060 05 3c d0 bc ea 7a 0d 3c ec 46 42 3c dc 61 8d 3d
       -0.025419245 0.008635262 0.011857729 0.06903431
000070 d7 d9 0e 3d d7 d4 2b 3c f7 23 1e 3b a1 34 26 bc
       0.034875717 0.010487757 0.0024130323 -0.010144384
000080 ac a1 36 bd 16 e2 89 bc 9f 12 25 3d 4e fb d1 3c
       -0.044587776 -0.016831439 0.04030096 0.025632527
000090 a4 97 d8 3c 91 eb 69 3c 8d b2 4e 3d 8b 1b 09 bc
       0.026439495 0.014277355 0.050463248 -0.008368383
0000a0 c3 c5 4e bd ff 13 d0 bc 3a b7 8b bc 22 06 4e 3d
       -0.05048157 -0.02540016 -0.017055143 0.050298817
0000b0 a2 6f fe bc d0 02 6f bc 78 53 20 3d 92 c5 14 3d
       -0.03105909 -0.014588073 0.039142102 0.03632123

conv3.weight f4 [64, 48, 2, 2]
000000 47 07 3b bd e8 44 d3 bd 3d e9 03 be 21 33 64 bc
       -0.045661237 -0.10315877 -0.12881942 -0.013928206
000010 10 a6 23 bd 3d 7e 09 bc 2c 64 b0 3d 87 44 07 bd
       -0.03995329 -0.008391914 0.08612856 -0.033024337
000020 f6 7a 7c 3d d2 e2 4d bc 3e 52 c0 3d b3 8e 9e 3c
       0.061640702 -0.012566285 0.093906865 0.019355154
000030 e6 df d2 bc 7b 82 9d bc ff 9c 49 bd 2e e4 06 bc
       -0.025741529 -0.019227257 -0.04922199 -0.008233113
000040 54 60 bf 3c f4 d8 8e 3b d0 2f ec bc 8a cd 08 3d
       0.023361363 0.004359359 -0.028831393 0.033399142
000050 73 a4 fb 3c 7d 24 37 bb 79 42 48 3d 88 c8 8a 3c
       0.030718064 -0.0027945333 0.04889152 0.016941324
000060 42 8c fc bc b6 0c af 3d 08 51 ce 3b 36 19 85 3d
       -0.030828599 0.08547346 0.006296281 0.06498949
000070 1d 81 03 bd 3b 1b 68 3d 9e b9 b2 3c 90 bc 1b 3d
       -0.032105554 0.056666594 0.021817025 0.038021624
000080 a0 78 11 3d ab 30 af bb 6b 46 2e bd 18 bf 64 bd
       0.035515428 -0.005346378 -0.042547625 -0.055846304
000090 02 e2 15 bc 5a 8e 5b 3d 10 f6 00 3c 65 e0 65 3d
       -0.009148123 0.053602554 0.007871166 0.056122202
0000a0 ac 9d 10 bd e0 05 d4 3c ac 4a ab 3d 37 43 3c bc
       -0.035306618 0.025881708 0.08363852 -0.011490635
0000b0 1e 43 a8 3d b4 85 74 bd 25 21 2a bd 2d 85 d7 bc
       0.082159266 -0.05969782 -0.041535515 -0.02630862
0000c0 64 a7 4f 3d 72 68 bd 3c 4f e5 0e 3c 4e 9f 2d bd
       0.050696746 0.023121092 0.008721664 -0.042388253
0000d0 6e f8 b6 bd ef e8 9a 3c ad 22 f0 3b c8 a1 7e bc
       -0.08934103 0.0189099 0.0073283524 -0.015541501
0000e0 3c 0d d7 bd a1 68 d6 3b 7b eb b0 bd d8 5e 32 bd
       -0.10500571 0.0065432345 -0.08638664 -0.04354748
0000f0 62 53 13 3d e9 3b 6a 3d 64 33 f0 3b 8b 79 ed bc
       0.035968192 0.05718604 0.007330345 -0.02898862
000100 0e c0 1c 3d 7f ec 01 bd 3d 15 1b bc d7 72 ef bc
       0.038269095 -0.03171968 -0.009465513 -0.029229565
000110 73 9e a2 bd b8 c3 cb bd 79 5e 20 3d df a7 9f bd
       -0.07940378 -0.0994944 0.039152596 -0.07795691
000120 ee fb 87 bd 20 e8 8e bd 59 b7 5e bd 63 b3 cb bd
       -0.06639849 -0.06977868 -0.054374073 -0.09946325
000130 6f 9a 3e bc 53 76 6e bd 5e 24 a8 bd 13 59 1b 3c
       -0.0116334995 -0.05821831 -0.082100615 0.009481686
000140 7c d7 07 3c 3a 54 8d bd 1c 4d 9b 3d 50 eb c7 bb
       0.008291122 -0.069008306 0.07583067 -0.0061010495
000150 0e b2 9f 3c db 38 46 bc 84 ac 80 3d 33 d7 1a 3d
       0.019494083 -0.012098516 0.06282905 0.037802886
000160 c0 42 18 3b e9 af d8 bd 46 c4 3b bd 00 28 8c bd
       0.0023233145 -0.10580427 -0.045841478 -0.06843567
000170 e1 66 8f bc 30 46 b1 bc c7 a0 b2 bc 9e b3 ef bb
       -0.017505111 -0.021639913 -0.02180518 -0.007315113
000180 07 3a d8 bd c9 30 95 3c 03 e1 ae bd cd a0 3a bd
       -0.10557943 0.01821174 -0.08539011 -0.045563508
000190 5e 30 ac 3d 6b 0a bf 3d 5d f3 9d 3d e0 02 37 bb
       0.08407663 0.09328159 0.077124335 -0.0027925298
0001a0 5d 74 aa 3a 99 22 29 bc 16 5a a0 3d b3 a1 ac bc
       0.001300465 -0.01032319 0.078296825 -0.021073198
0001b0 c7 1a 23 3c 48 e7 56 bc 38 3e 24 3c f7 06 a2 3d
       0.009955115 -0.013116665 0.0100246 0.07911485
0001c0 40 cc 06 3d 69 1b 16 3d ff 3b d5 3d 9b 26 9b 3d
       0.03290963 0.036647234 0.10411834 0.07575723
0001d0 7a 87 6a 3d 5a 17 00 3e cc 34 d0 3d 96 16 76 bb
       0.057258107 0.12508908 0.1016632 -0.0037550083
0001e0 ce 1f f7 ba 15 e9 87 3c 52 c7 52 3d b7 2a 94 bc
       -0.0018854083 0.016590634 0.051459618 -0.018086774
0001f0 37 9b 9d 3d fb 76 7f 3c 0d 6f 39 3d 64 6d db ba
       0.076956205 0.015592332 0.045271922 -0.0016740975
000200 30 fb 27 bd 94 94 99 bc 9e 40 55 bc f7 40 a8 bd
       -0.041011035 -0.018747605 -0.013015894 -0.08215516
000210 ef d2 0b be e1 8c da bd 26 0b 13 be c1 1f 4b be
       -0.13654684 -0.10671402 -0.14359722 -0.19836332
000220 89 e1 68 bc b7 0c 13 bc d4 e5 12 bd 88 03 51 3c
       -0.014213928 -0.008975199 -0.035863712 0.01275719
000230 f2 f7 f5 bc d7 cb 4b bc ef c0 42 3d 59 f8 28 bc
       -0.030025456 -0.012438736 0.047547277 -0.010313117
000240 3b 4c 6e bd 7d 5d 7b bd b2 a5 a5 3d e4 54 44 bd
       -0.058178168 -0.061368454 0.080882445 -0.04793252
000250 62 fd be 3c 73 81 ff bc d9 18 42 3d c1 8e d3 3b
       0.023314182 -0.031189656 0.047386978 0.0064562266
000260 2d 26 0d 3b e8 8e 98 bc d3 0c 4b 3d 6e c1 31 3d
       0.0021537647 -0.01862283 0.049572777 0.04339736
000270 48 df b3 3c 60 19 14 3d 4f f0 c2 3d 54 f9 38 3c
       0.021957055 0.036157012 0.095184915 0.011289913
000280 87 a0 9a 3d 3b 87 80 3c 88 e8 07 3d 2f d9 f7 bb
       0.075501494 0.015689483 0.033180743 -0.007563732
000290 3e 42 82 bd d6 cd 22 bd f8 c3 5f bd 81 7b bd bd
       -0.06360291 -0.03974708 -0.05463025 -0.09252072
0002a0 08 26 c2 3c 2a f2 bb 3b 34 e8 03 3d 6b 94 43 3d
       0.023699775 0.0057356553 0.032203868 0.047748964
0002b0 88 e8 7c 3d 03 f2 08 bd 88 14 2b bc 74 01 b4 ba
       0.061745197 -0.033433925 -0.010441907 -0.0013733343
0002c0 3c 0c 78 3d e4 4c 8d 3b f5 42 fa 3c ad 11 a3 bd
       0.060558543 0.0043121446 0.030549506 -0.07962356
0002d0 17 87 af bc ab 73 27 bd e0 48 d5 bd d2 41 bb 3a
       -0.02142672 -0.040881794 -0.104142904 0.0014286584
0002e0 a6 97 b5 bc 61 5a 89 3d 56 d6 2e 3d 7d 39 54 bd
       -0.022167038 0.067066915 0.042684875 -0.051812638
0002f0 42 45 05 be 19 c8 da bd 16 f5 3a be 77 f3 4c be
       -0.13014701 -0.10682697 -0.18257555 -0.2001475
000300 1e a2 f0 3a 73 71 09 bd 81 76 b7 bc 53 8d 19 3d
       0.0018358862 -0.03355546 -0.022395374 0.037488293
000310 8c 17 74 3d 89 b8 4b bd 33 bb c2 bc 16 61 1a bd
       0.05959277 -0.049736533 -0.023770904 -0.037690245
000320 36 53 23 bd ed 2c b0 3c d6 92 09 bd d5 84 93 3d
       -0.039874278 0.021505797 -0.0335873 0.0720307
000330 d0 70 86 3d 17 6e 7a bd 38 1a 28 3d 7c 6c 45 3d
       0.06564486 -0.061140146 0.04104063 0.048199162
000340 a9 dc cf bc 1d ff 21 3d 4a bd 47 bd 4b 4b 80 3b
       -0.025373774 0.039549936 -0.048764504 0.0039152256
000350 1a c6 63 bc ea 7d 6e 3d b9 35 83 bd c5 7a 19 bd
       -0.013902212 0.05822555 -0.06406731 -0.037470598
000360 e7 de 4c bd dc 95 1b 3d 85 a1 7a 3d 9a e4 6e bd
       -0.050017264 0.037984714 0.061189193 -0.05832348
000370 da 59 65 bc d2 07 86 3d c1 3f 7f bd e0 4e 8a 3d
       -0.013998473 0.0654446 -0.06231666 0.067533255
000380 a5 81 f1 3c 4d 32 7e 39 55 ff 6e 3d b3 d3 1b 3d
       0.029480765 0.00024242066 0.058348972 0.03804369
000390 73 05 01 bd b2 f3 83 bd 93 49 09 bd 20 1d 5f bd
       -0.031499337 -0.064429656 -0.03351743 -0.054471135
0003a0 18 3a 46 3c f1 c2 69 3d c3 48 14 bd 38 a9 9a bc
       0.012098812 0.057070676 -0.036202203 -0.018879518
0003b0 e6 df 0e bc 33 36 24 bd df ea 81 bd 3c 56 34 bd
       -0.008720374 -0.04009075 -0.06343626 -0.044027552
0003c0 a0 45 83 bd 56 ee 4b 3d c5 b4 06 3c 04 5d 23 bd
       -0.06409764 0.04978784 0.00822181 -0.03988363
0003d0 58 25 60 3d 49 3b 14 bd 33 77 f5 bc 07 46 6e 3c
       0.054723114 -0.03618935 -0.029964065 0.014543063
0003e0 1d 98 54 bd 26 12 61 3d d2 43 8d bd c1 c5 8e bc
       -0.05190288 0.05494895 -0.06897701 -0.01742828
0003f0 4a e6 5f 3c 96 ec 0b bd 3f 99 aa 3c 21 a7 38 ba
       0.013665745 -0.034161173 0.020825027 -0.0007043947

conv3.bias f4 [64]
000000 84 b5 9e 3c 20 da 77 bd 07 1b 0e bd 81 f9 b1 bc
       0.019373663 -0.060510755 -0.034693744 -0.021725418
000010 b7 d8 9b 3c 59 cb 04 3d 91 97 29 bb 0d 65 c4 3b
       0.019024236 0.03242049 -0.0025877694 0.0059934915
000020 b2 bd 88 3c 11 1c c5 3d 6c 41 76 3d 25 72 77 3c
       0.016692016 0.09624494 0.060120985 0.015102898
000030 f3 bc e9 bb 4d 79 0d 3d 69 60 2d 3d 40 10 93 3d
       -0.00713312 0.03453951 0.042328272 0.07180834
000040 d2 3d d4 bb b4 d9 3f bb a6 3d 70 bd e1 11 4e bd
       -0.006477096 -0.0029274048 -0.058652543 -0.05031002
000050 81 50 88 3d e2 74 8f bb d3 43 96 bc 45 e7 79 3d
       0.0665598 -0.004377947 -0.018342888 0.06101157
000060 9f 5e 08 bc 75 50 a7 3d f4 5a 93 3c 97 85 2c bd
       -0.008323341 0.08169643 0.017987706 -0.04211959
000070 a1 5d 90 bc fb 48 d4 3c f7 06 fa bc fd ed 5e 3d
       -0.01762277 0.025913706 -0.0305209 0.054426182
000080 bd 3a 24 bd eb bc 97 3c bd cb ad 3c f2 5f 7a 3d
       -0.04009508 0.0185227 0.021215314 0.061126657
000090 3a c8 de bc ed 2f 66 bc 4a fc 7c 3d 58 5e c1 ba
       -0.027195085 -0.014049512 0.06176404 -0.0014752848
0000a0 80 b6 7a 3c 48 06 81 bd 02 62 73 3c 1d 66 85 3c
       0.0153023 -0.06300026 0.01485491 0.016284043
0000b0 c7 4a 14 3d a6 7e 26 bd d9 32 d3 3c 2c 39 b3 3d
       0.036204126 -0.040648125 0.025781082 0.08751139
0000c0 f5 c6 67 3d 5d 04 bd bb f8 23 a7 3d f1 ea c1 3d
       0.056586225 -0.0057683424 0.08161157 0.0946864
0000d0 fa fe 70 3d b8 db ab 3d 4a a3 53 3b 67 15 bc 3d
       0.058836915 0.083915174 0.0032293373 0.0918377
0000e0 f9 5f 03 3d 14 e7 81 bd 77 fc 9f bb 49 46 b2 3c
       0.03207395 -0.06342903 -0.004882391 0.02176203
0000f0 fe 50 b0 3d 18 ab bc bc 97 e9 9c 3c 4a d9 3f bd
       0.08609198 -0.023030803 0.019154353 -0.046838082

dense4.weight f4 [128, 576]
000000 16 66 ba bc 60 24 46 bc 2b 5d e2 3a 60 c6 d1 3c
       -0.022753756 -0.012093633 0.0017270198 0.025607288
000010 7c 5d 16 3d 88 05 c1 bc 40 53 8e bb 5c b9 03 3d
       0.036710247 -0.023562208 -0.0043434203 0.032159194
000020 0c d1 25 3d 26 45 7a bc f8 7a 1e bd 0e a5 8e bc
       0.040482566 -0.015275275 -0.03869149 -0.017412689
000030 fb fb f2 bc 12 f0 09 bd 6b 1b 22 bc a6 72 28 3d
       -0.02966117 -0.033676215 -0.009894232 0.041124962
000040 eb bb 05 bb d0 8e 35 bc e0 88 92 bb 4b c9 ff 3c
       -0.0020406197 -0.011081412 -0.004471883 0.031223914
000050 76 4b c8 3c 56 c1 98 3c 24 cb 20 bd b6 58 dc bb
       0.024450045 0.018646877 -0.03925623 -0.0067244424
000060 2b 3b 9d bc 80 e6 e4 3c 6e 3b df 3c 00 34 dd bc
       -0.019193253 0.027941942 0.027250018 -0.027002335
000070 ab e5 93 bc c0 20 07 bb 83 db 14 3d ab 2f 34 bb
       -0.01805385 -0.0020618886 0.036342155 -0.0027494233
000080 4e 52 f7 3c 80 62 98 bb 70 55 55 bc 3b e4 98 bc
       0.030190613 -0.004650414 -0.013020858 -0.018663516
000090 ce 4e e7 3c f3 83 af 3c 4e 85 e8 bc e3 a1 ef bc
       0.02823582 0.021425223 -0.028383877 -0.029251998
0000a0 e7 47 15 3d b2 e9 07 3d 73 d4 f8 bc a8 10 fe bc
       0.036445525 0.033181854 -0.030374741 -0.031013802
0000b0 6b 72 c8 3c 06 35 97 bc 8e 4c 83 bc 8e 23 1f bd
       0.024468621 -0.0184579 -0.016027715 -0.038852267
0000c0 6b 52 99 3b 2f e7 06 3d 16 48 80 bb e6 d1 b5 bc
       0.0046790144 0.032935318 -0.0039148433 -0.022194814
0000d0 50 af c6 bc 9b 0b 09 3c 70 0d a4 bc af ed 19 3d
       -0.024253517 0.008364583 -0.020025939 0.03758019
0000e0 5b 11 df bc 4e 3d e5 bc 6f c5 00 bd e3 cb fa bc
       -0.027229955 -0.027983334 -0.031438287 -0.030614799
0000f0 60 84 7d 3c 1b 4b 28 3d 60 7f 91 3b ae 30 90 bc
       0.015473455 0.04108725 0.004440233 -0.017601337
000100 70 61 32 bc 6e cc be 3c de 13 88 3c f0 2f 07 bc
       -0.010887489 0.023290839 0.016611036 -0.008251175
000110 98 c2 b3 bc fb 41 9e bc 5b f7 0b 3c c8 5e ae bc
       -0.021943375 -0.019318571 0.008542861 -0.02128543
000120 e7 4d 18 bd 14 ae 0e 3d 23 99 cc bc 2b c7 4e 3b
       -0.03718367 0.034833983 -0.024975365 0.0031551819
000130 b8 33 c3 bc bb 55 1f 3c c0 8a ad 3c ab 4f b3 3b
       -0.023828372 0.00972503 0.021184325 0.0054721436
000140 cb 95 cd bc a6 0d ba bc 30 0c 01 bc db d7 6b bc
       -0.02509584 -0.022711586 -0.007876441 -0.014394726
000150 73 4e b5 bc 37 28 22 bd f6 66 21 bd 17 99 25 bd
       -0.022132134 -0.039589133 -0.03940483 -0.0404292
000160 58 6a e9 bc 73 5d d4 3c d6 8e 85 ba eb 1e f1 bc
       -0.028493091 0.025923466 -0.0010189663 -0.029433688
000170 36 a1 6e bc 86 bf 48 3c b6 2e c3 bc 9b e8 aa 3c
       -0.014564803 0.012252694 -0.023825984 0.020862868
000180 a0 3c c2 bb eb d0 da 3c e6 e4 31 3c 7c 9b 1a bd
       -0.005927637 0.026710948 0.010857796 -0.037745938
000190 33 e4 8b 3c 4b 04 9a bc 46 66 91 3c 86 34 11 bd
       0.017076587 -0.018800875 0.017748963 -0.03545048
0001a0 80 07 3d bc ae 21 11 bd a0 e3 9d 3c 0b 1d bb 3c
       -0.011537433 -0.03543251 0.01927358 0.022840997
0001b0 23 9e a9 bc d2 db 27 bd 16 00 91 bb 36 7f d2 bb
       -0.020705288 -0.04098112 -0.004425059 -0.006423856
0001c0 56 87 d1 39 b6 48 df bc ac e3 21 3d d3 a3 e0 bc
       0.0003996442 -0.027256351 0.039523765 -0.027421867
0001d0 db 66 d6 bc 56 b6 3e bc e0 4f fc bc f0 cd 23 bc
       -0.026172092 -0.011640152 -0.030799806 -0.00999783
0001e0 be 0b d1 bc b0 ea 06 bc 6e b5 01 bd 4b 3e 49 3c
       -0.025518294 -0.008234665 -0.031667165 0.012282918
0001f0 bb 0c 64 bc be ad 13 bd 76 98 00 3d e8 bb e3 bc
       -0.013919051 -0.036054365 0.031395398 -0.027799562
000200 98 44 25 bd f6 2a 32 bc 80 55 e6 3a 46 34 1b bd
       -0.04034862 -0.0108745005 0.0017573088 -0.03789165
000210 de 9f 25 bd f0 44 0d 3d b8 e4 ad 3c 6b 32 5f 3b
       -0.040435664 0.034489572 0.021227226 0.003405715
000220 53 53 1b bd d0 c7 35 3c 8b 2e 6c 3c b8 b0 b7 3c
       -0.03792126 0.011095002 0.014415394 0.022423133
000230 2b e3 e3 3c 6b 83 8c 3c c4 f9 0c 3d 3a be 15 bd
       0.027818283 0.017152509 0.034417883 -0.036558367
000240 6b 06 3a 3b 3a b0 02 bd 40 d9 44 bc 66 e0 32 bc
       0.0028385173 -0.031906344 -0.012014687 -0.010917759
000250 b3 1b 1e bd 9b 85 a6 3c b8 3f 91 bc 9b f4 57 3c
       -0.038600635 0.02032738 -0.017730579 0.013180877
000260 9c 41 00 3d 56 ee 7c 3b 6c 1a 08 bd 12 51 19 bd
       0.03131257 0.0038594208 -0.033228323 -0.03743083
000270 e8 29 d5 bc b3 8b e7 bc 02 d6 00 bd 66 93 29 3c
       -0.026020959 -0.028264856 -0.031454094 0.010350084
000280 10 4f 54 bc 2b bb 03 bc e3 27 06 bd ab 28 84 bb
       -0.012958303 -0.00804023 -0.032752883 -0.0040331683
000290 d6 87 6a bc 1b cb 79 3c de 7c c8 bc eb 17 86 3b
       -0.014314612 0.015246178 -0.024473604 0.0040922067
0002a0 e8 74 aa bc b3 67 a6 bc eb 14 d7 3b 88 82 b4 3c
       -0.020807698 -0.02031312 0.006563773 0.022034898
0002b0 2b 86 c2 bb 03 06 09 bd ec 12 10 3d eb 0a 52 bc
       -0.005936404 -0.033453 0.035174295 -0.012819986
0002c0 a6 20 a0 3c d6 40 90 bc a0 61 d0 bc 00 2c de 3a
       0.019546818 -0.017609041 -0.025437176 0.0016950369
0002d0 20 37 8f bb 96 44 80 bb 90 fd c8 3c ab fd b4 3c
       -0.004370585 -0.003914426 0.02453497 0.022093615
0002e0 cb 0c 71 bc 00 f1 7d ba 76 d6 91 3c 4b 07 7c bc
       -0.014712523 -0.0009687096 0.017802458 -0.015382598
0002f0 16 9e ef bb 48 a1 ff bc ab 0f 15 bc eb 41 e3 bb
       -0.0073125465 -0.031204835 -0.009097974 -0.0069353483
000300 d6 7d e2 bb 4a 69 1c bd b3 28 17 bd d6 2e 4a bc
       -0.0069119735 -0.03818635 -0.03690405 -0.012340268
000310 fe 68 9b bc 70 9f 1a 3d 00 a3 5f 3c 43 03 b0 bc
       -0.018970963 0.037749708 0.013649702 -0.02148593
000320 86 36 ba bc 86 6a 15 bd 00 a7 ff 3a 0e 22 e6 3c
       -0.022731077 -0.03647854 0.0019504726 0.02809241
000330 e6 26 03 3d 7a 66 14 3d 16 8f ee 3b 34 a7 0e bd
       0.03201952 0.03623054 0.0072802408 -0.034827426
000340 40 25 07 3c 76 a1 b6 bc 5c 3d 14 bd 13 f5 9a 3c
       0.008248627 -0.022293787 -0.03619133 0.018915689
000350 56 f7 54 bc 33 95 a2 3c 96 1d b5 bc 56 4f 66 bb
       -0.012998423 0.019846534 -0.022108834 -0.0035142503
000360 2f f3 02 3d e0 44 53 3c 6b 00 5e bc eb bb de bc
       0.0319702 0.012894839 -0.013549904 -0.027189216
000370 43 a6 19 3d 53 df 82 bc a6 93 e3 bc 56 c7 df 39
       0.037512075 -0.01597563 -0.027780365 0.0004268239
000380 34 5a 00 bd c7 00 0c bd c6 db 51 3c 76 c1 cf bc
       -0.031336024 -0.03418043 0.012808746 -0.025360804
000390 76 0a 95 bb 40 48 f2 bb fc c4 10 bd e3 97 95 bc
       -0.004548366 -0.007393867 -0.03534411 -0.018260902
0003a0 c0 fa 44 3c 46 86 a5 bc 50 dd 33 3c c0 d4 2a bb
       0.012022674 -0.020205628 0.010978058 -0.002606675
0003b0 db e8 53 3c d6 2e bc 3b cb 75 10 bd d6 fc 57 3c
       0.012933935 0.005742888 -0.035268586 0.013182839
0003c0 20 67 83 3b 8b d6 df 3b 5c 05 1e 3d 12 a5 1d bd
       0.004010096 0.0068309954 0.03857933 -0.0384875
0003d0 33 ec e3 3c e4 70 09 bd df 4c 0b bd 00 3b c8 3c
       0.02782259 -0.033554927 -0.034008857 0.024442196
0003e0 3b 6b 46 3c 56 12 b8 bb bb 9a 77 bc 40 18 4e 3c
       0.012110527 -0.00561742 -0.015112574 0.012579024
0003f0 6c 0c 1c bd 56 35 c8 b7 fe 66 29 3d f7 75 19 bd
       -0.038097784 -2.3866694e-05 0.041357987 -0.037466016

dense4.bias f4 [128]
000000 40 fe 45 3b d6 9c da 3c 5d 55 11 bd 46 00 09 bd
       0.003021136 0.026686113 -0.0354818 -0.033447526
000010 83 90 29 3d 1b 13 ff 3d 40 de 94 b6 58 57 33 3d
       0.041397583 0.12454816 -4.436617e-06 0.04378447
000020 54 6d 8f ba f0 1a a4 3d 5c 9f 76 bc 21 83 2b 3c
       -0.0010942616 0.080129504 -0.015052643 0.010468275
000030 87 d6 64 3c 33 82 79 3d 55 a5 cb 3b 9f 6b 67 3b
       0.013967163 0.060915183 0.0062147775 0.003531195
000040 bf ad 0a 3d 6c a7 d9 3c 64 e1 50 bd d4 5f c6 3c
       0.033857103 0.02656909 -0.0509962 0.024215616
000050 c4 47 e6 3c b9 c7 c0 bc 59 b4 1c 3d 60 9b 04 3d
       0.028110392 -0.023532735 0.03825793 0.03237474
000060 f3 87 c4 3d c2 76 e3 3d 75 85 71 3d bc f9 90 3d
       0.09596243 0.11106636 0.058965165 0.07078883
000070 1b af 02 3d 31 04 3e bc da dd c4 bc e2 48 b4 3c
       0.031905275 -0.011597679 -0.024031568 0.02200741
000080 c6 86 12 3d a8 46 a7 3d 69 87 c4 3c ce 8a 0e bd
       0.03577306 0.081677735 0.02399035 -0.034800343
000090 ba 17 4f bd 30 a5 c2 bc ce a5 d6 3c 72 91 b3 3b
       -0.050559737 -0.023760408 0.026202109 0.005479985
0000a0 94 ba 31 bc e7 12 f0 bb a2 84 1c 3d 34 e4 5b 3d
       -0.010847706 -0.007326472 0.038212426 0.05368443
0000b0 4b cc 13 3d 7c 3c 85 bd 26 c2 c9 bc 18 42 bf 3c
       0.0360835 -0.06505677 -0.02462871 0.023346946
0000c0 e3 69 57 bc ab 42 94 3c 41 b4 fa bc 3f 7b 29 bd
       -0.013147804 0.018098196 -0.03060353 -0.041377302
0000d0 f6 a1 06 3d 68 11 b5 3c 95 60 95 bc f7 33 27 bc
       0.0328693 0.022103027 -0.01823453 -0.0102052605
0000e0 ae 87 ac 3c b9 ae ab 3c 31 36 cd 3d b9 cd 75 3c
       0.02106079 0.020957338 0.10020102 0.015002661
0000f0 a9 82 48 3b 7f 0c a5 bc 79 af 97 3d aa 05 14 bc
       0.0030595458 -0.02014756 0.07406516 -0.009034554
000100 3a 90 48 bd 9c 5a b0 3c 31 e7 e8 3a c8 e9 36 bd
       -0.04896567 0.02152758 0.0017769096 -0.044656545
000110 4b 23 ea bc 6b ea 9f bc ff 38 1b 3c 6b 7a 62 bd
       -0.028581282 -0.019520959 0.009474038 -0.055292528
000120 7b 93 8c bc 47 4d 41 3d 42 70 1c 3e 0a 7f 9b ba
       -0.017160168 0.047192838 0.15277198 -0.0011863422
000130 bc 39 1e bc f9 35 d2 bc f0 79 bf 3d 7b de 84 ba
       -0.00965732 -0.025660502 0.093494296 -0.0010137105
000140 d6 e3 7d bc e0 88 3c bc 99 63 45 bd 33 89 27 bd
       -0.015496215 -0.011507243 -0.048190687 -0.040902328
000150 d6 aa 05 bd 3c 5a 37 bc 0d 4a ed 3c 7d 76 7e 3c
       -0.032633625 -0.011190947 0.028965974 0.0155311795
000160 67 30 50 3b 36 6d a0 bb 3b 38 9c bc 2b e8 1e bd
       0.0031767131 -0.0048958315 -0.019069782 -0.03879563
000170 7b 13 d7 3d 58 87 59 bd 61 0f 1a bd f2 f9 de bc
       0.105017625 -0.05310759 -0.037612323 -0.027218793
000180 4d 8c 79 3c 53 74 f1 bb 43 8b 50 bd 13 6d 6d 3c
       0.015231204 -0.0073686033 -0.05091406 0.014491337
000190 ce 47 38 bd 1e f1 8b 3c 8b 79 33 bd 91 28 d3 bb
       -0.044990353 0.017082747 -0.043817084 -0.006444045
0001a0 fe f6 c6 bb de ae 4d 3d bd 6b c6 3b 2b bb ed 3a
       -0.006071924 0.050215594 0.006055324 0.0018137445
0001b0 29 1b 2b 3d cd 28 f4 bb 0a 81 1f 3d b8 ad 9e 3c
       0.04177395 -0.007451153 0.03894142 0.019369945
0001c0 7a 43 28 3c 5f a9 8c 3c a9 5c 80 3c d9 a2 29 3d
       0.010269994 0.017170606 0.015669184 0.04141507
0001d0 fb c0 78 3d a0 37 51 3b f8 39 5e 3d b5 09 5b 3c
       0.060730916 0.0031924024 0.054254502 0.013369014
0001e0 21 22 c1 3c e5 ac f2 3c 9a 43 19 3d 0f b9 ff bc
       0.023575844 0.029623458 0.037417985 -0.031216173
0001f0 d6 b8 36 bc 20 17 08 bc d8 bb 41 bc c4 b3 c5 3c
       -0.011152467 -0.008306295 -0.011824571 0.02413357

dense5_1.weight f4 [2, 128]
000000 e9 17 78 3d 0e 89 c7 3d cf fd 4c be a7 9a 10 bd
       0.060569678 0.09742938 -0.20018695 -0.035303738
000010 80 5a 6b 3e 2d 3b d1 bd 8b fd 59 3d 34 a5 43 3e
       0.22983742 -0.10216365 0.053220313 0.19105989
000020 cb 9e 5d 3e 89 08 d4 bc 80 95 86 3e 37 be fd bc
       0.21642606 -0.025882976 0.26285934 -0.03097449
000030 eb dd 0e be 91 01 1d 3d 22 f2 f9 bc e2 cc c0 b8
       -0.13951842 0.038331572 -0.030510966 -9.193436e-05
000040 42 1b 5a 3e 15 83 bb 3c d8 94 6c be df 53 f6 bd
       0.2129946 0.022889653 -0.23103654 -0.12027716
000050 6e 72 00 bc 79 23 97 3e 4e 11 84 3d f8 8c 55 be
       -0.007839782 0.2951925 0.06448613 -0.20854557
000060 06 0e 21 3e ad 63 28 be 97 22 39 3e 6e bb 82 3d
       0.15728006 -0.16444273 0.18079601 0.063834056
000070 01 7c 6c 3e 13 2d 07 bd da 5e 08 bd 3c 34 0d be
       0.23094179 -0.03300197 -0.033293582 -0.13789457
000080 00 ce b1 bd 07 1c 13 3e 49 da 56 be ab 62 42 be
       -0.086818695 0.1436616 -0.20981707 -0.18982951
000090 66 30 30 be 35 56 95 3e 7e 68 bf 3e 3f 74 c2 3e
       -0.17205963 0.29167333 0.3738441 0.37979314
0000a0 13 06 b3 bd 61 d2 a7 bd a2 79 14 3e 32 0c 4b be
       -0.08741393 -0.081944235 0.14499524 -0.19828871
0000b0 6b 3d 7f be dd 76 65 be ee f2 81 3e b5 b3 38 3e
       -0.24925773 -0.22408624 0.25380653 0.18037303
0000c0 b3 61 1d bd 69 00 31 be fd 0e 55 3e 37 13 88 3e
       -0.03842325 -0.17285313 0.20806499 0.2657716
0000d0 c6 60 ea bb 97 25 3b be 6f 96 85 bd af d3 25 be
       -0.0071526496 -0.18276058 -0.065228336 -0.16194032
0000e0 34 5d 4b 3d 0b 15 44 be 53 49 59 3d 72 7f f9 bd
       0.049649432 -0.19148652 0.053048443 -0.121825114
0000f0 d6 09 71 be 05 ed 90 3e f3 92 4a be 26 b1 03 3e
       -0.23538908 0.28305832 -0.19782619 0.12860546
000100 7d 88 23 be 7d 0f 6a 3e e6 34 b6 3e ac 29 da 3e
       -0.15970035 0.22857471 0.35587233 0.42609918
000110 84 82 a6 bb 6c 20 8e bd 32 3b 97 3e 02 61 53 bd
       -0.0050814766 -0.06939778 0.2953735 -0.051606186
000120 82 c2 95 bd c9 b9 ab 3e 12 60 fd b8 00 f5 b2 bd
       -0.0731249 0.3354018 -0.000120818746 -0.08738136
000130 15 66 4b 3d ce db e2 3d 94 bc 15 be 7a 2f 74 3e
       0.0496579 0.11077081 -0.14622718 0.23846236
000140 0d c7 b3 bd 89 18 83 3e 9b 8c 56 3e 66 c3 a2 bd
       -0.087782 0.25604656 0.20952074 -0.079474255
000150 2a 80 d3 3e fe af 21 be 26 35 4e be 57 e8 4b be
       0.4130872 -0.15789792 -0.20137462 -0.1991285
000160 88 ff 76 3e d6 29 cf bc 4f b5 e6 bd e2 3f 49 be
       0.24120915 -0.025288504 -0.112650506 -0.19653276
000170 e8 54 91 bc 32 80 69 3e 06 6f 83 3d 22 74 68 3e
       -0.017740682 0.22802809 0.064176604 0.22700551
000180 ee d9 bc 3e d9 a8 99 3e f8 e2 12 be 2f ed 46 be
       0.36885017 0.30011633 -0.14344394 -0.19426416
000190 4b ef b1 bc be d6 a2 bd 8a ff a7 3d 09 80 0b bd
       -0.02172055 -0.07951115 0.08203037 -0.03405765
0001a0 e1 7e 52 3c 0d 7c 46 be 2e ff 9d bd 3c b9 fd 3d
       0.012847633 -0.19383259 -0.07714687 0.12388846
0001b0 8f ab 83 3e 19 eb 82 3e 80 5d 83 3e 3b 9f 4d be
       0.25716826 0.2556999 0.25657272 -0.20080273
0001c0 df 99 12 be 47 3f 15 3e 56 24 c4 be 96 4e 44 3e
       -0.1431651 0.1457492 -0.38308972 0.19170603
0001d0 9a f9 2d be 9c 1b 2e 3e e1 62 3e 3e cc 52 a5 bd
       -0.16989747 0.1700272 0.18592407 -0.08072433
0001e0 e1 41 a2 bd 6b 60 75 be 36 d9 88 3e 6a 43 8e be
       -0.07922722 -0.23962562 0.2672822 -0.27785808
0001f0 53 98 80 3e e6 f4 ad 3d 6a 7d fa bd 8b 2f f3 bd
       0.25116214 0.08493976 -0.12230952 -0.118743025
000200 95 9f 25 bc 9c c7 37 be 09 c7 4a 3e 48 17 61 3c
       -0.010108848 -0.17947239 0.19802488 0.013738461
000210 f1 5f 8a be 6a c2 53 3d 98 d8 77 bd b4 8f 84 be
       -0.27026322 0.05169908 -0.060509294 -0.25890887
000220 13 a3 25 be df 01 bb bd be e6 82 be ce 47 0e bb
       -0.16175489 -0.09131216 -0.25566667 -0.002171028
000230 72 1e 57 3e fa 8b 0d be da de 57 3d 43 f5 2e 3c
       0.21007708 -0.13822928 0.052702762 0.010678592
000240 80 a1 21 be 24 8f a3 bd 25 3d ba 3d f0 18 12 3e
       -0.15784264 -0.07986286 0.09093694 0.14267325
000250 68 93 33 3d 7b 98 9e be d2 ad 02 be 73 be 57 3e
       0.04384175 -0.30975708 -0.1276162 0.21068744
000260 8d 69 f3 bd 28 0b 25 3d 81 fe 86 be 7d 99 4c be
       -0.118853666 0.040293843 -0.26366046 -0.19980426
000270 3b b3 19 be 08 dc 13 bd 58 06 17 3d 1f 32 5e 3e
       -0.15009777 -0.03609851 0.036871284 0.21698807
000280 6c 14 5b bc 4f 14 17 be 53 82 a2 3d 3c 69 63 3e
       -0.013371568 -0.14753841 0.079350136 0.22208112
000290 d3 6e 36 3e fb 80 91 be d2 b2 ac be 08 eb 94 be
       0.17815714 -0.28418717 -0.3373018 -0.29085565
0002a0 88 a1 b0 bb f0 cc 57 bc f6 2e 63 be ef 22 14 3e
       -0.00539035 -0.0131714195 -0.22185883 0.14466451
0002b0 b1 b5 80 3e ba 58 8c 3d 36 a6 46 be ea 05 de bd
       0.2513862 0.06852861 -0.19399342 -0.10840972
0002c0 0e 71 13 3d a4 ad 42 3e 1c 8f 07 be 67 6d 33 be
       0.03599649 0.19011551 -0.13238186 -0.17522202
0002d0 f4 65 db 3c e1 68 4b 3e fa d3 ae bb ed fd 5f 3e
       0.026782013 0.19864227 -0.005335328 0.21874209
0002e0 2f f7 cb 3c 1b a7 5c 3e 04 f6 e6 bd 7e 14 23 3d
       0.02489814 0.2154812 -0.112773925 0.039814465
0002f0 ac b0 72 3e dd ae 98 be 3a 3f 8f 3d b0 46 7f be
       0.23700207 -0.2982091 0.069944814 -0.24929309
000300 04 93 30 3e 35 7d ed bd bf 67 b9 be 7c 50 c1 be
       0.17243582 -0.11596147 -0.36211964 -0.37756717
000310 67 f3 e7 3c 0a c6 ac 3d 73 c4 60 be a0 41 92 3d
       0.028314305 0.084362105 -0.2194994 0.07141423
000320 2a bd 9b 3d 06 c6 b5 be b0 9f e3 3d 35 04 be 3d
       0.076044396 -0.35502642 0.11114442 0.09278146
000330 cd 89 8d 3d d4 bc 2f be cb 72 04 3e 0a 9c 7e be
       0.06911049 -0.17161876 0.12934415 -0.24864212
000340 65 f2 15 bd bc 81 b7 bd d6 af 8b be d3 a5 4f bd
       -0.03660812 -0.08960292 -0.2728259 -0.05069525
000350 b7 5c a8 be d4 0d 0e 3e bc 75 49 3e f9 20 5d 3e
       -0.32883236 0.13872463 0.19673818 0.2159461
000360 a8 b4 53 be 5a 76 72 bd cf 41 0f 3e 33 33 a0 3e
       -0.20674384 -0.0591949 0.13989948 0.31289062
000370 82 58 59 bd 61 a4 88 be 4a ce 51 bb 11 c7 37 be
       -0.053062923 -0.2668791 -0.0032013827 -0.17947032
000380 a0 f5 9a be d9 b7 42 be 4a 28 ec 3d 5f 52 44 3e
       -0.30265522 -0.19015445 0.11531122 0.19172047
000390 9b 49 74 3d 69 cf 89 bd d3 b9 77 bd 7c 87 32 bc
       0.05964051 -0.067290135 -0.06047995 -0.01089656
0003a0 ee 7e 5f 3c ad b6 5a 3e e1 da 4c 3c ba 7c 16 be
       0.013641102 0.21358748 0.012503357 -0.14696017
0003b0 f1 10 96 be 22 c8 8a be fd 2e 8a be df 99 52 3e
       -0.293098 -0.27105814 -0.26988974 0.2056651
0003c0 59 d6 ec 3d ed 2a 53 be 32 e8 c8 3e 4a cc 5f be
       0.11564321 -0.20621844 0.3923965 -0.21855274
0003d0 22 2c 1a 3e e6 fc 8c be 6e 11 7b be 54 84 a4 bd
       0.15055898 -0.27536696 -0.24518368 -0.08033052
0003e0 06 13 2c 3d 95 c0 52 3e 41 cc b9 be c8 e1 0b 3e
       0.04201033 0.20581277 -0.36288646 0.13660347
0003f0 7e 51 19 be 15 4c a8 bc 3b 7b 81 3e 66 1e 0f 3e
       -0.14972493 -0.020544091 0.2528933 0.1397644

dense5_1.bias f4 [2]
000000 b7 a5 ab bd f2 c8 78 ba
       -0.08381217 -0.00094903924

dense5_2.weight f4 [4, 128]
000000 17 d7 03 3b 85 f2 cf 3d 61 2f 97 bd 04 df 84 bb
       0.0020117217 0.10153679 -0.07382084 -0.004054906
000010 10 74 8b 3d 2d eb 5b 3d 04 2a ab bc 2f 9f a6 3d
       0.068092465 0.053691078 -0.020894058 0.081358306
000020 92 fe 98 bc 57 71 fb bc 43 5a ad bd 91 2b 08 3d
       -0.018676076 -0.030693693 -0.08464482 0.033244673
000030 20 dd c3 3c a8 67 16 bd 74 c7 3f be b1 db 3d 39
       0.023909152 -0.036719948 -0.18728429 0.00018106286
000040 d1 40 e4 3d aa a1 b0 bd b8 75 b8 3b ff de c4 bc
       0.11145175 -0.08624585 0.0056292675 -0.024032114
000050 f7 a8 87 3d fb fa ae 3c 7f 0e e9 bd cc f3 00 3d
       0.06624024 0.021359911 -0.11379718 0.031482503
000060 b7 dd 44 3d bd 0f 94 3d ea ad 90 3d f4 09 56 3d
       0.048063006 0.07229564 0.070644215 0.052255586
000070 ba 67 4a 3d f2 c0 49 3d 47 e0 84 bc c0 90 a7 bd
       0.049415328 0.049256273 -0.016220225 -0.08181906
000080 d8 16 b1 bc 04 d0 90 3c f7 82 5c 3b 32 65 94 bd
       -0.021617338 0.017677315 0.0033647397 -0.07245864
000090 ad ec c6 bc 73 24 58 bd b2 d3 eb bc 15 95 a3 3d
       -0.024282778 -0.052769136 -0.028787468 0.079874195
0000a0 0d 4b 26 bd 29 b2 94 3d cb 2a 61 3d d8 1e bf 3d
       -0.040598918 0.07260544 0.05497245 0.09332055
0000b0 db ba b7 3d 9f 6b 91 bd 6f 91 5e bd 1a 14 6b 3d
       0.08971187 -0.07100605 -0.054337915 0.057392217
0000c0 73 3f 18 bc 15 a8 ab 3d c1 17 f8 bd b3 45 02 3d
       -0.009292471 0.083816685 -0.12113906 0.03180475
0000d0 4a 8a 14 bd d8 bb ac 3d fe 87 ac bd f8 cd 5f bd
       -0.036264695 0.08434266 -0.08424376 -0.054639786
0000e0 d6 c3 ee bc a3 8e 90 bd d3 19 81 bd 8e e9 11 3e
       -0.029146116 -0.07058456 -0.06303754 0.1424925
0000f0 9a 86 7e 3d 5f ae ce 3d ce 14 d7 bd af 11 00 bd
       0.062140085 0.100918524 -0.10502015 -0.031266864
000100 44 16 b2 bd e2 b2 1c 3d 6c b9 47 3c c4 4d 94 3d
       -0.08695653 0.038256533 0.012190204 0.07241395
000110 e6 11 bd 3b 7a 89 2b bd 3c d7 b0 bd 90 fd f1 bd
       0.005769956 -0.041879155 -0.08634803 -0.11815941
000120 c4 0c ed bc e9 e0 37 bd a2 c4 d5 3d 3e fe b8 bd
       -0.028936751 -0.044892225 0.10437895 -0.09032868
000130 f9 e2 0a bd d2 8f bd bc e1 b4 ba 3d ef 56 cb bd
       -0.033907864 -0.023139868 0.09116531 -0.09928691
000140 28 87 20 3d ba 69 ba bd a5 41 48 bc 84 a0 b2 bd
       0.039191395 -0.09102197 -0.012222682 -0.08722022
000150 db e1 3c 3d f0 75 53 3d 4d 05 57 3d d7 5e 12 bd
       0.04611383 0.051626146 0.05249529 -0.035734978
000160 b3 d3 fa 3d 76 3d 47 bd 62 ee 74 bd ef 1a 3f be
       0.1224741 -0.048642598 -0.059797652 -0.18662618
000170 95 42 10 be 52 bd 58 bd ce a7 dd bd 7d e3 45 bd
       -0.14087899 -0.052914925 -0.10823022 -0.048312653
000180 a0 be 00 bd 38 78 7e 3d a9 ea 53 bd 3a 79 67 bb
       -0.031431794 0.06212637 -0.05173746 -0.003532006
000190 a4 40 e9 3c 8d 38 7d bd 53 7c 92 3e ec b2 97 bd
       0.028473206 -0.06182151 0.28610477 -0.074071735
0001a0 47 8a 8b bd dc 75 d4 bd d5 c2 a4 3e 9d d0 86 be
       -0.06813484 -0.103740424 0.32179895 -0.26331034
0001b0 2d 19 f2 bc c1 7e a3 bd 1a 28 8d 3b f9 26 89 3d
       -0.02955302 -0.07983161 0.004307759 0.066968866
0001c0 09 c3 b8 bd fc 28 e2 bd f6 89 3d 3d 88 bf b2 bd
       -0.09021575 -0.110429734 0.046274148 -0.08727938
0001d0 34 bb 4a 3d de 20 8f 3d de b4 70 bb 1c 9d 02 bd
       0.049494937 0.06988691 -0.00367289 -0.031888112
0001e0 e4 e9 ac bc ab c8 c9 bc 4d 0b b6 bd f2 10 78 3b
       -0.021107621 -0.024631819 -0.08888874 0.0037851897
0001f0 92 9d ea 3d cb 75 8c bb 78 ae 23 bd 2f a2 20 3d
       0.114558354 -0.004286503 -0.03996131 0.03921717
000200 e9 90 79 bd 18 1a a7 3d 48 5f 4c 3d 47 5b 71 bd
       -0.060929213 0.08159274 0.049895555 -0.05892494
000210 e0 88 c9 bd f8 9d 84 bd 1b ab 77 bd c4 d9 e6 3d
       -0.0984056 -0.06475443 -0.060465913 0.11272004
000220 06 3c fd 3c c8 75 74 bd 9f 33 00 3e 64 d8 a3 bd
       0.03091241 -0.059682637 0.12519692 -0.080002576
000230 6e 24 18 bd ea 3d 9e bb 4b 1f d8 be fe 63 d2 3c
       -0.037144117 -0.004829158 -0.42211375 0.025682446
000240 d5 77 e6 bc a3 10 e4 bd 6a 50 30 bc 23 23 c8 bd
       -0.028133312 -0.11135986 -0.01076136 -0.09772327
000250 a9 fb 3c bd 38 dc ac 3c 7e 5a b4 3d 56 d9 b3 bd
       -0.04613844 0.021101102 0.088063225 -0.08781688
000260 1d 70 bd bd ff 07 cd 3d ab 42 dd bd 57 43 d4 bd
       -0.092498995 0.10011291 -0.108037315 -0.103644066
000270 65 1b 80 bd a2 c9 32 bd c8 bc 0a 3d a7 04 97 3d
       -0.06255225 -0.043649323 0.033871442 0.07373934
000280 78 c0 90 bd 5e 56 01 3e 06 93 e8 bc ed 0f 8e 3d
       -0.070679605 0.12630603 -0.028390419 0.06936631
000290 27 93 d7 bc b9 fb d9 3c c6 eb dc 3d d5 b9 4d 3e
       -0.026315285 0.026609289 0.10787158 0.2009042
0002a0 69 64 2e 3d ad 3d a1 3d 2c e4 d7 3d 7c c0 39 bd
       0.042576227 0.07873092 0.10541567 -0.045349583
0002b0 c1 80 83 3d 3b 53 ca 3c 0e 7d 0d 38 97 2e 76 3d
       0.06421042 0.02469789 3.3733486e-05 0.060103025
0002c0 8e 7c 62 3d 99 74 f2 bc 7a 3f f3 bd ed 57 28 3e
       0.055294566 -0.029596614 -0.118773416 0.16439791
0002d0 ed ff 51 bd ca 5c 90 3d 72 01 15 3d e2 dd 50 bc
       -0.05126946 0.07048948 0.03637833 -0.0127482135
0002e0 49 89 eb 3a 76 0f 21 bd c4 31 fc 3d 83 37 0b 3d
       0.0017969991 -0.039321385 0.123141795 0.033988487
0002f0 7e f5 97 bd 24 4c 9e bd dc 8d db 3d 72 e3 d3 bd
       -0.07419871 -0.077293664 0.10720417 -0.10346116
000300 0f 97 48 bd 04 7d f3 bd 71 d6 a7 bd 3a cb 34 3c
       -0.048972186 -0.11889079 -0.08195198 0.011034781
000310 db 0f 95 bc d5 5a 7d bd b4 1a 3e be 55 e9 60 be
       -0.018196037 -0.061854202 -0.18564874 -0.21964009
000320 16 12 50 bd 8a f6 bf 39 fd 98 e1 3b 7a 16 3a be
       -0.050798498 0.00036614045 0.0068846927 -0.18172637
000330 80 dc ae bc 1f 55 8f 3d 0e 13 0a bd d9 cd 76 bd
       -0.021345377 0.069986574 -0.03370958 -0.060254905
000340 38 91 c2 3c d4 f9 4d bc ce f7 03 be b0 09 38 3c
       0.023750886 -0.012571771 -0.12887499 0.011232778
000350 a2 5c 07 bc 4e d7 d1 bb 46 b1 c2 bc 0c 25 e6 3d
       -0.0082618315 -0.00640384 -0.023766171 0.11237535
000360 5a 6f 0a 3b bd f3 02 bd dd ee 07 3c 26 10 7a be
       0.00211235 -0.03197073 0.008296696 -0.24420223
000370 40 6c 9e 3c c8 bd 13 bd e3 ba e1 3d 29 be cb 3c
       0.019338727 -0.03606966 0.11021974 0.024870949
000380 32 4e 82 bc 93 ab 65 bd 81 90 d5 bd f9 44 78 bb
       -0.015906427 -0.05607183 -0.104279526 -0.0037882908
000390 9d 16 bb 3e 47 52 9c bc dc a4 af bc f4 93 46 bd
       0.3654069 -0.019082202 -0.021440916 -0.048480943
0003a0 23 02 34 3d af 7d d8 bd 0d 07 08 3f 78 be e9 be
       0.04394735 -0.10570847 0.5313576 -0.4565313
0003b0 1e 29 0d 3d 5d bd 74 bc 24 9f 28 be 1b 98 a7 bd
       0.03446304 -0.014937726 -0.16466957 -0.08183309
0003c0 03 5f 92 bd d3 67 53 bd dd ac 81 3d 0e 34 92 3d
       -0.07147028 -0.051612686 0.06331799 0.07138835
0003d0 07 62 75 3b 1c bc 2c bd 12 ae 76 3d 4b 78 b9 3c
       0.0037442462 -0.042171583 0.0602246 0.022640368
0003e0 f1 10 09 3d d2 ee 91 3c e8 d1 8e 3c a0 04 bc 3b
       0.033463422 0.017814074 0.017434075 0.005737856
0003f0 54 67 ad 3d ee 67 8f 3d bc a5 06 3e 7e 39 ee 3d
       0.08466974 0.07002245 0.1314916 0.116320595

dense5_2.bias f4 [4]
000000 f5 e9 8c 3d 9e 23 75 3d b7 06 e1 3d f5 d6 fd 3c
       0.06880561 0.05984842 0.10987609 0.030986289
