Pytorch face detection - Test/MTCNN_models/rnet_1.pt (torch, 402995 bytes, 12 tensors)

conv1.weight f4 [28, 3, 3, 3]
-0.016073924 0.0884808 0.16033363 0.1344718 0.008769174 0.19084673 -0.1771744 0.15759891
-0.11756763 0.135753 0.15663882 -0.006633885 0.050348274 -0.057437394 -0.038661197 -0.14650287
0.027933523 0.08057662 -0.002330432 -0.1087055 -0.14124946 0.07998018 -0.056500267 0.005852555
0.0896286 -0.09518431 0.040520288 -0.15381613 0.008794203 0.07274997 -0.07974021 -0.018824192
0.10619506 -0.09617111 -0.16230279 -0.10442664 -0.12914716 -0.18175821 0.038315784 0.07539526
-0.115109526 -0.1860275 -0.104600765 0.10167208 0.074692085 0.059277512 -0.1438183 0.14818609
-0.10678836 -0.04293416 -0.10875278 -0.03584807 -0.024832843 0.0450619 0.13104075 0.116372705
0.08761929 0.14887503 0.056119937 0.18465489 -0.120392114 0.09183182 0.17661764 0.04118535
-0.18777405 0.17844296 -0.07214222 -0.1334427 -0.1921929 0.18602431 0.1633984 -0.15180567
-0.0320096 -0.07468101 -0.14158264 -0.111567765 -0.16992885 0.045678254 -0.02990019 0.04333181
-0.13397045 0.06573195 0.16769232 -0.03427483 -0.05484829 -0.16769461 0.05287197 -0.09581294
-0.11830365 -0.16933304 0.13183673 -0.055165485 0.16249138 -0.13033842 0.12889338 -0.15465853
0.10024992 -0.008798471 -0.023311066 -0.16705696 0.0769812 0.047781426 0.027084837 -0.029657856
0.09363684 -0.047326237 0.007844663 -0.08029309 0.1694969 -0.072909646 0.11852586 0.15698195
0.082435444 -0.13589795 0.19142327 -0.053108774 0.1064631 -0.0465709 0.14218535 -0.1229859
0.17152318 -0.09460916 -0.14872617 -0.041523926 -0.18448833 -0.08692851 -0.12761894 0.13214752
-0.023830606 -0.037218384 0.11305885 -0.050780155 -0.048478834 -0.18563235 0.1616474 0.16742557
0.01945523 0.13342248 0.046324596 0.11075349 0.07159891 -0.12918524 0.17474748 -0.14686087
-0.0010001265 -0.1504535 -0.08144452 0.081845075 0.06586327 -0.16366538 0.091786444 -0.020433333
0.16346234 0.069706365 0.104752116 -0.17166734 -0.013982638 0.09737292 0.049819488 0.09994238
0.00036466052 -0.1304238 -0.0064108446 0.18912314 0.06921715 0.013957952 -0.12984914 -0.1674587
-0.12411571 -0.036966573 -0.02742371 -0.12914604 0.05497454 -0.03867269 -0.107773304 -0.123227544
0.093436874 0.08519493 0.026480548 0.002249103 -0.18836197 -0.09717059 -0.048749205 0.09002166
0.121497795 0.17144677 0.057729628 -0.18944664 -0.08905501 0.022747934 0.17343917 0.14497219
-0.065336816 0.116518684 -0.08721239 -0.13503285 0.030794578 0.008148115 -0.16815893 -0.06762403
-0.1718861 0.07869858 -0.1531164 -0.02032709 0.16666092 -0.15383163 0.11422776 0.14810485
0.1722348 -0.030453984 -0.19131483 0.1829246 -0.016475039 -0.17353025 0.015270386 -0.0078869
-0.02827522 -0.143611 0.13657199 -0.13537483 0.121056326 -0.05234887 -0.12137233 0.03651157
-0.03166841 -0.15838024 0.058950983 0.05274572 0.16448087 -0.06592668 0.15847825 -0.10934924
-0.14156069 0.16377567 0.056970138 0.081188 -0.10799822 -0.12646303 -0.18089272 0.18955676
0.108933285 0.13415919 0.1740395 -0.07497707 -0.04176578 0.045785304 0.012616543 0.10347804
0.057627514 0.05171283 -0.08151627 0.059607323 -0.07139232 0.1491481 0.16142346 -0.05081654
00000000: 76ad 83bc 6c35 b53d 802e 243e fab2 093e
00000010: 95ac 0f3c 536d 433e 356d 35be 9c61 213e
00000020: 4cc7 f0bd d602 0b3e ed65 203e 1061 d9bb
00000030: fe39 4e3d 7943 6bbd 345b 1ebd d904 16be
00000040: d8d4 e43c 5b05 a53d 29ba 18bb fda0 debd
00000050: b3a3 10be a6cc a33d d36c 67bd cac6 bf3b
00000060: 338f b73d feef c2bd 9af8 253d fa81 1dbe
00000070: 9015 103c f0fd 943d d64e a3bd 3135 9abc
00000080: cc7c d93d 5cf5 c4bd b432 26be a2dd d5bd
00000090: 273f 04be d31e 3abe 03f1 1c3d d468 9a3d
000000a0: 8bbe ebbd fe7d 3ebe ed38 d6bd 7439 d03d
000000b0: 2af8 983d facc 723d 1b45 13be 18be 173e
000000c0: dbb3 dabd bbdb 2fbd c7b9 debd 6dd5 12bd
000000d0: 3f6e cbbc d492 383d 8c2f 063e d054 ee3d
000000e0: be71 b33d b272 183e 05de 653d 2c16 3d3e
000000f0: 2490 f6bd 5212 bc3d 41db 343e f8b1 283d
00000100: d747 40be c0b9 363e 4dbf 93bd 34a5 08be
00000110: 37ce 44be 287d 3e3e e951 273e f272 1bbe
00000120: 801c 03bd 5bf2 98bd 0afb 10be a47d e4bd
00000130: d401 2ebe 1f19 3b3d 3ef1 f4bc b27c 313d
00000140: 8d2f 09be 799e 863d 89b7 2b3e c463 0cbd
00000150: 9aa8 60bd 23b8 2bbe 4790 583d 9339 c4bd
00000160: 2f49 f2bd a465 2dbe 3500 073e 34f5 61bd
00000170: 2464 263e 6f77 05be a0fc 033e ce5e 1ebe
00000180: d44f cd3d 7627 10bc d9f6 bebc fb10 2bbe
00000190: 52a8 9d3d 75b6 433d 05e1 dd3c 08f5 f2bc
000001a0: acc4 bf3d 28d9 41bd e786 003c b470 a4bd
000001b0: 9890 2d3e a751 95bd b0bd f23d e0bf 203e
000001c0: ead3 a83d d528 0bbe 7604 443e 9688 59bd
000001d0: 5309 da3d 21c1 3ebd 0999 113e 08e0 fbbd
000001e0: c6a3 2f3e 73c2 c1bd ac4b 18be fe14 2abd
000001f0: 82ea 3cbe 9307 b2bd 8aae 02be ae51 073e
00000200: 6738 c3bc 4e72 18bd 668b e73d dafe 4fbd
00000210: be91 46bd 6816 3ebe e586 253e 9c71 2b3e
00000220: 9360 9f3c e79f 083e dcbe 3d3d bad2 e23d
00000230: 73a2 923d 2349 04be 01f1 323e b262 16be
00000240: ad16 83ba 7b10 1abe 62cc a6bd 649e a73d
00000250: 52e3 863d e697 27be 88fa bb3d ce63 a7bc
00000260: ac62 273e 36c2 8e3d 4788 d63d 90c9 2fbe
00000270: 6f17 65bc 746b c73d 850f 4c3d 97ae cc3d
00000280: e82f bf39 d18d 05be 1012 d2bb 7fa9 413e
00000290: b9c1 8d3d e5af 643c 2cf7 04be 4b7a 2bbe
000002a0: 6130 febd 436a 17bd b0a7 e0bc dc3e 04be
000002b0: fc2c 613d 4167 1ebd 40b8 dcbd b95e fcbd
000002c0: d55b bf3d ae7a ae3d bced d83c b065 133b
000002d0: f6e1 40be 6001 c7bd 3fad 47bd 475d b83d
000002e0: d6d3 f83d be8f 2f3e e775 6c3d 4dfe 41be
000002f0: 7962 b6bd e059 ba3c 0a9a 313e 9773 143e
00000300: 4fcf 85bd 59a1 ee3d 699c b2bd 0d46 0abe
00000310: e944 fc3c ac7f 053c db31 2cbe 787e 8abd
00000320: e902 30be b92c a13d 8cca 1cbe ff84 a6bc
00000330: 29a9 2a3e 0a86 1dbe 3ef0 e93d cca8 173e
00000340: 525e 303e a27a f9bc 09e8 43be 9650 3b3e
00000350: a9f6 86bc eab1 31be a430 7a3c 0e38 01bc
00000360: 6fa1 e7bc c30e 13be 87d9 0b3e b39f 0abe
00000370: 61ec f73d c56b 56bd 0e92 f8bd 288d 153d
00000380: bcb6 01bd 6e2e 22be 9676 713d e50b 583d
00000390: ac6d 283e 9104 87bd 1f48 223e 7ff2 dfbd
000003a0: 49f5 10be cfb4 273e 8559 693d e545 a63d
000003b0: 2c2e ddbd 867f 01be f13b 39be 2b1b 423e
000003c0: 6a18 df3d 0761 093e 6937 323e 948d 99bd
000003d0: 9812 2bbd 5f89 3b3d 9eb5 4e3c 4bec d33d
000003e0: d40a 6c3d d5d0 533d 01f2 a6bd cf26 743d
000003f0: 2336 92bd 48ba 183e 314c 253e 0125 50bd

conv1.bias f4 [28]
0.11144847 0.15489754 0.1880391 0.1752023 -0.1693375 0.07160797 -0.10109904 -0.19160815
0.15446213 0.026557013 -0.16565426 0.100452445 0.043062497 0.17932573 -0.11516429 0.100581266
0.03388739 0.038945377 -0.08154009 -0.016367625 0.0004925383 -0.0049304306 0.031007111 -0.18710141
0.17226382 0.09415246 0.015575214 -0.06751198
00000000: 183f e43d 769d 1e3e 528d 403e 3b68 333e
00000010: cf66 2dbe 33a7 923d 030d cfbd ed34 44be
00000020: 522b 1e3e 188e d93c 45a1 29be 03ba cd3d
00000030: 4d62 303d 2aa1 373e 41db ebbd 8dfd cd3d
00000040: 81cd 0a3d 3085 1f3d 7efe a6bd 6615 86bc
00000050: b01d 013a 738f a1bb a002 fe3c 8397 3fbe
00000060: ed65 303e 01d3 c03d 2f2f 7f3c b943 8abd

conv2.weight f4 [48, 28, 3, 3]
0.0364648 -0.005107895 -0.048304718 0.04193674 -0.048097283 0.057396866 0.035652228 -0.05689973
-0.042021528 0.0070434334 -0.051631633 -0.024657676 -0.042428836 0.0096603595 0.022717962 -0.003465084
-0.05660682 -0.05534885 -0.05961123 -0.0035992484 -0.013069783 -0.048366282 -0.03916125 0.04665562
0.03681405 -0.032043677 -0.022795873 0.031555012 -0.037489094 -0.002257537 0.01249066 -0.034755643
-0.056927096 0.0143429255 -0.009348333 0.008860817 -0.0067682937 -0.018800395 0.014953543 0.023220466
0.047902 0.061584555 0.037114143 0.0106481565 -0.040678278 -0.05090028 -0.056344103 0.0072709033
0.005951638 -0.019059734 -0.00019677088 0.04687493 -0.036151078 -0.031282645 0.01691761 0.05721129
-0.010628684 -0.019850971 -0.03009287 0.054514036 0.027138071 0.041450337 -0.015555804 -0.020996548
-0.021560369 -0.0004820635 -0.058967337 0.04559644 -0.00033664994 0.0075976104 -0.046076354 0.042459685
0.01770733 -0.015254403 -0.01458401 0.014862701 0.057694037 0.022902425 0.054142423 -0.056354024
-0.031414166 -0.0021467349 0.031733476 -0.052987255 0.019037874 -0.029182257 -0.029367464 -0.033665385
0.018608926 -0.060169566 -0.058385585 0.061576657 0.030836033 -0.062858455 -0.026842484 -0.023838632
0.0036740578 0.0022395444 -0.03691943 -0.045852955 0.033828672 -0.0540501 -0.049926084 0.019190706
0.01246705 0.0538499 0.03006049 -0.013942504 0.0019554684 0.056541618 0.026435101 -0.018950764
0.041130193 -0.020883659 -0.05773784 0.027882606 -0.009594726 -0.018004818 0.009352598 0.010313684
-0.015286739 0.0039199106 -0.0140245985 -0.01842305 0.028259538 -0.021833833 -0.05807238 -0.019959204
-0.021122018 0.000566455 0.03741448 0.04898841 -0.021716664 -0.038888965 -0.05501057 0.009451626
0.048346996 0.036168184 -0.04067878 -0.009869236 0.037320655 -0.040090557 0.015842913 -0.036547765
-0.054239903 -0.017491402 -0.03570677 -0.04807154 -0.03922252 0.008602499 0.043949008 0.0034186754
0.014816218 -0.040052243 0.033181842 -0.01125324 0.02802353 0.0127191655 -0.05241669 -0.021599988
0.0395599 -0.05561208 0.007977597 -0.023977986 0.035950117 -0.022257436 0.005140291 -0.012662634
-0.043014314 -0.043299463 -0.025789497 0.017763223 0.058637146 0.035194512 -0.028869728 0.007296608
0.04549262 0.030900847 0.0478451 0.06253525 0.038280703 0.028394654 0.055984408 0.016810443
-0.053588934 0.04395693 0.0075630145 0.046766415 0.052908443 -0.006491757 0.041071903 -0.05171215
-0.01735509 -0.020605786 0.02082694 0.04415903 -0.03155647 -0.04304764 0.04024692 0.045832153
0.02163016 0.024964927 -0.007825726 -0.024320597 0.03935858 0.012881438 0.050843634 0.0012886041
0.026936375 -0.05434289 0.051369984 0.02617221 0.010126465 0.0559265 -0.018482653 -0.056747228
-0.0093342075 -0.05091213 0.017415293 -0.05430347 0.04352462 0.022757778 -0.029881082 0.061576527
-0.039870627 0.013097426 0.017880393 0.036431376 0.05574982 0.06280126 0.004188983 -0.0136012435
-0.022877224 0.01854393 0.029168116 -0.027649557 0.041564014 -0.04235767 -0.021377813 -0.05139043
-0.040148456 -0.045232393 0.025494419 -0.046165064 -0.016518947 -0.032670334 0.030139768 0.06259685
-0.036977578 -0.05542845 0.00370351 0.008204309 -0.058761083 0.061635695 -0.04632603 0.05482267
00000000: 1d5c 153d 2160 a7bb 2bdb 45bd dcc5 2b3d
00000010: a801 45bd fa18 6b3d 1208 123d b10f 69bd
00000020: c41e 2cbd 9acc e63b b17b 53bd e5fe c9bc
00000030: dcc9 2dbd 7c46 1e3c 051b ba3c 7616 63bb
00000040: 8edc 67bd 7ab5 62bd e82a 74bd 5ee1 6bbb
00000050: a522 56bc b91b 46bd 8c67 20bd f719 3f3d
00000060: 54ca 163d 3b40 03bd 69be babc d43f 013d
00000070: 2a8e 19bd 30f3 13bb a0a5 4c3c ef5b 0ebd
00000080: 632c 69bd 97fe 6a3c c029 19bc f62c 113c
00000090: 90c8 ddbb 4903 9abc b5ff 743c d938 be3c
000000a0: e334 443d 1640 7c3d 0005 183d 9b75 2e3c
000000b0: 449e 26bd d07c 50bd 13c9 66bd c240 ee3b
000000c0: f505 c33b 2923 9cbc 4854 4eb9 edff 3f3d
000000d0: 2713 14bd 3b22 00bd cd96 8a3c 6356 6a3d
000000e0: ef23 2ebc 819e a2bc 5385 f6bc 1c4a 5f3d
000000f0: a950 de3c d4c7 293d c5dd 7ebc f400 acbc
00000100: 5f9f b0bc 78bd fcb9 bc87 71bd 55c3 3a3d
00000110: 6480 b0b9 60f5 f83b 8fba 3cbd 35ea 2d3d
00000120: f60e 913c 9bed 79bc c5f1 6ebc b082 733c
00000130: 9550 6c3d de9d bb3c 72c4 5d3d 7ad3 66bd
00000140: 24ac 00bd 3cb0 0cbb f6fa 013d 2a09 59bd
00000150: 51f5 9b3c a10f efbc 0994 f0bc b7e4 09bd
00000160: bf71 983c 5d74 76bd b925 6fbd ce37 7c3d
00000170: d99b fc3c efbb 80bd c5e4 dbbc 3c49 c3bc
00000180: 76c8 703b 52c5 123b d438 17bd 4fd0 3bbd
00000190: ef8f 0a3d a363 5dbd 4b7f 4cbd d435 9d3c
000001a0: 9942 4c3c b691 5c3d 6b41 f63c 1a6f 64bc
000001b0: 5127 003b 2f98 673d 6d8e d83c a23e 9bbc
000001c0: 2278 283d 3514 abbc 837e 6cbd 106a e43c
000001d0: 3333 1dbc d77e 93bc a43b 193c bafa 283c
000001e0: 3b75 7abc 9872 803b 6ec7 65bc f0eb 96bc
000001f0: 8c80 e73c dedc b2bc 4edd 6dbd 7c81 a3bc
00000200: 1508 adbc 277e 143a ed3f 193d 12a8 483d
00000210: 25e7 b1bc 094a 1fbd c352 61bd feda 1a3c
00000220: 8007 463d 1725 143d cb9e 26bd 93b2 21bc
00000230: 8bdd 183d ff35 24bd ffc8 813c 1cb3 15bd
00000240: a92a 5ebd 214a 8fbc 4341 12bd aae6 44bd
00000250: cba7 20bd 7ff1 0c3c e003 343d db0b 603b
00000260: b9bf 723c d20d 24bd afe9 073d 825f 38bc
00000270: 9a91 e53c 0c64 503c e2b2 56bd 75f2 b0bc
00000280: 9009 223d 7ec9 63bd 78b4 023c 7b6d c4bc
00000290: 6e40 133d 3a55 b6bc e36f a83b f076 4fbc
000002a0: c72f 30bd c75a 31bd 7f44 d3bc 2e84 913c
000002b0: 812d 703d 1f28 103d 3580 ecbc 6218 ef3b
000002c0: 7856 3a3d c623 fd3c 39f9 433d 7b12 803d
000002d0: 3acc 1c3d e89b e83c e84f 653d 0eb6 893c
000002e0: 1280 5bbd 2f0c 343d 2ad3 f73b 248e 3f3d
000002f0: 86b6 583d ceb8 d4bb 033b 283d 1fd0 53bd
00000300: 432c 8ebc 77cd a8bc 429d aa3c 19e0 343d
00000310: 5b41 01bd b952 30bd f4d9 243d 7fba 3b3d
00000320: bc31 b13c 3f83 cc3c 7937 00bc fd3b c7bc
00000330: 7636 213d ab0c 533c 6a41 503d 61e6 a83a
00000340: aca9 dc3c a696 5ebd 5569 523d 1a67 d63c
00000350: 79e9 253c 3013 653d ef68 97bc c86f 68bd
00000360: 81ee 18bc 3d89 50bd 84aa 8e3c 516d 5ebd
00000370: df46 323d 856e ba3c 2cc9 f4bc ab37 7c3d
00000380: 624f 23bd 9696 563c e779 923c 1139 153d
00000390: ec59 643d f29d 803d bc43 893b c0d7 5ebc
000003a0: 0469 bbbc 71e9 973c f9f1 ee3c 5381 e2bc
000003b0: 073f 2a3d 3c7f 2dbd 8620 afbc c67e 52bd
000003c0: b572 24bd 9a45 39bd acd9 d03c 9417 3dbd
000003d0: be52 87bc 54d1 05bd ade7 f63c c732 803d
000003e0: cd75 17bd f108 63bd 96b6 723b 5e6b 063c
000003f0: 76af 70bd b675 7c3d 5dc0 3dbd bc8d 603d

conv2.bias f4 [48]
0.014384896 -0.0032659175 -0.0346127 0.019863354 0.033252694 -0.047174323 0.039515134 0.00078892335
-0.036156297 0.034558002 0.009218554 0.0050573866 0.0090394905 -0.035223123 -0.013778836 -0.006198009
-0.041660685 0.010382051 -0.0042549684 0.0055187237 -0.010890382 -0.017976988 0.052483164 -0.057832167
0.04350418 -0.022974944 0.056249686 0.0469007 0.017059796 0.052395865 0.0019677689 0.008897869
0.018376326 0.0074158437 -0.017914126 -0.061944064 -0.035516646 0.017536234 -0.0513696 0.022951731
0.022867693 0.044378184 -0.017144786 -0.029063255 -0.043584183 0.032703236 0.059014346 0.0046956697
00000000: a0ae 6b3c 0109 56bb 0cc6 0dbd 79b8 a23c
00000010: fa33 083d dd39 41bd 9fda 213d c0cf 4e3a
00000020: a018 14bd b18c 0d3d 6b09 173c 6fb8 a53b
00000030: 5f1a 143c 1f46 10bd a0c0 61bc ab18 cbbb
00000040: 65a4 2abd 7a19 2a3c 436d 8bbb 69d6 b43b
00000050: 936d 32bc 7a44 93bc 96f8 563d 6ce1 6cbd
00000060: 7031 323d f335 bcbc 1266 663d f31a 403d
00000070: fcc0 8b3c 0c9d 563d aff5 003b 5ec8 113c
00000080: f389 963c 9b00 f33b a5c0 92bc 0fb9 7dbd
00000090: e779 11bd 26a8 8f3c ee68 52bd 4505 bc3c
000000a0: 0755 bb3c e6c5 353d 3973 8cbc 1016 eebc
000000b0: 5485 32bd d4f3 053d 07b9 713d 22de 993b

conv3.weight f4 [64, 48, 2, 2]
-0.021207377 0.0067885444 0.05405641 0.052350104 -0.0013373486 -0.06328515 0.017171828 -0.023444302
0.024862615 -0.07146024 -0.0061983657 -0.04420095 -0.05093193 0.05015033 -0.01574449 -0.0103811845
-0.014528197 -0.0016127452 0.021663321 -0.042312205 0.03417825 0.028174138 -0.031219631 0.010848355
-0.019768907 -0.03844103 0.035730947 0.019157873 -0.03393757 -0.06552957 -0.028685665 -0.030190062
0.026526686 -0.0011132183 -0.064058974 -0.019493373 0.03379638 -0.01831441 0.00045037695 0.052039873
-0.05886519 -0.06714894 0.0046538436 0.054684296 0.0015335873 0.0658005 0.050778758 -0.017466238
-0.008059976 -0.005795513 0.06213892 -0.005292966 0.037467588 0.030278908 -0.0638853 -0.011446681
-0.002824143 0.01679297 -0.043355137 -0.0021611555 0.06440575 -0.012957031 0.061913952 -0.027636334
0.012016126 -0.04258491 0.042241093 -0.017021582 -0.055318695 0.009672179 0.04085287 -0.065510765
-0.05819526 -0.051779713 -0.0443048 0.05850838 -0.018960845 0.043540277 0.05642516 -0.040752713
0.035628267 -0.043573063 -0.0719019 -0.0036108445 -0.032184478 0.06762673 0.0036462208 0.057149008
0.010053429 0.030505292 0.05638223 -0.072025634 -0.05062057 -0.067713745 -0.049994778 -0.051781073
0.064343266 0.041902322 -0.045750126 -0.07045851 -0.060742524 0.0040330463 0.01107104 -0.045728575
-0.06840506 0.043174803 -0.020398935 -0.046375424 -0.02137151 -0.0057019186 -0.020060917 -0.0077931215
-0.06487007 0.025509238 0.06103247 0.017760614 0.049877703 0.059046105 -0.06270981 -0.021127196
-0.009968309 -0.055408727 0.02955802 0.015828535 -0.070826255 0.028658453 -0.032964453 0.006630005
0.0007612188 0.04585273 0.02066043 -0.00045134051 0.020890806 0.03439313 0.009096178 -0.04505385
0.021046404 0.016318409 -0.0032570213 0.03567508 0.069240354 -0.044763006 -0.041690953 0.0029220043
-0.06255458 0.058600787 -0.008008149 0.046626266 0.071493365 0.00063501863 -0.020637691 -0.04236208
0.038330022 0.05273279 0.010996106 -0.05012416 0.035630547 -0.013000701 0.008928932 -0.024594977
0.0586801 -0.03080254 0.028844729 0.037236437 0.059893373 -0.070598304 0.0052580712 0.005526895
0.07114078 -0.025712378 0.026590643 0.018055376 -0.041282844 0.055529397 -0.059573885 -0.07170601
0.048365038 0.06262565 -0.048993185 -0.0416814 0.014124991 -0.013630816 -0.0023824899 0.01183071
-0.041762564 -0.039837077 -0.05014053 -0.036153026 -0.06367954 0.06413519 -0.018834524 -0.047994524
-0.0365458 0.0035435935 0.047860317 -0.023067456 0.026570056 -0.030456288 0.06807097 0.023476701
0.042520963 -0.06621787 0.037941277 0.064100266 -0.039998394 0.014717114 0.021490233 -0.03341138
-0.022291852 0.03348368 -0.027364353 0.016580006 0.011113342 0.07024837 -0.02418698 0.02217921
-0.06899793 0.03862062 0.060213584 0.059808787 -0.012889557 0.009229183 -0.06030834 0.04587746
0.01286847 0.04888745 -0.014023268 -0.009831355 -0.016889911 0.058472395 0.000856198 0.04158347
-0.01125945 0.03637215 -0.036943212 -0.044584446 0.05247634 -0.04295026 0.040416956 0.033427633
0.011746623 0.031672202 -0.014170683 -0.05822673 -0.06223295 -0.06750164 -0.057674225 -0.026669895
0.019403934 -0.020419609 -0.01812463 0.04977376 -0.044614386 0.05927385 -0.0656659 0.045632847
00000000: 18bb adbc 7072 de3b 416a 5d3d 106d 563d
00000010: f949 afba a59b 81bd efab 8c3c 440e c0bc
00000020: afac cb3c bf59 92bd a91b cbbb 0e0c 35bd
00000030: 009e 50bd 6f6a 4d3d 97fa 80bc d815 2abc
00000040: ad07 6ebc c062 d3ba 4777 b13c 904f 2dbd
00000050: 7efe 0b3d 73cd e63c 50c0 ffbc 4cbd 313c
00000060: 67f2 a1bc 5774 1dbd 9d5a 123d f9f0 9c3c
00000070: 1f02 0bbd 5e34 86bd 33fe eabc 2651 f7bc
00000080: 7e4e d93c 68e9 91ba 5a31 83bd 91b0 9fbc
00000090: 136e 0a3d 1a08 96bc 9220 ec39 c327 553d
000000a0: a01c 71bd 6285 89bd 457f 983b a4fc 5f3d
000000b0: a702 c93a 6ac2 863d 63fd 4f3d 5b15 8fbc
000000c0: fd0d 04bc 49e8 bdbb 6185 7e3d 9e70 adbb
000000d0: 9d77 193d 790b f83c 4cd6 82bd dc8a 3bbc
000000e0: 4215 39bb 6991 893c 2895 31bd 2ca2 0dbb
000000f0: 29e7 833d ba49 54bc 7c99 7d3d 9865 e2bc
00000100: 49df 443c 846d 2ebd ff04 2d3d d870 8bbc
00000110: db95 62bd 0f78 1e3c 5755 273d 822a 86bd
00000120: 275e 6ebd f716 54bd f378 35bd 7ca6 6f3d
00000130: c653 9bbc 4a57 323d 121e 673d 51ec 26bd
00000140: f2ee 113d ab79 32bd 4e41 93bd eba3 6cbb
00000150: dfd3 03bd e27f 8a3d 6ff5 6e3b 1415 6a3d
00000160: 23b7 243c 3ce6 f93c 0ef1 663d 2d82 93bd
00000170: 8457 4fbd 81ad 8abd 53c7 4cbd 6418 54bd
00000180: 67c6 833d c5a1 2b3d 7c64 3bbd 8d4c 90bd
00000190: 27cd 78bd a527 843b 4f63 353c e34d 3bbd
000001a0: f417 8cbd 10d8 303d ab1b a7bc 28f4 3dbd
000001b0: 4e13 afbc 29d7 babb cb56 a4bc 715d ffbb
000001c0: 99da 84bd c0f8 d03c 2ffd 793d b57e 913c
000001d0: 904c 4c3d 54da 713d 006e 80bd f112 adbc
000001e0: 1e52 23bc 43f4 62bd a923 f23c d8aa 813c
000001f0: 5b0d 91bd 22c5 ea3c bc05 07bd 8340 d93b
00000200: 878c 473a 12d0 3b3d 1040 a93c e6a1 ecb9
00000210: 3223 ab3c d0df 0c3d 2308 153c 638a 38bd
00000220: 8269 ac3c 2fae 853c c073 55bb 0820 123d
00000230: e3cd 8d3d 6a59 37bd 22c4 2abd 197f 3f3b
00000240: 9e1c 80bd 6107 703d 9d34 03bc 2ffb 3e3d
00000250: 1d6b 923d 6177 263a 6010 a9bc dc83 2dbd
00000260: f1ff 1c3d 57fe 573d 0329 343c fe4e 4dbd
00000270: 56f1 113d e400 55bc a84a 123c 687b c9bc
00000280: 8b5a 703d 9c55 fcbc c84b ec3c 3c85 183d
00000290: c152 753d d895 90bd e64b ac3b f51a b53b
000002a0: 42b2 913d c4a2 d2bc 9fd4 d93c dee8 933c
000002b0: 3318 29bd cb72 633d bf03 74bd 9ada 92bd
000002c0: 6b1a 463d e041 803d 14ad 48bd 1eba 2abd
000002d0: 826c 673c c953 5fbc 8c23 1cbb 98d5 413c
000002e0: 390f 2bbd 342c 23bd 2860 4dbd 3215 14bd
000002f0: 6b6a 82bd 4f59 833d dc4a 9abc e895 44bd
00000300: 0cb1 15bd a23b 683b 2e09 443d f6f7 bcbc
00000310: 72a9 d93c 777f f9bc cb68 8b3d 3652 c03c
00000320: 762a 2e3d 3c9d 87bd 5068 1b3d 0047 833d
00000330: 5bd5 23bd 0d20 713c 490c b03c 5fda 08bd
00000340: 679d b6bc 2f26 093d 352b e0bc cbd2 873c
00000350: bc14 363c 61de 8f3d c623 c6bc 2db1 b53c
00000360: c94e 8dbd a830 1e3d 85a2 763d 0ffa 743d
00000370: b82e 53bc 0036 173c e105 77bd 01ea 3b3d
00000380: 46d6 523c 353e 483d d9c1 65bc b113 21bc
00000390: b65c 8abc c080 6f3d 7a72 603a 6e53 2a3d
000003a0: 8e79 38bc f7fa 143d c451 17bd 2e9e 36bd
000003b0: 6ef1 563d 9dec 2fbd 408c 253d 6aeb 083d
000003c0: e874 403c b6ba 013d 272c 68bc 277f 6ebd
000003d0: fae7 7ebd 4d3e 8abd cf3b 6cbd d37a dabc
000003e0: 00f5 9e3c 0647 a7bc 1b7a 94bc 92df 4b3d
000003f0: 93bd 36bd 23c9 723d d87b 86bd 82e9 3a3d

conv3.bias f4 [64]
-0.016103277 -0.0017754316 0.065297134 0.04370598 0.064823195 -0.049544495 -0.016904613 -0.041948702
0.021027882 -0.036088347 -0.03576031 0.032708053 0.05902111 0.024808647 -0.06380644 0.05567455
-0.058202315 0.04844488 0.026898723 -0.028925747 0.012541841 -0.033325814 0.028551241 -0.048640523
0.049849942 -0.041112266 -0.06690627 0.04846155 0.052151028 0.03743874 0.0044683157 -0.07206075
0.0077637676 0.011978126 0.02522154 0.040731292 -0.010015945 -0.070888385 0.048064385 0.013716994
-0.063495204 0.041852925 0.0192028 -0.05612915 -0.06400193 -0.040988684 -0.06888617 -0.015194282
-0.047576625 -0.06205102 -0.04345088 0.011467647 0.048174538 0.05878973 -0.029711485 0.0374673
-0.05276662 0.01836509 -0.029364904 -0.05153148 -0.0584123 -0.07158271 0.051337346 -0.06253803
00000000: 05eb 83bc 99b5 e8ba 81ba 853d 0b05 333d
00000010: 06c2 843d 2bef 4abd 8b7b 8abc 67d2 2bbd
00000020: aa42 ac3c 60d1 13bd 6779 12bd e1f8 053d
00000030: 1fc0 713d 813b cb3c f3ac 82bd ff0a 643d
00000040: 8d65 6ebd 236e 463d b65a dc3c b0f5 ecbc
00000050: 4b7c 4d3c a680 08bd 4be4 e93c 493b 47bd
00000060: 742f 4c3d 5665 28bd 2806 89bd 9e7f 463d
00000070: 519c 553d 5d59 193d f36a 923b 9694 93bd
00000080: 3467 fe3b e73f 443c 679d ce3c dbd5 263d
00000090: eb19 24bc ee2d 91bd 29df 443d 3ebd 603c
000000a0: c609 82bd f96d 2b3d 314f 9d3c aee7 65bd
000000b0: 7213 83bd c0e3 27bd 3114 8dbd 70f1 78bc
000000c0: b5df 42bd 3629 7ebd 8df9 31bd cce2 3b3c
000000d0: aa52 453d 80cd 703d 8065 f3bc 5077 193d
000000e0: d021 58bd 6372 963c ab8e f0bc ac12 53bd
000000f0: bc41 6fbd f599 92bd 1c47 523d f013 80bd

dense4.weight f4 [128, 576]
0.011404852 0.00028398138 0.03852514 -0.02383858 -0.031355396 0.03972456 0.03494565 0.02255105
0.03259478 0.0008846472 0.03549909 0.014333462 -0.03440681 -0.023349177 0.009657806 -0.014605324
-0.02913488 0.021711424 0.031578355 0.023433357 -0.010719488 0.028057909 -0.010194063 -0.016632607
-0.008794646 -0.007652735 -0.012138988 -0.01950283 -0.03604272 -0.020761501 -0.028516512 -0.019135758
-0.002260099 -0.025724616 -0.008330549 -0.01938574 0.013259029 0.020525858 0.04053551 0.018758174
0.007187168 -0.014258604 0.014776861 -0.023229942 0.009843464 -0.0077462397 0.029388031 -0.034244955
0.013483609 0.009514898 0.011274865 -0.036778793 -0.036730167 0.024932733 -0.01509974 0.021830112
0.022210013 0.035902765 -0.007666394 -0.02192854 -0.035086375 -0.025816962 -0.039870214 -0.026076352
-0.028509762 -0.038299598 0.033557884 -0.03361125 0.040727332 -0.021953642 0.012626703 0.021652397
-0.019892167 0.010292928 -0.033967853 0.0076375855 -0.028127179 0.029142886 0.008444568 0.028162256
-0.029141363 -0.0062994263 -0.017920485 -0.011660035 -0.032262202 0.012245491 0.029155394 0.0304836
0.014286707 -0.022302356 0.020358887 0.014562195 -0.011161844 0.021054318 -0.0058462573 0.018007955
-0.020583313 0.004280627 0.03291107 -0.028966412 0.01719527 -0.012629743 -0.014535263 0.019983884
-0.029653152 0.0051484755 -0.03820934 0.0069263927 -0.007524158 -0.03749512 0.03444872 -0.010053575
-0.03635108 0.023744807 0.0050937086 -0.041625928 0.0060738027 -0.00084678334 0.002712091 -0.014687027
-0.031220865 0.0019183557 0.017835539 0.0038869232 -0.03022061 -0.02371344 0.01429919 -0.0075148493
0.031454347 0.027379777 -0.011927213 0.008839836 -0.016567986 0.04064925 -0.0064264936 0.012080446
-0.025080767 0.0011401176 -0.032518722 0.029313564 0.039349135 -0.020905849 -0.010441467 0.018019825
0.026433637 -0.025869336 0.022755817 -0.02449311 0.0010809948 0.040562928 0.04069887 0.0057232184
-0.0016065191 -0.007543266 -0.03340333 0.03881776 0.004805888 -0.035808455 -0.005412291 0.0006736815
-0.012377068 0.036771223 0.03946882 0.012268166 -0.00154908 0.009001042 -0.025546715 0.0002667755
0.0024635098 0.005258769 -0.036586866 -0.024807712 -0.03776328 -0.03162974 -0.020697128 0.01900874
-0.030247077 0.008567448 -0.010782456 -0.0249996 -0.0016984245 0.025142591 0.031967297 -0.002396857
0.025507703 -0.0009314319 -0.014148886 0.02073074 -0.010976126 0.025107235 -0.03884338 -0.027881002
-0.022981882 0.0039230487 0.031610202 0.018684145 -0.012734016 -0.014058809 -0.03952831 0.023184732
0.016048715 -0.024965584 -0.013298681 -0.019469028 -0.020701975 -0.013537253 -0.038823243 0.0090831425
0.005556996 0.019172888 -0.010273894 -0.028416127 0.022338357 -0.016666641 -0.013167998 -0.017542314
0.029899579 0.025405815 0.038434766 -0.017953694 -0.038265817 -0.0026543438 -0.011798248 0.008793126
-0.019897219 -0.003389145 0.006255607 -0.025086736 0.0071635246 -0.036900323 0.019348368 -0.033702713
-0.01396295 0.032004636 0.016844537 -0.00535058 -0.039628245 0.011999096 0.038238447 0.02772763
0.0073777735 0.027088946 -0.03314595 -0.0058890283 -0.0032280586 -0.010799925 -0.033607356 -0.014516036
-0.0036881517 -0.03730398 -0.04025197 -0.02311784 0.021298077 -0.032539472 -0.01728424 0.011183128
00000000: 6bdb 3a3c 56e3 9439 8acc 1d3d 2049 c3bc
00000010: 846e 00bd 38b6 223d 2b23 0f3d fbbc b83c
00000020: 1b82 053d abe7 673a 7e67 113d e6d6 6a3c
00000030: 28ee 0cbd c646 bfbc c63b 1e3c 2b4b 6fbc
00000040: 46ac eebc 28dc b13c 4e58 013d 50f7 bf3c
00000050: cba0 2fbc b3d9 e53c 0005 27bc 1b41 88bc
00000060: 6b17 10bc cbc3 fabb 9be2 46bc 66c4 9fbc
00000070: 88a1 13bd 0614 aabc 769b e9bc 98c2 9cbc
00000080: 2b1e 14bb 6ebc d2bc db7c 08bc d8ce 9ebc
00000090: 663c 593c d825 a83c 9008 263d beaa 993c
000000a0: 5682 eb3b eb9c 69bc a61a 723c b84c bebc
000000b0: 7b46 213c 2bd4 fdbb 2bbf f03c 7044 0cbd
000000c0: 5bea 5c3c 60e4 1b3c 36ba 383c 5ca5 16bd
000000d0: 5f72 16bd bb3f cc3c e664 77bc 10d5 b23c
000000e0: c6f1 b53c c70e 133d 6036 fbbb 7ba3 b3bc
000000f0: bbb6 0fbd 187e d3bc f34e 23bd 139e d5bc
00000100: 4e8d e9bc 0ae0 1cbd fe73 093d f3ab 09bd
00000110: b4d1 263d 20d8 b3bc 3be0 4e3c 5e60 b13c
00000120: e6f4 a2bc aba3 283c e021 0bbd b644 fa3b
00000130: f86a e6bc 10bd ee3c 165b 0a3c 88b4 e63c
00000140: deb9 eebc 6b6b cebb fbcd 92bc bb09 3fbc
00000150: 5f25 04bd 50a1 483c 4bd7 ee3c beb8 f93c
00000160: cb12 6a3c 6eb3 b6bc aec7 a63c 4696 6e3c
00000170: 2be0 36bc 1b7a ac3c f691 bfbb 6b85 933c
00000180: 569e a8bc 8044 8c3b c2cd 063d f84a edbc
00000190: 18dd 8c3c fbec 4ebc 5025 6ebc 3eb5 a33c
000001a0: 2beb f2bc 8bb4 a83b 6681 1cbd cbf6 e23b
000001b0: 368d f6bb 7c94 19bd 1a1a 0d3d c0b7 24bc
000001c0: dfe4 14bd 7884 c23c 20e9 a63b f37f 2abd
000001d0: c006 c73b abfa 5dba 56bd 313b dba1 70bc
000001e0: e6c2 ffbc 5671 fb3a d61b 923c c0bb 7e3b
000001f0: 3691 f7bc b042 c2bc 2647 6a3c 203f f6bb
00000200: 46d6 003d 8e4b e03c 5b6a 43bc f6d4 103c
00000210: 96b9 87bc d47f 263d 5695 d2bb 10ed 453c
00000220: 2e76 cdbc 0070 953a 5a32 05bd 0023 f03c
00000230: 8f2c 213d be42 abbc b012 2bbc 509e 933c
00000240: 5b8b d83c eeeb d3bc 686a ba3c c6a5 c8bc
00000250: 2bb0 8d3a 5025 263d dcb3 263d d689 bb3b
00000260: d691 d2ba 802d f7bb eed1 08bd 5fff 1e3d
00000270: b67a 9d3b e3ab 12bd 9659 b1bb 009a 303a
00000280: 30c9 4abc 6c9d 163d 0faa 213d 6b00 493c
00000290: 800a cbba 1b79 133c 5847 d1bc 00de 8b39
000002a0: d672 213b c051 ac3b 1cdc 15bd 8b39 cbbc
000002b0: abad 1abd 308e 01bd 068d a9bc 38b8 9b3c
000002c0: b8c8 f7bc 7b5e 0c3c e6a8 30bc f6cb ccbc
000002d0: ab9d deba d6f7 cd3c 24f0 023d 9614 1dbb
000002e0: 88f5 d03c 562b 74ba bbd0 67bc 83d3 a93c
000002f0: 36d5 33bc b0ad cd3c 3c1a 1fbd b366 e4bc
00000300: 8044 bcbc eb8c 803b b379 013d 7e0f 993c
00000310: 56a2 50bc eb56 66bc 70e8 21bd e8ed bd3c
00000320: 9878 833c a084 ccbc b6e2 59bc 837d 9fbc
00000330: 3097 a9bc 5bcb 5dbc 1f05 1fbd 76d1 143c
00000340: 7617 b63b 7610 9d3c d653 28bc f0c8 e8bc
00000350: eefe b63c 7b88 88bc 96be 57bc e6b4 8fbc
00000360: f6ef f43c db1f d03c c66d 1d3d a013 93bc
00000370: 9ebc 1cbd 80f4 2dbb 704d 41bc 0b11 103c
00000380: 7eff a2bc 6b1c 5ebb d6fb cc3b b382 cdbc
00000390: 00bc ea3b cb24 17bd 7880 9e3c db0b 0abd
000003a0: dbc4 64bc 4b17 033d 8efd 893c eb53 afbb
000003b0: 3a51 22bd db97 443c eb9f 1c3d 0e25 e33c
000003c0: 40c1 f13b a3e9 dd3c 0cc4 07bd c0f8 c0bb
000003d0: d68d 53bb 2bf2 30bc dea7 09bd abd4 6dbc
000003e0: ebb4 71bb 0fcc 18bd 40df 24bd a061 bdbc
000003f0: 4e79 ae3c 1c48 05bd ae97 8dbc 7039 373c

dense4.bias f4 [128]
0.034325942 -0.011836216 -0.030051917 -0.0026491783 0.039569553 0.036895275 -0.039486878 -0.027463075
0.00932845 0.0010811439 0.028659653 0.04144944 0.002629777 0.022440573 0.039203413 0.021729704
-0.014449532 -0.025331914 0.013498327 0.021931907 -0.0017095705 -0.007934129 0.033852693 0.03298962
0.00016574065 0.021250507 -0.028324893 0.02501308 -0.032451596 -0.012969568 -0.014853234 0.0039955974
0.019979909 -0.03973509 0.03532123 -0.018333888 0.02595687 0.005886535 0.020145383 -0.031486027
-0.010741314 0.039471265 -0.037163265 -0.031318903 -0.015449425 -0.029020324 -0.027373984 0.023561811
0.006966725 0.033306263 -0.017497465 0.023491975 0.004996012 0.008047229 -0.016928872 0.035801783
0.019200739 0.004863044 0.003380249 0.03675226 -0.026336541 0.008053343 -0.03748887 0.03671449
0.01135695 0.034228515 -0.0050799153 -0.03831163 0.025118291 0.01945745 -0.030063685 -0.023222696
-0.011539827 -0.014287378 0.0044231764 -0.012501895 -0.009295404 0.015295784 0.034495384 0.028450295
-0.009979924 -0.036933966 -0.0312101 0.024769783 -0.020952474 -0.026217636 0.041454524 0.012707874
0.010064602 -0.023437222 0.025543785 -0.01211611 0.013884942 -0.008370027 -0.027874991 -0.027374228
0.010294939 -0.016185254 0.038878303 -0.034671806 0.023305884 -0.029215764 -0.021157201 0.01439324
-0.017180085 -0.001974672 0.0026643823 -0.008022448 0.018912897 0.035080045 -0.011045387 0.007544284
0.03959028 -0.03395909 0.013430795 -0.03697817 0.018072035 0.0031460773 -0.025439586 -0.0048106215
0.037902072 0.0064277104 -0.0030905656 -0.013475513 0.002410551 0.03984593 -0.036527257 0.02151399
00000000: 5c99 0c3d b0ec 41bc 702f f6bc d69d 2dbb
00000010: af13 223d 801f 173d febc 21bd 3efa e0bc
00000020: 5bd6 183c 2bb5 8d3a a6c7 ea3c e3c6 293d
00000030: 5658 2c3b 4bd5 b73c c293 203d 7e02 b23c
00000040: bbbd 6cbc e084 cfbc 1628 5d3c 8baa b33c
00000050: ab13 e0ba 26fe 01bc 1fa9 0a3d 2020 073d
00000060: abca 2d39 8b15 ae3c 9b09 e8bc 3be8 cc3c
00000070: f7eb 04bd 507e 54bc fb5a 73bc 80ed 823b
00000080: e8ac a33c 43c1 22bd feac 103d f330 96bc
00000090: 80a3 d43c d6e3 c03b ee07 a53c 7ef7 00bd
000000a0: 56fc 2fbc 9fac 213d 8238 18bd 4048 00bd
000000b0: 961f 7dbc 08bc edbc 683f e0bc b304 c13c
000000c0: 2049 e43b 266c 083d d856 8fbc 3e72 c03c
000000d0: 96b5 a33b 86d8 033c 6bae 8abc e4a4 123d
000000e0: de4a 9d3c 2b5a 9f3b 2b87 5d3b 8a89 163d
000000f0: bbbf d7bc 2bf2 033c ee8d 19bd ef61 163d
00000100: 8012 3a3c 3333 0c3d 6b75 a6bb a8ec 1cbd
00000110: e0c4 cd3c 3b65 9f3c 1e48 f6bc 863d bebc
00000120: 8b11 3dbc 9b15 6abc 4bf0 903b c0d4 4cbc
00000130: c04b 18bc 2b9b 7a3c 084b 0d3d 9810 e93c
00000140: d682 23bc 1248 17bd 53ac ffbc 00ea ca3c
00000150: 86a4 abbc 5ec6 d6bc 38cc 293d b034 503c
00000160: 00e6 243c 6bff bfbc 3341 d13c a682 46bc
00000170: ab7d 633c 7022 09bc 185a e4bc eb3f e0bc
00000180: 1bac 283c f096 84bc db3e 1f3d 0604 0ebd
00000190: fbeb be3c e655 efbc de51 adbc a0d1 6b3c
000001a0: 40bd 8cbc 8069 01bb eb9c 2e3b 9670 03bc
000001b0: 38ef 9a3c 18b0 0f3d b6f7 34bc 0b36 f73b
000001c0: 6b29 223d b018 0bbd d60c 5c3c 6c76 17bd
000001d0: ce0b 943c 6b2e 4e3b ae66 d0bc 6ba2 9dbb
000001e0: 343f 1b3d 8b9f d23b 168b 4abb 66c8 5cbc
000001f0: 56fa 1d3b 7c35 233d 9b9d 15bd 1b3e b03c

dense5_1.weight f4 [2, 128]
-0.053030778 0.04268339 0.03922507 0.06062824 -0.057436343 0.006168676 -0.030953329 -0.03306261
0.028598238 -0.069388844 -0.047949005 -0.005875713 0.085092254 -0.008230679 0.07921515 0.078955226
0.053851195 -0.032577302 -0.059030715 0.08642114 0.03376701 0.055527207 0.014864782 0.06885371
-0.059788898 -0.021295823 -0.01564767 0.0798272 -0.0068608746 0.018903071 0.021367135 -0.02812279
-0.013480859 0.019526793 0.02126671 -0.02459904 -0.011686878 -0.0071516666 -0.051057946 0.06445549
-0.009784011 0.0063502025 -0.0610648 -0.052703336 -0.00750668 -0.020774277 -0.05554333 0.06375736
0.035675474 -0.040229134 -0.08612732 0.023482706 0.011417307 -0.06682445 -0.030690217 -0.004353148
-0.055870358 -0.036727123 0.0027473422 0.029108593 -0.07430965 0.029629298 0.07621884 0.008813569
-0.029075056 0.065183975 -0.004113448 0.022227794 0.012171209 0.040339243 0.017910304 0.0838566
0.057296026 -0.0018058871 -0.08258942 -0.048328515 -0.008187952 0.06884356 0.076585546 0.050894395
0.04703959 -0.07327257 0.07809779 0.069170795 0.017819172 -0.0728974 0.014041412 0.016002547
-0.08407678 0.069156975 0.08366629 -0.038815014 0.0021657473 -0.030240668 -0.060651883 -0.07693665
0.084757835 0.04923188 0.015769042 0.045164645 -0.0066486862 0.080455765 -0.015902195 -0.041309558
-0.018846521 -0.02232744 -0.02340601 0.008802106 0.07962246 0.016706495 -0.05735582 -0.08097301
-0.034777325 -0.009871034 -0.07953892 -0.048785534 -0.0009569547 0.027016815 0.042197708 -0.04012971
-0.08736286 -0.06880314 0.034112014 -0.064873554 -0.017105214 0.031723607 0.04116512 -0.04756334
-0.039239958 -0.07867252 -0.052416086 0.044486072 -0.03823736 0.08289313 -0.042350028 -0.03943591
0.087537535 -0.044227418 -0.050475612 -0.009228632 0.08224827 -0.07468199 0.084002115 -0.0412794
0.07449272 -0.026695108 3.5171546e-05 0.00033529924 -0.068487324 0.02137077 0.053309176 -0.059486534
-0.067020625 -0.07687298 -0.02514207 0.012035591 -0.033142235 -0.02552038 -0.03961988 -0.022256602
-0.051608585 -0.038002085 0.005525241 -0.086669385 -0.049608916 -0.061349954 0.036312133 -0.04205108
0.038979806 0.048231367 0.030291382 -0.004838532 0.056367353 0.081357926 0.07073922 -0.034700617
0.015953677 0.033659 0.05784482 -0.005750052 0.018877026 0.043562032 0.009227367 -0.01208486
0.073784895 -0.08431673 -0.08356459 -0.02530621 0.044289213 0.0064705526 -0.06716481 0.08757571
-0.03703214 -0.08229181 -0.056321792 -0.016452549 0.04850751 -0.028459111 0.01161781 0.04253913
0.016102383 -0.016250823 -0.0009852352 -0.054059435 0.077036165 -0.05569158 0.059901588 -0.072578624
-0.0782379 -0.038931023 -0.051622164 0.062247187 0.008181304 -0.040043835 -0.062062643 0.041709952
0.07127678 -0.033744756 0.032218274 0.019087411 -0.040028863 0.004606545 0.08676159 -0.07121479
-0.067006305 -0.070987284 0.06868266 -0.07157855 0.021878872 0.08828787 0.08096031 0.06638644
-3.1715503e-05 0.07994494 -0.044280615 0.06996784 -0.0120941745 -0.0653515 -0.026519008 -0.025726678
-0.08516896 0.065439515 0.08038272 -0.022355257 -0.030610465 0.05732319 0.020596595 0.07709577
0.07552852 -0.07867612 -0.055406447 -0.046190806 0.036720663 0.062209126 0.031300545 3.1083302e-05
00000000: cd36 59bd c7d4 2e3d 78aa 203d 5155 783d
00000010: 5f42 6bbd 9b22 ca3b d691 fdbc a96c 07bd
00000020: da46 ea3c bd1b 8ebd 2d66 44bd 0e89 c0bb
00000030: d944 ae3d f8d9 06bc 8d3b a23d 47b3 a13d
00000040: 1293 5c3d c76f 05bd 31ca 71bd 91fd b03d
00000050: 474f 0a3d 7f70 633d 6a8b 733c 2d03 8d3d
00000060: 34e5 74bd 9474 aebc 8b2f 80bc 717c a33d
00000070: 30d1 e0bb 9dda 9a3c 210a af3c c461 e6bc
00000080: d2de 5cbc a7f6 9f3c 8637 ae3c ed83 c9bc
00000090: 527a 3fbc 8758 eabb 2322 51bd 3d01 843d
000000a0: 1e4d 20bc 5c15 d03b 151f 7abd 74df 57bd
000000b0: 99fa f5bb d12e aabc 6781 63bd 3893 823d
000000c0: 7220 123d 4ec7 24bd 8563 b0bd ce5e c03c
000000d0: a80f 3b3c 42db 88bd 0d6a fbbc daa4 8ebb
000000e0: 51d8 64bd 2e6f 16bd c10c 343b 2575 ee3c
000000f0: a82f 98bd 24b9 f23c a018 9c3d ca66 103c
00000100: d02e eebc 2d7f 853d 1aca 86bb 1017 b63c
00000110: c069 473c c33a 253d a1b8 923c 02bd ab3d
00000120: 3daf 6a3d 84b3 ecba a424 a9bd 1ff4 45bd
00000130: c326 06bc dafd 8c3d e2d8 9c3d a476 503d
00000140: 96ac 403d ee0f 96bd bcf1 9f3d 6ba9 8d3d
00000150: 83f9 913c 3b4b 95bd f30d 663c c617 833c
00000160: 7230 acbd 2ca2 8d3d 3b59 ab3d 7efc 1ebd
00000170: 36ef 0d3b 47bb f7bc 1c6e 78bd f690 9dbd
00000180: 8495 ad3d 5ea7 493d 142e 813c 90fe 383d
00000190: 39dd d9bb fec5 a43d 5245 82bc 3634 29bd
000001a0: 0564 9abc 09e8 b6bc f6bd bfbc b536 103c
000001b0: 1a11 a33d 0fdc 883c f0ed 6abd 2dd5 a5bd
000001c0: ab72 0ebd 1eba 21bc 4de5 a2bd 57d3 47bd
000001d0: 25dc 7aba 5e52 dd3c 81d7 2c3d 0d5f 24bd
000001e0: 4deb b2bd a9e8 8cbd 0ab9 0b3d 6ddc 84bd
000001f0: 3c20 8cbc 9df0 013d c29c 283d c7d1 42bd
00000200: 14ba 20bd 0f1f a1bd 40b2 56bd 0737 363d
00000210: c79e 1cbd e0c3 a93d 3977 2dbd 8c87 21bd
00000220: e146 b33d cf27 35bd 84bf 4ebd b033 17bc
00000230: c871 a83d dff2 98bd 4d09 ac3d 9714 29bd
00000240: a48f 983d b3af dabc 2985 1338 1acb af39
00000250: 1543 8cbd c111 af3c b95a 5a3d 27a8 73bd
00000260: 1c42 89bd 956f 9dbd bef6 cdbc ed30 453c
00000270: 27c0 07bd 1e10 d1bc 7548 22bd 7a53 b6bc
00000280: 8663 53bd 13a8 1bbd 150d b53b b87f b1bd
00000290: b832 4bbd 174a 7bbd 08bc 143d c13d 2cbd
000002a0: 4aa9 1f3d 418e 453d a225 f83c 8c8c 9ebb
000002b0: 74e1 663d fc9e a63d b9df 903d 3c22 0ebd
000002c0: 49b1 823c 05de 093d b1ee 6c3d ef6a bcbb
000002d0: fea3 9a3c 1a6e 323d 622e 173c 94ff 45bc
000002e0: 891c 973d 40ae acbd e923 abbd f84e cfbc
000002f0: 9b68 353d ee06 d43b b48d 89bd e55a b33d
00000300: 03af 17bd 9c88 a8bd aeb1 66bd 7fc7 86bc
00000310: d0af 463d 1523 e9bc a158 3e3c 833d 2e3d
00000320: 25e9 833c 7220 85bc 0223 81ba 6d6d 5dbd
00000330: 23c5 9d3d db1c 64bd 5e5b 753d 1aa4 94bd
00000340: 313b a0bd 2376 1fbd c371 53bd e8f6 7e3d
00000350: e00a 063c 0105 24bd 6635 7ebd 0ed8 2a3d
00000360: 8ff9 913d f137 0abd 4ff7 033d 345d 9c3c
00000370: 4ef5 23bd 80f2 963b 0fb0 b13d 0fd9 91bd
00000380: 9a3a 89bd c861 91bd 7fa9 8c3d c697 92bd
00000390: 523b b33c 45d0 b43d 85ce a53d 9df5 873d
000003a0: 4306 05b8 2cba a33d 975f 35bd 4d4b 8f3d
000003b0: a526 46bc 02d7 85bd 643e d9bc c1c0 d2bc
000003c0: 106d aebd 2705 863d b29f a43d 5f22 b7bc
000003d0: ccc2 fabc b9cb 6a3d 31ba a83c 63e4 9d3d
000003e0: b2ae 9a3d f220 a1bd dff1 62bd 9232 3dbd
000003f0: 6868 163d ffce 7e3d 0035 003d 715f 0238

dense5_1.bias f4 [2]
-0.03158688 -0.040300995
00000000: 3f61 01bd a812 25bd

dense5_2.weight f4 [4, 128]
0.050800007 -0.0028744994 0.045039956 -0.045816362 0.0026337777 0.04776458 0.058095362 0.019488923
-0.02079714 0.07506846 0.076021746 0.033001676 -0.011207163 -0.061311737 -0.055564485 0.07918104
0.022691062 -0.029475514 -0.05801382 0.033185564 -0.03679703 -0.08280886 0.058020055 -0.042156354
0.0003782258 0.041036446 0.039243255 0.042047013 -0.030209027 -0.06511195 0.008362799 -0.034580275
-0.060264207 0.059740964 -0.077573106 0.009345926 0.04490047 -0.08171678 0.041712735 -0.08468087
-0.0022723472 0.07908533 0.011428276 -0.071091056 -0.085382424 0.02632117 0.00086689746 0.046298448
0.052874863 0.040346008 -0.06114338 -0.05170749 0.079573646 0.03378136 -0.04899593 0.07151075
0.086550735 -0.060592078 0.0653429 0.01867864 0.0010549567 -0.034219235 0.013590515 0.028723266
0.06557826 0.031247726 0.07734857 -0.08178798 -0.009463158 0.03932297 -0.044161826 0.0328643
0.033228848 0.056791022 -0.05296294 0.002857335 -0.022604177 -0.017569114 -0.022682538 0.019173665
-0.019161612 0.06219328 0.0028385902 -0.040130068 -0.026544865 0.0112696355 0.061751887 -0.07638151
-0.004241416 -0.05718518 0.054414954 0.07266289 -0.017112622 0.039893497 -0.032147698 0.08275934
0.00778211 0.035606794 -0.010949835 0.080934025 -0.065297954 -0.014906191 0.052071407 -0.0713775
0.06320923 -0.0643627 -0.040068947 0.08676799 0.007986037 -0.013487139 0.030996235 0.07493726
-0.035926532 -0.087052256 0.083707646 0.06798039 0.04841871 -0.03509726 0.010063993 -0.075649485
-0.06007856 -0.03623906 0.024446985 0.06181729 -0.025966989 0.00074033043 0.0102138035 0.012473939
0.040487736 -0.038563743 -0.066759944 0.025027504 0.042820353 -0.049215466 0.056810178 -0.025675891
-0.03884437 -0.035517875 -0.03270843 -0.03488541 -0.010790278 0.081048176 -0.06779941 -0.012852861
0.06992963 0.036088124 0.07525314 -0.025057914 -0.046689834 0.08797592 -0.064427346 0.053431973
0.07744685 -0.07249748 0.04674348 -0.04266752 0.08033523 -0.084587365 0.008041545 -0.010180666
-0.07158767 -0.032730345 -0.07654015 0.018169137 0.0537404 -0.033218976 0.048264433 0.06562254
-0.028078072 0.034792528 0.023216907 0.045090005 0.044471245 -0.02542419 -0.017203195 -0.08574808
0.08667015 0.042940747 0.031297408 -0.023214348 0.06318656 -0.01422905 0.044754103 -0.07876219
0.08154912 0.031395808 -0.05514876 -0.0474786 0.07677871 -0.049710784 -0.050639123 -0.07110287
-0.008854009 -0.06918712 -0.02773193 -0.0010705616 0.047587205 -0.051254224 0.087431274 -0.07158421
-0.08066562 0.049503516 -0.0021463388 0.024563404 0.07114572 -0.05771636 -0.02916881 -0.07204387
-0.061053395 0.0139387315 0.046013948 -0.037483793 0.085048184 -0.019200271 -0.05355703 0.06626432
-0.082322225 0.0044955197 -0.019677542 -0.02574872 -0.036249228 -0.08014633 -0.0077034957 0.015832348
0.014174069 0.08528202 -0.08693108 -0.03436377 0.029121522 0.07693037 -0.015303858 -0.029527534
0.06385232 -0.022537332 -0.06490206 0.014895581 0.07770264 0.051429637 -0.055357534 -0.07818143
-0.031556576 -0.008310789 -0.047943093 -0.019671736 0.02719813 -0.06804792 0.011978472 0.033960413
0.044817273 0.052995943 -0.08157255 -0.060764503 -0.07682203 0.021705564 -0.07211352 -0.019526592
00000000: ab13 503d 1962 3cbb d17b 383d f0a9 3bbd
00000010: 759b 2c3b cba4 433d 67f5 6d3d 3ca7 9f3c
00000020: c45e aabc 7ebd 993d 4ab1 9b3d c42c 073d
00000030: 409e 37bc 0422 7bbd 9697 63bd ab29 a23d
00000040: 9be2 b93c a276 f1bc e69f 6dbd 96ed 073d
00000050: 7cb8 16bd b197 a9bd 70a6 6d3d 24ac 2cbd
00000060: 9c4c c639 d515 283d 89bd 203d 7d39 2c3d
00000070: ec78 f7bc 6a59 85bd 1f04 093c 0ca4 0dbd
00000080: 9ad7 76bd f1b2 743d a6de 9ebd a81f 193c
00000090: 8ee9 373d 215b a7bd f9da 2a3d 2a6d adbd
000000a0: a9eb 14bb 7df7 a13d aa3d 3b3c 3098 91bd
000000b0: fbdc aebd 7f9f d73c 8140 633a 71a3 3d3d
000000c0: 5093 583d db41 253d 7b71 7abd 3ccb 53bd
000000d0: 82f7 a23d 535e 0a3d f5af 48bd 3a74 923d
000000e0: 8341 b13d 662f 78bd 80d2 853d f203 993c
000000f0: 7946 8a3a 7829 0cbd c0aa 5e3c 0e4d eb3c
00000100: e54d 863d 3bfb ff3c ed68 9e3d 7580 a7bd
00000110: 5d0b 1bbc 1f11 213d 08e3 34bd b79c 063d
00000120: f91a 083d b49d 683d abef 58bd 2042 3b3b
00000130: 652c b9bc 1aed 8fbc bbd0 b9bc 1712 9d3c
00000140: d0f8 9cbc 61be 7e3d a407 3a3b 6d5f 24bd
00000150: 9e74 d9bc 47a4 383c 8cef 7c3d e96d 9cbd
00000160: 94fb 8abb 023b 6abd 37e2 5e3d 48d0 943d
00000170: c52f 8cbc 5d67 233d 4ead 03bd bb7d a93d
00000180: 1201 ff3b 6ed8 113d f066 33bc bdc0 a53d
00000190: efba 85bd 1939 74bc d448 553d 5e2e 92bd
000001a0: d773 813d 97d0 83bd 561f 24bd 6ab3 b13d
000001b0: ded7 023c 29f9 5cbc d1eb fd3c b578 993d
000001c0: b327 13bd 7448 b2bd ea6e ab3d 4d39 8b3d
000001d0: b252 463d 25c2 0fbd 72e3 243c 1eee 9abd
000001e0: f014 76bd 696f 14bd 0b45 c83c 2034 7d3d
000001f0: b9b8 d4bc bc12 423a cc57 273c 7e5f 4c3c
00000200: 78d6 253d 04f5 1dbd 70b9 88bd 7b06 cd3c
00000210: 6564 2f3d 2896 49bd cab1 683d 3f56 d2bc
00000220: 461b 1fbd 317b 11bd 46f9 05bd 01e4 0ebd
00000230: b5c9 30bc 96fc a53d 6bda 8abd ce94 52bc
00000240: 4437 8f3d 24d1 133d 511e 9a3d 4146 cdbc
00000250: d73d 3fbd b82c b43d 7cf2 83bd 7cdb 5a3d
00000260: 749c 9e3d 8f79 94bd 1776 3f3d 23c4 2ebd
00000270: cc86 a43d 243c adbd afc0 033c cfcc 26bc
00000280: 8e9c 92bd 4110 06bd 15c1 9cbd 71d7 943c
00000290: e51e 5c3d 9f10 08bd edb0 453d 1c65 863d
000002a0: fc03 e6bc 9c82 0e3d 6231 be3c 4cb0 383d
000002b0: 7b27 363d 6446 d0bc b7ed 8cbc b09c afbd
000002c0: 1f80 b13d a3e2 2f3d b631 003d 042c bebc
000002d0: f567 813d f620 69bc 1450 373d 124e a1bd
000002e0: 3a03 a73d e498 003d abe3 61bd ec78 42bd
000002f0: 283e 9d3d 899d 4bbd f86a 4fbd 629e 91bd
00000300: 6810 11bc fab1 8dbd 132e e3bc 1652 8cba
00000310: cdea 423d f3ef 51bd 2b0f b33d be9a 92bd
00000320: 0434 a5bd 33c4 4a3d 97a9 0cbb 3139 c93c
00000330: d9b4 913d fd67 6cbd 6ef3 eebc bd8b 93bd
00000340: 2013 7abd 475f 643c 1f79 3c3d 9b88 19bd
00000350: be2d ae3d e349 9dbc 9e5e 5bbd 96b5 873d
00000360: 8e98 a8bd 274f 933b cc32 a1bc fbee d2bc
00000370: 127a 14bd c223 a4bd 9b6d fcbb d7b2 813c
00000380: 5b3a 683c 57a8 ae3d ec08 b2bd 06c1 0cbd
00000390: 4290 ee3c ab8d 9d3d 08bd 7abc bae3 f1bc
000003a0: 01c5 823d 36a0 b8bc 5feb 84bd 980c 743c
000003b0: 9022 9f3d e2a7 523d 95be 62bd 961d a0bd
000003c0: 7841 01bd fa29 08bc fa5f 44bd 9f26 a1bc
000003d0: 9dce de3c b55c 8bbd 5a41 443c 131a 0b3d
000003e0: 5192 373d 4612 593d 820f a7bd 33e4 78bd
000003f0: de54 9dbd decf b13c 41b0 93bd 3bf6 9fbc

dense5_2.bias f4 [4]
0.060875915 0.026616672 0.009259526 -0.039056525
00000000: 0659 793d 350b da3c 44b5 173c bcf9 1fbd
