Pytorch face detection - Test/MTCNN_models/rnet_0.pt (torch, 402867 bytes, 12 tensors)

conv1.weight f4 [28, 3, 3, 3]
00000000: 7006 343e 1449 393c 3679 ee3b d9df cc3b
00000010: 1674 233e 251b efbd 8bd2 ecbd fa9b 0ebd
00000020: 5a7c c5bd e75a 9ebd a5b6 143d ab80 2d3e
00000030: fd70 c93d 7434 5fbc fa7b b53d c8dc 933d
00000040: 9bcb 043e 7ee0 28be 763b 183e a80d b7bd
00000050: 3f98 18be 2f1c d5bc c6a3 2b3d f4d1 eebd
00000060: 6fb2 423d 6ab5 8ebd 3e9a ac3d b8a8 d33d
00000070: e1d3 8abd 0d9e 8f3d b5fc c93d 40a2 fcbd
00000080: f1bf f83d 876c b63d 2876 953a 3d40 c2bd
00000090: 4b89 443e a67f a5bc c7bd 99bd d0d3 fd3c
000000a0: 50c6 97bd 2809 e3bd a57b 923d a1de 373e
000000b0: f24c 3b3e 87f2 0e3e f8f6 74bd da70 8cbd
000000c0: 2a23 39bd 4291 f43c 53aa e0bd 0f2e 3ebe
000000d0: 1994 413e a958 75bd 262e 03be bc5d 583d
000000e0: de33 dcbd a684 a83d 1282 ad3d 617f 053e
000000f0: 0b5c a53c 9177 c2bd c21f 9ebd 874e ed3c
00000100: aa77 90bd 225b 403e a63b e13d 30e3 73bd
00000110: 6b6b 09bd c654 af3d 1583 e13d 8b7b 38bc
00000120: 19e0 3a3e 41f4 b6bd 8ced 193e ba5e 383e
00000130: 7d78 233d 73c7 61bd 42d2 90bd 861b 443e
00000140: 46ba 05bd 0717 d9bd eae0 d13d 2a33 44bc
00000150: 19e7 d1bd d1eb 0e3d 3e1c 19be 2270 903d
00000160: df14 093e b52c adbc cbdc c73d 90ec 14be
00000170: 084c febd 84b9 1c3e cdb9 8abd 0f0d ddbd
00000180: ba7a 013e e59c 063e eaf0 e7bc ed96 1d3b
00000190: 6633 30be a706 4a3b 2fad 243e 448d f43c
000001a0: 3779 d4bd db0b 00be 14dc 183e 0c18 313e
000001b0: 1db8 84bd 88fe 2a3d 2f1c 083e e5d1 45bd
000001c0: 9e60 f2bd 57e4 19be d355 a3bd d8ed 42be
000001d0: 1a9e 1d3e 484d 42be 2cac 293e 6822 c93d
000001e0: 84e9 733d 9c41 ddbd 3799 283d 23bd 373e
000001f0: 1027 063e b084 0cbe 0da8 063e 5973 8dbd
00000200: e0a1 c3bd 9c1c 49bd ec7c 56bd 9e11 893c
00000210: 8c87 08be 7454 2dbe 76ae 853d 4047 37be
00000220: ba5c c33c e296 38be c765 d93c ce6f a5bd
00000230: c3a3 ab3d 1e16 bf3b 6fc6 a93d e711 ce3d
00000240: 792f 34be 8ad0 d23c e200 2e3b d930 06be
00000250: f922 903d 2533 aa3d e135 1cbe b87d 2a3e
00000260: 3305 debd 6ec4 38bd 7c8e 1cbe 46aa 113e
00000270: 37fb 433e f1a8 063e 5ac4 1e3d 6a60 e4bb
00000280: bf7c 6ebd 47f7 c3bd 0ea3 373e 004f c13d
00000290: 59b4 353e 0d70 2b3e e232 3d3e 7d53 8fbd
000002a0: 8021 133e 5f90 193e edb9 12be bee9 38bd
000002b0: 3936 533d 0ee4 c8bd 51a4 ad3c cfac bfbb
000002c0: c567 44be 99a4 b5bd 18d3 613d dfab ca3c
000002d0: 261e 25bd fdd0 8d3d a692 8f3d b831 193e
000002e0: a727 97bc 17a4 3a3e 6bd0 00be c146 373e
000002f0: 9a7c 0f3e 716b 80bd d305 1a3d 287a 16bc
00000300: 6ee7 10bc a2e4 8f3c e561 8dbb af69 7bbd
00000310: da34 68bd 0afe 39be 7c25 1b3e 5eca b9bd
00000320: 7330 37be d652 b6bd d9a9 e13d 2c78 cf3d
00000330: e7df cfbd 003b 38be 5c48 a2bd 6cee 68bd
00000340: 6448 17be 8e5a 3b3d 0ea1 2c3e 7cf7 15bc
00000350: 03a5 443e 1447 36be 0278 cebd 2eac efbd
00000360: b54b de3d bfd7 1b3e a359 0c3d f95a 233e
00000370: 13c5 f7bd 0d54 92bd 22ea 603d 8eb0 3f3e
00000380: f984 b83c fd64 61bd b8ec 0d3e 0dd8 1abd
00000390: b4ed 81bd 9491 1b3e e51e e23d 8e05 2d3e
000003a0: 1435 ad3d 764d c83d b8a1 293e ecc8 2ebe
000003b0: 1a1e 1ebd b741 41be 4324 0a3e a9a9 1cbd
000003c0: c316 0abe 4f18 073e 269c 033e 478b acbd
000003d0: 0fe7 61bc b514 fd3a a899 3b3d fa10 143e
000003e0: 2eac 223c a14c a2bb 8ff0 1bbe ebaa d63d
000003f0: 1ffa 203e 48ab 0fbe 2148 1c3e f9d3 8d3c
0.1758058 0.011308927 0.007277633 0.0062522707 0.15962252 -0.11675099 -0.115635954 -0.03481672
-0.09642859 -0.07732182 0.036306996 0.16943614 0.09836004 -0.013623346 0.08861537 0.07219845
0.12968294 -0.16491887 0.14866433 -0.089381516 -0.14901827 -0.026014416 0.041904233 -0.11661139
0.04753345 -0.06968196 0.08427857 0.10334915 -0.06778694 0.07012568 0.09862653 -0.12335634
0.12145985 0.08907419 0.0011403011 -0.09484909 0.19192998 -0.02020247 -0.075069 0.03098479
-0.07410872 -0.11085731 0.071524896 0.1795602 0.18291071 0.13959704 -0.05980584 -0.06857462
-0.04519955 0.02985442 -0.10969987 -0.18572257 0.18904151 -0.059899006 -0.12810573 0.052823767
-0.107520804 0.08228426 0.084720746 0.13036872 0.020185491 -0.09495462 -0.07720901 0.028968109
-0.07054074 0.18784764 0.10997705 -0.059542835 -0.033549707 0.08561091 0.1101133 -0.011259924
0.18249549 -0.089333065 0.15032023 0.18004885 0.03990983 -0.05512185 -0.070713535 0.19151124
-0.032648347 -0.10600095 0.10247977 -0.011975089 -0.102491565 0.03489286 -0.1495218 0.07052638
0.13386868 -0.021139482 0.0975891 -0.14543366 -0.124168456 0.15305144 -0.0677372 -0.10793506
0.12644473 0.13145788 -0.028313119 0.0024046258 -0.17207107 0.003082672 0.1608169 0.029852517
-0.103746824 -0.12504523 0.14927703 0.1729433 -0.06480429 0.041746646 0.13292001 -0.048295874
-0.118348345 -0.15028511 -0.07975354 -0.19036043 0.15392342 -0.18974793 0.16569585 0.098210156
0.05954887 -0.108035296 0.041161742 0.17943244 0.13100839 -0.13722491 0.13150044 -0.069067664
-0.095523596 -0.04909955 -0.05236523 0.016732033 -0.13332957 -0.16926748 0.065274164 -0.17898273
0.023847926 -0.18026307 0.026537789 -0.08077966 0.083808444 0.005831494 0.08289801 0.10062008
-0.17596234 0.025734205 0.002655082 -0.13104571 0.070379205 0.08310536 -0.15254928 0.1664952
-0.108408354 -0.045109205 -0.15288728 0.1422511 0.191388 0.13150384 0.038761474 -0.0069695013
-0.058224436 -0.09568649 0.17933294 0.09438896 0.17744578 0.16741963 0.18476442 -0.06998346
0.14368248 0.1499648 -0.14328738 -0.04514479 0.051565383 -0.09809123 0.021196516 -0.005849458
-0.1918021 -0.08869285 0.055132955 0.024740158 -0.040311955 0.06924627 0.07010393 0.14960372
-0.018451525 0.18226658 -0.12579505 0.17898084 0.14012375 -0.06270493 0.03760321 -0.009184398
-0.00884424 0.017565075 -0.0043146485 -0.061380085 -0.05669103 -0.18163314 0.15151018 -0.090718016
-0.17889576 -0.089025185 0.11018724 0.10130343 -0.10150128 -0.17991257 -0.07923958 -0.056868
-0.14773709 0.045740657 0.16858312 -0.009153243 0.19203572 -0.17800552 -0.100814834 -0.117027625
0.10854284 0.1521902 0.03426517 0.15952672 -0.12098136 -0.07144938 0.054910786 0.18719694
0.022524344 -0.05502795 0.13859832 -0.0378037 -0.063441664 0.15192252 0.11041049 0.1689665
0.084573895 0.097803995 0.16565597 -0.17068833 -0.038602926 -0.18872724 0.13490395 -0.038247738
-0.13485245 0.13192867 0.12852535 -0.084250025 -0.013787999 0.0019308539 0.045800835 0.14459601
0.009928746 -0.0049529825 -0.15228485 0.10481819 0.15720414 -0.14030182 0.1526189 0.01731299

conv1.bias f4 [28]
00000000: 9e25 07be 4553 06bd ffe8 f83d 1d14 b33d
00000010: 78a7 ecbd e257 143e 08d5 38be 45a0 2a3e
00000020: 198e 2a3e 9e7a c53c 7ebf 4cbd cb1f f53d
00000030: 4ac8 4b3d 7e8a dabd 4653 33be 7955 1f3e
00000040: 27ef dfbd 97b4 98bd b992 2a3e 3cc3 f93b
00000050: 5790 f7bd 439d 403e 4219 353e 9d20 9cbc
00000060: 4d7a 2cbe b0b2 b4bd 0ed8 623d ce4e b2bd
-0.13197944 -0.032794256 0.121538155 0.08744071 -0.1155538 0.1448665 -0.18050015 0.166627
0.16655768 0.02410632 -0.04998731 0.11968955 0.049751557 -0.106709465 -0.17512235 0.15559949
-0.109342866 -0.0745632 0.16657533 0.0076221507 -0.120880775 0.1880999 0.17685416 -0.01905852
-0.16843529 -0.088231444 0.055381827 -0.08706437

conv2.weight f4 [48, 28, 3, 3]
00000000: 1fd1 393d dbc3 5fbd ad51 dd3c 9dd9 1dbd
00000010: 595f 73bd 7e96 133c 277b e23c 5327 993c
00000020: 0926 4bbd 1c4d bf3b a36b 4c3d 1e74 a1bc
00000030: c442 0a3d af34 41bc 0706 d43c 4f48 8abc
00000040: d1b4 94bc 06bb 36bc ea45 d7bc c5f8 733d
00000050: 4dfe a6ba 6ccf e43c d174 46bc b638 273d
00000060: f776 19bd 63a9 80bd 130b 2c3d 03d5 5bbd
00000070: 82aa 74bc 1272 ad3b 8b00 033d 16a3 303d
00000080: 75e4 84bb de5b 713d 8416 1dbd 52db 653d
00000090: 69fd 15bc 278d 06bd 730d 0ebd 73b4 1e3d
000000a0: 278a e9bc 7aea 703c 71be 3ebd d4a9 543d
000000b0: 456c 8dbc 22c9 0a3d 67d6 93bc 58ad 7ebd
000000c0: 2c8d 0d3d 8090 8ebc 6486 82bc 8d6d dbbc
000000d0: 3e11 7b3d 02e8 7ebc 7070 943c f2ca 0f3d
000000e0: 0c50 54bb 7e99 6abd cff2 7e3d bb33 cc3c
000000f0: 9230 bbbc ec5f 4d3d a285 8e3c f4d4 413d
00000100: 23d2 ddba 4178 d6bc ee60 5a3d fab1 15bd
00000110: e858 69bb 4e31 57bd 3594 5bbd b441 873b
00000120: 4a39 eab9 353c 2dbc 4ba6 36bd 1551 98bb
00000130: 4df7 1d3b f550 09bd 2e00 e13c fab3 3abd
00000140: 49fb c7bc a84e 243b 009f 44bd ee15 9e3c
00000150: 2f60 f33c 9cab 023d 0ebe 953c 62ae 893b
00000160: ce4b 653d 02ac 3bbd c657 693d f045 fc3c
00000170: 7fc3 213d 0f78 0eb9 d797 2bbd 8845 8d3b
00000180: 8531 54bd 368f 343d da06 013c 376c 79bc
00000190: 8403 483d 0d13 c23c 824d 42bd 823b 35bd
000001a0: 8c7a 8aba 6693 1abd 3b05 b1bc 1fa8 ebbc
000001b0: f296 283c 7de2 22bd ca68 61bd a0dd 453d
000001c0: 939f 2fbd e4f6 8bbc 86ed 353d 30f2 69bd
000001d0: b4e9 d6bb 8f03 1f3c a315 69bd 401d 6fbd
000001e0: 3935 113d 8b05 f43c 5edb ebbc eff0 56bd
000001f0: 9bc0 9d3c 150e a3bc 0451 503d bea6 d83c
00000200: 7d35 df3b 3627 763c bb61 3d3d 9a8c e23c
00000210: 50d6 593d 9ae4 3bbd a1f0 82bc 37e5 343b
00000220: 2cd8 9e3c 28d0 06bc a5fe 05bd 0104 5fbc
00000230: b957 39bd 6e31 213d aacd f13c 63c6 1bbd
00000240: 3ad3 67bd 5f55 eebc 917a 613d 55a7 c9bc
00000250: 4927 773d 68d9 ce3c 584b 573c eff7 f9bc
00000260: 08b2 3c3c 29a9 dfbc b099 66bd 818a dc3b
00000270: 1f72 113d 43bb e0bc 9c95 5fbd 8318 073d
00000280: 7e93 79bd 9c36 1dbd e4ea 3a3d 092e 203d
00000290: eab8 c63c 74e1 54bd 45d4 283d 51e8 333d
000002a0: 3016 ca3c 881c 4abd 4ea8 97bc 8d75 e73c
000002b0: 68f6 c9bc 5cb9 72bc 2fb9 803d ac5f f83c
000002c0: c746 603d 75fb 043d 9db8 11bd a776 55bd
000002d0: f807 9b3b 3de7 28bd bafc 3e3b e651 ebbc
000002e0: 70dc 633d 102f 64bd 6cae 923c 6978 633d
000002f0: 82e4 43bd c275 d1bc 4d63 82bb 27f1 533d
00000300: 1ec2 383d d2bc aab9 bdbe fdbb 9118 083d
00000310: 84cf 6c3c 1229 5cbd 46a5 09bd 8647 29bd
00000320: bed5 27bc 3ca7 853b c412 06bd 7e5f a63c
00000330: a12f e33c 1a47 3c3c 4059 dbbc f77a 283d
00000340: be1c 8fbc 74f6 433d f2c6 9cbc 69b7 263d
00000350: 274a 943c b7fd 6bbc 92d9 cd3b a72e 6a3d
00000360: 2879 d5bc 8919 96bc 88f4 3dbc b591 c3bc
00000370: e90a c03c 9897 f0bc b86a 10bb 593f 68bd
00000380: d512 5ebd bc9e cfbc 7899 89bc 697d 68bd
00000390: d0f6 21bd 8b54 c7bb 48e3 723d 3254 c9bc
000003a0: 4d3b 1abc bd3b 39bc 1e34 d937 c23a 07bd
000003b0: ecc0 c9bc 4012 e83c 7058 0dbd 9181 d93c
000003c0: f954 aa3c abb4 af3b b16c 33bd e536 da3a
000003d0: 67cd 1e3d a635 903c 4387 e83b 41ce 293d
000003e0: fc28 eb3c 94d6 b53c 91b2 14bd 3a89 253d
000003f0: ec7a 713c 2153 243d 53f0 c53c 6577 743d
0.04536545 -0.05463014 0.027016485 -0.03853761 -0.059417102 0.009008048 0.027646614 0.018695509
-0.04959682 0.0058380496 0.049907338 -0.01970869 0.03375508 -0.011792346 0.02588178 -0.016880183
-0.018152626 -0.011152988 -0.026278455 0.059563417 -0.0012740582 0.027930938 -0.012112812 0.04082557
-0.03746697 -0.06282308 0.04200275 -0.05366994 -0.01493323 0.0052931393 0.03198294 0.04312428
-0.0040555545 0.058925502 -0.03835155 0.056117363 -0.009154656 -0.032849457 -0.034680795 0.03874631
-0.028508259 0.014704341 -0.046568338 0.051919773 -0.017263541 0.03388322 -0.018046571 -0.062177032
0.03455846 -0.017402887 -0.015933223 -0.026785636 0.06129574 -0.015558245 0.01812002 0.035105653
-0.0032396344 -0.057275288 0.06224328 0.02492701 -0.022850309 0.050140306 0.017397705 0.04732223
-0.0016923588 -0.026180388 0.053315096 -0.036546685 -0.003560597 -0.052537255 -0.053608138 0.0041277055
-0.00044674642 -0.0105734365 -0.044592183 -0.0046483376 0.0024103702 -0.033524472 0.027465906 -0.045581795
-0.024411814 0.0025071297 -0.048003197 0.019297566 0.02970895 0.03190194 0.018279102 0.0042016963
0.055980496 -0.045818336 0.056968473 0.030795068 0.03949308 -0.000135869 -0.041892853 0.0043112673
-0.051805038 0.04408189 0.007875169 -0.015223554 0.048831478 0.023690725 -0.0474372 -0.044246204
-0.0010565086 -0.037738226 -0.02160894 -0.02876669 0.010289894 -0.039766777 -0.055031575 0.04830706
-0.04287679 -0.0170855 0.044415973 -0.057115734 -0.0065586213 0.009705438 -0.0569054 -0.058377504
0.035451148 0.0297878 -0.028791126 -0.052475866 0.01925688 -0.019904176 0.050858513 0.026446696
0.006811796 0.015023997 0.04623578 0.027654935 0.0531829 -0.04587231 -0.015983881 0.0027602443
0.019390188 -0.008228339 -0.03271355 -0.013611794 -0.045249674 0.03935378 0.029517014 -0.038030993
-0.056597926 -0.029093442 0.05504853 -0.024615923 0.0603402 0.025250152 0.013140522 -0.030513732
0.011517055 -0.027302342 -0.05629891 0.006730378 0.035509225 -0.027433043 -0.054586038 0.03298236
-0.060931675 -0.038382158 0.045634165 0.039106403 0.024258096 -0.05197282 0.04121806 0.043922726
0.024668783 -0.049343616 -0.018512871 0.028254295 -0.024653628 -0.014814701 0.06285321 0.030319057
0.054755 0.03246637 -0.03557645 -0.05211511 0.0047311746 -0.04123615 0.0029142336 -0.028725576
0.055630147 -0.055708945 0.017905436 0.055534754 -0.047825344 -0.025568847 -0.0039791227 0.051743653
0.045107 -0.0003256561 -0.007743685 0.033226553 0.014453772 -0.053750105 -0.033604883 -0.041327976
-0.010243831 0.004078774 -0.03273274 0.020309206 0.027732672 0.011491561 -0.026775956 0.041132893
-0.01746976 0.047842458 -0.019137833 0.040702257 0.018101765 -0.014403752 0.00628204 0.057173397
-0.026058748 -0.018322723 -0.011593945 -0.02387319 0.023442702 -0.02936916 -0.0022036266 -0.056701038
-0.05421718 -0.025344245 -0.016796812 -0.056760225 -0.03954202 -0.0060830764 0.059298784 -0.02457628
-0.0094135525 -0.011305747 2.5892685e-05 -0.03301502 -0.024628125 0.028329015 -0.03450817 0.02655104
0.020792471 0.0053621135 -0.043804828 0.001664844 0.038770106 0.017603707 0.0070962026 0.041456465
0.028706066 0.022197045 -0.036303107 0.040414073 0.0147387795 0.04011834 0.024162447 0.059684176

conv2.bias f4 [48]
00000000: 0bfd 563b c104 7abb 2e77 80bd f8c7 1dbd
00000010: 9abd fb3c 0f8b 623c 7e42 0b3b 9989 193d
00000020: 96dd cd3c 818c a6bc 45c4 30bc bb5e bd3c
00000030: 5fca 1cbd f2ab 4cbd 0324 443c 5161 693d
00000040: c38a 353b 73c9 ae3c ab30 c1bc d926 4a3d
00000050: 56ab 75bc c4e9 30bd c53b cd3c 0fdd bebc
00000060: cfa2 233d d82f 79bd e2e2 0dbd d028 7a3d
00000070: a2ad f1bc 1a5a 5a3d f391 713d 7974 4fbd
00000080: 20ae 063d 9888 84bc 06c7 96bc 0bd6 6f3d
00000090: 3f1c 13bd bb19 733d 18dc 8e3a 780c debc
000000a0: d6c3 a9bc 0eda 113d d4e6 22bd a3fe 81bb
000000b0: b546 babb c77e 163d b6b7 c1bb ae3b 92bb
0.0032804634 -0.0038149806 -0.06272732 -0.038520783 0.030730058 0.013827099 0.002124935 0.03748474
0.025130074 -0.02033067 -0.010788982 0.02311646 -0.038278934 -0.049968667 0.0119714765 0.056977574
0.0027701117 0.021336293 -0.023582777 0.049353454 -0.014994463 -0.043191686 0.025052914 -0.023298768
0.03995019 -0.060836643 -0.0346402 0.061074078 -0.02950174 0.053308584 0.05897708 -0.050648186
0.032880902 -0.016178414 -0.018405449 0.058553737 -0.03591561 0.05935071 0.0010899333 -0.027105555
-0.020723265 0.035608344 -0.039770916 -0.0039671226 -0.0056846985 0.036741998 -0.0059117926 -0.004462681

conv3.weight f4 [64, 48, 2, 2]
00000000: 01aa 31bd 6e78 c93a 3600 063d e96a 743a
00000010: a292 52bd 6bb8 8abd bca0 383d af4e 5a3d
00000020: e29a bcbc 08b4 51bd a9e6 bbbb d3fc 6d3d
00000030: 8948 06bd e4ec 6dbd 2273 93bd 9452 fe3c
00000040: 4768 8ebd 5dc5 613d 474d 58bd a5f7 063d
00000050: cea6 853c 72cb 703d 7562 17bc 344e 26bc
00000060: c66b 313d ccfe 053c df6f 583d 2ded da3c
00000070: ce70 113d 5a33 823c 3e1e 87bd b749 823d
00000080: eb6b 88bb e825 e1bc 2cbd 913d a49c 46bc
00000090: 9463 38bd 4221 52bd 8832 44bd 2d48 6c3d
000000a0: 6d11 12bc 20cb 86bc f827 9d3c 86fd 0fbd
000000b0: 24f2 fabc bef8 41b9 c931 61bd 4532 8bbd
000000c0: 6c44 543c acd7 29bd 8d01 cabb 9f21 4cbd
000000d0: 8fdb 1b3c ad6b 7c3d 2fe7 8cbb 870d 11bd
000000e0: c234 363d 5d33 c43c a155 803d 43e3 50bd
000000f0: a6a1 23ba 701b 75bd 2555 9f3c d58d 9dbc
00000100: f398 e93c cfc4 69bb 479b 1e3d db7a 153d
00000110: fbd1 363d a98f 61bd 17f3 88bc 4330 963c
00000120: c72b a33c 9c67 5c3d 120a 7fbd cae5 733d
00000130: 2bfd b3bc cdb6 133d af9e 1d3c 358c b53c
00000140: 0b6f 0f3c dddc 3fbd acc9 52bd db75 b6bc
00000150: 3536 d7bc d7bc 35bd ca2b 66bb 130e 343d
00000160: 6334 19bd a751 42bc 7fdd 0ebd a98f 883d
00000170: 1436 babc 0f93 6dbd cedd 27bc 3e64 c83b
00000180: d440 81bd 0c85 b4bc a984 7537 7fea 74bd
00000190: a88a 873d 5e2b 1cbd 77f0 16bb 3bb1 0c3d
000001a0: 2546 ab3c 1f03 4a3d 8400 18bd ba85 083d
000001b0: 9b44 a43c f0b5 7b3d 7688 21bd 4258 1c3d
000001c0: ec6f 85bc f75d 7fbd fe3a 8a3d 2fb7 1abd
000001d0: c29b 993c 9a24 4c3d 4fbd 8cbc 4b64 773d
000001e0: d1ce 84bd c499 00bd 4cc2 8b3d 98c7 41bc
000001f0: 0c5c dfbb 1b46 74bd 0dc4 1ebd 62e9 78bd
00000200: e283 8bbd 7315 c7bc c11a 493b 794b 323d
00000210: c579 cf3b 3983 193d f11d 70bd 8289 57bc
00000220: 8370 3c3d 2e06 4dbd 5b1d 023b 44fe e03b
00000230: 3c32 9eba 276f dc3b 6d40 113c ea5b 45bd
00000240: 4cdb a8bb 49cd b03c 744b 183d 4085 26bd
00000250: bc3c 1f3d 6b2a 403d 5483 623c c2a3 613d
00000260: 03bb cfbc 8035 47bd 34d3 913d c634 913d
00000270: b6de 3dbd 5a73 703a 9dae 7cbc 71ed b83c
00000280: 64a7 87bd 2f3d e6bc 1a18 ab38 8de5 613d
00000290: 5440 253d 4f57 83bd 40df 83bd e89e 6f3d
000002a0: 474d 763d 9bb7 a4bc 8dac 8f3c d35b 8e3d
000002b0: 290d 3cbd 158d 74bd fa6c e63c 85cb 0ebd
000002c0: c85f 873d a281 b23b 8836 7dbd f455 4c3c
000002d0: d731 8abd 6d93 343c 0bc4 523d f70f 493c
000002e0: 8386 13bd 36da 243d 6326 a73c 4d87 683d
000002f0: 5ba6 05bd 72c7 8fbd 2be6 813c 6410 18bd
00000300: 4059 20bd 0bcf 7a3d 80f7 513d 9d74 3c3d
00000310: 050c 843d 0cdc cf3c ceda 3cbc 2f11 893d
00000320: 1700 e53c 3e5f df3c b87d 8b3d e845 26bc
00000330: acef 8abd 6cee a7bc 4b05 3c3c f3bc 92bd
00000340: dbf1 fdbc 53d2 81bd bda7 613d 6046 893d
00000350: ca18 2ebd fba0 583d a1c9 30bd a016 84bd
00000360: 9841 1b3d 89ff cf3c 08bd cf3b 87f4 4e3d
00000370: 1b0b 323d a6c0 abbc 3c31 8cbd 5704 6fbd
00000380: b41c 0bbd 453c bebc f52b 39bc 3861 bb3b
00000390: ac41 94bc 938d 803d ad2b aaba 76d4 5dbc
000003a0: 4f93 75bd 5093 48bd 9224 64bc ff3a 163d
000003b0: 572a 1b3d a606 193d 814d 6bbd e6e0 04ba
000003c0: ebed 44bd fb5a 753c a840 0ebd b12c 19bc
000003d0: 041d 1e3c 5f68 373d b779 40bd b885 64bd
000003e0: 388b 823d d2ae 0cbb d674 053d 7959 32bd
000003f0: 67e0 023d 9cb0 5ebd ffdd d4bb ae82 b03c
-0.04337502 0.0015370974 0.032715045 0.0009323792 -0.05140937 -0.06773456 0.045075163 0.053297695
-0.023023073 -0.05119708 -0.005734284 0.05810244 -0.03278402 -0.058087245 -0.07199694 0.031045236
-0.06953483 0.05511986 -0.052808072 0.032951016 0.01631489 0.05878777 -0.009239783 -0.010150481
0.04331567 0.008178424 0.052841064 0.026724422 0.03550797 0.015893627 -0.06597565 0.06361716
-0.0041632554 -0.027483895 0.0711616 -0.012122307 -0.04501684 -0.05130125 -0.047899753 0.05768602
-0.008915287 -0.01645428 0.019184098 -0.03515389 -0.03063304 -0.00018498578 -0.05497912 -0.067966975
0.012955766 -0.041465446 -0.0061647356 -0.04983675 0.009512796 0.061626125 -0.00430002 -0.03541329
0.044483908 0.023950273 0.062663324 -0.050997984 -0.0006242044 -0.05984062 0.01944978 -0.01923267
0.028515315 -0.0035670286 0.038722303 0.036494117 0.044633847 -0.055068646 -0.016717477 0.01833356
0.019918336 0.053809747 -0.062265463 0.059545316 -0.021971306 0.036063004 0.009620353 0.022161582
0.008754502 -0.04684149 -0.05146186 -0.022272995 -0.026270965 -0.044369545 -0.0035121315 0.043958735
-0.037403475 -0.011860288 -0.034879204 0.06668026 -0.022730865 -0.058001574 -0.010245753 0.0061154654
-0.06311193 -0.022036098 1.4634025e-05 -0.059793945 0.066182435 -0.038127296 -0.0023031512 0.034348708
0.020907471 0.049319383 -0.037109867 0.033330657 0.020052245 0.061452806 -0.03943678 0.038170107
-0.01628872 -0.06234547 0.06749533 -0.037772354 0.018751029 0.049839593 -0.017180113 0.06039838
-0.064847596 -0.031396642 0.068241686 -0.011827372 -0.0068163928 -0.05963717 -0.038761187 -0.060769446
-0.06812264 -0.02430222 0.0030686113 0.043529008 0.0063316547 0.03747866 -0.058622304 -0.013155343
0.046005737 -0.05005472 0.0019853923 0.0068662483 -0.0012069414 0.0067271176 0.008865458 -0.04818336
-0.0051530953 0.021582263 0.037181333 -0.04065442 0.03887628 0.046915453 0.013825256 0.055087812
-0.025357729 -0.048635006 0.07120362 0.07090144 -0.04635497 0.0009172462 -0.01542249 0.022574158
-0.06623724 -0.028105346 8.158405e-05 0.055150557 0.04034455 -0.06413137 -0.06439066 0.058501154
0.06013229 -0.020107081 0.017538333 0.06951108 -0.045910988 -0.05970486 0.028128136 -0.03486206
0.06610066 0.0054475823 -0.061819583 0.012471665 -0.067477874 0.011021477 0.051456492 0.012271873
-0.036016952 0.040247165 0.020404046 0.056769658 -0.032629352 -0.07020463 0.015856823 -0.037125006
-0.039147615 0.061232608 0.051261425 0.04600965 0.06447605 0.025373481 -0.0115267765 0.06692731
0.027954144 0.027267095 0.06811088 -0.010148503 -0.06783995 -0.02049943 0.011475871 -0.071649455
-0.030999115 -0.06338944 0.05509161 0.06702876 -0.04250411 0.052887898 -0.04316104 -0.06449628
0.037904352 0.025390403 0.006339673 0.05052617 0.043467622 -0.020965885 -0.06845328 -0.05835375
-0.03396292 -0.023222098 -0.011301984 0.0057183765 -0.018097721 0.06277003 -0.0012982987 -0.013539424
-0.059954938 -0.048968613 -0.013924735 0.036677357 0.037882175 0.037359856 -0.05744696 -0.0005068913
-0.04807846 0.014975305 -0.03472963 -0.009349034 0.009650473 0.04477727 -0.046991076 -0.055791587
0.0637421 -0.0021466506 0.032582127 -0.04354236 0.031952288 -0.054367647 -0.0064961906 0.021546688

conv3.bias f4 [64]
00000000: c654 0f3b ce92 4ebd dadf 1bbc 52b2 7ebd
00000010: 8566 1bbd 7cf2 44bc b300 c5ba a4e3 193b
00000020: c452 863d f8c4 4f3d 1515 7ebd 2f20 763c
00000030: c5e2 813d 18dc 39bd b78d 043d 6642 9c3c
00000040: 82b1 0cbd 211e adbc 7fbd 0bbd 74a4 393d
00000050: 76a7 5c3d 8642 853d 0e1f 36bb 65bd 803d
00000060: 8d66 7d3d f9a2 89bd 9e7a 19bd a717 fb3c
00000070: ba1e 5a3d 20fa eaba 004a a53a 150a 91bc
00000080: bfae 223d 38b4 dcbc 522b 193b cdaa 12bd
00000090: c739 8bbd a650 4c3c e574 b0bb 9dd3 8dbd
000000a0: 1714 bebc 4589 753d 8dff 823c a07a a63c
000000b0: af26 9abc 0026 823d acf1 6ebd 6529 3bbc
000000c0: 94b3 0fbd 8585 903d 3afb 3b3c eb5f babc
000000d0: 6d22 feba 2c28 0dbc 4f3a dd3b 17ab 6c3d
000000e0: a5c8 533d 2477 09bd fb6e 37bd 2327 8dbd
000000f0: 7b71 923c 9568 87bd 7088 373d 48c9 e53c
0.0021870597 -0.050432973 -0.00951382 -0.06218178 -0.037939567 -0.012020703 -0.0015030116 0.0023481632
0.06558755 0.050724953 -0.062031824 0.015022322 0.06342081 -0.045375913 0.032361712 0.01907463
-0.034348972 -0.02113253 -0.034116264 0.04532285 0.05387064 0.06506829 -0.0027789506 0.06286124
0.06186538 -0.06720538 -0.037470452 0.030650927 0.05325196 -0.0017927326 0.0012610555 -0.017705003
0.039717432 -0.026941404 0.0023371768 -0.03580742 -0.067981295 0.0124704 -0.0053850287 -0.06925128
-0.023202939 0.059945364 0.015990997 0.020322144 -0.018817274 0.06354904 -0.058335945 -0.011423443
-0.03508337 0.07056717 0.011473471 -0.022750815 -0.0019388922 -0.008615535 0.0067513357 0.05778035
0.05170502 -0.033560887 -0.044783574 -0.0689223 0.017876377 -0.06611744 0.04480785 0.02805008

dense4.weight f4 [128, 576]
00000000: a648 283c d8f9 a5bc 3858 babc 809e d33c
00000010: a3ab 983c d2f6 063d de69 8ebc b0b7 30bc
00000020: d693 a53b d0de 42bc 8779 25bd 6b1c d2bb
00000030: 36d3 dabb c669 9abc e74a 01bd bfa0 203d
00000040: 80c7 85bc e805 a83c 3668 903c b0bd d93c
00000050: eb22 6f3b ae77 83bc 47d6 293d ab28 113b
00000060: 4020 ddbb 3649 cabc 00c8 a83b 184e fcbc
00000070: 76a6 0fbd 7895 ffbc a7f8 1d3d 2be0 5d3b
00000080: 0fd1 0cbd 8365 b83c b672 bfbb 166b 583b
00000090: e671 3b3c 00d0 4dbb 80ea da3a 8bb3 1dbd
000000a0: 0e6f d5bc 6e5e b1bc b047 7c3c c8a9 14bd
000000b0: e048 1ebc b64c 70bc 2be3 3cbb 4ed8 94bc
000000c0: f312 e73c 38d0 dcbc 5eff 0d3d 9e2d 933c
000000d0: 1613 6ebc c85f e33c 9364 d0bc b686 ad3b
000000e0: bb11 a83c fb7f 263d 40a2 07bc e73c 223d
000000f0: b053 e5bc b372 e73c 80de c93b 809e 0abd
00000100: 40df 41bc 80ab 3fbb d85a 0f3d 6819 d83c
00000110: c01c ad3b 739b a93c 8328 fe3c 5bb6 c93c
00000120: 63c0 ad3c 36bb 15bc faac 143d abfa 063d
00000130: 00d5 78bb 765b 123c 0009 16bc 7673 debc
00000140: 40d2 c0bc 5873 1a3d 1051 b2bc 9ed1 053d
00000150: 00cb a73b 8076 a73b 8eb2 b23c 6e46 9e3c
00000160: b282 16bd 186d eebc c0ae fe3b 60b8 babc
00000170: 465c e8bc 5b69 103d 96b4 1b3b d0ec 04bc
00000180: 00e6 2c3c 48e5 bbbc 6bea cd3b 0055 08bb
00000190: 9633 1e3c 4b81 353c ab7f 643c 00bb 00bd
000001a0: 06d9 64bc a0ca 133c cfd1 0abd 56ff 17bb
000001b0: 664b f8bc c03c 67bc 6cf6 1fbd b38d d23c
000001c0: 5e8f c1bc 6ca1 103d c08a 43bb c81c 24bd
000001d0: a2dd 163d a38f 96bc c094 013b ef4b 203d
000001e0: 3c0b 093d ebbf 923c eb1c 2a3d b322 cabc
000001f0: 560f 4c3c 3bda 4abc 6060 66bc e27b 1cbd
00000200: 0be1 14bc b04e 8ebc 1bc8 94bc 5b42 e83c
00000210: 1475 1dbd 1858 0abd 3e7f fc3c 2364 b53c
00000220: ce8e 803c 1eee b5bc cbed 64bc d218 25bd
00000230: a69e 963c 82f6 213d ab03 f63c 1bdf 143c
00000240: 56dd 9cbb 9c21 273d 0b41 3dbc 4e4e 9a3c
00000250: 60c3 0c3c 038d 11bd b792 1b3d fb56 773c
00000260: 70ee 943c 306a e43c ce39 a3bc 601a fb3b
00000270: 40ea 1b3b 43e6 e83c aeeb 00bd 0702 29bd
00000280: 3bbf afbc e0d4 a8bb 535b c6bc 0095 a0bc
00000290: 63a3 27bd 46c8 62bc de86 e33c cb51 1b3d
000002a0: d8c9 c5bc cbef 983c 6bec 07bb 7ec4 a1bc
000002b0: b2f5 053d ca8b 143d 7734 12bd 0b06 c93c
000002c0: cb6a c83b 581b debc 863a 7abc 2378 e73c
000002d0: b6f0 cdbc 3626 db3b 1fbb 22bd 96b0 d1bb
000002e0: 960c 29bb 98d1 ea3c 1606 c43b e37f a7bc
000002f0: bef0 a2bc 2bf9 0fbc a8d3 d3bc cbe7 133c
00000300: 72e1 11bd 8bef eabb 2b5d 50bb 16b2 4abc
00000310: d075 3fbc db04 21bd 20a0 75bc 8b57 77bc
00000320: 002b 5c3c eb90 5d3b 20bd b0bc bb41 57bc
00000330: cbdd 7b3c 06f8 4fbc 68ec cebc de25 a13c
00000340: 5016 fcbc 281f c33c 8853 00bd 2be3 b23b
00000350: 0b6d fe3c 40c6 ad3c d6ad fb3b b01a 563c
00000360: 2e0b 9d3c 733d 11bd 5661 dbbc eb75 7fbc
00000370: 9847 87bc abb7 d33a 4b42 5e3c 060b 053c
00000380: 3017 993c 4e54 e53c 4063 613c 00a7 d4ba
00000390: 96f2 243c ab03 66ba 4828 e7bc f604 ccbb
000003a0: e848 843c e72a 203d 8228 0f3d 161e 0e3b
000003b0: eb9b 6bbc 962d 743b 9b96 a6bc 5844 24bd
000003c0: 8b96 8b3c faa3 24bd de2d 843c 4b76 e23c
000003d0: 4843 da3c bb6a a13c da7d 0ebd 560b d03a
000003e0: 1e1b ec3c 28b1 e7bc 4b3f 143c 3a94 203d
000003f0: 00fb 253a 8258 1dbd 0cba 153d 0ba5 1e3d
0.010271227 -0.020260736 -0.022747144 0.025832415 0.01863653 0.03295023 -0.017384466 -0.010785982
0.005053024 -0.011893943 -0.0403991 -0.006412079 -0.0066780103 -0.018849265 -0.031565573 0.0392158
-0.01633048 0.020510629 0.017627817 0.026579708 0.0036489319 -0.016048279 0.041464116 0.0022149484
-0.0067482293 -0.024693113 0.005150795 -0.030798957 -0.03507086 -0.031199202 0.03856721 0.0033855538
-0.03437906 0.022509342 -0.005842532 0.0033022813 0.01144073 -0.0031404495 0.0016701967 -0.038501304
-0.026053932 -0.021651473 0.015397951 -0.03629473 -0.009660929 -0.014666727 -0.0028821926 -0.018169548
0.028207278 -0.026954755 0.034667365 0.017966088 -0.014530918 0.027755633 -0.025438583 0.0052956
0.020516267 0.040649395 -0.0082784295 0.039608862 -0.027994007 0.028252935 0.0061605573 -0.033842564
-0.011833012 -0.002924651 0.034998745 0.026379302 0.0052829683 0.020704007 0.031025177 0.024623087
0.021209901 -0.009138873 0.036297776 0.0329539 -0.0037968755 0.008932939 -0.009157419 -0.027154665
-0.023537755 0.037707657 -0.02176717 0.03267061 0.005120635 0.005110562 0.021813657 0.019320693
-0.036745735 -0.029104754 0.0077722967 -0.022792995 -0.028364312 0.035256725 0.002375876 -0.008113101
0.010552883 -0.022936478 0.0062840483 -0.0020802617 0.009655854 0.011078189 0.013946454 -0.031428337
-0.013967758 0.0090204775 -0.033891495 -0.0023192964 -0.03030939 -0.014113605 -0.039053366 0.025702333
-0.023627933 0.035310194 -0.002983734 -0.04006651 0.03683246 -0.018379038 0.00197725 0.039134916
0.03345798 0.01791378 0.041531485 -0.024674749 0.012454828 -0.012381132 -0.0140610635 -0.03820408
-0.009086858 -0.017371505 -0.018161824 0.028351953 -0.038441733 -0.03377542 0.030822393 0.022142475
0.015693095 -0.02220827 -0.01397271 -0.040306874 0.018386196 0.03954173 0.030031046 0.009086396
-0.0047871275 0.040803537 -0.011551152 0.018836167 0.008591503 -0.03553487 0.037981715 0.015096421
0.018180102 0.027882665 -0.019925024 0.0076630563 0.0023790747 0.02843011 -0.03147476 -0.0412617
-0.02145349 -0.00515233 -0.024213469 -0.019602299 -0.040927302 -0.013841694 0.02777427 0.0379198
-0.024144098 0.01866903 -0.0020740281 -0.019747015 0.032705016 0.036266126 -0.035694566 0.024539014
0.0061162463 -0.027112648 -0.015272742 0.028255528 -0.025139194 0.0066879047 -0.039729234 -0.0063992245
-0.0025794855 0.028664395 0.005982171 -0.020446723 -0.019890185 -0.008787434 -0.025857762 0.009027432
-0.035615392 -0.007169669 -0.0031793814 -0.012371561 -0.0116858035 -0.03931127 -0.01499179 -0.015096555
0.013437986 0.0033808302 -0.021574557 -0.01313823 0.015372704 -0.012693411 -0.025259212 0.019671377
-0.030772358 0.023818567 -0.03132966 0.0054592094 0.031057855 0.021212697 0.007680635 0.013067886
0.01917037 -0.035458993 -0.026779812 -0.015592079 -0.01651363 0.001615276 0.01356561 0.008120304
0.018687814 0.027994301 0.013756573 -0.0016224086 0.010067603 -0.000877435 -0.02821745 -0.0062261773
0.016148046 0.039103415 0.03495074 0.0021685413 -0.014380435 0.0037258617 -0.020335486 -0.04010424
0.017039558 -0.040195443 0.016135152 0.027644297 0.02664341 0.019704213 -0.03478799 0.0015872519
0.028821524 -0.028282717 0.009048293 0.03920386 0.00063316524 -0.038414486 0.03655438 0.038731616

dense4.bias f4 [128]
00000000: 44a0 0ebd 36be 28bd be7f fe3c 1e3d a8bc
00000010: 83f7 da3c beff e63c 4012 f8bb 2b65 053d
00000020: 6648 3f3c 7690 e03b 3bf0 3d3c 5f51 07bd
00000030: fe3f 96bc cb7f fc3b ab5d 46bc cb90 193c
00000040: a35b ba3c de77 fd3c 84e6 103d 600b 553c
00000050: a833 97bc e690 b5bc 8b16 b23b fccd 1ebd
00000060: 7612 d0bb a0d6 c63c 96cd 6dbb e346 f1bc
00000070: c093 393b 83af eb3c 16b8 7e3b eb6f 653c
00000080: bf0a 0a3d d065 b7bc 9656 5b3b 6014 3d3c
00000090: 16a1 7a3c 000e 81bc 1888 81bc e09d eebc
000000a0: 004b c5ba 403d 203b 8e8c d0bc cb0b 60bc
000000b0: c8a1 10bd 4a3b 233d 5e22 26bd abfa b439
000000c0: 085f b43c 0ef5 babc 6830 b43c 083a 8f3c
000000d0: c2c3 103d 60d4 b3bb 26b9 ca3c 76f9 f2bb
000000e0: 96ed 8fbb 0b2d 253d ab79 efbc 807b fcbc
000000f0: 6cd0 0c3d 30d0 e53c 2452 15bd 300b c5bc
00000100: f3d6 d03c 2ea8 b23c ab58 16bb d852 29bd
00000110: f822 ff3c 6032 0c3d c65b afbc 208d a3bb
00000120: 5672 0a3d 4307 f5bc bff9 0dbd d3ff a4bc
00000130: 4b3d 93bb 871d 14bd 70ad 84bc 66e6 bfbc
00000140: 53f7 13bd 0ee6 c3bc d0d7 743c 3601 843b
00000150: db13 8fbc f656 56bc 30f9 c6bc e834 c4bc
00000160: f051 013d f03a ee3c 40dc 33bc 26bb 3f3c
00000170: fe75 ce3c 80d4 893a d67f e63b 4fa1 1f3d
00000180: 7b73 763c dbde 223c eb02 68bb 6f75 0c3d
00000190: 5693 123d 2411 19bd 5031 2abd 10f2 813c
000001a0: 2306 d5bc 2eaf a83c 5340 d7bc 0a92 0e3d
000001b0: 566a 443b b447 273d b00c 45bc 3b4d 2a3c
000001c0: f0a1 f63c 80d2 87bc 72b0 1e3d d699 68bb
000001d0: 56ea ec3b e0ac bbbc 4889 cd3c 7005 00bd
000001e0: 90e0 3d3c 06cf b93c 2037 1ebc cc1d 073d
000001f0: b05c cfbc 5692 fc3c 566e 1ebb 6b7d d73b
-0.03482081 -0.041197024 0.031066772 -0.020536955 0.02672935 0.02819812 -0.007570535 0.032567184
0.011674976 0.0068531586 0.01159292 -0.033036586 -0.01834106 0.007705664 -0.012107293 0.0093729
0.022748774 0.030940946 0.035376087 0.0130032 -0.018457249 -0.02216382 0.0054348162 -0.03877066
-0.006349857 0.024272263 -0.003628587 -0.029452747 0.0028316826 0.028770214 0.0038867048 0.014003734
0.033701655 -0.022387415 0.0033468357 0.011540502 0.015297195 -0.015753746 -0.015811965 -0.029128015
-0.0015052259 0.002445057 -0.025457647 -0.013674687 -0.035310537 0.039851464 -0.04056012 0.00034519038
0.02201797 -0.02282193 0.021995738 0.017483726 0.03534294 -0.0054879636 0.024746489 -0.007414992
-0.004392336 0.04032616 -0.02923282 -0.030820608 0.034378454 0.028053373 -0.03645529 -0.024053186
0.02549312 0.02180871 -0.0022941034 -0.04133877 0.031144604 0.03422773 -0.021406066 -0.0049911886
0.033800445 -0.02991069 -0.034662005 -0.020141518 -0.0044933907 -0.036160972 -0.016195983 -0.023425292
-0.03612454 -0.02391341 0.014944032 0.0040284647 -0.017465523 -0.013082257 -0.024288744 -0.023951009
0.031572282 0.029080838 -0.010977805 0.0117023345 0.025202747 0.00105156 0.007034282 0.038972195
0.015042181 0.009940828 -0.003540213 0.03429168 0.03578504 -0.037369862 -0.041550934 0.015862495
-0.026003903 0.020591345 -0.02627579 0.034807242 0.0029970608 0.040839866 -0.012026951 0.01039439
0.030106515 -0.016579866 0.03874249 -0.0035492084 0.0072300835 -0.022909582 0.025089875 -0.031255186
0.011589184 0.022681724 -0.0096566975 0.0329874 -0.025312752 0.030831497 -0.0024174652 0.0065762303

dense5_1.weight f4 [2, 128]
00000000: a9df a03d 2d7d 213b 6145 793b 931b 18bd
00000010: 1b97 92bc 6e6a a63c 4f91 8b3c c847 8f3d
00000020: 0625 6c3d 0e1b 1a3d a766 6e3d 962f 3dbd
00000030: 7f81 e23c 44e4 26bd 6765 393c 550b 7fbd
00000040: d899 b3bd 8bb0 37bc 91b6 9fbd df09 8c3d
00000050: 232c ddbc e6b3 b8bc 9209 d6bc 3d19 843d
00000060: 6d3d 903c 9f61 623d c79b 713d 706c 73bc
00000070: d1f5 b1bd ba72 9fbd 4c5e 9b3d 4090 37bd
00000080: 99a8 59bd a8f9 453d f861 a63c 743d a03c
00000090: c66e 4ebd b1e6 0bbc b165 833d 62f6 82bd
000000a0: 1799 a53d 5796 92bd 01d5 70bd 1e85 983d
000000b0: 394f 9fbd 0f9c 40bd 4f6b 6fbb 7cca 2d3d
000000c0: 59fa 573d b910 0cbd d1d2 053d bd18 cc3b
000000d0: 9b88 4e3d 1394 4c3d 65fe 26bd 152a 813a
000000e0: 7039 4f3d fd9f 80bd 0104 f33c 1858 0c3d
000000f0: 44a6 b8bc 14e9 dbbc d5bc 6bbd b277 8cbc
00000100: 22c3 0a3d de97 6fbd 5bb0 863d ad01 883d
00000110: a013 133d a785 afbc 18a8 a0bc 2996 593c
00000120: d196 84bd 7707 86bd 59eb 803c 2904 da3c
00000130: 5bac dfbb f4b7 5ebd 16f1 f7bc ffce 94bd
00000140: acee a4bc 0c39 543d 6e91 723d 95c5 963d
00000150: 08d4 b4bd 6476 8ebd 2997 79bd 5c58 9dbd
00000160: 84f4 82bd 28cc 3bbd 43ab 35bd e3ef 923d
00000170: 972c 6c3c 52d3 4b3d c2b4 f3bc 79d4 e6bb
00000180: 61be a9bd 1613 21bd 11ad 823d e1e1 5abc
00000190: 3cfb ccbc 2fdc 1e3d 8d9e cd3c 68bc 03bd
000001a0: be9b 41bd c13c 44bb b1c6 b2bd 4434 0abb
000001b0: 439f 663d 8570 2abd 8c4c efbb 131f 96bb
000001c0: 9a02 9dbd c38a 9c3d 6f3a b3bc 76fc 173d
000001d0: a5c3 87bc b13e ab3d 3684 973c 35bb 813d
000001e0: 4943 443d 25d4 fe3c 310e 23bc 8302 693c
000001f0: 1764 13bd 00c8 c63c 12a8 a9bd 3c8a 64bc
00000200: 5bf9 973d efab 90bc 4aab 1b3d 483b d33b
00000210: 38f0 f8bc 22f3 70bd 1fdf aa3d 8f25 73bd
00000220: 298c 68bd 7652 b23d 1cef 3e3b af55 563d
00000230: 826a a5bd 4c4c cfbc 72a7 32bd 99ac 9cbd
00000240: 9542 c13b 685e 033d 58fb aa3c fb50 b3bd
00000250: 6771 bd3c 1004 10bc 987c b2bd 2e60 2abd
00000260: a766 28bd 7ee2 01bd d4e4 9b3d 0017 6a3d
00000270: ea97 ec3c ccd6 84bd c5d9 6bbd eede 213d
00000280: 3934 7b3c 0918 8c3c 70eb cbbc e585 27bc
00000290: 7483 31bd c2e4 5d3d 9592 a93d 3e10 2cbd
000002a0: aeba 823c 3d04 25bc e46a 663d 2277 853c
000002b0: 6c55 e43b d843 8e3c 6789 ac3c 3798 373d
000002c0: 09dd 46bd 9cda da3c 715b 9cbd bf13 1d3b
000002d0: fc7a 853d 8d12 223b c335 5fbd 38b0 8abd
000002e0: 5701 85bd 2458 4b3b bb6c 7cbd 1364 873d
000002f0: 0452 883b f9bb 4b3d 4227 7a3c 63c6 0b3c
00000300: e893 b23d 5327 883c 6826 7a3d aecf b2bd
00000310: 43df 08bc 69c3 e23c 1bf2 1e3b 1112 173d
00000320: a5dd 9cbd 2a72 1a3d c009 1f3c cf78 043d
00000330: 8000 003d e1dd 433d a20d 85bd 197d 8a3b
00000340: b791 913d 57f4 94bd a26a 94bd bdf7 62bd
00000350: 290e 95bd b37f b93c cb76 b43d 2f31 b4bd
00000360: bf2e a63d a9cd 91bd 07df 7c3d 9e60 663d
00000370: 0912 193d 69d4 a83d 820a 00bd ec5f 5b3d
00000380: 949b 9d3d e33b a13d 390d 2fbd e9fc 94bd
00000390: 16f3 a7bd e4cf d63c 89ff 623c 79be 42bd
000003a0: 5cbe cbbc ad83 33bd a8e4 18bc 9ad3 f4bc
000003b0: ad13 c0bb aee7 a6bc 2e86 5e3d ec10 a23d
000003c0: 2493 013d ff38 a43d 539e 4cbd ce60 bebc
000003d0: 6baa 92bc 7644 063c 92a2 863d b568 d93c
000003e0: d302 d73c 2b00 90bd 789f 14bc 202c 70bc
000003f0: 8dcd 7c3c 0c2b 003d 5e0e 043d 8efa aabd
0.0785516 0.002464126 0.0038035738 -0.03713567 -0.017894318 0.020314422 0.017037062 0.06996113
0.057652496 0.037623458 0.058203366 -0.04618796 0.02764964 -0.040745035 0.01131568 -0.062266666
-0.08769578 -0.011211525 -0.07798494 0.0683782 -0.026998585 -0.02254672 -0.02612761 0.06450126
0.017607415 0.05526888 0.05898645 -0.0148573965 -0.08689464 -0.07785554 0.07586345 -0.044815302
-0.053139303 0.048333794 0.020310387 0.019560553 -0.05039861 -0.008538888 0.064158805 -0.0639465
0.0808584 -0.07157581 -0.058796886 0.07447265 -0.077787824 -0.04702383 -0.0036532467 0.042429432
0.052728985 -0.034195635 0.032671753 0.006228535 0.050423246 0.049945902 -0.040769953 0.000985446
0.050591886 -0.06280515 0.029664995 0.0342637 -0.02254022 -0.026844539 -0.05755313 -0.017146919
0.0338775 -0.05849444 0.06576606 0.06640945 0.035907388 -0.021426035 -0.019611403 0.01328043
-0.064740784 -0.065443926 0.015737223 0.026613312 -0.0068259663 -0.05437465 -0.030266326 -0.07266044
-0.020133339 0.051812217 0.059220724 0.073619045 -0.08829504 -0.06956175 -0.060935173 -0.07682869
-0.06394294 -0.045848995 -0.04435278 0.07174661 0.014414928 0.049762078 -0.029749278 -0.0070443717
-0.08288265 -0.039324842 0.06380666 -0.013359518 -0.025022142 0.038784202 0.025100017 -0.0321621
-0.047267668 -0.0029943439 -0.08729304 -0.0021088282 0.056304228 -0.041611213 -0.0073028263 -0.004581341
-0.07666512 0.07643654 -0.02187845 0.037106 -0.016572783 0.08361567 0.01849566 0.06334535
0.04791573 0.031107018 -0.009952114 0.01422179 -0.035984125 0.02426529 -0.0828401 -0.013948973
0.07420608 -0.01766011 0.03800515 0.006446276 -0.030387983 -0.05882562 0.08343338 -0.05936199
-0.056774292 0.087071344 0.002913422 0.052327808 -0.080769554 -0.025304936 -0.04361672 -0.07650108
0.00589783 0.032072455 0.020871803 -0.0875568 0.023125364 -0.008790031 -0.087151706 -0.04159563
-0.041113522 -0.03171014 0.07612005 0.05715084 0.028881032 -0.06486282 -0.057580728 0.039519243
0.015332275 0.017101305 -0.024892539 -0.010224794 -0.043338254 0.05417324 0.082799114 -0.042007677
0.015958156 -0.010071811 0.056254283 0.016292159 0.006968191 0.017366335 0.021061612 0.044822898
-0.04855064 0.02671557 -0.076346286 0.0023968068 0.06517598 0.0024730295 -0.05449463 -0.06771892
-0.06494396 0.0031027878 -0.06162713 0.066108845 0.0041601676 0.04973981 0.015268149 0.008531186
0.08719617 0.016620314 0.061071783 -0.08731018 -0.008354011 0.02768107 0.0024253193 0.036882464
-0.07659463 0.03770653 0.009706914 0.032341775 0.031250477 0.047819022 -0.06496741 0.0042263386
0.07107871 -0.072731666 -0.07246901 -0.055412043 -0.072780915 0.0226439 0.088117205 -0.087984435
0.08114385 -0.07119305 0.061736133 0.056244485 0.037370715 0.08243639 -0.03126002 0.053558275
0.0769569 0.078727506 -0.04273722 -0.07274801 -0.08200662 0.026222177 0.01385487 -0.04754493
-0.024871044 -0.043826748 -0.00933186 -0.029886056 -0.0058617205 -0.020374145 0.054327182 0.07913384
0.031634465 0.08018684 -0.049955677 -0.02323952 -0.017903527 0.008195033 0.065739766 0.026539186
0.026246464 -0.07031282 -0.009071223 -0.014658958 0.0154298665 0.031291053 0.032240264 -0.08348571

dense5_1.bias f4 [2]
00000000: 9bb3 8bbb 5b65 363c
-0.004263354 0.011132563

dense5_2.weight f4 [4, 128]
00000000: cf6f 203d e755 a7bd 3564 90bd b755 50bd
00000010: 90e3 493d 2721 803d 46e0 8e3d 6374 24bc
00000020: 1450 8dbd ecf0 993d d9a2 98bd faf6 aa3d
00000030: 3138 57bd e140 1bbb d512 77bc ccc2 f63a
00000040: cc14 1f3c 7290 18bd 0887 a53d bcc4 eb3c
00000050: 6263 67bd 4a81 31bd 80a7 9d3d ffe6 d83c
00000060: f56c cb3c 5318 90bc d9f8 933d 48a6 e3bc
00000070: d472 91bd 5b58 5fbd 63c8 35bd 190e 3bbd
00000080: b093 97bd 3bcf 8f3d bc80 9cbc b551 69bc
00000090: c331 9d3d 0d61 20bc c3a0 9f3d 291d 84bd
000000a0: 838e 3cbc 8b2f 2abd bb44 2bbd f375 4fbc
000000b0: 3562 813d 22b9 b4bc 34c1 423d bf77 19bd
000000c0: f5c6 943d 023d 293d dc38 0abc fd6e a53c
000000d0: e927 133d da93 a43d f572 01bd 730d 87bd
000000e0: b5e7 ad3d 3d5a 253b 2f8d 293d 8060 823d
000000f0: 1dde 103c 86ac 8c3d 7ca2 863c a88f 49bd
00000100: 2eb3 343d eafc 93bd afa4 a73d 4f6e a8bb
00000110: 020f 8b3d 5980 abbc 7e88 9b3d b8ba 2dbc
00000120: 3ddf 9b3d 5401 adbd 73ac a13d 91b0 0b3d
00000130: d615 233d b85d 273d 5a22 11bd 9c3a 62bd
00000140: af30 603d 0b63 9d3d ebd1 90bc 2ec8 86bc
00000150: 10a4 88bd 8bb7 5abc f305 cd3c 8f2d 293d
00000160: 992a 49bd 51bb dfbc 0b22 2a3d a885 2ebc
00000170: 7a8d 8fbd 8b1c 993c 8535 503d c8a1 7f3d
00000180: a194 b43c 7b57 9b3d d491 22bd 0eb4 d93c
00000190: d6d8 703c 161a 80bc 80d1 2f3d 07fb 193d
000001a0: 3f40 48bd 2541 9bbd f57c 3ebc 6c0c 343d
000001b0: 980b b63c a01d c3bc bc90 9abd ac10 92bd
000001c0: 95ce a93c 226c 223c 1d1d 373d d449 e3bc
000001d0: 01a8 0dbd fdad ae3d c9d3 83bd 5c0f 673d
000001e0: c604 b33d 8dca 8cbd a380 c0bc ea84 913d
000001f0: 285b e6bc d5a7 41bd 2eaf 08ba 3d59 7fbc
00000200: 1c56 a73d 5632 0bbd d24b 753d 546c 89ba
00000210: e3da 2e3d 53a9 8f3d 3d7b afbd 9e62 833d
00000220: 3441 883c 9bf5 fd3b ddef 9e3d 1531 5e3d
00000230: 1df6 2fbd c468 b23d 8a07 8f3d 585d 0cbd
00000240: 06b1 acbd 8af4 19bc 926d 3dbd 9484 363d
00000250: ac06 57bd 99f6 60bd 719b d93c 2eb2 9c3d
00000260: c4cf 0bbd d2f7 74bd f372 b2bd cfe0 713d
00000270: 5032 813d e19b abbd 02e0 2dbd ae9a 803d
00000280: 9653 aebc 4e25 5a3d 506b 293d c66e a03c
00000290: ff12 5e3d 097f adbc 3e32 a53d b2a9 0f3d
000002a0: 3ef3 8b3c 1363 133d 58c4 cc3c 2a7b 32bd
000002b0: b186 553d 55a9 ab3d e720 3dbd 0cc1 a6bd
000002c0: c169 3abc 88c9 013c faf7 823c 74b6 943b
000002d0: b7e8 76bd 3095 f63c 1ef1 0c3d c81d 883c
000002e0: cb9d 68bc ded1 4cbd 1354 5a3d 5ecc c3bc
000002f0: 9669 253d 4344 c13c 5c90 6c3d c7b7 a83d
00000300: 1955 fc3c cad2 8cbd 807f 503d 2bcd 87bc
00000310: c4c5 31bd 02a2 c3bc 5131 ad3c 14a9 fa3c
00000320: 6507 503b 8380 f9bb e3bd b83c 3340 163d
00000330: 1b29 a0bd 3a0e acbd c55e 833d 239a 443d
00000340: f159 a7bc 3999 963d 9a46 f8bc 2153 a03b
00000350: dc17 f53c d7c0 8dbd 3526 373d 02d7 3fbd
00000360: f714 3abd 9390 c73c 6947 febc d433 e1bb
00000370: 7423 ea3c 841a 6cbd 2605 8f3d b358 973c
00000380: e852 05bd b4d5 903d bd5f 4ebd eec0 a33d
00000390: 7b0d ad3d ab83 a7bd 1f6d b23d 3dd8 d73b
000003a0: 419a cb3b f728 18bd 86c7 a9bd 7ae9 1abd
000003b0: 95aa 883c 4d07 0b3d fa6a 563d 2556 2fbd
000003c0: 5f27 933d 291f 2e3d d560 933c 5213 57bd
000003d0: eead afbd 0881 9f3d 3aeb ef3c 7ee2 c23c
000003e0: 99e4 58bd 0beb 593d 2d94 8bbd c15e 4a3d
000003f0: d04d 6abd 74cf 0a3d 50c3 97bd 7b27 f5bc
0.03916913 -0.081706814 -0.07050363 -0.050862994 0.049289286 0.06256323 0.069763705 -0.010037514
-0.06900039 0.07516655 -0.07452936 0.08347888 -0.052543823 -0.0023689794 -0.0150801735 0.0018826365
0.009709548 -0.03724713 0.08082396 0.028780334 -0.056491263 -0.04333619 0.07697964 0.026477335
0.024832228 -0.017589724 0.07225198 -0.02778925 -0.0710198 -0.05452762 -0.044380557 -0.04566774
-0.07401216 0.07021948 -0.019104354 -0.014240672 0.07675507 -0.009788764 0.07794335 -0.06450874
-0.011508587 -0.041549247 -0.041813593 -0.012662399 0.0631756 -0.022060934 0.047547534 -0.037467714
0.072645105 0.041317947 -0.008436408 0.020194525 0.035926733 0.08036013 -0.031603772 -0.06594362
0.0849146 0.0025230788 0.04139441 0.06366062 0.008842018 0.06868844 0.0164349 -0.049209267
0.04411619 -0.07225974 0.08185708 -0.005140103 0.06789972 -0.020935224 0.07594393 -0.010603599
0.07610939 -0.08447519 0.0789422 0.034103934 0.039815746 0.04086086 -0.03543315 -0.055231676
0.05473393 0.076849066 -0.017678222 -0.016452875 -0.066719174 -0.013349424 0.02502725 0.041303214
-0.04911289 -0.027311 0.041536372 -0.010651983 -0.070094064 0.018690368 0.05083229 0.062410146
0.022043528 0.07585045 -0.039689854 0.026575115 0.014700135 -0.015637439 0.042924404 0.037592914
-0.048889395 -0.07580785 -0.011626472 0.04395716 0.022222325 -0.023817837 -0.07547137 -0.07132086
0.020728389 0.009913476 0.0447055 -0.027745165 -0.03458405 0.085292794 -0.06436879 0.056411132
0.08741145 -0.06874571 -0.023498839 0.071054295 -0.028119639 -0.047279198 -0.0005214092 -0.015585241
0.08170721 -0.03398355 0.05988676 -0.0010484555 0.042689215 0.07014718 -0.08568428 0.06415294
0.016632654 0.0077502257 0.07760594 0.054246027 -0.04295932 0.08711389 0.0698386 -0.034268707
-0.08432202 -0.009396682 -0.046247073 0.04456003 -0.052496597 -0.054922674 0.026563378 0.076511726
-0.034133688 -0.059806652 -0.08713331 0.059052285 0.063084245 -0.08379341 -0.04244996 0.06279503
-0.021280091 0.053258233 0.041362107 0.01958407 0.054217335 -0.02117874 0.080662236 0.035073943
0.01708376 0.035983156 0.024995968 -0.04357449 0.052130405 0.08381907 -0.046173956 -0.081422895
-0.011377753 0.007921584 0.015987385 0.0045383517 -0.060280528 0.030100435 0.034409635 0.016615763
-0.014197777 -0.050004832 0.053302836 -0.02390116 0.040383898 0.02359212 0.05775486 0.08238178
0.030802296 -0.06876142 0.050902843 -0.016577324 -0.043401495 -0.023880962 0.02114168 0.0305982
0.0031742689 -0.0076141967 0.022551483 0.03668232 -0.0782034 -0.08401151 0.0641456 0.04799856
-0.02042863 0.07353444 -0.030307103 0.0048927222 0.029918604 -0.06921547 0.04471417 -0.046835907
-0.04543015 0.02436093 -0.03103991 -0.0068726335 0.028581358 -0.057642475 0.06983404 0.018474912
-0.03254977 0.07072011 -0.050384272 0.07995783 0.08449837 -0.081794105 0.087122194 0.006587057
0.006213457 -0.037148442 -0.08290009 -0.037820317 0.016682902 0.03394251 0.052348115 -0.042806763
0.07185244 0.042510185 0.017990509 -0.05250866 -0.08578096 0.07788283 0.02928697 0.02378964
-0.052952383 0.05320267 -0.06815372 0.04940677 -0.057203114 0.03388925 -0.074103 -0.029926052

dense5_2.bias f4 [4]
00000000: ea9d b13d 2d04 78bc 8080 14bd fcae a83d
0.08672698 -0.015137714 -0.03625536 0.082365006
